models/LSTM/OLD/ESEN_60-40/ESEN_60-40_3_best_loss.pt (torch, 353807 bytes, 7 tensors)

weight f4 [29, 32]
0.5410272 0.10582349 -1.2456505 0.028129244 2.859943 0.9901306 2.5362413 -1.1006132
0.67988366 -1.1845769 0.33186674 1.5853379 0.9085912 0.6201673 -0.85709417 -0.87227297
-0.27283403 -0.33661327 0.30265826 -0.64061403 -0.38164532 -0.5128536 -2.3702164 -0.25053805
-0.044840526 -1.9978925 1.1838768 -0.53820294 -0.1865649 -1.2985048 -0.50371325 -0.99891937
0.66040576 0.14872164 0.5264933 -2.2710803 1.5447866 -1.75347 0.81040025 1.2045826
0.7783625 -1.7964098 0.72205985 0.09544053 -1.627563 0.17938332 0.26024258 -1.4684656
-0.84724027 0.5197698 0.76692665 0.24845994 2.138382 0.23507915 0.7725658 0.37066534
-0.65991944 0.096817024 0.25567082 -1.484696 -1.6592677 1.0264181 -0.8857325 -0.23339193
-0.30130377 1.0085891 -0.4677287 2.2067282 -0.9409351 -1.0137318 0.47363076 1.5735978
0.79684716 0.6834569 0.7411363 -0.9536991 0.4657208 0.7427518 1.6576366 1.1636447
-0.35412717 1.1617501 0.13327941 -0.7876122 2.0256271 -0.83878547 -0.02689724 -1.4252304
-1.4686756 0.45837304 0.2617962 -0.9841656 1.2523704 2.3418107 0.7271877 -1.4891304
0.8644071 0.5833649 0.82043993 2.5775032 -0.6306043 -0.22030018 -2.217566 -1.5114986
-0.07927442 -0.63113576 1.7484175 0.5985976 -0.38120446 -0.60091066 0.5329587 0.40861437
-1.7245768 -0.49829593 -0.54828805 2.637466 3.8019886 -0.068643846 -1.1042594 0.36085987
1.0244397 -0.22499864 -0.052605286 0.7514429 -0.23998643 -0.28476182 -1.3673122 -1.2770442
2.023022 -0.09070349 -0.036280047 -1.0117018 1.3217944 2.466511 1.8841951 0.16176866
2.3592463 -0.65741664 -0.36239216 -0.19160508 0.36318892 -1.1287448 -2.1135244 0.791139
2.6243007 -0.10508034 -0.20258278 -1.566389 -1.1281574 1.0443759 -0.45165583 -0.57630897
-0.80036336 0.25455254 0.14415263 -0.51361465 -0.046513226 -0.51617503 -0.77030677 -0.11703811
-1.1177137 0.19425854 -0.044159606 0.24829023 -0.7347803 2.9550736 -0.3203985 0.5094254
-1.4837632 -3.0801523 -0.7960941 -0.94088554 0.97191066 1.6202416 2.1213124 -1.1114256
-0.64869756 0.3185043 2.0592482 1.5287498 1.2213671 0.27030247 -0.80539554 -1.5896007
-0.47071618 0.1040046 0.7070937 0.18188828 0.49858204 -0.8539136 -0.9300463 0.59402794
-0.22748224 -0.525944 0.13175619 1.651782 0.0914623 0.19323152 1.2174346 0.29581264
-0.38805395 0.9409567 0.9723074 -1.1300912 -1.4516078 0.8616893 0.52021646 -0.794034
0.4108868 -0.09636152 -2.382351 0.9078204 0.8362832 2.9231489 1.2436088 0.14933977
-1.6645086 0.99072057 1.0520989 1.1549121 -1.790117 -0.3536194 0.69397944 -1.0797523
2.9155498 -2.4198222 0.3409316 -0.18185869 0.22324453 -0.34800896 -1.3889842 1.1630986
-0.34713188 -2.527946 0.2801509 0.18686773 -0.31229258 -1.9688575 1.2501076 -1.1384839
-0.7937088 -0.010575927 0.96574104 -0.2766195 1.6101707 0.46339065 -1.6054797 -0.58228254
1.8345252 1.2183334 1.1296786 0.5959144 -0.46567327 1.3493237 1.1109178 0.31606117
00000000: c280 0a3f fcb9 d83d 7a71 9fbf 4d6f e63c
00000010: 4e09 3740 3379 7d3f c751 2240 e5e0 8cbf
00000020: db0c 2e3f 37a0 97bf 70ea a93e 5aec ca3f
00000030: 6f99 683f 49c3 1e3f 866a 5bbf 484d 5fbf
00000040: e7b0 8bbe 9358 acbe 06f6 9a3e 48ff 23bf
00000050: 0467 c3be 604a 03bf a0b1 17c0 8646 80be
00000060: b3aa 37bd f1ba ffbf 4689 973f abc7 09bf
00000070: df0a 3fbe 6835 a6bf 5af3 00bf 2eb9 7fbf
00000080: 5a10 293f 7c4a 183e 44c8 063f 6159 11c0
00000090: 91bb c53f b471 e0bf 6476 4f3f c32f 9a3f
000000a0: c442 473f c2f0 e5bf ead8 383f 5376 c33d
000000b0: fc53 d0bf 43b0 373e 843e 853e aef6 bbbf
000000c0: bde4 58bf a20f 053f 4e55 443f 486c 7e3e
000000d0: 40db 0840 97b8 703e dfc6 453f d9c7 bd3e
000000e0: 7bf0 28bf 0148 c63d 49e7 823e 850a bebf
000000f0: e262 d4bf ab61 833f 5dbf 62bf 4bfe 6ebe
00000100: 7d44 9abe 7319 813f 237a efbe 093b 0d40
00000110: 1fe1 70bf f7c1 81bf bb7f f23e a76b c93f
00000120: 2dfe 4b3f 08f7 2e3f 1cbb 3d3f a025 74bf
00000130: f572 ee3e fb24 3e3f 702d d43f 4ff2 943f
00000140: 2850 b5be 3ab4 943f 667a 083e f4a0 49bf
00000150: e0a3 0140 a5ba 56bf 9a57 dcbc f36d b6bf
00000160: 90fd bbbf dfaf ea3e 270a 863e 47f2 7bbf
00000170: ac4d a03f 3ae0 1540 f928 3a3f d39b bebf
00000180: c949 5d3f 6757 153f 5a08 523f d0f5 2440
00000190: 496f 21bf 5f96 61be 9aec 0dc0 c978 c1bf
000001a0: a15a a2bd 1d92 21bf 25cc df3f b13d 193f
000001b0: 3b2d c3be 48d5 19bf fb6f 083f e735 d13e
000001c0: efbe dcbf a520 ffbe 9b5c 0cbf 3ecc 2840
000001d0: c853 7340 2595 8cbd 5f58 8dbf a0c2 b83e
000001e0: d720 833f 0b66 66be a478 57bd 905e 403f
000001f0: 01bf 75be 4dcc 91be 1604 afbf 2f76 a3bf
00000200: 3179 0140 c0c2 b9bd 639a 14bd 727f 81bf
00000210: 8f30 a93f 51db 1d40 4e2d f13f afa6 253e
00000220: e4fd 1640 754c 28bf 778b b9be 1f34 44be
00000230: e6f3 b93e b67a 90bf fc43 07c0 1688 4a3f
00000240: 8bf4 2740 5c34 d7bd dc71 4fbe 6f7f c8bf
00000250: 7667 90bf 1cae 853f 6f3f e7be fc88 13bf
00000260: 9de4 4cbf b654 823e bf9c 133e 407c 03bf
00000270: a784 3ebd 0c24 04bf d332 45bf adb1 efbd
00000280: 3e11 8fbf b6eb 463e b4e0 34bd cb3f 7e3e
00000290: 901a 3cbf ed1f 3d40 460b a4be b469 023f
000002a0: f4eb bdbf 3721 45c0 d3cc 4bbf e0dd 70bf
000002b0: 23cf 783f 1464 cf3f 95c3 0740 3243 8ebf
000002c0: 0b11 26bf ff12 a33e b9ca 0340 13ae c33f
000002d0: c255 9c3f 1665 8a3e 672e 4ebf 0978 cbbf
000002e0: b601 f1be 5d00 d53d 1804 353f ec40 3a3e
000002f0: 2546 ff3e 159a 5abf 8417 6ebf 3712 183f
00000300: 1bf1 68be 44a4 06bf 18eb 063e 986d d33f
00000310: 9650 bb3d 7cde 453e e6d4 9b3f c174 973e
00000320: 02af c6be 8ae2 703f 23e9 783f d4a6 90bf
00000330: 49ce b9bf ac97 5c3f e82c 053f d045 4bbf
00000340: c15f d23e 3059 c5bd 7078 18c0 eb66 683f
00000350: a816 563f df14 3b40 932e 9f3f 86ec 183e
00000360: 9e0e d5bf dd9f 7d3f 2dab 863f 29d4 933f
00000370: 8e22 e5bf 9a0d b5be a3a8 313f 5335 8abf
00000380: 5e98 3a40 5ede 1ac0 968e ae3e 2a39 3abe
00000390: 379a 643e 3b2e b2be 3cca b1bf 6ae0 943f
000003a0: 45bb b1be dec9 21c0 f06f 8f3e 415a 3f3e
000003b0: d0e4 9fbe 8603 fcbf 8703 a03f d7b9 91bf
000003c0: 8030 4bbf a746 2dbc ce3a 773f 12a1 8dbe
000003d0: 131a ce3f 8a41 ed3e 5c80 cdbf 7810 15bf
000003e0: b9d1 ea3f 59f2 9b3f 4f99 903f d98d 183f
000003f0: ba6c eebe a4b6 ac3f 8e32 8e3f c5d2 a13e

weight_ih_l0 f4 [512, 32]
0.10497744 -0.010255621 0.026226541 0.11897584 -0.018679377 0.377884 -0.2520972 -0.43647504
-0.26170337 -0.08714889 0.18354931 -0.06402325 0.21334365 -0.03004257 -0.12732452 -0.2072125
0.2835915 -0.1554851 -0.1418153 0.36283556 -0.10363617 -0.19223921 -0.037687637 -0.0804027
0.11932777 -0.06088282 0.20291968 0.2719261 -0.07707374 0.06234374 -0.02516799 0.16015273
0.035414603 0.24397184 0.07621363 0.08316021 -0.077524535 0.050373517 0.058637127 0.07621663
-0.12324987 -0.137037 0.090162985 -0.06893223 -0.16192624 0.003843452 -0.17176335 -0.009991432
0.076925 0.10269817 0.04387668 -0.08342668 -0.04359519 0.007583017 -0.038729914 -0.04497253
0.01386799 -0.05789457 -0.010063265 -0.032951348 -0.20766577 0.031411503 0.02398973 -0.1383612
-0.1250645 0.33712646 -0.12239847 0.014033638 -0.03554221 -0.076871336 -0.1088756 0.4256797
-0.033318616 -0.029877841 0.03405825 0.017738892 -0.13732779 -0.13727914 0.041992806 -0.12313178
0.028973358 0.10007676 0.24795508 0.17297901 0.14019246 0.047591235 0.013647947 0.0853935
-0.18909238 -0.1406209 0.12333645 -0.27609468 -0.010702178 0.27625284 0.0016836505 -0.16380462
-0.09623715 0.18314606 -0.17478786 -0.014252886 -0.022901976 0.08534676 0.03582288 -0.14752921
0.01388905 0.02873754 -0.016812092 0.09215215 -0.07807191 0.013785405 0.024205029 -0.059446834
0.051249117 0.07214576 0.0991444 0.17914522 0.0622438 0.032521434 -0.005342208 -0.018141733
-0.121271 -0.1053919 0.054772377 -0.17351593 -0.042463608 0.004834409 -0.14178066 -0.310651
0.56426525 -0.2038591 -0.35756814 -0.12600991 0.047127392 -0.05115111 0.069609344 0.01394225
0.21091463 -0.21951431 0.15041472 0.31368133 0.11711098 0.062046558 -0.17550087 0.16749635
-0.09950615 0.14520742 -0.077989906 -0.42617235 -0.25907964 0.31063297 0.2836579 0.22310966
-0.036805686 0.0833812 0.09844808 -0.033540312 0.023058625 -0.056321017 -0.014392566 0.083236545
-0.031919632 0.19194084 0.03605186 -0.02963876 0.25067595 0.060364928 0.12998077 0.009300408
-0.24085025 -0.23375192 0.22448547 -0.19511147 -0.3954045 -0.26240662 0.08933346 -0.109987766
0.29581982 -0.10939098 0.13562274 -0.174978 0.03588126 0.28995773 -0.05224939 -0.041581534
-0.05052247 0.13043314 -0.15324524 0.20535064 0.032468066 0.13349418 0.13205267 -0.39905894
0.1371467 0.41552833 0.0356556 0.15520021 0.10362093 0.21273188 -0.16835241 -0.05322735
-0.007887078 0.041487448 0.71589893 -0.068078876 0.02005558 -0.08786271 -0.068263635 0.07495845
-0.070483245 0.21092643 -0.017230118 -0.325345 0.26039636 -0.00919043 -0.07692004 -0.408152
-0.020600231 -0.051693384 -0.021978067 -0.005500902 0.25563788 -0.26069877 -0.39058587 -0.23485564
-0.04479553 0.39404783 -0.14988057 0.1007892 0.07221459 -0.10154087 0.08854089 -0.13480796
-0.12876245 0.20449765 0.040326912 0.005740955 -0.20974582 0.15242429 0.25870606 0.101607814
0.053900357 -0.20707303 0.13192582 0.12920469 0.12004975 -0.15513691 -0.17456245 -0.30730742
-0.06841724 -0.18816127 -0.008658305 0.23318297 -0.00901009 0.2910938 0.22185017 -0.4313427
00000000: 69fe d63d 3107 28bc 0bd9 d63c 9ba9 f33d
00000010: 7e05 99bc 037a c13e e212 81be a879 dfbe
00000020: fcfd 85be 1e7b b2bd 5af4 3b3e 9f1e 83bd
00000030: c276 5a3e d61b f6bc 5c61 02be 832f 54be
00000040: e832 913e 7c37 1fbe 0838 11be 95c5 b93e
00000050: 333f d4bd 5bda 44be 5a5e 1abd 2caa a4bd
00000060: 1e62 f43d 4460 79bd 2dca 4f3e e639 8b3e
00000070: d6d8 9dbd 265c 7f3d 1a2d cebc 14ff 233e
00000080: e70e 113d c1d3 793e e415 9c3d e64f aa3d
00000090: 2fc5 9ebd 7654 4e3d 7c2d 703d 7717 9c3d
000000a0: 6e6a fcbd 6d53 0cbe 5fa7 b83d 572c 8dbd
000000b0: fecf 25be 6de2 7b3b bbe2 2fbe 1ab3 23bc
000000c0: db8a 9d3d 6b53 d23d 09b8 333d 9bdb aabd
000000d0: df90 32bd f57a f83b 42a3 1ebd 1e35 38bd
000000e0: 9136 633c db22 6dbd 65e0 24bc fef7 06bd
000000f0: 56a6 54be 59a9 003d 1c86 c43c 8fae 0dbe
00000100: e910 00be d79b ac3e 0dac fabd 58ed 653c
00000110: b594 11bd b86e 9dbd 2cfa debd b1f2 d93e
00000120: 1a79 08bd 60c2 f4bc aa80 0b3d 2751 913c
00000130: a89f 0cbe e792 0cbe a600 2c3d 842c fcbd
00000140: 8959 ed3c 0bf5 cc3d f0e7 7d3e 6921 313e
00000150: 9d8e 0f3e 07ef 423d a49b 5f3c cae2 ae3d
00000160: 6fa1 41be edfe 0fbe d297 fc3d 485c 8dbe
00000170: 3058 2fbc 0371 8d3e f0ad dc3a 66bc 27be
00000180: fc17 c5bd a48a 3b3e 97fb 32be f084 69bc
00000190: ed9c bbbc 48ca ae3d 03bb 123d e611 17be
000001a0: e68e 633c fd6a eb3c 83b9 89bc 44ba bc3d
000001b0: 2ae4 9fbd 2edc 613c a049 c63c 867e 73bd
000001c0: 98ea 513d 28c1 933d 380c cb3d d871 373e
000001d0: 5bf3 7e3d 3235 053d b00d afbb f99d 94bc
000001e0: ee5c f8bd b5d7 d7bd 0059 603d 29ae 31be
000001f0: 52ee 2dbd f669 9e3b f32e 11be a60d 9fbe
00000200: b073 103f 71c0 50be 2c13 b7be be08 01be
00000210: a708 413d d483 51bd 588f 8e3d 096e 643c
00000220: 01fa 573e 5cc8 60be 5106 1a3e d79a a03e
00000230: e2d7 ef3d 8824 7e3d 80b6 33be 2a84 2b3e
00000240: e1c9 cbbd 41b1 143e 2cb9 9fbd 4333 dabe
00000250: 16a6 84be 490b 9f3e 9c3b 913e dc76 643e
00000260: 8fc1 16bd c3c3 aa3d 269f c93d 9161 09bd
00000270: 71e5 bc3c deb0 66bd ccce 6bbc ec77 aa3d
00000280: 29be 02bd 248c 443e 1dab 133d fccc f2bc
00000290: 9958 803e 3741 773d ae19 053e bd60 183c
000002a0: 73a1 76be aa5c 6fbe 85df 653e 4dcb 47be
000002b0: 7572 cabe 295a 86be 76f4 b63d 4441 e1bd
000002c0: b275 973e 6108 e0bd b0e0 0a3e 6f2d 33be
000002d0: 3af8 123d 5775 943e 7503 56bd 6651 2abd
000002e0: a6f0 4ebd 4490 053e 52ec 1cbe 7047 523e
000002f0: 3cfd 043d b3b2 083e d138 073e 7451 ccbe
00000300: 2f70 0c3e 21c0 d43e 9b0b 123d ceec 1e3e
00000310: 3637 d43d 63d6 593e 9364 2cbe ec04 5abd
00000320: ce38 01bc beee 293d 2745 373f f06c 8bbd
00000330: 9a4b a43c 5df1 b3bd cecd 8bbd d183 993d
00000340: 8559 90bd 19fd 573e 2d26 8dbc 9f93 a6be
00000350: ac52 853e 7593 16bc 4188 9dbd 4df9 d0be
00000360: d1c1 a8bc 71bc 53bd 590b b4bc e940 b4bb
00000370: f8e2 823e 4f7a 85be dffa c7be ff7d 70be
00000380: 857b 37bd a3c0 c93e 4b7a 19be 916a ce3d
00000390: 3ee5 933d a9f4 cfbd ed54 b53d 190b 0abe
000003a0: 4eda 03be d567 513e d52d 253d 9f1e bc3b
000003b0: 9cc7 56be 1d15 1c3e 1f75 843e c217 d03d
000003c0: 9fc6 5c3d f40a 54be 9017 073e 3c4e 043e
000003d0: a5dc f53d 36dc 1ebe 80c0 32be 6657 9dbe
000003e0: 571e 8cbd 59ad 40be 90db 0dbc 84c7 6e3e
000003f0: 0e9f 13bc 3f0a 953e b12c 633e f3d8 dcbe

weight_hh_l0 f4 [512, 128]
-0.066304356 -0.014104268 -0.14444359 -0.07792752 -0.3070043 0.25463712 0.11361888 0.29370502
-0.14306833 -0.049640834 0.23044088 -0.37383604 -0.13183168 0.082771674 -0.09695351 0.23235913
-0.17336367 0.08900118 -0.20548078 0.21283236 0.14669825 -0.1936735 -0.027807228 0.27168545
-0.017236874 -0.17579083 -0.15898997 -0.28938162 -0.20352694 -0.026387682 0.15254717 0.05513593
-0.118044026 0.24353276 -0.06481218 0.38319978 0.2939717 0.37298036 0.34177625 -0.31873664
0.084590316 -0.11154852 -0.62135285 -0.20921585 -0.18479283 -0.20056006 0.12593336 0.034332246
-0.38314953 0.15544537 -0.11457182 0.077879444 0.16645698 -0.16919103 0.067956924 -0.06604692
0.40588698 0.35443568 0.124959916 -0.124765225 -0.20868146 -0.32037482 -0.07569865 -0.03478738
0.053298965 0.3963208 -0.15466614 0.21594828 0.034921627 -0.107945435 -0.16757084 -0.053310547
-0.6059375 -0.20014316 0.31355304 -0.13446876 -0.060727667 -0.28319848 -0.056154642 -0.20251806
-0.19370133 -0.17830442 -0.042236943 0.4246925 0.036983885 0.22922702 0.16387297 0.19034573
0.06034851 -0.002280219 -0.25470045 0.2950071 -0.07971579 -0.17933203 -0.3102252 0.2201444
0.14451802 0.33544397 0.35847914 -0.59947145 -0.1448147 -0.05453983 -0.037949067 -0.066951886
0.280645 0.26744178 -0.6210636 -0.029956702 -0.025289813 0.25839168 0.06377883 -0.053910304
-0.39905334 0.4525045 0.14023884 0.13151932 -0.233697 -0.13535579 -0.16531733 0.32777864
0.13955739 -0.23002873 -0.07680167 -0.040536296 0.19934064 -0.12593243 -0.0796414 0.07063284
-0.14987034 -0.091320485 0.08389451 -0.56080586 0.018542854 0.44065973 -0.34879467 -0.020116145
-0.2887399 -0.061570857 -0.03854514 0.0017439752 -0.044517826 0.33772385 -0.31482452 -0.21029472
-0.005194552 0.1817918 -0.015190717 0.2088679 0.10051747 0.0674707 0.112014554 -0.05437071
-0.008542663 -0.46899247 -0.45288736 0.053599633 -0.5365733 0.008766999 0.2460433 -0.08234426
-0.38858032 -0.12447067 -0.17980061 -0.17851602 0.42781624 0.07400621 0.27399233 -0.3210462
0.03302978 -0.01196083 0.15029112 0.24195005 0.27012846 -0.017671768 0.18921584 -0.09393714
0.22321418 -0.29202956 0.0628643 0.014278137 0.013592744 -0.11635072 0.15259035 -0.31608075
0.08327004 -0.044416264 0.21052492 0.29133776 0.17710792 0.18706684 -0.05502399 0.10319488
-0.30480725 -0.08163327 -0.25888053 0.06908642 0.35223728 0.36396566 -0.002052868 -0.43628168
0.0007323503 0.13244832 0.11790641 -0.10421537 0.13881862 -0.0400276 0.3000391 0.12918225
-0.41226944 -0.46071035 0.028891621 -0.012777398 -0.11723858 -0.026148425 -0.21855715 0.1317415
-0.14036326 -0.09505369 -0.14812057 0.27840143 -0.05706021 0.49882126 -0.27209166 -0.14010195
-0.4739979 0.15469725 -0.02330098 -0.009473967 -0.22087371 0.039989844 -0.13282266 0.008098251
0.40850678 0.09342128 -0.0013963227 0.048343163 -0.27343082 0.25847813 -0.05317439 -0.15002073
-0.48086196 -0.66862196 0.014572358 -0.52528256 0.3929815 -0.1972615 -0.1051321 -0.2642057
0.058415815 0.0706903 -0.20398213 -0.17312957 -0.1456495 -0.20675927 -0.009412694 0.102165505
00000000: 94ca 87bd 9615 67bc 05e9 13be 7798 9fbd
00000010: ab2f 9dbe cc5f 823e 04b1 e83d 8160 963e
00000020: 8180 12be 3054 4bbd b2f8 6b3e 7067 bfbe
00000030: e2fe 06be 3284 a93d 908f c6bd 8def 6d3e
00000040: 3f86 31be 4046 b63d 8e69 52be baf0 593e
00000050: 1138 163e 5952 46be fccb e3bc 5b1a 8b3e
00000060: 5834 8dbc 8302 34be 44ce 22be d429 94be
00000070: 5e69 50be fb2a d8bc 5335 1c3e 37d6 613d
00000080: 11c1 f1bd a760 793e 40bc 84bd c332 c43e
00000090: 7583 963e 48f7 be3e 4cfd ae3e 7331 a3be
000000a0: b03d ad3d 8d73 e4bd fb10 1fbf ae3c 56be
000000b0: 553a 3dbe 9e5f 4dbe adf4 003e f89f 0c3d
000000c0: 2d2c c4be 122d 1f3e a1a4 eabd 427f 9f3d
000000d0: b373 2a3e 6a40 2dbe 002d 8b3d 9c43 87bd
000000e0: 6bd0 cf3e 9878 b53e fcea ff3d e984 ffbd
000000f0: 98b0 55be 2b08 a4be e507 9bbd 367d 0ebd
00000100: 0450 5a3d 8fea ca3e cd60 1ebe 8c21 5d3e
00000110: fb09 0f3d 7f12 ddbd b197 2bbe 295c 5abd
00000120: b81e 1bbf 54f2 4cbe 068a a03e 2eb2 09be
00000130: 93bd 78bd 64ff 90be 6902 66bd e560 4fbe
00000140: a459 46be 6f95 36be a500 2dbd 4c71 d93e
00000150: 6a7c 173d 7dba 6a3e 51ce 273e fee9 423e
00000160: 0030 773d ba6f 15bb 1968 82be 2c0b 973e
00000170: 0842 a3bd d1a2 37be d6d5 9ebe 896d 613e
00000180: 88fc 133e 50bf ab3e 948a b73e f676 19bf
00000190: 4e4a 14be 2865 5fbd 7b70 1bbd 121e 89bd
000001a0: b4b0 8f3e 21ee 883e 06fe 1ebf c267 f5bc
000001b0: 952c cfbc ea4b 843e 7a9e 823d 0dd1 5cbd
000001c0: b850 ccbe abae e73e c59a 0f3e 00ad 063e
000001d0: 444e 6fbe b59a 0abe f248 29be 9ad2 a73e
000001e0: 22e8 0e3e a78c 6bbe 324a 9dbd 6309 26bd
000001f0: f41f 4c3e 6ef4 00be 081b a3bd f3a7 903d
00000200: 9c77 19be 3c06 bbbd e3d0 ab3d f990 0fbf
00000210: 2fe7 973c 279e e13e 3795 b2be 9dca a4bc
00000220: b7d5 93be b931 7cbd 82e1 1dbd 1996 e43a
00000230: 5358 36bd 24ea ac3e ae30 a1be 8057 57be
00000240: 0f37 aabb a127 3a3e 7ce2 78bc 77e1 553e
00000250: 1adc cd3d 142e 8a3d e367 e53d d2b3 5ebd
00000260: 87f6 0bbc c81f f0be dae0 e7be 4a8b 5b3d
00000270: de5c 09bf 75a3 0f3c c6f2 7b3e 1ba4 a8bd
00000280: 00f4 c6be 7bea febd a71d 38be e7cc 36be
00000290: bb0a db3e 9190 973d b948 8c3e 2b60 a4be
000002a0: 3c4a 073d 5bf7 43bc eae5 193e c1c1 773e
000002b0: 474e 8a3e 62c4 90bc ccc1 413e 1e62 c0bd
000002c0: 4292 643e e684 95be 00bf 803d d9ee 693c
000002d0: 1ab4 5e3c 4949 eebd a540 1c3e 56d5 a1be
000002e0: 7c89 aa3d d4ed 35bd d893 573e 392a 953e
000002f0: c75b 353e 738e 3f3e d660 61bd d657 d33d
00000300: b20f 9cbe 582f a7bd fd8b 84be 2e7d 8d3d
00000310: 7258 b43e b559 ba3e 6989 06bb 5060 dfbe
00000320: 32fb 3f3a 88a0 073e ea78 f13d de6e d5bd
00000330: 7826 0e3e fbf3 23bd ba9e 993e 5a48 043e
00000340: fb14 d3be 3ae2 ebbe 1fae ec3c 4b58 51bc
00000350: c81a f0bd 3935 d6bc 72cd 5fbe 3ee7 063e
00000360: 63bb 0fbe 82ab c2bd ebac 17be a28a 8e3e
00000370: f7b7 69bd 8065 ff3e 994f 8bbe e376 0fbe
00000380: daaf f2be f568 1e3e b2e1 bebc b338 1bbc
00000390: b82c 62be 64cc 233d aa02 08be 87ae 043c
000003a0: cd27 d13e a853 bf3d d104 b7ba 7b03 463d
000003b0: 20ff 8bbe 3f57 843e 64cd 59bd 099f 19be
000003c0: 8a33 f6be cf2a 2bbf e6c0 6e3c eb78 06bf
000003d0: df34 c93e ebfe 49be 804f d7bd f845 87be
000003e0: 6c45 6f3d 13c6 903d b1e0 50be e148 31be
000003f0: 2425 15be b4b8 53be b337 1abc 263c d13d

bias_ih_l0 f4 [512]
0.20948528 0.012104757 0.043947674 0.0788203 0.16772409 0.06498706 0.17024675 0.18003057
0.085642464 0.12799455 0.2157862 0.05829358 0.20544364 0.0842745 0.0860844 0.02514663
0.08153703 0.0283505 0.17788815 0.1958247 0.21531533 -0.01577142 0.08436188 0.04940432
0.207854 0.13344331 0.23248969 0.16871968 0.21011601 -0.0018644311 0.07973904 0.0069732945
0.17455365 0.055044316 0.13780198 0.098168045 -0.037090782 0.09749457 0.28192455 0.03439926
0.14048488 0.12419872 0.04922295 0.28302127 0.13754438 -0.0069093932 0.10395243 0.2033261
-0.052520517 0.07778219 0.12498279 0.09594105 0.18163526 0.2683879 0.100312695 -0.055182766
0.2729799 0.055886205 0.19828826 -0.01916808 0.07443114 0.16856338 0.0038153944 0.113258526
0.20529011 0.2088154 0.20237686 0.07459318 0.031524166 -0.048323758 0.1845456 0.26570803
0.1699759 0.12884903 0.044421647 0.06148908 0.0527842 0.11178043 0.16885051 0.16170585
0.1404791 0.10202189 0.14880778 0.11221146 0.19589221 0.1048547 0.12806803 0.18125454
0.030924648 0.08398231 -0.009689089 0.15218876 0.22279204 0.13809411 0.24670507 0.2001654
0.13427871 0.04646025 0.18447329 0.052958284 0.0020759332 0.17381006 -0.09619556 0.18368311
0.009084359 0.11443279 -0.01564876 0.11828929 0.105272256 0.082402475 0.059118 0.16952185
0.22734897 0.15885434 0.07186895 0.20090955 0.07062664 0.085492626 0.11043931 0.12464344
0.19981106 0.11790699 0.1417887 0.12749071 0.052556135 0.09340564 0.06771116 0.08491107
-0.2139752 0.043396443 -0.045357052 0.14195915 -0.08240622 -0.016832726 -0.15879719 0.17153275
-0.1283449 -0.06713506 0.09066666 -0.16671377 0.11212043 -0.018186837 0.05609368 -0.029981319
0.03543348 -0.079169214 -0.04842717 -0.10227607 0.20583239 -0.13718808 -0.10897573 -0.09146754
-0.13726531 0.13419239 0.1101501 -0.028547833 -0.026310444 -0.108760454 0.080524765 -0.052058928
-0.16268042 -0.11311477 0.023956921 0.06685331 -0.10239103 0.14626451 0.10051771 0.033492208
-0.030659117 0.05513035 -0.029223502 -0.16302009 -0.108278446 -0.067957595 -0.05381503 -0.09492684
-0.017423386 0.0205253 -0.124180056 -0.0654968 -0.029526122 -0.14649728 0.06906269 -0.09328605
-0.0733159 -0.036212035 0.028237613 0.065160334 -0.15351337 -0.01701186 0.069992684 -0.09735247
0.04381915 -0.14662416 -0.022590801 -0.1841149 0.06910187 -0.032636177 -0.066759996 0.060728077
0.014414545 -0.06475871 -0.20491274 0.05276984 0.030078212 -0.17396973 -0.2480446 -0.096324176
0.016232347 0.17101896 -0.037741568 -0.16288736 0.05814467 0.026752135 0.011655234 0.048023447
0.09017205 -0.037510633 0.002690719 0.017269773 -0.12977156 0.19539113 0.11986826 -0.028956395
0.017511144 0.056522172 0.06559628 -0.09898112 0.013296355 -0.19454373 -0.060394887 -0.04625326
0.1475788 0.015620873 -0.12167585 -0.17791833 -0.021016955 -0.13755381 -0.021841304 -0.1537385
-0.053629663 -0.074702136 -0.2097622 0.07178583 -0.037103113 -0.18156043 -0.091761015 -0.01065206
0.009823543 -0.116192736 -0.0011938305 -0.019510139 -0.06020856 -0.073568344 -0.027122006 0.06417853
00000000: 4f83 563e 0853 463c 7a02 343d 8a6c a13d
00000010: ddbf 2b3e f017 853d 2a55 2e3e ef59 383e
00000020: 5165 af3d 0111 033e 0ff7 5c3e 40c5 6e3d
00000030: d15f 523e 1c98 ac3d 054d b03d 4e00 ce3c
00000040: e3fc a63d 4f3f e83c 5028 363e 4586 483e
00000050: 9f7b 5c3e 1133 81bc ecc5 ac3d 2f5c 4a3d
00000060: aed7 543e 5da5 083e c711 6e3e dac4 2c3e
00000070: a728 573e ed5f f4ba 394e a33d 3c80 e43b
00000080: 31be 323e 2676 613d f61b 0d3e 540c c93d
00000090: 81ec 17bd 3cab c73d 6a58 903e 3de6 0c3d
000000a0: 45db 0f3e e65b fe3d 019e 493d 2ae8 903e
000000b0: 6fd8 0c3e 3168 e2bb 03e5 d43d b834 503e
000000c0: c11f 57bd 454c 9f3d faf6 ff3d be7c c43d
000000d0: 98fe 393e 246a 893e be70 cd3d 5307 62bd
000000e0: 05c4 8b3e efe8 643d 140c 4b3e 6106 9dbc
000000f0: 5b6f 983d e19b 2c3e b20b 7a3b 16f4 e73d
00000100: 9237 523e b4d3 553e e13b 4f3e 4fc4 983d
00000110: 7c1f 013d 22ef 45bd 86f9 3c3e e20a 883e
00000120: 2a0e 2e3e 00f1 033e 79f3 353d f9db 7b3d
00000130: 3f34 583d 23ed e43d 26e7 2c3e 3896 253e
00000140: c1d9 0f3e daf0 d03d 1161 183e 1fcf e53d
00000150: f897 483e 10be d63d 4424 033e ca9a 393e
00000160: b055 fd3c ebfe ab3d fcbe 1ebc 5fd7 1b3e
00000170: 9923 643e 8b68 0d3e 41a0 7c3e 29f8 4c3e
00000180: 5c80 093e 1a4d 3e3d 91e6 3c3e c9ea 583d
00000190: 610c 083b 44fb 313e 2e02 c5bd 6d17 3c3e
000001a0: 90d6 143c bd5b ea3d d431 80bc a841 f23d
000001b0: fb98 d73d a1c2 a83d b725 723d 2397 2d3e
000001c0: 2bce 683e b6aa 223e 0730 933d 3cbb 4d3e
000001d0: b3a4 903d c216 af3d 012e e23d 0f45 ff3d
000001e0: 459b 4c3e 3879 f13d 0f31 113e ed8c 023e
000001f0: 1a45 573d 754b bf3d 26ac 8a3d dbe5 ad3d
00000200: 511c 5bbe 78c0 313d 51c8 39bd bd5d 113e
00000210: 98c4 a8bd c9e4 89bc bb9b 22be 48a6 2f3e
00000220: d86c 03be 1b7e 89bd 71af b93d 04b7 2abe
00000230: 659f e53d 90fc 94bc 7dc2 653d 629b f5bc
00000240: b222 113d 7823 a2bd 915b 46bd 1e76 d1bd
00000250: bac5 523e 087b 0cbe ab2e dfbd 5553 bbbd
00000260: 478f 0cbe bb69 093e 6096 e13d 25dd e9bc
00000270: 0089 d7bc cdbd debd 2bea a43d be3b 55bd
00000280: b295 26be b7a8 e7bd 4e41 c43c 63ea 883d
00000290: 63b2 d1bd 5dc6 153e 3bdc cd3d 202f 093d
000002a0: d428 fbbc 5dd0 613d 2066 efbc bdee 26be
000002b0: 17c1 ddbd 5a2d 8bbd 266d 5cbd 0169 c2bd
000002c0: 7dbb 8ebc ad24 a83c 1d52 febd 3023 86bd
000002d0: c4e0 f1bc 6203 16be bd70 8d3d c20c bfbd
000002e0: a626 96bd 1253 14bd 9152 e73c c872 853d
000002f0: 9c32 1dbe 755c 8bbc 5358 8f3d bb60 c7bd
00000300: b67b 333d a524 16be 5810 b9bc 9e88 3cbe
00000310: 4885 8d3d 83ad 05bd 77b9 88bd 01be 783d
00000320: fc2a 6c3c 37a0 84bd a5d4 51be 3025 583d
00000330: 9566 f63c 1f25 32be 67ff 7dbe 9c45 c5bd
00000340: b3f9 843c 981f 2f3e e796 1abd f2cb 26be
00000350: 1b29 6e3d 4b27 db3c 98f5 3e3c 3cb4 443d
00000360: 20ac b83d c0a4 19bd c656 303b 5779 8d3c
00000370: d6e2 04be 9d14 483e 7e7d f53d f635 edbc
00000380: 8873 8f3c cb83 673d 5857 863d 9db6 cabd
00000390: f4d8 593c 7936 47be a160 77bd 0f74 3dbd
000003a0: e61e 173e b1ee 7f3c 3031 f9bd 3930 36be
000003b0: c02b acbc e8da 0cbe 89ec b2bc a06d 1dbe
000003c0: c7aa 5bbd 6ffd 98bd e7cb 56be 7304 933d
000003d0: 6ff9 17bd faea 39be 33ed bbbd fa85 2ebc
000003e0: edf2 203c 75f6 edbd 4e7a 9cba bad3 9fbc
000003f0: 409d 76bd 00ab 96bd f82e debc 0870 833d

bias_hh_l0 f4 [512]
0.20773074 0.12417539 0.12782913 0.12541081 0.089391276 -0.05840147 0.15295276 0.194676
0.06572657 0.1389854 0.33485886 0.13024454 0.17168522 0.10585635 0.12310222 0.04262253
0.21633224 0.05308098 0.21057758 0.15088223 0.17512442 0.05584749 0.075624265 0.110083215
0.1280754 0.16662574 0.16867268 0.15958129 0.27255723 0.102285646 0.037822366 -0.037685357
0.04222897 0.10680688 0.21861288 0.22224016 -0.059124973 0.08095703 0.18507747 0.08163483
0.17507817 0.10442348 0.035125785 0.2716901 0.1258508 0.004065927 0.19097118 0.28135446
-0.0783324 0.09649277 0.1472235 0.19540301 0.13963139 0.3140822 0.1758082 -0.07604736
0.1353669 -0.0027728132 0.07747058 0.009433273 0.035613388 0.28038263 -0.04614344 0.06771291
0.15578124 0.16652162 0.11582938 0.03956054 0.04354534 0.01752705 0.11665685 0.19376394
0.11714568 0.04464519 0.054456566 0.032002658 0.055796288 -0.0064317686 0.15145506 0.10807553
0.06540031 0.16862454 0.074546695 0.09629961 0.14552933 0.1753513 0.18306711 0.09750944
0.11090743 0.11792486 0.028331213 0.14734522 0.25439453 0.0073614297 0.19677037 0.063208774
0.05457637 -0.049491256 0.28396338 0.20620307 0.0533338 0.13920732 -0.087948084 0.18563482
0.03821452 0.0053757667 0.008428517 0.17950022 0.13261318 0.039903097 0.10376258 0.1693565
0.30682996 0.05111703 0.10158441 0.19208062 0.19393584 0.11678306 -0.024569841 0.062231958
0.079777144 0.1235022 0.114015214 0.06589553 -0.026358858 0.031312063 0.15032938 0.09771354
-0.16718699 0.1378582 -0.04805572 0.18855092 -0.13910963 -0.057349525 -0.13203955 0.22610041
-0.05976219 -0.057400856 0.01352775 -0.25580436 0.031219756 -0.0235541 0.19528253 -0.08096934
-0.005719588 -0.13997762 0.0005468 -0.0770285 0.11775699 -0.06724318 -0.0882315 -0.09755451
-0.15749419 0.0038183483 0.045771763 -0.18336001 -0.0020590867 -0.07205198 0.01331641 -0.06319102
-0.13610297 -0.06453676 -0.12346 -0.03303649 -0.0024793413 0.18322892 0.10139502 0.0048523825
-0.04590465 0.05590336 0.035307765 -0.19433235 -0.05696511 0.088700145 -0.06626468 -0.16104366
0.009083154 -0.050396882 -0.12934278 -0.07136901 0.0433689 -0.12708294 0.10339677 -0.070849806
0.021700952 0.005410648 0.11117526 -0.06284624 -0.013045937 -0.015781684 0.05315291 -0.012298158
0.113380544 -0.24574962 -0.035753004 -0.15387484 0.1378461 0.05438263 0.07857736 0.042923022
-0.0170688 -0.10671476 -0.17777637 0.057383165 -0.038747553 -0.038708165 -0.19588275 -0.20627476
-0.0053212303 0.10220548 -0.017381342 -0.113363095 -0.07859534 0.076236285 -0.06471868 0.09366912
0.008536152 0.069387846 0.13471918 0.0224828 -0.13884032 0.18415512 0.048519474 -0.1147795
0.036340836 0.09484528 -0.046884745 -0.016301453 0.079134874 -0.16453056 -0.080301814 -0.07741639
0.2114655 0.02971826 -0.10805589 -0.2446778 -0.00037383914 -0.0082891565 -0.04116467 -0.06558423
0.017206723 -0.15894225 -0.09413276 -0.016454443 0.114822246 -0.091745466 -0.10097201 -0.050307684
0.008766735 -0.09471496 0.024624154 0.020285072 -0.12925564 -0.18450561 -0.048735343 0.026188932
00000000: 5eb7 543e ab4f fe3d a4e5 023e b16b 003e
00000010: c612 b73d 6136 6fbd a69f 1c3e 2559 473e
00000020: a79b 863d 3052 0e3e 9f72 ab3e d35e 053e
00000030: 40ce 2f3e 37cb d83d 041d fc3d f694 2e3d
00000040: 3386 5d3e 716b 593d a6a1 573e df80 1a3e
00000050: d153 333e 56c0 643d e5e0 9a3d 4f73 e13d
00000060: 3326 033e f09f 2a3e 88b8 2c3e 4769 233e
00000070: 9f8c 8b3e 237b d13d a0eb 1a3d f65b 1abd
00000080: 49f8 2c3d 91bd da3d 0edc 5f3e ed92 633e
00000090: 072d 72bd cdcc a53d f384 3d3e 2930 a73d
000000a0: b147 333e fadb d53d 0ee0 0f3d f71a 8b3e
000000b0: 08df 003e 783b 853b f38d 433e b10d 903e
000000c0: bd6c a0bd 009e c53d c2c1 163e ba17 483e
000000d0: 88fb 0e3e 62cf a03e 1107 343e b8be 9bbd
000000e0: 9f9d 0a3e 16b8 35bb e5a8 9e3d 048e 1a3c
000000f0: 58df 113d 508e 8f3e e700 3dbd 11ad 8a3d
00000100: 1e85 1f3e a584 2a3e f437 ed3d 3c0a 223d
00000110: 995c 323d e394 8f3c c9e9 ee3d 0e6a 463e
00000120: 13ea ef3d e0dd 363d d90d 5f3d 3815 033d
00000130: a68a 643d 96c1 d2bb 0917 1b3e b456 dd3d
00000140: 99f0 853d e9ab 2c3e f0ab 983d bb38 c53d
00000150: a405 153e 4b8f 333e f275 3b3e 07b3 c73d
00000160: 6f23 e33d 9782 f13d dc16 e83c aae1 163e
00000170: 0040 823e 2638 f13b 2c7e 493e 9a73 813d
00000180: 798b 5f3d 58b7 4abd a663 913e e626 533e
00000190: 8b74 5a3d 5d8c 0e3e 201e b4bd 0e17 3e3e
000001a0: d486 1c3d 3327 b03b c317 0a3c e8ce 373e
000001b0: c0cb 073e 6e71 233d 7a81 d43d ca6b 2d3e
000001c0: d118 9d3e 1760 513d 7d0b d03d c8b0 443e
000001d0: 1e97 463e f52b ef3d b146 c9bc f0e6 7e3d
000001e0: 3362 a33d b9ee fc3d cf80 e93d 3cf4 863d
000001f0: 88ee d7bc 1441 003d f2ef 193e 091e c83d
00000200: 1133 2bbe b32a 0d3e 13d6 44bd 7e13 413e
00000210: c172 0ebe 56e7 6abd 6035 07be de86 673e
00000220: 33c9 74bd 291d 6bbd 7fa3 5d3c caf8 82be
00000230: 93c0 ff3c 87f4 c0bc 25f8 473e 41d3 a5bd
00000240: 626b bbbb 4b56 0fbe 2057 0f3a 1ec1 9dbd
00000250: 942a f13d cbb6 89bd b7b2 b4bd a9ca c7bd
00000260: 2846 21be 413d 7a3b 2c7b 3b3d bac2 3bbe
00000270: bef1 06bb fd8f 93bd 122d 5a3c 4b6a 81bd
00000280: 945e 0bbe d92b 84bd 99d8 fcbd 4551 07bd
00000290: 727c 22bb 5da0 3b3e 31a8 cf3d bc00 9f3b
000002a0: 8406 3cbd ecfa 643d e09e 103d 0fff 46be
000002b0: 3f54 69bd 6ca8 b53d c7b5 87bd a1e8 24be
000002c0: 82d1 143c f66c 4ebd 6f72 04be ea29 92bd
000002d0: 96a3 313d 0822 02be b0c1 d33d b419 91bd
000002e0: 32c6 b13c ce4b b13b dbaf e33d 88b5 80bd
000002f0: a0be 55bc 9748 81bc deb6 593d 377e 49bc
00000300: 0f34 e83d caa5 7bbe be71 12bd 5e91 1dbe
00000310: 8727 0d3e 52c0 5e3d 2bed a03d 0dd0 2f3d
00000320: ded3 8bbc 458d dabd 020b 36be 9c0a 6b3d
00000330: c1b5 1ebd 748c 1ebd 7d95 48be b139 53be
00000340: b75d aebb 1b51 d13d 5163 8ebc e92a e8bd
00000350: 98f6 a0bd c521 9c3d 3a8b 84bd 98d5 bf3d
00000360: 37db 0b3c 371b 8e3d d3f3 093e d92d b83c
00000370: 282c 0ebe 2993 3c3e 5bbc 463d 8411 ebbd
00000380: 21da 143d 3e3e c23d 380a 40bd a08a 85bc
00000390: 7711 a23d b37a 28be 4775 a4bd 7c8c 9ebd
000003a0: 698a 583e b573 f33c 684c ddbd d18c 7abe
000003b0: d7ff c3b9 3ecf 07bc 499c 28bd 0651 86bd
000003c0: 1df5 8c3c c2c1 22be adc8 c0bd 78cb 86bc
000003d0: ed27 eb3d 0ce5 bbbd 6aca cebd 6e0f 4ebd
000003e0: 5aa2 0f3c ebf9 c1bd 98b8 c93c e12c a63c
000003f0: 975b 04be 0aef 3cbe b69e 47bd 2c8a d63c

weight f4 [29, 128]
-0.13347779 -0.08964905 -0.16088417 -0.03673361 0.20966034 0.29767448 -0.19946313 0.07045716
-0.10860157 -0.22599812 0.077240884 -0.1791991 -0.10132763 0.20458949 -0.11472756 -0.24907011
-0.024036366 -0.060256045 0.045618504 -0.10682486 0.11966757 0.1784061 -0.1650071 -0.085696
0.16292964 -0.077536196 0.040606085 0.3313503 -0.07691117 0.05054721 0.17041418 0.20540069
0.22519447 0.16978681 -0.082163654 0.18439163 -0.2035331 0.13663125 0.004198064 -0.032488544
0.023485633 0.13742529 -0.017382804 -0.1782379 0.25544804 -0.035637345 0.04716649 -0.09764247
-0.20993765 0.10920272 0.15723048 0.15750618 -0.0086739175 -0.07948293 -0.052396663 0.108020924
0.089372166 0.12879744 0.12673481 -0.08075756 -0.119868785 -0.02370196 -0.08513275 -0.17132795
-0.037290316 -0.04549613 -0.0373938 0.0738015 0.0943344 0.10317847 -0.13862911 0.004410898
0.013238974 0.007621695 -0.29319233 -0.18694519 0.019080576 -0.24854162 -0.23287734 -0.18665658
-0.16233785 -0.103376046 0.029184366 -0.15169662 -0.11053762 0.06336653 0.04592198 0.056321308
-0.12590364 0.19122204 -0.06322138 0.043844417 -0.013314079 0.063812315 -0.0596567 0.18386804
-0.24694523 -0.27073008 0.14722842 0.37266693 -0.14330697 0.1206324 -0.13981992 0.087084
0.04156798 -0.07723095 -0.17351419 -0.22041577 -0.04938702 0.13196614 0.027658498 0.02830429
0.0937923 -0.16948041 0.26945934 0.0075985244 0.11534284 0.13955289 0.29418284 -0.17659739
-0.09406901 -0.32969126 -0.06159757 0.030257696 -0.19325916 -0.3734062 0.22810993 0.020285951
0.0985221 0.10952114 0.39157024 0.007858366 -0.010221501 -0.049885586 -0.032141913 -0.5131276
-0.066006884 0.029739141 -0.09603075 0.0073109413 -0.1292998 0.10865638 0.30610815 0.09514628
0.027918236 0.004035189 0.10268648 0.0068586343 0.0861861 0.16919428 0.35107842 0.1742682
-0.24672784 0.30236778 -0.12226283 -0.06433334 -0.039772738 -0.35219035 0.14566597 -0.16556433
-0.17487022 -0.03261398 0.06991991 0.051191334 0.3988108 0.030239325 -0.10866803 0.21653734
0.072301894 0.027097879 -0.115277894 -0.24885187 -0.17251898 -0.17892234 -0.43765095 0.29529905
-0.18646564 0.27396268 0.018669255 0.18375833 0.39015594 -0.11403602 0.117190264 0.10693588
0.0023201546 -0.013921595 -0.54544 0.08981332 0.15953222 0.03246628 -0.089161046 -0.018279595
-0.02635084 0.091802076 -0.0066905324 0.35080898 0.039104294 0.13123856 0.045481715 -0.0036600789
-0.02961133 0.025497233 -0.024400797 -0.24606302 0.038904697 0.15735583 0.07692783 0.17154732
-0.07292583 -0.0685865 0.1266862 0.0852625 -0.14847879 0.018930808 0.057546638 0.05654302
0.105545685 -0.41480696 -0.038109872 0.03550382 -0.032781392 -0.14434394 -0.17243549 -0.30865878
-0.093752235 0.0064069377 -0.46848518 -0.1317963 -0.1735765 -0.13749406 0.056740895 -0.32469335
0.051662542 0.037379734 -0.12809847 0.14428702 0.10780581 -0.2640561 -0.038292777 -0.07645424
0.051871706 -0.13393223 -0.016293334 0.0017837692 -0.0015212458 -0.13169731 -0.18516596 0.19904715
0.27366602 0.055195954 0.14589036 0.26917854 0.05658822 -0.11632922 -0.10533615 -0.21192202
00000000: 67ae 08be ec99 b7bd d2be 24be fb75 16bd
00000010: 33b1 563e ca68 983e 1040 4cbe d84b 903d
00000020: 806a debd 0d6c 67be 7830 9e3d f87f 37be
00000030: dc84 cfbd e87f 513e 48f6 eabd 3c0c 7fbe
00000040: eae7 c4bc 0bcf 76bd 78da 3a3d fec6 dabd
00000050: 4514 f53d 17b0 363e 9ff7 28be 6281 afbd
00000060: 07d7 263e 4ccb 9ebd 9152 263d bfa6 a93e
00000070: 9a83 9dbd 970a 4f3d 0e81 2e3e 8f54 523e
00000080: 6199 663e 98dc 2d3e 6b45 a8bd 29d1 3c3e
00000090: fb6a 50be 10e9 0b3e ea8f 893b b512 05bd
000000a0: f164 c03c 37b9 0c3e 6266 8ebc ff83 36be
000000b0: 16ca 823e 77f8 11bd a631 413d c6f8 c7bd
000000c0: e5f9 56be ada5 df3d 0701 213e 4d49 213e
000000d0: 0c1d 0ebc f2c7 a2bd e29d 56bd 133a dd3d
000000e0: c108 b73d 7ae3 033e c5c6 013e 3864 a5bd
000000f0: c47d f5bd 9d2a c2bc 145a aebd 9870 2fbe
00000100: bbbd 18bd 265a 3abd 3e2a 19bd 3e25 973d
00000110: 6532 c13d 3c4f d33d caf4 0dbe 4b89 903b
00000120: 48e8 583c 69bf f93b 4e1d 96be 8f6e 3fbe
00000130: de4e 9c3c b281 7ebe 6677 6ebe e722 3fbe
00000140: e53b 26be d2b6 d3bd 0d14 ef3c 5c56 1bbe
00000150: 8c61 e2bd 50c6 813d b018 3c3d 2cb1 663d
00000160: e2ec 00be b6cf 433e 367a 81bd 3496 333d
00000170: 4b23 5abc 08b0 823d 955a 74bd e747 3c3e
00000180: 36df 7cbe 229d 8abe 0cc3 163e 33ce be3e
00000190: 10bf 12be 1f0e f73d f42c 0fbe 1959 b23d
000001a0: 3043 2a3d 432b 9ebd b4ad 31be acb4 61be
000001b0: 0b4a 4abd 2222 073e 1394 e23c 66de e73c
000001c0: 2d16 c03d 468c 2dbe 93f6 893e 0bfd f83b
000001d0: de38 ec3d f4e6 0e3e 229f 963e f2d5 34be
000001e0: 41a7 c0bd 4bcd a8be bc4d 7cbd fdde f73c
000001f0: bbe5 45be 192f bfbe a695 693e b92e a63c
00000200: f4c5 c93d 9f4c e03d e57b c83e 60c0 003c
00000210: 1578 27bc d454 4cbd 3da7 03bd 555c 03bf
00000220: 9e2e 87bd 809f f33c c5ab c4bd 9f90 ef3b
00000230: 2b67 04be 3c87 de3d 35ba 9c3e 0edc c23d
00000240: c9b4 e43c 9e39 843b 4a4d d23d 65be e03b
00000250: 5782 b03d 4441 2d3e 8dc0 b33e 5d73 323e
00000260: 39a6 7cbe f3cf 9a3e ef64 fabd 33c1 83bd
00000270: bde8 22bd 4b52 b4be 7629 153e b289 29be
00000280: 2e11 33be 3d96 05bd 2b32 8f3d 01ae 513d
00000290: ee30 cc3e 76b8 f73c 588d debd f7bb 5d3e
000002a0: 0413 943d 5ffc dd3c d116 ecbd 06d3 7ebe
000002b0: d1a8 30be 6b37 37be c913 e0be 7031 973e
000002c0: d9f0 3ebe d644 8c3e 44f0 983c 252b 3c3e
000002d0: 85c2 c73e b88b e9bd 7301 f03d 3301 db3d
000002e0: bc0d 183b 6717 64bc f5a1 0bbf 0cf0 b73d
000002f0: 6a5c 233e 5dfb 043d 119a b6bd 17bf 95bc
00000300: b8dd d7bc ba02 bc3d 413c dbbb 3c9d b33e
00000310: d32b 203d 6763 063e 094b 3a3d efdd 6fbb
00000320: 7693 f2bc 93df d03c 2ee4 c7bc f2f7 7bbe
00000330: 885a 1f3d e321 213e 578c 9d3d 1aaa 2f3e
00000340: 235a 95bd 1477 8cbd 07ba 013e 1b9e ae3d
00000350: d30a 18be c814 9b3c 06b6 6b3d a799 673d
00000360: 5628 d83d 9461 d4be 1919 1cbd 746c 113d
00000370: c845 06bd e6ce 13be ee92 30be 8608 9ebe
00000380: 2c01 c0bd 4af1 d13b 4add efbe 9cf5 06be
00000390: 0abe 31be 3ecb 0cbe 2469 683d 353e a6be
000003a0: 1a9c 533d 7e1b 193d 3f2c 03be fabf 133e
000003b0: 4bc9 dc3d 5c32 87be e3d8 1cbd 0a94 9cbd
000003c0: 6d77 543d 8825 09be 9979 85bc 5dcd e93a
000003d0: 8a64 c7ba a9db 06be 259c 3dbe 04d3 4b3e
000003e0: f41d 8c3e 2715 623d 4864 153e c5d1 893e
000003f0: 0dc9 673d 043e eebd 7bba d7bd 1602 59be

bias f4 [29]
0.30780685 -0.19837208 0.31335336 0.085545205 0.2689453 -0.15450042 -0.19415705 -0.27155107
0.15524627 -0.46093205 -0.45791766 0.10059694 0.03518468 0.28208008 -0.021272074 0.043387715
-0.51761985 0.3240107 0.2882149 0.28736532 -0.30351502 -0.34479412 -0.30018404 -0.61686754
-0.40253177 -0.60668445 -0.5704769 0.05188201 -0.44180104
00000000: dc98 9d3e 0d22 4bbe da6f a03e 5332 af3d
00000010: 33b3 893e 5c35 1ebe 1bd1 46be be08 8bbe
00000020: e1f8 1e3e 49ff ebbe 2f74 eabe c505 ce3d
00000030: d01d 103d cd6c 903e c642 aebc 51b7 313d
00000040: bc82 04bf bbe4 a53e e790 933e 8c21 933e
00000050: 5266 9bbe db88 b0be b9b1 99be 08eb 1dbf
00000060: a518 cebe ac4f 1bbf c60a 12bf 3b82 543d
00000070: bf33 e2be
