models/LSTM/OLD/ESEU_60-40/ESEU_60-40_4_threshold_train_34.pt (torch, 353807 bytes, 7 tensors)

weight f4 [29, 32]
0	0x3f52e58d	0.82381517
1	0x40075575	2.114591
2	0xbfe344f5	-1.7755419
3	0xbf0fd5c3	-0.5618555
4	0x3fd5d723	1.670628
5	0x3fa99365	1.3248106
6	0x3fa66b21	1.3001443
7	0x3f50de5e	0.81589305
8	0xbf74c72f	-0.9561643
9	0xbf51a648	-0.8189435
10	0x3f932ce4	1.1498075
11	0x3f26d2db	0.6516549
12	0xbf2fc4e6	-0.6865982
13	0xc007de05	-2.122926
14	0x3e9e34d6	0.30899686
15	0xbf84bf44	-1.037087
16	0x4002a576	2.041349
17	0xbfbb2ef4	-1.4623704
18	0xc0039bf5	-2.0563939
19	0xbf2511e1	-0.64480406
20	0x4025938a	2.58713
21	0xbdb6ad74	-0.08919802
22	0xbe84b53e	-0.25919527
23	0x3f8df0fc	1.1089168
24	0x3cdac0ef	0.026703326
25	0xbefbbdaa	-0.4916814
26	0x3f04d97b	0.5189435
27	0xbea228ae	-0.3167166
28	0x3f57b163	0.84255046
29	0xc0572aee	-3.3619952
30	0x3e0414bf	0.12898539
31	0x3f044771	0.5167151
32	0x3e08d54c	0.13362616
33	0x4011aa63	2.2760246
34	0x3f78c909	0.97181755
35	0xbed01f76	-0.40649003
36	0x3f1ca349	0.61186653
37	0xc02dc101	-2.714905
38	0xbf3e9a22	-0.7445394
39	0x3febbeae	1.8417566
40	0xbd23736b	-0.039904993
41	0xbf812e8b	-1.0092329
42	0x3ee3212e	0.44361252
43	0xbee30e9c	-0.44347084
44	0xbfded48b	-1.7408613
45	0x3fec4dfc	1.8461299
46	0xbfb363a3	-1.4014782
47	0x3f6e5499	0.93097836
48	0xbe6d8885	-0.2319661
49	0xc02c8a7e	-2.695953
50	0xbf737f03	-0.9511568
51	0x3d91a348	0.071112216
52	0x3f84e388	1.0381937
53	0xc0309be3	-2.7595146
54	0xbf83b104	-1.0288396
55	0xbdadb26c	-0.08481297
56	0x3f8dba87	1.1072549
57	0xbf8a8269	-1.0821048
58	0xbfd58464	-1.6681027
59	0x400abe8c	2.16788
60	0x3f880655	1.0626932
61	0x3fa3fa0b	1.2810682
62	0x3dfef4e7	0.12449055
63	0xbf028cf1	-0.5099631
64	0x3ee49471	0.44644502
65	0x4013603d	2.302749
66	0xbffc7276	-1.9722431
67	0x3f5ceb16	0.8629621
68	0x3e120cd1	0.14262702
69	0xbf16044f	-0.58600324
70	0xbee78034	-0.45215
71	0x3fbd88c9	1.4807369
72	0x3fa7c19b	1.3105959
73	0x3eb7de89	0.35911968
74	0x3df47f2e	0.1193832
75	0x3ff4f733	1.9137939
76	0x3fc9cf61	1.5766412
77	0x3fce0345	1.6094748
78	0xbb90f2aa	-0.004423459
79	0x3e030620	0.12795305
80	0xbeeaf272	-0.45888096
81	0x3f01e616	0.5074171
82	0xbe94eab0	-0.29085302
83	0xbf2af5f2	-0.6678153
84	0xbf9ae395	-1.2100703
85	0x3f6552ff	0.89579767
86	0x3faa9a24	1.332829
87	0x3eb99a4e	0.36250538
88	0xbfc06c2e	-1.5033014
89	0x3ea625af	0.32450625
90	0xbfff1674	-1.9928727
91	0x3fb02e13	1.3764061
92	0x3f12dfed	0.57372934
93	0xbf36cd08	-0.714066
94	0xc0050b22	-2.0788045
95	0xbd19703e	-0.037460558
96	0xbfb30a1b	-1.3987459
97	0x40235f4b	2.5526912
98	0xbfca4ad3	-1.5804085
99	0xbf397038	-0.7243686
100	0x3f4839fe	0.7821349
101	0xbf97271a	-1.1808808
102	0xbeac94a2	-0.33707148
103	0xbf576500	-0.8413849
104	0x3e8351a9	0.2564824
105	0xc04b6197	-3.1778314
106	0x3fbeddbe	1.491142
107	0x3f8d7163	1.1050228
108	0xbf9588ac	-1.1682334
109	0x3e112cb2	0.14177206
110	0x3f43e121	0.76515394
111	0x3eed3d3e	0.46335787
112	0xbf513447	-0.81720394
113	0x3fc611f2	1.5474226
114	0xbd74cf9e	-0.05976831
115	0x3efe7423	0.4969798
116	0xbf298d64	-0.6623137
117	0xbf1f323c	-0.62186027
118	0xbfeec00f	-1.8652362
119	0xbfc08563	-1.5040706
120	0xc006a809	-2.104006
121	0x3e90b54b	0.28263316
122	0x3f81e925	1.0149275
123	0xbe89feb2	-0.2695213
124	0xc010146f	-2.2512472
125	0x400e0b79	2.2194502
126	0x3ff2cd9c	1.8968997
127	0xbeedc552	-0.46439606
128	0x3f38d014	0.721925
129	0xbf6a33c9	-0.9148527
130	0x3fb28e19	1.3949615
131	0xbeb54224	-0.35402024
132	0xbf9d43b4	-1.2286286
133	0x3eca2dcc	0.39488065
134	0x3e6bfb25	0.23045023
135	0x3d416fb5	0.047225673
136	0xbeff68ba	-0.49884588
137	0x3e840487	0.25784704
138	0xbf74a4f1	-0.9556418
139	0x3e21738b	0.15766732
140	0xbf764490	-0.9619837
141	0xbe68894b	-0.22708623
142	0xc014d7da	-2.3256745
143	0xbf83d098	-1.0298033
144	0x3e3b3dd6	0.18285307
145	0x3ff6303b	1.9233469
146	0x3fcb20d2	1.5869391
147	0x3f845c95	1.0340754
148	0x3f1910f9	0.59791523
149	0x3fcb8b44	1.5901875
150	0x3fc49234	1.5357118
151	0x3ed5a7eb	0.41729674
152	0xbfa850fd	-1.3149716
153	0xbf9116ef	-1.1335124
154	0xbff51869	-1.9148074
155	0x3f908494	1.129046
156	0xbf6249f9	-0.88394123
157	0x3f4b7770	0.7947912
158	0x3f8d434c	1.1036162
159	0x4008f40c	2.1398954
160	0xc01bcbed	-2.4343216
161	0x3f96e23c	1.1787791
162	0xbf1c810e	-0.6113442
163	0x3f35de59	0.710424
164	0xbfae65f5	-1.3624865
165	0xbf8b11fa	-1.0864861
166	0xbe8ca226	-0.2746746
167	0xbf0f953d	-0.56087095
168	0x3f0cef54	0.55052686
169	0x3e55b922	0.20871404
170	0x400848b1	2.1294367
171	0x4010d73b	2.2631366
172	0xbe82e6dc	-0.25566757
173	0xbd5a5449	-0.053303037
174	0xbf7763dd	-0.96636754
175	0x3febec45	1.8431479
176	0xbd98fdcb	-0.07470282
177	0xbf9ca26f	-1.2237071
178	0xbe3c93d2	-0.18415764
179	0x3e5b4bef	0.21415685
180	0x3fa154cd	1.2604004
181	0x3fe68f89	1.8012553
182	0xbf6016be	-0.875347
183	0x3fbed84a	1.4909756
184	0xbf9235d5	-1.1422678
185	0x3ef72a23	0.48274335
186	0x3d6a7d5c	0.05724846
187	0xbdfbc36d	-0.12293134
188	0x3f4d4ed2	0.80198395
189	0x400354e9	2.0520575
190	0xbf38b663	-0.721533
191	0x3e9cc2a8	0.3061726
192	0x3fec4b6d	1.8460518
193	0x3f1d2a46	0.6139263
194	0xbf9d049a	-1.2267029
195	0x3e925dcf	0.28587195
196	0x3f1f5164	0.6223357
197	0xbf8e3a07	-1.1111459
198	0xbfe8880b	-1.8166517
199	0xbf6ddfcd	-0.9291962
200	0x3ef3a021	0.47583106
201	0x3dafb892	0.08580126
202	0x3fa970ce	1.323755
203	0xbf0c86b0	-0.54893017
204	0xbfb1d6f8	-1.3893728
205	0xbea0b9a6	-0.3139164
206	0x3f89e51d	1.0773045
207	0x401869be	2.381454
208	0x3f6507be	0.8946494
209	0x3d8041b2	0.062625304
210	0x3fa09cfc	1.2547908
211	0xbd5fb1cc	-0.05461292
212	0x3eeefd53	0.46677646
213	0xbe813797	-0.25237724
214	0x3d67a534	0.056554034
215	0xbf805a9d	-1.0027653
216	0x3f98dca0	1.194233
217	0xbf1da046	-0.6157268
218	0xbfeed4ed	-1.865873
219	0x3edd90fa	0.4327467
220	0x3f42ecf3	0.76142806
221	0x3f22c614	0.63583493
222	0xbf969758	-1.1764936
223	0x3fa3ddc5	1.2802054
224	0x3e9449fb	0.28962693
225	0xbf0f36bc	-0.55942893
226	0x404483fb	3.0705554
227	0x3ef78bcf	0.48348853
228	0x3ed06ac3	0.40706453
229	0xc02e6254	-2.7247515
230	0xbf9a4e2c	-1.2055106
231	0x3f9e6df2	1.2377303
232	0x3db1a095	0.08673207
233	0xbf225850	-0.63416004
234	0x3f3dc93e	0.74135196
235	0x3f446f33	0.76732177
236	0x3f34d5d2	0.70638764
237	0xbf8d5dba	-1.1044228
238	0x3f520bba	0.82049143
239	0x3d34da1a	0.04415331
240	0xbe621b81	-0.22080804
241	0x3f9150c2	1.135277
242	0xbff8e797	-1.9445676
243	0x3f10f50d	0.5662392
244	0xbd02392e	-0.031792812
245	0xbf950140	-1.1641006
246	0x3f7a4f9f	0.9777774
247	0xbfe762cc	-1.8077025
248	0xbe1cff1e	-0.15331694
249	0xbf453239	-0.7702976
250	0x3fc8fe71	1.5702649
251	0xbdcb8742	-0.09937908
252	0x3ebed503	0.3727189
253	0xbdaffd76	-0.08593266
254	0xc01861fd	-2.3809807
255	0xbebd0686	-0.3691904

weight_ih_l0 f4 [512, 32]
0	0xbc7f9c36	-0.015601208
1	0xbe1eec95	-0.15519936
2	0x3e2c156a	0.16805044
3	0x3de19334	0.11014405
4	0x3d903180	0.070406914
5	0xbe07ccca	-0.13261715
6	0xbdb352dd	-0.08756039
7	0xbd7ee0e7	-0.062226202
8	0x3e7f46c5	0.2492934
9	0xbe115b07	-0.1419488
10	0x3e8f1edf	0.2795324
11	0xbdd3e285	-0.103459395
12	0xbe3f4682	-0.1867924
13	0x3d054fd6	0.03254684
14	0xbe314a43	-0.17313485
15	0x3e01892e	0.12649986
16	0xbde6bf92	-0.11267008
17	0xbd203720	-0.03911507
18	0x3e3f3c50	0.18675351
19	0x3e367e71	0.17821671
20	0x3d8cc1f6	0.068729326
21	0x3d17b56a	0.037038244
22	0x3d353b91	0.04424626
23	0xbb71c095	-0.003688847
24	0xbc66fcca	-0.014098356
25	0xbca1c3ef	-0.019746749
26	0x3d2545b9	0.040349696
27	0xbe1d342f	-0.15351938
28	0x3d4ceff2	0.050033517
29	0x3e394e3c	0.1809625
30	0xbe006556	-0.12538657
31	0xbd5c47a0	-0.053779244
32	0xbe41a404	-0.18910223
33	0xbed6403c	-0.41845882
34	0x3e52b355	0.20576222
35	0x3e72f581	0.23726465
36	0xbe934aab	-0.28767905
37	0xbeb5d541	-0.35514262
38	0x3deae73e	0.11469887
39	0x3dd7c6d4	0.1053597
40	0x3d943bad	0.07237945
41	0x3d9370be	0.07199238
42	0xbe9c71a0	-0.3055544
43	0x3d806b9d	0.062705256
44	0x3e42f486	0.19038591
45	0x3da9cbf1	0.08290852
46	0xbe5294d5	-0.20564587
47	0xbcd2ca43	-0.025731212
48	0xbe253f05	-0.16137321
49	0x3e85c1ae	0.26124328
50	0xbe355ca8	-0.17711127
51	0x3ec5bb80	0.38619614
52	0x3dd510d5	0.10403601
53	0x3df775d0	0.12083018
54	0xbe9a9666	-0.3019287
55	0xbd67439f	-0.056460973
56	0x3e8c435f	0.2739515
57	0x3e27cab3	0.16385917
58	0xbe06b352	-0.13154343
59	0xbeab8ac7	-0.33504316
60	0x3dae7f04	0.0852032
61	0x3e615639	0.22005548
62	0x3d5da617	0.054113474
63	0x3e0eb270	0.13935256
64	0x3dfa8a92	0.122334614
65	0x3d0b6fda	0.034042217
66	0x3e2d73e1	0.16938736
67	0xbc11cd44	-0.008899037
68	0xbbf9c03b	-0.0076217926
69	0xbe38bacc	-0.18040007
70	0x3d1d235c	0.0383638
71	0x3d854cd4	0.065087944
72	0x3e522991	0.20523669
73	0xbe42efbe	-0.19036767
74	0xbde9f6e0	-0.11424041
75	0x3e037504	0.12837607
76	0x3e573825	0.21017511
77	0xbc67cbd4	-0.0141477175
78	0xbe35b0c3	-0.1774321
79	0xbdae99b8	-0.08525413
80	0xbdbdd32d	-0.09268794
81	0x3e10be24	0.14135033
82	0x3dbde303	0.09271815
83	0x3e2ee826	0.17080745
84	0x3c42e8a6	0.011896288
85	0x3e288b61	0.16459419
86	0x3f04b3f7	0.51837105
87	0xbe49b9de	-0.19699809
88	0x39ee2054	0.00045418984
89	0x3c954bc7	0.01822461
90	0x3dea8dfd	0.11452863
91	0x3e3baa33	0.18326645
92	0x3c9d4e5f	0.01920241
93	0xbd5ef9e3	-0.05443753
94	0x3dde8a73	0.10866251
95	0x3cd62945	0.026142726
96	0x3d1b60d8	0.037934154
97	0x3d02535c	0.03181778
98	0x3d67f986	0.05663445
99	0xbe92bb07	-0.28658316
100	0xbd33a34b	-0.0438569
101	0x3d8b6d25	0.06807927
102	0x3e8b2a32	0.2718063
103	0x3e868a70	0.26277494
104	0x3d7b71c7	0.061387803
105	0xbd7868ee	-0.060646944
106	0x3dbcf4c5	0.092263736
107	0x3eebf75f	0.46087167
108	0xbd5d1a0a	-0.05397991
109	0x3d95ce0b	0.0731469
110	0xbd99ad4e	-0.07503758
111	0xbec74c62	-0.38925463
112	0xbda9ca13	-0.08290496
113	0x3e138ccd	0.1440918
114	0xbdb567cf	-0.088576905
115	0x3cd6ca24	0.026219435
116	0x3d9dadd5	0.076991715
117	0xbe2bf967	-0.16794358
118	0x3eb2a8c3	0.3489438
119	0x3d604c08	0.05476001
120	0xbcb0b0f4	-0.021568753
121	0x3e338e07	0.17534648
122	0x3dc633da	0.09677859
123	0xbda14251	-0.07873977
124	0x3e0498ea	0.12948957
125	0xbe4f28df	-0.20230435
126	0x3dcb9cb4	0.09941998
127	0xbe79c3ec	-0.24391145
128	0x3ee2f7b8	0.4432962
129	0xbcd1f3b0	-0.025628895
130	0x3e3ccac3	0.18436722
131	0xbd8b990e	-0.06816302
132	0x3e53e4e6	0.20692787
133	0x3d534d16	0.051587187
134	0xbd79ec57	-0.061016407
135	0x3e43b11f	0.19110535
136	0xbcf5b4f8	-0.02999352
137	0xbe85e97d	-0.261547
138	0xbdec14e4	-0.11527422
139	0x3d507f17	0.050902452
140	0xbe4342a5	-0.19068392
141	0xbe98d80d	-0.29852334
142	0xbe8fb80b	-0.280701
143	0xbe061c03	-0.13096623
144	0x3dd8424e	0.105595216
145	0x3ce0f0db	0.027458599
146	0x3e415f10	0.1888392
147	0x3ef652d5	0.4811007
148	0x3eb41508	0.35172296
149	0xbe171516	-0.14754137
150	0x3e4cc07b	0.199953
151	0xbe0186f2	-0.12649134
152	0x3e889fec	0.2668451
153	0x3d231b61	0.039821032
154	0xbd3fbf81	-0.04681349
155	0xbe8f035e	-0.27932256
156	0xbe4aeea7	-0.19817601
157	0xbe37b428	-0.17939818
158	0x3e8e51e7	0.27796862
159	0x3da71be7	0.08159619
160	0x3e849d56	0.25901288
161	0xbe282bff	-0.16423033
162	0x3dc9c7f3	0.098525904
163	0x3e946a1a	0.289872
164	0x3d04d76c	0.032432005
165	0x3d3dc2ad	0.046328235
166	0xbdcd5907	-0.10026746
167	0xbd298a63	-0.04139174
168	0x3e2ab305	0.16669853
169	0x3da67e83	0.08129599
170	0xbc2c52c2	-0.010517778
171	0xbdab190c	-0.08354387
172	0xbe68de60	-0.2274108
173	0x3de6e126	0.112734124
174	0xbdba224c	-0.09088573
175	0x3e227219	0.15863837
176	0xbcd1d860	-0.025615871
177	0xbdffd431	-0.12491644
178	0xbdbc6323	-0.09198596
179	0x3e88d46a	0.2672456
180	0xbdd9fe51	-0.1064421
181	0xbcd0dd5c	-0.025496177
182	0x3db7fb3a	0.089834645
183	0xbda2bb7e	-0.079459175
184	0x3e5ff156	0.21869406
185	0x3e058ca6	0.13041934
186	0x3e127ec7	0.14306174
187	0x3d26c284	0.04071285
188	0x3dcabb9f	0.09899067
189	0x3eab4038	0.33447433
190	0xbe527a30	-0.20554423
191	0xbbba9076	-0.0056934906
192	0xbe013854	-0.12619144
193	0x3e58c496	0.21168742
194	0xbd46159f	-0.048360463
195	0x3ea37d19	0.3193138
196	0x3e4d964d	0.20076866
197	0xbbd89678	-0.006609734
198	0xbe219f28	-0.1578337
199	0xbe5e5f9c	-0.2171616
200	0x3ecd323d	0.4007739
201	0x3e07d6c5	0.13265522
202	0x3beda66e	0.007252506
203	0x3c0906fd	0.008363483
204	0x3e92663d	0.28593627
205	0x3e283afc	0.16428751
206	0x3dfe89cf	0.12428629
207	0x3bc72460	0.0060773343
208	0xbe2d600c	-0.1693117
209	0xbe7f7db7	-0.249503
210	0x3d61ea58	0.05515513
211	0x3d0b044a	0.033939637
212	0xbb860796	-0.00409026
213	0xbdaa266d	-0.083081104
214	0xbcdee698	-0.027209565
215	0x3d4d4ed4	0.050124004
216	0x3d9788b1	0.07399119
217	0x3e9c0b79	0.30477503
218	0x3d201fbc	0.039092764
219	0xbe3e9e7d	-0.18615146
220	0x3d7a280c	0.061073348
221	0x3dd84c74	0.10561457
222	0xbebb16df	-0.36540887
223	0xbdc1f7b0	-0.09471071
224	0x3da91e92	0.08257784
225	0xbd4e90eb	-0.050431173
226	0xbe46c409	-0.19410719
227	0xbcc6a29c	-0.02424746
228	0xbdc9a70e	-0.09846316
229	0x3da8545c	0.08219215
230	0xbe72fac1	-0.23728468
231	0x3de7c378	0.113165796
232	0x3d64b89c	0.05584012
233	0xbec3bf1b	-0.3823174
234	0x3e5282f5	0.20557769
235	0xbe136ac7	-0.14396201
236	0xbe58d2e6	-0.21174201
237	0x3e20a467	0.15687715
238	0x3e22225c	0.1583342
239	0xbd269e00	-0.040678024
240	0xbe543452	-0.20723084
241	0xbc4ea3da	-0.012612307
242	0xbbf6ba79	-0.0075295535
243	0x3e82722f	0.2547774
244	0x3e529826	0.20565853
245	0x3e59b08b	0.21258752
246	0x3d9ae6bd	0.07563541
247	0x3d848c7e	0.06472109
248	0x3d56ad2e	0.05241125
249	0x3d1b7b4d	0.037959386
250	0x3d9d6b38	0.07686466
251	0xbd203336	-0.03911134
252	0xbdaba9a6	-0.08381967
253	0x3e2f2cec	0.1710698
254	0x3d2ec415	0.042667467
255	0x3ec20a0d	0.37898293

weight_hh_l0 f4 [512, 128]
0	0xbe6864d8	-0.22694719
1	0xbe8e225e	-0.27760595
2	0x3e265a00	0.1624527
3	0x3c814b48	0.015782967
4	0x3e9e3966	0.30903167
5	0x3d3f823d	0.046755064
6	0x3e2ad9f0	0.16684699
7	0x3e6d3ece	0.2316849
8	0x3dbee42c	0.09320864
9	0x3d8e6f77	0.06954854
10	0x3e44d909	0.19223417
11	0xbe4e5a26	-0.20151576
12	0xbdee789d	-0.11644099
13	0xbd8aa005	-0.067688026
14	0xbec67730	-0.38762808
15	0x3e247ede	0.16064021
16	0x3ea9908e	0.331181
17	0xbd35bc7b	-0.044369202
18	0x3de55b93	0.11199107
19	0x3e1746a4	0.14773041
20	0x3db746ab	0.08949026
21	0x3e8fcfc0	0.28088188
22	0xbdf3c9c5	-0.11903719
23	0xbdbe0c2c	-0.09279665
24	0x3ec9a16a	0.39380962
25	0xbc6e2722	-0.014535697
26	0xbd20cdd1	-0.03925878
27	0xbea61833	-0.32440338
28	0xbddf8a58	-0.10915059
29	0xbc9b1b1b	-0.018933823
30	0xba5024a2	-0.0007940029
31	0x3eab7994	0.33491194
32	0xbd78fb69	-0.06078664
33	0xbc9ea2b8	-0.0193647
34	0xbcf588f7	-0.029972536
35	0x3d15232a	0.03641049
36	0x3e15f455	0.14643987
37	0xbac2d5ac	-0.0014864705
38	0x3e7b9a00	0.24570465
39	0x3e32eb10	0.17472482
40	0xbe377d77	-0.17918955
41	0xbe478bc1	-0.19486906
42	0xbe78beda	-0.24291554
43	0x3e927208	0.28602624
44	0xbe31cebf	-0.17364024
45	0xbea6914c	-0.32532728
46	0x3e2da58b	0.16957681
47	0xbc992003	-0.018692022
48	0xbe5fd756	-0.21859488
49	0x3ea7de08	0.32786584
50	0x3e647bc4	0.22312838
51	0x3e18025d	0.14844652
52	0x3e01241c	0.12611431
53	0xbec120a5	-0.37720218
54	0xbe2f60dc	-0.17126793
55	0x3c55d92b	0.013052265
56	0x3d5a30f2	0.053269334
57	0xbd535557	-0.05159506
58	0x3ead4a63	0.33845815
59	0xbe2b23b7	-0.16712843
60	0xbe16f6e7	-0.14742623
61	0xbe0fd3b4	-0.14045602
62	0x3dd6fc05	0.10497288
63	0xbd2e226a	-0.04251329
64	0x3d10cb0d	0.035349894
65	0xbe58129b	-0.21100847
66	0xbe5d73a0	-0.21626139
67	0x3cb8ef8a	0.022575159
68	0x3e9d0fbb	0.30676064
69	0x3ebd19b2	0.36933666
70	0x3e28a8be	0.1647062
71	0xbe1c2b7e	-0.15250966
72	0xbc8f0f30	-0.017463297
73	0xbee32bd0	-0.44369364
74	0x3dbf5746	0.09342818
75	0x3d764dcf	0.060132798
76	0xbca7adde	-0.020468649
77	0xbe111d18	-0.14171255
78	0xbecdd3ec	-0.40200746
79	0xbdb94187	-0.090457015
80	0xbe9cb49f	-0.30606553
81	0x3e584f15	0.21123917
82	0xbe5d5a39	-0.21616448
83	0xbe880c69	-0.26571968
84	0xbe2db1d8	-0.16962373
85	0xbdd70291	-0.104985364
86	0x3d60c151	0.05487186
87	0x3bff88b5	0.007798279
88	0x3e03681e	0.12832686
89	0x3e088ebf	0.13335703
90	0xbe10298f	-0.14078353
91	0x3e5a4bf4	0.21318036
92	0x3dbbb1f1	0.09164799
93	0xbe207b23	-0.15671973
94	0xbdc7c9a2	-0.09755255
95	0x3e7051a4	0.23468643
96	0x3cedcd79	0.029028641
97	0x3e08aa6e	0.13346264
98	0xbd8c6a22	-0.06856181
99	0xbe87ecff	-0.26548
100	0x3de6b051	0.112640984
101	0x3cc33eb3	0.023833608
102	0xbe5c4111	-0.21509196
103	0x3e67097f	0.22562216
104	0x3e2977a5	0.16549547
105	0x3e39e0f3	0.18152218
106	0x3e69c039	0.22827233
107	0x3e8c6625	0.2742168
108	0x3ee6f95c	0.4511212
109	0x3e1c5645	0.15267284
110	0xbe866d7a	-0.262554
111	0xbda03260	-0.07822108
112	0x3e8ccd50	0.2750039
113	0xbe85211f	-0.26001832
114	0xbe7fbff6	-0.24975571
115	0x3dcd0d8d	0.1001235
116	0x3e6aa34f	0.2291386
117	0x3cf2ef3c	0.029655091
118	0xbe1c2c37	-0.15251242
119	0xbe0619b9	-0.1309575
120	0x3ec6b829	0.38812378
121	0xbe3d9cb6	-0.18516812
122	0x3edba5e7	0.4290001
123	0x3e8e03b6	0.27737206
124	0xbea1cf15	-0.31603304
125	0xbda6ffab	-0.081542335
126	0x3de5d54b	0.11222323
127	0x3e5b20ce	0.21399233
128	0xbdbf0dc9	-0.09328801
129	0x3e511119	0.20416678
130	0x3ddd62d3	0.10809865
131	0x3e4bf7da	0.19918767
132	0x3e2851ee	0.16437504
133	0x3dd09e39	0.101864286
134	0x3e525033	0.20538406
135	0x3dec61c1	0.115420826
136	0x3f07cbe6	0.530455
137	0xbd86457b	-0.06556221
138	0x3d938c21	0.07204462
139	0xbe226c84	-0.15861708
140	0x3db7db49	0.08977372
141	0xbd33f61b	-0.043935876
142	0x3dec5b70	0.11540878
143	0x3db85ff9	0.0900268
144	0x3e38ff1e	0.1806607
145	0x3eecc3bb	0.4624308
146	0x3e2ea71c	0.17055935
147	0x3e3b993a	0.1832017
148	0x3f015a54	0.50528455
149	0xbcee6bde	-0.02910417
150	0xbe0e0542	-0.13869193
151	0x3d9a7399	0.0754158
152	0xbe77cb30	-0.24198604
153	0x3c84d7d2	0.016216192
154	0xbe3227dc	-0.17398018
155	0x3ec6f5a2	0.38859278
156	0x3d49ad14	0.049237326
157	0x3e14b66e	0.14522716
158	0xbedee226	-0.43531913
159	0x3e5f3706	0.21798334
160	0x3d7e4bbf	0.062083956
161	0x3e15d692	0.14632633
162	0x3da34c87	0.07973581
163	0x3f1e63fb	0.6187131
164	0x3f0b1374	0.5432656
165	0x3ed940da	0.4243229
166	0xbbc5638f	-0.006023831
167	0xbea66a59	-0.32503012
168	0x3e89fa2b	0.26948676
169	0xbf07cd4e	-0.53047645
170	0x3ec3472f	0.38140246
171	0x3e4e245c	0.20131058
172	0xbf095724	-0.5364859
173	0x3dac2914	0.084062725
174	0x3e90ddb7	0.28294155
175	0xbea1f248	-0.31630158
176	0xbedf57fc	-0.43621814
177	0xbc142826	-0.009042775
178	0x3e2f5b94	0.17124778
179	0x3ec0b48b	0.37637743
180	0xbee5eda4	-0.44907868
181	0xbdf5af43	-0.11996319
182	0x3ee9ca70	0.4566226
183	0x3db4b284	0.08823112
184	0xbdb85507	-0.09000593
185	0x3e167a18	0.14695013
186	0x3afa3344	0.0019088765
187	0xbeb8b592	-0.36076027
188	0x3c5c8464	0.013459299
189	0xbe9c87c6	-0.30572337
190	0xbf266ef5	-0.65013057
191	0x3e97c6be	0.29643816
192	0xbf0c18ec	-0.5472553
193	0x3f0193d0	0.5061617
194	0x3d11d422	0.035602696
195	0x3c7333c9	0.0148438895
196	0xbd8b79d9	-0.0681035
197	0xbe8c27d4	-0.27374136
198	0x3dc9786f	0.09837424
199	0xbdb4fb0c	-0.08836946
200	0x3e9b3ac8	0.30318284
201	0xbe753ce5	-0.2394901
202	0xbc2f45a7	-0.010697759
203	0xbe693117	-0.22772633
204	0xbe86a0a6	-0.2629444
205	0xbe97d07b	-0.29651245
206	0xbe3935bd	-0.18086906
207	0xbc6b49ef	-0.014360889
208	0xbbef430f	-0.007301695
209	0x3ea221b6	0.31666344
210	0xbc565cc5	-0.013083641
211	0x3da5b106	0.08090405
212	0xbe04fcc7	-0.12987052
213	0xbdff89d9	-0.12477464
214	0x3e495be6	0.19663963
215	0x3f00a72d	0.5025509
216	0x3da1fcbc	0.079095334
217	0x3f05a48d	0.5220421
218	0x3ec3cdc0	0.38242912
219	0xbe2ebf2a	-0.17065111
220	0xbe44f922	-0.19235662
221	0xbd6e42b7	-0.058169093
222	0xbda5fbc4	-0.08104661
223	0xbca2a677	-0.019854767
224	0x3d1219d4	0.035669163
225	0x3e4cbdf7	0.19994341
226	0xbd944e0f	-0.07241451
227	0xbea1334b	-0.31484446
228	0x3eee9ac7	0.4660246
229	0x3f2ebdb5	0.6825822
230	0xbe89a383	-0.26882562
231	0x3da6a458	0.08136815
232	0xbdb0d466	-0.08634262
233	0x3e0d279f	0.13784645
234	0x3f09cee0	0.5383129
235	0xbc424c0f	-0.011858954
236	0x3e2e6bb6	0.17033276
237	0x3f01c7b1	0.5069533
238	0x3e260ec5	0.16216572
239	0xbe6800ee	-0.22656605
240	0x3d2055a1	0.039144162
241	0xbeb502d8	-0.35353732
242	0xbe266f68	-0.16253436
243	0xbe4fa873	-0.20279102
244	0x3cb768c4	0.022388823
245	0x3e86b162	0.26307207
246	0x3ddfa7e7	0.10920697
247	0xbe3c21c2	-0.18372253
248	0x3d6dde8d	0.05807357
249	0x3db9ede4	0.09078577
250	0xbe7d4b5d	-0.2473578
251	0x3e47a79a	0.19497529
252	0x3e06d41a	0.13166848
253	0xbe4e302d	-0.20135565
254	0x3d3c8f44	0.046035066
255	0xbda12d17	-0.07869928

bias_ih_l0 f4 [512]
0	0x3d95a7f6	0.07307427
1	0x3e4be47e	0.19911382
2	0x3d87f53b	0.06638571
3	0x3d9b23eb	0.0757521
4	0x3e183a25	0.1486593
5	0x3e9bbdab	0.30418143
6	0x3de115cb	0.10990485
7	0x3e47f7b8	0.19528091
8	0x3e379733	0.17928772
9	0x3d82ed9b	0.06392976
10	0x3e391796	0.18075404
11	0x3d3f45cf	0.046697434
12	0x3e0acf57	0.13555656
13	0x3e67c800	0.22634888
14	0x3e8e0125	0.27735248
15	0x3ae53325	0.0017486556
16	0x3e8d13cd	0.2755417
17	0x3e6fe17e	0.23425862
18	0x3e46acf2	0.19401911
19	0x3e00e5be	0.1258764
20	0x3dd27fa8	0.10278255
21	0x3e1f2fbc	0.15545553
22	0x3e6a4bc6	0.22880468
23	0x3e15217d	0.14563556
24	0x3e8fd3fe	0.28091425
25	0x3e1b4391	0.15162493
26	0x3d92a88b	0.07161053
27	0x3e1e074e	0.15432474
28	0x3e104bdf	0.14091443
29	0x3e294c7c	0.16533083
30	0x3d90f2d7	0.07077568
31	0xbdd3e8a2	-0.103471056
32	0x3e428b7b	0.1899852
33	0x3e05ff72	0.13085726
34	0x3e12d650	0.14339566
35	0x3ddf0b57	0.10890835
36	0x3e955da4	0.29173005
37	0x3e545ccb	0.20738523
38	0x3c85eb2b	0.016347488
39	0xbb9d030a	-0.004791622
40	0x3e54376e	0.2072427
41	0xbc243b95	-0.010023971
42	0x3d288563	0.041142832
43	0x3ce35bfd	0.027753824
44	0x3e4928a0	0.19644403
45	0x3e12a6ef	0.14321493
46	0x3e73f9cd	0.2382576
47	0xbac5cdd7	-0.0015091252
48	0x3e18c05f	0.14917134
49	0x3e0beb4a	0.13663974
50	0x3dd05e50	0.10174239
51	0x3e466830	0.19375682
52	0x3db656fb	0.08903309
53	0x3e5ec754	0.21755725
54	0x3e0b77cc	0.13619918
55	0x3e185756	0.14877066
56	0x3e08395e	0.13303134
57	0x3e2e2f93	0.17010336
58	0x3e8c4e39	0.2740343
59	0x3e0a0b0e	0.1348078
60	0x3c3a972f	0.011388584
61	0x3de2faf0	0.11083019
62	0x3e14a48f	0.14515899
63	0x3e417ca8	0.18895209
64	0x3e5b369c	0.2140755
65	0x3cdf8935	0.027287105
66	0x3d8084ad	0.06275306
67	0x3dd6eb88	0.10494143
68	0x3e89b601	0.2689667
69	0x3e42ef1a	0.19036523
70	0x3dc8efbe	0.09811352
71	0x3e013dfd	0.12621303
72	0x3e146bc4	0.14494234
73	0x3e396493	0.18104772
74	0x3e63ceac	0.22246808
75	0x3dd2e294	0.102971226
76	0x3df718a3	0.12065246
77	0x3d977d65	0.07396964
78	0x3d8254fb	0.06363865
79	0x3da8cb21	0.08241869
80	0x3e0c77ef	0.13717626
81	0x3e27e304	0.16395193
82	0x3e2fe969	0.17178883
83	0x3e401a96	0.18760142
84	0x3daf13a0	0.08548665
85	0x3da1738d	0.07883368
86	0x3dfaa3be	0.122382626
87	0x3d9b7587	0.07590776
88	0x3cae2b1b	0.021260789
89	0x3c7b41e8	0.0153355375
90	0x3d99cbf3	0.07509603
91	0x3e74f545	0.23921688
92	0x3e548b66	0.20756301
93	0x3e74ef5f	0.23919438
94	0x3d0806c6	0.033209585
95	0x3b7b61e2	0.0038357903
96	0x3db88465	0.09009627
97	0x3e329072	0.17437914
98	0x3b15cfe6	0.0022859513
99	0x3df848dc	0.12123272
100	0x3e691552	0.2276204
101	0x3e2727db	0.16323797
102	0x3e24b576	0.16084847
103	0x3e0ce114	0.13757735
104	0xbc998d08	-0.018744007
105	0x3d5bf224	0.05369772
106	0x3e3391fb	0.17536156
107	0x3c772708	0.015084989
108	0x3e1edcb5	0.1551388
109	0x3dc73acc	0.097280115
110	0x3e632d36	0.22185215
111	0x3df3e8e4	0.11909655
112	0x3e0aec4c	0.13566703
113	0x3e1aee0d	0.15129872
114	0x3e2e6bf1	0.17033364
115	0x3e640c1c	0.22270244
116	0x3e65c3f0	0.22438025
117	0x3dcd8502	0.10035135
118	0x3e149427	0.1450964
119	0x3e506d96	0.20354304
120	0x3e2567ea	0.16152921
121	0x3d8c1ee1	0.06841827
122	0x3de1aa3e	0.11018799
123	0x3e032a38	0.12809074
124	0xbd899791	-0.06718362
125	0x3e047ea2	0.12938932
126	0x3e1fb474	0.15596181
127	0x3e14ac68	0.14518893
128	0x3e07cc04	0.1326142
129	0xbcbf3cad	-0.023344362
130	0xbd96e7c4	-0.073684245
131	0xbd1c2097	-0.038117018
132	0xbc94804b	-0.018127581
133	0x3e3e992c	0.18613118
134	0xbe305009	-0.17218031
135	0xbdb2c62f	-0.08729207
136	0x3df0aa36	0.11751215
137	0x3cf6a4e7	0.030107928
138	0xbd4db683	-0.050222885
139	0x3dc511e5	0.09622554
140	0xbd5455a5	-0.05183949
141	0x3dc50887	0.09620767
142	0xbd890f5b	-0.06692382
143	0x3dde92c5	0.10867838
144	0x3dae69c0	0.08516264
145	0xbd23dfa7	-0.040008213
146	0xbd24a641	-0.040197615
147	0x3d068657	0.03284296
148	0x3dd8c166	0.10583763
149	0xbd3f9021	-0.04676831
150	0x3cb37adf	0.021909175
151	0xbd0617b3	-0.032737445
152	0x3d66ec4a	0.056377687
153	0xbd09f71b	-0.033682924
154	0xbdc3d2fe	-0.09561728
155	0xbe1aa573	-0.15102176
156	0x3e0c8669	0.13723148
157	0xbcb44d76	-0.022009593
158	0xbe2403e3	-0.16017108
159	0x3d34c005	0.044128437
160	0xbc341c11	-0.01099302
161	0x3d159b7a	0.036525227
162	0xbcab3dcc	-0.02090349
163	0x3d661797	0.05617484
164	0x3c4eced3	0.012622553
165	0xbd793f71	-0.060851518
166	0xbd2241d6	-0.039613567
167	0xbde89e37	-0.11358302
168	0xbdfbadcc	-0.122890085
169	0x3dab9524	0.08378056
170	0x3d3ce066	0.04611244
171	0xbc1e26cd	-0.0096528055
172	0x3e13ba37	0.14426504
173	0xbdbd05dc	-0.09229633
174	0xbc0d5cfc	-0.008628126
175	0xbd0ecc15	-0.034862597
176	0xbd9c8c91	-0.076439984
177	0xbbc4860f	-0.0059974263
178	0x3dc6726e	0.096897945
179	0x3ba8e9ff	0.0051548476
180	0x3988283a	0.00025969913
181	0x3e196920	0.14981508
182	0xbd923a54	-0.071400315
183	0xbd7010e6	-0.058609866
184	0x3d8a37da	0.06748934
185	0xbd52fe83	-0.051512253
186	0x3d53a426	0.051670216
187	0x3e49157d	0.19637103
188	0x3da71f75	0.08160297
189	0xbc53fab5	-0.012938191
190	0x3b9f69e5	0.0048649185
191	0x3d5c4bc2	0.053783186
192	0xbd8d4587	-0.06898027
193	0x3dd3cd61	0.10341907
194	0x3c587b2e	0.013212962
195	0xbe458ac3	-0.19291215
196	0x3b8e2503	0.0043379082
197	0xbe0d752c	-0.13814229
198	0x3d2b7fb8	0.04186985
199	0xbc133a85	-0.00898612
200	0x3d4e37d8	0.050346226
201	0x38a98b80	8.084532e-05
202	0x3cfcb0f0	0.03084609
203	0xbae83d6e	-0.0017718503
204	0xbd073325	-0.03300776
205	0xb929a631	-0.00016179007
206	0xbd31211d	-0.04324447
207	0xbcb6d208	-0.022316948
208	0x3d74d538	0.059773654
209	0xbd43c2ef	-0.047793325
210	0xbc65936e	-0.014012201
211	0x3cf1be59	0.02950971
212	0xbd5778c6	-0.052605413
213	0x3d1f6674	0.038916066
214	0x3e1ba6dc	0.1520037
215	0xbe26d1c9	-0.16290964
216	0x3d864a81	0.06557179
217	0xba19d7b3	-0.00058686285
218	0x3dcf167e	0.10111712
219	0xbe0512b5	-0.12995417
220	0xbc9a72e9	-0.018853622
221	0xbdbd9a95	-0.09258
222	0xbd789510	-0.060689032
223	0x3d51f37f	0.051257607
224	0xbd6a71cb	-0.057237428
225	0x3e5173a8	0.20454276
226	0xbdd7c5c7	-0.1053577
227	0xbcc770fd	-0.02434587
228	0x3dee372a	0.116316155
229	0x3b9ed6f8	0.0048474036
230	0x3dfe829c	0.124272555
231	0x3db9c177	0.090701036
232	0xbcd36764	-0.025806136
233	0x3b940c03	0.0045180335
234	0x3e26a708	0.16274655
235	0x3b3ce52a	0.0028823116
236	0xbd9fb11d	-0.077974536
237	0x3e260bda	0.16215459
238	0xbe37aec6	-0.17937765
239	0x3d9dd0c8	0.077058375
240	0xbdc72ff4	-0.09725943
241	0xbe04a446	-0.1295329
242	0x3e155872	0.1458452
243	0xbd6009de	-0.05469691
244	0xbd9723bf	-0.07379865
245	0x3d30ae65	0.043135066
246	0x3e25934b	0.16169469
247	0xbd370e09	-0.04469112
248	0xbd0254a1	-0.03181899
249	0xbb47bdb8	-0.0030478071
250	0xbdeb1043	-0.11477711
251	0xbdb8901e	-0.09011863
252	0xbd952af8	-0.07283586
253	0x3b0f4651	0.002186198
254	0x3dbd48ba	0.09242387
255	0xbd7c5341	-0.061602835

bias_hh_l0 f4 [512]
0	0x3e1ed5c1	0.15511228
1	0x3e07ff85	0.13281067
2	0x3da301a6	0.07959299
3	0x3ce16cf5	0.027517775
4	0x3e662ce8	0.22478068
5	0x3e5018fe	0.20322034
6	0x3dbc7695	0.09202305
7	0x3ea450a7	0.32092783
8	0x3e0025ba	0.12514392
9	0xbc5dd2ee	-0.013539059
10	0x3e273f85	0.16332825
11	0xbd3f0034	-0.046631053
12	0x3de73fa8	0.11291438
13	0x3e5ea0e5	0.21741064
14	0x3e7819cf	0.24228595
15	0x3cc9215e	0.024552044
16	0x3e3a2262	0.18177179
17	0x3e15d5fd	0.14632411
18	0x3e103e1b	0.14086191
19	0x3e0f2e5e	0.13982531
20	0x3e250443	0.16114907
21	0x3e49efc0	0.19720364
22	0x3e9c44bb	0.30521187
23	0x3e44005d	0.19140764
24	0x3e38d0e9	0.18048443
25	0x3e42ea3f	0.1903467
26	0xbb080ce9	-0.0020759648
27	0x3e69882b	0.2280585
28	0x3cd3ade1	0.025839748
29	0x3db4790d	0.08812151
30	0x3d8cfce7	0.06884175
31	0xbd3111cc	-0.043229863
32	0x3db5d6d3	0.08878865
33	0x3e682aff	0.22672652
34	0x3d8fb6c5	0.070172824
35	0x3e2c4180	0.16821861
36	0x3e4c363d	0.19942565
37	0x3dcd2d46	0.10018401
38	0x3df759ee	0.120776996
39	0x3e24fbaa	0.16111627
40	0x3e8e8127	0.2783291
41	0x3df5139e	0.11966632
42	0x3d3458d2	0.04403002
43	0x3e056138	0.13025367
44	0x3e32df9a	0.1746811
45	0x3c5b75e6	0.013394808
46	0x3e602438	0.21888816
47	0xbaf045a6	-0.0018331304
48	0x3e4f2b21	0.20231296
49	0x3d30eb6d	0.04319327
50	0x3d20d086	0.039261363
51	0x3dbe3499	0.09287376
52	0x3c92107d	0.017830128
53	0x3d4eadcb	0.05045871
54	0x3e5eaa82	0.21744731
55	0x3e71ccd0	0.23613286
56	0x3d49dd4d	0.049283314
57	0x3db5a2a1	0.088689096
58	0x3e8d5485	0.27603546
59	0x3d64f5c2	0.055898435
60	0x3cea5721	0.028606
61	0x3e01ac7c	0.12663454
62	0x3d93662e	0.071972236
63	0x3de6ba80	0.11266041
64	0x3e6da572	0.23207644
65	0x3d9730cd	0.07382355
66	0x3e3456ed	0.17611285
67	0x3e3db907	0.18527614
68	0x3e891292	0.2677198
69	0x3e3bcf41	0.1834078
70	0x3e09499e	0.13406989
71	0x3daed580	0.08536816
72	0x3c98ad5c	0.018637352
73	0x3e205a5a	0.15659466
74	0x3e806367	0.25075838
75	0x3d120ff3	0.03565974
76	0x3e1e04dc	0.15431541
77	0x3e25bc6e	0.16185161
78	0x3d60c444	0.054874673
79	0x3df15f69	0.11785776
80	0x3ce54626	0.027987551
81	0x3e05abfb	0.13053887
82	0x3e623bb1	0.22093083
83	0x3e1a19a9	0.15048851
84	0x3deb00c5	0.11474756
85	0x3e281a2d	0.16416235
86	0x3e347407	0.17622386
87	0x3e1fb08a	0.15594688
88	0xba97f7eb	-0.0011594271
89	0x3db18282	0.086674705
90	0x3c7f9bd8	0.015601121
91	0x3e745457	0.23860298
92	0x3dd7b674	0.10532847
93	0x3e94d080	0.29065323
94	0x3dbc60d7	0.09198158
95	0x3e0356c0	0.12826061
96	0x3e673a27	0.22580777
97	0x3e358bde	0.17729136
98	0x3d07070b	0.0329657
99	0x3cb29144	0.021797784
100	0x3db03e07	0.08605581
101	0x3dac3b19	0.084097095
102	0x3db54327	0.08850699
103	0x3e04742c	0.12934941
104	0x3d1099bc	0.035302863
105	0x3dce3ca2	0.100701585
106	0x3e0523e3	0.13001971
107	0x3e2fd88c	0.1717245
108	0x3dafed1e	0.085901484
109	0x3e04f3d6	0.12983641
110	0x3e5c5872	0.21518114
111	0x3e8117db	0.25213513
112	0x3da67d9b	0.08129426
113	0x3d0d3528	0.034474522
114	0x3e36283f	0.1778879
115	0x3e7b7de0	0.24559736
116	0x3e9048f8	0.2818067
117	0x3e4de1fd	0.20105739
118	0xbc1df3b2	-0.009640621
119	0x3db48d0d	0.08815966
120	0x3d2e6887	0.042580154
121	0x3d4f7d97	0.05065688
122	0xbc512fbd	-0.012767729
123	0x3e1c0d9f	0.15239571
124	0xbd96ad54	-0.073572785
125	0x3e00331d	0.12519498
126	0x3df06130	0.11737287
127	0x3db13805	0.08653263
128	0x3bd7e112	0.00658811
129	0xbdcb256f	-0.09919249
130	0xbdf0d2d7	-0.117589645
131	0xbcc3885f	-0.023868738
132	0x3d35afdb	0.044357162
133	0x3e01b6b7	0.12667356
134	0xbe0b05e5	-0.13576467
135	0xbe1f474d	-0.15554543
136	0x3de8cf50	0.11367667
137	0x3db6076f	0.088881366
138	0x3dc3af1a	0.09554882
139	0x3dbc5827	0.09196501
140	0xbde796d8	-0.11308068
141	0x3d290c5c	0.041271552
142	0xbe25ad94	-0.16179496
143	0x3a6859a8	0.00088634575
144	0x3e239c73	0.1597765
145	0xbdf058eb	-0.1173571
146	0x3ae343a3	0.0017338883
147	0x3d4e2e82	0.050337322
148	0x3d382499	0.044956777
149	0xbdccf3d0	-0.10007441
150	0x3c9373a5	0.01799948
151	0xbe0eb735	-0.13937075
152	0x3ce848f7	0.028355105
153	0xbde5927f	-0.112095825
154	0xbd18ce6f	-0.037306245
155	0xbda46a92	-0.08028139
156	0x3d148d48	0.03626755
157	0x3d76162b	0.060079735
158	0xbe4191aa	-0.18903223
159	0x3d0c60ee	0.034272127
160	0xbd171ee4	-0.036894694
161	0x3db02589	0.08600909
162	0xbc4c7fbd	-0.012481627
163	0x3dbfa8b4	0.093583494
164	0x3ce7225c	0.028214626
165	0xbd4b0a4d	-0.04957037
166	0xbe4da027	-0.20080625
167	0xbd19d00a	-0.037551917
168	0xbd8e88e3	-0.06959703
169	0xbd295bd8	-0.041347355
170	0x3e1849ed	0.1487195
171	0x3d436214	0.047700956
172	0x3d14c67f	0.036322113
173	0xbdc81fe5	-0.097717084
174	0xbdc4354b	-0.09580477
175	0x3d6439db	0.055719238
176	0xbdb44903	-0.088029884
177	0x3d8b4ba3	0.06801536
178	0x3cdfab2b	0.027303299
179	0x3d22893b	0.039681654
180	0xbcb9c7a5	-0.022678206
181	0x3e072679	0.1319827
182	0x3d73d839	0.059532378
183	0xbe3c6464	-0.18397671
184	0x3d1f5b86	0.038905643
185	0xbc892880	-0.016742945
186	0x3e0dcedc	0.13848442
187	0x3dfaa15a	0.122378066
188	0x3dfb9fbb	0.122863255
189	0xbe078c3b	-0.13237087
190	0x3db7ec66	0.08980636
191	0xbd21f3b3	-0.03953905
192	0xbd458f48	-0.048232347
193	0x3d3968c6	0.045265935
194	0xbd7a9cb4	-0.0611846
195	0xbdf2ef33	-0.1186203
196	0xbc1daa82	-0.009623172
197	0xbcde66aa	-0.027148563
198	0x3dc52ab0	0.096272826
199	0xbd5ab13a	-0.053391673
200	0x3ddf9982	0.10917951
201	0x3dd9081e	0.10597251
202	0xbde5e572	-0.11225404
203	0x3ddefebd	0.10888431
204	0xbc8d7087	-0.017265571
205	0xbd9d9e4e	-0.0769621
206	0xbe198a9d	-0.14994283
207	0x3deb6474	0.11493769
208	0x3df28bac	0.118430465
209	0x3b36d7c2	0.0027899598
210	0xbda130b9	-0.07870621
211	0x3ced14a4	0.028940506
212	0x38b5b079	8.663623e-05
213	0xbcd60c6b	-0.026128968
214	0x3e11bf65	0.14233167
215	0xbe046e4c	-0.129327
216	0x3d0c9df6	0.03433033
217	0x3cfa75d7	0.030573769
218	0xbd88d0dc	-0.06680462
219	0xbe0b5fd9	-0.13610782
220	0xbd52906c	-0.051407263
221	0xbdadd042	-0.08486988
222	0xbdb7a281	-0.08966542
223	0x3c269844	0.010168139
224	0xbc56b874	-0.0131055005
225	0x3dcf7a08	0.101306975
226	0xbe35507e	-0.17706487
227	0x3c8641d5	0.016388813
228	0x3e3105c4	0.17287356
229	0x3dc82e49	0.09774453
230	0x3c6a4a78	0.014299981
231	0xbd6d10a6	-0.057877205
232	0xbdfd2a26	-0.12361555
233	0xbb90e097	-0.0044213044
234	0x3e2d4227	0.16919766
235	0x3dab5b2f	0.08367001
236	0xbd5b17fe	-0.053489678
237	0xbbde8dbc	-0.0067917984
238	0xbdfaa107	-0.12237745
239	0x3cae6f46	0.021293294
240	0xbdac9c33	-0.0842823
241	0xbe0e8b9d	-0.13920446
242	0x3df85fbe	0.121276364
243	0xbb8c6ded	-0.004285565
244	0xbc56f4f8	-0.013119929
245	0x3c831bcd	0.016004467
246	0x3dd7e027	0.105408005
247	0x3d1a1312	0.037615843
248	0xbd62bb4a	-0.055354394
249	0xbd2f7d48	-0.042844087
250	0xbccd9fec	-0.02510067
251	0xbd35470b	-0.044257205
252	0xbd7aed01	-0.06126118
253	0xbc99b11c	-0.01876121
254	0x3d481047	0.04884365
255	0xbe2eac33	-0.17057876

weight f4 [29, 128]
0	0xbe28354c	-0.16426581
1	0x3e163fc2	0.14672759
2	0xbd11faaa	-0.035639443
3	0xbe0f9338	-0.14021003
4	0xbc481dbe	-0.012214122
5	0x3d675ef4	0.05648704
6	0x3d46e321	0.04855645
7	0xbe0065a2	-0.1253877
8	0x3d84a91f	0.0647757
9	0xbd8b5659	-0.06803579
10	0x3dbf1979	0.093310304
11	0xbde8d7fc	-0.11369321
12	0x3da82899	0.082108684
13	0xbc455775	-0.012044777
14	0x3d9f2711	0.07771123
15	0xbdcb8b1b	-0.09938642
16	0x3dbad66e	0.091229305
17	0x3e3bc16b	0.18335502
18	0x3bf8b448	0.0075898506
19	0x3e4460af	0.19177507
20	0x3e0e38a3	0.13888793
21	0x3e1ac92a	0.151158
22	0xbdff0470	-0.12452018
23	0x3d88c077	0.06677335
24	0xbd5892d2	-0.052874394
25	0xbe42333b	-0.18964855
26	0xbe38e6c4	-0.1805678
27	0xbd8798aa	-0.06620915
28	0xbcf21a85	-0.029553661
29	0x3d1e1eb9	0.03860352
30	0xbdd1a767	-0.102370076
31	0xbd571dc4	-0.05251862
32	0xbdbfb32a	-0.09360345
33	0xbd435d32	-0.0476963
34	0x3d1196e4	0.03554429
35	0x3d8d4438	0.06897777
36	0x3e1842e8	0.14869273
37	0x3b607c29	0.0034253693
38	0xbe62eda0	-0.22160959
39	0x3e38ae6f	0.18035291
40	0x3e1c3555	0.1525472
41	0x3e00cb2a	0.12577501
42	0x3d8c03af	0.0683664
43	0x3e07a299	0.1324562
44	0xbe0445a9	-0.12917198
45	0xbd38de8d	-0.045134116
46	0x3df4b8a3	0.11949279
47	0xbe00f9eb	-0.12595336
48	0xbde4e148	-0.111757815
49	0x3d94d5ae	0.07267319
50	0x3dce3337	0.10068362
51	0x3e37cb2f	0.17948602
52	0x3dde1b81	0.1084509
53	0xbdc0a413	-0.09406295
54	0x3e1d3ac8	0.15354455
55	0x3e69fd5d	0.22850557
56	0xbc5ca407	-0.013466842
57	0xbe2b0243	-0.16700082
58	0xbd7b75ed	-0.06139176
59	0xbd88ff00	-0.066892624
60	0xbd8e3dfa	-0.06945415
61	0xbe5ebae9	-0.21750988
62	0xbddc7357	-0.10764187
63	0x3e1ab1d9	0.15106906
64	0xbe659d82	-0.22423366
65	0x3de0091f	0.1093924
66	0xbda6a427	-0.08136778
67	0x3e3faba3	0.18717818
68	0x3d359811	0.044334475
69	0x3e6d8dd4	0.23198634
70	0x3e2f278e	0.17104933
71	0xbe26e970	-0.16299987
72	0xbbd8f810	-0.006621368
73	0xbdd39ae3	-0.10332277
74	0xbe50a122	-0.20373967
75	0xbd6f506d	-0.05842631
76	0xbdd36577	-0.10322087
77	0xbe022318	-0.127087
78	0xbe51e33c	-0.2049684
79	0x3e3b42d1	0.18287207
80	0xbe456f4d	-0.19280739
81	0x3d94e5fa	0.07270427
82	0xbd938f61	-0.07205082
83	0xbdc607c9	-0.09669454
84	0x3e98bdcb	0.298323
85	0xbdcae245	-0.09906439
86	0x3dc8f3db	0.09812137
87	0x3e7f7a8e	0.24949095
88	0x3e3cd917	0.18442188
89	0x3e8c147b	0.27359375
90	0x3e2a830c	0.16651553
91	0x3e6c2fb4	0.23065072
92	0x3e036ed0	0.1283524
93	0xbe1cba80	-0.15305519
94	0xbdc3eae3	-0.095662855
95	0x3e02e05c	0.12780899
96	0x3dd34eed	0.10317788
97	0x3de1d914	0.110277325
98	0xbec93e29	-0.39305237
99	0xbe1980a4	-0.14990479
100	0x3d87cba9	0.06630642
101	0x3e0efac4	0.13962847
102	0xbda644b0	-0.0811857
103	0x3d619b9b	0.055080038
104	0x3e2812a9	0.16413368
105	0x3e02cdac	0.1277377
106	0x3ddc12af	0.10745751
107	0x3d7ef55c	0.06224571
108	0x3e358c9c	0.1772942
109	0x3dd51a0c	0.10405359
110	0x3ddfe50e	0.109323606
111	0xbdff554a	-0.124674395
112	0x3e3d664b	0.18496053
113	0x3d2c9d07	0.04214194
114	0xbdd2f576	-0.10300724
115	0xbb2e461f	-0.0026592088
116	0x3e50002c	0.20312566
117	0x3e909bfb	0.28244004
118	0xbd775b39	-0.06038973
119	0xbcaefa2e	-0.02135953
120	0x3e25a71c	0.16177028
121	0xbd9d758e	-0.076884374
122	0x3e424e70	0.18975234
123	0x3e18bd9e	0.14916083
124	0xbc76e44e	-0.0150690805
125	0xbe999873	-0.29999122
126	0x3c948875	0.018131474
127	0xbe1c45e7	-0.1526104
128	0xbc121897	-0.0089169955
129	0x3e4b32f9	0.19843663
130	0xbe201d54	-0.15636188
131	0x3d6b8517	0.05749997
132	0x3d345591	0.044026915
133	0x3c94967d	0.018138165
134	0x3d36535d	0.044513095
135	0x3dd00410	0.10157025
136	0xbd8e478b	-0.069472395
137	0x3ddce7f0	0.10786426
138	0x3d9f10f9	0.07766909
139	0x3e794f60	0.24346685
140	0xbddf01d6	-0.10889022
141	0xbc4b0b33	-0.012392807
142	0xbd9d2d6b	-0.076746784
143	0x3e90b9d8	0.28266788
144	0x3e217b8c	0.15769786
145	0xbebb531d	-0.36586848
146	0x3d562a4d	0.052286435
147	0xbdd77900	-0.10521126
148	0xbe869e81	-0.26292804
149	0x3e52388d	0.20529385
150	0xbd3ef475	-0.04661985
151	0x3c52b9ce	0.012861682
152	0xbd072656	-0.032995544
153	0x3dd69f54	0.10479608
154	0x3e515f8d	0.20446606
155	0x3e9229e0	0.28547573
156	0xbdaa3bd1	-0.0831219
157	0x3d59a5c0	0.053136587
158	0xbdcb71d2	-0.09933819
159	0xbe34bb9a	-0.1764969
160	0x3ed0ebdd	0.4080495
161	0x3ba4f7d3	0.0050344258
162	0xbd1edadc	-0.03878294
163	0x3cc591a3	0.024117297
164	0xbdf195df	-0.11796164
165	0x3c58cec5	0.013232891
166	0x3e64bd84	0.2233792
167	0x3df7b546	0.12095122
168	0xbe224aeb	-0.15848891
169	0x3a008e15	0.00049039844
170	0x3e7c2102	0.24621966
171	0x3d8952fd	0.06705282
172	0x3f0f5153	0.55983466
173	0x3c942910	0.018085986
174	0xbb82bb55	-0.003989617
175	0x3d59c07c	0.053162083
176	0xbe44eeb2	-0.1923168
177	0xbe16f244	-0.14740855
178	0xbe194a0e	-0.14969656
179	0x3e0b49f4	0.1360243
180	0xbeb96362	-0.36208636
181	0x3f08ed4b	0.5348708
182	0xbe19b5e6	-0.15010795
183	0xbe474731	-0.19460751
184	0xbda65899	-0.081223674
185	0x3e82df7d	0.25561133
186	0xbcb2acc1	-0.021810891
187	0xbcb02a32	-0.021504495
188	0x3e12c01f	0.14331101
189	0x3eedb12a	0.46424228
190	0xbe3b321b	-0.18280832
191	0x3d395901	0.045250896
192	0xbdc73698	-0.0972721
193	0x3ccf5e95	0.025313655
194	0x3d00f713	0.03148563
195	0xbe2b9b34	-0.16758424
196	0x3d97029e	0.07373546
197	0x3e446ecd	0.19182892
198	0xbd2163b9	-0.039401744
199	0x3e9facf5	0.31186643
200	0x3da6254d	0.08112583
201	0xbd89a413	-0.06720748
202	0xbdabb6df	-0.08384489
203	0xbd87bd68	-0.06627923
204	0x3d49d45b	0.049274784
205	0xbe142eb5	-0.14470942
206	0x3e537285	0.20649154
207	0x3cfc3037	0.03078471
208	0x3ed3d095	0.41370073
209	0x3cc0648f	0.02348545
210	0x3aa37350	0.0012470279
211	0xbd990a7f	-0.07472705
212	0xbdab82c7	-0.08374553
213	0xbd95c767	-0.073134236
214	0xbb66684f	-0.0035157388
215	0xbe977cdc	-0.29587448
216	0xbd050410	-0.032474577
217	0xbc943d81	-0.018095734
218	0xbd7bfaba	-0.06151841
219	0x3deb4fc4	0.114898235
220	0xbd7b0a0c	-0.06128888
221	0xbe1736a6	-0.1476694
222	0x3ca5704c	0.020195149
223	0xbe3e0397	-0.18556057
224	0x3c7abbfb	0.015303607
225	0x3cd74dfe	0.026282307
226	0x3c11fe22	0.008910688
227	0x3ec534d1	0.38516858
228	0xbbcf98d8	-0.006335359
229	0x3d77658b	0.060399573
230	0x3dfa0ae8	0.122091115
231	0x3dc924ce	0.09821473
232	0x3ca5b021	0.020225586
233	0x3cbe10f9	0.023201453
234	0xbc5db29b	-0.013531352
235	0x3d4d58fc	0.05013369
236	0x3e1c8385	0.15284546
237	0xbda0b903	-0.07847788
238	0xbe419c03	-0.1890717
239	0x3cbe2cd1	0.02321473
240	0x3e196605	0.14980324
241	0xbdfb6cbc	-0.12276599
242	0x3d5a24ba	0.05325768
243	0xbcb2a7e3	-0.02180857
244	0x3d2d634b	0.04233102
245	0xbea9a193	-0.33131084
246	0xbc972a33	-0.01845274
247	0x3d7c4ef6	0.06159874
248	0xbe2cec12	-0.16886929
249	0xbcd055c4	-0.025431521
250	0x3d683b28	0.05669704
251	0x3e3d3860	0.18478537
252	0xbe9029dd	-0.2815694
253	0x3da68c84	0.0813227
254	0xbd3fd61b	-0.046835046
255	0x3d0e6eea	0.034773745

bias f4 [29]
0	0x3e93c07f	0.288578
1	0xbcdd0d6c	-0.02698394
2	0x3d68f3ad	0.056873012
3	0x3d312bb8	0.043254584
4	0x3e3a3ea6	0.18187961
5	0xbe9af1a4	-0.30262482
6	0xbd75f279	-0.060045693
7	0xbe7faa3c	-0.24967283
8	0x3e19ff16	0.15038714
9	0xbea365de	-0.31913656
10	0xbdbb922d	-0.0915874
11	0x3d0ceca7	0.034405377
12	0xbda13ba3	-0.07872703
13	0x3e3382ea	0.17530409
14	0x3c70f205	0.014706139
15	0xbdbe0123	-0.092775606
16	0xbe9106f0	-0.28325605
17	0x3e7c4533	0.24635772
18	0x3de1653a	0.110056356
19	0x3e89fef9	0.2695234
20	0xbe02e10d	-0.12781163
21	0xbe937f0f	-0.28807876
22	0xbe81f1bb	-0.25379738
23	0xbec97fd3	-0.39355335
24	0xbe94b0a7	-0.29041025
25	0xbe006e49	-0.1254207
26	0xbea31c2d	-0.31857434
27	0xbda23220	-0.07919717
28	0xbea1261d	-0.3147439
