models/ESEN_100-00/ESEN_100-00_4_best_loss.pt (torch, 318607 bytes, 7 tensors)

weight f4 [28, 16]
0.8230487 -0.6778826 -0.628121 0.8049585 0.2594624 -0.28584984 -1.3747147 -1.1602392
1.396714 0.6061236 0.84951705 -0.7548808 2.1414523 2.3300471 0.8217798 -2.6183586
0.16303411 0.77886546 0.42609197 0.31701332 -1.6744823 0.6830848 -1.1720552 -0.109337315
-1.5869738 -0.61661375 0.55325574 -2.0128279 0.88683593 -0.34390905 -0.75752413 -0.52817816
-0.89496577 0.9280543 2.0495298 -1.7068698 -0.9977306 -0.33300146 1.4305227 -1.9672598
-0.37708056 1.4727527 -0.05535619 -1.0672307 -0.11442414 1.6416498 1.0850809 1.8439204
2.9587805 0.5940393 1.1969686 0.6436197 -0.6495504 0.5554773 -0.020975081 1.1725632
0.15517844 -0.24555872 -0.5618207 -0.27607334 -1.499553 2.217471 -1.1142166 0.27911246
0.15541588 -1.7979932 -0.026576884 0.29006892 -0.44180542 -0.87785375 0.8374136 -0.75141066
-0.6187412 0.76221275 -0.93713564 0.21074948 0.033825133 1.6015155 -2.121707 1.1011065
0.7968722 0.4308046 -0.28462964 1.091123 0.46798453 -0.8974203 -0.4670442 0.6784338
-0.78530747 -2.3147235 1.9704577 -2.538824 0.11914724 -0.26196158 -0.6028148 1.860177
-0.6123858 -0.11847145 -0.38081232 -1.7899129 0.30382666 0.5681372 0.27578056 -1.5295861
0.23499867 -1.2747177 0.61736405 -1.3261523 -0.85975796 2.8661053 -0.69902813 2.715721
-0.9650732 0.6205559 2.327428 -1.0762902 -0.4349063 1.3433722 -0.76237005 0.1285943
-0.59518886 -2.558226 0.52310646 0.25688466 -1.4979391 0.6840811 -0.90197504 -1.9677126
-1.9828334 1.2906833 -0.049951654 -0.73117656 -1.0917965 -1.0066446 -0.79231596 -1.6368321
0.49352545 -0.14407656 -1.0595925 1.535631 1.0240823 0.67400783 -1.3023355 1.2434539
0.4831147 -1.600063 -0.06900894 -0.47798812 0.059994813 1.3199984 -0.75489485 -0.7387966
-1.2835075 -0.1892362 0.9411249 1.2536389 -0.65310234 0.766584 1.2366956 1.8838327
1.342919 1.818805 -0.06254869 -1.0181161 0.8581877 -1.0314953 0.1817472 0.84427696
1.3107429 -0.057742763 -0.8881423 -1.5039623 -0.032780573 -0.3727132 -0.24323711 0.54587436
0.49600562 -0.5117583 1.0925201 -0.73882306 1.6428785 1.416352 -0.5120472 0.6008534
0.63653326 -0.3901129 0.7569379 -0.79733336 1.1511433 -2.2061644 0.1051885 1.0253253
-1.5657709 1.1038781 -1.1643595 -0.6775003 -0.0727898 2.2938948 -0.96738815 -0.5068899
0.193648 0.9944389 0.33537623 3.2129161 -1.3100283 -1.4877367 1.5244514 -0.5820331
-1.3382226 1.3995441 0.033805903 -2.113706 0.64548504 0.20084421 -1.5004972 -0.13499264
0.008990359 0.5376409 0.6368505 0.49263677 -1.6860108 -1.0472736 -0.5615725 -1.9187878
0.2236454 -0.4152276 -0.15855536 -0.1954977 1.6052814 -1.190497 0.47753653 -0.010152338
-1.4681324 0.3405117 -0.9092274 0.44477904 2.26284 -1.4441268 -0.9333636 0.07336936
-1.9993739 3.3392825 -0.29298294 0.39472312 -1.1717145 0.28450996 -2.3090782 -0.7115351
-0.20595837 0.7178644 1.7560843 0.41230786 -2.772438 0.44052258 0.0027634173 0.1949656
00000000: 52b3 523f b789 2dbf 8acc 20bf c311 4e3f
00000010: 41d8 843e e95a 92be a7f6 afbf b882 94bf
00000020: 86c7 b23f eb2a 1b3f f379 593f de3f 41bf
00000030: 8e0d 0940 7e1f 1540 2960 523f 3093 27c0
00000040: 6af2 263e ba63 473f ba28 da3e 924f a23e
00000050: 7055 d6bf a5de 2e3f e805 96bf 3eec dfbd
00000060: f521 cbbf 66da 1dbf 2ba2 0d3f 2cd2 00c0
00000070: ae07 633f d914 b0be 1aed 41bf af36 07bf
00000080: 7a1c 65bf f794 6d3f 7f2b 0340 b67a dabf
00000090: 466b 7fbf 2b7f aabe 5e1b b73f 2bcf fbbf
000000a0: b410 c1be 2983 bc3f 2cbd 62bd 049b 88bf
000000b0: 3457 eabd 9521 d23f eee3 8a3f 9505 ec3f
000000c0: a95c 3d40 f612 183f 4436 993f 43c4 243f
000000d0: ef48 26bf c333 0e3f efd3 abbc 8d16 963f
000000e0: 19e7 1e3e bf73 7bbe 7bd3 0fbf 7c59 8dbe
000000f0: 5af1 bfbf 0beb 0d40 a69e 8ebf d4e7 8e3e
00000100: 5725 1f3e a424 e6bf c4b7 d9bc ea83 943e
00000110: 5234 e2be 06bb 60bf bd60 563f 735c 40bf
00000120: d365 1ebf 6020 433f 1fe8 6fbf b6ce 573e
00000130: 398c 0a3d 76fe cc3f 0cca 07c0 0ff1 8c3f
00000140: d1ff 4b3f 6c92 dc3e faba 91be eba9 8b3f
00000150: ab9b ef3e 56bd 65bf 6b20 efbe d6ad 2d3f
00000160: e909 49bf 6e24 14c0 f537 fc3f 187c 22c0
00000170: 7803 f43d d41f 86be 1252 1abf 481a ee3f
00000180: 51c5 1cbf 29a1 f2bd d5f9 c2be de1b e5bf
00000190: 2b8f 9b3e 7171 113f 1c33 8d3e 7ac9 c3bf
000001a0: 7ea3 703e f329 a3bf 920b 1e3f 5cbf a9bf
000001b0: 1919 5cbf 456e 3740 82f3 32bf 5fce 2d40
000001c0: 0a0f 77bf c0dc 1e3f 95f4 1440 e1c3 89bf
000001d0: 0aac debe 9ff3 ab3f af2a 43bf 39ae 033e
000001e0: 4c5e 18bf fab9 23c0 4eea 053f 6386 833e
000001f0: 78bc bfbf f01f 2f3f d6e7 66bf 02de fbbf
00000200: 7ccd fdbf 1c35 a53f 1b9a 4cbd 632e 3bbf
00000210: fdbf 8bbf bbd9 80bf 38d5 4abf b783 d1bf
00000220: 5eaf fc3e ce88 13be baa0 87bf 8e8f c43f
00000230: 2115 833f c78b 2c3f eeb2 a6bf 7f29 9f3f
00000240: cf5a f73e ddce ccbf 8f54 8dbd dcba f4be
00000250: 1fbd 753d b5f5 a83f ca40 41bf c621 3dbf
00000260: f949 a4bf 22c7 41be 90ed 703f 3d77 a03f
00000270: b731 27bf d93e 443f 0b4c 9e3f 6e21 f13f
00000280: c5e4 ab3f 9ace e83f 8719 80bd a151 82bf
00000290: 30b2 5b3f 0a08 84bf f01b 3a3e 8922 583f
000002a0: 6cc6 a73f ad83 6cbd 4b5d 63bf d681 c0bf
000002b0: ec44 06bd 44d4 bebe 2613 79be 6cbe 0b3f
000002c0: 73f4 fd3e 9802 03bf b3d7 8b3f 8223 3dbf
000002d0: d849 d23f 064b b53f 8615 03bf 87d1 193f
000002e0: d8f3 223f e1bc c7be afc6 413f 0a1e 4cbf
000002f0: aa58 933f cc31 0dc0 116d d73d dc3d 833f
00000300: 2e6b c8bf e14b 8d3f bb09 95bf a970 2dbf
00000310: d212 95bd 2ccf 1240 c0a6 77bf 89c3 01bf
00000320: a94b 463e 8c93 7e3f 6fb6 ab3e 6ba0 4d40
00000330: 02af a7bf 286e bebf 3921 c33f 1f00 15bf
00000340: e14a abbf 4324 b33f 0f78 0a3d f646 07c0
00000350: 823e 253f 1baa 4d3e 4b10 c0bf 833b 0abe
00000360: 4c4c 133c d6a2 093f a208 233f e33a fc3e
00000370: 34cf d7bf 100d 86bf 37c3 0fbf d79a f5bf
00000380: 4d03 653e b698 d4be 565c 22be 8d30 48be
00000390: dc79 cd3f 3562 98bf ab7f f43e fe55 26bc
000003a0: c3eb bbbf 8d57 ae3e 20c3 68bf 14ba e33e
000003b0: 5fd2 1040 26d9 b8bf ebf0 6ebf ad42 963d
000003c0: 7ceb ffbf ceb6 5540 dc01 96be 2619 ca3e
000003d0: befa 95bf 4aab 913e f0c7 13c0 2a27 36bf
000003e0: c0e6 52be f6c5 373f 5fc7 e03f 041a d33e
000003f0: a06f 31c0 2d8c e13e 731a 353b 10a5 473e

weight_ih_l0 f4 [512, 16]
0.44242704 -0.20508736 0.058660332 0.014146949 -0.22699513 -0.0015142522 0.19268414 0.41236737
-0.3693319 -0.058765247 -0.47366148 0.16617593 -0.09151386 0.12752388 -0.4618661 0.04070936
-0.25966707 -0.043313827 -0.09681394 -0.1300722 -0.24330516 -0.082156025 0.16590449 -0.22850506
-0.11814122 0.2473466 -0.074756235 -0.08814465 0.14781539 0.11522902 0.0058468306 -0.08061422
0.0663155 -0.045513883 0.16436455 -0.06895108 0.017994156 -0.07314688 -0.08661273 -0.05453616
-0.0018924563 -0.086696506 -0.23993516 0.13447356 0.031658072 0.14137837 -0.035000205 0.10107691
0.19380493 0.00075742434 -0.10182022 -0.10791749 0.00016344352 0.19496642 -0.12615544 0.03880324
-0.056765165 -0.28433704 0.20793249 0.075009815 -0.29465258 0.29737666 -0.09877667 0.15053496
0.15392722 0.06478494 -0.21444865 0.16490564 -0.3651953 0.29785317 -0.15473099 -0.45529336
-0.54027814 0.31407928 0.47543174 0.1585926 0.25783554 0.23351713 -0.42081207 0.18030058
0.2587995 -0.12426691 0.004581176 0.09911121 0.15147923 0.2681107 0.014896117 0.24467082
0.0093646655 -0.13022235 0.14956442 -0.039882608 -0.2223904 -0.12182574 0.03305772 0.098593496
-0.013930512 0.045664098 0.056271404 0.0056636096 -0.056831535 -0.0044295625 -0.055997763 -0.02148423
0.0017128137 -0.068279 -0.014222944 -0.04502565 0.045465305 0.07476081 -0.0021873 0.10465487
0.054451365 -0.032744315 0.023441762 -0.122098655 0.103990376 0.20249991 -0.2182587 0.07675261
-0.26131612 -0.09155964 0.09182183 -0.025018381 -0.1638397 -0.14223364 -0.18830034 0.13224582
-0.013289312 0.05933136 -0.19596398 -0.103075616 -0.11411165 0.41501448 -0.27005002 -0.10745361
-0.25223675 -0.08466546 0.09106284 0.09069444 -0.048156466 -0.04456849 -0.28345445 0.12766296
0.23501989 -0.13598973 0.29367855 0.0447174 0.15985875 -0.10227309 -0.1975829 0.17523666
-0.2505435 -0.04088924 0.2743818 -0.43022022 -0.30895072 0.33148605 -0.011321944 -0.42823914
-0.056679532 -0.028451938 0.2570288 0.15149249 -0.12013213 0.053845026 0.11167969 -0.280319
0.046144847 -0.010409402 -0.33948198 0.4169272 -0.11527647 0.14758708 0.21115887 0.01742286
0.1911463 -0.039837692 0.10185375 -0.13882396 0.036119685 0.5609286 0.1826106 0.17927094
-0.22506353 -0.16977456 0.2828787 -0.022122217 -0.3177067 -0.10860829 0.20128489 0.16165164
0.27197435 0.28098544 -0.014080191 0.17819892 -0.04852667 -0.15579148 -0.09597539 0.1018333
-0.22637033 -0.17813085 -0.25597706 0.36442864 -0.17027098 0.0397244 -0.13805589 -0.020732267
-0.2451953 -0.018943246 0.15644938 -0.2587042 0.011131176 0.04020182 -0.051541086 -0.078538805
0.06542815 0.32449925 -0.11339402 0.035591677 0.1603182 -0.25849056 0.026449466 0.22939049
0.45092288 -0.31954512 0.17642856 -0.11035053 0.41848132 0.023646524 0.012785677 0.13398698
-0.27079836 -0.31442496 -0.027418097 0.047824044 0.1336396 -0.20334542 -0.14952928 -0.055872217
-0.036987577 0.15893047 0.10456067 -0.099179536 -0.062654264 0.37532333 -0.026878571 -0.05110324
0.002833902 0.109557614 0.18959765 -0.04983124 0.07879081 0.041848145 0.15257727 -0.21579167
00000000: cc85 e23e 6c02 52be d145 703d 9bc8 673c
00000010: 6971 68be df79 c6ba fe4e 453e d121 d33e
00000020: 1219 bdbe d4b3 70bd c283 f2be 062a 2a3e
00000030: 9e6b bbbd 9f95 023e b779 ecbe dcbe 263d
00000040: 15f3 84be d769 31bd 6346 c6bd a631 05be
00000050: fd24 79be 6b41 a8bd dee2 293e 3bfd 69be
00000060: 06f4 f1bd 6d48 7d3e cc19 99bd 2f85 b4bd
00000070: eb5c 173e 31fd eb3d c596 bf3b 1119 a5bd
00000080: 6cd0 873d c46c 3abd 2e4f 283e 3936 8dbd
00000090: 7b68 933c 08ce 95bd 0462 b1bd 4f61 5fbd
000000a0: 4c0c f8ba f08d b1bd 90b1 75be 70b3 093e
000000b0: e5ab 013d 7ec5 103e 605c 0fbd 6901 cf3d
000000c0: cd74 463e e38d 463a 1f87 d0bd d803 ddbd
000000d0: 0962 2b39 47a5 473e e42e 01be 25f0 1e3d
000000e0: 9782 68bd a094 91be 41ec 543e bf9e 993d
000000f0: b4dc 96be c141 983e 6c4b cabd d625 1a3e
00000100: 199f 1d3e f7ad 843d 6d98 5bbe 06dd 283e
00000110: e1fa babe 3680 983e cd71 1ebe 361c e9be
00000120: ab4f 0abf 00cf a03e ca6b f33e 1966 223e
00000130: 0503 843e 1d1f 6f3e ae74 d7be b7a0 383e
00000140: 5e81 843e a67f febd b11d 963b d1fa ca3d
00000150: 5f1d 1b3e ce45 893e d80e 743c fd8a 7a3e
00000160: 416e 193c 0259 05be 6a27 193e f25b 23bd
00000170: 4fba 63be c67f f9bd 8867 073d 63eb c93d
00000180: cd3c 64bc 470a 3b3d d87c 663d cd95 b93b
00000190: 2fc8 68bd dd25 91bb e95d 65bd b2ff afbc
000001a0: 7e80 e03a dcd5 8bbd 5a07 69bc d16c 38bd
000001b0: d439 3a3d 321c 993d ce58 0fbb 4b55 d63d
000001c0: 6508 5f3d e71e 06bd f008 c03c dc0e fabd
000001d0: e8f8 d43d 235c 4f3e 357f 5fbe 7930 9d3d
000001e0: 3acb 85be 9f83 bbbd 150d bc3d 59f3 ccbc
000001f0: 98c5 27be b2a5 11be ced1 40be 736b 073e
00000200: 6abb 59bc 7105 733d c8aa 48be 4f19 d3bd
00000210: 5eb3 e9bd c77c d43e ff43 8abe a310 dcbd
00000220: 2d25 81be 1665 adbd 277f ba3d 02be b93d
00000230: b73f 45bd 738d 36bd f120 91be 14ba 023e
00000240: 0ea9 703e e440 0bbe 095d 963e 9829 373d
00000250: 03b2 233e 8e74 d1bd 2c53 4abe 3d71 333e
00000260: 3d47 80be 7a7b 27bd c57b 8c3e d345 dcbe
00000270: ca2e 9ebe 8ab8 a93e ad7f 39bc 2942 dbbe
00000280: cc28 68bd 0a14 e9bc 4799 833e d920 1b3e
00000290: d607 f6bd 9a8c 5c3d 52b8 e43d f985 8fbe
000002a0: 6102 3d3d 328c 2abc 95d0 adbe 7b77 d53e
000002b0: 1216 ecbd 1121 173e 083a 583e 63ba 8e3c
000002c0: dbbb 433e d92c 23bd b398 d03d de27 0ebe
000002d0: 3cf2 133d 0499 0f3f 46fe 3a3e cd92 373e
000002e0: 0e77 66be 62d9 2dbe 7ad5 903e a739 b5bc
000002f0: 74aa a2be 066e debd a01d 4e3e 0288 253e
00000300: 3940 8b3e 53dd 8f3e 9ab0 66bc c779 363e
00000310: e7c3 46bd cd87 1fbe bf8e c4bd fa8d d03d
00000320: a0cd 67be ef67 36be 6d0f 83be 6496 ba3e
00000330: 845b 2ebe 0db6 223d 865e 0dbe b7d6 a9bc
00000340: 7a14 7bbe de2e 9bbc 4434 203e e074 84be
00000350: 895f 363c aaaa 243d bf1c 53bd f4d8 a0bd
00000360: 32ff 853d c424 a63e 203b e8bd 94c8 113d
00000370: 742a 243e e058 84be 8dac d83c 57e5 6a3e
00000380: 5ddf e63e 6b9b a3be b0a9 343e 75ff e1bd
00000390: 2f43 d63e 5bb6 c13c 047b 513c e233 093e
000003a0: 15a6 8abe 4ffc a0be eb9b e0bc 25e3 433d
000003b0: d2d8 083e c839 50be 341e 19be 44da 64bd
000003c0: 4980 17bd abbe 223e e823 d63d a41e cbbd
000003d0: e150 80bd 612a c03e 7330 dcbc a251 51bd
000003e0: fcb8 393b be5f e03d e325 423e d81b 4cbd
000003f0: 145d a13d f668 2b3d 373d 1c3e 7ef8 5cbe

weight_hh_l0 f4 [512, 128]
0.11914293 -0.18183427 0.042284098 -0.24212264 -0.25392926 0.08348928 -0.18470743 -0.029367875
0.18575867 -0.25519782 -0.22835663 -0.20516336 -0.08772009 -0.06080449 0.35690764 -0.021091646
0.17782645 0.13741294 -0.16569106 -0.14319797 -0.015661577 -0.057205666 0.01801375 -0.031797614
0.09059961 -0.5055977 -0.037647028 -0.06954221 0.30575427 0.26109356 0.052766077 -0.058543343
0.03418088 0.008694448 -0.08301621 -0.030541323 0.021104256 0.053303286 -0.06074536 -0.18526436
0.2809923 0.0711708 -0.18505459 0.1636271 -0.0821374 -0.09101108 -0.23155138 0.074163966
-0.15960693 -0.03286037 0.1471274 0.05147686 0.15969512 0.43488368 0.015798334 -0.021785678
0.13489583 0.08861047 -0.27095696 -0.037462078 0.025977017 0.051300664 -0.24842393 -0.10329667
0.09994663 -0.17082359 -0.014855907 0.180844 -0.054512426 0.30806348 0.11592117 0.32163745
0.37575185 -0.4760325 0.05593475 0.003044482 -0.18183693 0.070706174 0.063290484 -0.16877533
-0.17750365 0.10945757 0.42246586 0.1314909 -0.035606742 -0.032547545 0.03339386 0.2775087
-0.01812197 0.04491986 0.18550396 -0.16638663 0.033091385 0.52664614 0.29073614 -0.17151275
-0.041864242 0.21497877 -0.009578859 -0.12638015 0.048649408 0.16139273 0.053779867 0.16188589
-0.16336384 0.019835668 0.25024405 0.3309193 0.33093005 0.08712703 0.22556697 0.1832417
-0.15469828 -0.23350048 -0.29047185 -0.13749553 0.12906075 -0.029571507 -0.1736738 -0.08734408
-0.059498463 -0.2569237 0.4139874 0.15721631 -0.09065917 0.3408048 -0.03476034 -0.23471348
0.07750884 -0.10639276 -0.047272254 -0.047645174 -0.08392874 0.2756709 -0.17577015 -0.10516856
0.037559055 -0.007443445 -0.06574514 0.038950935 -0.05540078 -0.2268606 -0.07927233 -0.14232011
0.011991581 0.0030980378 0.0125575755 -0.0033577988 0.13764223 -0.1372416 -0.0151936775 -0.21883686
-0.14062972 0.29099494 -0.1698564 0.20704891 0.044951532 0.12981102 -0.07174408 -0.09288244
-0.15430054 -0.117658615 -0.1081241 -0.17583351 -0.069777705 0.22637433 0.19577776 0.22792517
0.11337085 0.27843347 -0.010272854 0.02636115 -0.08914992 -0.06737519 0.2129594 0.10147615
-0.0825942 0.19318919 0.2957864 -0.1885417 0.111573294 -0.00014434275 -0.010788564 -0.09978391
0.059978243 -0.17074187 0.17552406 -0.04800066 -0.10204666 0.05893345 0.053714488 0.13543634
0.048379093 -0.12161592 0.06385832 0.057969604 0.23608276 0.1656277 -0.11526708 -0.09511667
-0.050344955 0.14615946 0.07222283 -0.0685113 -0.21630421 0.022327946 0.013479046 0.1464406
-0.14857772 0.09323902 -0.10376049 -0.1608954 -0.12507422 -0.13675262 -0.10459083 -0.1588094
0.036327843 -0.10104342 -0.15649924 -0.009639602 -0.0867695 -0.109082185 0.14838797 -0.016672103
0.18319626 -0.081751704 -0.31213522 0.017025648 -0.048715524 -0.3226684 0.16020727 -0.030671528
-0.24544609 0.040336233 0.0545694 -0.07293309 -0.3210895 0.10955316 0.45566356 0.22197321
-0.24826 0.0075914636 -0.16042703 -0.1143073 -0.07403212 0.06654098 -0.041135162 0.1362885
0.17864653 0.20486873 -0.16074134 0.1728639 -0.22034119 -0.18176605 0.035081666 -0.07484384
00000000: 3501 f43d c332 3abe 1732 2d3d ffee 77be
00000010: 0403 82be 6dfc aa3d f223 3dbe e694 f0bc
00000020: 8537 3e3e 4aa9 82be 52d6 69be 5816 52be
00000030: 97a6 b3bd 210e 79bd 99bc b63e 63c8 acbc
00000040: 2318 363e fab5 0c3e ebaa 29be 7da2 12be
00000050: b54c 80bc 7d50 6abd 9291 933c 373e 02bd
00000060: 4a8c b93d da6e 01bf c533 1abd 256c 8ebd
00000070: d38b 9c3e 0eae 853e 3e21 583d 25cb 6fbd
00000080: 4001 0c3d 2873 0e3c 6704 aabd cc31 fabc
00000090: d5e2 ac3c 8c54 5a3d 20d0 78bd f1b5 3dbe
000000a0: 39de 8f3e ffc1 913d f37e 3dbe dd8d 273e
000000b0: a737 a8bd 0464 babd ce1b 6dbe 47e3 973d
000000c0: 0070 23be 9898 06bd 91a8 163e 66d9 523d
000000d0: 1e87 233e 13a9 de3e 826b 813c e177 b2bc
000000e0: 2222 0a3e 6879 b53d dfba 8abe d671 19bd
000000f0: c1cd d43c a520 523d d862 7ebe 348d d3bd
00000100: d2b0 cc3d 61ec 2ebe 3166 73bc 2b2f 393e
00000110: 6c48 5fbd 7fba 9d3e 1468 ed3d aaad a43e
00000120: 8c62 c03e 88ba f3be d61b 653d ef85 473b
00000130: 7633 3abe 66ce 903d 719e 813d 71d3 2cbe
00000140: 84c3 35be 4a2b e03d 724d d83e 8da5 063e
00000150: 60d8 11bd 9350 05bd 00c8 083d 9f15 8e3e
00000160: 8774 94bc e3fd 373d c0f4 3d3e 4261 2abe
00000170: d58a 073d 48d2 063f 5edb 943e 0aa1 2fbe
00000180: d779 2bbd 6523 5c3e a6f0 1cbc cc69 01be
00000190: 9a44 473d 2344 253e 4748 5c3d 6ac5 253e
000001a0: da48 27be 697e a23c fd1f 803e 416e a93e
000001b0: aa6f a93e a86f b23d 07fb 663e b6a3 3b3e
000001c0: 3a69 1ebe c01a 6fbe bab8 94be a1cb 0cbe
000001d0: 8028 043e f23f f2bc 8bd7 31be 74e1 b2bd
000001e0: a9b4 73bd 818b 83be 28f6 d33e 50fd 203e
000001f0: 84ab b9bd f77d ae3e dc60 0ebd bb58 70be
00000200: f4bc 9e3d 73e4 d9bd 8da0 41bd 9627 43bd
00000210: d5e2 abbd bc24 8d3e 17fd 33be 9d62 d7bd
00000220: 86d7 193d 24e8 f3bb 63a5 86bd 048b 1f3d
00000230: eeeb 62bd 254e 68be 8859 a2bd 5dbc 11be
00000240: 5678 443c 7308 4b3b 4abe 4d3c 840e 5cbb
00000250: 16f2 0c3e 1089 0cbe e7ee 78bc c516 60be
00000260: 3d01 10be 4afd 943e d6ee 2dbe a104 543e
00000270: 191f 383d 2eed 043e 8fee 92bd 2639 bebd
00000280: f600 1ebe 00f7 f0bd 2b70 ddbd b30d 34be
00000290: 9de7 8ebd acce 673e f779 483e 3765 693e
000002a0: fa2e e83d d58e 8e3e 794f 28bc 57f3 d73c
000002b0: 3c94 b6bd 01fc 89bd 0712 5a3e bad2 cf3d
000002c0: 2627 a9bd 63d3 453e 5171 973e 1311 41be
000002d0: 8a80 e43d b65a 17b9 84c2 30bc 825b ccbd
000002e0: bfab 753d f5d6 2ebe 94bc 333e 579c 44bd
000002f0: d7fd d0bd 3464 713d b903 5c3d d3af 0a3e
00000300: 2829 463d c411 f9bd 27c8 823d 8971 6d3d
00000310: aebf 713e 4f9a 293e 2611 ecbd 87cc c2bd
00000320: 8336 4ebd d3aa 153e 90e9 933d a74f 8cbd
00000330: da7e 5dbe 19e9 b63c 37d7 5c3c 86f4 153e
00000340: c224 18be 19f4 be3d 6180 d4bd c4c1 24be
00000350: 7513 00be e108 0cbe b833 d6bd ee9e 22be
00000360: 81cc 143d daef cebd 5641 20be 6cef 1dbc
00000370: 35b4 b1bd 7b66 dfbd 04f3 173e ef93 88bc
00000380: cd97 3b3e 706d a7bd 30d0 9fbe 5f79 8b3c
00000390: ee89 47bd cb34 a5be 600d 243e db42 fbbc
000003a0: 3856 7bbe 9b37 253d 2a84 5f3d f25d 95bd
000003b0: d865 a4be 685d e03d bc4c e93e f24c 633e
000003c0: df37 7ebe d0c1 f83b fc46 24be f219 eabd
000003d0: 279e 97bd a346 883d 587d 28bd 368f 0b3e
000003e0: 1eef 363e 1cc9 513e 6199 24be 3c03 313e
000003f0: 1fa1 61be e120 3abe cbb1 0f3d ba47 99bd

bias_ih_l0 f4 [512]
0.14591967 0.00075205136 0.050825704 0.1878012 0.17302743 0.09108135 0.028061073 0.11156128
0.071656615 0.046249777 0.014846726 0.0818473 0.15122725 -0.02636128 0.23931015 0.1345429
0.088009916 0.13194658 0.13284092 0.19228971 0.06343667 0.07579023 0.12018174 -0.019590465
0.11241757 0.11236104 0.121282876 0.0008670699 0.023239564 0.069810614 0.19994794 0.056324378
0.082656726 0.03610269 0.1699173 0.0476092 0.15956867 -0.020549074 -0.0028091378 0.13709125
0.07966297 -0.008758626 0.19511242 0.16303213 0.1245894 0.11561114 0.15379778 0.20117533
0.1528717 0.18797731 0.11676365 0.079616025 0.04030685 0.18662643 0.1397343 -0.028022658
0.060698546 0.10429923 0.16417623 0.11143133 0.19262002 0.12224192 0.015680524 0.04321007
0.16985938 0.002553014 0.20356561 -0.03964027 -0.0271882 0.044957124 0.10597413 0.057984363
0.20456131 0.28020793 0.12313007 0.049840927 0.088206775 0.23924974 0.11789302 0.014130293
0.099061795 0.293283 0.15172471 0.16438411 -0.027232746 0.042247932 0.095150806 0.12745915
0.022189604 0.15990461 0.11598239 0.06296473 0.23470894 0.22517136 0.017545588 0.12132526
0.09752911 0.060138807 0.057897247 0.18215606 0.13245474 0.12893738 0.031217849 0.06496461
0.03425811 0.014427344 0.116396636 0.17966413 0.09970825 0.12623225 0.16037467 0.122072205
0.06405101 0.05110849 0.13965537 0.008395776 0.20802882 0.10885664 0.03856439 0.13629699
0.17949426 0.098909646 0.030042302 0.12649943 -0.027918348 0.16006303 0.07117195 0.026805643
-0.10636924 0.06284382 0.014668491 -0.17774351 -0.079004824 0.1099638 0.0330049 0.09891231
0.019659253 -0.09038351 -0.040040478 0.06936297 0.03055294 0.12735878 -0.09677884 -0.042532388
-0.1669036 -0.04925826 -0.05296786 0.005500677 -0.004378308 0.08230313 -0.005035186 0.009198178
0.042928066 -0.073526844 0.043380566 -0.033522855 0.15167117 0.068174206 -0.03333959 0.1076532
0.09077775 -0.04657895 0.16198108 -0.058190294 0.021968137 -0.009416156 0.047685042 -0.10247527
0.014504622 0.10726489 -0.048996087 0.03801102 0.049060244 0.007051968 0.07378983 0.06967616
-0.03566536 -0.084772065 -0.09279181 0.053716157 0.12295333 -0.05204473 -0.058181718 0.08120296
0.13012137 -0.0752831 -0.010275946 0.056320556 0.025973354 0.06691774 0.057255294 0.03377315
0.02269769 0.026601618 -0.053762786 -0.026163798 0.013198764 -0.10918267 0.063086495 0.08016452
-0.026880693 -0.093512595 -0.041377056 0.08522884 0.11633472 -0.14053383 0.16959459 0.06907842
-0.06685458 -0.070275314 -0.14935298 -0.115389526 -0.04585096 0.031364277 0.07212902 -0.034636427
0.095396094 0.060641598 0.0013415795 0.06809981 -0.07418104 -0.18660063 0.043652635 -0.04704405
-0.0044127316 0.08282137 -0.0580526 0.07541903 0.043744627 0.030395368 0.15468232 -0.08906698
0.07548607 0.0021702496 0.11674869 -0.06555131 -0.018290255 0.091675356 0.00995758 -0.016513666
-0.21574618 -0.09505979 -0.020300321 0.09758394 -0.03794899 0.02476239 0.019832375 0.054484956
0.06477161 0.097832166 0.013803623 0.17241153 -0.00041305358 0.013309293 -0.084215716 0.0072038826
00000000: f76b 153e 5025 453a 9d2e 503d f54e 403e
00000010: 1a2e 313e dc88 ba3d 56e0 e53c 3e7a e43d
00000020: b4c0 923d 6870 3d3d af3f 733c 8f9f a73d
00000030: 51db 1a3e 9cf3 d7bc b80d 753e 9dc5 093e
00000040: 8b3e b43d 011d 073e 7307 083e 98e7 443e
00000050: 16eb 813d e837 9b3d d821 f63d 2f7c a0bc
00000060: 2f3b e63d 8c1d e63d 2863 f83d 134c 633a
00000070: e660 be3c def8 8e3d 27bf 4c3e 64b4 663d
00000080: ee47 a93d 6ae0 133d cdfe 2d3e dd01 433d
00000090: f865 233e 8856 a8bc 8319 38bb a661 0c3e
000000a0: 5726 a33d 5780 0fbc 8dcb 473e e5f1 263e
000000b0: ba28 ff3d 89c5 ec3d 2a7d 1d3e e800 4e3e
000000c0: 668a 1c3e 207d 403e c821 ef3d ba0d a33d
000000d0: cc18 253d 001b 3f3e 8216 0f3e c68f e5bc
000000e0: 0a9f 783d d69a d53d d01d 283e 1c36 e43d
000000f0: 2f3e 453e f959 fa3d 7174 803c 0bfd 303d
00000100: 9eef 2d3e 7850 273b 8173 503e d65d 22bd
00000110: cab9 debc f624 383d f708 d93d 0381 6d3d
00000120: 8578 513e 6a77 8f3e 9e2b fc3d 0026 4c3d
00000130: c1a5 b43d e2fd 743e e571 f13d bf82 673c
00000140: e9e0 ca3d 3029 963e b95d 1b3e 4f54 283e
00000150: 3517 dfbc 2b0c 2d3d 6dde c23d a784 023e
00000160: f9c6 b53c 09be 233e 2d88 ed3d a7f3 803d
00000170: 8a57 703e 5293 663e c4bb 8f3c 6179 f83d
00000180: 58bd c73d 1c54 763d aa25 6d3d 1e87 3a3e
00000190: 37a2 073e 2908 043e 93bc ff3c 2a0c 853d
000001a0: 3b52 0c3d ab60 6c3c 5c61 ee3d e0f9 373e
000001b0: d733 cc3d 0743 013e 4239 243e fe00 fa3d
000001c0: 2d2d 833d 2357 513d d101 0f3e 708e 093c
000001d0: 8205 553e 3bf0 de3d b2f5 1d3d 7091 0b3e
000001e0: 58cd 373e 2491 ca3d 461b f63c 1189 013e
000001f0: 05b5 e4bc 90e7 233e 99c2 913d 8297 db3c
00000200: 1ed8 d9bd 43b4 803d 1c54 703c 6502 36be
00000210: 48cd a1bd b334 e13d 2530 073d 8a92 ca3d
00000220: 710c a13c fd1a b9bd 7c01 24bd 2c0e 8e3d
00000230: 294a fa3c 576a 023e fc33 c6bd 7136 2ebd
00000240: c7e8 2abe 07c3 49bd d4f4 58bd 063f b43b
00000250: e977 8fbb 8b8e a83d 34fe a4bb f4b3 163c
00000260: 57d5 2f3d 3e95 96bd d2af 313d 434f 09bd
00000270: b04f 1b3e eb9e 8b3d 188f 08bd 4879 dc3d
00000280: afe9 b93d 92c9 3ebd 5ede 253e f258 6ebd
00000290: 86f6 b33c 3946 1abc 6451 433d 8ede d1bd
000002a0: cba4 6d3c b2ad db3d 1fb0 48bd 71b1 1b3d
000002b0: 65f3 483d 3214 e73b 1f1f 973d 60b2 8e3d
000002c0: d715 12bd fa9c adbd a209 bebd 7905 5c3d
000002d0: f5ce fb3d db2c 55bd f44f 6ebd bd4d a63d
000002e0: 893e 053e 072e 9abd 715c 28bc 62b0 663d
000002f0: 12c6 d43c 2b0c 893d 8784 6a3d b755 0a3d
00000300: 82f0 b93c a3eb d93c 5e36 5cbd 7655 d6bc
00000310: a13f 583c 2a9b dfbd 7e33 813d 4c2d a43d
00000320: e634 dcbc 8883 bfbd fd7a 29bd 758c ae3d
00000330: e640 ee3d 1ae8 0fbe 34aa 2d3e fd78 8d3d
00000340: 0eeb 88bd 81ec 8fbd fdef 18be 5851 ecbd
00000350: 37ce 3bbd d477 003d 61b8 933d edde 0dbd
00000360: 075f c33d 5363 783d f0d7 af3a ea77 8b3d
00000370: 3bec 97bd 3c14 3fbe 1bcd 323d 43b1 40bd
00000380: ad98 90bb 409e a93d 90c8 6dbd 4b75 9a3d
00000390: 912d 333d b5ff f83c 0b65 1e3e c068 b6bd
000003a0: 7198 9a3d bf3a 0e3b f019 ef3d c43f 86bd
000003b0: 72d5 95bc 4ac0 bb3d 1e25 233c ab47 87bc
000003c0: 91ec 5cbe b5ae c2bd dc4c a6bc 17da c73d
000003d0: 6670 1bbd 7fda ca3c 8177 a23c 9e2b 5f3d
000003e0: faa6 843d 3b5c c83d 9728 623c a68c 303e
000003f0: 1d8f d8b9 390f 5a3c 4a79 acbd 8c0e ec3b

bias_hh_l0 f4 [512]
0.115005784 0.09127811 0.10092239 0.13391313 0.15106906 0.12704033 -0.037635423 0.061414592
0.14387377 0.0812729 -0.029156018 0.042609684 0.12604803 -0.011353086 0.1253043 0.096532285
-0.012766119 0.032338955 0.17297542 0.18050134 0.10280143 0.13113332 0.04382477 0.0055620447
0.03139531 0.16295585 -0.024633726 0.023702262 0.061203327 0.043250807 0.1295088 0.027833058
-0.024942787 0.08085943 0.05262169 0.047560077 0.014659349 0.048511874 0.09378449 0.18366465
-0.00016931779 0.025448296 0.04507139 0.1899099 0.1811331 0.15021692 0.17118636 0.24752662
0.03900201 0.16525039 0.069665596 0.18032777 0.05520076 0.11610226 0.1103755 0.1095397
0.13627578 0.14162496 0.16658244 0.08348584 0.11687702 0.10144819 0.022569478 0.15568708
0.1442613 0.011923052 0.20337489 0.0539362 0.024945851 0.053642213 0.091977455 -0.04541842
0.23150599 0.20854954 0.20092396 0.06025006 0.048477307 0.13998383 0.05943578 0.085384205
0.050065514 0.28020686 0.06269748 0.085794784 0.067207806 0.0811624 0.18833703 0.08181647
-0.0055486136 0.1751142 0.17272344 0.12532035 0.11304325 0.33044055 0.005900197 0.13839492
0.08240421 0.07683976 0.048492093 0.08405525 0.13134626 0.082611114 0.110401236 0.108093366
-0.035604764 0.03627866 0.095270015 0.15956523 0.14626785 0.014402959 0.22309603 0.087828465
0.05948328 0.11002972 0.18429425 -0.035319794 0.21746403 0.066149645 0.121911064 0.15845963
0.24098194 0.10272383 0.103596635 0.094963126 -0.0030347442 0.11077475 0.18754834 -0.032947622
-0.041083835 0.036398258 0.05455171 -0.108120106 -0.099413894 0.05226229 0.09710322 -0.015623915
0.10002474 -0.036425438 0.10404352 0.037005164 0.055097997 -0.014972938 -0.06407792 0.018142788
-0.05922409 0.11425622 0.05083894 0.03880139 0.002899994 0.117724076 0.055166576 0.09241723
0.068919055 -0.08925408 -0.00987969 0.027124895 0.09946453 0.022325661 -0.14727369 0.10205976
0.13572828 0.0451994 0.11233591 0.0464339 0.041429985 -0.017587814 -0.004228306 -0.18517192
-0.081782 0.0054689823 -0.05519236 0.06616551 0.15001173 0.12038163 -0.069326885 -0.08606917
-0.08158323 -0.047518373 0.03561066 0.045734346 0.039175984 -0.16915837 0.02306878 0.08122451
0.14658166 0.019609887 -0.06642656 -0.01860747 0.023578938 0.13159049 0.021016717 0.046674803
-0.060999524 0.023566801 0.02923723 0.049469046 0.106442966 -0.06751647 0.10827045 0.068250775
-0.11569709 -0.21433307 0.034818843 0.14213686 0.093218386 -0.1645952 0.09769298 0.023333348
-0.011649706 -0.10086882 -0.23000333 -0.12236631 -0.014249104 0.08191276 0.04836418 -0.01820657
-0.005227491 0.08824082 -0.08894872 -0.037936732 -0.07445211 -0.15726578 0.09187451 -0.036233377
0.03836185 0.09294313 -0.05379213 0.12827602 0.0009987167 -0.06976715 0.13998537 -0.035281733
0.10735396 -0.05032529 0.052604955 -0.047259707 -0.08222029 0.16014586 -0.051694494 -0.040886614
-0.10078255 -0.062070884 -0.054976787 0.046724956 -0.083510324 -0.10179787 0.04822778 0.034659307
0.0032779563 -0.024879647 -0.019142943 0.14300656 0.009323818 0.017146835 -0.028539177 0.15238786
00000000: 2788 eb3d 05f0 ba3d 66b0 ce3d 8620 093e
00000010: d9b1 1a3e dc16 023e 9a27 1abd de8d 7b3d
00000020: a553 133e 6872 a63d 9ad8 eebc 7e87 2e3d
00000030: bc12 013e 4b02 3abc c54f 003e b8b2 c53d
00000040: fc28 51bc da75 043d 7820 313e 58d5 383e
00000050: 8e89 d23d d047 063e 9a81 333d d041 b63b
00000060: 5e98 003d e6dd 263e abcc c9bc 3f2b c23c
00000070: 57b0 7a3d c227 313d f49d 043e 2702 e43c
00000080: d154 ccbc a199 a53d d789 573d 5bce 423d
00000090: c42d 703c 63b4 463d 1512 c03d 9612 3c3e
000000a0: e68a 31b9 f278 d03c c79c 383d be77 423e
000000b0: f57a 393e 77d2 193e 7a4b 2f3e 9e77 7d3e
000000c0: 92c0 1f3d 6637 293e d6ac 8e3d d8a7 383e
000000d0: 311a 623d 06c7 ed3d 8d0c e23d 5a56 e03d
000000e0: e18b 0b3e 2206 113e 9694 2a3e a0fa aa3d
000000f0: 385d ef3d 12c4 cf3d a0e3 b83c 6f6c 1f3e
00000100: 3cb9 133e e858 433c 8241 503e 34ec 5c3d
00000110: 3e5b cc3c f0b7 5b3d ad5e bc3d aa08 3abd
00000120: e80f 6d3e 038e 553e 03bf 4d3e c4c8 763d
00000130: 2490 463d ec57 0f3e ef72 733d eadd ae3d
00000140: 7f11 4d3d 4677 8f3e 8967 803d 2db5 af3d
00000150: 3fa4 893d 7938 a63d 6cdb 403e 658f a73d
00000160: 25d1 b5bb 2351 333e 6ade 303e fa53 003e
00000170: 3883 e73d 812f a93e 7156 c13b 66b7 0d3e
00000180: 8ac3 a83d 2a5e 9d3d a59f 463d 2925 ac3d
00000190: a27f 063e 0430 a93d 0b1a e23d 0e60 dd3d
000001a0: 4dd6 11bd ef98 143d ed1c c33d 1165 233e
000001b0: 3dc7 153e 63fa 6b3c 4973 643e 69df b33d
000001c0: bda4 733d 4357 e13d a2b7 3c3e 7dab 10bd
000001d0: e4ae 5e3e 7779 873d 82ac f93d 3e43 223e
000001e0: f8c3 763e df60 d23d 792a d43d 077c c23d
000001f0: 8fe2 46bb dfdd e23d ac0c 403e 16f4 06bd
00000200: 8647 28bd 5716 153d 9d71 5f3d 136e ddbd
00000210: 8399 cbbd fc10 563d 0ede c63d 73fb 7fbc
00000220: c5d9 cc3d d732 15bd c514 d53d ba92 173d
00000230: 70ae 613d 0e51 75bc 493b 83bd 2fa0 943c
00000240: f694 72bd 2aff e93d 7e3c 503d 35ee 1e3d
00000250: d30d 3e3b 5219 f13d 59f6 613d 3f45 bd3d
00000260: 6f25 8d3d d8ca b6bd 6cde 21bc 0735 de3c
00000270: 0fb4 cb3d 4ee4 b63c eace 16be b504 d13d
00000280: 5bfc 0a3e 0223 393d 5f10 e63d 7931 3e3d
00000290: 7db2 293d 5214 90bc 9a8d 8abb b59d 3dbe
000002a0: 527d a7bd 2635 b33b 6211 62bd c881 873d
000002b0: ad9c 193e a58a f63d 41fb 8dbd 0845 b0bd
000002c0: 1c15 a7bd a0a2 42bd 7cdc 113d f053 3b3d
000002d0: ff76 203d da37 2dbe bdfa bc3c 0959 a63d
000002e0: 8119 163e eaa4 a03c a60a 88bd b16e 98bc
000002f0: 9e28 c13c a8bf 063e 402b ac3c 142e 3f3d
00000300: a3da 79bd 2a0f c13c ea82 ef3c 0ea0 4a3d
00000310: c5fe d93d 1346 8abd e6bc dd3d 10c7 8b3d
00000320: 99f2 ecbd 217a 5bbe 349e 0e3d 538c 113e
00000330: 48e9 be3d a58b 28be 4213 c83d 9425 bf3c
00000340: 69de 3ebc 5094 cebd fe85 6bbe 309b fabd
00000350: 1375 69bc e1c1 a73d 8519 463d f225 95bc
00000360: 5f4b abbb 9ab7 b43d bf2a b6bd 8c63 1bbd
00000370: 597a 98bd 480a 21be b428 bc3d 7369 14bd
00000380: 5121 1d3d f858 be3d 2355 5cbd ca5a 033e
00000390: 5fe7 823a 14e2 8ebd 5358 0f3e 9483 10bd
000003a0: 65dc db3d e421 4ebd 4b78 573d 6593 41bd
000003b0: 1d63 a8bd 47fd 233e 9bbd 53bd b978 27bd
000003c0: 1567 cebd 0a3e 7ebd 572f 61bd ab62 3f3d
000003d0: 7607 abbd 677b d0bd 7e8a 453d ebf6 0d3d
000003e0: fbd2 563b 67d0 cbbc a9d1 9cbc 5070 123e
000003f0: edc2 183c 8577 8c3c feca e9bc 900b 1c3e

weight f4 [28, 128]
0.1060255 -0.10325394 0.14542224 0.1398009 0.29523683 0.10542616 -0.10049781 -0.13137335
-0.048289333 -0.099868655 -0.03776659 0.0699444 0.0006351021 0.006173951 0.065156974 0.0834565
0.33113575 0.23067085 0.032979175 0.03287254 0.017558746 -0.07664434 -0.02277282 -0.2439157
-0.23881486 0.21562879 -0.050906554 0.023699014 0.011021092 -0.007873652 -0.14870676 0.055036098
-0.13575397 0.004143636 -0.16965696 -0.19881426 -0.030532602 -0.10214958 0.20275946 0.03069596
0.09188765 0.06380762 0.29785323 0.19864713 -0.15476735 0.039055843 0.1753467 0.19041555
0.070322104 0.02798072 0.07434043 -0.10688405 0.12033096 -0.29360795 -0.16332752 -0.11022002
-0.08059659 -0.37495807 -0.10298105 -0.09567862 0.09718408 0.0104088625 -0.06295506 0.052314706
0.02333332 -0.013003648 -0.24424754 -0.17587426 0.16043092 0.2601429 0.009759834 -0.094492294
-0.5100001 -0.16576914 -0.1417816 -0.13060445 -0.095054045 0.002516006 0.12306544 0.10663726
-0.047434468 -0.15032694 -0.15667965 -0.42248973 -0.018570129 -0.276772 0.104381956 -0.37999532
-0.077007994 -0.036372095 -0.2602896 0.015201637 -0.09260449 -0.5438653 0.11318512 0.12857156
0.13991159 -0.050517663 0.0019653775 0.08496747 -0.010129837 -0.03388974 0.21036021 -0.13063414
-0.1833962 0.35466412 -0.0069452235 -0.07195748 -0.21520488 -0.029041365 0.105395034 0.13017389
-0.07290859 0.2037147 -0.3735428 0.12576981 -0.10527896 0.19659472 -0.046838913 0.17923407
0.16306248 0.12942189 -0.17177089 0.08814919 -0.14102764 -0.271153 -0.026213601 -0.18026775
0.0928786 0.25780562 0.19904256 -0.20857908 -0.18417025 -0.21009322 0.049052957 1.8594896e-05
2.6479496e-05 -0.3453766 -0.22975715 0.12422386 0.038457643 -0.11031964 0.18573356 -0.15547505
0.13550834 -0.13717699 0.17260808 0.0003856838 -0.085906036 -0.026788175 -0.020248992 0.111616105
-0.14431742 -0.34268886 0.060532153 -0.15530603 0.22692351 0.14148617 0.15017268 0.046671093
0.108338006 0.19434237 0.049177382 0.18200344 -0.15845668 -0.22928089 -0.017688867 -0.25491154
-0.104436405 -0.33356038 0.031295426 0.15042019 -0.040640593 0.07587834 -0.19416519 0.10478853
-0.22683813 -0.02209339 0.28419706 -0.18218885 -0.4145604 0.1963936 -0.01211737 -0.118227735
-0.1861914 0.5067025 -0.04276559 -0.21249521 0.28337634 -0.12569104 0.20816676 0.05847166
0.0019903614 0.097593546 0.1614744 -0.088933185 -0.08945054 0.1210278 -0.008263429 -0.073699996
0.379764 -0.46012446 -0.24707831 -0.09819365 0.054526314 0.010156839 -0.2548013 0.05459375
0.095581256 -0.0001547211 0.48252428 0.11954235 0.005708326 0.03528435 -0.0998319 -0.13517384
0.026698047 0.13206898 0.01796796 -0.2060907 -0.09528523 -0.1041078 -0.22582223 -0.2633861
-0.048455782 -0.106795825 0.15847988 0.030233486 0.14514738 0.14271516 0.028098667 0.31793243
0.06276704 -0.008187478 0.080861926 0.1555908 0.028216735 -0.19747156 -0.25711417 0.3096213
-0.06370205 -0.38267094 0.15557793 -0.061418988 -0.18548888 0.16221914 0.115963966 -0.113628164
0.3438407 -0.23823717 0.1470832 -0.24875808 0.06802779 -0.11661777 -0.19097888 0.043672096
00000000: e623 d93d cd76 d3bd 91e9 143e f827 0f3e
00000010: 4829 973e ace9 d73d ccd1 cdbd bc86 06be
00000020: 09cb 45bd f087 ccbd 24b1 1abd 023f 8f3d
00000030: fb7c 263a db4e ca3b 0571 853d 3eeb aa3d
00000040: a08a a93e fb34 6c3e 2c15 073d 5ba5 063d
00000050: 5cd7 8f3c b5f7 9cbd 118e babc 0ac5 79be
00000060: e28b 74be cbcd 5c3e 6483 50bd 6f24 c23c
00000070: cf91 343c 7d00 01bc 9646 18be 886d 613d
00000080: 1703 0bbe 57c7 873b 8eba 2dbe f795 4bbe
00000090: 821f fabc cd33 d1bd 2da0 4f3e 1876 fb3c
000000a0: 982f bc3d 92ad 823d 3880 983e 276a 4b3e
000000b0: 557b 1ebe 05f9 1f3d 168e 333e 4bfc 423e
000000c0: 0905 903d d337 e53c cc3f 983d 06e6 dabd
000000d0: 1470 f63d c853 96be 543f 27be 09bb e1bd
000000e0: d30f a5bd 81fa bfbe bbe7 d2bd 27f3 c3bd
000000f0: 7208 c73d ef89 2a3c 95ee 80bd f247 563d
00000100: 8525 bf3c 410d 55bc 071c 7abe 6218 34be
00000110: 0148 243e 7331 853e b6e7 1f3c 2d85 c1bd
00000120: 5e8f 02bf 63bf 29be 322f 11be 2cbd 05be
00000130: b2ab c2bd 93e3 243b bc09 fc3d a364 da3d
00000140: a54a 42bd 4eef 19be a170 20be 9350 d8be
00000150: 6220 98bc 0fb5 8dbe 35c6 d53d bf8e c2be
00000160: 5eb6 9dbd e8fa 14bd ae44 85be 4910 793c
00000170: 6ca7 bdbd c23a 0bbf 9acd e73d 43a8 033e
00000180: fc44 0f3e 9ceb 4ebd 90cd 003b 6d03 ae3d
00000190: 9ef7 25bc f8cf 0abd ab68 573e f5c4 05be
000001a0: 37cc 3bbe 8996 b53e c294 e3bb 715e 93bd
000001b0: ab5e 5cbe 28e8 edbc 5ad9 d73d 4e4c 053e
000001c0: 1951 95bd 969a 503e 0041 bfbe cdc9 003e
000001d0: 7f9c d7bd 2050 493e 29da 3fbd 2389 373e
000001e0: daf9 263e 2c87 043e b5e4 2fbe 9087 b43d
000001f0: 8d69 10be 91d4 8abe e8bd d6bc 1c98 38be
00000200: 2337 be3d 19ff 833e d0d1 4b3e c195 55be
00000210: 2097 3cbe ad22 57be c1eb 483d 3cfc 9b37
00000220: 4920 de37 34d5 b0be 7545 6bbe 1469 fe3d
00000230: c385 1d3d 43ef e1bd f030 3e3e da34 1fbe
00000240: b3c2 0a3e 2078 0cbe 2cc0 303e 9a35 ca39
00000250: 81ef afbd e072 dbbc 37e1 a5bc fc96 e43d
00000260: f2c7 13be ea74 afbe 90f0 773d 8b08 1fbe
00000270: a35e 683e c0e1 103e dec6 193e 302a 3f3d
00000280: 51e0 dd3d b001 473e 396e 493d 1c5f 3a3e
00000290: 7842 22be 9cc8 6abe 3ee8 90bc c483 82be
000002a0: c1e2 d5bd 6dc8 aabe a22f 003d c007 1a3e
000002b0: c076 26bd 1a66 9b3d 3dd3 46be 5e9b d63d
000002c0: 4148 68be 32fd b4bc 4782 913e b78f 3abe
000002d0: 4341 d4be 671b 493e ef87 46bc 6221 f2bd
000002e0: f5a8 3ebe 41b7 013f f92a 2fbd 5898 59be
000002f0: b416 913e 27b5 00be ab29 553e fb7f 6f3d
00000300: b970 023b 20df c73d 8c59 253e 9a22 b6bd
00000310: d831 b7bd 6cdd f73d 5563 07bc 06f0 96bd
00000320: 6d70 c23e 6f95 ebbe 1902 7dbe c119 c9bd
00000330: fc56 5f3d df68 263c 5175 82be b29d 5f3d
00000340: 1bc0 c33d a13c 22b9 6c0d f73e 9fd2 f43d
00000350: e90c bb3b 5386 103d ab74 ccbd 036b 0abe
00000360: ddb5 da3c 173d 073e 8b31 933c 7109 53be
00000370: e724 c3bd 7836 d5bd f13d 67be 8bda 86be
00000380: 9279 46bd c5b7 dabd 8d48 223e 37ac f73c
00000390: 84a1 143e ec23 123e 2d2f e63c 0ac8 a23e
000003a0: 028c 803d c624 06bc f09a a53d 3253 1f3e
000003b0: c826 e73c fc35 4abe 78a4 83be af86 9e3e
000003c0: 3876 82bd 72ed c3be d24f 1f3e 7a92 7bbd
000003d0: ccf0 3dbe c61c 263e 847e ed3d e2b5 e8bd
000003e0: e30b b03e 72f4 73be fa9c 163e 70ba 7ebe
000003f0: 2752 8b3d 4cd5 eebd f88f 43be 83e1 323d

bias f4 [28]
-0.04279573 0.056912273 0.16040759 0.04528302 0.07352391 0.019090666 -0.008302805 -0.028090283
0.0190906 -0.099550456 -0.09169091 0.08404291 -0.06525045 0.10852267 -0.009054186 0.04885219
0.0061723376 0.117018886 0.034836765 0.11936747 -0.0021507198 -0.060315475 -0.16430855 -0.03918176
-0.034656815 -0.060907952 0.067227945 -0.116647184
00000000: 934a 2fbd d81c 693d e341 243e b07a 393d
00000010: b493 963d 0764 9c3c 7d08 08bc 981d e6bc
00000020: e463 9c3c 1ce1 cbbd 72c8 bbbd b01e ac3d
00000030: 07a2 85bd 2241 de3d 0258 14bc 3c19 483d
00000040: 5241 ca3b 99a7 ef3d ffb0 0e3d ef76 f43d
00000050: 17f3 0cbb 5c0d 77bd 8040 28be 0e7d 20bd
00000060: 4ef4 0dbd 9e7a 79bd ceae 893d b8e4 eebd
