models/ESEN_100-00/ESEN_100-00_2.pt (torch, 318607 bytes, 7 tensors)

weight f4 [28, 16]
-2.9840283 -0.47752547 2.4952621 -2.8630252 1.1633185 0.124064475 -1.3991041 -2.5313907
-2.1020932 0.1585347 0.3618006 0.0025532169 -0.6279072 1.50101 -0.22280973 -0.6072397
0.1570335 -3.0201702 -1.9540054 -1.5290192 1.5084572 2.7385833 -0.055587515 0.6613882
0.46731585 -1.1336365 0.18816632 -1.8975254 1.2921432 -0.072307125 -1.9624149 0.10653549
0.30351004 2.2604737 1.5662997 0.6557539 -0.4501462 -0.33739167 -2.059559 -0.6866795
-2.5216892 1.047966 -1.9521818 -2.9677033 0.38267744 -0.829023 -0.6705116 -0.20173807
0.884298 0.83016706 -0.6501196 -0.29012582 -0.90759104 2.308571 -1.5633849 2.3352063
1.135681 0.08117854 2.292004 1.2406466 -1.2425522 -2.1838834 -0.14117245 -4.023209
-0.7955884 -1.7528865 -3.0090187 -1.4051815 -1.8977056 -1.0664384 0.14652847 -0.34983343
0.03268087 -1.795602 1.5737618 -1.167461 -0.7458658 -0.025909511 1.185662 0.047043264
0.13099194 1.4546584 -2.1611922 -1.6952718 -1.0280036 0.66166484 -2.4695976 -3.237101
1.892228 0.09551665 -0.4298148 -0.8502771 0.12289506 -1.9092435 -1.774138 0.28681004
1.1119105 0.15566954 -0.5376027 -0.36012003 0.92560416 -2.6701293 -2.3444107 2.996982
-0.77371305 -1.8915706 -1.2598194 -1.8826077 1.7459992 -0.6429543 0.037029926 -0.93783396
1.0303868 -0.26961267 -1.3503594 1.6384827 -0.3107455 2.6872423 -1.0070441 -0.12772779
1.7997004 0.69479513 0.15695983 0.029743904 0.24374497 -2.6423004 -0.07839903 0.96139616
-1.9690138 0.13438775 1.1701297 1.3301977 -2.5063114 0.100280985 -0.71559954 1.2529116
1.0748425 0.5028681 -0.54812866 -0.03204481 1.2674536 1.1227894 0.6661263 0.9443913
-1.4590673 1.7608855 -1.4499836 1.9680933 1.8806611 0.2706569 -1.2454439 0.6273984
-0.16513883 -3.018013 0.17124613 0.19927417 -3.058159 0.7351333 -0.7982771 2.8167565
2.728651 1.5792692 -0.9680095 -1.1377568 0.24988939 -2.493125 0.07566245 0.64341336
-0.3197994 -0.39644104 -1.254091 1.2445917 2.58451 0.06894469 1.8873557 -1.511451
1.1008786 1.5037853 -1.5203903 -1.655716 -1.5945151 -0.22991008 3.4379086 0.3106495
0.3275281 -0.043093883 -1.7531948 0.71643 0.1803309 -0.9855616 -0.5615536 2.2587779
2.855951 1.9717185 -1.0057492 -0.06377316 0.8165632 -1.8445276 1.7428954 0.3845128
0.007602592 0.6662474 0.9370234 -1.9062275 -1.319468 1.2524227 -0.092075616 0.31356192
1.7964857 -0.81404 -1.623913 2.7124066 -0.111382015 2.1470933 -0.013063265 -0.16485715
-2.5943046 -0.2752486 -2.4896836 1.8489939 -0.89650947 0.6019731 0.44430402 -1.8768396
-0.9158703 0.6843985 2.0092592 1.2559676 1.0169268 -1.866517 0.4970256 -1.021057
0.14420013 -1.6384124 1.2383475 0.99821514 0.7043327 0.6922773 1.8648632 -2.4179595
2.2221513 0.16893405 -1.234714 1.3905607 -0.48191893 0.5274444 -0.9471487 -1.7858448
1.5949762 -1.7634555 -0.7892333 -0.81209713 -0.5354774 1.331103 -1.3692093 -0.24983221
00000000: 52fa 3ec0 387e f4be 60b2 1f40 ce3b 37c0
00000010: 9fe7 943f 8415 fe3d d815 b3bf 4e02 22c0
00000020: b288 06c0 ec56 223e ee3d b93e df53 273b
00000030: 87be 20bf 1821 c03f 3c28 64be 1074 1bbf
00000040: 64cd 203e 784a 41c0 d91c fabf e7b6 c3bf
00000050: 2015 c13f f344 2f40 bcaf 63bd bd50 293f
00000060: 0644 ef3e 001b 91bf acae 403e 1de2 f2bf
00000070: f364 a53f c215 94bd 6930 fbbf 472f da3d
00000080: ab65 9b3e 9aab 1040 827c c83f 7ddf 273f
00000090: 9079 e6be 9abe acbe d1cf 03c0 3aca 2fbf
000000a0: 5b63 21c0 c023 863f 18e1 f9bf daee 3dc0
000000b0: 4cee c33e da3a 54bf a6a6 2bbf 6d94 4ebe
000000c0: 5b61 623f d485 543f 3d6e 26bf 5f8b 94be
000000d0: e357 68bf a1bf 1340 ff1c c8bf 0574 1540
000000e0: ff5d 913f ef40 a63d 32b0 1240 82cd 9e3f
000000f0: f30b 9fbf bfc4 0bc0 838f 10be 21be 80c0
00000100: aeab 4bbf 965e e0bf c393 40c0 fddc b3bf
00000110: 04e8 f2bf 0e81 88bf 8f0b 163e 5e1d b3be
00000120: 60dc 053d 49d6 e5bf 0771 c93f 5d6f 95bf
00000130: 10f1 3ebf 2f40 d4bc c6c3 973f 70b0 403d
00000140: c022 063e 3f32 ba3f f950 0ac0 abfe d8bf
00000150: 9f95 83bf de62 293f e30d 1ec0 aa2c 4fc0
00000160: 8734 f23f 3c9e c33d af10 dcbe c3ab 59bf
00000170: 68b0 fb3d 1762 f4bf f416 e3bf c4d8 923e
00000180: 1553 8e3f d667 1f3e 55a0 09bf a761 b8be
00000190: 65f4 6c3f 66e3 2ac0 d30a 16c0 8ece 3f40
000001a0: 0f12 46bf fc1e f2bf c341 a1bf 4af9 f0bf
000001b0: e77c df3f a798 24bf b1ac 173d e315 70bf
000001c0: b7e3 833f ac0a 8abe 94d8 acbf cdb9 d13f
000001d0: 091a 9fbe c7fb 2b40 d2e6 80bf 13cb 02be
000001e0: 955c e63f 18de 313f 14ba 203e 7da9 f33c
000001f0: 4898 793e 731b 29c0 ac8f a0bd 0f1e 763f
00000200: a508 fcbf f19c 093e cfc6 953f eb43 aa3f
00000210: 6867 20c0 1e60 cd3d 8831 37bf 685f a03f
00000220: 7094 893f f7bb 003f 2952 0cbf 6b41 03bd
00000230: eb3b a23f 90b7 8f3f 4187 2a3f a1c3 713f
00000240: b8c2 babf b264 e13f 1099 b9bf 7bea fb3f
00000250: 81b9 f03f 8b93 8a3e b56a 9fbf 2e9d 203f
00000260: 271a 29be 2027 41c0 255b 2f3e 870e 4c3e
00000270: e1b8 43c0 b231 3c3f e35b 4cbf bd45 3440
00000280: 38a2 2e40 7e25 ca3f 78cf 77bf 04a2 91bf
00000290: 01e3 7f3e 5c8f 1fc0 eaf4 9a3d bdb6 243f
000002a0: bfbc a3be 52fa cabe 0e86 a0bf c84e 9f3f
000002b0: 9d68 2540 e032 8d3d df94 f13f 3a77 c1bf
000002c0: 97e9 8c3f 097c c03f 269c c2bf 80ee d3bf
000002d0: 1219 ccbf 8c6d 6bbe b206 5c40 740d 9f3e
000002e0: c3b1 a73e 3683 30bd b068 e0bf f567 373f
000002f0: aaa8 383e c44d 7cbf fac1 0fbf d18f 1040
00000300: e7c7 3640 4661 fc3f 64bc 80bf 819b 82bd
00000310: 490a 513f 7b19 ecbf 3217 df3f ddde c43e
00000320: 2a1f f93b 318f 2a3f c4e0 6f3f 43ff f3bf
00000330: 54e4 a8bf 634f a03f 2492 bcbd 308b a03e
00000340: 3ef3 e53f ed64 50bf 62dc cfbf 1298 2d40
00000350: 411c e4bd fa69 0940 4e07 56bc 50d0 28be
00000360: 1609 26c0 62ed 8cbe fa56 1fc0 d5ab ec3f
00000370: a581 65bf e91a 1a3f d17b e33e 483c f0bf
00000380: 7a76 6abf bd34 2f3f b497 0040 8cc3 a03f
00000390: a82a 823f 07ea eebf 247a fe3e ffb1 82bf
000003a0: 33a9 133e 7fb7 d1bf 2c82 9e3f 078b 7f3f
000003b0: 264f 343f 1639 313f d6b3 ee3f d9bf 1ac0
000003c0: ba37 0e40 0cfd 2c3e 1c0b 9ebf e5fd b13f
000003d0: 14be f6be 9906 073f 5678 72bf 9096 e4bf
000003e0: 2e28 cc3f e9b8 e1bf 320b 4abf 99e5 4fbf
000003f0: 0c15 09bf 9561 aa3f 4042 afbf 04d4 7fbe

weight_ih_l0 f4 [512, 16]
0.19378208 0.459345 0.16079219 0.36025584 0.16100526 -0.42132 -0.16918916 0.43506953
-0.3569673 0.2466883 -0.60048807 -0.88139725 0.40454438 0.74656034 0.24680507 -0.04956432
-0.510088 -0.41780332 0.47053543 -0.58197117 0.18188101 -0.68930346 0.05250206 0.3710438
-0.03517878 -0.31594965 0.91005766 -0.4643012 0.24145806 0.3954137 -0.29221514 -0.79808456
-0.8241987 0.21795599 0.031260494 -0.6417231 -0.375469 0.27956083 0.42807359 -0.14978749
-0.39586255 -0.12079766 0.11865229 0.3716775 -0.6068459 -0.46836337 0.3904647 -0.12595189
0.08025931 0.032778915 -0.24704808 0.1452458 0.091762416 -0.014800289 0.5428093 0.033093147
-0.14970466 -0.5675958 -0.44032747 0.21021114 -0.075505964 0.5000044 1.4450592 -0.19296403
-0.46744642 0.6678796 0.06690853 0.5134548 -0.5367467 -0.27654743 0.52111316 0.60975003
-0.07738852 0.62782395 0.15785754 0.31260097 0.24095348 -0.61604744 0.20996195 0.6740441
-0.3700304 -0.050449956 -0.21641575 -0.053513393 0.033066537 0.09779252 -0.4742566 -0.08508743
0.7617459 0.41211247 0.28911376 -0.27717793 0.7904532 -0.03391718 -0.2972796 -0.18513706
-0.16198038 0.1939161 -0.23660345 0.12811512 0.73655105 0.37119675 -0.534841 -0.25078744
-0.42043632 -0.61459565 -0.4248295 0.4458562 -0.38444838 0.016776158 0.41244516 -0.010131828
-0.64548904 -0.1797684 0.5089911 -0.115209304 0.5277346 -0.1020511 -0.0485657 0.2743134
0.34205398 0.77127784 -0.036599014 -0.008252697 0.8946992 0.08883949 -0.9920156 -0.011713228
0.20392284 -0.1939136 0.06754226 0.026862282 -0.23858868 -0.6536124 -0.41243845 -0.3004701
0.06966826 -0.51012385 0.03206532 -0.39578363 -0.025437173 0.63941824 -0.12948725 -0.039487265
0.26443344 -0.17023262 0.25454572 -0.33463198 -0.13529253 1.0227655 -0.103858404 0.046444867
-0.29853326 0.3707602 -0.9936338 -0.056469005 -0.39225844 -0.6014007 -0.041229818 -0.37005863
0.20544533 0.38200933 -0.46191415 0.035390195 -0.6377251 -0.4151668 0.31640482 0.5482358
0.459191 0.32109082 -0.8812685 -0.20642768 0.17783186 0.33608583 0.41544288 0.20774968
-0.08339514 0.16841486 -0.3955207 -0.32224807 0.11133928 -0.5592072 -0.7569935 0.02127835
0.48032093 -0.119373195 0.6946547 -0.41313118 0.40764472 0.619944 1.0078024 0.25869784
-0.38581964 0.086635746 -0.1363585 -0.709056 0.05285704 0.06471526 -0.057004116 0.080469884
-0.16424514 0.12220103 -0.47719097 0.09396923 -0.13007961 -0.53229266 0.52729803 0.35350165
-0.20556548 -0.030280694 0.19360869 -0.21222435 0.69014126 -0.14221421 -0.12931576 -0.195583
0.056513373 0.041170713 -0.09619373 -0.2582443 0.30938908 0.38141853 -0.40769324 0.25625348
-0.14507449 0.71001977 -0.00095314014 0.81558573 -0.22548217 0.0049543255 -0.58924633 -0.63538915
-0.084215306 -0.33645943 -0.03958028 0.3252469 0.54138774 -0.117912136 0.51116604 -0.6917854
0.41467744 -0.10949324 -0.3953466 0.22121705 0.053451084 -0.0024433811 0.4249625 -0.1264238
0.44840243 0.01192742 0.24338038 0.42907885 0.10381262 -0.6747948 0.033294003 -0.2000902
00000000: cf6e 463e 452f eb3e b5a6 243e 7473 b83e
00000010: 90de 243e 41b7 d7be ec3f 2dbe 6fc1 de3e
00000020: 6bc4 b6be dc9b 7c3e 96b9 19bf 40a3 61bf
00000030: 7120 cf3e 941e 3f3f 78ba 7c3e f503 4bbd
00000040: 2195 02bf 51ea d5be 05ea f03e 10fc 14bf
00000050: 043f 3a3e 3176 30bf 660c 573d 74f9 bd3e
00000060: a017 10bd 27c4 a1be 8af9 683f e3b8 edbe
00000070: c840 773e aa73 ca3e 399d 95be 454f 4cbf
00000080: b0fe 52bf db2f 5f3e 010b 003d f747 24bf
00000090: 793d c0be 9922 8f3e 762c db3e e461 19be
000000a0: 7fae cabe c364 f7bd f9ff f23d 834c be3e
000000b0: 415a 1bbf 53cd efbe fdea c73e 88f9 00be
000000c0: fe5e a43d 2f43 063d 2cfa 7cbe 51bb 143e
000000d0: efed bb3d e97c 72bc 8df5 0a3f ae8c 073d
000000e0: 2e4c 19be f54d 11bf 9a72 e1be 9741 573e
000000f0: dfa2 9abd 4a00 003f b3f7 b83f 5d98 45be
00000100: 2355 efbe 28fa 2a3f 5707 893d c671 033f
00000110: 3b68 09bf a097 8dbe ac67 053f 9418 1c3f
00000120: df7d 9ebd 12b9 203f 68a5 213e 3c0d a03e
00000130: 82bc 763e 49b5 1dbf 4400 573e 278e 2c3f
00000140: a074 bdbe 9da4 4ebd 179c 5dbe dc30 5bbd
00000150: c770 073d 7247 c83d c3d1 f2be 5242 aebd
00000160: c801 433f 6800 d33e b806 943e 44ea 8dbe
00000170: 245b 4a3f beec 0abd 0835 98be 9294 3dbe
00000180: 2fde 25be f191 463e 2d48 72be 9c30 033e
00000190: 9c8e 3c3f 800d be3e 57eb 08bf 3667 80be
000001a0: 6e43 d7be 2456 1dbf 4183 d9be 4447 e43e
000001b0: 6bd6 c4be 276e 893c 032c d33e f7ff 25bc
000001c0: c53e 25bf 3515 38be 3e4d 023f dbf2 ebbd
000001d0: 9d19 073f 2b00 d1bd d4ec 46bd ce72 8c3e
000001e0: b321 af3e 7772 453f d9e8 15bd 5236 07bc
000001f0: 020b 653f 7bf1 b53d bcf4 7dbf d7e8 3fbc
00000200: 26d1 503e 4991 46be 9953 8a3d 4a0e dc3c
00000210: 9750 74be 2453 27bf 222b d3be 38d7 99be
00000220: 3cae 8e3d 7a97 02bf ed56 033d 27a4 cabe
00000230: 9e61 d0bc eab0 233f 4e98 04be 66bd 21bd
00000240: d263 873e 7651 2ebe d153 823e e254 abbe
00000250: 208a 0abe fbe9 823f b7b3 d4bd f93c 3e3d
00000260: 5ad9 98be 48d4 bd3e c95e 7ebf 0b4c 67bd
00000270: 19d6 c8be 65f5 19bf 99e0 28bd 5378 bdbe
00000280: 4360 523e ba96 c33e 0380 ecbe 4ff5 103d
00000290: f441 23bf be90 d4be d0ff a13e 2e59 0c3f
000002a0: 151b eb3e 0466 a43e d09a 61bf c761 53be
000002b0: 8e19 363e 7113 ac3e eeb4 d43e 55bc 543e
000002c0: 12cb aabd f274 2c3e b081 cabe b3fd a4be
000002d0: d905 e43d 3428 0fbf 53ca 41bf ef4f ae3c
000002e0: a0ec f53e ef79 f4bd e4d4 313f ee85 d3be
000002f0: cfb6 d03e a6b4 1e3f abff 803f 0b74 843e
00000300: 278a c5be 156e b13d 90a1 0bbe b284 35bf
00000310: a080 583d 6f89 843d 267d 69bd 65cd a43d
00000320: e12f 28be 8944 fa3d 6052 f4be f172 c03d
00000330: 9733 05be 5544 08bf 01fd 063f 2bfe b43e
00000340: c27f 52be 380f f8bc 5b41 463e 5751 59be
00000350: 19ad 303f 9aa0 11be 5a6b 04be e946 48be
00000360: 917a 673d 9fa2 283d 3801 c5bd 9938 84be
00000370: 3f68 9e3e 4a49 c33e 2bbd d0be a833 833e
00000380: 688e 14be dbc3 353f 27dc 79ba 3aca 503f
00000390: cce4 66be e557 a23b d9d8 16bf dda8 22bf
000003a0: 1379 acbd 6944 acbe ef1e 22bd c386 a63e
000003b0: 6398 0a3f eb7b f1bd c7db 023f d918 31bf
000003c0: 9a50 d43e fe3d e0bd df6a cabe b986 623e
000003d0: 86ef 5a3d 2221 20bb af94 d93e 3e75 01be
000003e0: 0195 e53e 3a6b 433c b538 793e 39b0 db3e
000003f0: b69b d43d 5abf 2cbf 4b5f 083d 72e4 4cbe

weight_hh_l0 f4 [512, 128]
0.024979627 0.05760149 -0.25033182 0.3792566 -0.22245023 -0.83176863 0.02154697 0.08031665
-0.6389889 -0.07638727 0.39892727 -0.54832786 -0.7965304 -1.3140321 0.4220351 -0.45009917
-0.21688974 0.212977 -0.030062493 0.039959684 -0.70145696 0.0016786508 0.018498693 -0.06128632
-0.05081492 0.39062375 0.006049407 -0.33602425 0.3374612 0.022510527 -0.08045616 -0.5961541
-0.18705589 0.37063253 -0.20410186 0.12909496 0.8177807 0.10794337 0.8489646 -0.34564975
0.24353322 -0.035964794 0.12052464 0.22917289 -0.29493698 -0.30453876 -0.5628833 -0.4419738
-0.20964333 0.45943868 -0.2889019 0.12272776 0.90222186 0.22373366 -0.48835027 0.10028614
0.48718515 0.5605798 0.35980853 -0.16566725 -0.025291394 0.08183129 0.620629 0.10947638
0.25958073 0.035573564 -0.44321743 0.38137612 0.24853103 1.0024861 0.86363584 -0.74136525
0.19809377 0.02426483 -0.13361152 0.110824145 0.3132712 -0.28480557 -0.461212 -0.21892595
1.1828623 0.2652328 -0.22211108 0.6661344 0.8200724 -0.06054446 -0.44826448 0.54579884
-0.037177283 0.43369836 -0.669372 0.043774627 0.54455644 0.4239698 -0.8425241 0.25846416
-0.327451 -1.162583 -0.20314467 0.14573972 -0.20320994 0.220985 -0.2699951 0.3657482
-0.26658934 -0.6895604 0.5794906 -0.47048146 -0.23989974 0.026910054 -0.8576747 -0.21585618
0.1867585 0.6155247 0.41259152 -0.3269652 -1.0901079 -0.47848457 -0.72260404 -0.09788684
0.3511964 -0.036687583 0.47287887 0.51402175 0.35159695 1.1549327 -0.7872603 0.27293408
-0.3145164 -0.11396075 0.035084892 0.33782828 0.558722 0.41880673 -0.22278948 0.0390719
0.31010693 0.22782788 0.28653297 0.8064606 -0.19729304 -0.20092274 -0.2668202 -0.44875723
0.38419807 2.090214 0.34388092 0.14680772 0.5133086 -0.9429491 0.41834655 0.18170783
-0.61072564 -0.49748644 0.28836846 0.2361805 0.44552022 0.052974805 0.07197501 0.61581135
0.54002804 -0.23789845 0.54712236 0.2606146 -1.1016779 1.0546457 0.9862812 -0.06916902
0.36245516 0.21853638 -0.17381409 0.6082069 0.025654871 0.15670995 -0.516762 -0.7441939
-0.42380548 -0.58446574 0.096392415 0.21635029 -0.15495516 0.17236477 -1.0437315 0.8690385
-0.5155443 -0.06979559 -0.48964468 0.68394315 0.6817085 -0.3890966 -0.35066268 -1.2603195
-0.42782846 -0.638888 -0.33485857 -0.4122231 0.81830996 0.7332362 1.1520147 0.33665988
-0.24144687 -0.90218735 0.17542256 0.115445524 -0.15361796 -0.1851508 0.3229835 -0.09552576
1.4501816 0.045643926 -0.52045846 0.4117459 -0.69949615 -0.70044756 0.45270622 0.09123007
-0.26455295 -0.8881739 0.07206374 0.35729665 0.6580128 0.6203424 0.12318284 -0.7450476
-0.43899766 -2.0170076 0.1735529 0.37658754 -0.18743421 0.32736632 -0.48642358 -0.505685
-0.24441381 -0.16389921 0.48507902 -0.69172513 -0.4794185 -0.46693325 -0.26599416 0.051549274
0.20625897 0.25506467 -0.625126 -0.33381674 -0.53662485 0.7277202 0.08982469 -1.160715
0.15930413 0.5094142 0.57017624 0.57373667 -1.1325382 -0.25211015 -0.22484699 0.70452905
00000000: 13a2 cc3c 8aef 6b3d 7e2b 80be ec2d c23e
00000010: fec9 63be caee 54bf 4583 b03c 0e7d a43d
00000020: c794 23bf ee70 9cbd 3240 cc3e 375f 0cbf
00000030: 6be9 4bbf 3432 a8bf fc14 d83e 6673 e6be
00000040: 5818 5ebe a516 5a3e 9e45 f6bc c4ac 233d
00000050: af92 33bf 2d06 dc3a 928a 973c 5d07 7bbd
00000060: 4e23 50bd d6ff c73e 1b3a c63b 5f0b acbe
00000070: b7c7 ac3e ff67 b83c 33c6 a4bd 8e9d 18bf
00000080: 948b 3fbe 8cc3 bd3e 1400 51be 7831 043e
00000090: 135a 513f 6a11 dd3d be55 593f 01f9 b0be
000000a0: c660 793e d24f 13bd 9fd5 f63d 4cac 6a3e
000000b0: fb01 97be 81ec 9bbe 1f19 10bf 644a e2be
000000c0: beac 56be 8c3b eb3e f3ea 93be b158 fb3d
000000d0: 03f8 663f 701a 653e 0c09 fabe d262 cd3d
000000e0: 5570 f93e 2882 0f3f d338 b83e ada4 29be
000000f0: e62f cfbc 2a97 a73d 8be1 1e3f 2735 e03d
00000100: c4e7 843e 96b5 113d 65ed e2be bb43 c33e
00000110: eb7e 7e3e 7751 803f 3d17 5d3f 1dca 3dbf
00000120: 18d9 4a3e 09c7 c63c 75d1 08be c5f7 e23d
00000130: 1565 a03e 09d2 91be fb23 ecbe 202e 60be
00000140: 0868 973f 98cc 873e 1671 63be c987 2a3f
00000150: 44f0 513f 78fd 77bd ec82 e5be 79b9 0b3f
00000160: 3547 18bd b60d de3e f75b 2bbf 064d 333d
00000170: 0d68 0b3f 9212 d93e a9af 57bf 6a55 843e
00000180: a8a7 a7be 85cf 94bf 2805 50be cb3c 153e
00000190: 4416 50be e449 623e cc3c 8abe 5943 bb3e
000001a0: 667e 88be 0887 30bf 7f59 143f f2e2 f0be
000001b0: 47a8 75be 7972 dc3c 9290 5bbf 6709 5dbe
000001c0: 9f3d 3f3e 0793 1d3f 323f d33e fc67 a7be
000001d0: a888 8bbf eefb f4be 94fc 38bf e578 c8bd
000001e0: 04d0 b33e b845 16bd 2e1d f23e ee96 033f
000001f0: 8404 b43e d6d4 933f e489 49bf 04be 8b3e
00000200: 4b08 a1be 4164 e9bd 2db5 0f3d d4f7 ac3e
00000210: 6808 0f3f d66d d63e ed22 64be db09 203d
00000220: 56c6 9e3e b64b 693e 73b4 923e 3474 4e3f
00000230: 3007 4abe b1be 4dbe a89c 88be 82c3 e5be
00000240: 9cb5 c43e 11c6 0540 2911 b03e c354 163e
00000250: 3168 033f 1d65 71bf 8531 d63e 9e11 3a3e
00000260: 8458 1cbf 8bb6 febe 08a5 933e 4dd9 713e
00000270: 3a1b e43e 1cfc 583d a267 933d d0a5 1d3f
00000280: 473f 0a3f a79b 73be 3610 0c3f 476f 853e
00000290: c803 8dbf a1fe 863f ed7c 7c3f 7da8 8dbd
000002a0: b993 b93e 00c8 5f3e 52fc 31be 73b3 1b3f
000002b0: 2a2a d23c 9378 203e 844a 04bf 7e83 3ebf
000002c0: 08fd d8be 8c9f 15bf 6369 c53d ee8a 5d3e
000002d0: 91ac 1ebe 6480 303e fe98 85bf 4f79 5e3f
000002e0: b6fa 03bf fef0 8ebd b5b2 fabe e616 2f3f
000002f0: 7384 2e3f ab37 c7be 0f8a b3be 2652 a1bf
00000300: 550c dbbe 2a8e 23bf 9572 abbe e80e d3be
00000310: c37c 513f 5eb5 3b3f 3875 933f af5e ac3e
00000320: d93d 77be c0f5 66bf f9a1 333e b46e ec3d
00000330: 074e 1dbe 2c98 3dbe 185e a53e 02a3 c3bd
00000340: 8d9f b93f 20f5 3a3d c43c 05bf 5cd0 d23e
00000350: 2e12 33bf 8850 33bf 1cc9 e73e d5d6 ba3d
00000360: 7c73 87be 5d5f 63bf 2796 933d 96ef b63e
00000370: 8773 283f c2ce 1e3f 4947 fc3d 71bb 3ebf
00000380: 4dc4 e0be a716 01c0 dab7 313e 15d0 c03e
00000390: c1ee 3fbe 8f9c a73e 830c f9be 9274 01bf
000003a0: 9d47 7abe 32d5 27be 475c f83e e614 31bf
000003b0: 5776 f5be e011 efbe 6330 88be 5525 533d
000003c0: 8d35 533e d697 823e 4208 20bf 07ea aabe
000003d0: 3f60 09bf df4b 3a3f 02f6 b73d 4f92 94bf
000003e0: 9f20 233e f868 023f 12f7 113f 68e0 123f
000003f0: 03f7 90bf 9514 81be 4a3e 66be 045c 343f

bias_ih_l0 f4 [512]
0.35205746 0.24134596 0.20578869 0.038866006 -0.037795123 0.1497273 0.08952888 -0.1678266
0.13180344 0.69290674 0.13717826 0.11192097 0.086644486 0.35576153 0.084634244 0.56358814
0.15340178 0.30343795 0.22166015 0.084748015 0.5598757 0.068518244 0.3739932 0.37863308
0.28750792 0.17525423 0.12871327 0.54339784 0.4409198 0.27658963 0.547331 -0.057819158
-0.0039252965 0.058971416 0.17292018 0.21660075 0.674829 0.2890198 0.38453993 0.39492673
0.10779122 0.57388765 0.5682413 0.22977988 -0.033856954 0.076492295 0.31646088 0.34547716
0.09795019 0.27167633 0.50139344 0.09299274 0.5662632 0.3333052 0.07525204 0.61327416
0.57336825 0.23485076 0.30540508 0.38897574 0.37035373 0.32460606 0.16203311 0.4334124
0.13215323 0.3442138 0.33134344 0.014785513 0.35599768 0.14893155 -0.049027264 -0.015019812
0.2701512 0.090667576 0.35762167 -0.016440958 0.3542664 0.21712126 -0.0601238 0.33078015
0.4092184 0.3761836 0.39729863 0.17916645 0.47095975 0.41487008 0.2639957 0.32584956
0.21375565 0.034994196 0.16679813 0.37860098 0.16934808 0.10502068 0.0892015 0.42809492
0.23093916 0.54816854 -0.12501945 0.4092667 0.046338864 0.25527504 0.48683813 0.13675399
0.4436251 0.28413707 0.08390305 0.33843997 0.13105418 0.27171957 0.19619706 -0.17080449
-0.0023763988 0.35856503 0.29496217 0.45783582 0.41162792 0.13188747 0.30318564 0.112693734
-0.0468992 0.06952717 0.043265343 0.3749885 0.46245486 0.31114066 0.063243166 0.29604307
-0.21946415 -0.05035061 -0.032977924 -0.0666868 -0.040505406 0.24030271 0.040821582 -0.02850322
0.105771296 0.08347566 0.061098263 -0.022535952 0.06525244 0.48428732 0.29421228 -0.12542975
0.0926983 0.27590758 0.18454368 -0.12893963 0.13454682 -0.29545406 0.10865576 -0.0031457015
-0.12085159 -0.13104868 -0.12540111 0.26182294 0.6068885 -0.42268148 0.10195344 -0.22299683
0.12139766 0.18967763 0.55855715 0.23585778 -0.14325218 -0.14200483 0.113746196 -0.5447926
-0.045784287 -0.026700959 -0.14226703 -0.19573459 -0.23566404 -0.06344773 -0.121791646 0.31250829
0.17234078 -0.17463581 0.24537313 0.22447313 -0.36999816 0.082968 0.3763298 -0.12608808
-0.03867158 -0.0674912 -0.34155744 0.31921053 0.01184242 0.029379519 -0.057221662 -0.60359854
0.19954944 0.11634136 0.3758349 -0.03374842 0.34793413 -0.010977486 0.2098141 0.014282547
-0.08416005 0.19748782 0.08295764 -0.21113023 0.14511563 -0.23237644 0.17263432 0.20663807
0.30693457 0.24102134 0.27178812 0.15199894 -0.49728835 0.18783315 0.5395527 -0.10908595
0.20888376 0.11760416 -0.160567 -0.1735431 0.13266234 0.10600659 0.036355972 -0.21634534
0.029774202 0.1251429 -0.35502663 0.57076186 -0.027209472 -0.12133217 -0.07720587 -0.11181358
0.29582277 0.29582992 -0.0759511 -0.1582118 0.69600666 0.20820123 -0.005350183 0.24719241
0.54473305 0.2500932 -0.06615159 0.031472545 0.35062486 -0.14189218 -0.18462414 -0.07681418
0.05549488 -0.38138723 0.14779617 -0.07981428 0.03571337 -0.28745845 0.05368998 0.10478055
00000000: e040 b43e 6523 773e 45ba 523e f631 1f3d
00000010: 0fcf 1abd 1d52 193e eb5a b73d bcda 2bbe
00000020: 7bf7 063e 5662 313f 7578 0c3e d236 e53d
00000030: aa72 b13d 6026 b63e b854 ad3d 5047 103f
00000040: 5b15 1d3e 385c 9b3e e1fa 623e 5e90 ad3d
00000050: 0454 0f3f 4b53 8c3d 097c bf3e 32dc c13e
00000060: 3d34 933e d875 333e 69cd 033e 1f1c 0b3f
00000070: 3dc0 e13e 289d 8d3e e21d 0c3f c8d3 6cbd
00000080: c69f 80bb 038c 713d fd11 313e 96cc 5d3e
00000090: 98c1 2c3f 67fa 933e 6be2 c43e d633 ca3e
000000a0: a5c1 dc3d 4dea 123f 4378 113f 6b4b 6b3e
000000b0: 97ad 0abd fea7 9c3d 2907 a23e 62e2 b03e
000000c0: 1c9a c83d 2919 8b3e 525b 003f fa72 be3d
000000d0: a0f6 103f fba6 aa3e be1d 9a3d 89ff 1c3f
000000e0: 43c8 123f b87c 703e 0e5e 9c3e d427 c73e
000000f0: 019f bd3e c432 a63e 02ec 253e 3be8 dd3e
00000100: 2d53 073e cb3c b03e d9a5 a93e f03e 723c
00000110: 5445 b63e 8381 183e d0d0 48bd a815 76bc
00000120: 4251 8a3e ecaf b93d 301a b73e 30af 86bc
00000130: 6862 b53e 0955 5e3e 6044 76bd 045c a93e
00000140: 1385 d13e 239b c03e ba6a cb3e 6977 373e
00000150: a321 f13e da69 d43e 722a 873e c1d5 a63e
00000160: c3e2 5a3e 1356 0f3d 21cd 2a3e fdd7 c13e
00000170: 9569 2d3e 1515 d73d 47af b63d 422f db3e
00000180: 517b 6c3e c654 0c3f 1905 00be 688b d13e
00000190: d2cd 3d3d 69b3 823e d942 f93e 3d09 0c3e
000001a0: d422 e33e 6a7a 913e 5dd5 ab3d 0148 ad3e
000001b0: 1133 063e d41e 8b3e e2e7 483e 5fe7 2ebe
000001c0: 5bbd 1bbb d695 b73e 4805 973e 7569 ea3e
000001d0: e5c0 d23e 820d 073e 263b 9b3e f9cb e63d
000001e0: 6019 40bd 4364 8e3d 0037 313d 7efe bf3e
000001f0: e2c6 ec3e d44d 9f3e a285 813d f592 973e
00000200: 36bb 60be 713c 4ebd dc13 07bd 1793 88bd
00000210: ffe8 25bd ea11 763e 8834 273d 967f e9bc
00000220: 9f9e d83d 49f5 aa3d 2c42 7a3d 519d b8bc
00000230: 12a3 853d 82f4 f73e fea2 963e a870 00be
00000240: 9bd8 bd3d c243 8d3e 05f9 3c3e c008 04be
00000250: a4c6 093e c145 97be e986 de3d 1d28 4ebb
00000260: 0a81 f7bd a031 06be 2669 00be a80d 863e
00000270: 0b5d 1b3f b569 d8be f7cc d03d 4859 64be
00000280: 569f f83d da3a 423e 9afd 0e3f b484 713e
00000290: b3b0 12be b769 11be c4f3 e83d 8777 0bbf
000002a0: 4e88 3bbd f8bb dabc 73ae 11be a66e 48be
000002b0: ea51 71be e2f0 81bd e66d f9bd 1601 a03e
000002c0: 1a7a 303e bbd3 32be 1843 7b3e 49dc 653e
000002d0: 6670 bdbe 20eb a93d 4dae c03e 3c1d 01be
000002e0: 1766 1ebd d438 8abd 9ee0 aebe 906f a33e
000002f0: b606 423c 51ad f03c 4361 6abd 6f85 1abf
00000300: b056 4c3e 6144 ee3d 6f6d c03e c93b 0abd
00000310: 6c24 b23e eada 33bc 82d9 563e 5801 6a3c
00000320: 1b5c acbd 3f3a 4a3e b2e5 a93d 8632 58be
00000330: 3199 143e 17f4 6dbe 0dc7 303e ee98 533e
00000340: 8726 9d3e 4cce 763e d027 8b3e 9ca5 1b3e
00000350: 949c febe 5557 403e 2020 0a3f 7468 dfbd
00000360: a0e5 553e 73da f03d ad6b 24be 48b5 31be
00000370: a3d8 073e fc19 d93d 00ea 143d a289 5dbe
00000380: 07e9 f33c 7625 003e 0dc6 b5be 731d 123f
00000390: 66e6 debc 007d f8bd 1c1e 9ebd 85fe e4bd
000003a0: 1576 973e 0577 973e 408c 9bbd 4602 22be
000003b0: 7e2d 323f b432 553e 9750 afbb 0220 7d3e
000003c0: a073 0b3f 370c 803e 7c7a 87bd 5be9 003d
000003d0: 1a85 b33e 2f4c 11be 1c0e 3dbe c150 9dbd
000003e0: 994e 633d 3045 c3be e157 173e ab75 a3bd
000003f0: 2f48 123d c12d 93be 06ea 5b3d 2f97 d63d

bias_hh_l0 f4 [512]
0.3178963 0.23502757 0.20577896 -0.003143649 0.0268483 0.113881186 0.067687415 -0.25492707
0.07774018 0.58498853 0.2333119 0.14895411 0.089279376 0.24159758 0.045831095 0.5287968
0.22920877 0.32857996 0.13747092 0.1770623 0.46532848 0.105581276 0.39508724 0.5108372
0.38745448 0.15819627 0.18772355 0.46794087 0.47047022 0.40516973 0.5731224 -0.017010674
0.015743824 0.10254429 0.315428 0.13879392 0.52838594 0.2384305 0.27202198 0.3758339
0.037558198 0.5315925 0.68491125 0.30187488 0.038611766 0.105934635 0.46693307 0.27145872
0.17460972 0.37596482 0.491375 0.12617628 0.52823955 0.33545986 -0.0116510475 0.58181375
0.5785453 0.27205992 0.31425253 0.31351376 0.34644076 0.3334822 0.15223272 0.31420672
0.087088786 0.33243376 0.32912144 0.07465673 0.3869587 0.20180295 -0.0068240617 -0.10015338
0.23170723 0.07400286 0.23048767 0.01966656 0.3395753 0.23547812 -0.10785681 0.32805365
0.4934641 0.39680102 0.46321285 0.093793906 0.47703576 0.46776423 0.19176944 0.1949387
0.26075247 -0.035405368 0.2303989 0.42754713 0.17789851 0.10448888 0.042098116 0.37729192
0.24898532 0.51059896 -0.16080172 0.4773822 0.04555915 0.26372486 0.49184716 0.08998114
0.34987202 0.22920227 -0.02588943 0.38913578 0.14306995 0.21121718 0.28204545 -0.09606379
0.08200729 0.30646697 0.20045479 0.36833236 0.3316634 0.10069999 0.3805798 0.12800962
-0.13592806 0.08667022 0.0024736011 0.28020424 0.52916723 0.4240302 0.12285705 0.21736018
-0.24010774 -0.10342443 0.11796498 -0.11797979 -0.054810032 0.21491906 -0.12524138 -0.07518667
0.16230279 0.18917684 0.08068203 -0.1714992 0.06306059 0.50193566 0.34176302 -0.12084724
0.17897576 0.21706802 0.12068651 -0.053635195 0.20621915 -0.16182347 0.16453849 -0.06605029
-0.15369777 -0.13753739 -0.20448643 0.21469334 0.64683974 -0.4736173 0.1810885 -0.2881189
-0.028669596 0.21054609 0.61238194 0.19425002 -0.21491747 -0.10611647 0.0053024082 -0.505378
0.054618534 -0.07609772 -0.14534418 -0.14936776 -0.29205513 -0.0161695 -0.11758055 0.32398653
0.12636426 -0.16449922 0.15813684 0.25628704 -0.29062912 -0.012291958 0.33937913 -0.17962253
0.018346706 -0.19391856 -0.3492953 0.3589405 0.027292024 0.08473276 -0.13544756 -0.52006483
0.11230187 0.0027501262 0.25415704 -0.14237702 0.39955056 0.08978596 0.22818187 0.053909183
-0.07949312 0.11547179 0.032373555 -0.20094265 0.27575043 -0.15451075 0.10891952 0.29305154
0.1911315 0.13409972 0.13526584 0.24474876 -0.47862366 0.19746006 0.43706337 -0.23688959
0.22616635 0.16916163 -0.122095674 -0.0770564 0.09639977 0.09203576 -0.079466335 -0.11806736
-0.0109182345 0.19085753 -0.33176652 0.64134717 -0.005667053 0.011849726 -0.12797496 -0.0939873
0.25536686 0.2579773 -0.029551966 -0.2075759 0.70700556 0.16419218 -0.042735457 0.34888282
0.5261176 0.29345366 -0.027757747 -0.0038075135 0.2962453 -0.121695116 -0.12033171 -0.051444896
0.044672094 -0.2940076 -0.01043721 -0.105776474 0.07194679 -0.31965482 0.03019785 0.06496186
00000000: 4ec3 a23e 11ab 703e b8b7 523e ae05 4ebb
00000010: f7f0 db3c 8a3a e93d b39f 8a3d cd85 82be
00000020: 3e36 9f3d cfc1 153f 51e9 6e3e 6d87 183e
00000030: 1bd8 b63d 5b65 773e 63b9 3b3d 3a5f 073f
00000040: b4b5 6a3e a23b a83e 2dc5 0c3e d24f 353e
00000050: 893f ee3e ff3a d83d e048 ca3e 3ac6 023f
00000060: 6f60 c63e 34fe 213e 9a3a 403e f295 ef3e
00000070: 79e1 f03e 6872 cf3e 26b8 123f f859 8bbc
00000080: 31f9 803c be02 d23d c77f a13e fe1f 0e3e
00000090: 4d44 073f 2027 743e 7746 8b3e 4d6d c03e
000000a0: a0d6 193d 7216 083f 5856 2f3f 588f 9a3e
000000b0: 5f27 1e3d 42f4 d83d da11 ef3e a3fc 8a3e
000000c0: e4cc 323e 767e c03e 8195 fb3e 5b34 013e
000000d0: b53a 073f 65c1 ab3e 09e4 3ebc bff1 143f
000000e0: 8b1b 143f 704b 8b3e b5e5 a03e e084 a03e
000000f0: af60 b13e 2ebe aa3e e5e2 1b3e b4df a03e
00000100: 9b5b b23d c234 aa3e 9b82 a83e a1e5 983d
00000110: 731f c63e 6fa5 4e3e 619c dfbb 371d cdbd
00000120: a944 6d3e d08e 973d f604 6c3e c41b a13c
00000130: d0dc ad3e 2d21 713e 08e4 dcbd a6f6 a73e
00000140: 54a7 fc3e 8129 cb3e 3c2a ed3e 0517 c03d
00000150: 083e f43e cb7e ef3e 355f 443e 039e 473e
00000160: 5981 853e 3805 11bd b0ed 6b3e 75e7 da3e
00000170: 072b 363e 44fe d53d 136f 2c3d 682c c13e
00000180: 02f6 7e3e 9db6 023f 35a9 24be 716b f43e
00000190: 3b9c 3a3d f206 873e 64d3 fb3e 0848 b83d
000001a0: 6d22 b33e 00b4 6a3e 1216 d4bc ce3c c73e
000001b0: ee80 123e 5149 583e 4368 903e 18bd c4bd
000001c0: 70f3 a73d 3de9 9c3e 0544 4d3e 0f96 bc3e
000001d0: c9cf a93e cc3b ce3d 5bdb c23e f414 033e
000001e0: ba30 0bbe 2880 b13d 241c 223b ee76 8f3e
000001f0: 8177 073f 7d1a d93e 7a9c fb3d ab93 5e3e
00000200: cede 75be 30d0 d3bd a097 f13d 639f f1bd
00000210: 7c80 60bd be13 5c3e 473f 00be 78fb 99bd
00000220: b432 263e 93b7 413e 9f3c a53d 7c9d 2fbe
00000230: e925 813d db7e 003f 90fb ae3e c27e f7bd
00000240: 6c45 373e 1447 5e3e 7d2a f73d 94b0 5bbd
00000250: 1d2b 533e 0db5 25be c77c 283e 6045 87bd
00000260: f362 1dbe 9ad6 0cbe e464 51be 92d8 5b3e
00000270: 4a97 253f f77d f2be 446f 393e 5284 93be
00000280: 80dc eabc 6599 573e 10c5 1c3f 7ae9 463e
00000290: 5313 5cbe 9853 d9bd d3bf ad3b 7460 01bf
000002a0: afb7 5f3d 1fd9 9bbd 1bd5 14be ddf3 18be
000002b0: 4088 95be e675 84bc 12ce f0bd 90e1 a53e
000002c0: a265 013e 7c72 28be a0ee 213e 0e38 833e
000002d0: 57cd 94be 3564 49bc 1ac3 ad3e f8ee 37be
000002e0: d54b 963c 9692 46be d5d6 b2be 0dc7 b73e
000002f0: 8693 df3c 5f88 ad3d c4b2 0abe f822 05bf
00000300: 86fe e53d 763b 343b df20 823e 48cb 11be
00000310: e491 cc3e b4e1 b73d 82a8 693e e0cf 5c3d
00000320: 4acd a2bd 797c ec3d 229a 043d e9c3 4dbe
00000330: 292f 8d3e 1138 1ebe 3311 df3d da0a 963e
00000340: fab7 433e 7051 093e 2183 0a3e 6b9f 7a3e
00000350: 290e f5be f832 4a3e c5c6 df3e 2f93 72be
00000360: 2798 673e b538 2d3e 4c0d fabd bfcf 9dbd
00000370: 3e6d c53d 3f7d bc3d 3fbf a2bd 4dcd f1bd
00000380: 65e2 32bc 2870 433e 4ddd a9be 542f 243f
00000390: b0b2 b9bb 5a25 423c de0b 03be 6a7c c0bd
000003a0: 72bf 823e 9a15 843e f716 f2bc c78e 54be
000003b0: 51fe 343f ff21 283e 600b 2fbd c5a0 b23e
000003c0: a5af 063f 8f3f 963e 3764 e3bc 7a87 79bb
000003d0: 77ad 973e 4a3b f9bd 7970 f6bd e2b7 52bd
000003e0: 16fa 363d 2a88 96be d500 2bbc 56a1 d8bd
000003f0: d758 933d cca9 a3be 7b61 f73c b90a 853d

weight f4 [28, 128]
-0.79655063 -0.41000524 -0.5475779 -0.90638345 0.33904395 -0.5357024 -0.36450738 0.085761726
-0.47785944 -0.29918554 -0.121200554 1.220866 -0.12502635 -0.2858699 0.42955443 -1.0940492
-0.66098005 0.42990613 -0.63932884 0.49013877 -0.056050025 0.7478473 0.05321177 -0.3620479
0.7808202 -0.503902 -0.123179756 -0.42898524 0.32587028 0.7748979 -0.35323098 0.5065857
0.3046291 -0.24006777 0.20143706 0.37970892 0.06361825 0.19610363 0.15657946 -0.51363707
0.8601776 0.363079 -0.15769322 0.19430242 -0.36758894 -0.2901346 0.3676825 -0.26852307
-0.38800016 0.6360909 -0.44062015 -0.679515 1.0925357 -0.91904444 -0.12653643 0.27383906
-0.28479105 -0.3833394 -0.6402846 -0.27287495 -0.14583647 1.1088563 0.22814521 -0.41211897
-0.641326 0.5173111 0.14076869 0.59753275 0.26433286 -0.29120007 -0.2653026 0.2308338
0.5474911 -0.2991458 0.78945434 0.090632275 0.18459105 -0.51569766 -0.030583898 -0.14872207
0.5887729 -0.095642634 -0.90343136 -0.5854102 -0.9108379 -1.0272461 0.2140876 -1.0397339
0.83955574 -0.49903733 -0.6143832 0.110975325 -0.4129218 -0.31194094 0.818942 -0.6481086
0.14987499 -0.20687473 0.27926797 0.6181395 -0.71108377 0.20534723 0.3529915 -0.05829075
-0.50204796 0.3529582 -0.109286614 0.8596416 0.04327233 -0.19839622 -0.29925317 -0.12665173
-0.17331588 0.42984498 -0.12037967 0.9693153 -0.32749644 -0.41214323 0.249971 0.09213373
0.58362234 0.4439809 0.242777 -0.38612035 0.2815448 -0.32359225 0.45940495 -0.69132483
0.3631246 0.026823696 -0.52933747 -0.9409179 -0.73959297 -0.18447465 0.70470506 -0.16293077
-0.06681184 0.47303262 -0.76601565 0.07208318 0.57358843 -0.88223857 -0.9103897 -0.8362701
-0.119300604 -0.67512214 0.2305869 -0.9224552 -0.30093536 0.21016778 -0.9980607 0.8170173
-0.23465733 -0.41623747 0.18308295 0.24173884 0.14613682 1.2208197 -0.07223409 -0.2268453
-0.21200387 -0.5373045 0.5730299 0.024802031 -0.59715444 0.93201995 -0.24070323 1.0381811
-0.61136556 -0.12854421 0.20328659 -0.3295889 -0.16726291 -0.62403554 -0.5039563 0.42038733
-0.14873278 0.08303083 0.04081015 -0.46814385 -0.5793004 0.3885631 -0.4200607 -0.26159996
0.10416996 -0.21809348 -0.0417646 -0.16536325 -0.84115005 -0.46008587 0.61552113 0.76477355
0.03442552 0.0984832 -0.041104436 -0.30391106 0.1397423 -0.55414456 0.5014392 -0.14899503
-0.6325227 -0.14775635 0.2391998 -0.19204448 -1.9009802 0.5436222 -0.2971992 -0.033605974
0.15706208 0.14714886 -0.34383473 -0.13754274 -0.2677363 -0.027242184 -0.45538598 0.77329504
-0.36946663 -0.7904934 -0.16624634 -2.1291127 -0.23233904 1.0642762 0.84896296 -0.31185448
-0.23127341 0.06061057 -0.24128687 0.31989333 0.35925186 0.06988481 -0.061108097 0.08066986
0.6487366 -0.251938 0.17818473 -0.39510408 1.3757797 0.29895097 -0.5366595 0.25129348
-0.5167082 -0.5782686 -0.80065566 -0.5262066 0.030420097 -0.8858956 0.13010345 -0.81447995
-1.4728543 -0.38856384 -0.46519348 -0.52584714 0.1832057 1.0029417 0.103390574 0.0102104945
00000000: beea 4bbf 35ec d1be 112e 0cbf bf08 68bf
00000010: 2b97 ad3e cb23 09bf b6a0 babe d8a3 af3d
00000020: fea9 f4be d92e 99be ff37 f8bd 5645 9c3f
00000030: e806 00be 8a5d 92be 8fee db3e ce09 8cbf
00000040: fd35 29bf a81c dc3e 0eab 23bf 78f3 fa3e
00000050: b694 65bd ec72 3f3f 96f4 593d 585e b9be
00000060: d5e3 473f b9ff 00bf ab45 fcbd f4a3 dbbe
00000070: 78d8 a63e b55f 463f b1da b4be 9aaf 013f
00000080: 58f8 9b3e 53d4 75be 8445 4e3e 3569 c23e
00000090: 494a 823d 64cf 483e 5e56 203e b87d 03bf
000000a0: 9934 5c3f 7ee5 b93e 557a 21be 37f7 463e
000000b0: 9e34 bcbe 868c 94be e140 bc3e db7b 89be
000000c0: f5a7 c6be dad6 223f f798 e1be b2f4 2dbf
000000d0: 36d8 8b3f 7f46 6bbf c492 01be a234 8c3e
000000e0: 22d0 91be 1045 c4be b1e9 23bf 44b6 8bbe
000000f0: 2856 15be 01ef 8d3f e69e 693e 4201 d3be
00000100: f12d 24bf 806e 043f ab25 103e e8f7 183f
00000110: a356 873e 2d18 95be bed5 87be b25f 6c3e
00000120: 6028 0c3f a329 99be ae19 4a3f 6a9d b93d
00000130: 7005 3d3e c304 04bf 158b fabc 994a 18be
00000140: d2b9 163f 49e0 c3bd 4747 67bf 71dd 15bf
00000150: ac2c 69bf cd7c 83bf c839 5b3e 0016 85bf
00000160: 20ed 563f d281 ffbe 3848 1dbf 0847 e33d
00000170: 7c6a d3be b9b6 9fbe 2fa6 513f 72ea 25bf
00000180: d478 193e f8d6 53be 36fc 8e3e 643e 1e3f
00000190: 9609 36bf 8b46 523e 4dbb b43e 48c2 6ebd
000001a0: 3786 00bf f0b6 b43e a9d1 dfbd 7911 5c3f
000001b0: 543e 313d 6128 4bbe b637 99be feb0 01be
000001c0: b879 31be a414 dc3e 9e89 f6bd 0c25 783f
000001d0: 9dad a7be 7004 d3be 66f8 7f3e 9cb0 bc3d
000001e0: 4668 153f 7751 e33e 899a 783e 91b1 c5be
000001f0: a426 903e e2ad a5be 2037 eb3e aafa 30bf
00000200: 78eb b93e 5ebd db3c a982 07bf ffdf 70bf
00000210: f755 3dbf ece6 3cbe 8d67 343f 53d7 26be
00000220: a5d4 88bd 5531 f23e 9a19 44bf 59a0 933d
00000230: b1d6 123f 63da 61bf 4d0f 69bf cc15 56bf
00000240: e053 f4bd ced4 2cbf f91e 6c3e 0626 6cbf
00000250: 3314 9abe 3936 573e e880 7fbf 0c28 513f
00000260: 034a 70be 141d d5be 197a 3b3e 638a 773e
00000270: e4a4 153e d243 9c3f 77ef 93bd 224a 68be
00000280: 8b17 59be ca8c 09bf 16b2 123f a12d cb3c
00000290: 1ddf 18bf dc98 6e3f e87a 76be 1ee3 843f
000002a0: 7482 1cbf 18a1 03be 5c2a 503e e0bf a8be
000002b0: f846 2bbe cbc0 1fbf 4803 01bf 023d d73e
000002c0: 684d 18be 110c aa3d 8b28 273d 8db0 efbe
000002d0: 084d 14bf bef1 c63e 3212 d7be 6ef0 85be
000002e0: 0f57 d53d e653 5fbe 5b11 2bbd fc54 29be
000002f0: 9c55 57bf 6090 ebbe cb92 1d3f 33c8 433f
00000300: c601 0d3d 8fb1 c93d 205d 28bd 3b9a 9bbe
00000310: 9b18 0f3e 6bdc 0dbf 525e 003f 2792 18be
00000320: 02ed 21bf 714d 17be cbf0 743e 4fa7 44be
00000330: 5253 f3bf d32a 0b3f 7e2a 98be 6ba6 09bd
00000340: e2d4 203e 31ae 163e 1b0b b0be 01d8 0cbe
00000350: bb14 89be 002b dfbc 5a28 e9be aaf6 453f
00000360: bb2a bdbe c75d 4abf 7b3c 2abe 6243 08c0
00000370: 49ea 6dbe 343a 883f a355 593f 64ab 9fbe
00000380: f0d2 6cbe ca42 783d e813 77be 0fc9 a33e
00000390: dcef b73e c41f 8f3d 7c4c 7abd 3d36 a53d
000003a0: 9a13 263f 04fe 80be 0f76 363e 154b cabe
000003b0: 8d19 b03f 1a10 993e 8462 09bf 8aa9 803e
000003c0: fd46 04bf 6909 14bf c5f7 4cbf 7ab5 06bf
000003d0: 9133 f93c 0eca 62bf d739 053e c281 50bf
000003e0: 7d86 bcbf d7f1 c6be d72d eebe eb9d 06bf
000003f0: 469a 3b3e 6560 803f 70be d33d eb49 273c

bias f4 [28]
-0.15062569 0.14605953 -0.035402022 0.16067381 0.2621869 0.022036768 0.1702574 0.14132375
0.25205502 -0.030105548 -0.25102386 -0.15529644 0.11665744 -0.12840495 0.33925813 0.08126336
-0.24046572 -0.21861076 -0.006672675 -0.3187923 0.4011741 -0.059984654 -0.58543134 -0.19578895
-0.29049897 0.20726286 0.092412435 -0.7823222
00000000: 9f3d 1abe a190 153e b601 11bd ad87 243e
00000010: 5d3d 863e 7486 b43c f557 2e3e 2cb7 103e
00000020: 5b0d 813e e99f f6bc 3386 80be 0806 1fbe
00000030: 19ea ee3d 967c 03be 3eb3 ad3e 686d a63d
00000040: a53c 76be 80db 5fbe 74a6 dabb bf38 a3be
00000050: b166 cd3e 78b2 75bd d4de 15bf e67c 48be
00000060: 48bc 94be b73c 543e bb42 bd3d 4546 48bf
