models/LSTM/128/ESEU_60-40/ESEU_60-40_0_threshold_val_33.pt (torch, 353807 bytes, 7 tensors)

weight f4 [29, 32]
00000000: fd84 dfbf 199f 7dbf a6d4 d33f 9571 9cbd
00000010: 87d4 3340 8b03 bbbe 248b 82be a581 213f
00000020: 027c a13e 4219 5cbe 8c4b 32bf 6205 b5bf
00000030: 10bf 873e 9847 3cbf e830 d1bf 9d8b c8bd
00000040: b318 6a3f bf8c 1b3f 6e52 f83f b65c 31bf
00000050: 48a5 24bb 0e19 063f 0d79 c13f 8d39 c23f
00000060: 413d 67be f90f a63f 7d6d 6d3f 4663 12be
00000070: 862b 1c3f 05b9 e73e 1fec 823f 13f0 423f
00000080: 24a5 5c3f 340c 893c a06d 52bf 5165 2fbe
00000090: f7af 5ebf 7cce 07bf a34a 39bf d01e 5e3f
000000a0: eac2 ff3e 87ee 47c0 ec57 173f a1d3 05c0
000000b0: abed aa3f 8b35 f4be 8f60 4ebf f540 cfbd
000000c0: 1ee6 aebe a4d6 a1bf 6251 733f a4bf a43f
000000d0: f32d 993f 5bc1 083f a758 7abf d9f0 37bf
000000e0: ac1e b43f 1a98 79be fd87 033f 2ac2 21c0
000000f0: cec8 ad3f 8bd9 683f d5f5 2a3f 0aa0 21be
00000100: 41ac fd3e 61ce 9dbf a17b ecbf 2793 1fbf
00000110: 97fa 2dc0 99b4 cc3e e776 143f c17d 983f
00000120: c1b0 3ebf 7b1d d1bf 8feb 7bbf 57d8 1abf
00000130: 8bf9 333f 5e15 1240 8030 cd3f 895b d53c
00000140: c5bd 7cbf 5262 063e aee5 81bf 0d27 99bf
00000150: f82c 3bbe 3ab5 353f a204 cfbe 8bbf 2b40
00000160: c18a e5bf 97c4 0940 5b2e 383d cae7 3fbf
00000170: d707 933f fbf8 ccbf 6d93 bf3e 8128 a2be
00000180: f3a5 fdbf 949c b1be d4fd ce3f 9422 04bd
00000190: 0ffd 823e 18c0 edbe 930b 463f ebbc a63e
000001a0: 7d4b 2cc0 9a12 40be 7b33 ce3e ade2 26bf
000001b0: 73c4 1f40 67c8 a63f 7e69 9ebf 136e 653f
000001c0: 504e e63f 0a9a 8bbe da0f ddbf de00 23be
000001d0: 3ba7 bb3e b753 23bf d3ab eb3f 230b 50bf
000001e0: 92ad 08bf 374f da3f 7e22 79bf b60c 76bf
000001f0: 1fe4 98be c9b3 9abf 64f7 0dbe 49e0 bdbf
00000200: fcb8 6c3f 7982 d33f 2e9e 26bf 64a2 263f
00000210: 264c 1a40 eb1e a9bf cb5d 67bd ecf4 74bf
00000220: 13a3 1cbe e90c 323f 9d86 a33e 457d 1e40
00000230: cc54 98bf e49f 17c0 32a1 46bf 0995 b53e
00000240: 7bc0 6dbe b4a1 613d 722e 963d 1a68 3f3f
00000250: cd7c b0bf 6727 f7be ea38 87bf 7e5d e13e
00000260: b453 2040 b87f 93bf e62e 913e 0cb7 ca3f
00000270: 6812 ff3e 5c15 b53f a836 30c0 27c6 4abd
00000280: bd85 13bf 4808 7cbd 6aa6 98bf c2b8 98bf
00000290: bebb 19bf 805f 983e 7dce 80bf e0e7 093e
000002a0: 0f07 6bbf 5baa 2dbf f418 83be f027 7c3f
000002b0: 740f 08bd 5ab0 a73f 17fb 1b3e a918 4dc0
000002c0: 1c25 2bbf f17c e93c d115 3ebf 031d 283e
000002d0: ead4 23be 28f8 8c3f ad94 f33d f16b b33e
000002e0: 009d 113f 4972 983e 3c59 87bf 6d91 00c0
000002f0: 0b1f 0d3e 2bb7 14bf 413d 0040 4ac8 e9bf
00000300: f34a 0ebf 1579 7e3f a0f1 93bf aeac 4f3f
00000310: 88fb 353f d6af 9ebf 2f40 263f ae65 8e3f
00000320: 38f2 023f 8db9 ea3f d24f d1bf f211 0540
00000330: 8e19 24bf 4a3c 4b3f 2f7f 853f 824a 15bf
00000340: 8a80 2ebf f06e bc3e 8abb 3ac0 8345 653f
00000350: 7bf1 33bf 3303 c93e 19ad b83f c8b6 1fbf
00000360: 9b2d 4bbf 1676 9c3e 9093 37bf 24eb f1bf
00000370: fabd 4fbc 9245 c7be bc65 17bf 0b4c 2b3f
00000380: b495 91be 2584 363f 34f6 523e a1ba 0d3f
00000390: 530d 4e3e 19e6 9b3f 164d 843f 432a 8dbf
000003a0: 4d49 9dbf ec1c e9be 1701 d2be 1a8f 5fbf
000003b0: e83a 203e 2e8a 2040 ba76 67bf bd23 9ebf
000003c0: 78cd d13f 8b37 04bf ae4e cd3e db7b 97be
000003d0: 8cdd 703f 40fd 04c0 9a92 b13e bcce 4cbe
000003e0: 1a3d debe 74ef adbe d016 133f d4f3 05bf
000003f0: 383e b53f 573e 94be e63e 503f 9be2 0740
-1.746246 -0.9907089 1.654927 -0.076388516 2.8098466 -0.3652614 -0.2549678 0.63088447
0.31539923 -0.2149401 -0.69646525 -1.4142268 0.26512957 -0.73546743 -1.634305 -0.09792254
0.9144394 0.60761636 1.9400156 -0.6928209 -0.002512293 0.5238198 1.5115067 1.5173813
-0.2258196 1.2973624 0.9274519 -0.14295682 0.6100391 0.45258346 1.0228308 0.76147574
0.86189485 0.016729452 -0.82198524 -0.17128493 -0.8698725 -0.53049445 -0.7237951 0.86765766
0.49953395 -3.1239336 0.59118533 -2.0910418 1.335378 -0.476971 -0.80616087 -0.101198114
-0.3415994 -1.2643628 0.95046055 1.2870984 1.1967148 0.5342004 -0.9779152 -0.7185188
1.407186 -0.24374428 0.51379377 -2.5274758 1.3576906 0.90956944 0.6678136 -0.15783706
0.49545482 -1.2328607 -1.8475229 -0.6233391 -2.7184198 0.39981535 0.5799393 1.1913377
-0.74488455 -1.6337122 -0.9840631 -0.6048636 0.7030265 2.2825541 1.6030426 0.026044624
-0.98727065 0.13123444 -1.0148218 -1.1965042 -0.18278873 0.70979655 -0.40433222 2.6835659
-1.7932969 2.152624 0.044966083 -0.7496306 1.1486768 -1.6013483 0.37417164 -0.31671527
-1.9816269 -0.34689772 1.6171212 -0.03225954 0.25583693 -0.46435618 0.7736141 0.32566008
-2.6921074 -0.18757096 0.4027365 -0.6518963 2.4963653 1.3029908 -1.2375944 0.89621085
1.7992649 -0.2726596 -1.7270463 -0.159183 0.36651024 -0.63799614 1.8411812 -0.81266993
-0.5338985 1.7055424 -0.97318256 -0.96113145 -0.29861543 -1.2086116 -0.13863903 -1.4834071
0.92469764 1.6524192 -0.65085113 0.6509154 2.4108977 -1.321256 -0.056485932 -0.9568622
-0.15296583 0.6955095 0.3193864 2.4763958 -1.1900878 -2.369134 -0.77589715 0.35465267
-0.23217957 0.055085853 0.073330775 0.7476822 -1.3788086 -0.4827225 -1.0564244 0.4401664
2.5051088 -1.1523352 0.28356093 1.5837111 0.4981873 1.4147143 -2.753336 -0.04950538
-0.57625943 -0.061531335 -1.1925786 -1.1931384 -0.60052097 0.2976036 -1.0063015 0.1346736
-0.91807646 -0.67838067 -0.25604975 0.9849844 -0.033217862 1.3100693 0.15232502 -3.2046301
-0.668535 0.02850196 -0.7425204 0.16417317 -0.15999189 1.1013231 0.11893592 0.3504329
0.5688019 0.29774693 -1.0574107 -2.008876 0.13781373 -0.5809199 2.0037386 -1.8264248
-0.55583113 0.99403507 -1.1558113 0.81122863 0.7108693 -1.2397411 0.64941686 1.112478
0.51150846 1.8337876 -1.6352484 2.0792203 -0.64101493 0.7938887 1.0429438 -0.58316815
-0.68164885 0.3680339 -2.9176965 0.8955919 -0.70290345 0.39260253 1.4427825 -0.6238828
-0.79366463 0.30558842 -0.7170954 -1.8899884 -0.012679571 -0.38920265 -0.5913961 0.6691291
-0.28434527 0.71295387 0.20601732 0.553629 0.2012227 1.2179595 1.0336025 -1.1028522
-1.2287995 -0.45529878 -0.41016456 -0.8732773 0.15647471 2.5084338 -0.9041554 -1.2354656
1.6390829 -0.5164725 0.4009909 -0.29586682 0.94088054 -2.0779572 0.3468216 -0.20000738
-0.43405992 -0.3397175 0.57456684 -0.5232518 1.4159613 -0.28953812 0.81345975 2.123206

weight_ih_l0 f4 [512, 32]
00000000: c950 a63c 0b5f 443c cac7 e5bd 51b6 5d3c
00000010: b48b 033d 609e a33d cfbe 823d 5751 bd3c
00000020: bf73 d0bb 48a7 cdbd 570b 0cbe 1386 f9bd
00000030: 061f 213b 6285 2a3d 307c 983d de07 44be
00000040: 6805 3b3e 4c8e 09be 9187 debc ace1 3f3e
00000050: c359 043e cea0 65bb 92c3 f33d 88c3 093e
00000060: 6cc6 5cbd b9c1 ee3d 6b0d e93b bab9 f9bd
00000070: 5ea1 8d3e 44b1 24be e349 373e 0a49 0bbe
00000080: 0789 533c 18d5 72bd c1a1 f03d e17f 03be
00000090: d591 393e f2fe a73d 873f 50bb a8c5 e93c
000000a0: a1df edbd 8f7c df3d ca63 15be dc24 d8bd
000000b0: a88f 043e b5a7 21bd c4e7 86be c8fc 63bc
000000c0: d6fc 513e 9116 7cbd b976 ca3d 06fd 453c
000000d0: bf0b da3d 7805 6ebc 9eda 2b3d 94c8 87bc
000000e0: 0f81 493d 2f26 7bbd 461d 26bd 30e7 19be
000000f0: 7ec6 bb3d f25c 07bd fd52 54bd 6445 fabd
00000100: 8358 973e bea4 24be 3b0f d3bd 2d66 01bc
00000110: bef6 26be 3686 cb3d 4fb9 153e 1b18 f6bd
00000120: 19e5 2bbc 40a3 103d 9ea5 423e d6b1 963d
00000130: 5826 29be d56f 6e3d d97c 57bd ed46 eabd
00000140: 038a 9ebd f0d7 0fbe d612 f1bd 109a 4e3d
00000150: 5ef6 833d e334 d3bd 722f 3abd ffad c1bd
00000160: 8446 47bd 9c0f 983d f786 abbc 8a80 2dbb
00000170: 1e77 fc3c 4720 873b 2562 b0bd ed01 25be
00000180: bf47 89be 83ed 0f3d b094 70bc a18e d93c
00000190: c12e ab3d d51f bf3d 1b9f 93bc eaa6 ea3d
000001a0: fe87 8cbd 028b b1bc e3c9 283d ae3f b13d
000001b0: d08e 3dbb 72c4 403d 435f bc3c 60e6 d03d
000001c0: cf4b 5dbe f739 9fbe 3412 3abe eee4 97bb
000001d0: 8b50 a63d 5782 a6be 37d8 fabd f890 2f3e
000001e0: 3c6e ad3e 6298 a2bd 1f3c 88bd 54ed 4a3e
000001f0: 1d30 643e c4ea d2bd d7ad 2f3e bdb8 983c
00000200: cd8e 98bd d523 c1bd 11f6 c1bd 5f30 17bd
00000210: d89f d33c 60d8 2ebd d9c8 263c 3463 c8bb
00000220: c0cf 033e c550 7bbe 035e 543e 1628 ecbb
00000230: 8b91 653e 7bf5 ebbc 62d8 8d3b b543 b9bb
00000240: 564c 53be 053c b93d 2e6c ac3d a3f7 acbd
00000250: fd7a b13d 27e4 ee3c de0e a0bd 3d59 bb3c
00000260: 349c 60bd 2c63 eebd 6c9e aa3d ff00 2d3d
00000270: a6e3 783a 933c af3d 6a6c b73d d898 273c
00000280: 214f 173e 3af0 2abe be98 a6be c329 1c3e
00000290: 72bc 0bbe dec1 36bd 62b2 183d 168e 2b3d
000002a0: a759 14be da38 6b3c c64a c8bd 9108 e13d
000002b0: 752e 143e 65e7 c1bd fcdb 453d 2dec dfbd
000002c0: 487e e33d d348 7cbb a6f2 8fbd 51cf 3cbe
000002d0: 4771 93bb aa6b 203d cf7a 733d 4428 72bd
000002e0: c269 e6bd 3d23 5cbc 89db 54bd b0a6 8dbd
000002f0: d2d3 d9bd b988 1abe 9d6a e93d 5e88 d03d
00000300: 1858 83be 537a 09be cb8d b9bd 520c 1bbe
00000310: ff3d e7bd 870f 333d 14ae 223d 959e a3bd
00000320: f788 bcbd 8c16 683c 1922 813e 3f42 3f3e
00000330: 3b9d 193e 7aea e938 9d73 eebd aaa5 09bd
00000340: c051 a33b 2ba1 b3bc efbe c63c 0743 19be
00000350: f4db d83d 7e26 bfbc 3c43 993d 7a9e 8a3d
00000360: bd70 983b bd27 a5bd ac85 80bd 7688 553e
00000370: b311 93bb eab7 3ebd 9d69 493d 9899 a4bd
00000380: c0b8 50be 8264 5fbe 44d2 393e 1d76 16bd
00000390: c245 5e3e 0015 0ebe 7c9f 493c 0262 343e
000003a0: 0a8b 64be b2e8 293e d0df 203d 6d46 e0bd
000003b0: 620b ce3d 04fd d5bd d122 86bd a369 363d
000003c0: 5b1d 5e3e 63da 8fbd 2dfc 7f3d 7119 e03d
000003d0: 191d 803b cd13 31be 94ca a33d 2290 683d
000003e0: a702 edbc 6a17 7a3d 0bba 6cbc d34c 8ebd
000003f0: 6da5 6a3d 93c2 bcbd c178 903d 467e 16be
0.020302193 0.011985551 -0.11219747 0.013532237 0.032115653 0.07989192 0.0638405 0.023110075
-0.0063614543 -0.10041672 -0.13676201 -0.12183776 0.0024585142 0.04163111 0.07445562 -0.19143626
0.18263781 -0.13433188 -0.027164252 0.1873843 0.12924866 -0.0035038474 0.119025365 0.13453496
-0.053900167 0.116580434 0.0071121952 -0.12193628 0.27662176 -0.16083246 0.1789928 -0.13602081
0.012911088 -0.059285253 0.11749602 -0.1284175 0.18122037 0.08202924 -0.0031776146 0.028536633
-0.116149195 0.109124295 -0.14588848 -0.10553905 0.12945426 -0.03946658 -0.26348698 -0.013915248
0.20506606 -0.06154496 0.09885926 0.012084251 0.10646772 -0.014527671 0.041956536 -0.016575135
0.049195345 -0.06131571 -0.04055526 -0.15029597 0.09168719 -0.033047624 -0.051836956 -0.122202665
0.29559717 -0.16078469 -0.10305639 -0.007897896 -0.16305062 0.09937708 0.14621471 -0.120163165
-0.010491633 0.035311937 0.1900849 0.07358138 -0.16518533 0.05821212 -0.0526093 -0.11439309
-0.077411674 -0.14047217 -0.11771171 0.050439894 0.06443475 -0.10312822 -0.045455404 -0.09457015
-0.048651233 0.07424852 -0.02093838 -0.002647432 0.030818518 0.004123721 -0.086124696 -0.16114016
-0.2681255 0.03513862 -0.014683887 0.026557269 0.08358527 0.09332243 -0.018020203 0.114576176
-0.06861876 -0.02167273 0.04120816 0.08654724 -0.0028924234 0.047062345 0.022994643 0.102001905
-0.2161095 -0.3109891 -0.18171006 -0.004635445 0.08120831 -0.32521316 -0.12248271 0.17145145
0.33873165 -0.07939221 -0.06652092 0.19817096 0.22283979 -0.10298684 0.17156158 0.018642778
-0.07449112 -0.094306625 -0.094707616 -0.036911365 0.025833055 -0.04268682 0.010179722 -0.0061153416
0.12872219 -0.2454253 0.20738988 -0.007206927 0.22418801 -0.028803578 0.0043287734 -0.0056538233
-0.20634589 0.09044651 0.08419071 -0.084456705 0.08666036 0.029161526 -0.07815336 0.0228697
-0.054836467 -0.11640009 0.08330998 0.042237278 0.00094943715 0.085564755 0.08956225 0.010229312
0.14776279 -0.16693202 -0.32538408 0.15250306 -0.13646105 -0.04461848 0.037279494 0.04188355
-0.14487325 0.014356816 -0.09779887 0.10987962 0.14470847 -0.09467963 0.048305497 -0.10933719
0.111080706 -0.0038495555 -0.070287034 -0.1843846 -0.0044995877 0.039165176 0.05944329 -0.05912043
-0.112506405 -0.013436136 -0.051967178 -0.06916559 -0.10636105 -0.15091218 0.11397288 0.1018226
-0.25653148 -0.13425569 -0.09060248 -0.15141419 -0.11291122 0.04371598 0.039716795 -0.079892315
-0.092058115 0.014165532 0.25221327 0.18677615 0.15001385 0.000111539804 -0.11643145 -0.033605255
0.0049841106 -0.021927437 0.024260966 -0.14966975 0.10588828 -0.023333784 0.07483527 0.06768508
0.0046521113 -0.0806422 -0.06275496 0.20852837 -0.004488194 -0.046562113 0.049172986 -0.08037108
-0.20382977 -0.21815684 0.18146616 -0.036733735 0.21706298 -0.13875198 0.01230609 0.17615512
-0.22318664 0.16592672 0.039275944 -0.10950933 0.10060765 -0.104486495 -0.065496095 0.044534337
0.21690886 -0.07024076 0.062496353 0.109423526 0.0039097187 -0.1729271 0.07997623 0.05677808
-0.028931929 0.061057486 -0.014448653 -0.06948247 0.05728667 -0.092167996 0.07054282 -0.14696607

weight_hh_l0 f4 [512, 128]
00000000: b79c 4e3b 5a00 bc3c 87ec 21bd b294 cdbd
00000010: 5ecd 4c3d 8650 35be a120 bcbd cd02 f03d
00000020: adde f13d ec6c 22be 21f4 1dbe b105 25bd
00000030: 1834 2f3d 6ba0 dfbc 1e6d 88bd 2348 0a3e
00000040: bb8b 24be 9871 a9bd 13db d7bd 14cf 31bc
00000050: cdf7 82be 3fce bebd 5a07 3cbd c00e 513e
00000060: d7a0 063b fcde bdbd ad47 153e f44f dcbd
00000070: 00f4 1b3e d71f 9f3c 4bd3 3fbd 33a5 c6bd
00000080: 8f7d 3d3d 2929 54bb 55aa 013e 52c8 21bd
00000090: e525 f03c df3c 223e e0b2 c0bc 5846 20be
000000a0: b0ec ca3c 5a93 cabd b1cb 1c3e af85 00be
000000b0: 2769 983b e036 673d a0f1 0d3e 91c8 b03d
000000c0: e5ea 90bd cf12 db3d 9335 9b3d 3d7c c33d
000000d0: e3e7 293d 7bec 2f3e 6707 023e b94b b93d
000000e0: ab36 e43d f8ec 723e 96d2 0bbd 90f7 b8bc
000000f0: a8d9 7d3d ccd6 e63d b8ce 2cbe 96dc a6bd
00000100: 4986 ac3c c9dd 49bd c750 a23c 7b33 87bd
00000110: f002 e23c b013 a0bd 70ea 3c3e 3257 053e
00000120: 0dc9 aebd 778b c7bc a21c 9a3c f596 91b9
00000130: ec9c 6fbe 12c0 33bd 5981 57be 6580 c23c
00000140: b145 7bbd 8d49 c5bd e6e9 813b ca69 803c
00000150: c744 0bbd a21b dc3d 0413 dd3d d2a1 443c
00000160: a1f5 c8bc 5d2c 4e3d 3702 833d 2beb 0cbd
00000170: d666 94bd d703 f63c ecc1 253c 4cbb afbc
00000180: edf4 2cbc 12f6 d23d d85f 0bbe b1e0 ecbc
00000190: e446 0e3d b7a8 923e 808f 233d 838c 4f3d
000001a0: eec4 3fbd 9856 f4bd 6aa7 033e fa30 f33d
000001b0: 24da a6bd b384 f13c 43fa c23d cfc2 5c3d
000001c0: d708 a7bd 8002 dbbd d7e5 61bd 93ee cbbd
000001d0: aa60 9ebd 4692 6f3d b3ec d1bd 6e55 03bd
000001e0: 6754 de3d 4adf 8d3c dfdb e23b dfe0 ea3b
000001f0: d85d 453d c6f9 60bd a233 153e afa4 e7bc
00000200: 51de ac3d 9da6 e83c b2ea ac3d df76 b4bc
00000210: c319 ddbd 3380 72bd 8940 103d f2b1 95bb
00000220: c38a b4bc 6b2c e7bd 3b1b 4e3d cb04 ae3d
00000230: f083 94bc 5c7e d03c 9504 bc3c 6156 e7bc
00000240: 5d14 75bc 98d1 e0bd b53d 87bd f21c 083d
00000250: 34ec 523c da26 f63b 331d d53d 630f aabb
00000260: 086c 52bd 33db 243c e899 f63d ad29 ae3d
00000270: 9fdd 8dbc 490e f63d 8ff7 e13d ae7b a8bd
00000280: bb5f 40be 59df 8a3d 4de3 ed3d 58c3 a0bc
00000290: f5dc e93d dc1b 393d 0496 ab3c 36ed 263d
000002a0: 7bb1 8b3d cf62 c2bd 4cef 0f3e aef2 efbc
000002b0: bb9a d33d c1f2 59bd 83ec 783c 6bbd f93b
000002c0: ac29 c63c e968 60bc a482 613d 3a1d 393e
000002d0: 106c 973c d394 6b3c 999b 7e3e 8aed da3d
000002e0: ce0a 223d 8ab6 9c3d acab 99bd c6f2 c03c
000002f0: 891e aa3c 7738 5b3e 01af 3ebd 33b3 863c
00000300: a075 dd3c 259b a8bd fe5d 243e 7702 e63d
00000310: fdb8 1f3d 7af6 ba3d 69fa 013e 2a9a 64bd
00000320: 5d18 863d 2fb6 c83c 580c 263d 43d2 bbbd
00000330: 6efe 963d 419b 403d a415 e7bd 3070 55bc
00000340: 8e8d 62bd a320 0cbe f95a 98bd 7b23 e8bd
00000350: e7bc aabd d885 b23d c066 b33c b133 7e3c
00000360: 38e9 1cbe 49e1 34be f2c6 63bd 475a bc3d
00000370: 71b6 c4bb 9e12 73bd cfcc dd3c 1b9d 1bbb
00000380: 8c29 edbd e170 3d3d f2e9 a8bd 36f6 e3bd
00000390: ac9c 8ebc d0c0 373b 06d6 99bd f6ce 5dbc
000003a0: 7750 14be 8c26 03bd 4e3b bf3d 56a1 563d
000003b0: 49b5 c4bd ccc1 00bd bf12 5fbd 1011 a83d
000003c0: 9edb 8d3d e784 55be aee8 843b 6468 1b3c
000003d0: bac4 1cbe 45e8 f43d 97d7 9abd 19a2 bd3d
000003e0: ef61 00bd eb8f 8d3c c0a1 7ebd 9a3b cc3b
000003f0: ca5c 79bd 7d48 273d aeeb 713c 5677 803d
0.0031526515 0.022949386 -0.03953221 -0.10038127 0.05000054 -0.17706499 -0.09185911 0.11719284
0.1181005 -0.15861863 -0.15425159 -0.04028863 0.04277429 -0.027298173 -0.066614375 0.1350408
-0.16068928 -0.082736194 -0.10539832 -0.010852594 -0.25579682 -0.09316682 -0.04590545 0.20415783
0.0020542645 -0.092710465 0.14578123 -0.10757437 0.15229797 0.019424362 -0.046832364 -0.09699478
0.04626232 -0.0032373166 0.12662633 -0.03949768 0.029314945 0.15843533 -0.023522794 -0.15651834
0.024771065 -0.09891386 0.15312077 -0.12550996 0.004651207 0.056448817 0.13861704 0.08632005
-0.070760526 0.10696947 0.07578578 0.09545181 0.04148091 0.17180054 0.12698136 0.09047646
0.111432396 0.23723209 -0.034136377 -0.022578984 0.06197515 0.11271438 -0.16875732 -0.08147542
0.021060126 -0.049283776 0.019813908 -0.06601616 0.027589291 -0.07816255 0.18448806 0.13021544
-0.08534441 -0.024358494 0.018812481 -0.00027769027 -0.23399705 -0.043884344 -0.21045436 0.023742864
-0.06134576 -0.09633169 0.0039646504 0.015675444 -0.034001138 0.10747458 0.107946426 0.012001472
-0.024531187 0.050335277 0.06396907 -0.03440396 -0.07246177 0.030031128 0.010117035 -0.021451615
-0.010556442 0.103008404 -0.1361078 -0.028915735 0.034735575 0.28644344 0.039931774 0.05067111
-0.046818666 -0.11930579 0.12856832 0.11874576 -0.08147076 0.029482221 0.0952039 0.05389672
-0.08155983 -0.10693836 -0.055150833 -0.09957614 -0.07733281 0.058489107 -0.10250225 -0.032063894
0.10855942 0.017318387 0.0069231833 0.00716792 0.0481852 -0.054925703 0.14570478 -0.02827677
0.08440841 0.02839976 0.08443202 -0.022029338 -0.10795929 -0.05920429 0.035217796 -0.004568332
-0.022038823 -0.11287769 0.050318938 0.08497008 -0.018129319 0.025450878 0.022951404 -0.02823943
-0.014958468 -0.10977477 -0.066035666 0.03323073 0.012873698 0.0075119557 0.1040596 -0.0051898225
-0.051372558 0.010062027 0.12041074 0.08504043 -0.017317591 0.120144434 0.11033546 -0.08226715
-0.18786518 0.067808814 0.1161562 -0.019624397 0.11419097 0.045192584 0.020945556 0.040753566
0.06820961 -0.094915025 0.14056128 -0.029290523 0.10332247 -0.053210024 0.015193108 0.0076214573
0.024189793 -0.0136968875 0.05505623 0.18077555 0.018484145 0.014378744 0.24864043 0.10689838
0.039561085 0.07652004 -0.07503447 0.023553263 0.020766513 0.21408258 -0.046553615 0.01644287
0.027033627 -0.082327165 0.1605148 0.11230939 0.038994778 0.09129043 0.1269318 -0.055811085
0.06547616 0.024500934 0.040539116 -0.091709636 0.07372747 0.04702306 -0.112834245 -0.013027236
-0.05531078 -0.13684325 -0.07439227 -0.11334892 -0.083368115 0.08716935 0.021899581 0.015515254
-0.15323341 -0.17664064 -0.05560965 0.091969065 -0.006003194 -0.059343927 0.0270752 -0.0023744765
-0.1158019 0.046250228 -0.082477465 -0.111309454 -0.017408691 0.002803851 -0.07511525 -0.013538113
-0.1448382 -0.032019183 0.09337483 0.052399956 -0.0960489 -0.03143482 -0.054461237 0.082063794
0.06926654 -0.2085148 0.004056058 0.009485338 -0.1530942 0.119583644 -0.07560652 0.09259433
-0.031343397 0.01728054 -0.062165976 0.006232691 -0.060879506 0.040840615 0.014765663 0.062727615

bias_ih_l0 f4 [512]
00000000: 2b83 ed3c 656b 353e 5b06 103e 8fe7 783d
00000010: a021 163e efde 063d 7dde 8f3d 35ac 623d
00000020: 22b8 123d 1569 0c3e 6f2b 883d f18b 823c
00000030: 5228 603d ed7a febc 653a 0c3e 5dcc f0bb
00000040: eec3 133e f330 2ebc 8eeb 603d 4eef d83d
00000050: 6be4 e33d 7b3c 013e ebf1 bfba b9b7 093e
00000060: acaf a43d 91a4 a03d cc8a bd3d f392 f2bc
00000070: 4a6a 643c 1458 4d3e 9941 1d3e 83ec dd3d
00000080: c22c 42bc dd14 013e 97dd 9d3d f55b 963c
00000090: 98b0 863d ce25 883d fcc7 a8ba 0ebf ef3d
000000a0: 1c02 8cbc 38f8 fa3c 7d35 fb3d 5639 df3c
000000b0: 26a6 963d c849 073c 291d c43d bc9b 203e
000000c0: 39e0 703d 067e 433d ea8e 05bc 4f2f 783d
000000d0: 4938 993d 6d6b 3abd 4e4b d23d 3a9f 783d
000000e0: 32bd e53d b3d3 9a3b b547 983d 13e9 113e
000000f0: a38d bb3d 927b 453d 2b59 f1bc cb65 423e
00000100: d731 57bc 0eb2 093e 3742 5c3e c303 2b3e
00000110: ce42 ea3d b4c2 4a3e 15ba 103e 4968 e53d
00000120: c8f1 453e b790 313e c310 4f3e bce3 003d
00000130: 36ab 0d3d 998b 213e 8e2e 6fbc 0396 a73d
00000140: f814 993c 5af6 ba3d ff8b 413e f651 803d
00000150: ca3c 4f3e 3ebe 153e 96c5 203d 4f28 f1bc
00000160: ffdf 6f3d 9050 dc3d 1fbf 033d c972 273e
00000170: 143d 103e 2fac 083e 14b6 cf3d 90c6 ae3d
00000180: d751 303e 1fd6 cc3c 181d 493e dada 323e
00000190: 54cf 2e3d d150 7f3d 57cf 1d3e 142c f43d
000001a0: 9f64 d53d f063 553d 9242 a6ba f962 173d
000001b0: 142a 9abd 82a1 e63d 7ddd 0c3e 3603 c63d
000001c0: 52fb 203e 58d9 a73d 7025 263e d678 703d
000001d0: 65e8 b73d 9388 303e 9d9d 193d c6bd 3f3d
000001e0: 5239 28bb 53b2 913b a5a0 d6bc a35c 113d
000001f0: 5a77 2f3d 5e4e dfbc 02b1 a13d f357 4e3d
00000200: 8257 a03d bb58 c1bc 521a 153d aff8 023c
00000210: 2015 13bd b273 893d 2c77 083c 7ebc 1b3c
00000220: 82a3 d83d 2376 62bd fb0a 0c3e a828 4d3d
00000230: 2291 93bd d837 7bbd 6462 023d a00b d53d
00000240: bd9d 653d 410e 043c 0f3a 89bd eecd 863d
00000250: ad0e 913c 0ea9 303d 371b 1a3d da49 f0bd
00000260: 80ef 56bc ee76 5b3d 91f8 93bd 682b 113e
00000270: 277a 003e a351 1c3d 0fb8 39be fd91 523d
00000280: 4343 fd3d fd9c 1dbe 4809 a83b e087 023d
00000290: f7c5 fe3d a1be 83bd db32 ccbd 9135 6abd
000002a0: c9dd 033e a21f 273d e9ec afbb 72c8 893d
000002b0: b339 09bd 50c6 fa3b e2bd dc3c 1084 2bbe
000002c0: 3f73 d8bc bdc1 88bd 8d4e 4a3c 9031 b2bd
000002d0: 4593 3d3d 57b2 8fbc 98cc ea3d 5a6d 9b3d
000002e0: 7451 043e 8ec0 52bd 855a 0fbc 4751 a9bd
000002f0: c8cd 6e3d 9ef0 1b3d 33e2 eb3d befd 7c3d
00000300: 91d9 e93d 551f 02bd 9cce f0bd 4646 83bd
00000310: dbcf 933c 239f 50bc ef9e e53d 61e7 24be
00000320: 3922 9abd f1ab f9bc e403 06bc 0647 8cbc
00000330: 6a1a 0b3c b755 01bc 886f d7bc a9b9 253b
00000340: 4b3a c13d 33ec 30be 1bde d0bd 0af5 883d
00000350: 6400 ebbd 88d9 6c3d d64c 203d cbfc 783b
00000360: 661a 3b3d 2bf3 533c 379b a9bd 8b8c bb3d
00000370: f20c 3ebb 7b87 65bd 96c1 ca3d e8e7 073e
00000380: 51da 9ebd 26c2 c9bd 5ce9 0e3c 4ecb ce3d
00000390: 8378 9d3c 520a d23d 52b4 40bd c07d a2bd
000003a0: a1be 283c d2a3 16bd f1fa bfbb ad87 8d38
000003b0: d2cf bd3d d317 8a3c dd0f 663d 0820 58bd
000003c0: d5ba 7a3d d2b7 24bd 8b2d a5bd 6d4c a43d
000003d0: 612c 153e 90a6 b6bd da35 943c 3b02 c13c
000003e0: 6f0c 74bd 6c8a 903d e5ea 883c 6880 093e
000003f0: b871 0abc b712 a43b 0609 023d 77b6 11bd
0.02899321 0.17716749 0.14064924 0.060767706 0.14661264 0.03292745 0.07024858 0.05534001
0.035820134 0.1371196 0.06648909 0.01593587 0.054725952 -0.031064475 0.13694151 -0.0073485808
0.1443021 -0.010631788 0.054912142 0.10592519 0.11127552 0.12620728 -0.0014644241 0.13448991
0.08041319 0.078438886 0.09254989 -0.029611086 0.013941357 0.2005313 0.15357055 0.10836127
-0.011851491 0.12605615 0.077082805 0.018354395 0.06576651 0.06647836 -0.0012876983 0.11706363
-0.01709085 0.030635938 0.122660615 0.02724902 0.07355909 0.008257337 0.09575874 0.15684408
0.058807585 0.047727607 -0.008151749 0.060591992 0.07481439 -0.045512605 0.102682695 0.060698725
0.11217727 0.0047249435 0.07435552 0.14249067 0.091578744 0.04821355 -0.029461464 0.18984143
-0.013134441 0.13446829 0.21509634 0.16700654 0.11438523 0.19800836 0.14133485 0.112015314
0.19330513 0.1734036 0.20221238 0.031467184 0.034587108 0.15775909 -0.014598502 0.08182909
0.018686756 0.09129019 0.1890106 0.06265633 0.20238033 0.14623353 0.039250933 -0.029438166
0.05856323 0.107575536 0.03216469 0.16352381 0.140858 0.13346933 0.101421505 0.085339665
0.1721872 0.025004445 0.19640005 0.17466298 0.042678192 0.062332932 0.15411125 0.1192247
0.104195826 0.05209726 -0.0012684634 0.036959622 -0.07527557 0.11261274 0.13756366 0.09668581
0.15720871 0.08195752 0.16225219 0.058708988 0.089798726 0.17239599 0.037503827 0.04681184
-0.0025668931 0.0044463067 -0.026199648 0.035488736 0.042838432 -0.027259048 0.0789509 0.050376844
0.07829191 -0.02360188 0.036402054 0.007993861 -0.03590882 0.0671152 0.008329194 0.009505389
0.10578062 -0.055288445 0.13676064 0.0500876 -0.07205416 -0.061332554 0.031832114 0.10402608
0.056058634 0.008060039 -0.06700527 0.06582247 0.017707193 0.043129973 0.03762361 -0.11732836
-0.013118625 0.053580217 -0.07225145 0.14176714 0.12546597 0.038163792 -0.18136619 0.051408757
0.12366345 -0.15391918 0.0051280595 0.03186786 0.124401025 -0.06432844 -0.099706374 -0.05717999
0.12877573 0.04080165 -0.005368818 0.06727685 -0.033502292 0.007653035 0.026946012 -0.16749597
-0.026422141 -0.06677578 0.0123478295 -0.087008595 0.046283025 -0.017541094 0.114648044 0.075892165
0.12921697 -0.051453166 -0.008749609 -0.082674555 0.058301717 0.038071267 0.115177535 0.061765425
0.114184506 -0.03176816 -0.117581576 -0.06409888 0.01804345 -0.012733254 0.11211955 -0.16103889
-0.07526059 -0.030477496 -0.008179639 -0.01712371 0.008490184 -0.007893971 -0.0262983 0.0025287664
0.094349466 -0.17277603 -0.10198613 0.066873625 -0.11474684 0.05782464 0.039135776 0.0037992473
0.045679472 0.012936394 -0.08281558 0.09157666 -0.0028999415 -0.056037407 0.09900205 0.13272059
-0.07756484 -0.09851484 0.008722629 0.10097371 0.019222504 0.10255875 -0.047046967 -0.07934141
0.010299356 -0.036777325 -0.005858772 6.7486755e-05 0.09268154 0.016857063 0.056167472 -0.052764922
0.061213333 -0.040214367 -0.08065327 0.080223896 0.1456771 -0.08918488 0.018092085 0.023560634
-0.05958217 0.07057652 0.016713569 0.1342789 -0.008449964 0.005007114 0.031746887 -0.035574403

bias_hh_l0 f4 [512]
00000000: 3386 0a3e 6242 1b3e 0e01 b23d 3bcc 1c3e
00000010: ba38 113e bb71 0f3e 3007 353d fab8 123d
00000020: 8212 2b3c 3273 113e 28c6 bf3d 360b 3a3e
00000030: e76b 903d 1e7c fabc 398f 95bc 2518 cc3d
00000040: 63e4 ae3d c7c4 e93c 9907 043e 31ab d23b
00000050: 4c61 313d 8c0c e43c 9419 2b3d a007 f93d
00000060: 22d3 af3d ce57 00bb a388 133e 6b39 a039
00000070: 5cc0 c43d 8f5e 453e 7258 413e d785 5c3d
00000080: 5093 4ebd 92ea 4d3e ad54 843d bbdf e93d
00000090: d9e0 9c3d 73f6 173e eb19 f53d 35c1 073e
000000a0: e6ea a6bc 1b90 13bd c7df 623d f1bc b63d
000000b0: 45e6 d43d 8283 fe3d 8788 513d aac1 233e
000000c0: 91d7 463d 8dd0 0b3e 7b9b 25bd bf5b 1b3e
000000d0: 1675 3e3e 8768 04bd be09 9d3c bd84 043e
000000e0: 8bfe 683d 3d5b 793c 12de 413d 1b83 c33c
000000f0: 4e32 e43d 12b5 d93d b422 4a3d 99c2 183e
00000100: 5ab5 633d d43f 833e b30b 9f3d 0a7e 613e
00000110: 536a 513d 2e34 033e d1bc 063d 5404 df3d
00000120: 4a37 4e3e 9fbb c83c d9ad 3b3e 0347 0e3e
00000130: 94c1 e43c c624 d73c d5d6 1f3e c72e e23d
00000140: 3f56 333d 0330 ce3d 637f 533e 9eb9 043e
00000150: 00ec 5a3e 0551 3d3e 3637 0b3d f9f3 c93d
00000160: 3994 f93d 84fe bd3d 791b 6a3d 9072 f03b
00000170: 08bc 7ebc d6cd 363e d15e 3c3e 5c70 84bc
00000180: eedb ae3d 0f5b d53d 207f 293e c03e ad3d
00000190: 003e f83d 5fa5 a93d 1ce1 343e eeaa 2f3d
000001a0: d337 e83c a825 0e3e cd21 7abb 533e 743d
000001b0: 4119 7dbd 60f8 6f3d e942 f83d 12d8 3a3e
000001c0: a50c c33c 6593 143e 68f2 943d aeaa 113e
000001d0: 5cdf 393d f1f5 213e b458 273e 4b7e 243e
000001e0: 1181 df3d 137c 41bc a879 ec3d da7e 0a3e
000001f0: 1f64 803b bd14 dc3d fc7e 073e 15c0 b43d
00000200: d8bd 40b8 37e3 033e a8a0 8e3a ee81 af3d
00000210: b191 e63d 2f28 5738 cdd7 cdbd c42e 0fbb
00000220: b810 f63c ceae b3bb 3338 d63d f893 4a3d
00000230: 4230 5e3b 89d7 933c f22d bd3d 86a0 863d
00000240: fde0 063c 73fa df3d 5f43 303c 8ada 0bbc
00000250: d309 2dbc 22ba f43c 8004 dc3d 1c3e bfbd
00000260: c095 44bb b248 80bc 1843 0dbb 0b16 913a
00000270: 83ee 753d 967b 21bd c440 5cbe 3c04 74bb
00000280: 49b3 7bbc 04bf 73bd 076f 3f3d 3b53 9abc
00000290: de23 c73d 1a00 b9bd 601f 8b3c 0aab bbbd
000002a0: 10eb 003e a533 39bd b19f a13d 006a 3b3d
000002b0: 30d0 323d df30 ba3d eb44 d93d 3ca6 24be
000002c0: 4f77 a03c 522a 98bd 5153 29bd adb9 95bd
000002d0: 9594 c3bd 2d05 ec3d 1161 acbc ef48 933d
000002e0: 34e9 f8b9 c602 0d3d 6b50 80bd 6f76 b8bc
000002f0: e414 c0bd e824 4fbd 4ad4 ac3d f279 dbbc
00000300: 23d8 a83d 7b0d d0bd 2b59 a2bb a84c 64be
00000310: 90b3 273c f3e0 d3bb eec3 113e fcd0 7bbd
00000320: 391c a7bc 5b74 43bd 7eb2 9e3d 51d6 5bbd
00000330: 668d 92bd 151a dd3d 5a0d ecbd 5464 de3d
00000340: 1afe 4e3d 03c2 cfbd c237 a73c 068e 9b3d
00000350: 4db9 a0bd 1834 a3bd fd3b 093d 3245 273d
00000360: 526e 9dbd 3975 533c 7e96 d9bc 4dd6 92bc
00000370: a394 103e 78a3 953d e3cd 113e 89e5 71bc
00000380: 6013 2e3d 58a6 913b 59fb ef3c 5fc5 0ebd
00000390: 5aac 093d d12b 1fbd 88d9 b9bc 6007 5d3d
000003a0: 6b63 57bd 3965 cfbc aa93 c43d 1680 033d
000003b0: bcdf e83d 7979 cebc c1c2 833d 65f5 8fbd
000003c0: 4d45 a63d 4310 e8bc d2b5 a83c ce0f ba3c
000003d0: 2685 4d3d 70cd 51bd 8d57 abbd a454 09bd
000003e0: 717e 90bd ab2d a13c b68d 2dbd ea0e c13d
000003f0: 0340 1ebe b74d fd3c a617 7f3d ce82 00bd
0.13527755 0.15162042 0.086916074 0.15312283 0.14181796 0.14008228 0.044196308 0.03582094
0.010441424 0.142041 0.09363967 0.18168339 0.07051831 -0.030576762 -0.01825677 0.09965543
0.08539655 0.028536214 0.12893523 0.006429099 0.04330568 0.027838014 0.04177244 0.121596575
0.08585192 -0.0019583586 0.14407592 0.00030560358 0.09607002 0.19274352 0.18881395 0.053838577
-0.050433457 0.20109013 0.06461463 0.11419626 0.07660074 0.14840107 0.11967834 0.13257296
-0.02037568 -0.0360261 0.055389192 0.089227565 0.10395483 0.12427427 0.051155593 0.15991846
0.048545424 0.13653775 -0.04043148 0.15171717 0.18599352 -0.032326248 0.019169684 0.1294126
0.056883376 0.015219507 0.047330923 0.023866227 0.11142407 0.106302395 0.0493495 0.14917983
0.055592872 0.25634634 0.07765903 0.22020736 0.05112679 0.12812874 0.032894913 0.108894974
0.20138279 0.024503527 0.18328036 0.13894276 0.027924336 0.026262652 0.15609296 0.11044078
0.043783423 0.10067751 0.20654063 0.12961432 0.2137909 0.18487938 0.0339882 0.09860987
0.12186474 0.09277061 0.057155106 0.0073378757 -0.01554776 0.17851958 0.18395545 -0.016166858
0.08538042 0.10417759 0.165524 0.08459234 0.121212006 0.08283495 0.17663997 0.04288762
0.028346932 0.13881552 -0.003816712 0.05962975 -0.061791662 0.05858648 0.12122137 0.18246487
0.02380974 0.14509352 0.07272798 0.14225265 0.045379028 0.15816475 0.16342431 0.16063802
0.10913289 -0.011809367 0.115466416 0.13524953 0.0039181854 0.10746143 0.13232034 0.08825699
-4.5953173e-05 0.12879644 0.001088162 0.08569704 0.11258257 5.129742e-05 -0.10050926 -0.0021847943
0.030037269 -0.005483485 0.10459938 0.04945752 0.0033903276 0.018047111 0.09237279 0.06573586
0.008232352 0.10936441 0.01075825 -0.0085359905 -0.010561424 0.029873911 0.10743046 -0.09338018
-0.0029996485 -0.015659664 -0.0021554884 0.0011069191 0.060041916 -0.0394245 -0.21509081 -0.003723397
-0.015362569 -0.05950834 0.046736743 -0.018838516 0.09723638 -0.090332225 0.016982734 -0.091634825
0.12589669 -0.045215268 0.07891787 0.045755386 0.043655574 0.09091353 0.10608848 -0.16079038
0.01958814 -0.07429947 -0.041339222 -0.073108055 -0.09549824 0.11524425 -0.021042379 0.07191645
-0.00047475996 0.034426473 -0.062653385 -0.022517411 -0.093789846 -0.050572306 0.084389284 -0.026791546
0.0824435 -0.10158821 -0.0049544773 -0.22294867 0.010235682 -0.006466025 0.14234897 -0.0614786
-0.0203992 -0.047718387 0.077488884 -0.053671185 -0.07155876 0.107959904 -0.11525984 0.1085898
0.0505353 -0.10144427 0.02041233 0.07595448 -0.07847843 -0.079689205 0.033504475 0.040837474
-0.076870576 0.012906366 -0.026561018 -0.017924452 0.141192 0.0730657 0.14238696 -0.014764198
0.042498946 0.0044448785 0.029294657 -0.034856196 0.033611633 -0.038860146 -0.022686735 0.05396211
-0.052585047 -0.025316821 0.09598477 0.032104574 0.11370799 -0.025204407 0.06433631 -0.07029227
0.08118687 -0.028328067 0.020594511 0.022712614 0.05017581 -0.05122131 -0.08366308 -0.033527985
-0.07055367 0.019675096 -0.042371474 0.09426673 -0.15454106 0.030920846 0.062278412 -0.031374745

weight f4 [29, 128]
00000000: 49db 07be 1894 e8bd 5fbc 82bd 2c57 26be
00000010: 8575 a9bd 65e6 b3bd 282d 07be 833a a3bd
00000020: 9841 9f3d 6f37 43bd ab6b d1bd 6025 843d
00000030: 0480 403e ba04 0cbb 5174 b9bd f8ae 453d
00000040: b6c0 a4bd 52ee 8bbd 6f32 57bd 0413 a53d
00000050: dbff 883d dd80 3cbe 6a11 aebd 7be3 ad3d
00000060: 3fb9 7abd 0937 cbbd 2daa 2e3e 052a dcbd
00000070: 4ecc d33d 26b6 fcbd f84a 343e bb8f 31be
00000080: 4df2 7b3d 485a 233e f380 873d 948c 013e
00000090: fbae da3d eeed cb3d 1848 c5bd c778 95bd
000000a0: b689 ed3d 4cbc 04be fe81 fb3d 49ac e9bd
000000b0: 7c58 803d 739b b5bd 3924 e7bd 425f 63bd
000000c0: 6264 943c f878 ee3d 30ae 9f3c 56a7 213e
000000d0: 5ec5 c73d 65e7 d73d ce90 073e 2925 a63d
000000e0: dede c83d 2bf3 f03d e261 183e b322 2c3e
000000f0: 9ecd 0cbe 4841 763d 232c 02be 231d 0b3e
00000100: 1c7e e63d 7602 35be aaab 6fbb 3037 e33d
00000110: e36a b3bd 72b7 0b3e b897 483d dcd0 91bd
00000120: 1d6a 6abe e905 4a3e e89d 43be be6c 09bd
00000130: 9908 eebd c0b0 523d 274b 0abe bfaf 083e
00000140: 0064 b4bd 0c65 8f3e 0115 2cbe 9598 4e3e
00000150: 8c73 2a3e 7da8 963d ab87 033e 5c64 e5bd
00000160: 8b88 ba3d 65a6 17be da4e debd 4e66 053e
00000170: 4d22 8cbd b348 f1bc fbaf 5d3d 9abe abbd
00000180: eb76 c3bc 0a3f 35bd 51d9 b7bd a2c2 f1bd
00000190: 7c86 4e3e e5ae a83d a6bb 29bd 3d3f 043e
000001a0: 7463 183d bd28 12bd 6b30 4dbe 4821 c03d
000001b0: 7a9b 913d 7d38 b43d 77d8 543d b3d1 f1bd
000001c0: 70ee 0dbe d231 83bd 5a2a 12be 9676 493e
000001d0: 265b 90bd 252d 553e 8484 48bd 5072 383e
000001e0: 0bbf 1cbe 3a65 10be f4fc e5bd b104 c7bd
000001f0: 3676 06bd 342d 233d 47d2 83bd 6870 5dbe
00000200: c1cc 1dbd 9976 bf3c 79f0 3f3c 4c63 86bd
00000210: 2863 ebbd 8b5f 85ba cc36 86bd 5459 013e
00000220: e3ea 793d 97d9 e53d 01b6 d1bc de75 d5bd
00000230: 6ed8 9fbe 9f7b 823d 28b5 763e 7406 a5bd
00000240: 9586 c5bd 4118 b23d 2185 24bd 2013 8b3d
00000250: 016a ed3d aedd 313d 5193 23bc 84be d73d
00000260: 05df d3bd 141a 203d 966e d43d 4159 6bbc
00000270: f25c d0bd d721 b6bd 9224 07be 4205 813d
00000280: eaf3 fa3d 14d9 e7bd 09cb 81bd d514 403d
00000290: d685 a1be 3813 b6bb 5f47 02be 6d9e b8bd
000002a0: 6ce0 3d3d dc73 fd3c e12e 3fbe ea0f 313e
000002b0: 2dbb 963d 65e4 46bc 4dcc aebd 0326 d4bc
000002c0: 72e3 36be 3c2c 94bd 524c 8bbc 05a2 7f3c
000002d0: 396b 88be 252a 9fbd 5aa1 a2bd 4998 6f3e
000002e0: 6ae1 82bb 01c0 e7be 49a8 8fbd 8824 883d
000002f0: f00a a03d e3a6 17bb 7998 4f3c 3454 2c3e
00000300: 1122 20be 8b98 183e ee63 e13d 30e2 553e
00000310: 7faf 823d dca0 e5bd 9c6a 453d b935 333e
00000320: 1c86 d73d 016b 27bc 268b ef3d 9442 d73d
00000330: f51e 643d 289f e3bc d81c 66bd 1387 37bd
00000340: e3ee a63d a238 a8bd 5ba4 77bc f917 683a
00000350: e1c6 aabd 7740 67bd 3ee3 fa3c bddf 5a3e
00000360: 5eee 0c3e 5a82 e2bd a3c1 64bd 4bb7 6dbd
00000370: d52d 6b3a dc1d babd 759f 9bbd 3f26 ca3d
00000380: d33b 923d d808 5f3d fc0f 43bd 58d2 633d
00000390: 4704 87be d74d 85be c4a5 003e 7065 dcbd
000003a0: 79dc 413e 6d63 bfbd 3d5a d9bd cb44 e93d
000003b0: 19c4 383d 9488 39be 3dc1 e8bd d878 01be
000003c0: 543e 313e 9aa9 7e3d 0f10 20bc 86c5 46bc
000003d0: 86d6 0d3d 3e97 ddbd 7510 39bd c4a3 fbbd
000003e0: 82d6 8b3d e8b2 443d 2d8e e9bc 0993 18bd
000003f0: 84ef 273d bc7e d7bb 3e4e f03d 7f13 233c
-0.13267244 -0.11356372 -0.06383585 -0.16244191 -0.08274368 -0.08784179 -0.1320082 -0.079701446
0.07776183 -0.047660287 -0.10225614 0.06452441 0.18798834 -0.0021365122 -0.09055389 0.048262566
-0.08044569 -0.06832565 -0.05253833 0.080602676 0.066894256 -0.18408532 -0.08499415 0.08490654
-0.06121182 -0.099226065 0.17057104 -0.10750202 0.103417024 -0.123394296 0.17606723 -0.17339985
0.061510373 0.15952408 0.06616392 0.12651283 0.10677906 0.09957491 -0.096328914 -0.07298427
0.11598532 -0.12962455 0.122806534 -0.11409814 0.06266877 -0.0886754 -0.11286206 -0.055510767
0.018114273 0.11644167 0.019492239 0.1578649 0.09754442 0.10542182 0.13238832 0.081125565
0.098081335 0.117651306 0.1488109 0.16810112 -0.13750312 0.06012085 -0.1271215 0.13585334
0.11254522 -0.1767672 -0.0036570826 0.110945106 -0.087606214 0.13644198 0.048972815 -0.07119915
-0.22892042 0.19728817 -0.19103205 -0.03355097 -0.116227336 0.051438093 -0.13505231 0.13348292
-0.08808136 0.2800678 -0.16804887 0.20175393 0.1664564 0.07356355 0.12844722 -0.11200783
0.09108075 -0.14809568 -0.108548835 0.13027307 -0.0684248 -0.029453611 0.054122906 -0.08385964
-0.023860415 -0.04424957 -0.08976997 -0.118047014 0.20168489 0.082364835 -0.04143872 0.12914748
0.03720422 -0.035683382 -0.20038001 0.09381348 0.07109733 0.08799837 0.05196425 -0.11807575
-0.13860488 -0.06405987 -0.14273968 0.19674143 -0.07048635 0.20818003 -0.0489545 0.18012357
-0.15307252 -0.14101115 -0.112298876 -0.09717692 -0.03282758 0.03983803 -0.064365916 -0.21624911
-0.038525347 0.023371981 0.011715048 -0.06561908 -0.11493522 -0.0010175569 -0.065534204 0.12631732
0.06101502 0.112231426 -0.025599482 -0.10422872 -0.3121981 0.06371235 0.24092543 -0.080578715
-0.0964481 0.08696032 -0.040166024 0.06790757 0.11592484 0.0434243 -0.009983853 0.10534385
-0.10345272 0.03908737 0.10372655 -0.0143645415 -0.10173978 -0.08893173 -0.13197544 0.06299831
0.12253554 -0.11320701 -0.06337554 0.046894867 -0.3154742 -0.0055564903 -0.12722538 -0.09014592
0.046356604 0.030939035 -0.18670227 0.17291227 0.0735992 -0.012139414 -0.08535061 -0.025897032
-0.17860201 -0.072349995 -0.017004166 0.015602593 -0.26644304 -0.0777171 -0.079409316 0.23397936
-0.0039941566 -0.45263675 -0.0701452 0.06647593 0.07814586 -0.0023140244 0.01267063 0.16828996
-0.15637995 0.1490194 0.11005388 0.20887065 0.063811295 -0.11212322 0.048197374 0.17500962
0.10523626 -0.010218383 0.11696462 0.10510746 0.055693585 -0.027785853 -0.05617985 -0.04480655
0.08151033 -0.08213927 -0.015114869 0.000885367 -0.083387144 -0.056457963 0.030625936 0.21374412
0.13762805 -0.11060019 -0.05584873 -0.05803613 0.0008971368 -0.090877265 -0.075987734 0.09870576
0.07140317 0.054451793 -0.047622666 0.05562052 -0.2637045 -0.2603595 0.12563235 -0.10761535
0.1893176 -0.09345136 -0.10612915 0.11390074 0.04510889 -0.18118507 -0.11364982 -0.12643754
0.17308933 0.062173463 -0.009769454 -0.012132054 0.034628414 -0.10819863 -0.04518171 -0.12287095
0.068280235 0.04802218 -0.028510178 -0.0372496 0.040999904 -0.006576387 0.117336735 0.009953379

bias f4 [29]
00000000: 5895 923d 14a0 b1bd 1108 e13d 0ae6 2d3c
00000010: aa00 7d3c b3d9 e4bd b928 3bbc ce86 dbbb
00000020: 8dc2 953c 1afe b6bd 8397 cc3b 0132 8e3d
00000030: 8079 3e3d f515 323d 8813 653d 04cd 883c
00000040: 88f8 2bbd c3a9 343e db6f bb3d d424 323e
00000050: c06d 16bd e1c8 87bc 4815 d3bd 00a8 53be
00000060: 9e3a 9dbd 0eeb c4bd 0968 4fbe e176 c13c
00000070: 2918 4dbe
0.07157391 -0.086731106 0.10987867 0.010613928 0.015442053 -0.11174335 -0.011423283 -0.0066994196
0.018281246 -0.08935185 0.0062436475 0.06943131 0.04650259 0.04347797 0.05592683 0.016699322
-0.041985065 0.17642884 0.09152194 0.17396861 -0.03672576 -0.016575279 -0.103067935 -0.20669556
-0.07677196 -0.096151456 -0.2025453 0.023616256 -0.20028748
