models/LSTM/128/ESEU_60-40/ESEU_60-40_1_threshold_train_31.pt (torch, 353807 bytes, 7 tensors)

weight f4 [29, 32]
00000000: a685 c23f 447a 05bf b7d1 f8bf 9b5c 94bf
00000010: 9f57 cabf c2f2 763d f7e0 f4bf 51e3 ab3f
00000020: 80d5 083f a396 2abf 11b2 573f 78b3 3a40
00000030: 61ff a6be c9b8 bbbf b300 debe 0b3d 11c0
00000040: 8548 6d3f 6c40 4c3e 7e47 823f 894a 41bf
00000050: 34d0 903f 133a 8bbf cf87 6cbf c8ec 20bd
00000060: 19a3 1f3f 6e0b b3bd 4fd1 07c0 c17b a03f
00000070: 7554 5f3f 64ba 1dbf 5973 b03e 733b 8abe
00000080: 3c45 4f3e 2b03 813f 6672 f6bf 724e 6d3f
00000090: 7137 2ebe 5eb0 12c0 6a20 eb3f c891 cbbf
000000a0: cde3 dabf 9848 2bc0 2272 0e3f 47e0 28bf
000000b0: 2a4a 8e3f 8d2b a1bf 2536 e33f e4b5 dd3e
000000c0: 8d17 d8be 846f 6fbe b594 943f f802 79be
000000d0: 080f 14c0 55f6 243f a6b7 8fbf ccc8 db3f
000000e0: e40b 243f 96fa 703f 32f1 bbbb f5bf 6a3f
000000f0: 674a 92bf 6fa6 1840 b004 2bbe f093 1440
00000100: abce 8bbf 02e5 34bc 0600 7f3f 683e 073e
00000110: fad7 8c3f 23b2 ec3f 23ad 393f 546c a53f
00000120: 6461 27c0 41a0 113f 835e 0a3f 3b01 ac3f
00000130: 7544 fabf 169b c73e 1269 d93f cec8 353f
00000140: 9f0e bbbf 4ab3 41bd f6f6 9c3e 9dee 7b3f
00000150: 8df3 5c3f 8ece b0be 407a da3f e317 0c3f
00000160: 3f9b aa3f 8b18 263e fa1a 8e3e 8ac4 943f
00000170: 5b6c b2bd c5a5 28be 1ced 68bf fbbc 67bf
00000180: 8608 91bf 8925 693f 3f88 4ebf 7bc4 eabf
00000190: ea83 a33d 5088 b73f 3a89 b63e 9c7d 12bf
000001a0: 1461 abbe 01ef 943e 9258 f5bf d00a 1ec0
000001b0: 26c4 14be 2d31 15c0 da49 293f 5562 e9be
000001c0: e43f bb3f dcb4 0ac0 ab17 c2bc 0a2d a7bf
000001d0: f2ce 28c0 3159 0cbf 86b1 b03e fbde 433f
000001e0: ec57 dc3f 62df 063f e2cd 4bbf 6bbb 8cbf
000001f0: 4510 1f3f 5dcf 833f bb10 39bf a20b 0340
00000200: a66c 3cbf 9d62 7e3f db32 09bf 9c35 9a3e
00000210: 09b4 c63e 8dbf 443f 79a1 1ac0 8d86 5b3f
00000220: ab3e 07bf 8e8d 933f 7a1c 55bf a95a d23e
00000230: 6a31 dabe bb57 d43e b5d2 ad3f 3e04 3ebe
00000240: 05c9 b83f 6f68 81bf 7c7d ba3f 0425 0bbe
00000250: b2af 3dbf f433 08c0 5745 33bf 42a8 57bf
00000260: 7fba 8b3f 34ca e5bf a403 573e 93a1 e8be
00000270: 4c4d 1bc0 df7f 88be da59 3a3f 8bdd 0940
00000280: 535b a3bf 1f50 83bf acbb fe3e 9fdd 873e
00000290: abba 9e3f 61c1 87bf 297e a3bf 1ed8 1abf
000002a0: 3695 43bf 00d2 e0bf 5938 0e40 fd86 70bf
000002b0: 676d 2bc0 00ca 813f a7db 9bbe 2370 3e3f
000002c0: c2a6 a2bf d3f1 91bf 077e 323f bd96 07c0
000002d0: 7f31 02bf eec7 8cbe 7967 e13e 213b 03c0
000002e0: 7fc1 24bf cb90 67be 3b73 b33f d124 31bf
000002f0: a239 683f b817 4bbc 6e88 03bf ba19 c0bf
00000300: 62bf f9bf 4f58 d23f a658 2abf 146f 2fbf
00000310: f34f e83e 47e7 593f e299 923d cb69 e63f
00000320: 2f2b f23f 6bf5 7bbf bcab f7bd 1558 053f
00000330: 521a 12be 807a 15bf ee98 ab3f 3563 233f
00000340: 09f2 453e d555 44bf a3f7 26bf 454d 543f
00000350: da77 a1bf c38f 563f 00f6 ad3e 7cc7 a13e
00000360: f964 8fbf bfbd 91bd 359d af3f ee94 a13f
00000370: 0d0d c43e de06 60bf fdb9 5cbf 6e47 0cbf
00000380: 0fdc 98bf 66e4 8dbf e4d8 42c0 514b 4abe
00000390: ae4e 9abf ae4b adbd d7cb 0a40 14a5 053f
000003a0: 01f4 a2bf 3462 803f 26c4 3fbf 8487 d6bf
000003b0: f308 00bf 3569 973e 0e98 7fbf 3a9b 4e3f
000003c0: 22c4 e23e 3225 b1bf 6579 1540 6057 c4be
000003d0: 42e7 de3e 539b f63f 4d62 443f 03c6 59bb
000003e0: 5486 c83f f029 883f fdca dd3d 6f75 043f
000003f0: 9c49 88be ac4d 2e3e 05b5 dfbe b588 5dbf
1.5197036 -0.5213969 -1.9439 -1.1590761 -1.580799 0.060290106 -1.9131154 1.3428746
0.53450775 -0.66636103 0.8425608 2.917204 -0.32616714 -1.4665767 -0.43359908 -2.2693508
0.9268878 0.1994645 1.0178068 -0.75504357 1.1313539 -1.0877098 -0.9239473 -0.039288312
0.6235824 -0.087424144 -2.1221502 1.2537767 0.87238246 -0.61612535 0.34463003 -0.2699848
0.20241255 1.0079092 -1.9253662 0.92697823 -0.17013337 -2.2920146 1.8369267 -1.5903864
-1.7100769 -2.6763058 0.556429 -0.6596722 1.1116383 -1.2591416 1.7750899 0.43302834
-0.42205468 -0.23382384 1.1607882 -0.24317539 -2.3134174 0.6443837 -1.122792 1.7170653
0.64080644 0.94132364 -0.00573554 0.91699153 -1.1428956 2.3851583 -0.16701007 2.3215294
-1.0922445 -0.011040928 0.9960941 0.132074 1.1003411 1.8491863 0.7252981 1.2923684
-2.6153193 0.56885153 0.54050463 1.3437876 -1.9552141 0.3898551 1.698519 0.7100953
-1.4613837 -0.047290124 0.30657166 0.9841097 0.8630913 -0.3453259 1.7068558 0.5472395
1.3328627 0.162203 0.27754956 1.1622479 -0.087120734 -0.16469486 -0.909868 -0.90522736
-1.1330726 0.910729 -0.80676645 -1.8341211 0.07984145 1.4338474 0.3565157 -0.57222915
-0.33472502 0.29088596 -1.9167655 -2.46941 -0.1452795 -2.3311265 0.66128314 -0.45582834
1.4628873 -2.1672888 -0.023692926 -1.306062 -2.637631 -0.54823595 0.3451044 0.76512116
1.7214332 0.52684605 -0.7961103 -1.0994695 0.621342 1.0297657 -0.72291154 2.047585
-0.73603284 0.9936922 -0.53593224 0.30119026 0.3880923 0.76854783 -2.4161055 0.85752183
-0.5283 1.1527574 -0.83246577 0.41084793 -0.42615825 0.41473183 1.3579928 -0.18556306
1.4436346 -1.0109996 1.4569545 -0.13588339 -0.74096215 -2.128171 -0.7002768 -0.84241116
1.0916289 -1.7952332 0.20997483 -0.4543577 -2.4265928 -0.26660058 0.7279335 2.154147
-1.2762245 -1.0258826 0.49752557 0.2653627 1.2400717 -1.060589 -1.2772876 -0.6048602
-0.7639955 -1.7564087 2.2221892 -0.93955976 -2.6785524 1.013977 -0.3044102 0.7438986
-1.270714 -1.1401924 0.6972355 -2.1185753 -0.50856775 -0.27496284 0.44024256 -2.050484
-0.6435775 -0.22613828 1.401954 -0.691968 0.9071294 -0.012395792 -0.5138005 -1.5007851
-1.951153 1.64332 -0.66541517 -0.68528867 0.45373496 0.85118526 0.07158257 1.8001035
1.8919429 -0.98421353 -0.120933026 0.5208753 -0.14267853 -0.58390045 1.3406045 0.6382325
0.1933061 -0.7669347 -0.65221614 0.82930404 -1.2614701 0.8381311 0.33976746 0.31597507
-1.120269 -0.07116269 1.3719851 1.2623575 0.38291207 -0.8751048 -0.86221296 -0.54796493
-1.1942157 -1.1085327 -3.044488 -0.19755293 -1.2055261 -0.084617004 2.1686914 0.52205014
-1.2730714 1.0029969 -0.74908674 -1.6760106 -0.50013655 0.29572454 -0.9984139 0.80705607
0.44290262 -1.3839476 2.3355343 -0.38347912 0.4353581 1.9266151 0.76712495 -0.0033229596
1.5665994 1.0637798 0.108297326 0.5174169 -0.2661866 0.17021817 -0.43692794 -0.86536723

weight_ih_l0 f4 [512, 32]
00000000: e385 293e 5abb 5c3e 04e2 613d 7d13 253e
00000010: db37 873d a68b f7bd 49ca a9bd 551d ef3d
00000020: c30f d33d f53c 5b3d 810a 9a3e 8ec7 6b3d
00000030: 1399 82bd 23a3 883e 0512 383e 5805 55bc
00000040: 89ab 4bbe 7dca 093e 7761 173e 0bda 99bc
00000050: d68c edbb 37a8 d1bd 67b4 883e f310 6ebe
00000060: ad8c dabb 8220 953e dd5e 31be 9e45 8c3e
00000070: a6be 22be de18 43be 3d10 953e 5cce 813d
00000080: 65c8 2cbe ed2f aabd 7868 473e a9ce b63c
00000090: 18e4 1abe 125b c03e 35b1 093d 0e66 0c3d
000000a0: d126 85be 74ae 4a3e 32d1 50bd ce47 05bd
000000b0: c960 a2bd 4594 46be a8e2 86bd e6ce 36be
000000c0: a873 ef3d a141 acbc 1ebf c03c 9a61 e23c
000000d0: 679d 86bc 2145 c03d 9b98 383e 931c 05be
000000e0: 0049 dbbd af71 11be 7194 de3c 5923 e8bd
000000f0: 7885 243c 2c12 3ebe 079b 31be 1817 1dbe
00000100: 7c98 063d c83a ca3d a9f6 26be e6d4 43bc
00000110: fffa dabd 4758 a1bc e51f 053e a8f3 2abc
00000120: 4d2f 563d a4cb dcbd 1505 9d3d 812c 9d3d
00000130: 0216 9dba 74d5 fdbd d3ef 9cbe 3121 b93c
00000140: 2e84 b43d a1f0 b6bd 7bbf 32bd c863 9ebd
00000150: 0088 a43b d821 123c bdaa 9dbe 48a8 21be
00000160: 15bd e1bd 1077 8f3e b0de a93c 007e 963c
00000170: 032f 803d 9b22 0e3e a85b 3dbd b554 f63c
00000180: e109 183e fa96 cd3d 5c18 c3ba eafc e63c
00000190: a63f 97bd 52e6 143e e088 06be 2db5 703e
000001a0: 6dec b33d 189b 813e d316 243d b9d1 f83d
000001b0: d0a2 c33c de4b 0c3d b2fb 5fbe f7a2 ebbd
000001c0: 0be2 2c3e 4544 2f3d 40c8 8d3e f985 07be
000001d0: 95ae f13c d37d 78be c150 d83c ddd0 5abe
000001e0: e4f3 933e 65cd d63d 667c 2fbe 0d2f 90bc
000001f0: 119a d83d 8b98 5ebe 80c0 143e 540a 20be
00000200: 00a3 4cba 5958 f73c 7e98 bebd 0072 97bc
00000210: c6af 9dbd 8fe8 03be 007f 13bb 6ee3 4abd
00000220: 1652 dc3d 1468 e9bd f77f 8f3e 469d ec3d
00000230: 156f c2bd 8580 9fbd 7386 aa3d 8fc1 b63d
00000240: a368 783e b8ca c3bd 8318 e93d f3d3 553c
00000250: 6b0a 5cbd 8e62 57bd 3ef9 1abd 5b75 adbd
00000260: b03c 263c 9983 81bd 4aca bdbd 70bb 2f3d
00000270: dfd7 393d 4f95 d1bc f84f 5bbd 20ef 2bbe
00000280: dd35 54bd ea49 a2bd 966a 873c 2fe7 7d3d
00000290: 903f ab3d 1154 b23d e6b9 cdbd dead 9a3d
000002a0: 2ef2 25be 02d6 083d b99f fdbb f4ce 863e
000002b0: 9124 b9bd a0fa a7bb 431c 1bbe 5038 0cbd
000002c0: 1a60 6fbd a1c6 6a3e d66f 883d 99a1 f8bc
000002d0: 48c7 683c faee 29be 8c98 813d f15e 06be
000002e0: c67d 64bd 990e 873d 957a 4a3e 73b4 a23d
000002f0: 3f06 a7bd 21b0 16bc 1f13 5bbd f7f2 e4bd
00000300: 1c0b 2f3d 95ab 193e cfdf 733d 231f e4bd
00000310: 9105 fb3d 4c4d 54bc 66f8 893d d4ab 303e
00000320: bcb9 78bc 071c 89bd 7107 ec3d fbf7 453c
00000330: b091 8bbd 060b 9b3d 2895 3c3b 763f d23c
00000340: 6686 563c 251c 72bc d14b 0ebe 983c 68be
00000350: 5b04 25bd 7402 50bd fb68 603d 505a 0fbe
00000360: c3cf 473e 7cdd 6c3e ff95 dcbd 56f0 0e3e
00000370: 5572 e0bd bba5 47ba ef8e 053e 2a30 8dbc
00000380: f814 00bd f891 09bb 281f 16be 0b15 debc
00000390: f0e3 5dbd aecc 083b 5f6c 2fbd 3126 5bbc
000003a0: b466 8abd 8744 babd 0050 25be 6de4 0abe
000003b0: a17d b53d 41e7 41bd 624c f8bd ba48 c5bc
000003c0: f977 d4bc 9263 b6bd 2252 1e3d 6c8b 14bd
000003d0: f083 b93d 0c31 863d 519d 70bc 2e9a adbb
000003e0: 7adc df3d 185a 9b3d de5a f53d 619a 64bd
000003f0: b0ef c33d 87f7 503d 89e8 afbd 4701 f83d
0.1655498 0.21555844 0.055147186 0.16120715 0.066024505 -0.12087183 -0.08290536 0.116755165
0.10305741 0.05352493 0.3008614 0.057563357 -0.06376853 0.26686963 0.17975624 -0.013001762
-0.19889654 0.1345615 0.14783274 -0.018780729 -0.007249455 -0.102371626 0.26700136 -0.23248653
-0.006669602 0.29126364 -0.17321344 0.27396864 -0.15893039 -0.19052455 0.2911395 0.06338188
-0.1687332 -0.08309922 0.19473445 0.02231534 -0.15126073 0.3756948 0.033616263 0.034277014
-0.26006177 0.19793111 -0.050980754 -0.03253918 -0.079286166 -0.19392498 -0.065862 -0.17852363
0.116919816 -0.021027388 0.023528632 0.02763443 -0.016432477 0.09388185 0.18026964 -0.12999181
-0.10707283 -0.14203523 0.027170392 -0.11334867 0.010041587 -0.1856162 -0.17344294 -0.15340841
0.032860264 0.09874493 -0.16305031 -0.011952614 -0.10692405 -0.019695414 0.13000448 -0.010434069
0.052291203 -0.10781029 0.07666985 0.07674504 -0.0011984708 -0.123942286 -0.3065172 0.022598835
0.08814274 -0.08932615 -0.04363964 -0.077338755 0.0050210953 0.008919202 -0.30794325 -0.1578685
-0.11022393 0.28020525 0.020736068 0.018370628 0.06258967 0.13880388 -0.04622999 0.030069688
0.14847519 0.10038562 -0.0014884579 0.02819677 -0.07385187 0.14540985 -0.13138151 0.23506613
0.08785329 0.2531364 0.04006083 0.121493764 0.023881346 0.03425204 -0.21873358 -0.115056925
0.16883104 0.042789716 0.2769184 -0.132347 0.029502193 -0.24266748 0.026405694 -0.21368738
0.2889701 0.10488395 -0.17137298 -0.01760056 0.10576261 -0.21737878 0.14526558 -0.1562894
-0.00078062713 0.030193495 -0.09306429 -0.018486977 -0.07699542 -0.12881683 -0.0022506118 -0.0495333
0.10757844 -0.113968045 0.28027317 0.11553435 -0.094938435 -0.07788185 0.083264254 0.08923637
0.24258666 -0.0956015 0.11381628 0.013051021 -0.053720873 -0.052584223 -0.037835352 -0.084696494
0.010146305 -0.063239284 -0.09267099 0.042903364 0.045371886 -0.025583891 -0.05354306 -0.16790438
-0.05180918 -0.07924254 0.016530316 0.061988052 0.08361733 0.08707441 -0.10045223 0.07552694
-0.16205665 0.03340722 -0.0077399877 0.26329768 -0.090401776 -0.0051263124 -0.151475 -0.03423339
-0.05844126 0.22927333 0.06661956 -0.030350493 0.014207669 -0.16595069 0.06327924 -0.13122155
-0.05578401 0.06594581 0.19773324 0.07944574 -0.08155488 -0.009197266 -0.053485032 -0.11179154
0.042735204 0.1500686 0.059539612 -0.11138751 0.12256921 -0.012957882 0.06736831 0.17253047
-0.015181001 -0.06694799 0.11524857 0.012083049 -0.06814897 0.07570462 0.0028775427 0.025665026
0.0130935665 -0.014777218 -0.13896109 -0.22679365 -0.040287357 -0.05078359 0.054787617 -0.13999295
0.19512849 0.23131365 -0.10770797 0.13958868 -0.10959307 -0.00076159433 0.13042806 -0.01723488
-0.031269997 -0.0020991545 -0.14660323 -0.027109643 -0.054172456 0.0020873952 -0.04282796 -0.013375805
-0.0675787 -0.09095102 -0.16143799 -0.135637 0.088618524 -0.04733968 -0.12123944 -0.02408253
-0.025936114 -0.0890571 0.038652547 -0.036265776 0.09058368 0.06552324 -0.014685945 -0.0052979207
0.109307244 0.075855434 0.11980222 -0.05581129 0.09567201 0.05101731 -0.085892744 0.12109619

weight_hh_l0 f4 [512, 128]
00000000: ebd3 2d3e 0fe2 30be f845 37bb 066b 203e
00000010: bca5 a23e ad2f 813e cdf7 663d 06e4 703d
00000020: 59c5 bebd f44c 0f3e 26f9 30be 6352 473e
00000030: fa4a a1bd a570 dd3d 690a 7e3d d09d 0e3d
00000040: 6c7e 043d c1dc 213d eb9d f0bd c9e2 9ebb
00000050: e08f 2cbc a9c9 11be eae0 293d d316 963e
00000060: 742e adbc d57d f2bd e1e8 fbbe 4733 5cbe
00000070: b958 153e 03eb 70bd 0c2a 433a aa7a 54be
00000080: 5597 c9bb 511b 40be e09c e03e 9eb6 33be
00000090: 446e cfbd 2b87 0abe cade 72bd 5f5c 973d
000000a0: 2076 94be b976 a2bd 0d4c 4d3d e311 b2be
000000b0: ba2d 06bc def0 ff3c a8cf 2c3e 557c 993e
000000c0: b484 df3d 27cb 20be d4d0 c53d 8464 66bc
000000d0: d396 78be eb34 8cbc fc03 783d 11a7 cabd
000000e0: fa12 b9bd b45f 183d 423a 4c3d 8d73 4cbe
000000f0: ab3a e43c b9a5 65bb 2218 6ebe c88c 923e
00000100: 32c0 b73d f680 13bd bebf 67be b50f 94be
00000110: 0552 55bd 33e1 48be e819 af3e e699 e4bd
00000120: bb70 3cbe 529f ac3d 9ad8 063d 60ef 14bd
00000130: aeab 33b7 aa8d 0cbe 6564 323e 9e09 1c3e
00000140: f671 8ebe 775c 2abe 9f80 8f3e be69 fcbc
00000150: fdff 88bd 61f2 96bc 8ebe 13be 2b19 59bd
00000160: ffb4 923e 86a8 98bd 468b 9d3c 320e 49be
00000170: 45e1 3fbd 1b96 92bd e2e9 973e 54d6 5b3e
00000180: 4713 2cbd 1dbc 653e 56ad 72be be61 6c3e
00000190: e4f9 7b3d 280f bdbc ffd6 2dbe c8cb f4bd
000001a0: 3395 463e 97e2 b93d 3d75 5cbc 1fd7 aabd
000001b0: 8695 0e3d 5188 ab3d 7707 65be 6aad 0bbb
000001c0: f2f1 aa3d 2fb9 49bc 2f88 413d 674c 86be
000001d0: b388 e5bd c76d 8fbd 7451 9f3e c76d e6bc
000001e0: 432f 0abd e2b0 273e d763 23bd ff4b 88bc
000001f0: 492c 1cbe a0a7 9b3d 80f3 323e f3da 22be
00000200: 2135 403e 0b37 41be ad44 9cbb 61cf 8dbd
00000210: 70e3 1e3d bed3 91be 67ba 4ebe 0318 953d
00000220: 79d7 31be dd4d 003e 5d6d a2bd 0f7a 9dbd
00000230: dd01 bfbd 83a3 93be 9826 e2bd eb70 133d
00000240: 23d7 803e 65f4 36bc cbfa 373e 943b 983d
00000250: 6b89 3a3c baea a73c 6395 41be 72eb 01bc
00000260: 0e83 09bd a7b8 1d3d 4c03 d4bd 38b1 17be
00000270: afdc 0f3e 7c83 d63d 264c 4fbe 8071 62be
00000280: 78df 5fbd 728c 58bd 434d 103e edf2 19bd
00000290: f570 adbd 9ab8 76bc 6f2d f8bd 1725 0d3e
000002a0: 8b3a 47bd 43a7 a0bc b6db 02bd ba62 61bd
000002b0: f62b 533d d040 dbbd 6a71 a43e 36c3 2dbd
000002c0: d219 f93d 652e 37bd 372d efbd 5a17 b23c
000002d0: ddf8 3e3d aa78 f5bd 80e5 b83c e04b 993d
000002e0: a934 d63c cfe4 4dbc 9c2d 7bbe 8807 80bd
000002f0: 6931 95bd e607 9f3e e000 9dbe 415f f43d
00000300: 1582 8ebe 13da cd3d 62c5 ffbd e68c 91bc
00000310: 6e96 37be c89c 8f3e 7c43 5a3d abd6 203c
00000320: 6d28 a0bd b61f 063e 9183 ca3b acc2 133c
00000330: 017c df3d eeb4 cbbd b382 92bc 71b7 5e3c
00000340: 904d f4bd 598d 7bbe 2ad9 393e af75 e63d
00000350: e120 66bd 9c90 913d f18a e9bc fc83 a0be
00000360: 33d8 c43d a207 babd 8e60 173e 5e01 62bd
00000370: 13a8 bc3e 5118 6bbd ef37 eebc 3d28 2fbe
00000380: 2793 2c3d d82b 6ebd 52d8 37be 73ef 5d3d
00000390: c967 ebbd 5860 e23d dfa6 18be 9777 453d
000003a0: 042d 6abe 8016 41be 053a 863d 1021 0cbe
000003b0: 65ee e03d ab38 ce3d 525f 84bd 696e 7fbe
000003c0: 8589 d33e fbfb f4bd 32fe c23d d12b 84be
000003d0: 52ef dc3d df2d 38bd 4238 3a3e 6800 22be
000003e0: cf6e 71be bccb 3b3e cc08 a6bd e838 3f3e
000003f0: b268 553d d603 573c 18e8 70bd 9f31 d3bb
0.16975372 -0.17273735 -0.0027965289 0.15665826 0.3176707 0.25231686 0.056388665 0.05881121
-0.09314985 0.13994199 -0.17282543 0.19465022 -0.07875629 0.10812501 0.062021647 0.03481847
0.032347128 0.039517168 -0.117488705 -0.0048488122 -0.010532349 -0.14237083 0.04147426 0.29314288
-0.021140315 -0.11840407 -0.4920111 -0.21503936 0.14584626 -0.058817875 0.0007444925 -0.20749918
-0.0061520734 -0.1876042 0.43869686 -0.17550132 -0.101284534 -0.13528125 -0.0592945 0.07390665
-0.28996372 -0.07932801 0.050121356 -0.3477927 -0.008189613 0.031242784 0.1687609 0.2997767
0.10913983 -0.15702496 0.096589714 -0.014062051 -0.24276285 -0.017115077 0.060550675 -0.09895147
-0.090368226 0.037200645 0.049860246 -0.19965954 0.027860006 -0.0035041405 -0.23251393 0.28623033
0.08972205 -0.03601166 -0.22631738 -0.28918234 -0.052080173 -0.19617157 0.34199452 -0.11162166
-0.18402378 0.084288254 0.03292141 -0.0363611 -1.0709204e-05 -0.13725916 0.1742111 0.15238044
-0.2782132 -0.16636835 0.28027818 -0.03081214 -0.06689451 -0.018426122 -0.1442816 -0.053002518
0.28653714 -0.07454018 0.01923145 -0.19634321 -0.046845693 -0.071575366 0.29670626 0.21468478
-0.04201057 0.22435041 -0.23698935 0.2308416 0.06151761 -0.023078516 -0.16976546 -0.11952931
0.19392852 0.09076422 -0.013455686 -0.08341812 0.034810565 0.0837561 -0.22366129 -0.002131308
0.08346929 -0.012312218 0.047249015 -0.26230165 -0.11207714 -0.0700336 0.3111683 -0.028128518
-0.03373648 0.16376069 -0.039890137 -0.0166378 -0.15251268 0.07600331 0.174757 -0.15903835
0.18770267 -0.18868653 -0.004768929 -0.0692432 0.03879112 -0.2848186 -0.20188294 0.072799705
-0.17367353 0.12529702 -0.07931016 -0.076892965 -0.09326527 -0.28835687 -0.110425174 0.03599636
0.25164136 -0.011166667 0.17966764 0.074332386 0.011385302 0.020497669 -0.18904643 -0.00792967
-0.03357225 0.038506176 -0.10352191 -0.14813697 0.14049028 0.104742974 -0.20243892 -0.2211361
-0.054656476 -0.052868314 0.14091973 -0.037585188 -0.084688105 -0.015058661 -0.12118041 0.1378368
-0.048639815 -0.019611007 -0.031947814 -0.055025794 0.051555596 -0.107057214 0.32117778 -0.042422496
0.12163128 -0.04472198 -0.11678546 0.02173965 0.046624053 -0.119859055 0.022570372 0.07485175
0.026148157 -0.012566759 -0.24529117 -0.062514365 -0.07284815 0.31060714 -0.3066473 0.11932231
-0.2783362 0.1005136 -0.1248882 -0.01776738 -0.17928478 0.28049302 0.053287014 0.009816806
-0.078202106 0.13098034 0.0061802347 0.009018581 0.10912324 -0.09946619 -0.017884588 0.0135935405
-0.119288564 -0.24565639 0.18149248 0.11252915 -0.0561837 0.0710766 -0.028508635 -0.31350696
0.09611549 -0.09083487 0.14782926 -0.055177085 0.3684698 -0.057396237 -0.029079406 -0.17105193
0.042132523 -0.05814728 -0.17953613 0.054183435 -0.11494405 0.11053532 -0.14907406 0.048209753
-0.22868735 -0.1885624 0.06554035 -0.13684487 0.1098297 0.10069402 -0.064634934 -0.24944462
0.41315857 -0.11962124 0.0952114 -0.2581468 0.10787834 -0.04496562 0.18185523 -0.15820467
-0.23577426 0.18339437 -0.081071466 0.18674052 0.0521018 0.013123473 -0.05881509 -0.0064451243

bias_ih_l0 f4 [512]
00000000: 6cf3 263e 1bef d33d 972c 483e 2fc2 f33d
00000010: a7eb b53d 7f4f 083e 0e6e 9c3c 65f7 0e3e
00000020: a6db 083d 2c3c 4b3e babf fe3d 1e6f f8bb
00000030: 14c1 2c3e 20b5 a63d 9136 ee3d cf17 1b3d
00000040: d319 133e 25bc 35bb 11ca a73d 0219 ce3a
00000050: 07ea 1bbc 4e5b ef3c 4d5b bcbb 1832 de3d
00000060: 442a c53d f363 bb3b 240c 65bc e97a af3d
00000070: 206d 2e3d 416e 6a3d 5cfc fc3d cf40 003e
00000080: 832f 253d 552d ec3d a3d0 df3d 2577 443d
00000090: 06f2 423e 8759 923c 9045 773d 622e f63c
000000a0: 2082 043e 85b4 753d 0361 ab3d 962d 303e
000000b0: 0e8e 9f3d edf2 db3d b17d d13c 9ace 6d3d
000000c0: 40fc cd3c 06fd 153e a42d 3d3e 4b85 5a3d
000000d0: d547 f23d 518b a33d e9cf b83b 2303 793d
000000e0: c20c 023e f4f4 ba3d 0088 2f3e e8f6 623d
000000f0: c04d 393e 6db0 e23d 2ac7 a13c 2653 353d
00000100: 2179 1d3d 133e ae3d 145e 873c e381 623e
00000110: 32b5 c43d 8a29 153e 6fa5 743d 1b64 093e
00000120: 21a0 393e 9400 5cbd f1c6 173d 146d 3a3d
00000130: 2829 193d 5713 993d 3225 383e 99b8 d13d
00000140: 5e87 ca3d 09aa 253d 4ba1 323e e617 a23d
00000150: f43a 833c 9126 673e 1e45 203e e737 103c
00000160: 3084 403d 11df 183e a86a 5a3e 4846 093e
00000170: 1979 ed3d 069f 443e 6459 1c3e fea5 a13c
00000180: 2ac4 563d c92f b43d d03e 073e 3357 d33d
00000190: fd06 063e 6f33 873d 47fe df3d d169 5d3d
000001a0: ebd9 093e 75d1 b53d 9520 183e 98f9 583e
000001b0: f057 dc3c 30e5 8f3d ab01 643e 9153 d53d
000001c0: 190d b23c 5d52 b53d 9051 373c 29bb 423d
000001d0: 927b a73c 2724 1b3e 98ce 393e 9a2d 3b3d
000001e0: 05df e83d a8a0 733e 02be d83d e317 8bbd
000001f0: f4fc 1d3e d4da 1e3e 5d82 8ebc 0bd2 b33d
00000200: ee08 0bbd c2ae 92bd c553 d9bc 7f43 86bd
00000210: 2dc6 4dbb 014d 2cbd 9107 28bd 5592 afbc
00000220: c02c 663d 0bd2 a93d b0ae 35bb 9137 3c3d
00000230: aeaf a03c 9bf5 d63d 17de 41bd 5476 5d3c
00000240: 23c5 eebd 8d58 a4bd 9112 c8bd 2b95 e2bd
00000250: 9ea6 603d 9127 0b3e bbb9 b9bc 7146 ddbd
00000260: 8742 4bbd f634 bb3c 0381 c33d 427b a3bd
00000270: 9c59 973d d9fe 0b3e 1ff8 28bd 0936 be3d
00000280: 706a 893d 7d67 9c3d 1aab 92bd 6a73 1f3d
00000290: 4e09 c43b e00f 043d 07b5 a5bd fd19 6bbd
000002a0: be88 133d a7f2 8a3c 6698 2f3d 8e0b 5ebd
000002b0: 0efb 19bd e528 8ebc 5d41 dabd 7fa7 513c
000002c0: 9923 06be 2f1a d5bd 5a95 ea3c 3c79 2c3e
000002d0: af1e a83d 1e75 e8bc 963e b23d 2af7 05be
000002e0: 5da3 e2bd 562d 253c 1dcb b9bc deaa 9b3d
000002f0: 9ddb 113d 3700 4c3d a60c 8c3b 87f8 b33d
00000300: fb46 59bd 571c adbc 16ee db3d 91f3 7f3d
00000310: f24d 9f3d 2a25 583d 4911 54bd 081d 21be
00000320: 2942 30bd 7362 89bc dd3f 653d 9905 87bd
00000330: 9752 56bd c081 a7bd ac2f 28bc 6f21 403d
00000340: a235 c5bd 339e febd 020c efbd 1972 fdbd
00000350: 8414 083e 4a57 38bd 392d 13bd f662 40bd
00000360: 9991 003e 849f 253d 2ce9 503d 293d 9cbb
00000370: 015b a8bd 6a91 9fbd 86ec 9d3d 5029 113b
00000380: 9898 eb3d b31a 9abd f1d0 edbc 2bc3 9f3b
00000390: a668 09bd 0311 103e 9a3a 163d 4b7f 47be
000003a0: 144f 01be 0e90 933d 42e5 773d 6ca2 d8bc
000003b0: 5bf0 e5bb 5baf a63d 612e 01bd 5788 4d3d
000003c0: 7e58 b23d 4cf2 bd3d 7bcc 813d bc9a b13c
000003d0: 76c1 f33c af5d 5e3d 74a8 b03d 3e85 0e3d
000003e0: 7f87 72bd f1cf 893d 3fb3 6839 e1fe 273d
000003f0: 036a 69bd c35a 353d f6fc d13c 3983 2bbc
0.16303796 0.1034834 0.1954826 0.11902272 0.08882838 0.13311575 0.019095447 0.13961561
0.033412598 0.19847172 0.12438913 -0.0075816056 0.16870528 0.081400156 0.116315015 0.037864503
0.1436532 -0.002773055 0.08192838 0.0015724006 -0.009516246 0.029218342 -0.0057481886 0.108493984
0.09627202 0.005718702 -0.013979945 0.08568365 0.04258454 0.057234053 0.12352821 0.12524723
0.040328514 0.11532084 0.10928466 0.047965188 0.19037637 0.017864956 0.060369074 0.030051414
0.12940264 0.05998661 0.08368113 0.1720489 0.07790767 0.10739694 0.02557263 0.05805836
0.025144696 0.14647302 0.18474442 0.053349774 0.11830107 0.07985557 0.005640019 0.060794007
0.12700179 0.09128752 0.17141724 0.05541125 0.18096066 0.11068807 0.01974829 0.04426875
0.038445596 0.085079335 0.016524352 0.2211986 0.09604873 0.14566627 0.059728082 0.13417093
0.1812749 -0.05371149 0.03705496 0.04551418 0.037392765 0.07474392 0.17982939 0.10240287
0.098891005 0.04044536 0.17444341 0.079147145 0.016019322 0.22573306 0.15651366 0.008802391
0.047001064 0.14928843 0.21329749 0.13405716 0.11595363 0.19201288 0.15268475 0.019732472
0.05243317 0.08798177 0.13207555 0.10319366 0.13088603 0.06601607 0.109371714 0.054055993
0.13462035 0.088778414 0.14856179 0.21188962 0.0268974 0.07026136 0.22266261 0.1041633
0.021734761 0.088536 0.01118888 0.04754177 0.020444665 0.1515051 0.18145216 0.045697786
0.113706626 0.23791754 0.10583116 -0.067916654 0.15428525 0.15513164 -0.017396146 0.08780297
-0.033944063 -0.07162239 -0.026529202 -0.065558426 -0.003139864 -0.042065624 -0.04102284 -0.021432081
0.05619502 0.08292016 -0.002772253 0.04595143 0.01961502 0.10496064 -0.047330942 0.013516981
-0.116586946 -0.08024702 -0.09769166 -0.11063608 0.0548464 0.13589312 -0.022671571 -0.10804451
-0.049623992 0.022852402 0.095460914 -0.07982494 0.073901385 0.13671435 -0.04125225 0.0928765
0.067097545 0.07636926 -0.07161541 0.038928427 0.0059825545 0.032241702 -0.08091169 -0.05739783
0.03601908 0.016961409 0.042869948 -0.05421024 -0.03759294 -0.017353484 -0.10656998 0.012796282
-0.13099517 -0.10405385 0.02863567 0.16843122 0.082089774 -0.028376158 0.087033436 -0.13082567
-0.11066315 0.01008161 -0.02267986 0.0760095 0.03560983 0.049804892 0.0042739687 0.08787637
-0.053046208 -0.021131678 0.10738771 0.062488142 0.07778539 0.052769817 -0.051774297 -0.15733731
-0.043031845 -0.016770577 0.055969108 -0.065928645 -0.052324858 -0.08179045 -0.010265272 0.046906885
-0.0962937 -0.12432518 -0.11672212 -0.12375278 0.13289076 -0.04500512 -0.0359318 -0.046969377
0.12555541 0.04043533 0.05100362 -0.004768033 -0.082204826 -0.077914074 0.07711129 0.0022149868
0.11503714 -0.07524624 -0.029030295 0.0048755608 -0.033547066 0.1406899 0.03667698 -0.19482152
-0.12627822 0.072052106 0.06052137 -0.026444636 -0.007017178 0.08138915 -0.03153837 0.050178852
0.08708285 0.0927473 0.0633783 0.021680228 0.029755335 0.054288562 0.0862588 0.03479504
-0.05921125 0.06729115 0.00022192019 0.041014556 -0.056985866 0.04427601 0.025633316 -0.010468298

bias_hh_l0 f4 [512]
00000000: 6313 4c3d ca0f 863d f8a4 1b3e 5092 6a3e
00000010: a1f8 a43d 6092 9a3d db04 1e3d 64b1 173e
00000020: 1d0a 933d 8545 193e 9bdf 1d3e eaae 7f3d
00000030: 4de8 2a3e 7547 5c3e eb5a 4c3e 5d37 063c
00000040: 7bce f1bb 2d77 f83c dbb2 2f3e 8df3 3b3c
00000050: 7330 803b 8209 663d 08a3 903d 97b1 c23d
00000060: 5116 593e 30ec a73d d85e f1bb 6765 a8bd
00000070: 34b6 df3c 03df 8a3d 174d 1d3e b1bb 37bd
00000080: 79b3 7e3d c6fa 2c3d 1588 813d ddcc ea3d
00000090: aa78 ea3d 8908 de3d 58bd 963d 19bf 6a3d
000000a0: 7bb0 1739 8260 1d3e 7bb9 213e 9de1 fa3d
000000b0: 164d b23d 1025 8c3d 45c2 a33c 3897 aa3d
000000c0: 4703 1b3e 2b80 1c3e 3d95 7a3d 7ce4 603d
000000d0: f81d f23d 5516 b63d 5138 193e 2e7e 7e3b
000000e0: c9a1 f73d 3e2a 943d 4a19 a53d 4cae cf3d
000000f0: c517 043e 6dc0 1e3d a848 cd3d e147 4d3d
00000100: a6a0 743d f188 d83c 8aba 173d a7fa 523e
00000110: 6a23 113e 2b1c fe3d e4de 873d 3200 073e
00000120: fd15 0c3d 2d65 3a3d 9470 083d 9f5a 483d
00000130: e9a6 17bb b2f2 0b3e a643 273e 9087 9b3d
00000140: df50 453e bf27 f33d e3e4 343e b93a ed3c
00000150: 73da 863b 0499 073e 3a8d 423e f768 9f3c
00000160: 32ea 843d 888e e13d ed7a b53d 511f 333e
00000170: 6610 e13d 356c d03d 8693 5a3e ed1b a03d
00000180: 90de 3c3e 0837 603e 7a85 5f3d 131e 413e
00000190: 48bf 5b3e ba7c 86bc 8506 bb3d 4e15 503e
000001a0: e90d be3d 3508 3e3d 8456 043e 5912 973d
000001b0: 24c1 1e3e b44f 12ba 640b af3d 4b68 a93d
000001c0: 5a64 e23d df12 3c3d f229 a0bd f1fe 823c
000001d0: 7738 793d 83d3 263d 3649 143e cdc2 3d3d
000001e0: 899d 993d 037f f63d 1d3b 043e ed50 733d
000001f0: 051c 2a3e f4d2 f33d a9d0 153e 82ca 843d
00000200: 4c88 8c3c 282d 79bd d1a6 11bc c3a4 16be
00000210: b69f d83c bb94 bd3c dee9 923d 8bf7 df3c
00000220: 70d2 d93c d041 833d d3d6 3ebb 5fd4 013e
00000230: e1e7 bf3c 2edb 02bd 9648 063d 037f d13d
00000240: 649f b6bd f0bc 34bd daca 63bd f4da 09be
00000250: 45fa a13d c26c ca3b e070 823c c6aa 6c3c
00000260: 4bdf 9abd ac4c b13d 8e99 103c 9d37 58bd
00000270: 5b76 023e 5b67 1d3e eef9 07be bb16 083e
00000280: 7c9e 783d 1a47 82bc 62c9 a43d 8e96 52ba
00000290: 6e06 c23d 0107 d1bd ff97 5cbd 48ae 0bbe
000002a0: be8e 623d 86a6 e6bc bc59 143e 6e02 d43c
000002b0: be27 a8bd 4e26 0cbe 3563 c4bd 3020 ef3c
000002c0: c87b 7ebd 7a62 7a3c 1329 e33d a375 043d
000002d0: f77f dd3d 4e4b bebc e943 1b3e 670b 42be
000002e0: f57b 5cbd ef1d abbc cfc3 d83a 5266 1f3d
000002f0: 3c59 723d bb12 0b3d b28e 05be 0b7a babc
00000300: 80d2 b43c 0aca 4bbd 5810 00bc 2d31 42bd
00000310: 6fcd 0d3c af34 433d 7405 a7bb e742 b2bd
00000320: 1375 35bb a5b7 b3bc 1583 37bd 234e e8bd
00000330: aaf1 343c 0a4a aa3c d8c1 e83d 48ca 8cbb
00000340: 55d9 173d ed15 24be d761 0ebd 4de0 66bd
00000350: ddd5 a53c 6898 31be 4926 92bd d631 09bd
00000360: b46a 05bd 5234 c33d d066 b9bc 8b65 023e
00000370: 6d32 0cbe e644 f2bd 9cd0 933d c2a4 d63d
00000380: f4c6 f93d 5d74 23bd 6858 653c b0d8 563d
00000390: f775 863b 28d7 c1bc 15af 713c 0c80 afbd
000003a0: 460f 71bd 60c4 20bd 42a4 40bc 058e 71bc
000003b0: 917f 1abd 4afb 02bd 3a24 8fbd 4850 763d
000003c0: 5c72 64bb baa8 a73c 9edb bb3b 7b71 1ebd
000003d0: 0f60 13bd 8db0 8f3c f587 b8bc 7b8c 293d
000003e0: cc87 e8bc 3ff6 b8bc 8228 f13d 5990 3a3d
000003f0: 4cf3 5bbd 3b22 933d 9c94 c23d 2495 78bd
0.049823176 0.0654598 0.1519965 0.22907376 0.08055235 0.0754745 0.03857885 0.14813763
0.07179663 0.14967926 0.1541733 0.06242267 0.16690178 0.21511634 0.19956557 0.008191911
-0.0073793507 0.030330265 0.17158072 0.011471641 0.0039120256 0.05616141 0.07062346 0.09506529
0.2119992 0.08199346 -0.0073660426 -0.08222466 0.02730856 0.06780817 0.15361439 -0.04485673
0.062182877 0.042231344 0.06324784 0.11464856 0.11448796 0.10841472 0.07360333 0.05731115
0.00014466226 0.15368846 0.15793411 0.122500636 0.08706109 0.068430066 0.019990096 0.08329624
0.15137969 0.15283267 0.06117748 0.0549054 0.11822122 0.08890978 0.14962889 0.0038832533
0.12091405 0.072346196 0.08061464 0.10140666 0.12899692 0.03875773 0.10023624 0.050117377
0.05972352 0.026432486 0.037043132 0.20603429 0.14173666 0.12407716 0.0663431 0.13183668
0.034200657 0.045506645 0.033310488 0.048914548 -0.0023140258 0.136668 0.163344 0.07594216
0.19269131 0.11872815 0.17665438 0.028958665 0.0041153966 0.13241965 0.18999186 0.01945923
0.06489982 0.11013514 0.08861337 0.17492415 0.10989456 0.10176889 0.21345338 0.078178264
0.18444276 0.21895993 0.054570653 0.18859129 0.21459687 -0.016416896 0.09132103 0.20320627
0.09279997 0.046394546 0.12923628 0.073765464 0.15503365 -0.00055813347 0.085470945 0.082718454
0.11054297 0.045916434 -0.078205004 0.015990706 0.060844865 0.040729057 0.14481053 0.046328355
0.075007506 0.12035944 0.12913175 0.05940335 0.16612251 0.119054705 0.14630379 0.06483938
0.017154835 -0.06083408 -0.00888987 -0.14711289 0.026443344 0.02314221 0.07173513 0.027339717
0.026589602 0.06409037 -0.0029119744 0.1267867 0.023425998 -0.031947307 0.032784067 0.10229304
-0.0891712 -0.044125497 -0.055613376 -0.1346243 0.07909063 0.0061775157 0.015922964 0.014445012
-0.07562121 0.08657202 0.008825673 -0.052787412 0.12740462 0.15371458 -0.13278934 0.13289921
0.060698017 -0.015903044 0.08046223 -0.00080332987 0.094738826 -0.10206414 -0.053855892 -0.13640702
0.05531191 -0.028155576 0.14487356 0.025880065 -0.08210705 -0.13686487 -0.09589235 0.029190153
-0.062129766 0.015282268 0.11091819 0.03233875 0.10815423 -0.023229267 0.15162624 -0.18949662
-0.053829152 -0.020888297 0.0016537848 0.03891594 0.05916713 0.03395341 -0.13042715 -0.022763273
0.02207303 -0.049753226 -0.007816397 -0.04741018 0.008654936 0.047657665 -0.0050970856 -0.08704167
-0.002768819 -0.021938154 -0.044802744 -0.113430284 0.011043945 0.020787258 0.11365098 -0.0042965747
0.0370725 -0.16023989 -0.034761276 -0.056366254 0.02024358 -0.17343295 -0.071362086 -0.033494793
-0.032572463 0.09531464 -0.022632033 0.12734048 -0.13691111 -0.118295476 0.072175235 0.10480644
0.121961504 -0.039905895 0.0139981285 0.052452743 0.004103418 -0.023662165 0.014751215 -0.08569345
-0.058852457 -0.039249778 -0.011757912 -0.014743333 -0.037719313 -0.03197793 -0.069893315 0.060135156
-0.0034858203 0.020466197 0.0057329675 -0.038682442 -0.03598028 0.01754024 -0.022525767 0.04139374
-0.028385065 -0.022578357 0.117753044 0.045547817 -0.053698823 0.07184263 0.09501001 -0.060689107

weight f4 [29, 128]
00000000: 681e 073e 0953 6ebe cebc 57be 6897 43be
00000010: c39f 153c 7511 01bc e716 8eba e697 d33d
00000020: 454c f9bd 21d1 d93d c7e3 3bbd eae1 0339
00000030: bca5 e3bd 649f f7bd df48 1c3e 78f7 133d
00000040: a745 e83d 2d88 80bc a3da 2b3e ae4f ac3d
00000050: 1a7b bcbd d817 babd aa29 2fbe 7f7c ed3d
00000060: 72d3 493e 5721 72bd 4652 9fbd 5587 4c3e
00000070: eb34 733d 0c0c c2bd d32e 1d3e a0dd d6bd
00000080: f416 ec3d 0ec5 0dbe 66d7 0c3e f018 0bbe
00000090: 17d3 8bbd f296 f6bd 00b8 f13d 03df 6fbe
000000a0: 2600 c9bd fee7 be3c 43a9 d63d 2327 84bd
000000b0: b0e1 94bd de1b 0e3e d6ea d83d fbce 973d
000000c0: 4bce 033e 7b9a 1b3d d8c7 cb39 c04c ba3d
000000d0: 375c 87bd b9c3 d3bd 7eab b03d e921 0dbe
000000e0: a8de 933d be89 ac3d 2f51 e5bd 74b2 36be
000000f0: ffbd 2d3d 72d5 ae3b 66e2 20be 68da 093e
00000100: ce3c 983b 8211 043e 2ef5 d6bd b6be 06bd
00000110: 74dc d0bd c9a9 2b3e fc56 29bc a984 243e
00000120: c7a8 8dbd 9bd0 9cbc cc1b 3e3c a948 f83d
00000130: 111f 6b3e 2ea8 423e 2941 e23d 77b0 4d3d
00000140: 8b8e 4ebe 97f4 0dbe b208 d7bd 384a 8b3b
00000150: 2719 fcbd 2ae7 0cbe 8c97 f2bd f784 2d3e
00000160: 7f5d 983d 0913 febd 8734 433d e084 04be
00000170: 757d 40bc 1867 4c3e b037 353e 0edf e2bc
00000180: 1114 153e 1c6d 21be 2bf9 e9bd fd52 eb3d
00000190: 35a2 4e3e 87e6 a33d 806c cdbd 4501 153e
000001a0: 60ce 39be d002 3b3d 1772 7ebe d6da 37be
000001b0: 2527 ae3d 47da d53d 4fd1 d5bd a9d8 ed3d
000001c0: d8aa 083e a62b 16be 747b 12be 0269 fe3c
000001d0: ee9b 073d 8665 8b3e bab8 c33d ca4c 5bbd
000001e0: e012 0cbd e711 fd3d 2a9c aebd 9156 f6bd
000001f0: 0998 f03d 51b8 073e a76a f2bd e92a 5a3e
00000200: 8b27 ba3d f124 d13d b61d 6f3e 2be9 6f3d
00000210: 1830 2fbd 9066 55bc ab30 353d 86f0 003c
00000220: f5c8 2dbc 79f6 813d 3e4a 9e3e 63d1 b93c
00000230: f2aa fbbd 09a0 b3bd 8dd9 223d 7a3d ccbd
00000240: 848d b33d 7735 c1bd 77d7 b13d 3689 21be
00000250: c8c5 4e3e 9f4f d63d 521b fd3c 008d b3be
00000260: 3e11 8fbd c6cc c63d d732 8b3e c9c2 d83c
00000270: 59cd 0abd 5dea 673e b26a f1bd 2004 683d
00000280: 4fc4 d6bd 70a7 17bd 2d36 3c3e b0ce 053e
00000290: db26 faba 731f 773e fad7 66bb 574d 7e3e
000002a0: c36f 7bba 635e 8c3c f84f 843c bbdf 303e
000002b0: 9481 dcbc 76fb 363e 1eb2 753c 1405 603d
000002c0: 5d4c 113d e461 283e f464 db3d 8a30 54bd
000002d0: aec7 6c3c c4bf 20bd 8878 1fbd 836f dbbc
000002e0: c3fe f4bd c557 b8bd 3510 56bc e552 0f3d
000002f0: e2e3 60be c8e3 a3ba ce12 2abe 980d b4bd
00000300: 7753 1ebc 315e b7bd bad4 21be 3dde d43d
00000310: cfc7 7a3d c738 e43d 966c 893e cc8e 29be
00000320: 652f 8cbd 267b f33d d7d0 cfbd e0d4 313d
00000330: d4bc 8cbd bf0f 6ebd 867d 8d3d 9c7e 9fbe
00000340: dc7f 333d c9e6 103e 440c e2bd 0a5c 8e3d
00000350: 0d7c 8fbd 5d3c 693e 6860 f2ba 6c9f f8bd
00000360: 53a8 9e3c c8b7 923e 9a48 673d f0d2 86bd
00000370: 8cb0 f33d 2717 84be 4805 833c ec1b 6b3d
00000380: 3163 a93d e0ee 593d 9de2 de3e 6f97 c83d
00000390: 73b8 233e 532c 7abd e834 a0bd 489c bebd
000003a0: d818 8c3e 1d2c 443d 20b1 f93c 53cc 30be
000003b0: 002d 3bbe 8c86 a83c 06a1 6bbd 5790 cabd
000003c0: 03f9 6a3c 48db 343e 42f1 863d d5e9 f2bc
000003d0: f2f7 453e b34e e33c 980b ac3d 492b 453d
000003e0: f528 e8bd 2464 5fbd 1d0b 90bc 038c 2e3e
000003f0: f912 b43d d6f4 803d 07ea ba3d 2c9c 32be
0.13195193 -0.23273863 -0.21068117 -0.19100726 0.009132328 -0.007877697 -0.0010840566 0.10331707
-0.121727504 0.10635591 -0.045871522 0.00012577293 -0.11115596 -0.12090948 0.15262173 0.036124676
0.1134141 -0.015689934 0.16782622 0.08413635 -0.09203167 -0.09086579 -0.17105737 0.11596011
0.19709566 -0.059113827 -0.07779364 0.199735 0.05937664 -0.09474954 0.15349893 -0.1049149
0.115278155 -0.13844702 0.13754043 -0.13583732 -0.068273716 -0.12040509 0.11802673 -0.23424916
-0.098144814 0.023303982 0.10481503 -0.06452777 -0.07269609 0.13877818 0.105916664 0.07412525
0.12871663 0.03798912 0.00038868072 0.0909667 -0.066093855 -0.103400655 0.086264595 -0.13782467
0.07220203 0.0842471 -0.11197125 -0.17841512 0.042417523 0.0053355033 -0.15711364 0.13462222
0.0046459204 0.12897304 -0.10495983 -0.03289672 -0.10198298 0.16763987 -0.01033568 0.16066231
-0.06916957 -0.01914244 0.011603307 0.12123234 0.2296107 0.19009468 0.110475846 0.050217118
-0.20171563 -0.13862835 -0.104997054 0.004250791 -0.12309485 -0.13760057 -0.118453115 0.16945253
0.07439708 -0.124059744 0.047657516 -0.12941313 -0.011748661 0.19961202 0.17697024 -0.027694251
0.14558436 -0.15764278 -0.11424478 0.11490438 0.20179065 0.08002954 -0.1003046 0.14551266
-0.18145132 0.04565698 -0.2484821 -0.17954573 0.0850356 0.10442024 -0.10440313 0.1161359
0.13346422 -0.14665088 -0.14304906 0.031055931 0.03310769 0.27225894 0.09556718 -0.05354003
-0.034197688 0.1235693 -0.0852588 -0.1202823 0.117477484 0.13253905 -0.118367486 0.21305431
0.090895735 0.10212124 0.23351178 0.058571976 -0.042770475 -0.013024941 0.044235867 0.007869845
-0.010606994 0.06345839 0.30916017 0.022682851 -0.122884646 -0.08770759 0.039758254 -0.09972663
0.08767226 -0.09434026 0.08683675 -0.15774998 0.20192635 0.10464405 0.030896816 -0.35068512
-0.069857106 0.09707026 0.27187225 0.026460068 -0.03388724 0.22647996 -0.11787929 0.05664456
-0.10486662 -0.037024915 0.18380041 0.13067126 -0.0019085066 0.2413309 -0.0035223947 0.2483419
-0.0009591544 0.01713485 0.016151413 0.17272846 -0.026917256 0.17869362 0.01499608 0.054692343
0.035473216 0.16443592 0.10712615 -0.051804103 0.014451904 -0.039245382 -0.038933307 -0.026786571
-0.119626544 -0.09001116 -0.0130653875 0.034991164 -0.2196193 -0.0012503797 -0.16608736 -0.08791655
-0.009663454 -0.089535125 -0.15803805 0.10393951 0.06122571 0.11143642 0.26840657 -0.16558379
-0.06844977 0.11888723 -0.10147255 0.043415904 -0.068719536 -0.058120485 0.06908707 -0.31151283
0.043823108 0.14150538 -0.11037496 0.06951149 -0.07006083 0.22776933 -0.0018491866 -0.12139782
0.019367373 0.2865584 0.056465723 -0.06583202 0.11898908 -0.25798914 0.01599373 0.057399675
0.082708724 0.053206325 0.43532267 0.09794509 0.1598833 -0.061077427 -0.07822591 -0.09307152
0.27362704 0.047893632 0.030479968 -0.17265444 -0.18278885 0.02057197 -0.05752661 -0.09890812
0.014341596 0.17661774 0.06588985 -0.029652515 0.19332865 0.027747488 0.08400649 0.048136983
-0.11335937 -0.05453886 -0.017583424 0.17045598 0.08792681 0.06296699 0.091266684 -0.17442387

bias f4 [29]
00000000: b285 6a3e cf1a 89bd 687e bdbc f838 03bd
00000010: be35 163e e6a2 00be f366 cbbc 6f7d 9abd
00000020: 74d9 223d 40a4 0dbe 5ec3 13be c93a f13d
00000030: ad1e 56bd 3faf c93d e57d b33c 543e 263d
00000040: 0668 ddbd bf0a 143e 8503 d33d d902 eb3d
00000050: bb09 dbbc c25d 2ebe 2412 a6bd 4c62 25be
00000060: 0ea3 0cbe d3e4 c8bd b2de 0cbe 6f40 79bd
00000070: 6f21 5dbe
0.22902563 -0.066945665 -0.023131564 -0.03203675 0.14668939 -0.12562141 -0.024829363 -0.07543456
0.03975816 -0.13832188 -0.14429995 0.117787905 -0.05227535 0.09847879 0.021910617 0.040586784
-0.108108565 0.14457224 0.10303406 0.114751525 -0.026738038 -0.17027953 -0.08108929 -0.16150779
-0.13734075 -0.0980927 -0.13756827 -0.060852464 -0.21594785
