models/LSTM/128/ESEU_60-40/ESEU_60-40_0_threshold_train_32.pt (torch, 353743 bytes, 7 tensors)

weight f4 [29, 32]
000000 b0 e9 5e bf 4d 91 69 be 1b a0 ed 3f f5 cd 0a 40
       -0.8707533 -0.22809334 1.8564485 2.1688206
000010 07 7b 92 3f 34 e2 bf 3d ce ce 21 bf f2 63 48 be
       1.1443795 0.09369317 -0.63206184 -0.19569376
000020 9e fd 61 3e f2 63 86 bf ae ca 69 be e2 57 c3 3e
       0.22069404 -1.0499251 -0.22831222 0.38152987
000030 28 0d b6 bf 6b 4d c1 bf 38 e1 20 bf 1a 72 ab bf
       -1.4222765 -1.5101751 -0.62843657 -1.3394196
000040 5b e4 08 40 d2 a5 47 3f 43 e2 88 3e 0b d8 7f bf
       2.1389377 0.77987397 0.26735124 -0.9993903
000050 b1 0c a5 be 06 94 41 3f 0f 16 1c 3f 8c 6c 02 bf
       -0.32236245 0.7561649 0.6097116 -0.5094688
000060 b6 78 e2 bf 89 c8 b6 bf ae 73 5a 3f e3 43 6e 3f
       -1.7693088 -1.4279948 0.85332763 0.93072337
000070 64 47 96 be 07 f6 91 3c 42 35 c3 bf e0 eb 05 c0
       -0.29351342 0.01781751 -1.5250628 -2.0925217
000080 c3 af 0a 3f 90 a2 3c 40 74 11 6a 3f 76 e4 07 3e
       0.5417444 2.947422 0.9143288 0.13270745
000090 73 c8 82 3f d0 71 e2 3f 51 59 5c 3f fe 63 1e bf
       1.0217422 1.7690983 0.86073786 -0.61871326
0000a0 4b 88 90 3f 3d 66 61 bf 04 c2 16 3f b1 4a 1c 3f
       1.1291593 -0.8804663 0.58889794 0.6105147
0000b0 dc c3 fa 3e 3b 32 20 c0 5c 83 c1 bf 93 fb 57 3f
       0.48977554 -2.5030658 -1.5118213 0.84368247
0000c0 11 5a 18 bf 3f 44 e4 be 17 e3 8c 3d 79 ea 5b 3f
       -0.5951243 -0.44583318 0.068792515 0.8590465
0000d0 54 2b 1f 3f af 3e 5b bf a2 05 4b c0 f6 fc ea bf
       0.6217549 -0.8564252 -3.1722188 -1.8358448
0000e0 70 92 e1 bf 34 dd 81 bf 83 bb 0a c0 36 dd e4 bf
       -1.7622814 -1.0145631 -2.1676948 -1.7880008
0000f0 37 20 36 bf 5e f6 01 40 c1 3d 6e bf b8 85 52 3f
       -0.71142906 2.030662 -0.9306298 0.8223529
000100 e1 93 85 bf c0 be bf 3b be 31 84 3e 71 88 8b bc
       -1.0435754 0.0058515966 0.258192 -0.017032834
000110 9c 3a 54 bf 00 83 20 40 ce de 81 3f f8 45 00 c0
       -0.8290193 2.5079956 1.014612 -2.0042706
000120 5f 98 9c 3f 85 e2 fb be f2 4d 05 c0 25 91 08 3f
       1.2234 -0.49196258 -2.0828824 0.5334647
000130 3e 80 0a 3f 88 7f 5f bf c6 7e 20 40 5e 06 dc 3d
       0.5410193 -0.8730397 2.5077376 0.10743402
000140 4c cc 1d 3f a6 3a d3 bf 3a da 83 3f 20 31 fc bf
       0.6163986 -1.6502273 1.0300972 -1.9702492
000150 88 fb eb be 33 fa 81 3e 15 e2 91 3e 20 e6 3f 3f
       -0.4609034 0.253862 0.284928 0.7496052
000160 91 54 b0 bf 0d 50 93 3f 71 ed a9 bf 75 0e 0c 3f
       -1.3775808 1.1508805 -1.3275586 0.5470956
000170 3b e8 fb 3e ff bf 36 be 4f 0f a4 3e 07 ee 10 3f
       0.49200615 -0.17846678 0.3204293 0.566132
000180 f9 86 d4 3e 48 23 b7 bf 72 5d 64 3f 7d b6 19 c0
       0.41509226 -1.4307642 0.89205086 -2.4017632
000190 99 ae 43 be 55 4b d6 bd e6 bd 94 bf 4a 68 cb 3e
       -0.19109572 -0.10463587 -1.1620452 0.39728004
0001a0 70 ff 85 bf 6f 81 49 3f ec 6a 39 3e f7 00 80 be
       -1.0468578 0.78713125 0.18107194 -0.25000736
0001b0 92 44 b2 3f 83 44 a5 3f 70 11 90 3f 01 89 9d bf
       1.3927176 1.2911533 1.1255322 -1.2307435
0001c0 6a 7a 94 bf b3 00 63 bf ef d6 95 3e 6c 49 c7 3f
       -1.1599858 -0.8867294 0.29265544 1.5569282
0001d0 f0 bc 47 bf 7b a8 18 bf 37 0c 67 3f 17 8d d8 3e
       -0.7802267 -0.5963208 0.90253013 0.42295143
0001e0 f6 db 2b c0 a8 86 26 3f b3 9f 96 be 7a ef eb 3e
       -2.6853004 0.6504922 -0.29418716 0.46081144
0001f0 c7 24 3b 40 a9 10 7e be 53 80 1d 3e 7d 21 0d 3f
       2.9241197 -0.24811043 0.15380983 0.55129224
000200 87 58 82 3f 3e db 32 3f 04 97 98 bf db 62 c3 3f
       1.0183266 0.6986579 -1.1921086 1.5264543
000210 83 0a cf 3e fe f0 1c 3f 4f 31 5d bf 39 8d 17 bf
       0.40437707 0.61305225 -0.86403364 -0.59199864
000220 f0 1d 2c bf 5d 9b 83 bf f2 6d b7 3f 4e e7 77 3f
       -0.6723318 -1.0281788 1.4330428 0.9683732
000230 c6 51 8e bf 22 8b 03 c0 10 8c 18 bf 71 27 02 3f
       -1.1118705 -2.055367 -0.5958872 0.5084143
000240 ab dc aa bf 03 f3 a4 3f 54 ab 21 3f 64 ce 1a 40
       -1.3348593 1.2886661 0.6315205 2.418847
000250 03 02 82 3f 8d 2e 36 bf 79 ea 91 bf df 7d a4 be
       1.0156864 -0.7116478 -1.139968 -0.32127282
000260 e8 d5 07 c0 22 d0 ea 3e c5 5d 29 3f 7f 27 81 3e
       -2.1224308 0.45861918 0.66158706 0.25225446
000270 3e e3 a2 3f b0 71 82 3f 9d b8 cf 3f 0a 79 a4 3f
       1.2725599 1.0190945 1.6228215 1.2849438
000280 c2 95 08 3e 54 86 92 be ea 0e 27 be 38 07 29 3e
       0.13338378 -0.2861811 -0.16314283 0.1650666
000290 3b e0 59 bf b7 f5 b5 3e 16 22 b6 3e 04 ed f2 3e
       -0.85107774 0.35539028 0.3557288 0.47446454
0002a0 0e db f5 3e d0 2a fc be 62 63 0b 40 2f 6e 8b bf
       0.48018688 -0.49251413 2.1779408 -1.0893
0002b0 30 29 ca bf 84 4c ff 3f 7f 75 bd 3f 08 fd 2d 3e
       -1.579382 1.9945226 1.4801482 0.16991055
0002c0 35 f6 14 bf a1 3f 96 3f 00 6f df be 69 5e 21 3f
       -0.5818818 1.1738168 -0.43639374 0.63034683
0002d0 6c e1 cb be 9f b3 7c bd 6b 19 8a be bc f6 1a c0
       -0.3982042 -0.061694738 -0.26972517 -2.4213095
0002e0 40 a9 a2 be 0d 83 bf 3e 5b ad b1 bf 1f cf 69 bf
       -0.31769753 0.3740467 -1.3881029 -0.91331667
0002f0 26 e0 9d 3f 77 d6 ee bd b9 97 cc be 42 23 b4 3f
       1.233403 -0.11662 -0.39959505 1.407326
000300 bd 15 cb be bf 57 e4 3e 14 a5 d3 3e 55 8f 16 3f
       -0.39665022 0.44598195 0.41336882 0.5881246
000310 cd cc 11 c0 cb 3e e0 3e 3a b8 0b 40 85 6e 03 bf
       -2.278125 0.43797907 2.1831193 -0.51340514
000320 f4 05 70 bf a3 5c 55 3f 39 67 cd 3e 51 33 47 bf
       -0.93759084 0.8334448 0.40117815 -0.7781268
000330 30 58 26 3f af 49 78 3f 91 5e 46 3f 42 61 d7 3e
       0.64978313 0.9698743 0.77488047 0.4206639
000340 30 44 c9 3f e1 82 09 3e ab 8b c7 3d e1 b4 97 bf
       1.5723934 0.13428833 0.097434364 -1.1852075
000350 5a dd c1 bc 70 68 b1 bf 88 2a 06 3f b8 ee 45 3d
       -0.023665119 -1.3859997 0.5240865 0.048323363
000360 1f 36 9b bf 2e a5 88 bf 10 91 a3 be be 84 4c be
       -1.2125891 -1.0675409 -0.3194661 -0.19972512
000370 46 33 38 bf 9b f5 8f 3f 79 3d f4 bf 70 89 86 3f
       -0.7195324 1.1246828 -1.908126 1.0510693
000380 1c f4 2c 3f 5a bb 78 bf d6 37 18 be 32 97 ca bf
       0.6755998 -0.97160876 -0.1486505 -1.5827391
000390 81 40 44 bf 95 ba a5 3d 83 90 11 40 e2 32 01 3f
       -0.76660925 0.08092228 2.2744453 0.50468266
0003a0 31 62 c6 3b 69 1a 8b 3f c8 4f b0 3f e3 9e 4f bf
       0.006054186 1.0867435 1.3774347 -0.81101817
0003b0 6c 92 1a 3f 5d 76 8a 3f a8 54 92 3f 55 83 ae bd
       0.6037967 1.0817372 1.1432085 -0.08521143
0003c0 64 6f 1a 3f 6f 5a 01 40 9f 2c 18 3e 6e 39 63 bf
       0.6032622 2.0211446 0.14860772 -0.88759506
0003d0 54 8e f5 be 70 a6 38 3f f1 4c 8b 3f 88 c5 25 3f
       -0.4796015 0.72128963 1.0882856 0.64754534
0003e0 aa 55 5f 3f c6 03 ef 3f ee d3 68 be dc 7c 09 c0
       0.8724009 1.8673027 -0.22737095 -2.1482458
0003f0 e1 83 27 bd 5e c6 23 3e 97 f2 65 bf d6 fd de be
       -0.040897254 0.1599364 -0.8982329 -0.43553036

weight_ih_l0 f4 [512, 32]
000000 80 b6 84 bc 63 69 67 be 40 cb d8 bd f4 b5 11 3e
       -0.016200304 -0.22598796 -0.10585642 0.14229566
000010 ef 63 26 3e d2 08 96 bd bf ff a8 bd 73 0c 03 bd
       0.16249059 -0.07325901 -0.08251905 -0.031994294
000020 50 34 56 be f4 5b ef 3d 4c 3c 62 3c 05 e9 09 be
       -0.20918393 0.116874605 0.013808321 -0.13467796
000030 11 91 95 be f2 94 84 3d 81 ae 63 be aa ff 25 3e
       -0.2921224 0.064737216 -0.22234537 0.1621081
000040 09 37 71 be cf 68 9a 3e 42 27 2c bd 13 74 e8 3d
       -0.2355615 0.30158088 -0.042029627 0.113502644
000050 19 9f 48 3e 82 10 ff bb a5 68 ae be 3a 89 e5 bc
       0.19591941 -0.0077839503 -0.34064212 -0.028019536
000060 9c f5 5b bd 15 70 9d bd 1a fc f2 bd 37 11 56 3e
       -0.05370103 -0.076873936 -0.11864491 0.20905004
000070 54 1f 3b 3e 08 7c 8d be b7 e7 b3 3c a5 b1 d6 3d
       0.1827367 -0.2763369 0.021961076 0.10483102
000080 a4 ee c3 bd ac 2c df bd 72 a8 1e 3e cf b8 30 bc
       -0.095670015 -0.10897192 0.15493944 -0.010786249
000090 09 d7 2e bd 3d fe fd bd fc 9c 92 3d c7 a7 6f be
       -0.042685542 -0.12402008 0.07158849 -0.23403846
0000a0 8b bb 0b 3b 69 09 7b 3d e0 73 55 3c b1 7d c3 bd
       0.00213215 0.06128827 0.013028115 -0.09545458
0000b0 34 cb 0a 3e ae 66 98 3d 8e 50 af bd 23 fb ca bc
       0.13554078 0.074414596 -0.085602865 -0.024777954
0000c0 9a 72 20 3e f9 1f 9a 3d a4 bf e5 bd 72 1a 97 be
       0.15668717 0.075256296 -0.11218193 -0.29512364
0000d0 3d ab 0d 3e 22 8b 9e bd a6 67 0f be 45 ee 35 bd
       0.13834853 -0.07741381 -0.14004382 -0.044416685
0000e0 48 d9 3f be b5 39 d1 3d b2 65 99 be e2 a3 81 3b
       -0.1873523 0.10216085 -0.299604 0.003956304
0000f0 3c 02 21 be 4b ba a0 3c 77 9e b8 bd 92 75 36 3e
       -0.15723509 0.019620081 -0.090146 0.17818287
000100 8b ea 02 3e db af db be c9 e7 90 3d aa a9 e9 bd
       0.12784784 -0.42907605 0.070754595 -0.11409314
000110 6f 19 f5 bd 66 6b e5 bb 01 47 3c 3d 2b e7 76 3e
       -0.11967742 -0.0070013283 0.045966152 0.24111621
000120 ad 11 77 be 7a 33 50 3d c5 84 57 be 2b 85 5f be
       -0.24127837 0.050830342 -0.21046741 -0.21828143
000130 9f 78 e9 3c 0c 9f 0c bd 10 53 9f 3d a8 fe 6a be
       0.0284999 -0.034331366 0.07779515 -0.22948706
000140 88 bf 20 be 44 b2 a9 bd 1d 22 10 3d 16 95 c0 3d
       -0.15698063 -0.082859546 0.035188783 0.09403436
000150 6b 5d 3e 3e 07 fd 6f 3e 66 3c 6b 3e 4c 9c 60 be
       0.18590324 0.23436366 0.22972259 -0.21934623
000160 94 2a 81 3d 7d 48 70 be 0c bb 86 3e 14 f1 47 bd
       0.06306949 -0.23465152 0.2631458 -0.048813894
000170 99 7f 05 3e 3e a2 79 bd ac 72 16 3e b1 8c c8 bd
       0.13036956 -0.06094574 0.14692181 -0.0979246
000180 f6 7e 90 3d 3d 5e 5f be 01 4c 2a 3e da 7c 16 3e
       0.07055466 -0.21813293 0.16630556 0.14696065
000190 d8 dc cc 3d 1d 7e 07 be db 57 18 3e f2 18 62 3e
       0.1000306 -0.13231702 0.14877264 0.22079828
0001a0 ae d2 1d 3e 97 28 7c be f3 3e 38 be a0 f3 09 be
       0.15412399 -0.24624859 -0.17992763 -0.13471842
0001b0 57 c2 91 bd 2f a1 4c be a7 f9 96 3b 1a 9c f1 bd
       -0.071171455 -0.19983362 0.0046073976 -0.11797352
0001c0 44 0d 85 bc a0 e7 5d 3d 4a 5c ed 3d cb 87 1a be
       -0.016241677 0.054175973 0.11589868 -0.15090863
0001d0 b0 34 a8 3d 5a 72 f7 3d 1a f2 47 3d 39 a5 34 be
       0.08213174 0.12082358 0.04881487 -0.17641152
0001e0 57 85 af 3d 07 0f 18 be 86 4e 2d 3d 38 90 ca 3b
       0.085703544 -0.14849482 0.042311214 0.006181743
0001f0 b3 05 12 be ea 0c 2e be 2b 2b ce 3d 68 26 9b bd
       -0.14259987 -0.16997114 0.100668274 -0.07575685
000200 6b 2d 2f be f6 a6 a3 be a8 e7 00 3e 50 8d c7 3d
       -0.1710717 -0.3196332 0.1258837 0.0974375
000210 5b dc 62 3d eb 1c f6 bd f6 10 28 3e 8b ff 08 be
       0.05538593 -0.120172344 0.1641272 -0.13378732
000220 1d 6b 47 be 8a d5 88 3e b2 85 4d bd 53 38 77 be
       -0.19474454 0.26725417 -0.05017633 -0.2414258
000230 d8 17 4b 3d e7 61 a1 3d 07 5b 23 3e d0 89 7b bd
       0.049583286 0.078800015 0.15952693 -0.061410725
000240 cd 75 e0 bd 83 41 38 3d 05 21 56 bc 96 89 74 be
       -0.10959969 0.04498435 -0.013069396 -0.2388061
000250 e8 ea 35 3d 23 91 45 3e 54 c7 ee 3d 97 18 52 bd
       0.044413477 0.19293647 0.116591126 -0.051292982
000260 74 cf 5e 3e f3 d5 e4 3c 98 3d aa 3c 51 12 80 3e
       0.21758825 0.02793405 0.020781323 0.25013974
000270 7d ff 38 3d 55 58 4b bd a0 a6 8e bc 13 a2 7e 3d
       0.045165528 -0.049644787 -0.017413437 0.062166285
000280 4f 86 9a 3d f7 ee 1b be 2e 0b ab 3e 0c d8 3a be
       0.075451486 -0.15227877 0.33406967 -0.18246478
000290 04 fc 81 bd 23 51 9c bc 9f 96 cb 3c 80 87 0d 3d
       -0.06346896 -0.019081658 0.024852095 0.03455305
0002a0 08 61 58 3e b6 92 20 3d 92 c5 f7 bc b7 eb 00 be
       0.21130764 0.039202414 -0.030245576 -0.12589918
0002b0 09 03 11 3e c7 0e b1 bd d1 f9 35 3b da 97 9e be
       0.14161314 -0.08645397 0.002776731 -0.3097523
0002c0 9b d0 3f be a2 25 27 3e 22 ba f3 bd 7b 33 02 be
       -0.1873192 0.1632295 -0.119007364 -0.1271495
0002d0 b5 dc 77 3c 79 d9 2b 3e 9f 13 eb 3d 6d 24 6c 3d
       0.015128304 0.16782178 0.11478352 0.057651926
0002e0 6c 6b d9 bd 21 31 b2 bd 92 65 44 3d 60 e7 19 be
       -0.10616192 -0.08700777 0.047948427 -0.15029669
0002f0 37 ad b9 3b 49 67 4c 3e 41 be 47 bd 3f 0c 25 bd
       0.005666401 0.19961275 -0.048765425 -0.040294882
000300 d1 8c 2e 3e 14 b1 84 be 05 64 9e 3c 72 28 c4 bc
       0.17045905 -0.2591635 0.019334802 -0.023945067
000310 0b 52 16 be 83 3e fa 3c 74 78 8b 3e 9c cd c3 3d
       -0.14679734 0.030547386 0.27240336 0.09560701
000320 c9 ef 2a be f4 92 8d 3e e5 48 a2 bd 8f f3 dd be
       -0.16693033 0.2765118 -0.0792406 -0.43349883
000330 b3 86 09 3e d6 2f 31 3e 3a 50 3b 3e 10 4d 28 be
       0.1343029 0.17303404 0.18292323 -0.16435647
000340 a8 10 50 be 22 f6 40 3c c7 76 09 3c 2d 9a 54 be
       -0.20318854 0.011777433 0.008390135 -0.20761938
000350 fd c5 2c 3d 8b ff 9e 3d b7 8a 69 3b ec 20 f1 bd
       0.042181004 0.07763585 0.003563566 -0.117738575
000360 62 5a 6b 3e cf 64 1f be e1 7a ef bc 5a a9 a9 be
       0.22983697 -0.15565799 -0.029233398 -0.33137017
000370 6a ec 67 bd 10 6f 85 bd 68 0d a0 bc 4e 93 21 3d
       -0.056621946 -0.06515324 -0.019537643 0.03944712
000380 0a 07 0d be 4f 81 14 bd 74 4b e2 3d 77 e0 26 3e
       -0.13772216 -0.03625613 0.11049548 0.16296564
000390 91 65 c1 3c 3d dd 5a 3e c7 4a 2f 3c a7 30 49 bd
       0.023608001 0.21373458 0.010698981 -0.049118664
0003a0 f6 b2 17 be 3a 31 eb 3d f7 e9 21 3b dd 4e 86 bd
       -0.14814362 0.114839986 0.0024706104 -0.06558011
0003b0 2f fe c2 bd 62 5b 90 3b ef 54 9c 3d 38 03 0f 3e
       -0.09521138 0.004405425 0.07633387 0.13966072
0003c0 e2 3e f1 bd e0 44 14 bd 2a dd 63 3e 4c 0c 71 3d
       -0.11779572 -0.036198497 0.22252336 0.058849618
0003d0 7a ee 93 3d a6 1f a8 3d 8f 82 1e bd 8a 69 b4 bd
       0.0722322 0.082091615 -0.03869873 -0.088091925
0003e0 df 2e 8f bc 5c 40 bf bd 66 7e 48 bd af 94 8e 3c
       -0.017478405 -0.093384475 -0.048948668 0.017404882
0003f0 a8 01 94 3e 79 77 0f 3d d2 58 72 3c f8 f3 b9 ba
       0.28907514 0.035026047 0.014791684 -0.0014187088

weight_hh_l0 f4 [512, 128]
000000 fd ad e5 3e 1d 27 67 bd 5e 6e 89 be 65 54 61 be
       0.44859305 -0.056433786 -0.26842016 -0.2200485
000010 e6 5d cc bd ec c3 75 3e 96 d6 69 be 8e 46 3c 3e
       -0.09978847 0.2400052 -0.22835764 0.1838629
000020 f7 6f fe bd f1 47 df 3d 68 34 62 be 70 0a 26 3e
       -0.12423699 0.109023936 -0.22090304 0.16214919
000030 96 47 5f be 01 56 d9 3d fa 4f a7 3e 3a 76 cc 3e
       -0.21804652 0.10612107 0.32678205 0.3993395
000040 23 da 6b be 0e 8c 48 be 65 81 82 be a3 53 01 3e
       -0.23032431 -0.19584677 -0.25489345 0.12629561
000050 e8 05 ac bd 3d 10 e9 3c 62 4d c6 3d 79 e2 cc bd
       -0.08399564 0.028450126 0.09682728 -0.10004134
000060 34 e5 1b bd ea 53 8b bd 3f 61 76 3e 2d 12 97 3e
       -0.038060382 -0.06803115 0.24060534 0.29506055
000070 17 ca 4a be e9 59 94 3c 77 b3 44 3e 04 1f c1 3c
       -0.19803654 0.018109279 0.19209085 0.02357436
000080 30 4f 82 bd 06 a5 58 3e ec e7 71 be b9 38 83 3d
       -0.0636276 0.21156701 -0.23623627 0.06407303
000090 4e 0b 2d 3c a6 36 d2 3c 4a cc 2c 3e 64 d3 f7 bd
       0.010561777 0.025660824 0.16874805 -0.121008664
0000a0 f6 c4 1f be 6a 13 97 3e 3f 24 37 be d1 f5 c6 bd
       -0.15602478 0.29507 -0.1788492 -0.097148545
0000b0 55 d1 0b bf f6 1e 24 3e 8c e3 42 3e 44 b6 7b 3e
       -0.5461629 0.16027436 0.19032115 0.24581248
0000c0 85 63 bd 3d 00 5a 1f be a1 03 6d be 4d f7 fb ba
       0.092474975 -0.15561676 -0.23145916 -0.0019223482
0000d0 21 10 07 be 8d 67 a3 3e 06 0d 03 bf 88 a9 9a bc
       -0.13189746 0.3191494 -0.5119175 -0.018879667
0000e0 5e ba 02 be 40 08 c4 3d cd 38 48 be 89 d1 ab 3c
       -0.12766406 0.09571886 -0.19552918 0.020973938
0000f0 37 70 9e bc e8 0e 83 be e4 9a 69 3d be f1 14 3c
       -0.019340618 -0.2559731 0.05703248 0.009090839
000100 96 e8 84 3d 59 a3 0c be 2e 18 d7 bd 3e ac e1 bd
       0.06489675 -0.13734187 -0.10502659 -0.11019181
000110 52 dd cf 3d 29 bc 99 3d 0e e3 f2 3d d9 bc 03 3e
       0.101496354 0.07506592 0.118597135 0.12865008
000120 dc 9f c3 3d 6c 5a 3c 3e b1 11 0c be b1 bb e5 bd
       0.09551975 0.18393868 -0.13678624 -0.1121744
000130 ac 17 56 be 2f 63 9a bd 77 4d da 3d da f6 b2 be
       -0.20907468 -0.07538449 0.106593065 -0.34953958
000140 93 d0 8b bd f3 f1 98 3e 4b 58 1b 3e 24 ce 18 bb
       -0.06826892 0.29872093 0.151704 -0.0023316229
000150 3c 7c b3 bd b0 27 77 3d 88 96 f5 3d e0 74 00 3b
       -0.0876393 0.060340583 0.11991602 0.0019600913
000160 92 b4 c2 3d 5a 7d a9 3e 86 71 5a bd 7f 86 be 3e
       0.09507097 0.33103448 -0.05333092 0.37211987
000170 09 15 0e 3d f1 1c 91 bd a7 75 a2 3d 5b 63 12 3d
       0.03468803 -0.07085598 0.07932597 0.035739284
000180 c5 3f a9 be 96 9c dc 3d 43 99 b9 3e cc 4f 17 be
       -0.33056465 0.10772054 0.36249742 -0.14776534
000190 19 11 0b 3e eb d1 a6 bd e8 ec 3f be 60 f4 20 3e
       0.13580741 -0.081455074 -0.18742716 0.15718222
0001a0 a0 63 20 3e 13 3a 85 3d e4 bf cb 3c 5f e8 ac bc
       0.15663004 0.065052174 0.024871774 -0.021106897
0001b0 79 2f 6c 3d 94 53 c8 3d 81 ac 1e 3c be ef c7 bc
       0.05766246 0.09781566 0.009684683 -0.02440631
0001c0 82 49 b8 be e8 0e 16 3e fc 21 dd bc 9b 65 68 bd
       -0.35993582 0.14654124 -0.026993744 -0.056737524
0001d0 84 d6 28 3e 53 1d de bd 0f 17 a2 bd a7 34 4e bd
       0.16488081 -0.10845437 -0.07914554 -0.050343182
0001e0 95 bf 15 bd fc 3d 2f bd 3b b0 0d be dc f1 1a be
       -0.03655966 -0.042783722 -0.13836758 -0.15131325
0001f0 75 bd bc bc ba a1 82 bc 7a 7a 89 be cc 0b bd 3c
       -0.023039559 -0.015946258 -0.26851255 0.023076914
000200 55 ba cd 3d 49 86 07 3e 2b 81 04 bf 27 2a 4b 3e
       0.10045306 0.1323482 -0.51759595 0.19840299
000210 34 1d ed be 17 9a 07 bc d7 8f a3 3e 32 c7 12 3e
       -0.46311343 -0.008276484 0.3194568 0.143338
000220 dd d9 2f 3e e8 ab ef bc b1 80 25 3e a7 51 96 be
       0.17172952 -0.029256776 0.16162373 -0.2935917
000230 a1 f4 8e be aa 07 06 bd c0 c4 20 3f f9 44 91 bd
       -0.27921012 -0.032722153 0.62800217 -0.070932336
000240 5f a8 d5 3e 70 c3 a9 3e 02 63 3f be b2 d9 48 3e
       0.4173002 0.3315692 -0.18690112 0.19614294
000250 6e 10 7d be 38 8e 40 be 74 8a 36 be 21 82 a1 bb
       -0.24713299 -0.18804252 -0.17826253 -0.0049288427
000260 2f 83 a8 bd ed d6 7b be 27 bd 46 3d ec f3 3b 3e
       -0.08228146 -0.24593706 0.048520233 0.18354768
000270 89 a2 6e be 2e 4c 91 bd 1d 8c 00 3f 42 27 03 bf
       -0.2330419 -0.07094608 0.50213796 -0.5123178
000280 fa 33 18 be 10 73 51 bd 29 d2 5e be 9d 47 f7 bc
       -0.14863577 -0.051135123 -0.21759857 -0.030185515
000290 9a 3c 9d 3e 75 37 c0 bd 86 b8 15 be e7 a1 3d 3e
       0.30710298 -0.093855776 -0.14621171 0.18518792
0002a0 f5 f3 65 3d 76 7d 25 be 46 9d 5d be 41 dc c6 bd
       0.05614086 -0.16161141 -0.21642026 -0.09709979
0002b0 06 94 b3 bd 16 e7 c1 3d c7 ca 9f 3e 0c 1d 40 3e
       -0.087684676 0.09467904 0.31209394 0.1876108
0002c0 34 03 15 3e 9a 67 35 be c5 33 03 bd 58 66 43 be
       0.14552003 -0.17715302 -0.032031793 -0.1908201
0002d0 1f 08 20 3f 4e 2f 4e 3d d2 3b 08 be e8 25 a9 be
       0.6251239 0.050338082 -0.1330407 -0.33036733
0002e0 41 ac 90 3c 1f 3e db 3c f0 f3 aa 3e 15 b2 87 3e
       0.017660262 0.02676302 0.33389235 0.26503053
0002f0 9c b4 b1 bd 26 8c 61 3e 22 36 e9 3d 69 ed a2 3c
       -0.08677027 0.22026119 0.11387278 0.019888597
000300 4e 02 cf 3d 62 b5 c2 3c ff 61 07 be 12 bc 9d bb
       0.101078615 0.02376813 -0.13220976 -0.0048136795
000310 1d fd 76 3e 98 f5 85 3d 80 b8 6c 3d d5 72 8f 3d
       0.24119993 0.06540984 0.05779314 0.07004324
000320 13 02 6e 3e 9f 69 cb 3b 77 54 23 be ec be 1a 3e
       0.23242979 0.0062076594 -0.1595019 0.15111893
000330 6b 83 83 be 03 fa af 3e 86 ae d9 bd 93 90 aa be
       -0.256862 0.3437043 -0.10628991 -0.33313426
000340 95 a4 78 be ee 59 17 be 44 14 3b 3e 42 ee b1 3d
       -0.24281533 -0.14780399 0.1826945 0.08688022
000350 80 ea 22 bf 6a 64 58 bb 85 c9 26 3e 0b ef 69 be
       -0.6363907 -0.0033018836 0.16287811 -0.22845094
000360 4f e5 e6 3d e3 94 c1 bd cf 08 87 3e bb 37 ba 3d
       0.11274206 -0.09452226 0.26373908 0.09092661
000370 ea 07 01 be 3e 9d 40 bd 38 8d 6d bd 8f c6 0e be
       -0.12600675 -0.047024958 -0.057996005 -0.13942932
000380 c9 27 60 3d a4 e3 77 3e 98 e9 d8 3c 69 d9 65 3e
       0.054725442 0.24207932 0.026478574 0.22446217
000390 c3 34 3e 3e 35 6c 49 be bc f0 0b bd 75 97 68 3d
       0.18574814 -0.19670184 -0.03416513 0.056785066
0003a0 2e 80 7e 3e b8 a0 87 3e 9e 13 be 3d 12 12 31 3e
       0.24853584 0.26489806 0.092810854 0.1729205
0003b0 29 60 40 3e f5 d6 f8 bd a7 c3 a4 be 6e 78 ad 3d
       0.18786682 -0.12150375 -0.3218052 0.08470236
0003c0 a5 c3 9c be fd b2 0b be dc 5b ae 3c c4 0f 98 bd
       -0.30618015 -0.13642497 0.021284036 -0.07424882
0003d0 09 15 4a 3d e9 93 37 bd 32 a7 7a 3e 3c d6 dd 3e
       0.049336467 -0.044818792 0.24477842 0.4332751
0003e0 32 59 0a 3f 08 ea 0a 3e 7b bb be 3d d2 9b b8 bd
       0.5404235 0.13565838 0.09313103 -0.09014095
0003f0 e7 d2 db bd d7 1d ec bd f8 93 37 be 4a f9 75 3e
       -0.10733586 -0.11529129 -0.1792754 0.24020877

bias_ih_l0 f4 [512]
000000 dd 28 05 3d 4c 4d c1 3d b8 2d 10 3e a8 c2 a1 3d
       0.032509673 0.09438571 0.1407994 0.07898456
000010 59 27 49 3e ea de 08 3e 40 32 c0 3d 27 a8 5f 3e
       0.19643916 0.13366285 0.093845844 0.21841489
000020 ed 86 d5 3d 73 07 90 3d f9 5c 71 3e 6f 20 71 3e
       0.10426126 0.07032671 0.23570623 0.23547529
000030 c9 0f 41 3e 87 cf 00 3d 3a a3 4a 3e 5f cd 6a 3d
       0.18853678 0.031447913 0.19788828 0.057324763
000040 51 07 95 3d 28 18 0b 3e f4 56 2b 3e 75 cd 3b 3e
       0.07276786 0.13583434 0.16732389 0.18340094
000050 f8 ec ef 3d f5 75 1e 3c d0 0f 08 3d bc 75 0c bd
       0.1171512 0.009671678 0.033218205 -0.034291968
000060 4a af 08 3e 32 7f 1d 3e b1 f8 0e 3d 6a 64 d6 3d
       0.13348117 0.15380552 0.03490514 0.10468371
000070 07 4d 38 3e be 87 0e 3e e3 2e b1 3d b2 10 30 bd
       0.17998134 0.13918969 0.08651521 -0.042984672
000080 20 c1 b2 3d 8c 31 80 3d 26 df ed 3d bf 35 27 3e
       0.08728242 0.0625945 0.11614828 0.16329096
000090 ab f9 39 3e 3d c1 61 3d a0 cc 86 3d da 63 8f 3d
       0.18161647 0.055115927 0.06581998 0.07001467
0000a0 e6 aa 4f 3d 29 8f 5b bd 8a 67 0a bd 39 d6 0e 3e
       0.05070009 -0.053603325 -0.03379015 0.13948907
0000b0 ac d8 42 3d 39 e2 85 3d 6a 51 86 3d 91 b7 1b 3e
       0.047569916 0.06537289 0.06558497 0.15206744
0000c0 74 5e d9 3c 06 40 ed 3c 04 f0 1f bd 07 fd fe 3d
       0.026534297 0.028961193 -0.039047256 0.12450605
0000d0 31 fd c1 bb d2 10 5e 3e f2 81 70 3d ba 8d bc 3d
       -0.0059200753 0.21686104 0.058717676 0.0920672
0000e0 37 a2 8c 3e cb e2 bd 3d 71 f3 65 bd 5c 1e 24 3e
       0.2746751 0.09271773 -0.056140367 0.16027206
0000f0 13 6d b4 3d 1e 68 28 3e 6f 80 2c 3e 0f 0c e6 3d
       0.08809867 0.16445968 0.16845869 0.11232769
000100 d9 70 a1 3c 58 46 1e 3e 7c 49 90 3d ae e2 f3 3d
       0.01970713 0.15456522 0.07045266 0.1190847
000110 f0 be 0f 3e ea 93 35 3d f8 6b df bb 69 3f c2 3d
       0.1403768 0.044330515 -0.006818291 0.09484751
000120 0f 5d 7f 3d 5a 55 47 3e c2 5e c7 3d 2a 9c 98 bc
       0.062344607 0.19466153 0.097348705 -0.018629152
000130 a0 f2 cc 3d 5e 6a 78 3d 33 6a 26 3e 92 45 cb 3d
       0.100072145 0.060648315 0.1625145 0.09925379
000140 5b 74 52 3e 6e 2b 0f 3e c3 37 f7 3c 56 42 29 3e
       0.20552199 0.13981411 0.030177956 0.16529211
000150 13 b9 56 3e 58 6c 34 3e 9f 71 0c 3e 8d df c0 3c
       0.20969038 0.17619455 0.13715218 0.023544097
000160 dc e7 b9 3d ca 4d c2 3d 05 35 82 3d a2 86 03 3c
       0.09077427 0.09487493 0.06357769 0.008027704
000170 24 31 dd 3d 96 69 0c bd 4b 26 9c 3c 52 3a 48 3e
       0.108003885 -0.034280382 0.019061228 0.19553497
000180 d6 8b 90 3d 68 ea ce 3d 17 06 02 3e ee a6 ae 3d
       0.070579216 0.10103303 0.12697636 0.08527933
000190 ae 05 32 3a 4a d8 3e 3e 7b 75 9a 3d 93 90 25 3d
       0.00067910075 0.18637195 0.07541939 0.04042108
0001a0 8f 78 91 3e c0 6f 9d bc 29 c3 31 3e 63 91 19 3e
       0.2841229 -0.019218326 0.17359604 0.14996867
0001b0 ad ea e2 3d 2f ee 12 3e 81 5c 42 3d 91 34 f6 3d
       0.11079917 0.14348672 0.0474515 0.12021745
0001c0 54 95 86 3d 55 2c 0d 3e 7b 59 30 3e 28 d9 89 3d
       0.06571451 0.13786443 0.17221634 0.067308724
0001d0 26 f3 f6 3c a1 64 23 3e 56 30 ec ba c7 54 97 3d
       0.03014524 0.15956356 -0.0018019776 0.07389217
0001e0 a8 ae ea 3c b1 ff 22 3e eb 02 21 bd 18 e9 02 3e
       0.028647736 0.15917851 -0.039309423 0.1278423
0001f0 8f 11 24 3e 8f 96 62 3e 9c a4 d4 3d af 52 71 3d
       0.16022323 0.22127746 0.10382959 0.058916744
000200 35 89 03 be 87 c2 b5 bd 1a 34 0f 3d f1 bc e6 3d
       -0.12845309 -0.08874994 0.034961797 0.112665065
000210 d4 dd c6 bc 5e ec e1 3d b3 1d ea 3b df c9 82 3d
       -0.024275698 0.110314116 0.0071446537 0.0638616
000220 82 1e a3 3d 67 19 fb 3d 90 be 02 be 84 95 bd 3d
       0.07964803 0.122607045 -0.12768006 0.092570335
000230 4f fb fc 3b c7 ad 4d 3d 8a 2b 25 bd c1 3d 79 3d
       0.007720388 0.050214555 -0.040324725 0.06084991
000240 00 1d 18 3c ca 83 db bd 4b cf 05 be cb 01 2f bc
       0.009284258 -0.10718496 -0.13067357 -0.01068158
000250 5d 30 cb bd 0d dd 97 bd 82 fa c9 bb a7 74 59 3d
       -0.09921334 -0.07415209 -0.006163896 0.053089764
000260 ab b9 ad 3c d4 86 f8 bb db b4 a4 3d f5 db 81 bd
       0.021206697 -0.007584432 0.08042308 -0.063407816
000270 08 bd 50 bd 28 df 05 3d 12 50 92 3c 55 0c bb 3d
       -0.050961524 0.03268352 0.017860446 0.091332115
000280 2d 62 f7 bd e8 98 7a 3d bd 8d 03 3d b8 43 ed bd
       -0.120792724 0.06118098 0.032117594 -0.11585182
000290 fd 87 6a bc 0a b5 03 be 42 f1 c7 3d d0 21 1a bd
       -0.014314649 -0.1286203 0.09762813 -0.037629902
0002a0 00 98 e4 3c 49 ca 8c 3d a0 de 9c 3d 8e c1 4b 3d
       0.02790451 0.0687452 0.0765965 0.049745135
0002b0 0e 8c 0a bd 71 ff 1c 3d 73 e1 15 bc 56 e1 e8 3d
       -0.033824973 0.038329545 -0.00914799 0.113711044
0002c0 bf 70 d9 3c 7f 89 4c be 74 5a 14 be 51 44 a8 bc
       0.02654302 -0.19974326 -0.1448763 -0.020540388
0002d0 a0 b7 9d bc 76 a9 c9 3d 0f 1c 36 3d b0 25 eb 3b
       -0.019252598 0.09846775 0.044460353 0.0071761236
0002e0 22 48 5f bd 2a 16 b9 bd 05 65 84 bd d4 cc 78 3d
       -0.05451215 -0.090374306 -0.064645804 0.060742214
0002f0 6c e9 f6 3c 1e 63 5f 3d bf 1b 11 3c 6a 5e 23 3d
       0.030140601 0.054537885 0.008856713 0.039884962
000300 ff c7 b7 bc 8a de bf 3d a4 2e e0 bd 70 9d 54 3d
       -0.022434233 0.09368618 -0.10946396 0.051907957
000310 24 47 12 3e ac 3c c8 bc e9 e2 c4 bc ed c7 ae 3d
       0.1428495 -0.024442993 -0.02403398 0.085342266
000320 bc e6 9d 3d bf e9 0a 3e c8 43 02 3d eb 26 2d be
       0.07710025 0.1356573 0.031802922 -0.16909377
000330 45 3f 72 bc 87 06 a4 bd 13 18 d4 bd 9d df 3a 3d
       -0.014785592 -0.080090575 -0.10356154 0.04562341
000340 fb 0a a4 3d 49 48 3b bd d1 e5 84 3c 1d 35 72 ba
       0.08009907 -0.045723233 0.016222866 -0.0009239482
000350 7a 08 ee ba c3 27 25 bb 3e 13 88 bc 51 73 20 be
       -0.0018160485 -0.0025200702 -0.016610738 -0.1566899
000360 3b f3 95 3d d1 23 6e bd 45 76 6d bd b6 4d 87 3d
       0.07321783 -0.058139626 -0.05797412 0.06606619
000370 f2 31 8e bc dc a1 63 3d 53 c8 93 3c 46 2a bc 3d
       -0.0173578 0.055574283 0.018039858 0.091877505
000380 14 b6 75 3c ab 7a 98 3d a1 54 3f be b6 00 dc 3b
       0.014997024 0.07445272 -0.18684627 0.006713952
000390 fe 28 54 bd 1d 8c e1 bd b6 2f 02 bd f2 2e a2 bb
       -0.051796906 -0.110130526 -0.031783782 -0.004949444
0003a0 a3 23 63 bd d6 58 a7 bd 0d 75 97 3d 68 48 0a 3e
       -0.055453908 -0.08171241 0.073953725 0.13504183
0003b0 4e 5b cf 3c e3 f2 7d bd 29 83 62 3d f7 64 81 3d
       0.025312092 -0.061999213 0.055300865 0.06318086
0003c0 39 c4 95 3c 06 0c df bc de b1 0a 3d a5 59 fa b9
       0.018282043 -0.027227413 0.033861034 -0.00047750506
0003d0 b0 47 28 3d 4c ff 05 3d 7a dc 4b bd 0c 54 19 bc
       0.04108399 0.032714173 -0.04977081 -0.009358417
0003e0 f4 0b 1b 3e fc e2 00 bd 80 bf 4e 3c 44 5e 75 bc
       0.15141279 -0.03146647 0.012618899 -0.014976088
0003f0 e9 ac ab 3b 16 c9 ee 3c 02 5e 06 bd b8 58 ce bc
       0.0052391184 0.02914862 -0.032804497 -0.025188789

bias_hh_l0 f4 [512]
000000 45 bf 80 bd 63 74 cd 3d ee d0 5a 3d db ff 47 3d
       -0.06286482 0.10031965 0.053421907 0.048827987
000010 18 cc e3 3d ff ee db 3d 2c b0 98 3d 32 4c 8a 3e
       0.11122912 0.10738944 0.07455477 0.27011257
000020 f1 41 92 bd 20 bb c7 3d 61 8b 2e 3e 7f 73 76 3e
       -0.071414836 0.09752488 0.17045356 0.24067496
000030 7d 27 39 3e 90 6a 45 3d 5d 05 ea 3d 7e 59 14 3e
       0.1808147 0.04819733 0.11426804 0.14487264
000040 f4 05 8e 3d 8d f2 81 3e c5 b3 f6 3d 14 39 73 3e
       0.06934729 0.25380364 0.12046007 0.23752242
000050 be 5b 22 3d c8 37 ba 3d d7 a7 c7 bc c5 53 de 3d
       0.039638273 0.09092671 -0.024372024 0.108558215
000060 04 86 e7 bc b9 24 3b 3e 09 21 db bb ae b0 4f 3e
       -0.028262146 0.18275727 -0.0066872877 0.20282242
000070 2e af 78 3d ed 01 2e 3e db b1 19 3c 08 34 a0 3c
       0.06071394 0.16992922 0.009380783 0.01955606
000080 1a 88 b0 3d 24 a3 44 3e 23 83 97 3d 35 d1 0f 3e
       0.08619709 0.19202858 0.07398059 0.1404465
000090 10 0d 6b 3e bd 89 cd 3d a5 3a 8c 3d fe 6d 62 3d
       0.22954202 0.10036037 0.06847123 0.055280678
0000a0 da 90 09 3e 0e 6f c8 bd 31 31 36 bd c3 2d 73 3d
       0.13434163 -0.09786807 -0.044480506 0.059369814
0000b0 b4 82 0c 3e 64 ad 03 3e c1 f9 0c 3e 42 15 12 3e
       0.13721734 0.12859112 0.13767149 0.14265922
0000c0 20 ba a9 3c ae 59 c9 3b c3 df 30 bd 25 97 29 3e
       0.020718634 0.006144724 -0.043182146 0.16561563
0000d0 fe f1 a7 bd df 88 99 3d 88 8a df 3d b4 aa 31 3d
       -0.08200453 0.07496809 0.109150946 0.043375686
0000e0 25 b6 8a 3e dd 92 de 3d 08 c2 6f bd d3 1e 93 3c
       0.2709209 0.10867856 -0.058534652 0.017959034
0000f0 e4 b1 ae bc e5 02 3d 3d 88 6b 21 3e 83 80 26 3e
       -0.02132506 0.04614534 0.15763676 0.16259961
000100 04 c7 42 3d b1 d6 ba 3d 20 0b f0 ba c8 da 21 3e
       0.047553077 0.091229804 -0.0018313862 0.15806115
000110 49 01 8b 3d f2 ce 62 3d f9 8a 8b 3d c2 93 d4 3d
       0.067873545 0.05537314 0.06813616 0.10379745
000120 31 d9 05 3e 52 7f 74 3e 55 22 53 3d a8 88 05 bb
       0.13071133 0.23876694 0.051546413 -0.0020375643
000130 83 9f 2c 3e e0 0e d7 3c db cd a3 3d 73 ee c8 3c
       0.16857724 0.02625221 0.07998248 0.024527764
000140 6f b0 39 3e 58 51 45 3d 59 68 2c 3d 94 81 cd 3c
       0.1813371 0.04817328 0.0420917 0.025086202
000150 ba 23 9e 3d 91 aa 8f 3d 41 a3 31 3e 5e 83 78 3d
       0.07721658 0.07014955 0.17347433 0.060672157
000160 be a6 3f 3d 39 c9 15 3e ad d4 cd 3d 14 62 62 bc
       0.046789877 0.14627542 0.1005033 -0.013817329
000170 93 9a 6c 3c ce af e0 3d 22 13 2c 3d 85 92 55 3e
       0.01444115 0.10971032 0.042010434 0.20856674
000180 da 56 a9 bc ab de 6e 3d 2f 9a c5 3d 5a cc 2f 3e
       -0.020671297 0.05831782 0.09648549 0.17167798
000190 c9 49 61 bd 7c 19 e9 3d 92 e3 18 3e d2 8d 00 3d
       -0.055002008 0.11381814 0.14930561 0.03138525
0001a0 c8 f6 42 3e 18 16 e2 3d 7b f7 3d 3e f8 90 7e 3d
       0.19039452 0.1103937 0.18551438 0.06214997
0001b0 09 bd 32 3d aa e9 50 3d fc b8 2a 3e 74 99 be 3d
       0.04363731 0.05100409 0.16672128 0.093066126
0001c0 97 fe 75 3d ae 27 1e 3e 3f 17 8b 3d 46 12 69 bd
       0.06005725 0.15444824 0.06791543 -0.056902193
0001d0 8e bb 79 3d 8a 62 e2 3d 9c bc 08 3e a8 2b 1e 3e
       0.06096988 0.11053951 0.13353199 0.15446341
0001e0 06 85 f4 3d 02 42 7b 3e 28 4a 04 bd a1 0b 8d 3c
       0.11939435 0.24536899 -0.032297283 0.01721746
0001f0 80 05 60 3d 28 85 31 3e 14 ea 8a 3d 14 eb a6 3d
       0.054692745 0.17335951 0.06782928 0.08150306
000200 a7 16 1d bc 2d b7 26 be c8 8f 79 3d a2 b2 4c bc
       -0.00958792 -0.16280814 0.060928136 -0.012493761
000210 8d 67 76 bd 5d 09 8b 3a 51 cd 50 bd de 1d ec 3d
       -0.060157347 0.0010607649 -0.050977055 0.11529134
000220 a8 e7 9a 3d 5c 3e 16 3e d3 bc 04 be 97 7c d2 3d
       0.07563716 0.14672226 -0.12962656 0.1027767
000230 88 24 61 3d e3 d5 a6 3d 5c 1e a7 bd bf 35 79 3d
       0.05496648 0.081462644 -0.081600875 0.060842272
000240 d0 f9 c4 3d ac ec e1 bd db 5e 65 be 93 76 9f bd
       0.096179605 -0.1103147 -0.22399466 -0.07786288
000250 97 6a 1e be 01 21 9c bd 96 ef 35 bd bb a1 df 3d
       -0.15470348 -0.076234825 -0.04441794 0.109195195
000260 e5 00 a0 3d 75 9c dd bc 43 b5 42 bd 03 fa f0 bd
       0.078126706 -0.027052144 -0.047536146 -0.11766436
000270 75 5c 95 bd a1 1b 9c bc 33 f9 c2 3d 8c 01 00 3d
       -0.072930254 -0.019056143 0.09520187 0.031251475
000280 3b 2d eb bd 56 d3 54 3d 09 c2 bd 3c d6 35 10 be
       -0.114832364 0.05195936 0.023163812 -0.14083037
000290 69 49 ea bc 3a 37 99 bd d5 c8 b9 3d cd ff 57 3d
       -0.028599458 -0.07481237 0.09071509 0.052734185
0002a0 30 7e 57 bc 75 7c e1 3d d5 28 0b 3c af d6 49 bd
       -0.013152644 0.110100664 0.008493622 -0.049277004
0002b0 0c 9f d3 bc 52 b2 ab bc 22 d3 bc 3d d7 24 5b 3d
       -0.025832675 -0.020959053 0.09219958 0.05350193
0002c0 c4 25 7a 3d a9 ac 09 be ed 96 2c be 61 bd c8 bd
       0.061071172 -0.13444771 -0.16854449 -0.09801746
0002d0 9b c2 fb bc df e0 f9 3c be e6 e2 bc 7f c9 9c 3b
       -0.030732444 0.030502735 -0.027697917 0.0047847624
0002e0 84 f5 22 be b9 d2 8b 3d 5f 1a cd 3c 45 5c 02 3e
       -0.1591397 0.068273015 0.025036989 0.1273051
0002f0 46 6d f4 38 18 8e d1 bc 65 73 4d bd 3f 5c 33 3d
       0.000116551804 -0.02558045 -0.050158877 0.043789145
000300 3b ac a1 3d 54 22 14 3e ed db c3 bd 72 fb df 3d
       0.078941785 0.1446622 -0.09563432 0.10936631
000310 63 4b 25 3e 9b af 02 bd 07 d8 14 3d 0c 89 ac bc
       0.16142039 -0.03190575 0.036338832 -0.021061443
000320 3c b5 0e 39 4e b3 8d bb 4a c3 c4 bc a7 b6 06 bd
       0.0001360969 -0.0043243533 -0.024018902 -0.032889035
000330 58 56 dc 38 c6 ac 2e be ae df 82 bd d5 ad 85 bd
       0.000105065 -0.17058095 -0.0639032 -0.065272965
000340 e6 74 96 bc e8 72 87 bd 10 2a 1d bd ae 69 da 3d
       -0.018366288 -0.066137135 -0.038370192 0.10664688
000350 e9 76 93 3d 9f a7 91 bd 14 f9 ef 3d 9b 66 2f be
       0.07200415 -0.07112049 0.1171743 -0.17128985
000360 12 42 08 3e 85 de a9 3d 68 bc 24 bd 62 8d 4c bc
       0.13306454 0.08294395 -0.04021874 -0.01248488
000370 05 9f 95 3d 56 31 9f 3d 86 cc 28 3d ea 48 72 bc
       0.07305721 0.07773082 0.041210674 -0.014787892
000380 f6 39 2e 3d b2 26 03 3e 00 b6 b6 bd 35 64 74 bc
       0.042535745 0.1280773 -0.089214325 -0.014916469
000390 ac 2b fe bd 83 4c b9 bd e2 19 8c 3c 46 20 b3 bd
       -0.124106735 -0.090477966 0.017102186 -0.0874639
0003a0 45 76 9a bb 46 6f 38 bd 76 a4 1b 3c 87 ae be 3d
       -0.004713806 -0.045027994 0.00949966 0.09310632
0003b0 0f e0 59 3d c6 0d 07 bd 00 d8 8c 3d 6d 03 3c bc
       0.053192195 -0.03297212 0.06877136 -0.011475426
0003c0 07 56 ec 3c 33 f0 21 3d 6f a4 b2 bc 17 79 93 3c
       0.028849615 0.039535712 -0.021806924 0.018002076
0003d0 57 c6 ba 3d e2 84 0f 3d 62 fd 52 bd 75 c7 9d bb
       0.091198616 0.035038836 -0.051511176 -0.004815037
0003e0 4e 73 dd 3c 25 10 86 bc 49 5f cf 3d 8e 3b d4 3d
       0.02703252 -0.01636512 0.10125596 0.10362922
0003f0 0d a9 33 3c d0 bf 27 bd f5 76 20 3c 4e 94 27 bd
       0.010965598 -0.04095441 0.009793987 -0.04091292

weight f4 [29, 128]
000000 77 62 03 3e 31 0f 3a 3e 95 e3 53 bd 9d 5f c7 3d
       0.1283053 0.18169858 -0.05173071 0.09735034
000010 a4 3f 50 be dd 4f a8 3d fe 1b f1 bd 1e 60 35 3e
       -0.20336777 0.08218358 -0.11772917 0.17712447
000020 ba 6a 47 be 8f de 91 3d 02 23 80 3e 9d c6 3a bd
       -0.19474307 0.07122528 0.2502671 -0.04559957
000030 26 45 38 be 70 f8 2a 3d 19 0a b8 3d e6 d9 cd 3c
       -0.17995128 0.041740835 0.08986301 0.025128316
000040 ef 8e 98 ba df 41 1e 3e 5c 27 95 be f4 24 6d 3e
       -0.0011639277 0.15454815 -0.2913159 0.23158628
000050 95 78 91 3e 42 f6 9b 3c fb 96 15 bd 3b 7c 85 bd
       0.2841231 0.019038323 -0.03652094 -0.06517836
000060 d5 89 a5 bd 92 b7 3f be b8 92 d8 3d a6 cf f4 3d
       -0.0808293 -0.1872237 0.105748594 0.11953668
000070 40 98 75 3e 00 1a 22 be f0 a7 ac 3c 23 cd f2 3d
       0.2398386 -0.1583023 0.021076173 0.11855533
000080 a5 75 43 be 3e 65 18 be 94 5c 00 be 97 68 01 be
       -0.19087847 -0.14882371 -0.12535316 -0.12637554
000090 49 d7 0a 3e 64 08 7f 3e 44 bd 55 be 45 06 7f bd
       0.13558687 0.24905545 -0.2087298 -0.06226184
0000a0 0b 21 c0 3d f4 49 26 be da 24 4e 3e 8e c2 ad bd
       0.093813024 -0.16239148 0.20131245 -0.08484374
0000b0 1d 6e 4e bc a8 d0 c6 3d f1 4f 58 3e 4d b0 36 3e
       -0.012599495 0.09707767 0.21124245 0.17840691
0000c0 16 7d c7 3c f2 8c 92 3e 6d 4d d2 3c 58 86 6a bd
       0.024351638 0.28623158 0.025671685 -0.057257026
0000d0 04 b9 17 3c 95 5e 20 3d 32 58 44 bd c8 90 e8 bd
       0.00926042 0.0391527 -0.047935672 -0.1135574
0000e0 7d 12 09 3e f9 7c 0e 3e 5f 52 87 3c e1 17 bc 3d
       0.13385959 0.13914861 0.01651877 0.09184242
0000f0 15 71 94 bd 45 d4 2d be 93 49 23 3c 26 c2 4a 3e
       -0.07248131 -0.16975506 0.009966272 0.19800624
000100 64 4e 8c 3d 97 2f 0a be cd fb 0e 3e 10 fa a8 bd
       0.06850889 -0.13494717 0.13963242 -0.08250821
000110 f9 0c 7f 3d 7d 6d 44 3d e9 49 45 3e 5a fe e5 bb
       0.06226823 0.04795598 0.19266476 -0.0070188465
000120 93 7a 1e 3e d7 51 bd 3d e9 9d 95 bd 5c dc d8 3c
       0.15476446 0.09244125 -0.073055096 0.026472263
000130 2f 6c 4e bd 80 47 33 be 39 d7 56 be 5b ea 9f bd
       -0.05039614 -0.17507744 -0.20980538 -0.07808372
000140 8c 21 1a 3e a8 fe bb 3d cb 11 3b 3d f3 a8 13 3e
       0.1505186 0.09179431 0.045671266 0.14419918
000150 d7 a5 c8 bd 99 13 f7 bd 89 f0 6d 3e 61 3c 3a 3d
       -0.097972564 -0.12064285 0.23236288 0.045467738
000160 28 9d d1 3d 75 9e 4d 3d 3e d6 93 bb 83 3e c7 3d
       0.10235053 0.050199945 -0.0045116236 0.0972872
000170 64 ad ca bd 61 14 8b 3b fd 7e b7 bd 03 b3 9f bd
       -0.09896353 0.0042443727 -0.08959768 -0.07797816
000180 f9 fb 01 be 11 fa 97 3d e4 b2 f6 bd db 18 8a bb
       -0.12693776 0.07420743 -0.120458394 -0.004214389
000190 d7 5d fa bd 39 0f 53 be 69 42 bc bd 6b 5a 56 be
       -0.1222493 -0.20611276 -0.09192354 -0.20932929
0001a0 43 53 50 3d 2f 3c 45 3e 04 89 39 3e 3e 6e c1 3d
       0.050860655 0.1926124 0.18118674 0.09444855
0001b0 96 26 41 3c 50 4b 6f 3c 83 e3 31 be 84 d3 26 be
       0.011788985 0.014605358 -0.17371945 -0.16291624
0001c0 6e c0 f5 3d a3 43 26 bc 5c bc 29 3e f2 fd a0 bd
       0.11999594 -0.010147962 0.1657576 -0.07860936
0001d0 68 79 3d 3e 2e c8 4a bd f0 8a ea 3d bf 3e f0 3d
       0.18503344 -0.049507312 0.114522815 0.11730718
0001e0 d1 1f f7 3d 08 4f 19 3e 95 55 95 3d 61 3f d3 bd
       0.120666154 0.14971554 0.07291714 -0.10314823
0001f0 2b 01 b8 bd e4 ae c2 bd c2 5d 93 bd af 17 a0 3a
       -0.08984598 -0.09506014 -0.07195617 0.001221409
000200 bf 5b 2d bd 06 80 83 be 13 00 3f bd 66 47 3e 3c
       -0.042323824 -0.25683612 -0.04663093 0.011613702
000210 24 85 e7 3d f9 b0 79 3c ad 90 ab bc 66 e1 08 bd
       0.113046914 0.0152399475 -0.02094301 -0.03341808
000220 fc eb cc 3c d6 c2 d7 bc 51 6f 91 be 1b 72 13 bd
       0.02501487 -0.026338022 -0.2840524 -0.03599749
000230 e8 f6 97 3d fc 80 f5 3c e2 be 2c be cb 12 02 bd
       0.074201405 0.029968731 -0.16869691 -0.031756204
000240 ca 8c b2 3d 3c bb b7 be 69 a2 7f bd 92 38 1e 3e
       0.0871826 -0.35885036 -0.062410746 0.15451267
000250 d0 a5 14 be 94 4d 82 bd 63 6b 31 be d5 61 f8 bc
       -0.14516377 -0.06362453 -0.17326121 -0.030320087
000260 90 91 25 3e 1d d5 11 be 8b 7f 26 3d f1 12 2b be
       0.16168809 -0.14241453 0.04064898 -0.16706444
000270 4b 8b 24 bd c7 e4 00 3d a1 67 ba be e7 9a 4f 3e
       -0.040171903 0.03146818 -0.36407188 0.20273934
000280 0c 97 1e 3e a0 af cc bc c8 ed 9a 3e 45 a0 78 3c
       0.15487307 -0.024986088 0.30259538 0.01517493
000290 56 27 20 be 25 ac 3d be 88 e2 6f 3d ff 3d 87 3e
       -0.15640005 -0.18522699 0.058565646 0.26414487
0002a0 9f f3 32 3d 30 3e 94 bd ea 04 7f 3d ad 68 48 be
       0.043689366 -0.07238424 0.062260546 -0.1957118
0002b0 50 2e b1 3d 58 de 32 be 30 78 fc 3c 12 f5 a5 3d
       0.086514115 -0.1746763 0.030819029 0.08103384
0002c0 4a f7 c2 bc 1c 9d 0c be ff f5 ed 3d 39 88 d5 3d
       -0.023799557 -0.13731807 0.11619186 0.10426373
0002d0 a4 ae f0 3d 82 c9 f6 3c d1 b0 73 bd df 8d 8c 3e
       0.1175206 0.030125383 -0.059494797 0.2745199
0002e0 55 d6 68 bd 56 70 3b 3e ad 60 2b 3e 22 c1 5a 3d
       -0.056845028 0.18304572 0.16736098 0.053406842
0002f0 f0 6b 19 3e 02 4e 46 3e f2 87 de bd df ec 43 be
       0.14982581 0.19365695 -0.10865773 -0.19133328
000300 ca fc a1 bd 32 94 64 3e 51 7d 38 3e 16 f6 b2 bd
       -0.07909544 0.22322157 0.18016554 -0.087383434
000310 2c 21 37 bd 6c c0 b7 3d df 2f 8f bd 45 d9 8b bd
       -0.04470937 0.089722484 -0.069915526 -0.0682855
000320 d2 b9 96 3c 42 98 4c be 3c 44 07 bd 58 9c d3 3d
       0.018399153 -0.19979957 -0.033024058 0.103325546
000330 8e 60 8d 3e 6f 26 c1 bc ea 3e 91 bd d9 12 57 3e
       0.27612728 -0.023577897 -0.07092078 0.21003284
000340 4f c7 57 be e1 9a f0 bc d1 1b c7 bd be 70 e5 bc
       -0.21072124 -0.029370727 -0.097221024 -0.028007861
000350 db e3 b9 3e 55 c0 f1 3d ef 15 f4 bc ed 9a 02 be
       0.36306652 0.118042625 -0.029795615 -0.12754412
000360 d5 ed 9f bb 9f 1d a0 bc ba b4 3d 3e 37 da c0 bd
       -0.0048806467 -0.019545374 0.18525973 -0.09416621
000370 30 78 88 3e 3d e2 26 bb 17 2b 71 bc e8 77 f8 bc
       0.26654196 -0.0025464438 -0.014719746 -0.030330613
000380 ff da 47 3b 77 2c 1a 3e f8 12 a4 bd f8 83 99 bc
       0.0030495522 0.15056024 -0.080114305 -0.018739685
000390 41 df 11 3e 64 d2 17 3e 93 f8 8a bd 09 e6 1e 3e
       0.14245321 0.14826351 -0.06785693 0.15517439
0003a0 3e 0f ae bd ea 91 6b 3e b4 90 c9 be 9d 5b 88 bd
       -0.08499001 0.2300488 -0.39368212 -0.06658099
0003b0 1d e9 83 bd e3 fe 2b be 46 a5 1e bc 02 45 b9 3e
       -0.06440947 -0.1679645 -0.009682959 0.3618546
0003c0 f9 f6 9a 3e 08 d4 78 bd 83 c5 37 3d 43 f9 43 bd
       0.3026655 -0.060749084 0.044866096 -0.047845136
0003d0 29 64 66 bd 0b eb 92 bd 43 61 04 3c f0 d1 e1 3c
       -0.056247864 -0.07173737 0.00807983 0.027565926
0003e0 88 43 90 be 44 a6 8e 3d 25 11 01 3d 94 8f 01 3d
       -0.28176522 0.069653064 0.03151049 0.031631067
0003f0 d6 32 46 3d cb b6 c8 bd ad 41 e6 3d d6 9d bf 3c
       0.048388325 -0.0980049 0.112429954 0.023390692

bias f4 [29]
000000 78 ae 88 3e e0 28 ff bc d6 38 0a 3d 9b b7 9f 3c
       0.2669561 -0.03114742 0.03374561 0.01949673
000010 2d f0 02 3e 7f 77 17 be 8d d7 7d bd 34 ea 7d be
       0.12786932 -0.14791678 -0.061973143 -0.24796373
000020 20 e0 ff 3b cb ec 8d be 6b da c7 bd 58 bf df 3b
       0.0078087 -0.2771972 -0.09758457 0.00682823
000030 b7 90 8c bc fc 0a e0 3c 5e 9c 89 bd fe 28 ef bd
       -0.01715885 0.027348988 -0.06719278 -0.116777405
000040 6f de 07 be bc 5c 6e 3e 85 0c 44 3d 94 c1 14 3e
       -0.13268445 0.23277563 0.047863502 0.14526969
000050 64 4c ee bd c3 fe e2 bd 5e 38 6c be a7 63 78 be
       -0.11635664 -0.11083748 -0.23068377 -0.24256764
000060 6c 8a 27 be a3 bf 11 be cb 2a 15 be 32 69 a3 bc
       -0.16361398 -0.1423326 -0.14567105 -0.019947622
000070 fa a4 1d be
       -0.15394965
