models/LSTM/128/ESEU_60-40/ESEU_60-40_4_best_acc.pt (torch, 353807 bytes, 7 tensors)

weight f4 [29, 32]
00000000: 6a83 4f3f 0e69 0540 7a0e e4bf faaa 23bf
00000010: e66f db3f 9fb6 ac3f 0a61 9d3f 87e8 4b3f
00000020: f04f 7abf 45d1 3ebf 358e 8d3f 8d61 1c3f
00000030: 80c4 24bf 9895 06c0 04f6 893e 3be9 82bf
00000040: 8733 fe3f ddbb bcbf 9951 03c0 ea8f 1bbf
00000050: a95b 2c40 d381 a4bd 299b 77be 118d 903f
00000060: 47b2 ba3c e297 f7be 84a1 e13e fdf1 93be
00000070: 893e 423f d2a5 5bc0 92e4 283e 86e7 133f
00000080: 3119 713c 3760 2140 6ee1 7a3f 6a1e d8be
00000090: ce52 383f c83e 39c0 cd8f 3dbf 4a65 f63f
000000a0: e154 a0bd 14a3 88bf 5c64 d93e 1723 fbbe
000000b0: aa56 e3bf dca6 eb3f f3bd c5bf 1bf7 7a3f
000000c0: a8c6 44be 7597 33c0 5d16 76bf 55d0 923d
000000d0: 2896 803f 2e96 3cc0 304f 97bf 1ec3 20be
000000e0: 7571 833f 7bba 86bf 2d32 e6bf 483f 0d40
000000f0: 9129 943f 5cd7 a73f 9149 2b3e 0268 0bbf
00000100: 0b78 f83e f376 1d40 3ce8 04c0 97ef 633f
00000110: 6cbe f13d fff0 14bf e684 dbbe 1402 cd3f
00000120: 4733 b43f 0799 843e e95f 203e 8e29 0040
00000130: c6f2 d93f 7797 d53f 3bb6 eebc 5abb 4b3e
00000140: e13c 16bf 8874 033f 97bb 97be 6381 26bf
00000150: bfa0 a9bf 7f56 803f 9bcf a73f d5d6 d43e
00000160: 17bb c9bf 6a70 b23e a68d 02c0 a6c2 b33f
00000170: d46a 183f 9a5d 3cbf ef8f 0ac0 2965 ffbc
00000180: 7ee9 adbf 1b76 2640 c22e d0bf 2ef3 40bf
00000190: b063 603f a656 92bf 36d9 c2be ba72 58bf
000001a0: b139 8b3e f452 50c0 db84 c83f 5f70 933f
000001b0: 10df 93bf 2997 1d3e 1cd3 573f ec39 e23e
000001c0: 61b4 57bf 4302 c73f 6514 62bd 8fa8 273f
000001d0: 7014 32bf 1545 2cbf d57f fcbf e4f6 c1bf
000001e0: f298 0dc0 3474 8d3e 5c9a 853f b7ee a4be
000001f0: 087a 14c0 9e41 0d40 3b90 f43f 0bb4 d3be
00000200: c036 2e3f 40f5 60bf d8e2 af3f fd7a b8be
00000210: aabc 92bf db92 e93e a5e1 2b3e 7d6d 643d
00000220: 2d80 12bf c69e 983e bba6 7bbf c8bb 153e
00000230: 5d9a 79bf 67ba 76be 287e 15c0 241b 82bf
00000240: 53f3 7e3e c3d3 eb3f 3e37 ce3f dd12 883f
00000250: 7d04 263f 598f ca3f 23a5 c33f 76c6 f13e
00000260: 6561 a7bf 5d6f 98bf c452 f7bf 010a 953f
00000270: cc9b 68bf 7b69 433f ded1 913f 4c8a 0d40
00000280: 72b5 27c0 e8a8 b03f 2fdf 12bf 590a 693f
00000290: 7366 cfbf 6c7c 8fbf da61 b3be bfca 1fbf
000002a0: efd1 2a3f dcbe 8d3e 612a 0440 94fd 1840
000002b0: 656b c2be ba9f 083d 1975 79bf 1cd0 f43f
000002c0: 8750 bfbd 57c6 a7bf f1f1 69be 9d5c fb3d
000002d0: b50f a93f f9d7 f93f f4f5 75bf 8dbe c43f
000002e0: bdd7 9abf a87b 203f 25c6 56bd 6f19 92bd
000002f0: d9fd 633f 71a8 0a40 027c 55bf 658a c23e
00000300: 8c69 fd3f 9331 1c3f 9dc1 a9bf ffd8 b33e
00000310: 9bd3 333f f4e5 a8bf 6674 f7bf e60c 94bf
00000320: 0030 0f3f d18f 0f3d 1d1b bb3f 16a2 1bbf
00000330: b757 c3bf f3bd c5be 018f 9b3f d234 2340
00000340: 1cb5 743f c41d 7d3e 02b0 b13f 6679 e5bd
00000350: 6559 f73e 196f 44be 1a37 a93d b298 99bf
00000360: c6d4 aa3f 2b9f 1cbf 3ff6 fcbf 288b d03e
00000370: ef1f 513f ccd1 2e3f 99b1 a3bf d84d b23f
00000380: 0633 853e eca7 13bf 5375 5640 65e1 fb3e
00000390: a233 093f d2a5 39c0 5b79 bebf 5e56 9d3f
000003a0: 274a 3fbd 678e eebe 0f3c 363f b649 4b3f
000003b0: 8b6e 5c3f 8dfc 98bf 63a1 693f c1fa 933c
000003c0: 3d55 4cbe 301d 9e3f d7a0 07c0 0256 1c3f
000003d0: 3d51 81bb febc a3bf 22a5 7e3f d3c0 fbbf
000003e0: 586a 26be 5549 60bf 52df d13f 3046 21be
000003f0: 1844 6e3e 4d46 0dbe 57c6 29c0 340c a5be
0.81059897 2.084537 -1.7816918 -0.63932765 1.7143524 1.3493232 1.2295239 0.79651684
-0.97778225 -0.7453807 1.1059023 0.6108635 -0.64362335 -2.1028805 0.26945508 -1.0227426
1.9859475 -1.4744831 -2.0518553 -0.6076647 2.6930945 -0.080325745 -0.24180283 1.129305
0.022790087 -0.48358065 0.4406854 -0.2889556 0.7587667 -3.4319959 0.16493443 0.5777515
0.014715479 2.5214975 0.9800023 -0.42210704 0.7200135 -2.8944569 -0.7404755 1.9249661
-0.07828689 -1.0674767 0.4245938 -0.4905021 -1.7760823 1.8410296 -1.5448593 0.98033303
-0.19216406 -2.8061192 -0.96127874 0.071686424 1.0045824 -2.9466662 -1.1821041 -0.15699431
1.0268999 -1.0525659 -1.7984062 2.2069874 1.1575185 1.3112597 0.16727282 -0.5445558
0.48529086 2.460385 -2.0766745 0.8903746 0.11803898 -0.5818023 -0.4287483 1.6016259
1.4078149 0.25898 0.15661587 2.0025363 1.7027214 1.6686848 -0.029139629 0.19895688
-0.58686644 0.5134969 -0.29635307 -0.6504118 -1.3252181 1.0026397 1.3110231 0.41570154
-1.576022 0.3485139 -2.0398955 1.4043777 0.59538007 -0.73580325 -2.165035 -0.031176167
-1.3586881 2.6009586 -1.6264269 -0.7537106 0.8765211 -1.1432693 -0.38056344 -0.8455006
0.27192453 -3.255063 1.5665544 1.1518668 -1.1552448 0.15389694 0.843065 0.44184816
-0.8425961 1.5547565 -0.05519523 0.65491575 -0.69562435 -0.6729291 -1.9726511 -1.515347
-2.21246 0.27627718 1.0437732 -0.32213375 -2.3199482 2.20713 1.9106516 -0.413483
0.6805229 -0.8787422 1.3741102 -0.36031333 -1.1463826 0.45619854 0.16785295 0.05576848
-0.5722683 0.29808635 -0.98301286 0.14622414 -0.97501165 -0.24094544 -2.335825 -1.0164533
0.24897508 1.8424 1.6110609 1.0630757 0.648506 1.5824996 1.5284771 0.47221726
-1.3076597 -1.1908985 -1.9322133 1.1643678 -0.9086273 0.76332825 1.1392171 2.211566
-2.6204495 1.3801546 -0.573718 0.91031414 -1.620314 -1.1209846 -0.35035592 -0.6241874
0.66726583 0.27684677 2.0650866 2.3904772 -0.3797256 0.033355452 -0.974443 1.912601
-0.09341531 -1.3107404 -0.228462 0.12273524 1.3207918 1.9519035 -0.9607842 1.5370651
-1.2097088 0.62688684 -0.05243506 -0.07133757 0.89059216 2.1665308 -0.83392346 0.37996212
1.9797835 0.61013144 -1.3262211 0.35126492 0.7024476 -1.3195176 -1.9332397 -1.1566436
0.5593262 0.035049263 1.4617649 -0.607942 -1.5261143 -0.38621482 1.2153016 2.550099
0.9558885 0.24718386 1.3881838 -0.112047955 0.4831039 -0.19183005 0.08262463 -1.1999724
1.3346183 -0.6118037 -1.9762648 0.40731168 0.8168935 0.68288875 -1.2788574 1.3930006
0.2601549 -0.57678103 3.350911 0.491954 0.5359441 -2.9007459 -1.4880785 1.2291982
-0.046701577 -0.4659302 0.7118539 0.7940935 0.86106175 -1.1952072 0.9126188 0.018063905
-0.19954391 1.2352657 -2.119192 0.6106874 -0.003946452 -1.2792051 0.9947072 -1.966822
-0.16251504 -0.87611896 1.6396277 -0.1574943 0.23268163 -0.13796349 -2.6527307 -0.32235873

weight_ih_l0 f4 [512, 32]
00000000: 7517 5ebd 0410 28be 6448 903e 1ce8 623e
00000010: 0c69 813e ec96 16be 9fe7 293d d071 89be
00000020: 6a4d 883e 44c7 40be 178b 8b3e 996b cabd
00000030: 2ebd 35be 9210 31bd 07d0 6cbe 90f5 9b3d
00000040: 7d66 0ebe 2ae8 06be 6667 843e 4ac0 b83e
00000050: 10b5 5c3e 4052 023e 1b59 253d 202e 143d
00000060: 9da9 883d ece9 d2bd a6f5 313e 6cce 73be
00000070: 039e fbbd 574d 303e ae4d 03be 5e04 07be
00000080: a631 7dbe 1744 f2be f30c 593e 45cc 313e
00000090: afd8 f2be 6a99 c0be f693 563e ee12 3e3e
000000a0: 8a6c ae3d 4ef7 bb3d cde8 dabe 810a 353e
000000b0: 5af0 983e 9a76 c33d 169b 8fbe c5c2 45bd
000000c0: 18de 9fbe c93e ce3e 7c7c 9ebe 9d38 a63e
000000d0: addd 963d 29c8 9d3d 91ca e0be 0044 8cbd
000000e0: bd2d 9b3e 8fdb 8e3e 8f98 46be aa4f b0be
000000f0: 1371 7e3d f6db 4d3e 9b6c a43d 6147 593c
00000100: 8c7b 113e 33a1 aa3d beeb df3d be90 0fbc
00000110: bf6e 59bc bf9f 3fbe ab0f 473d bd69 8e3d
00000120: 6a42 763e 07c1 dfbd 74e8 1bbe d40d 8c3e
00000130: dacb 8e3e 2cbe 81bd 0681 52be 2f3c aa3c
00000140: e9a8 e8bd 4376 283e 04dd 473e 1182 9d3e
00000150: 740e 233d 628b ff3d 4502 143f 24da 78be
00000160: 995c 123d 8fd5 ea3d a878 a13d 4260 873e
00000170: b1d5 bcbc 65c1 92bd 7363 393e 8177 163d
00000180: 42c4 603d ee84 af3c 1043 e33d 125f a8be
00000190: da8b e0bd 5d07 ac3d 2efd 943e 57c5 a13e
000001a0: 7c35 0b3e a938 d1bc cfb2 c73d 40d1 0c3f
000001b0: 4c86 10bc 6dc1 043e 0186 e8bd 5922 05bf
000001c0: 420e e1bd 01ca e03d 9c4c c8bd 345c f33c
000001d0: 6f36 a53d 24f7 76be 81ed f23e 73da 7b3d
000001e0: 9e59 30bd afca 5a3e e4ea 5c3e f8cc fabd
000001f0: 67c4 043e 899f 49be 440a 2b3e 4041 bdbe
00000200: e175 f53e 2e77 25bd 5682 4b3e 4937 17bd
00000210: caac 413e 2294 5a3b 36a6 02be 6a11 6e3e
00000220: 86e6 b9bc 8cc9 94be 3684 80bd aa01 b63d
00000230: f4a7 3abe 00ae c1be d7a9 e1be c370 87bd
00000240: 03fa 2d3e c98d ad3d 85dc a13e 690a fb3e
00000250: 2e5a a23e eb84 3ebe 9440 963e bdbd 33be
00000260: b49d 513e 0c89 a2bc 55be 2ebe 32b6 a1be
00000270: 3af7 63be 8935 2dbe 51b7 983e 2176 cf3d
00000280: bca8 a43e 2704 dfbd 7754 2a3e c358 a83e
00000290: e292 993d 6f44 843d 0244 acbd 4c6d 7e3d
000002a0: 8d29 423e ab59 703d b0b0 dd3a cc4a 82bd
000002b0: eee6 a5be 6047 dd3d b554 1fbe d6fe 263e
000002c0: 597d 15bd bc0a 12be 45bd aebd 8d1a c83e
000002d0: 9b56 e3bd e4e7 fc3d 9811 5a3e a91b aebc
000002e0: c972 833e f622 833e 08be 2b3e dc82 113d
000002f0: 4279 403e bc28 af3e 799c 7dbe 3aff 483d
00000300: 8ee0 91be a6cd 8e3e 82ed 74bd c6d7 a83e
00000310: e4b5 813e b422 85bc 1c0f 58be 185a 30be
00000320: b826 d13e 6376 933e 9a92 d83d bc43 0c3e
00000330: b1b4 963e 20d5 853e 42b6 e43d ec85 f43b
00000340: 6ca4 23be b750 b3be 73be 353d 7fe5 a03d
00000350: c381 03bd 8584 4ebd 9261 aebb eb9e 413e
00000360: 0647 a13d 04b5 9f3e 5763 683d a6d2 96be
00000370: 7410 1c3d 78e5 db3d 10d7 bbbe c90f 0ebe
00000380: bc96 003e 4c1e 193d 1e83 28be b19d c9bd
00000390: b9f4 a1bd 7ee1 023e 16b9 7cbe 20af 3c3e
000003a0: 83cb 913a afb2 e1be 5efa 913e e4a8 8bbd
000003b0: 969d 9bbe 0927 0d3e fef1 123e 8033 07bd
000003c0: de04 55be bdf6 f6bc 6d8c cbbc 3613 a13e
000003d0: b51d 793e 3c78 aa3e 48aa 963d ed6e 493e
000003e0: 70bc be3c f3de 883c 09b4 993d 6080 26bd
000003f0: b7a6 0abd 6841 323e ba93 493d 1b72 0e3f
-0.05422159 -0.1641236 0.2818023 0.22158855 0.25275457 -0.1470601 0.041480657 -0.26844645
0.26621562 -0.18826014 0.27254555 -0.09883804 -0.17747948 -0.043228693 -0.23126231 0.07615197
-0.13906284 -0.13174501 0.25860137 0.36084205 0.21553445 0.12726688 0.04036818 0.0361768
0.06672976 -0.10298523 0.17378864 -0.23809212 -0.12285998 0.17217003 -0.12822601 -0.1318526
-0.2472597 -0.47317573 0.21196346 0.17363079 -0.4743094 -0.37617046 0.2095488 0.18561909
0.08516796 0.09178029 -0.42755738 0.17679788 0.29870874 0.09544106 -0.2804801 -0.04828145
-0.31224132 0.40282276 -0.3095435 0.32465068 0.073665 0.07704193 -0.43904546 -0.068489075
0.30308333 0.27901885 -0.19394134 -0.3443578 0.062119555 0.2010344 0.08028527 0.013261647
0.14207286 0.083315276 0.10933636 -0.008762537 -0.013271033 -0.18713282 0.048598927 0.06953762
0.24048772 -0.10925489 -0.15225393 0.273543 0.278899 -0.063351005 -0.20557031 0.02078065
-0.11360342 0.16451363 0.19517905 0.30763295 0.039808705 0.12477757 0.57815963 -0.24301964
0.03573284 0.11466514 0.078843415 0.26440626 -0.023051115 -0.07165793 0.18104343 0.03673506
0.054874666 0.02142569 0.110967755 -0.32885033 -0.109641746 0.08399842 0.2909941 0.3159587
0.13594621 -0.025539713 0.09750902 0.5500679 -0.008821081 0.12964411 -0.11353684 -0.52005535
-0.109890476 0.10976029 -0.09780237 0.029707052 0.08067023 -0.24117714 0.47446826 0.061487626
-0.043054216 0.2136638 0.21573979 -0.12246126 0.12965547 -0.19689764 0.16703135 -0.36963844
0.47941497 -0.04039686 0.19873938 -0.03691796 0.1891357 0.0033352454 -0.12758717 0.2324883
-0.02269293 -0.29060018 -0.06275217 0.08887036 -0.18228132 -0.37828064 -0.4407489 -0.066133045
0.16989903 0.08474309 0.31613556 0.4903138 0.31709427 -0.18605392 0.29346144 -0.17552848
0.20470315 -0.01984074 -0.17064793 -0.31584316 -0.22262278 -0.16914953 0.2982736 0.10129953
0.32159984 -0.10889464 0.16633783 0.3288022 0.07498719 0.06458365 -0.08411409 0.062115952
0.18961163 0.058679264 0.0016913619 -0.063619226 -0.32402748 0.10804629 -0.15559657 0.1630815
-0.036496494 -0.14261907 -0.08532194 0.39082757 -0.11100503 0.12348917 0.21295774 -0.021253424
0.25673512 0.2561261 0.1677171 0.035525188 0.18796256 0.34210765 -0.24766721 0.049071528
-0.28491634 0.27891272 -0.059796818 0.32977122 0.25334084 -0.0162519 -0.21099514 -0.17221868
0.40849853 0.2880126 0.10574837 0.13697714 0.29434732 0.26139164 0.111675754 0.007462254
-0.1598069 -0.35022518 0.04437108 0.07856273 -0.032106172 -0.05041935 -0.00532169 0.18908279
0.07874875 0.3119279 0.056735363 -0.29457587 0.03810163 0.10737127 -0.36687517 -0.13873209
0.125575 0.03738241 -0.16456267 -0.098445304 -0.07908005 0.12781331 -0.2467998 0.1842618
0.0011123273 -0.44081637 0.28511328 -0.06819323 -0.30393666 0.13784422 0.14350125 -0.0330081
-0.20802638 -0.03014695 -0.024847234 0.3145997 0.24327739 0.33294857 0.07356697 0.19671221
0.023283213 0.016707873 0.07505042 -0.04064977 -0.033850398 0.17407763 0.04921315 0.5564286

weight_hh_l0 f4 [512, 128]
00000000: 7dbe c63b e2ea c2be e20e 59be 1811 1fbe
00000010: 0664 c33e 9d8f be3d fe24 ee3e 9430 ad3e
00000020: 21fb 50be f431 bdbd 0295 a93e 460f 8ebe
00000030: dc2d 1abe d20c 22be b1c7 08bf 071d fe3e
00000040: 3381 953e 0b95 0bbe bada c13e e3ec 793e
00000050: 6717 c2bd a7e7 043f 288a 89bd a5a1 debd
00000060: 5b7e e63e ec94 be3a 1220 acbe 6ed9 e7be
00000070: 0cd5 dfbd c451 82bc 6a9f 28be 5a2a e63e
00000080: 6b5f 373c 4845 d6bd 6d10 19bd 342a 7b3d
00000090: 761a 443e 9ade 92be 23a6 9e3e 61c5 ddbc
000000a0: c668 6cbe 2003 9fbd ed73 2bbf 9e85 953e
000000b0: 46d9 80be de50 ffbe fedd b03e dd80 70be
000000c0: a709 f0be 5e4e 9f3e 55f3 fe3d 2c79 d03e
000000d0: 63c0 173e 558e 6dbf 4c0e a3be e9cb a73d
000000e0: 8881 893e 6f12 4c3e 36a5 263f 1935 35be
000000f0: ac53 e6bd dfe0 80be 4756 50bd f950 16bd
00000100: e8cd 84be 9a4e 22bf 7118 0bbf fc04 263e
00000110: de96 003f 04be 313f 95cb 5a3e af83 8dbe
00000120: b058 73be 3733 d4be 874e 2ebe 5d37 963d
00000130: c00d c63c 4247 5ebe a927 24bf f56e 67be
00000140: 0361 febe f342 b63e 2c4d 5cbe 0c72 8fbe
00000150: 9089 52be 7b5b 05be f0f6 713c 9eb0 b1bd
00000160: c0ef 5d3e dc44 5d3d 344b 78be 282d 353f
00000170: a0c0 81bd d058 adbe 551d 86be 430a 0c3f
00000180: 63e7 76be bd4e ba3d 2e3a 69be 422a ddbe
00000190: e537 d53d 1c05 663c 0f81 2dbe 4eb5 8d3e
000001a0: de82 993e fcd7 7c3c aef8 b43e 8de8 bc3e
000001b0: 40d7 283f b7dc d5bd f0c2 8ebe f91d 42bc
000001c0: 7ed3 253f 483a e3be 6601 a3be 200f a7bd
000001d0: be4c 203e 55ae 16be f1ff 6ebe 43f3 8dbe
000001e0: 1385 fb3e 9e07 a6be 8a2f 423f b993 c43b
000001f0: 0e05 1cbf b5e5 7fbe 1b47 833e f780 d03e
00000200: b485 67be 7285 823e 8ff6 ac3e 559b d43e
00000210: a575 803d 11f4 ef3d 6aa9 143f f622 d73e
00000220: 7dbc 373f b8b3 913e f5c3 b2bd 6199 b6bc
00000230: 037e 993d 939e ff3c 47a7 4e3e e5d5 0cbd
00000240: de4c 263c 2f09 283f 96e1 6e3e b9fd 883e
00000250: b333 323f 3877 203e 8a55 2fbe 05b0 0d3e
00000260: f000 40be 3cf7 d43d 8d87 b9be 0607 db3e
00000270: 78c6 983e 1fb1 003e d586 2bbf cb78 403e
00000280: b437 db3c b509 5e3d 29f9 ac3d d6f9 473f
00000290: a9d8 013f 9a0a ff3e 9a56 5f3e bc96 c5be
000002a0: ee08 4d3e 302d 77bf a195 0d3f c01d 0e3e
000002b0: 802b 3bbf f631 733e c775 833e ac0b e0be
000002c0: 6f57 45bf d8c4 1dbe cf2d 043e 4d0e c33e
000002d0: 85b0 4fbf fdea 0d3e d410 253f 3867 2fbd
000002e0: 091b 9bbe bb49 593e c259 02bd 73fd edbe
000002f0: 4b05 053b 5d7e e7be b083 35bf 3013 ee3c
00000300: a2f6 52bf fcb6 2a3f 08b5 343e 5f95 b5bd
00000310: 0fd9 5ebe efb9 b7be 5773 bf3b 8a40 84bc
00000320: 8063 ec3e bdc9 f6bd 60d1 593e 8ed2 76be
00000330: 83c2 12bf d427 c8be b7a1 68bd 4038 87bd
00000340: b82b 103e c6f8 173e 5191 d2bc fd95 61ba
00000350: 30c6 7abc 8b6b 44be af02 1a3e 3563 403f
00000360: ed03 2c3e 7e56 3a3f 1be6 e93e f3c2 73be
00000370: f90e 70be 61f3 adbd d813 3c3d 8eeb 36be
00000380: 8dfb f3bd d663 893e dc0b fabc dbac 11be
00000390: 1d72 543f 789c 413f 50e0 0bbf 9e24 1f3e
000003a0: 4487 80bc f686 083d e37c 443f 7ea1 febd
000003b0: 370a 973e a38a 403f f7ea b33c e4c9 edbe
000003c0: 4e51 88be d8cf 53bf 75f8 83be e1d6 acbe
000003d0: af02 67bd b558 103e 8c1e d43d 3ebd babe
000003e0: be31 a7be 5f6b 9b3d 5922 fcbe d472 163e
000003f0: e5e1 4a3e 0e1e aebe 3fec e9bc 58cc d3bd
0.0060651884 -0.38069826 -0.21197084 -0.15533864 0.3816225 0.09304736 0.46512598 0.33826125
-0.20408298 -0.092380434 0.33121496 -0.27746028 -0.15056556 -0.15825203 -0.53429705 0.4963152
0.29200134 -0.13631074 0.37862188 0.24406771 -0.0947712 0.51915973 -0.06715804 -0.10870675
0.45018277 0.0014540232 -0.33618218 -0.45283073 -0.10929307 -0.01590813 -0.16467062 0.44954187
0.011192183 -0.10462433 -0.03736918 0.061319545 0.19150719 -0.28685457 0.30986127 -0.027071657
-0.23086843 -0.07764268 -0.66973764 0.29203504 -0.25165766 -0.49866384 0.34544367 -0.23486657
-0.46882364 0.31114477 0.12448756 0.40717447 0.14819483 -0.92795306 -0.31846845 0.0819319
0.26856637 0.19928907 0.6509584 -0.17696036 -0.11246428 -0.25171563 -0.05086353 -0.036698315
-0.25938344 -0.63401186 -0.5433417 0.16212839 0.50230205 0.69430566 0.21366723 -0.2763953
-0.237643 -0.41445324 -0.17022143 0.073347785 0.024176478 -0.2170687 -0.64123017 -0.2260092
-0.4968339 0.35597953 -0.21513814 -0.28016698 -0.20560288 -0.13023178 0.014768347 -0.08676265
0.21673489 0.054020748 -0.24247438 0.7077203 -0.063355684 -0.3385682 -0.26194254 0.5470316
-0.24111705 0.090970494 -0.227761 -0.43196303 0.10411052 0.014039304 -0.16943763 0.27677387
0.29982656 0.015432354 0.35345978 0.36896172 0.65953445 -0.10442489 -0.278831 -0.011847966
0.64775836 -0.44380403 -0.31837004 -0.08157182 0.15654275 -0.1471494 -0.23339821 -0.27724656
0.49124965 -0.32427686 0.7585379 0.005999055 -0.6094521 -0.2498997 0.25640187 0.40723392
-0.22609597 0.25492436 0.3378186 0.4152476 0.06272439 0.11716474 0.58071005 0.4201886
0.71771985 0.28457427 -0.08728782 -0.022289934 0.07494738 0.031203544 0.20180999 -0.034383673
0.0101501625 0.65639013 0.23328242 0.26756075 0.69610137 0.15670478 -0.17122474 0.13836677
-0.18750358 0.10398719 -0.3623623 0.42778796 0.2983892 0.12567566 -0.6700261 0.18796079
0.02675996 0.054208476 0.08445961 0.78115594 0.5072122 0.49812776 0.2181038 -0.38591564
0.20022938 -0.96553326 0.5530644 0.13878536 -0.7311325 0.23749527 0.25675794 -0.43758905
-0.7708654 -0.15407121 0.129081 0.38096848 -0.8112872 0.13859172 0.644788 -0.042823046
-0.30294064 0.21219532 -0.03182388 -0.4648243 0.0020297344 -0.45213595 -0.70904064 0.029061884
-0.8240758 0.6668546 0.17647183 -0.08866381 -0.21762489 -0.35884044 0.005842607 -0.016144056
0.46169662 -0.12050197 0.21271276 -0.24103758 -0.5732805 -0.39092886 -0.05679485 -0.06602526
0.14079177 0.14840993 -0.025704058 -0.0008605419 -0.015306041 -0.1918165 0.15040086 0.7515138
0.16798373 0.72788227 0.4568337 -0.23804836 -0.23443212 -0.084936865 0.045917362 -0.17863294
-0.11913214 0.2683398 -0.030523233 -0.14226095 0.82986623 0.7562938 -0.5463915 0.15541312
-0.0156895 0.033331834 0.7675306 -0.12433146 0.2949998 0.7521154 0.021962626 -0.46443093
-0.2662453 -0.8273902 -0.25775495 -0.3375769 -0.056399044 0.14096339 0.10357389 -0.36472505
-0.32655138 0.07588839 -0.49244955 0.14692241 0.19812734 -0.34007305 -0.028555034 -0.1034171

bias_ih_l0 f4 [512]
00000000: 3bdf b93d 999d 763e f30d ca3d 7d49 d23d
00000010: 5f1a 693e bdf5 c63e b0eb 963d 901c 6a3e
00000020: 413e 683e ab38 0a3e 81c7 513e 0f52 813d
00000030: 6adf 393e d453 9e3e 23a5 c43e bad2 0a3d
00000040: 872a c93e 67eb a73e d084 883e 7e79 0a3e
00000050: b797 f13d 40b4 533e 2d6e 9d3e 2359 2b3e
00000060: feee 9f3e ec4f 5e3e 89c9 d03d 0e88 853e
00000070: e35f 3c3e 40bb 173e 750b 0c3e 1e9a 77bd
00000080: 06a4 8c3e 7a65 673e 516d 313e 24eb 2e3e
00000090: deb5 b33e 158e 673e 8c09 aebb e66b 46bb
000000a0: 223a 873e 3620 84bc 25c1 8e3d 3e2e 103d
000000b0: 0d4e 663e f6fe 463e 18da af3e 6ab4 d03c
000000c0: 9537 6d3e 33c9 0d3e 1486 6a3e 90d2 9f3e
000000d0: d566 1c3e 827e 803e a2eb 3a3e ec8f 4a3e
000000e0: ba20 2c3e bd0b 2a3e 1d58 9d3e c26f 283e
000000f0: 82bd fb3d 6448 083e 573e 2c3e b070 0f3e
00000100: 9139 993e 6f18 c9bc 2700 743d 7357 1e3e
00000110: bacb a03e 170c 193e 8926 eb3d d39a 323e
00000120: 7397 6d3e 0dec 583e 19ad 7a3e d0ce 1c3e
00000130: a036 8a3d 8835 cf3d 9593 863d 5a09 8a3d
00000140: c496 573e 5093 3d3e dff1 853e ac4d 843e
00000150: dfb7 873d bc40 1b3e ff6f 1c3e 48c5 c13d
00000160: 24e3 983c 1dae a73c 7877 ab3d b1d6 913e
00000170: 754e 843e 4f70 a43e ba12 a9bc 1bb8 043c
00000180: e8f4 473e 738d 273e 4a3b aa3b 6a66 813e
00000190: a346 833e a909 3d3e 7c01 593e 4619 043e
000001a0: d9de a3bb 954d 083d 6df5 623e 4d8a ae3d
000001b0: b45a 5d3e 30de 103e 06d7 7d3e 11cc 1b3e
000001c0: 097a 3f3e 4475 3c3e 36cf 493e d719 773e
000001d0: 6d8c 833e 3def 153e 9910 233e dab8 843e
000001e0: 4096 563e fb15 bf3d 5a56 f73d 633b 343e
000001f0: 6591 55bc ce29 223e ac85 863e 2a42 353e
00000200: 3daa 103e 4f01 18bd b24d d2bd 1c4a b5bc
00000210: b008 c1bc e8c0 663e 5242 64be 920d efbd
00000220: a152 243e 3912 e53b b524 ccbd a602 863d
00000230: 47ea 36bd 6c81 c13d a897 a2bd a540 bc3d
00000240: f59e 9f3d 1dac 8ebd 1306 17bc 70f9 233d
00000250: cb1d af3d 1776 0abe b8dd 433d 5d84 073c
00000260: 1cca 073d 8e59 5ebd 2a59 e7bd 8622 3abe
00000270: 549f 093e a2f2 d0bb 1e43 23be 8c11 e53c
00000280: 2e3f cabc 2447 073d 7985 bdbb 21eb 893d
00000290: 7d14 6b3c acf5 64bd 4b79 85bd 43c1 0fbe
000002a0: 6431 24be 2700 bd3d e021 643d ade7 15bb
000002b0: 0f17 343e f36b 14be cde0 a63b f55e 9dbc
000002c0: 7056 14be 15ef 05bd d83d 173e 5443 d1bb
000002d0: 5fcc 99bd ce6a 433e 9ff6 b9bd 273a b4bd
000002e0: 3050 ae3d 2229 8fbd 69ea c43d 34a6 8f3e
000002f0: f27c 113d f9b5 25bc 05d0 c83c 6a22 0f3d
00000300: 4070 20be 52e8 0a3e 74e3 a7bc 9446 6cbe
00000310: 9156 9fbc 070f 12be 7435 7e3d 832b 4dbc
00000320: 83ff fe3b 8d1a 6f3c f7b3 fd3c f896 b83b
00000330: 4d3a a5bc 853f 7cbc 27d1 80bd 949d 23bc
00000340: 9995 503d dfdc 78bd 251e 03bd 257a 893c
00000350: c9f5 4fbd b4d5 e53c c56d 363e f51d 6cbe
00000360: 5d9e fb3d 7d7c 58bd 11ce b63d 1c36 32be
00000370: f338 c9bc 817c 24be 0941 f0bd eadf 933d
00000380: 1750 22bd e33e 7b3e ac47 03be 2407 efbc
00000390: 378b 2e3e f709 cc3c 7517 213e 4d85 d73d
000003a0: 36e3 85bd e2a3 6bbc 9b0c 663e 12da 773d
000003b0: a524 1fbe 6db2 403e 86da 42be f9c6 c93d
000003c0: 4ea2 0fbe cfb0 1abe 0348 443e 5bb0 b3bd
000003d0: 0f9b 9dbd fa2f 6b3d d3cb 1a3e 5ff6 39bd
000003e0: 0ccd 4bbd b6d6 41bc 54f1 2abe 78f8 07be
000003f0: dc27 18bd c597 8fbb 2bbd 9f3d 7895 c7bd
0.09075781 0.24083556 0.09865942 0.10267923 0.22763966 0.38859358 0.073691726 0.22862458
0.22679998 0.1349818 0.20486261 0.063144796 0.18151632 0.3092333 0.3840724 0.03389237
0.39290258 0.32796785 0.26663828 0.13522908 0.117965154 0.20674229 0.3074812 0.16733222
0.31237024 0.21710175 0.1019469 0.26080364 0.18395953 0.14817524 0.13676246 -0.060449712
0.2746889 0.22597304 0.17326857 0.17081887 0.3509969 0.22612794 -0.0053111967 -0.0030276715
0.2641154 -0.01612864 0.06970433 0.03520035 0.22490712 0.19433197 0.3434608 0.025476653
0.23165734 0.13846283 0.22902709 0.31215334 0.15273602 0.25096518 0.1825395 0.19781464
0.16809359 0.1660604 0.30731288 0.16448882 0.12292005 0.13308865 0.16820656 0.1400783
0.29926732 -0.024547784 0.059570458 0.15463047 0.3140543 0.14946018 0.114819594 0.17441873
0.23202305 0.21183796 0.24480094 0.15313268 0.067487 0.10117632 0.06571118 0.06740065
0.21053606 0.18513227 0.26161095 0.2584051 0.066268675 0.15161413 0.15277098 0.094614565
0.018662997 0.020468766 0.08372396 0.2848411 0.25841108 0.32116935 -0.020638812 0.008100535
0.19527018 0.16362552 0.005195056 0.25273448 0.2563983 0.18460716 0.21191972 0.12900266
-0.0050009307 0.033277113 0.22163935 0.085224725 0.21616632 0.14147258 0.24789056 0.15214564
0.18698896 0.18404108 0.19707951 0.24130951 0.25693074 0.14642043 0.159243 0.2592228
0.20955753 0.09330364 0.12077017 0.17600779 -0.013035153 0.1583626 0.2627386 0.17701021
0.14127441 -0.037110623 -0.102687255 -0.022130065 -0.023563713 0.22534525 -0.22290924 -0.1167251
0.16047145 0.0069906977 -0.09967939 0.06543474 -0.044657018 0.094485134 -0.079390824 0.091920175
0.077939905 -0.06966422 -0.009217757 0.040032804 0.085506044 -0.1352161 0.04781887 0.008271304
0.03315173 -0.054284625 -0.112963036 -0.18177232 0.13439685 -0.0063765803 -0.15943572 0.027962469
-0.02468833 0.03302683 -0.0057837334 0.067343004 0.0143481465 -0.055898353 -0.065172754 -0.14038567
-0.16034466 0.09228545 0.05569637 -0.0022873685 0.17586921 -0.14494304 0.0050927163 -0.019210318
-0.14486098 -0.03269871 0.14769685 -0.0063862 -0.07509684 0.19083712 -0.09080242 -0.08800154
0.08511388 -0.06990267 0.09615023 0.2805649 0.035519548 -0.010114186 0.024513254 0.03494493
-0.1566782 0.13565186 -0.0204942 -0.23073798 -0.019450458 -0.14263545 0.062062696 -0.012522581
0.007781924 0.014593733 0.030969603 0.0056332313 -0.020169402 -0.015396004 -0.06289893 -0.0099863
0.050923917 -0.060757514 -0.03201117 0.016781876 -0.05077151 0.028056003 0.17815311 -0.23058303
0.12286065 -0.052853096 0.08926023 -0.17403454 -0.024563288 -0.1606312 -0.117311545 0.072204426
-0.03962716 0.24535708 -0.1282031 -0.02917821 0.17045294 0.024907095 0.15731604 0.10523472
-0.06537478 -0.014382334 0.22465746 0.060510702 -0.15541323 0.18818064 -0.19028673 0.09852404
-0.14026758 -0.1510651 0.19168095 -0.087738715 -0.07695591 0.0574188 0.15116815 -0.045400973
-0.049756095 -0.011830976 -0.16693622 -0.13278377 -0.037147388 -0.004382106 0.07799753 -0.09745306

bias_hh_l0 f4 [512]
00000000: 58f1 303e 9ab8 323e 541a e53d a501 5f3d
00000010: a986 9b3e 9d44 933e ec98 643d fb62 b53e
00000020: cbcc 303e 9d92 6b3d 70ef 3f3e 1144 f7bc
00000030: edaf 223e 4bc0 993e e6b0 b23e ce39 683d
00000040: dc27 993e 2ecb 753e d19a 5a3e 26c2 183e
00000050: 2d90 343e 3974 7e3e 118d c43e 0338 5a3e
00000060: a506 593e 56fb 823e 6b82 e73c 8048 ab3e
00000070: b413 8d3d c656 913d 7f10 0a3e b981 5ab9
00000080: dfa7 313e 98c8 a43e 1ce5 cc3d faa6 6b3e
00000090: 5473 843e f88f f33d 6ffe ca3d 1aca 263e
000000a0: 829f ab3e 0293 e83d ddaa 943d 5001 0d3e
000000b0: 0705 503e ea1e 843d 50ef a53e ee0c ce3c
000000c0: 29d1 913e a162 383d e78a 2a3e 6257 583e
000000d0: d7fa a63d 23c2 ab3d 290f 873e ad02 923e
000000e0: 68bd ac3d d15a ad3d 695e 9e3e 5a44 af3d
000000f0: 2380 0f3e 7177 183e 7d99 c23d 7da2 823d
00000100: f570 a23e 5021 b43c 8e14 313e c29a 703e
00000110: 4b28 a03e 3eec 113e 1365 1a3e 7fc7 083e
00000120: a382 d83d d4e1 3f3e 87d2 8b3e 03c3 af3d
00000130: 8f27 cf3d 7c98 413e 8041 693d 9a9d d23d
00000140: 878f cf3d 465c 1b3e 0c1b 9f3e 899a 623e
00000150: 05a5 c33d 25a1 723e 2792 533e 53d8 323e
00000160: f73b 76bb b405 bc3d 807c c63c 3a86 913e
00000170: 8fec 1f3e 2cc9 be3e 8331 1c3d c2b4 073e
00000180: 5b76 a93e df88 2a3e 7bf1 123d 85fa 1c3e
00000190: eb2d eb3d 8afe d73d 9eed 0e3e a758 f73d
000001a0: 82e4 483d 616a a43d 5487 343e 59ab 773e
000001b0: 9874 163e a934 323e 4102 773e b303 923e
000001c0: 86cc 073e 0da9 893d 848b 513e de45 873e
000001d0: 7ff3 a03e b80e 7d3e 69a5 933b c84a 133e
000001e0: b590 b93d ecb5 9a3d 9838 0fbb ca1e 4d3e
000001f0: 801f 9fbc 49de 1d3e 7487 653e ba63 f23d
00000200: a7d3 793c 0257 e7bd 5c1c 16be 6f22 01bc
00000210: 9c6b 1f3d 78de 293e 2ef8 3ebe fe6a 3dbe
00000220: 2965 203e 6baf 863d ecca 3c3d dc91 7a3d
00000230: 23e1 d8bd 46fe 213d d271 32be b105 82bc
00000240: 0937 1c3e 9b8a 16be f0fe 053d 72a1 6b3d
00000250: 61bb c93c 060c 41be 1ada 333d 0372 c9bd
00000260: 3b11 a83b dfe1 07be 15db 5fbd dd64 e3bd
00000270: bff0 083d 3f0f 9b3d e5d0 40be 5853 943c
00000280: 8737 4fbd 56fb a83d d2e4 2c3b 0688 d63d
00000290: 2745 f53c b8c0 36bd 50cc 67be 53cc 83bd
000002a0: b03d dbbd 1486 06bd 5f1a 223e 708d 613d
000002b0: d51c 8b3d f4f8 19be a71b a8bd 422b 923d
000002c0: 9934 20be eb38 293d e8f3 9f3d 2287 e63c
000002d0: 7cc6 c8bd 2728 313e e85f 243d 4a7d 5abe
000002e0: 288c 673d fde7 0fbd 285b 3b3e 7587 533e
000002f0: c43e 9d3d e0a7 04be cc29 e03d 211d 6fbd
00000300: 5531 0bbe d8b7 9e3d c656 c2bd 7833 20be
00000310: 88da 08bd be9a 01bd 8785 ee3d 752d 69bd
00000320: 986d 883d e2c0 f63d a1a4 e5bd 2729 ee3d
00000330: bb11 91bb 6fd1 bcbd d7aa 2dbe a252 023e
00000340: dd6b e03d 5db2 26bc 6b0d c6bd 62d0 843c
00000350: 5dbc fb3a b481 17bd 4e86 2c3e 78ba 49be
00000360: dda2 bb3d 93b4 b1bc 5319 a1bd 4083 38be
00000370: 63f3 69bd 6197 1cbe 6ecc 15be 78e4 fe3c
00000380: d59c 933b 3a88 113e 32b5 4cbe 4257 3d3c
00000390: 6475 683e 5e43 f13d 5deb 413d ed88 31bd
000003a0: ae19 27be 200d bfbc baa7 6c3e 86b0 103e
000003b0: 1c12 06be 1291 9d3c 4d7c 08be d523 2f3d
000003c0: 7858 02be 1898 24be 701f 2b3e abe4 18bd
000003d0: a657 85bc 3e1f f83c 0851 c23d b22a 173d
000003e0: 071a 96bd 2877 53bd 303a 9ebd 8d04 b2bd
000003f0: 987d d1bc cb7f cfbc 0df9 0c3d 1762 53be
0.17279565 0.17453232 0.11186662 0.054444928 0.30376175 0.28763285 0.0558099 0.3542708
0.17265622 0.05751287 0.18743682 -0.030183824 0.15887423 0.3002952 0.34900588 0.05669575
0.29913223 0.24003288 0.2134812 0.14917812 0.17633124 0.24849023 0.38388875 0.2131043
0.21193941 0.2558238 0.02826043 0.3345375 0.06888524 0.07096629 0.13482855 -0.00020838426
0.17349194 0.3218429 0.10004637 0.23012915 0.25869238 0.11892694 0.099118106 0.16288033
0.33520132 0.113561645 0.07259152 0.13770032 0.20314418 0.06451209 0.32409143 0.02515265
0.2847989 0.045015935 0.1665455 0.21127084 0.08153313 0.08386638 0.26378754 0.28517666
0.08434564 0.084645875 0.30931404 0.08557959 0.14013724 0.14889313 0.09501932 0.063786484
0.31726804 0.02198854 0.17292997 0.23496535 0.3128074 0.14250275 0.15077619 0.13357352
0.10571792 0.1873849 0.27309057 0.085821174 0.10114967 0.18905824 0.05694723 0.10283966
0.101347975 0.15171918 0.31075323 0.22129263 0.09552959 0.23694284 0.20661221 0.17465334
-0.0037572363 0.09180775 0.024229288 0.2842272 0.15617584 0.37262857 0.038133156 0.13252547
0.3309811 0.16653775 0.035874825 0.1532994 0.114833675 0.10546596 0.13957831 0.12077456
0.049046047 0.08028103 0.17629749 0.24186458 0.14692914 0.17402901 0.24121954 0.28518447
0.13261613 0.06721697 0.20463377 0.26420492 0.31435773 0.24712646 0.0045058024 0.14383996
0.09060804 0.0755423 -0.00218538 0.20031276 -0.0194242 0.15416826 0.22414953 0.118354276
0.015248216 -0.11295892 -0.14659256 -0.007881745 0.038920984 0.16588771 -0.1864936 -0.18497846
0.1566359 0.06576427 0.04609196 0.06117426 -0.105898164 0.039549135 -0.17426232 -0.015871854
0.15255369 -0.14701311 0.03271383 0.057527013 0.024625482 -0.18852243 0.04390917 -0.09836199
0.005129007 -0.13269757 -0.054652292 -0.111032225 0.03343272 0.07571267 -0.18829687 0.018106148
-0.050590064 0.082510635 0.0026381505 0.10475163 0.029940201 -0.044617385 -0.22636533 -0.06435456
-0.10705125 -0.03284271 0.15830372 0.055066526 0.06792609 -0.15036374 -0.08208399 0.07137157
-0.15645064 0.041314047 0.07810193 0.028140608 -0.09803483 0.17300473 0.040130526 -0.21336856
0.056530148 -0.03513335 0.18296492 0.20657142 0.07677987 -0.12954664 0.10945472 -0.05837739
-0.13593037 0.07749909 -0.09489207 -0.15644634 -0.033411533 -0.031641714 0.11646562 -0.056928117
0.06661528 0.12048508 -0.11213041 0.11628943 -0.0044271625 -0.09219634 -0.16959701 0.12726834
0.10958073 -0.010174361 -0.09670528 0.016212646 0.0019205917 -0.03698893 0.16848108 -0.19700038
0.09161923 -0.02169255 -0.07866158 -0.18018818 -0.057116877 -0.15292121 -0.14628765 0.031114802
0.00450478 0.14212123 -0.19990996 0.011556448 0.22701031 0.117804274 0.0473436 -0.043343473
-0.1631839 -0.023321688 0.23110858 0.14129838 -0.13092846 0.019234214 -0.13328667 0.04275878
-0.1272906 -0.16073644 0.16711211 -0.03732745 -0.016277146 0.030288335 0.09488112 0.03690595
-0.07329183 -0.051627308 -0.07725942 -0.08692274 -0.025572583 -0.025329491 0.0344172 -0.20642887

weight f4 [29, 128]
00000000: 046d 55be 9133 203e cf16 82bd 3c9e 06be
00000010: d2e9 3e3c e344 0b3d d8bd 083d ca85 bcbd
00000020: 7298 4a3d fa57 31bd dbab aa3d e33b ebbd
00000030: 1332 ac3d 93a9 32bc 28d2 7a3d 2b16 febd
00000040: 9a9f 9d3d 190f 2f3e 0737 193c aa5c 893e
00000050: b017 273e db40 2a3e 6acc 00be 7ba3 7d3d
00000060: 2f8a 59bd f101 64be 3586 40be 50b2 92bd
00000070: f61a 46bd 34ec 583d b9ef c5bd 7109 3cbd
00000080: 92e6 06be be7c 82bd 930c a43c 69f6 793d
00000090: 1106 113e e823 b5bb 8e93 61be ea12 3b3e
000000a0: 974a 2c3e 0253 1c3e 83d6 343d 1d7f 0c3e
000000b0: 9249 07be 42da 41bd 7f5d ce3d 9ec3 02be
000000c0: 66c8 fdbd 16f5 603d 810a ab3d 334a 373e
000000d0: f5a7 d83d ac26 babd ecd4 093e 6c70 803e
000000e0: 4950 9bbc 49df 1abe 0c18 b4bd d4ac 8dbd
000000f0: 9424 65bd ca63 90be 849b d5bd 190f 2d3e
00000100: 6e93 70be 5561 c33d 6852 c1bd 50d0 603e
00000110: 2b80 943d fc7b 813e 0546 1c3e e5ac 1fbe
00000120: 4295 a5bc 2317 c0bd 9668 79be effe 3fbd
00000130: f277 19be 0186 1ebe 6fda 57be 443d 4c3e
00000140: 2419 62be 9f66 943d d08e 83bd aff2 9ebd
00000150: 153a fc3e 26b1 c1bd d58b e63d 7130 853e
00000160: 97aa 553e b3ea a23e 5b22 583e 919d 993e
00000170: 2ec9 093e 0056 1dbe 945e e3bd e913 2a3e
00000180: dba0 033e 0071 0c3e bc2b e6be 2ee9 2ebe
00000190: 2e29 923d c5d8 163e a7c0 9fbd 8c83 363d
000001a0: e7db 293e 37f0 f73d 7464 f93d dfe1 1e3d
000001b0: ee2e 4e3e 242e cd3d 558a 013e 059b 18be
000001c0: 398a 6b3e 295d 893d 909e fcbd 4cbc c93b
000001d0: d108 553e 8126 9b3e f385 9bbd 92f0 e0bc
000001e0: 6873 263e 8b11 94bd 487d 433e 4a8a 203e
000001f0: a91c 153d 39bd c5be 504b 143d 3c3a 77be
00000200: e1f1 96bd d8af 143e 9beb 20be fb90 943d
00000210: 0a0d 0ebc 0709 f23c 0812 983d 8ddd a63d
00000220: f4e6 6ebd e179 a93d 6699 bc3d ff18 ab3e
00000230: 649a d5bd ac92 60bc 9879 1ebd 6397 b73e
00000240: 48cb 433e bab6 afbe 8d07 a43c 269f babd
00000250: 34bb cbbe f2af 4f3e 3e66 02bd e736 d63c
00000260: d4f6 16bd 0fc0 9e3d 6349 953e d70c 693e
00000270: 6810 21bd 974e 873d f48b 85bd 3b7d b2bd
00000280: ac77 d03e 7750 b9b8 6da6 17bd e553 5abd
00000290: 370d debd 7579 9b3c d04d 423e c06d 243e
000002a0: 1f5e b2bd e597 0dbd 31d3 1f3e c7af bb3d
000002b0: 199d 393f 4ec0 8e3c 74b4 8a3c d8e6 373c
000002c0: a52b 7dbe 9ba6 18be 7a24 07be 7291 603e
000002d0: 7a1b f8be 5a4e 083f 2c5f 1cbe 00aa 6fbe
000002e0: d2fc 82bd 1536 893e 8b66 3ebd af18 8abd
000002f0: 35b6 293e 3f78 233f c2aa 1fbe eefe 423d
00000300: a66e 35be d89c 633d 309b 103d 4bc2 dbbd
00000310: 86b1 bf3d f4fb 7c3e 2171 1f3c 2413 463e
00000320: 6087 733d 38cd 4ebd c663 05bd 6b81 b5bd
00000330: a342 9c3d e9c3 fabd 4edb 6c3e 1ad3 dd3b
00000340: 243b 2c3f 457d 7e3d 3bea 8c3b 1e47 adbd
00000350: 2625 0fbe 8cc0 c3bd a26c e93d 934b a1be
00000360: 6f47 7dbc 4e0f ca3d 787f 03bd 6207 653e
00000370: bde0 063d de01 48be de73 0cbe fafa 83be
00000380: 74f7 80bd d054 8f3d 7ea9 5d3c 45dc ec3e
00000390: 3b08 91bd f258 353e 4c72 1a3e fbe3 b33d
000003a0: ad27 373d 193a b03a dd06 bebc ea00 9c3d
000003b0: dea1 493e 203f 0abe 5757 5abe 0c62 863d
000003c0: 2627 063e ba56 2cbe b51a 943c 1bc6 18bd
000003d0: 3a8c 763d 2c2f b5be 6bef 8bbc 6415 973c
000003e0: 0d8b a2be dfee 1bbd 7abe 823d 3245 543e
000003f0: cffa 99be 2ac9 ca3d ff62 9abc 1acd a33d
-0.20842367 0.15644671 -0.06352007 -0.13146299 0.011652427 0.034001242 0.033384174 -0.09205206
0.04946179 -0.04329679 0.0833356 -0.11486032 0.084079884 -0.010904687 0.061235577 -0.12406572
0.07696457 0.17095603 0.009351498 0.2682851 0.1631763 0.16626303 -0.12577978 0.061923485
-0.053110298 -0.22266366 -0.18801196 -0.07162917 -0.048365556 0.052959636 -0.09664864 -0.04590744
-0.13173893 -0.06371449 0.020025527 0.06102601 0.1416247 -0.005527962 -0.22028944 0.18268934
0.16825329 0.1526604 0.044149887 0.13720365 -0.13211659 -0.047327287 0.10076427 -0.12769935
-0.123917386 0.054921232 0.08351613 0.17899399 0.1057891 -0.09089407 0.1346013 0.2508577
-0.018959181 -0.15124239 -0.08793649 -0.0691773 -0.055943087 -0.28201133 -0.10430053 0.1690029
-0.2349374 0.09540049 -0.09439546 0.21954465 0.072510086 0.25289905 0.15261085 -0.15593298
-0.020212773 -0.09379413 -0.24356303 -0.046873983 -0.14987162 -0.15480806 -0.2107942 0.19945246
-0.22079903 0.07246136 -0.06423724 -0.07761132 0.49263063 -0.094576165 0.112571396 0.2601352
0.20865856 0.31819686 0.21106856 0.30003026 0.1345565 -0.15364838 -0.11102024 0.16609158
0.1285433 0.13714981 -0.44955242 -0.17081138 0.07136761 0.14731129 -0.078004174 0.044559047
0.16587792 0.12106364 0.12177363 0.038789626 0.2013509 0.10018566 0.12650426 -0.14902885
0.23001947 0.06707222 -0.12334931 0.00615648 0.20804144 0.30302814 -0.07593908 -0.027458463
0.16254961 -0.072299086 0.1909076 0.15677753 0.036404286 -0.38620928 0.036204636 -0.24143308
-0.073703535 0.14520204 -0.15714876 0.07254215 -0.008670101 0.02954532 0.07425314 0.08147726
-0.058325723 0.082752 0.09208946 0.33417508 -0.10429838 -0.013706844 -0.03869018 0.35857686
0.19120514 -0.34319097 0.020023132 -0.091123864 -0.39791262 0.20281962 -0.031835787 0.026149226
-0.036856487 0.07751476 0.29157552 0.22758804 -0.039322287 0.06606787 -0.065208346 -0.08715292
0.40716302 -8.836475e-05 -0.03702395 -0.053302664 -0.10842364 0.018978814 0.18974996 0.16057491
-0.087093584 -0.034568686 0.15607907 0.09164386 0.72505337 0.017425682 0.01693175 0.011224471
-0.2472368 -0.14907305 -0.13197508 0.21930483 -0.48458463 0.53244555 -0.1527068 -0.23404694
-0.06395878 0.26799074 -0.04648451 -0.06742989 0.16573413 0.63855356 -0.15592483 0.0476064
-0.1771799 0.0555695 0.03530425 -0.10730418 0.09360032 0.24705487 0.009731562 0.19343239
0.059455276 -0.05048868 -0.032565854 -0.08862575 0.076298974 -0.12244398 0.23130533 0.00676955
0.6727774 0.062131185 0.0043003834 -0.0846083 -0.13979015 -0.0955821 0.11397673 -0.3150297
-0.015458926 0.098662004 -0.032103986 0.22366098 0.03292917 -0.19531962 -0.13716075 -0.25777417
-0.06297198 0.069985986 0.01352918 0.46261802 -0.07081648 0.17709711 0.15082663 0.08783718
0.044715572 0.0013445049 -0.023196632 0.07617362 0.19690654 -0.13500643 -0.2132238 0.0656167
0.13100871 -0.16829959 0.018079141 -0.037298303 0.060192324 -0.35387552 -0.017081937 0.018442817
-0.31746712 -0.038069602 0.06383987 0.20729521 -0.30074164 0.0990165 -0.018846033 0.079981044

bias f4 [29]
00000000: 3594 bc3e 4fa5 8cbd 9470 df3d 41e2 e03d
00000010: 469e 843e 778b 09bf 6278 88bd 11af d1be
00000020: aa73 2d3e 1b7e fabe bb9a 3fbe 557a cf3d
00000030: f23b 97bd 101f 983e b19f 88bb 545b bbbd
00000040: 13cd 26bf c8b5 ca3e ee00 3b3e e8d9 d03e
00000050: 900c 89be 538c 0cbf d17e 2cbf 7f13 4abf
00000060: 687a 42bf 9072 fdbd d7f1 37bf 32d0 06be
00000070: 95ab 3abf
0.36831823 -0.068674676 0.109101444 0.109806545 0.25902003 -0.5372843 -0.06663586 -0.40953878
0.16938654 -0.48924336 -0.18711369 0.10130755 -0.073844805 0.297112 -0.0041694273 -0.09148279
-0.6515667 0.39591813 0.18262073 0.4079125 -0.26767397 -0.5490162 -0.67381006 -0.78936
-0.7596803 -0.12375367 -0.71853393 -0.13165358 -0.72918063
