models/LSTM/128/ESEU_60-40/ESEU_60-40_2.pt (torch, 353807 bytes, 7 tensors)

weight f4 [29, 32]
0.5722688 2.4001412 0.7169069 0.84729475 -0.1419833 0.1331903 2.042898 -0.25149298
-0.38541865 -0.5661361 2.0478837 1.553358 0.7827172 -1.8024579 -1.2098113 -0.5525452
0.56412935 -2.1625695 0.9330667 -0.42383546 2.5505345 0.18663971 -1.4581784 -2.240522
0.5277302 0.36761644 -0.27641743 -0.23094288 0.38982326 -0.34631124 -0.05669951 -0.48608652
2.9734895 0.019688565 -0.9510791 -2.6466177 0.869854 -1.0202173 -0.05313327 0.8931992
1.7998075 -0.102969624 -1.0667117 0.8091835 -0.45867392 1.4113874 -0.7611701 -1.1596274
1.1092428 0.12731703 1.6882261 0.75175315 1.3048909 -1.794818 -0.13248675 -2.7226465
-1.8665355 -0.090822354 -1.1460043 -0.061870147 1.1069597 1.1700373 -0.030183414 0.9868189
-0.59803706 -0.2028682 1.1815565 -0.44956556 -0.93114984 0.93661046 0.93923885 -0.6303974
0.9457581 1.1144718 -0.81800526 0.84895146 -4.761841 0.6100174 2.4285986 0.64996284
0.2840579 -0.35660753 1.9800426 -1.625344 -0.74785346 0.39443612 0.8537127 -1.1806413
-0.7567471 1.6623905 -0.59836245 2.0573797 -0.12921055 0.2237787 0.15314433 -0.37407753
-1.587104 -1.4445547 -0.34462744 -0.536039 1.1066988 -0.8704089 0.4942518 1.0245075
0.30476558 1.1717242 -1.4744203 -1.654687 0.8268252 -0.4261377 0.90119815 -0.28617132
-0.01418873 0.6447361 -1.0013138 1.2849795 1.317303 -0.014943454 -0.9846465 1.1446058
1.6775486 -2.5526948 -1.0486851 2.3457515 2.242838 -0.68199694 0.8450542 -3.7368028
-1.134516 -0.55220294 -0.58652264 2.2931392 0.74486893 1.5026056 1.025334 1.2462305
-0.8324624 -0.06618033 0.9018299 -1.1299975 -1.5756991 1.0275047 -0.16866301 0.4849736
1.0031297 -2.0597372 -1.3687706 0.20696361 0.0014076574 -0.5666647 -1.9186356 -1.9628178
0.50165 -0.69294846 0.15522778 -0.93354475 -1.9383513 -0.17237778 -1.0147945 -0.2189361
3.0129132 -0.7143095 -0.38259488 0.86284727 0.455281 -0.5535955 -0.666308 0.16578154
-0.08414097 0.87490493 0.10864378 -0.14731838 -0.83688056 0.24052595 -1.4096798 0.7046192
-2.641174 0.0012111571 0.7022613 -1.4918456 0.07017577 -0.5267394 0.7028659 1.2995945
-1.9457686 -2.367498 -0.44793946 1.5581609 -3.1103704 -0.33869076 -0.11888992 -0.72572833
-0.3999336 0.40319034 1.0917534 -0.39991745 0.7368201 -1.6849303 0.10096622 -0.706884
1.0563761 -0.015184153 -0.47308242 -1.2020093 1.1792111 -0.63029164 1.5153638 0.16754581
-0.029169291 -1.819905 0.018600443 1.1777769 -0.08258834 -1.559608 -0.68388283 0.16539349
0.4736356 2.1214914 -2.42238 -0.48560664 -2.4056482 1.999506 0.71692586 -0.26256064
1.2980192 -0.8000328 1.0045519 -0.9644955 1.4485388 1.0654335 0.25459984 4.7690053
0.7254375 0.26392168 -2.4619424 -1.5098548 1.941205 -0.46358976 -1.573773 -1.0081466
-0.3163684 0.48557982 -0.32109132 -1.1371593 -1.9946512 -0.16191272 1.0590308 0.6315799
1.0756729 0.023833763 -0.9320126 2.1696105 -0.9412076 0.45635548 -0.6107318 -0.13747808
00000000: 3580 123f ea9b 1940 3687 373f 4fe8 583f
00000010: 1264 11be 0a63 083e d7be 0240 b0c3 80be
00000020: 9855 c5be 4cee 10bf 8710 0340 6fd4 c63f
00000030: 2860 483f f1b6 e6bf 19db 9abf 9a73 0dbf
00000040: c86a 103f 8a67 0ac0 76dd 6e3f f600 d9be
00000050: f53b 2340 7b1e 3f3e 97a5 babf b664 0fc0
00000060: 5419 073f 3938 bc3e 9686 8dbe 4a7c 6cbe
00000070: ea96 c73e b54f b1be bf3d 68bd 55e0 f8be
00000080: a74d 3e40 ea49 a13c eb79 73bf 2f62 29c0
00000090: c0ae 5e3f 7b96 82bf 46a2 59bd b4a8 643f
000000a0: 1860 e63f bde1 d2bd 028a 88bf a626 4f3f
000000b0: 4fd7 eabe 58a8 b43f 0bdc 42bf ac6e 94bf
000000c0: abfb 8d3f 655f 023e cb17 d83f e572 403f
000000d0: aa06 a73f 99bc e5bf 9baa 07be d73f 2ec0
000000e0: a3ea eebf 1201 babd 45b0 92bf 8d6b 7dbd
000000f0: dbb0 8d3f c8c3 953f 3543 f7bc 2aa0 7c3f
00000100: f518 19bf aebc 4fbe 3e3d 973f 752d e6be
00000110: d65f 6ebf b4c5 6f3f f571 703f b961 21bf
00000120: 341d 723f 03a7 8e3f cb68 51bf e254 593f
00000130: 0061 98c0 1a2a 1c3f 296e 1b40 f763 263f
00000140: 0970 913e 4395 b6be 0972 fd3f 460b d0bf
00000150: 5373 3fbf 88f3 c93e ea8c 5a3f 411f 97bf
00000160: 2eba 41bf 36c9 d43f 482e 19bf 1cac 0340
00000170: c54f 04be 3e26 653e ded1 1c3e 1787 bfbe
00000180: 3926 cbbf 2be7 b8bf 0273 b0be da39 09bf
00000190: 4ea8 8d3f 1ed3 5ebf 920e fd3e 1023 833f
000001a0: 3c0a 9c3e 0ffb 953f ceb9 bcbf c9cc d3bf
000001b0: d1aa 533f b82e dabe ecb4 663f 0c85 92be
000001c0: d977 68bc 6d0d 253f 0d2b 80bf 357a a43f
000001d0: 629d a83f 64d5 74bc cb11 7cbf 7182 923f
000001e0: eab9 d63f 5a5f 23c0 503b 86bf cb20 1640
000001f0: a88a 0f40 5a97 2ebf 7955 583f c727 6fc0
00000200: d237 91bf 2c5d 0dbf 5926 16bf cbc2 1240
00000210: bbaf 3e3f 6155 c03f 253e 833f 7b84 9f3f
00000220: 411c 55bf 8e89 87bd 53de 663f c2a3 90bf
00000230: 82b0 c9bf 4685 833f ffb5 2cbe 764e f83e
00000240: 8e66 803f bcd2 03c0 e033 afbf 45ee 533e
00000250: 2581 b83a f010 11bf da95 f5bf 9d3d fbbf
00000260: 226c 003f 1265 31bf 08f4 1e3e cafc 6ebf
00000270: e51b f8bf cd83 30be c9e4 81bf c930 60be
00000280: 92d3 4040 fddc 36bf 7ae3 c3be 8fe3 5c3f
00000290: 971a e93e 6fb8 0dbf 2993 2abf a3c2 293e
000002a0: 1a52 acbd c5f9 5f3f a180 de3d a1da 16be
000002b0: ce3d 56bf 6f4c 763e 6370 b4bf ed61 343f
000002c0: ff08 29c0 b0bf 9e3a 66c7 333f ccf4 bebf
000002d0: 50b8 8f3d 65d8 06bf 05ef 333f 1d59 a63f
000002e0: f20e f9bf 1685 17c0 5258 e5be d171 c73f
000002f0: 4f10 47c0 e068 adbe 8f7c f3bd 55c9 39bf
00000300: 19c4 ccbe f76e ce3e 93be 8b3f fbc1 ccbe
00000310: 3ea0 3c3f ccab d7bf 61c7 ce3d 5af6 34bf
00000320: 5537 873f f4c6 78bc dc37 f2be 71db 99bf
00000330: 64f0 963f cb5a 21bf 71f7 c13f 2191 2b3e
00000340: 70f4 eebc a6f2 e8bf f55f 983c 65c1 963f
00000350: 1324 a9bd 3ca1 c7bf f212 2fbf e95c 293e
00000360: 5e80 f23e 84c6 0740 4608 1bc0 6fa1 f8be
00000370: 24f6 19c0 d0ef ff3f 7488 373f 596e 86be
00000380: 7e25 a63f f3ce 4cbf 2895 803f 2de9 76bf
00000390: b869 b93f 2060 883f e95a 823e b19b 9840
000003a0: 46b6 393f be20 873e 7790 1dc0 ec42 c1bf
000003b0: 6879 f83f a35b edbe 6571 c9bf f30a 81bf
000003c0: 0afb a1be eb9d f83e 1566 a4be 708e 91bf
000003d0: bb50 ffbf 73cc 25be 528e 873f 38af 213f
000003e0: a6af 893f 063f c33c 6198 6ebf e6da 0a40
000003f0: fbf2 70bf 6da7 e93e eb58 1cbf 0ec7 0cbe

weight_ih_l0 f4 [512, 32]
-0.045921564 -0.0028041003 -0.13128461 0.2091376 -0.25078896 0.13871 0.012377381 -0.35460117
-0.420201 0.07630121 -0.006236598 -0.22283448 -0.16541246 -0.26849946 0.27557892 0.25492433
-0.14904007 0.18781604 0.13056818 0.03362661 -0.011031804 -0.20992692 0.57307476 -0.13386115
-0.17565148 -0.04100118 -0.19525465 -0.026228795 -0.31590983 -0.4879843 -0.28914896 0.0015198817
0.14001086 -0.11370416 -0.30078477 -0.21095675 -0.35451955 -0.23804167 -0.109884 -0.01538964
0.2746434 -0.16398953 0.09286789 0.008609282 0.0071281376 -0.16019377 0.2533918 0.378357
-0.13046424 0.3201228 0.26619643 -0.022306131 0.37210336 -0.030831069 0.14156894 0.1276722
0.15199327 0.28152803 -0.6093639 0.21294662 0.05441792 -0.13331643 -0.067479104 -0.37015045
0.23421763 0.03674581 0.34029624 -0.048314523 -0.2995657 -0.59090805 -0.3196446 -0.22465238
0.47424942 0.007030655 -0.49466568 0.22015741 -0.0984868 0.07932101 0.09455523 0.12689593
0.0776384 0.3682222 -0.2603226 0.2483597 -0.097682044 -0.23307216 0.29834545 0.05592359
-0.9245479 -0.31381455 0.053308774 0.20627825 0.0071188468 -0.0060627228 -0.03287028 -0.21875387
-0.41936103 0.04772736 -0.09837551 -0.11681415 0.006948071 0.19002795 -0.12162611 0.1582771
-0.2069305 0.12248238 0.27903605 -0.30522135 -0.0015384597 -0.10548243 -0.037485182 -0.31743124
0.3126997 -0.023487331 0.16637146 -0.0047439155 0.37387073 -0.29637444 -0.2015657 -0.21647842
0.5088353 -0.20491832 -0.16162671 -0.1216472 -0.14565285 -0.0750933 -0.29365137 -0.08980181
-0.08489132 -0.2643197 -0.19133657 0.018607747 -0.22467884 0.30551413 0.31744146 -0.17519876
0.049539145 0.6957071 -0.21913949 0.03063304 0.036169887 0.22811317 0.42288724 0.024448127
0.07858668 -0.021690447 0.34324473 0.3127059 0.5108858 -0.5122805 0.3015563 -0.134019
-0.38464272 -0.027415661 -0.11768556 -0.1389254 -0.15873401 0.30571932 -0.3618504 0.06512062
-0.19579276 0.09428654 0.4022646 -0.16895817 -0.13345945 0.13029984 -0.30862162 -0.11159843
-0.12941298 0.24396351 -0.05907036 0.33949676 -0.25890863 0.28260186 0.07109304 -0.22101706
0.09263688 0.26156154 0.5283247 -0.38281226 -0.06823736 -0.2997644 0.2053005 -0.26991862
-0.2475819 -0.23972142 -0.25710467 0.16680324 0.05611524 -0.17700367 -0.33166316 0.3423386
0.13267995 0.26651418 -0.027687322 -0.03805697 0.13213345 -0.3589736 0.016093904 0.32534412
-0.2999749 -0.019044073 -0.17013691 0.3252142 0.48034695 0.0312855 -0.451965 -0.08512379
-0.45469496 0.12687236 0.052044176 0.06538938 -0.15319087 0.17540509 -0.009719397 0.17286181
0.0021660281 -0.078940324 -0.32005417 0.3112137 -0.11484 0.0450541 0.0036560348 0.14358965
0.124501534 0.16308586 0.03853405 -0.2068027 -0.44300035 0.041605458 0.2369098 -0.24001566
0.42398357 -0.06517105 -0.35816523 0.28809807 0.27699837 -0.35779893 -0.34326267 -0.10956376
0.12461272 -0.07565169 0.4962206 -0.14944485 -0.1311915 0.25617754 0.33961117 0.17391531
-0.42803717 -0.08352589 -0.38136652 0.011040294 -0.111239605 0.19317718 0.25533786 0.26133832
00000000: 4018 3cbd ffc4 37bb 796f 06be 2b28 563e
00000010: 6967 80be ff09 0e3e 80ca 4a3c 498e b5be
00000020: 9624 d7be cf43 9c3d 605c ccbb b92e 64be
00000030: e261 29be c378 89be ae18 8d3e 7185 823e
00000040: f69d 18be d952 403e aab3 053e 0ebc 093d
00000050: bdbe 34bc 15f7 56be 07b5 123f e612 09be
00000060: fbdd 33be daf0 27bd d6f0 47be c5dd d6bc
00000070: efbe a1be 14d9 f9be 550b 94be c436 c73a
00000080: 025f 0f3e badd e8bd 7600 9abe 0c05 58be
00000090: 9683 b5be 32c1 73be dd0a e1bd d424 7cbc
000000a0: 0f9e 8c3e dfec 27be 8531 be3d f20d 0d3c
000000b0: 2793 e93b d609 24be 92bc 813e 02b8 c13e
000000c0: 6b98 05be 23e7 a33e e64a 883e 59bb b6bc
000000d0: 5584 be3e 7091 fcbc 73f7 103e 80bc 023e
000000e0: 20a4 1b3e 7124 903e 46ff 1bbf ae0e 5a3e
000000f0: 53e5 5e3d 1a84 08be 7c32 8abd 5c84 bdbe
00000100: bfd6 6f3e c682 163d 4f3b ae3e 73e5 45bd
00000110: ad60 99be c045 17bf 75a8 a3be 460b 66be
00000120: d2d0 f23e 6961 e63b d244 fdbe f270 613e
00000130: 73b3 c9bd 0e73 a23d 2ca6 c13d 02f1 013e
00000140: e200 9f3d 9f87 bc3e 0149 85be 0152 7e3e
00000150: 860d c8bd 78aa 6ebe bcc0 983e 2210 653d
00000160: 2caf 6cbf 4dac a0be 4d5a 5a3d 9b3a 533e
00000170: 3745 e93b cea9 c6bb fda2 06bd 0401 60be
00000180: 7db6 d6be c47d 433d 1979 c9bd 423c efbd
00000190: a5ac e33b b096 423e 1c17 f9bd 6413 223e
000001a0: 97e5 53be 0bd8 fa3d d0dd 8e3e f945 9cbe
000001b0: 24a6 c9ba 2c07 d8bd 108a 19bd 5986 a2be
000001c0: 2d1a a03e 8168 c0bc 485d 2a3e d972 9bbb
000001d0: fc6b bf3e 64be 97be 3d67 4ebe 85ac 5dbe
000001e0: 0843 023f 1cd6 51be 7981 25be 2b22 f9bd
000001f0: 0526 15be 84ca 99bd 7959 96be 03ea b7bd
00000200: 80db adbd e954 87be bced 43be 466f 983c
00000210: 3612 66be 596c 9c3e b087 a23e 4e67 33be
00000220: 8fe9 4a3d dc19 323f 1a66 60be 24f2 fa3c
00000230: e026 143d 8096 693e ad84 d83e 7047 c83c
00000240: 0ef2 a03d 2ab0 b1bc c6bd af3e fd1a a03e
00000250: 69c9 023f d124 03bf 9665 9a3e 473c 09be
00000260: e4ef c4be cf96 e0bc 2005 f1bd 7642 0ebe
00000270: 2b8b 22be 3e87 9c3e 7544 b9be f65d 853d
00000280: e67d 48be 4d19 c13d a0f5 cd3e 5f03 2dbe
00000290: 98a9 08be 526d 053e a703 9ebe b88d e4bd
000002a0: d684 04be 92d1 793e c3f3 71bd 85d2 ad3e
000002b0: ac8f 84be 31b1 903e 3a99 913d 4c52 62be
000002c0: 68b8 bd3d 65eb 853e 4a40 073f f8ff c3be
000002d0: 07c0 8bbd b87a 99be 4b3a 523e c632 8abe
000002e0: 1c86 7dbe 8879 75be 39a3 83be 78ce 2a3e
000002f0: 18d9 653d 7340 35be c1cf a9be 0147 af3e
00000300: 41dd 073e 8c74 883e 86d0 e2bc a0e1 1bbd
00000310: fe4d 073e 63cb b7be 5dd7 833c 8193 a63e
00000320: 4f96 99be 5102 9cbc 5f38 2ebe 7a82 a63e
00000330: 09f0 f53e 3925 003d f567 e7be 6255 aebd
00000340: c7cd e8be d4ea 013e 462c 553d deea 853d
00000350: 11de 1cbe 649d 333e 1b3e 1fbc b002 313e
00000360: ecf3 0d3b 77ab a1bd 24de a3be 6757 9f3e
00000370: 3c31 ebbd a68a 383d 169a 6f3b 2a09 133e
00000380: a9fa fe3d fbff 263e e1d5 1d3d 16c4 53be
00000390: f1d0 e2be 7c6a 2a3d 7c98 723e aac6 75be
000003a0: 6014 d93e 6678 85bd 6f61 b7be 9781 933e
000003b0: bbd2 8d3e 6c31 b7be 20c0 afbe f762 e0bd
000003c0: f434 ff3d 46ef 9abd a010 fe3e 1208 19be
000003d0: 1157 06be b429 833e 84e1 ad3e db16 323e
000003e0: b027 dbbe 9f0f abbd 7942 c3be 59e2 343c
000003f0: 97d1 e3bd 3dd0 453e a5bb 823e 23ce 853e

weight_hh_l0 f4 [512, 128]
0.3441479 0.6077537 0.036545888 -0.18403137 0.2071969 0.6882809 0.26089066 0.104215555
0.33140472 0.10301043 -0.29937315 0.64482075 0.341493 0.17366847 0.16199894 0.3670317
0.14613 -0.060736276 0.3160075 -0.3748065 0.39885738 -0.06486178 0.7825912 0.30948913
0.3939607 0.17428525 0.9167647 -0.23490319 -0.33980942 -0.37117404 0.14484212 -0.310434
-0.14290208 -0.042406764 0.715704 0.0149330655 0.47319186 -0.58211243 -0.30444267 -0.1006271
-0.14682898 -0.65484834 0.20362131 -0.18744458 0.49582523 -0.4610962 -0.6396125 0.07558546
0.15623328 -0.60056645 0.31757826 -0.40727177 0.6215814 -0.27514032 0.19920182 -0.34364197
0.06281159 0.26143909 0.37017363 0.10959467 0.26023254 0.67593783 -0.5866399 0.10836787
0.09704536 0.45444822 0.6444114 -0.038813245 -0.0041779093 -0.8184066 0.723473 -0.12948075
-0.30277747 0.22960748 -0.2761828 -0.4346933 -0.9052598 0.053376384 -0.08681163 -0.051451154
-0.091886505 -0.016717844 -0.02459087 0.1855007 -0.34739158 0.32218042 0.61687076 -0.057964385
0.040082324 0.009841812 -0.56165177 -0.11574456 -0.21848376 -0.14743623 -0.35901612 0.114769235
-0.4066745 0.2541657 -0.6269271 0.46040475 -0.14720836 -0.22955827 0.7390164 -0.60252416
0.6091985 -0.29536322 0.31173092 0.25044706 -0.066601664 -0.012550631 -0.13413653 -0.41945714
0.5749905 -0.67763716 0.03678918 -0.27543962 0.06265641 -0.36537424 -0.53193104 -0.56131625
-0.4393902 0.31212 0.2111879 0.01830526 0.2618827 -0.5752427 0.64226407 0.0341087
0.15551376 -0.3783882 0.0016948794 -0.50834584 0.3677157 0.37863934 0.036971394 0.39420393
-0.2556519 0.5364276 0.09244378 0.013956446 0.42823547 0.43941638 -0.57692426 -0.14868575
0.033518005 0.16267677 0.39223355 0.59505886 0.5446803 0.13811928 -0.34433663 -0.27111283
-0.09002772 0.015262933 -0.4958452 0.4113411 0.046140287 -0.06268959 0.45723626 -0.5697019
0.019360732 -0.6436652 -0.038476117 -0.0946831 -0.041959032 -0.6340864 0.32579693 -0.26527125
-0.10204742 -0.09668108 0.75453794 0.057653688 0.3799899 -0.1571958 0.1874737 0.6129457
-0.1267997 0.49895823 -0.011341146 -0.08643464 -0.15496631 0.3545113 0.68664837 0.039710827
1.0451626 -0.21874633 -0.4533148 0.0836048 0.16998638 0.5596824 0.11054057 -0.053417
-0.022511272 -0.17324403 0.71689534 0.41767478 0.14086573 -0.6368802 0.30848658 -0.5221398
0.29383534 0.759162 0.66115946 0.42718926 -0.064266995 0.55733883 0.19954608 0.18780886
0.07471089 0.05665896 -0.04116592 0.46446967 -0.53109294 -0.25389057 -0.4234026 -0.3484829
-0.13046806 0.75549114 -0.2217485 -0.0014910146 0.16220805 0.09070771 -0.18865207 0.23968808
0.098583624 0.017365782 -0.22135954 -0.043316413 -0.17646985 -0.5559286 0.331537 0.0403331
-0.11507007 0.02433542 0.39655373 -0.39992645 0.7479126 -0.49610713 -0.3525139 -0.15811096
0.27791145 0.007539407 0.015533358 -0.10718748 0.60790324 -0.3396577 -0.21104869 -0.49973294
-0.40191308 -0.18081209 0.82358164 -0.032690514 0.5643694 -0.054419693 -0.32767284 0.50826144
00000000: 2734 b03e bf95 1b3f 24b1 153d b872 3cbe
00000010: 6d2b 543e 2d33 303f 7693 853e f76e d53d
00000020: e1ad a93e 22f7 d23d 7047 99be f912 253f
00000030: 2cd8 ae3e 26d6 313e 0de3 253e 94eb bb3e
00000040: 1aa3 153e 9ac6 78bd bccb a13e a3e6 bfbe
00000050: 0937 cc3e 41d6 84bd e657 483f 5c75 9e3e
00000060: 38b5 c93e d577 323e 17b1 6a3f 768a 70be
00000070: 80fb adbe 860a bebe 7e51 143e 35f1 9ebe
00000080: ec54 12be b7b2 2dbd 6138 373f d1a9 743c
00000090: 3446 f23e 5205 15bf e9df 9bbe 9515 cebd
000000a0: 565a 16be 24a4 27bf 1b82 503e 79f1 3fbe
000000b0: cedc fd3e cd14 ecbe a5bd 23bf 8dcc 9a3d
000000c0: 9efb 1f3e b9be 19bf 9e99 a23e ed85 d0be
000000d0: f51f 1f3f 31df 8cbe 90fb 4b3e d7f1 afbe
000000e0: 5da3 803d 58db 853e 6687 bd3e 2c73 e03d
000000f0: 333d 853e 430a 2d3f 082e 16bf f9ef dd3d
00000100: b8bf c63d 70ad e83e 25f8 243f a3fa 1ebd
00000110: d8e6 88bb 1883 51bf 8735 393f 9a96 04be
00000120: a605 9bbe 391e 6b3e d567 8dbe 1f90 debe
00000130: 1bbf 67bf 32a1 5a3d 4cca b1bd 72be 52bd
00000140: fe2e bcbd dcf3 88bc cb72 c9bc e5f3 3d3e
00000150: 4fdd b1be d5f4 a43e 3eeb 1d3f 106c 6dbd
00000160: 5d2d 243d 8d3f 213c 69c8 0fbf 7c0b edbd
00000170: 35ba 5fbe 86f9 16be f6d0 b7be 220c eb3d
00000180: a437 d0be 0222 823e 4b7e 20bf 2cba eb3e
00000190: cabd 16be 5311 6bbe 2e30 3d3f 063f 1abf
000001a0: 6ff4 1b3f d939 97be 329b 9f3e 993a 803e
000001b0: 7466 88bd 29a1 4dbc 165b 09be 16c3 d6be
000001c0: 9432 133f a179 2dbf 40b0 163d 6c06 8dbe
000001d0: 0152 803d 5512 bbbe a22c 08bf 6cb2 0fbf
000001e0: c1f7 e0be 31ce 9f3e a441 583e eaf4 953c
000001f0: 7d15 863e 1b43 13bf 6b6b 243f 90b5 0b3d
00000200: 003f 1f3e 19bc c1be b726 de3a f422 02bf
00000210: 3b45 bc3e 04dd c13e 516f 173d 19d5 c93e
00000220: cee4 82be 5253 093f 2a53 bd3d 94a9 643c
00000230: ae41 db3e 2ffb e03e 4fb1 13bf 1441 18be
00000240: 2d4a 093d bd94 263e d6d2 c83e c755 183f
00000250: 2b70 0b3f 246f 0d3e e44c b0be 4dcf 8abe
00000260: 7460 b8bd 6211 7a3c 6cdf fdbe 4d9b d23e
00000270: 99fd 3c3d 6663 80bd df1a ea3e fcd7 11bf
00000280: 669a 9e3c 3ec7 24bf 2299 1dbd 37e9 c1bd
00000290: 3cdd 2bbd 7c53 22bf dbce a63e a2d1 87be
000002a0: 3dfe d0bd bb00 c6bd 6629 413f 4626 6c3d
000002b0: 098e c23e f0f7 20be 1bf9 3f3e 02ea 1c3f
000002c0: c8d7 01be 7477 ff3e 37d0 39bc a504 b1bd
000002d0: 7daf 1ebe 8182 b53e 30c8 2f3f d2a7 223d
000002e0: e3c7 853f 0aff 5fbe e118 e8be fe38 ab3d
000002f0: e910 2e3e 5947 0f3f 1863 e23d c9cb 5abd
00000300: 8f69 b8bc e266 31be 7486 373f 78d9 d53e
00000310: 1b3f 103e 950a 23bf f4f1 9d3e f4aa 05bf
00000320: 9671 963e 7158 423f bf41 293f 8db8 da3e
00000330: 6a9e 83bd c2ad 0e3f cf55 4c3e f750 403e
00000340: 0602 993d 3a13 683d 999d 28bd f8ce ed3e
00000350: b5f5 07bf f2fd 81be 3ac8 d8be 5a6c b2be
00000360: 6b99 05be de67 413f 0a12 63be 266e c3ba
00000370: de19 263e f7c4 b93d 022e 41be cb70 753e
00000380: 36e6 c93d af42 8e3c 13ac 62be 8d6c 31bd
00000390: 83b4 34be 5651 0ebf 38bf a93e 5234 253d
000003a0: dba9 ebbd 135b c73c 1709 cb3e 29c3 ccbe
000003b0: 3377 3f3f c101 febe b47c b4be d7e7 21be
000003c0: 694a 8e3e 210d f73b a07f 7e3c 1c85 dbbd
000003d0: 8c9f 1b3f 9de7 adbe 261d 58be ffdc ffbe
000003e0: 8dc7 cdbe ce26 39be 3fd6 523f 7de6 05bd
000003f0: 837a 103f 2fe7 5ebd bcc4 a7be 6c1d 023f

bias_ih_l0 f4 [512]
0.207288 0.022796426 -0.00731655 -0.07021949 0.15612608 0.06667248 0.15458483 0.122537754
0.18231389 0.15237956 -0.011852293 0.11867818 0.038297974 0.24390979 0.05551707 0.23780087
0.12635201 0.11078847 0.13285352 -0.0048686774 0.13592601 0.14706105 0.3758862 0.31991193
0.10736183 0.13657421 0.09644846 -0.080721736 0.20502013 0.24139175 0.02691577 0.33814836
0.18106346 0.4053294 0.12938087 0.107704915 0.08995067 0.1344114 -0.02909589 -0.02348629
-0.031031445 0.23872702 0.30850458 0.29699033 0.07908522 0.0784094 0.13316247 0.20312585
0.1187444 0.37067708 0.18198244 0.3181587 0.11601061 0.20647696 0.10685935 0.44115415
0.105733 0.14622231 0.07786681 0.078066595 0.31306097 0.08840803 0.10563267 0.21052635
0.40185124 0.16775449 0.11271982 -0.16907862 0.35258362 0.11716733 0.12983297 0.30509943
0.0003601459 0.21479023 0.067033865 0.100568876 0.12732555 0.07578708 0.25085092 0.16749945
0.2407402 -0.04973247 0.33799312 0.08212865 0.2596633 0.014350854 0.2657693 -0.08387066
0.14349811 0.23159803 0.24873085 0.37801105 0.21933152 0.18811272 0.3406559 0.33843005
0.24910012 0.17352715 0.22230993 0.10349639 0.26833245 0.09529977 0.11236687 0.30657285
0.26009047 0.4414481 0.14827174 0.15244724 0.19399662 0.36688545 0.17564961 -0.0016271567
0.10226778 0.0213869 0.15747094 0.16355477 0.2150445 0.2653177 0.13328093 0.08621967
0.19576007 0.3552987 0.027696919 0.18986721 0.04147404 0.29314864 0.3408114 0.2365489
-0.21427318 0.12524247 -0.16287966 -0.18847589 -0.06397571 -0.22469051 -0.019895876 -0.09477117
0.08541676 0.029069565 0.06372728 -9.4043564e-05 -0.009700838 0.1764938 -0.23967619 -0.10075756
0.007946996 0.19295448 0.009344465 0.033376038 -0.061232653 -0.11074517 0.13315986 -0.3476698
0.0077379756 0.11964669 -0.10399778 -0.052434504 0.2280398 0.013188332 0.044178423 -0.033273645
-0.14150411 -0.22572705 0.19848834 -0.16594605 0.12672871 0.012264267 -0.054741584 0.074527174
0.09394609 0.05858243 0.014364582 0.028568635 -0.23551632 -0.007323692 0.025837343 -0.047859397
-0.26001006 -0.11561367 0.22407173 -0.14350022 -0.013181558 0.009001594 -0.07260451 -0.020020073
0.0036208306 0.06348049 -0.03215812 0.008568754 -0.34953082 0.11063488 -0.100254014 0.17361552
-0.042627566 -0.29701304 -0.0398183 -0.036734726 0.1346702 -0.08401635 0.011136986 0.022511503
-0.122096114 0.06073865 -0.09447184 0.023037402 0.17041524 -0.098662265 0.08884994 -0.12010102
-0.10347848 0.08756406 0.08483299 0.044942707 0.11879887 0.10636627 -0.082405925 0.00019936358
-0.13327873 -0.11282306 0.041250896 -0.12240022 -0.17116937 0.12192062 0.0698478 -0.072657175
-0.01536031 0.0572786 -0.11276872 -0.1676064 0.06855615 0.08210144 -0.10497258 0.112355866
0.01890572 -0.05206193 0.048396744 -0.11154043 -0.01277207 0.12095328 -0.061780874 0.11972848
-0.12019027 -0.13173446 0.024640234 0.10577667 0.04846112 -0.20758969 0.09106334 -0.023997214
0.08188317 0.009338793 0.16689847 -0.11851011 0.27809405 0.055518564 -0.14632826 -0.013091941
00000000: 4e43 543e 92bf ba3c abbf efbb 3ccf 8fbd
00000010: 84df 1f3e 958b 883d 7c4b 1e3e 13f5 fa3d
00000020: 7eb0 3a3e 6309 1c3e 1f30 42bc 8c0d f33d
00000030: 56de 1c3d 7dc3 793e de65 633d 1282 733e
00000040: 6c62 013e 11e5 e23d c10a 083e 6d89 9fbb
00000050: 3030 0b3e 2c97 163e 2874 c03e 7fcb a33e
00000060: 85e0 db3d 1cda 0b3e c586 c53d 7051 a5bd
00000070: ccf0 513e 662f 773e 767e dc3c c821 ad3e
00000080: b368 393e 5687 cf3e 6b7c 043e 6594 dc3d
00000090: 0f38 b83d 24a3 093e 815a eebc 5266 c0bc
000000a0: a835 febc db74 743e 50f4 9d3e 1e0f 983e
000000b0: 6ff7 a13d 1c95 a03d be5b 083e 3900 503e
000000c0: 4430 f33d 63c9 bd3e 9b59 3a3e b2e5 a23e
000000d0: f896 ed3d b26e 533e 13d9 da3d f5de e13e
000000e0: 8b8a d83d 4dbb 153e a278 9f3d 61e1 9f3d
000000f0: 8749 a03e 450f b53d f155 d83d 3894 573e
00000100: 72bf cd3e d5c7 2b3e a6d9 e63d f222 2dbe
00000110: d785 b43e 6df5 ef3d eff2 043e fe35 9c3e
00000120: f7d1 bc39 f8f1 5b3e 0d49 893d 0ef7 cd3d
00000130: a161 023e 4236 9b3d 886f 803e fa84 2b3e
00000140: 9984 763e 46b4 4bbd 6f0d ad3e 1133 a83d
00000150: 97f2 843e d81f 6b3c ea12 883e 61c4 abbd
00000160: 2bf1 123e 0928 6d3e 4db3 7e3e aa8a c13e
00000170: 7198 603e 9fa0 403e 736a ae3e b446 ad3e
00000180: 1a14 7f3e 1ab1 313e 37a5 633e eaf5 d33d
00000190: df62 893e 872c c33d 9a20 e63d 1ef7 9c3e
000001a0: 942a 853e 7c05 e23e 8cd4 173e 211b 1c3e
000001b0: 0da7 463e 69d8 bb3e 7edd 333e 5246 d5ba
000001c0: c571 d13d 9533 af3c 1040 213e e77a 273e
000001d0: a034 5c3e b9d7 873e cc7a 083e f093 b03d
000001e0: 5475 483e b6e9 b53e a6e4 e23c 8d6c 423e
000001f0: afe0 293d 9417 963e d57e ae3e e039 723e
00000200: 6e6a 5bbe 903f 003e edc9 26be d3ff 40be
00000210: b205 83bd 4515 66be adfc a2bc 6317 c2bd
00000220: fbee ae3d 4c23 ee3c 7383 823d 4139 c5b8
00000230: 43f0 1ebc caba 343e ad6d 75be fb59 cebd
00000240: 1e34 023c dc95 453e 8719 193c 50b5 083d
00000250: 17cf 7abd 5dce e2bd 0f5b 083e c701 b2be
00000260: d88e fd3b 5309 f53d cafc d4bd 90c5 56bd
00000270: 4483 693e e013 583c 6ff4 343d f249 08bd
00000280: 74e6 10be fe24 67be 8740 4b3e c3ed 29be
00000290: 2cc5 013e 10f0 483c b638 60bd b4a1 983d
000002a0: cf66 c03d 21f4 6f3d 6c59 6b3c c508 ea3c
000002b0: 312b 71be 95fb efbb d6a8 d33c 3708 44bd
000002c0: 0a20 85be dcc6 ecbd 0f73 653e b9f1 12be
000002d0: 76f7 57bc 6c7b 133c acb1 94bd 2301 a4bc
000002e0: 754b 6d3b 0f02 823d 3cb8 03bd f663 0c3c
000002f0: b4f5 b2be 8a94 e23d fa51 cdbd 44c8 313e
00000300: 3e9a 2ebd 1812 98be 8418 23bd 2777 16bd
00000310: fce6 093e c410 acbd e877 363c 0b6a b83c
00000320: 870d fabd 17c9 783d 747a c1bd efb8 bc3c
00000330: 5581 2e3e 710f cabd f5f6 b53d 86f7 f5bd
00000340: 86ec d3bd c954 b33d ebbc ad3d d815 383d
00000350: d24c f33d 8fd6 d93d 70c4 a8bd 410c 5139
00000360: 387a 08be c70f e7bd b3f6 283d f7ac fabd
00000370: 0647 2fbe 85b1 f93d 5d0c 8f3d 49cd 94bd
00000380: cfa9 7bbc f79c 6a3d 49f3 e6bd 03a1 2bbe
00000390: 2b67 8c3d cd24 a83d ddfb d6bd d51a e63d
000003a0: 2be0 9a3c e43e 55bd aa3b 463d 4f6f e4bd
000003b0: f241 51bc 5ab6 f73d f10d 7dbd 3534 f53d
000003c0: 5126 f6bd 66e5 06be 51da c93c 70a1 d83d
000003d0: 2b7f 463d 6492 54be 6b7f ba3d ce95 c4bc
000003e0: 5db2 a73d bd01 193c 6fe7 2a3e 6eb5 f2bd
000003f0: 5862 8e3e 6f67 633d 13d7 15be 957f 56bc

bias_hh_l0 f4 [512]
0.19340433 0.052578766 0.0449296 -0.026925148 0.021673929 -0.021180583 0.16116595 0.06036526
0.26349866 0.26225048 0.10350731 0.10050569 0.10995836 0.26018977 0.12844573 0.08978366
0.023726212 0.17206444 0.061809856 -0.021533618 0.06323202 0.16817431 0.3716246 0.31051946
0.16902986 0.079999894 0.15035236 -0.07270864 0.18569618 0.17791186 0.021444177 0.24377622
0.165341 0.4032336 0.059483014 0.27780172 0.06184361 0.04215617 -0.04787304 0.0023536966
0.09193546 0.28437826 0.3066161 0.15283543 0.15661785 0.09283023 0.123216964 0.14189677
0.27655038 0.31904718 0.21151952 0.2759026 0.17245726 0.14679664 0.14874788 0.40230352
0.17591967 0.23661952 0.04353844 0.14991656 0.30188882 0.19398838 0.2512161 0.3585289
0.30724794 0.14374553 0.12774375 -0.1779334 0.3954258 0.055069223 0.15250736 0.2130407
-0.08521525 0.27000862 0.21399817 0.21477453 0.17926282 0.070052035 0.22608735 0.2819162
0.23582706 0.052149143 0.21936366 0.1754533 0.23425674 0.049255166 0.35458976 -0.010974279
0.13099684 0.27569205 0.21541214 0.3150215 0.2828504 0.25120142 0.38037193 0.33735576
0.26215422 0.20856121 0.26028544 0.19932446 0.18717593 0.1305338 0.025183251 0.23061384
0.38440427 0.47401717 0.1657548 0.24766277 0.081518285 0.31044006 0.11735705 0.0596107
0.15773024 -0.06926432 0.17602791 0.2030307 0.17426759 0.25150093 0.108484566 0.18018909
0.1667658 0.23379548 0.06123981 0.217957 0.12555721 0.30677685 0.2929486 0.1304442
-0.1065822 0.02440566 -0.15884486 -0.10666864 0.04986193 -0.15605366 0.08126646 -0.18468209
0.007307537 0.0005122788 0.08196264 -0.086196214 -0.012957168 0.16336367 -0.13952698 -0.17027223
0.07982402 0.13909175 -0.08133798 0.10902275 -0.112265304 -0.010115566 0.21202582 -0.271279
0.069827415 0.158206 0.039647736 -0.09804724 0.13646251 -0.018540194 0.021019213 -0.11112733
-0.19487804 -0.14561392 0.098223515 -0.1337866 -0.03911839 -0.14357427 -0.08625823 -0.05433786
0.2034913 0.031242738 -0.050328523 -0.024671452 -0.20257251 -0.057945102 0.042789575 -0.08915553
-0.28576624 -0.09434612 0.20326683 -0.20825353 -0.11995174 -0.0017203367 -0.00017505037 0.0062823584
-0.07313428 0.117546335 -0.04137214 -0.045880422 -0.34991255 0.17848703 -0.18422244 0.06870174
-0.031703126 -0.18482508 -0.1677992 0.065786555 0.010018334 -0.043201894 -0.035655215 0.06906494
0.020344043 0.054004483 -0.09490311 -0.13426466 0.18363336 -0.06018957 0.029842554 -0.16184703
-0.12340649 -0.04235018 0.037142325 0.06681065 0.07000434 0.13467687 -0.13243851 -0.003722785
-0.13058546 -0.1213424 0.061842885 -0.18918882 -0.14516048 0.13945304 0.09707833 -0.07749034
0.14924145 0.17809454 -0.0083855335 -0.022214841 0.21273597 0.20217688 -0.028133115 0.19607322
-0.0733128 0.034034032 0.10211391 0.04585865 -0.03927219 0.12285509 0.005319697 0.16575284
-0.10987643 -0.15089801 -0.090774626 0.25408185 -0.016529862 -0.1408789 0.064313635 -0.077987954
0.07718573 -0.07582162 0.07707705 -0.15752828 0.1344043 0.017861698 -0.15840535 -0.07747063
00000000: c90b 463e d55c 573d 1a08 383d 2192 dcbc
00000010: 868d b13c e782 adbc b008 253e 9041 773d
00000020: 4ce9 863e b245 863e a4fb d33d edd5 cd3d
00000030: d931 e13d 9837 853e 4787 033e 7fe0 b73d
00000040: 795d c23c a931 303e 552c 7d3d 4567 b0bc
00000050: ca7f 813d e335 2c3e 9445 be3e 68fc 9e3e
00000060: 2a16 2d3e fcd6 a33d f8f5 193e 44e8 94bd
00000070: 2427 3e3e 872e 363e b3ab af3c 79a0 793e
00000080: 274f 293e a274 ce3e 76a4 733d 073c 8e3e
00000090: ba4f 7d3d f3ab 2c3d 8516 44bd 7a40 1a3b
000000a0: a948 bc3d 079a 913e c9fc 9c3e e480 1c3e
000000b0: 6e60 203e c71d be3d 2d59 fc3d 634d 113e
000000c0: 0398 8d3e 275a a33e 9398 583e 1b43 8d3e
000000d0: a398 303e dc51 163e 5d51 183e bafa cd3e
000000e0: 4924 343e 634c 723e 5d55 323d ba83 193e
000000f0: 2c91 9a3e e4a4 463e 669f 803e 1a91 b73e
00000100: 9a4f 9d3e 0732 133e 42cf 023e 2c34 36be
00000110: 4075 ca3e 4490 613d e42a 1c3e 5727 5a3e
00000120: 5585 aebd 923e 8a3e 5622 5b3e dbed 5b3e
00000130: ac90 373e 7177 8f3d 7183 673e 5257 903e
00000140: a67c 713e 579a 553d dea0 603e 08aa 333e
00000150: 00e1 6f3e c9bf 493d ca8c b53e 76cd 33bc
00000160: 0924 063e 8227 8d3e 0095 5c3e 804a a13e
00000170: c5d1 903e 799d 803e 1cc0 c23e e5b9 ac3e
00000180: 1439 863e 1291 553e 2244 853e b61b 4c3e
00000190: 0cab 3f3e a7aa 053e 1b4d ce3c 0926 6c3e
000001a0: a3d0 c43e 61b2 f23e a0bb 293e 4f9b 7d3e
000001b0: 0ff3 a63d 00f2 9e3e e558 f03d 592a 743d
000001c0: 0984 213e 74da 8dbd a940 343e 48e7 4f3e
000001d0: 3473 323e bbc4 803e 282d de3d 7d83 383e
000001e0: a7c4 2a3e 1568 6f3e 98d6 7a3d 1f30 5f3e
000001f0: 1292 003e db11 9d3e 5cfd 953e 2a93 053e
00000200: c547 dabd 61ee c73c 3aa8 22be 1775 dabd
00000210: 063c 4c3d 88cc 1fbe 086f a63d 4d1d 3dbe
00000220: 1074 ef3b 734a 063a 07dc a73d a487 b0bd
00000230: 4d4a 54bc ce48 273e 29e0 0ebe d85b 2ebe
00000240: c77a a33d 116e 0e3e 8794 a6bd 5247 df3d
00000250: 5aeb e5bd c2bb 25bc 4c1d 593e 15e5 8abe
00000260: ad01 8f3d c100 223e aa65 223d fecc c8bd
00000270: d4bc 0b3e 9be1 97bc 7c30 ac3c ba96 e3bd
00000280: 1c8e 47be d11b 15be 6929 c93d 5bff 08be
00000290: 9b3a 20bd 2205 13be 28a8 b0bd 6091 5ebd
000002a0: 0660 503e c5f0 ff3c 4825 4ebd c91b cabc
000002b0: 2b6f 4fbe d857 6dbd 1f44 2f3d 2d97 b6bd
000002c0: f44f 92be 8a38 c1bd 2e25 503e 6a40 55be
000002d0: 42a9 f5bd ec7c e1ba ba8d 37b9 3edc cd3b
000002e0: 6dc7 95bd 22bc f03d d575 29bd 1ced 3bbd
000002f0: bd27 b3be 4ec5 363e cfa4 3cbe 7fb3 8c3d
00000300: 23db 01bd c942 3dbe 8ed3 2bbe 1abb 863d
00000310: f023 243c 78f4 30bd 340b 12bd eb71 8d3d
00000320: 8da8 a63c ce33 5d3d 905c c2bd ad7c 09be
00000330: 620a 3c3e 5789 76bd 5f78 f43c 3abb 25be
00000340: 8bbc fcbd 6277 2dbd 8d22 183d 06d4 883d
00000350: 6f5e 8f3d bce8 093e f69d 07be f8f9 73bb
00000360: 32b8 05be 5d82 f8bd f74e 7d3d b7ba 41be
00000370: f3a4 14be c7cc 0e3e 01d1 c63d 41b3 9ebd
00000380: c0d2 183e 6a5e 363e 7a63 09bc e6fb b5bc
00000390: 75d7 593e 7507 4f3e 6b77 e6bc 6bc7 483e
000003a0: 0525 96bd 4567 0b3d 1921 d13d 48d6 3b3d
000003b0: e0db 20bd 739b fb3d da50 ae3b 1dbb 293e
000003c0: e506 e1bd 0285 1abe 0ce8 b9bd 0417 823e
000003d0: a269 87bc 8f42 10be deb6 833d 26b8 9fbd
000003e0: 8d13 9e3d 5e48 9bbd 93da 9d3d 184f 21be
000003f0: 48a1 093e b252 923c 0335 22be eca8 9ebd

weight f4 [29, 128]
0.08798478 -0.26843444 0.14955088 0.23646557 0.118122675 0.43554482 -0.00015649488 0.16279697
-0.01766117 0.2808387 -0.032192316 0.24912387 0.051390097 0.10867813 0.07951127 0.17502776
-0.050011676 -0.06863915 0.18934168 -0.09250642 0.067615576 -0.03394028 0.05452932 0.34699064
0.059811305 0.13096108 0.19475186 0.025641767 -0.030138269 -0.24415007 -0.20017283 -0.19641574
0.112764314 0.405585 0.09266015 0.24086602 0.16043396 0.17822091 0.3246328 -0.1667045
-0.12778871 0.021042233 0.17602867 -0.06640574 -0.015252426 0.59513074 -0.13491629 0.057064593
0.17536028 -0.42061844 0.16425005 0.16686627 0.031110922 -0.03600478 -0.15165418 -0.13376664
0.31947678 0.07315208 0.13406694 -0.23506032 0.16891056 0.08336477 -0.1428366 -0.09987711
-0.21778414 -0.1513322 0.15627165 0.21285161 -0.091316536 0.017214194 -0.15575543 -0.05746111
0.20774628 0.1140834 0.3986083 0.24277286 -0.21365009 -0.14374691 0.0026177585 0.026200296
-0.4002414 0.2595122 0.11953764 0.1553638 -0.079214886 0.18776852 -0.25608006 -0.122579046
0.27049285 -0.13483386 0.046132557 0.14857152 0.3674056 -0.10467514 -0.14859438 -0.048264205
0.10342276 0.15859899 -0.083827935 0.15933916 0.012646215 0.059041098 -0.058107622 -0.041894328
0.11256098 -0.085123904 -0.13846275 0.19045854 -0.14038649 -0.10188608 -0.14049472 -0.034039978
0.09706255 -0.18178919 -0.17651185 -0.062324867 0.13175316 -0.18692747 -0.25370735 0.027109746
0.003752558 0.068872444 0.15413468 0.2806623 0.17149827 -0.29243243 0.26862288 0.20766622
-0.11869701 -0.16048065 -0.46151796 -0.4256917 0.15603447 -0.11030543 -0.025650896 0.092342764
0.08963329 0.33699003 0.03651778 0.2674227 0.19885935 0.019329188 -0.29557386 -0.24884635
0.010875964 -0.07686486 0.27098274 0.0651096 0.07603415 0.08794741 0.00021763907 -0.22860578
-0.00433582 0.047052756 -0.07819188 0.20892906 0.09075565 0.6070293 0.009800694 0.16910848
-0.21094039 -0.010088097 0.04398621 0.13344724 0.11673846 -0.018215014 -0.15000279 -0.23100905
0.100991234 -0.09173789 -0.32236856 -0.059026163 0.12051922 0.06297174 -0.3792871 -0.10615714
0.04572977 0.3380224 -0.055117354 0.11318886 -0.24313833 0.037676137 0.059941296 0.124430925
-0.006198005 0.09169822 0.13549697 -0.0046409033 0.00543265 0.04805897 -0.07332199 -0.084978275
0.21988773 -0.06889434 0.3347432 0.038723547 0.31297573 0.1666559 0.33593544 -0.083452165
-0.6872701 0.09337069 0.22473034 -0.34715018 0.011425182 0.097033076 0.07190163 0.13117242
0.19293335 -0.25433198 0.10014305 0.13695662 -0.11855142 -0.8364213 -0.025799267 0.07793381
0.013281645 0.07712638 0.1501275 0.27714494 -0.0420087 0.3575428 0.017688708 0.0131467255
-0.3150516 -0.83621114 0.22078322 -0.09076373 0.020071419 0.10503429 0.06639688 -0.03739246
-0.2499107 -0.028210096 0.10692263 0.15705357 0.026417486 0.5226126 0.020432092 -0.07590511
0.099122144 -0.36372396 -0.14109844 -0.016774828 0.025260273 -0.036075197 0.20934664 -0.027290843
-0.014546645 -0.060914993 -0.085268416 -0.42432022 -0.4763037 -0.009242391 0.14232455 -0.43048546
00000000: 5d31 b43d 3d70 89be de23 193e 0824 723e
00000010: 4dea f13d bbff de3e c618 24b9 40b4 263e
00000020: 28ae 90bc 17ca 8f3e 17dc 03bd 541a 7f3e
00000030: 6c7e 523d a492 de3d ced6 a23d 7a3a 333e
00000040: 0bd9 4cbd af92 8cbd c9e2 413e 0274 bdbd
00000050: 097a 8a3d f704 0bbd 235a 5f3d c2a8 b13e
00000060: b3fc 743d a91a 063e 086d 473e af0e d23c
00000070: 88e4 f6bc 7a02 7abe 1bfa 4cbe 3521 49be
00000080: faf0 e63d d6a8 cf3e 9bc4 bd3d 95a5 763e
00000090: cd48 243e 8b7f 363e 4536 a63e 96b4 2abe
000000a0: 0bdb 02be c360 ac3c dc40 343e bcff 87bd
000000b0: 50e5 79bc 7d5a 183f 7f27 0abe 90bc 693d
000000c0: a591 333e 4d5b d7be 2a31 283e fede 2a3e
000000d0: 55dc fe3c c079 13bd 3c4b 1bbe 1ffa 08be
000000e0: 7692 a33e c2d0 953d d848 093e a7b3 70be
000000f0: e4f6 2c3e 26bb aa3d c243 12be 5f8c ccbd
00000100: ce02 5fbe d4f6 1abe ad05 203e c6f5 593e
00000110: 2a04 bbbd c804 8d3c 5a7e 1fbe 575c 6bbd
00000120: 71bb 543e 8fa4 e93d 6316 cc3e 7399 783e
00000130: 17c7 5abe 6432 13be b38e 2b3b 01a2 d63c
00000140: 71ec ccbe c8de 843e 26d0 f43d b017 1f3e
00000150: 6a3b a2bd 6446 403e ed1c 83be b90a fbbd
00000160: 0a7e 8a3e e311 0abe 7ef5 3c3d 2223 183e
00000170: 961c bc3e eb5f d6bd 2029 18be b0b0 45bd
00000180: 50cf d33d c667 223e fbad abbd ce29 233e
00000190: 1232 4f3c 14d5 713d 4202 6ebd 6399 2bbd
000001a0: 5f86 e63d 7155 aebd 2ec9 0dbe 9007 433e
000001b0: 7ac1 0fbe a6a9 d0bd d9dd 0fbe 816d 0bbd
000001c0: bbc8 c63d f226 3abe 86bf 34be 5c48 7fbd
000001d0: 4dea 063e ea69 3fbe eee5 81be 4215 de3c
000001e0: 7aed 753b ff0c 8d3d 7bd5 1d3e f8b2 8f3e
000001f0: 3e9d 2f3e b4b9 95be f088 893e 74a6 543e
00000200: 6b17 f3bd 0a55 24be 154c ecbe 43f4 d9be
00000210: 80c7 1f3e d0e7 e1bd d421 d2bc 341e bd3d
00000220: a991 b73d f589 ac3e ab93 153d a1eb 883e
00000230: c9a1 4b3e 3f58 9e3c 7555 97be 94d1 7ebe
00000240: 1931 323c 536b 9dbd 40be 8a3e 2f58 853d
00000250: cbb7 9b3d c61d b43d 0b36 6439 a217 6abe
00000260: 7f13 8ebb 64ba 403d 1023 a0bd 80f1 553e
00000270: 19de b93d 4666 1b3f 1793 203c c62a 2d3e
00000280: c200 58be 8c48 25bc e22a 343d 65a6 083e
00000290: 9314 ef3d a737 95bc 559a 19be a38d 6cbe
000002a0: 7ed4 ce3d 13e1 bbbd 7e0d a5be 6bc5 71bd
000002b0: c8d2 f63d 54f7 803d eb31 c2be ea68 d9bd
000002c0: 244f 3b3d 4611 ad3e bcc2 61bd 90cf e73d
000002d0: 41f9 78be 4b52 1a3d 0185 753d a4d5 fe3d
000002e0: a218 cbbb 47cc bb3d b8bf 0a3e b812 98bb
000002f0: 5f04 b23b 7cd9 443d d729 96bd 1709 aebd
00000300: 402a 613e 7a18 8dbd 7663 ab3e 959c 1e3d
00000310: 5b3e a03e d8a7 2a3e bbff ab3e f8e8 aabd
00000320: eff0 2fbf 2239 bf3d b61f 663e abbd b1be
00000330: b030 3b3c 47b9 c63d 2941 933d 1052 063e
00000340: 5290 453e cd37 82be cd17 cd3d 5b3e 0c3e
00000350: 16cb f2bd b51f 56bf fc58 d3bc c39b 9f3d
00000360: 429b 593c 6ff4 9d3d 06bb 193e f1e5 8d3e
00000370: 5111 2cbd da0f b73e e9e7 903c 5d65 573c
00000380: 714e a1be ef11 56bf ff14 623e 56e2 b9bd
00000390: d16c a43c 381c d73d 16fb 873d d628 19bd
000003a0: 97e8 7fbe dc18 e7bc 40fa da3d a7d2 203e
000003b0: 7c69 d83c f0c9 053f 3461 a73c 2374 9bbd
000003c0: 8d00 cb3d 073a babe 1c7c 10be 5d6b 89bc
000003d0: a2ee ce3c 96c3 13bd f75e 563e 0c91 dfbc
000003e0: 0d55 6ebc 0082 79bd 35a1 aebd 8040 d9be
000003f0: 14de f3be 666d 17bc 87bd 113e 9768 dcbe

bias f4 [29]
0.4369502 -0.059764314 0.18711695 0.16820644 0.2831431 -0.64468837 -0.012552857 -0.5901064
0.039644677 -0.8001013 -0.1127724 0.17774068 0.07928624 0.21192613 -0.015157118 -0.08257445
-1.2610776 0.37280127 0.24525556 0.46282065 -0.2943508 -0.74292964 -1.2465745 -1.0522712
-1.2457104 -0.19381402 -1.7723851 0.021782856 -1.6776286
00000000: f0b7 df3e 6dcb 74bd 969b 3f3e 4f3e 2c3e
00000010: 22f8 903e 4c0a 25bf 80aa 4dbc 3711 17bf
00000020: 7562 223d 70d3 4cbf 37f5 e6bd a701 363e
00000030: d360 a23d 2a03 593e 9055 78bc cb1c a9bd
00000040: fe6a a1bf cfdf be3e 4624 7b3e d4f6 ec3e
00000050: 26b5 96be a330 3ebf c18f 9fbf d3b0 86bf
00000060: 7073 9fbf 2f77 46be 84dd e2bf f671 b23c
00000070: 89bc d6bf
