models/LSTM/128/ESEU_60-40/ESEU_60-40_3_threshold_train_39.pt (torch, 353807 bytes, 7 tensors)

weight f4 [29, 32]
000000 f2 dc 05 bf c2 15 97 3f c4 70 30 3d 07 cd a7 3f
       -0.5229026 1.1803515 0.04307629 1.3109444
000010 e4 f9 c8 3d 88 82 92 3f 0a c4 20 be 7c 10 e3 bf
       0.09813288 1.1446085 -0.15699783 -1.7739406
000020 aa c5 65 3f 0d 20 a7 3f 6f 83 20 bf be 5b 9b 3f
       0.89754736 1.3056656 -0.6270055 1.2137372
000030 2d 88 7b be 8d 59 0a c0 9a de b3 bf 57 00 67 3e
       -0.24563666 -2.1617157 -1.4052308 0.22558723
000040 39 b3 15 3f 20 4a a2 bf 04 e3 53 c0 5e 01 88 3f
       0.584766 -1.2678871 -3.310731 1.0625417
000050 de 04 97 bc 17 86 b6 3f 8d e9 9e be b8 a8 5b 3f
       -0.018434938 1.4259671 -0.3103756 0.8580432
000060 f6 53 eb 3f 69 a6 09 bf 67 56 a3 bf 9b fa d6 3f
       1.8384998 -0.53769547 -1.2760743 1.6795229
000070 0f 33 48 3f 48 90 6d bf e5 7c da bf be 9a 39 3f
       0.7820291 -0.9279828 -1.7069365 0.7250174
000080 a1 4a a5 3f 8d bc 86 3f 6b 7b 7a 3f 0b 76 6f 3f
       1.29134 1.0526291 0.9784457 0.93539494
000090 26 0e aa be 00 fb 38 be c7 40 53 3f 5c 6b e6 3f
       -0.3321392 -0.18064499 0.8252072 1.8001513
0000a0 39 f7 2b 40 46 b3 4d 40 26 ab 44 3f 3c 22 09 bf
       2.6869643 3.214067 0.7682365 -0.5356786
0000b0 67 4b 0a bf f1 35 0e c0 d9 bc 0f bf eb 69 39 c0
       -0.54021305 -2.2220423 -0.56147534 -2.8970897
0000c0 f2 a2 52 3e c0 0f 1c be 36 7b 6c bf 29 41 ec 3f
       0.20569971 -0.15240383 -0.92375505 1.8457385
0000d0 9e be 34 40 20 f9 cd bf bf 1f b6 bf b8 fa 02 bf
       2.8241343 -1.6091652 -1.4228438 -0.51163816
0000e0 9f d3 9d bf b1 47 20 40 67 9a 8d 3f 4f f7 6d 3f
       -1.2330207 2.5043757 1.1062745 0.9295549
0000f0 d4 dc 27 c0 1b c3 f3 bf cb c6 e3 3f 51 d4 4c 3f
       -2.6228533 -1.9043916 1.7795042 0.8001147
000100 f4 fe 7f 3f 84 d9 08 3f 36 00 3c 3f 24 cf e6 bf
       0.999984 0.534569 0.7343782 -1.8031964
000110 3d b7 91 be 0f c1 41 40 c6 b3 15 c0 a5 e1 34 bf
       -0.28460112 3.0274084 -2.3390975 -0.70656806
000120 70 99 94 bd 93 d7 dd bd a6 3a 8a 3e 05 0f d3 bf
       -0.072558284 -0.10832133 0.2699787 -1.6488959
000130 b3 83 12 3d cf 38 e7 3f 49 96 86 3f 11 05 1c 3e
       0.03577013 1.8064212 1.0514613 0.15236308
000140 e5 61 12 3f b5 ce d9 3f e8 7c 7d 3f 9b ea 07 bf
       0.57180625 1.7016207 0.99018717 -0.53092355
000150 7f c8 9f bf 47 2d 14 bf 3e 3e 1d 40 80 0d aa 3e
       -1.2483062 -0.5788159 2.456924 0.33213425
000160 1d ab 45 3f 0f a6 29 3e 6e d1 19 3f 2b 67 b1 3f
       0.77214223 0.16567253 0.6008519 1.3859609
000170 ed f7 c0 3e d5 3d bc 3e 0c c0 ac 3e 88 c7 02 40
       0.37689152 0.36765924 0.3374027 2.0434284
000180 96 3b d0 be 01 93 0c c0 1e 04 3f 3f cd 62 20 3f
       -0.4067046 -2.1964724 0.7461566 0.6265076
000190 fa 84 94 3f fd c5 82 3f d0 27 89 be a3 90 83 3e
       1.1603081 1.0216671 -0.26788187 0.25696287
0001a0 ed e2 33 c0 58 16 92 be 16 65 57 40 39 b5 04 bf
       -2.8107255 -0.28532672 3.3655448 -0.51839024
0001b0 5a 9d 5d bf 6f f8 ca 3f 9c 6b 03 40 fa 6a db bf
       -0.86568224 1.5857066 2.053443 -1.7142022
0001c0 f0 bb da be 4f f6 20 bd d5 3f 8c 3f 8a 4d e0 3f
       -0.4272151 -0.0392974 1.095698 1.7523663
0001d0 64 2e f6 3f 4f ed 8a bf 14 0b e9 bd b3 c1 ab 3f
       1.9232907 -1.0853671 -0.11379066 1.3418487
0001e0 70 cf e4 3e f9 ce ce be 0c 64 17 c0 e8 df 2c c0
       0.44689512 -0.40392283 -2.3654814 -2.7011662
0001f0 ad 26 a7 bf 03 12 6a bf a7 d2 04 bf 63 c3 e6 bf
       -1.3058678 -0.91433734 -0.5188393 -1.8028377
000200 c0 0f e5 bf 2f ad 00 be 5d 39 3c bd 01 b5 9d 3d
       -1.7895432 -0.12566064 -0.045953143 0.077005394
000210 2c e6 17 40 36 a7 5e bf da f3 b7 3f e5 b3 05 c0
       2.3734236 -0.86973894 1.4371293 -2.089105
000220 30 8e 7d 3e 56 b0 b4 bf bf 29 e2 3e 02 a7 34 3f
       0.24761271 -1.4116313 0.44172475 0.70567334
000230 85 75 ab bf f3 66 0d c0 e0 e7 21 c0 16 3b 87 3f
       -1.3395239 -2.2094085 -2.5297775 1.0564907
000240 36 73 6d 3e 01 57 8d 3f e2 c5 f2 3f af 21 52 3f
       0.2318848 1.1042176 1.8966639 0.8208265
000250 ea 79 d8 3e 1d d3 d7 bc 91 00 9c 3e 6f 71 57 3f
       0.42280513 -0.026345784 0.30469182 0.8415746
000260 94 e7 db be 4c 68 a1 3e 7d 1c b0 3f 0d 94 8c bf
       -0.42950118 0.31524885 1.3758694 -1.0982682
000270 8c af 8c be 51 5c fb 3e ab 16 c1 bf bd 87 b3 3e
       -0.27477682 0.4909387 -1.5085043 0.35064498
000280 a6 47 90 3f 0b d9 8b bf c5 c9 e9 3e 2d db 73 be
       1.1271865 -1.0925611 0.4566175 -0.23814078
000290 e0 81 d2 3e ae 5e 17 40 29 ca f9 be e3 53 72 be
       0.41114712 2.3651538 -0.48787048 -0.23664813
0002a0 8d e6 85 3f e5 fd 95 3f 56 4a fb 3e 7f dd 3f 3f
       1.0460984 1.1718107 0.4908015 0.7494735
0002b0 ef b6 9e bd 09 eb c1 3f 31 42 fb 3e 11 36 b2 3e
       -0.077497356 1.5149852 0.49073938 0.34806874
0002c0 60 c7 a9 bf e9 d0 d0 bd e7 20 1a c0 d3 44 8e 3f
       -1.326397 -0.101960965 -2.4082582 1.1114753
0002d0 81 7f 05 40 ef db 62 be 1e 49 d6 3f a1 aa d0 bf
       2.0859072 -0.2215421 1.6741064 -1.6302072
0002e0 31 62 ba 3f 03 9b b2 3f 8d ee 18 3f 5d b6 d8 bf
       1.4561216 1.3953556 0.59739 -1.6930653
0002f0 c8 c7 52 be f4 c3 02 40 3a d9 84 3f 7c d7 eb 3f
       -0.20584023 2.04321 1.0378792 1.8425136
000300 cd bd 02 40 f0 02 14 3f e3 e0 ac bf 97 a5 31 40
       2.0428345 0.5781698 -1.350613 2.7757318
000310 ce ec d2 3e 0d e3 83 3f 14 6c 8d bf 29 37 cb bf
       0.41196293 1.0303665 -1.1048608 -1.5876209
000320 6b 34 11 bf 95 04 33 bf 1e bd 7e be 0d 44 9e bf
       -0.5672061 -0.69928867 -0.2487683 -1.2364517
000330 7a 1e b3 bf 88 44 44 3f 73 79 ad bd 77 99 83 bf
       -1.3993676 0.7666707 -0.0847043 -1.0281209
000340 cd 69 14 bf e5 cd 50 bf 44 4b c0 bf 8b bd a6 3f
       -0.5797394 -0.8156417 -1.5022969 1.3026594
000350 52 94 51 3f 40 6f bd bf c0 da 86 3e 36 7e c2 3f
       0.81866944 -1.4799576 0.26338768 1.5194767
000360 5f 7f 94 bf 0b b0 81 bf da 4a 39 40 f4 b3 94 3f
       -1.160137 -1.0131849 2.8951936 1.1617417
000370 d5 6a 9a bf 69 fb b3 3f de c5 01 c0 d0 f1 75 be
       -1.2063853 1.4061099 -2.0277019 -0.24018025
000380 97 30 cb 3f 47 64 c1 3d e3 e7 e4 3f 8b a1 19 c0
       1.5874203 0.094429545 1.7883266 -2.4004848
000390 fa c9 48 bf d0 4e 95 bc 5b 42 b0 3e af 8a 18 3f
       -0.7843319 -0.018226057 0.34425625 0.59586614
0003a0 2c 72 33 c0 2c 47 2f bd 2a ed 8d bf c7 99 55 3f
       -2.8038435 -0.042792484 -1.1088002 0.8343777
0003b0 81 59 d7 3f 84 a0 eb be 5d a0 9c bf 50 67 f5 be
       1.682419 -0.460209 -1.2236439 -0.47930384
0003c0 24 36 fa 3f 04 d2 9b bf 43 ca 83 bf 48 07 b6 3d
       1.9547772 -1.2173467 -1.02961 0.088881075
0003d0 9c 0c ff 3f f2 ce ab bf 26 fd e5 3e ab f4 b6 3f
       1.9925723 -1.342253 0.449197 1.4293417
0003e0 37 cb 97 3f 33 c6 76 3e a5 4d 05 bf 32 25 36 3f
       1.1858891 0.24099045 -0.520716 0.71150506
0003f0 70 e7 ea bf 13 4e 88 3e 0e be 36 c0 87 f7 7d 3d
       -1.8351879 0.26622066 -2.85535 0.06200364

weight_ih_l0 f4 [512, 32]
000000 8a 3e 44 3e 1c 69 4f 3e ae 1e ed 3d 23 7e 33 be
       0.19164482 0.2025494 0.11578117 -0.17528586
000010 3f 58 8c bd 78 77 3a 3f 51 74 32 be 78 e7 2c be
       -0.06852769 0.72838545 -0.17427184 -0.16885173
000020 67 41 e2 bd ef d4 e3 3c a0 08 63 be e7 e8 d5 3b
       -0.11047631 0.027811496 -0.22171259 0.0065280083
000030 69 f3 42 bd 46 c5 2b be 21 5c 5f 3d d1 ac 9a be
       -0.047595415 -0.16774473 0.05453122 -0.30209973
000040 a8 13 54 be 2a df de 3e 3c ce fb bc 38 31 21 3e
       -0.20710623 0.43529636 -0.030737989 0.15741432
000050 86 f8 9f 3e 20 42 22 be 86 27 05 3e ad 5e ec 3d
       0.31244296 -0.15845537 0.13003358 0.115414955
000060 1f b1 c1 be 09 6c d4 3e c7 9e cb 3e 4c e6 82 3b
       -0.37830445 0.41488674 0.39769575 0.0039947387
000070 12 59 49 be 6d 48 45 3d f8 91 33 be 21 15 39 3e
       -0.19662884 0.048164774 -0.17536151 0.18074466
000080 ce 9f 1d be 41 b0 03 bc 64 c2 17 be d0 24 18 bd
       -0.15392992 -0.008037628 -0.14820248 -0.037144482
000090 c6 1c 38 bd 8c eb 7d bd 3e f3 2f be 35 62 aa be
       -0.044949315 -0.061992213 -0.17182633 -0.3327805
0000a0 b3 01 0d 3e cb 7c 94 3d 79 cb 6e 3e ff ce 4b be
       0.1377018 0.07250365 0.23319806 -0.19903181
0000b0 13 7d fb bd 02 dc eb 3d e2 05 34 be 33 ea 04 3e
       -0.122797154 0.115165725 -0.17580369 0.12979965
0000c0 b1 eb 04 be c0 a4 53 be 2b dd 8f bc f4 24 40 bc
       -0.12980534 -0.20668316 -0.017561516 -0.01172756
0000d0 18 69 92 bd e8 b3 20 be 6f 2b 49 3e ce 21 a9 3e
       -0.07148951 -0.15693629 0.19645475 0.33033603
0000e0 f5 37 62 3d d6 6b 5e be 0b 6a 1c be fb 53 3b 3e
       0.055229146 -0.21720824 -0.15274827 0.18293755
0000f0 f4 ea 59 3e 26 1f 64 3e e4 bf 2e 3e 14 8b 58 bd
       0.21281034 0.22277507 0.17065388 -0.05286701
000100 11 43 d6 bd bb e5 a0 3e f6 11 90 3e 9b df 61 be
       -0.10462011 0.3142527 0.28138703 -0.22057955
000110 98 ba 24 be 6b d2 d2 bc 76 4c 5f be 88 23 45 3e
       -0.16086805 -0.0257351 -0.21806511 0.19251835
000120 91 8f b9 be e5 9c 02 3e f4 76 97 be 96 b3 e2 bd
       -0.36242345 0.12755163 -0.29582942 -0.110694095
000130 ab ec 5a be 8e 62 10 3e 99 de 7a 3e e8 69 47 bd
       -0.21379344 0.14100096 0.24498977 -0.048684984
000140 61 17 37 b9 e4 3d 94 be fc e3 a0 bc 7d c1 a5 be
       -0.0001746095 -0.2895347 -0.019639961 -0.32374182
000150 d1 c5 72 bd cb cc 64 3d 25 0e fd 3e 51 ab c5 bd
       -0.059270684 0.05585937 0.49424854 -0.09651817
000160 05 8e 10 3e 65 b6 58 bd 76 4a 1b be 17 16 b4 3e
       0.14116676 -0.05290832 -0.15165123 0.35173103
000170 d9 d3 c4 3e 4e 82 91 3e 08 51 fb 3d 60 bb 73 bd
       0.38442877 0.28419727 0.12271315 -0.059504867
000180 b1 bf 3a bd b9 b9 ad be 46 35 89 be 4e 90 89 bd
       -0.045592967 -0.33930758 -0.26798457 -0.06716977
000190 1c 23 bf 3e 37 04 96 bd 5e 71 e9 3e a1 c6 81 3d
       0.37331474 -0.07325023 0.45594305 0.063367136
0001a0 94 6b 28 3e 0c 28 25 bd e4 d9 0b 3e 95 1a 88 be
       0.16447288 -0.040321395 0.13657337 -0.2658278
0001b0 c5 e4 ba bd e6 70 0b bd a4 18 a8 bd a3 82 f5 bc
       -0.091256656 -0.034043215 -0.08207825 -0.029969519
0001c0 a7 4d 14 bd 08 c8 5b bd 68 9d bf 3d 60 87 7e be
       -0.036206868 -0.05365756 0.09356195 -0.24856329
0001d0 d2 db 23 3f 94 d4 a0 be e0 6f 9f 3b b5 05 ac 3e
       0.64007294 -0.31412184 0.0048656315 0.33598104
0001e0 ff 14 96 be 2d 09 79 3e 91 11 2c 3e ed 99 87 3d
       -0.29312894 0.24319907 0.16803576 0.06621156
0001f0 68 4e 2a bf 48 85 c9 3d 6a 39 17 bd 2e b8 e6 3b
       -0.6652589 0.098398745 -0.03691999 0.007040999
000200 22 30 9b 3c dc e1 c3 be cc e8 b0 3e d5 31 87 3d
       0.01894385 -0.38258255 0.3455261 0.066013016
000210 5e e0 77 3e de 3e 41 3f c3 a8 aa 3e 87 63 c8 be
       0.24206683 0.7548655 0.3333188 -0.39138433
000220 4c bc c3 be b8 b0 ab 3d 40 e7 38 3b 08 69 b9 3c
       -0.38229597 0.08383316 0.0028214008 0.02263309
000230 23 95 b6 be 2b 43 7d 3d 4d f0 22 bb c5 2b 70 be
       -0.35660657 0.061831634 -0.0024862469 -0.23454197
000240 2f 4d 8d bc f3 6d a0 3e 0d 7e 85 bd 3d 1f 8d 3d
       -0.017248718 0.31333885 -0.06518183 0.06890724
000250 c8 c9 97 3e 8a 3d a4 be 54 e8 c8 3e 6a 55 e4 3d
       0.29646134 -0.320782 0.39239752 0.11149104
000260 9a 62 9f 3d e0 cc 7f be 0f 32 9a 3e 51 87 b1 bd
       0.07782479 -0.24980497 0.30116317 -0.08668388
000270 bc 41 18 3d ba 52 a8 be 88 cf 11 bf 00 88 34 bd
       0.037172064 -0.32875615 -0.5695729 -0.044075012
000280 4b 73 81 bd be 17 85 be 3c bf 51 3e 26 7f 90 3e
       -0.063208185 -0.25994676 0.20483106 0.28222007
000290 4a bb 91 3e 0a 4d 58 be fd 70 61 be 26 dc e2 bd
       0.28463203 -0.21123138 -0.22015758 -0.11077146
0002a0 e8 c3 ed be 0a 33 b9 be 20 d8 bc bd c9 85 a8 be
       -0.46438527 -0.36171752 -0.0922091 -0.3291457
0002b0 5f ac 86 3e e4 e6 a8 be df 91 49 bc 7d fe 97 be
       0.26303384 -0.32988656 -0.012302845 -0.29686347
0002c0 63 78 8a 3c 5d aa 36 be 8a 0b b9 be b0 f1 cc bd
       0.016903108 -0.17838426 -0.36141616 -0.10007036
0002d0 7f ba 09 3e b2 51 44 3e 32 fb 21 3f c0 6b 04 3e
       0.13450049 0.1917179 0.6327392 0.12931728
0002e0 eb 94 f0 bd 3c 03 80 be 2a b3 8e be de 6f d1 3e
       -0.11747154 -0.25002468 -0.27871066 0.4090566
0002f0 72 5f af 3e e0 9b 1a 3e 6a 94 85 3d 30 30 95 be
       0.34252506 0.15098524 0.06522448 -0.29138327
000300 2a 3a 61 39 e4 4b c6 be 18 11 c3 be 0c 12 12 3d
       0.0002147934 -0.38729775 -0.3809898 0.035661742
000310 a4 39 25 3e 53 65 34 3e 7f e9 93 3e de 3c 96 3d
       0.1613527 0.17616777 0.2888908 0.07335828
000320 7b ed 6c 3e 7a 7e bd bd 55 9e df 3e a0 34 85 be
       0.23137467 -0.09252639 0.43675485 -0.26016712
000330 25 1c c3 be a3 f7 78 3d 6a 75 4e 3e e5 98 55 3f
       -0.3810741 0.06078304 0.20161977 0.83436424
000340 46 6c b3 3e 25 35 f3 3b 41 1d 39 3e 51 25 30 bd
       0.35043544 0.007422107 0.18077566 -0.043004338
000350 4f 21 8c 3e a1 53 a6 bd ed 18 ca be 3d f5 51 3e
       0.27369162 -0.0812142 -0.39472142 0.20503707
000360 0a 36 a5 3d e3 88 e8 3e 32 c7 fc 3e ed fa 38 be
       0.08066948 0.45416936 0.49370724 -0.1806447
000370 62 1d 53 be 30 8e 04 be 96 f5 32 be 09 a9 7f be
       -0.20616677 -0.12944865 -0.17476496 -0.24966826
000380 0c 92 7c bd 52 f2 a7 3e 53 fe 3b 3d 10 1c 2f be
       -0.06166272 0.32802063 0.04589684 -0.17100549
000390 aa b7 06 3e 8d 18 4f be 10 59 4e 3d 20 0a e9 3d
       0.13156 -0.20224209 0.050377905 0.11378884
0003a0 65 c2 00 bf a4 66 26 be 02 ea ac 3c bb da 6c be
       -0.5029662 -0.16250092 0.021107677 -0.23130314
0003b0 f9 b3 02 bf d1 64 1e bd 7f b6 c1 be 36 81 b1 3e
       -0.51055866 -0.038670365 -0.37834546 0.34668893
0003c0 a7 a4 0e 3f 17 46 0c 3e 76 94 75 3b a2 74 89 3e
       0.5571999 0.13698612 0.0037472523 0.26846796
0003d0 25 06 d0 bd f2 f3 df 3d 44 99 68 3d 2b c0 a0 3e
       -0.10157422 0.10935201 0.05678679 0.31396613
0003e0 54 ac 8b 3e a9 49 9d 3e c9 5c 31 be 33 0b 10 3e
       0.27279913 0.3072026 -0.17320551 0.14066772
0003f0 0a dd 2d be f5 64 3d 3e 0c af ed be 60 b3 4d 3c
       -0.16978851 0.18495543 -0.46422613 0.012554973

weight_hh_l0 f4 [512, 128]
000000 19 77 25 3f 2c 5c 3e bf 59 e1 8c 3d 43 12 d6 3d
       0.64634854 -0.74359393 0.06878919 0.10452702
000010 42 39 a1 be e9 e9 4e be fa cd ca 3d 93 8f bd be
       -0.31488997 -0.20206417 0.09902568 -0.370236
000020 eb 12 5b 3c 2f 43 1c be 22 1e e6 be 18 69 26 be
       0.01337121 -0.15260004 -0.44944865 -0.16251028
000030 d5 e5 02 3f a1 36 b6 3e 94 3f 1a 3f 7c 75 0c 3e
       0.51131946 0.35588554 0.6025326 0.13716692
000040 5a cb 00 be 4a 6f a9 3d 51 e7 d5 3e 12 ed e5 3e
       -0.12577572 0.0827318 0.41778043 0.44907433
000050 0d ac a8 be a2 61 7e be e5 34 7e 3d 68 23 5b bb
       -0.32943764 -0.24841931 0.062062163 -0.0033437852
000060 4b 26 2c bd 02 9c 92 be 09 68 f6 3e 86 f8 49 3e
       -0.042028707 -0.2863465 0.48126248 0.1972371
000070 07 c8 2c 3e d7 b0 8f be 05 aa 7d 3e cf d9 d1 be
       0.1687318 -0.28064606 0.24771889 -0.40986487
000080 f5 7e c5 be 95 f5 5e 3f 63 91 92 be 35 5d ed 3e
       -0.38573423 0.8709348 -0.28626546 0.46360174
000090 c4 55 3f 3d 46 e5 0b 3e df b3 9f 3c 1b ae fb be
       0.04671265 0.1366168 0.019494949 -0.4915627
0000a0 7e c5 1c bf 55 fa 85 3e 30 8e 34 3d 85 dd cd be
       -0.6123885 0.2616755 0.044080913 -0.40208068
0000b0 c1 31 d3 be 7c 60 3e 3f 59 63 2f bb a3 08 01 bf
       -0.41248897 0.74365973 -0.0026762097 -0.50403804
0000c0 79 a2 8e 3e 5b fe 8b bc 96 a3 24 be e8 2f c2 3e
       0.27858332 -0.01708906 -0.16078028 0.37927175
0000d0 8b d5 00 3f 5b 36 d5 3e 42 d0 19 3f 3f b3 8b be
       0.5032584 0.41643032 0.600834 -0.2728519
0000e0 85 e6 6c 3e 4a d5 82 bc a7 75 9e 3e 52 43 16 bd
       0.23134811 -0.015970845 0.30949137 -0.036685295
0000f0 bb 94 3e 3f fd 8c 16 3f e8 f4 ae 3e db 5a 6b 3d
       0.74445695 0.5880888 0.34171224 0.057459693
000100 d6 fc 3a 3e 62 3f 35 be 62 c6 7a be a3 45 41 3e
       0.18260512 -0.1769996 -0.2448974 0.1887422
000110 b7 3e b6 3e ba b9 86 be 43 25 b8 bd 89 ec a5 be
       0.35594723 -0.26313573 -0.08991482 -0.32407025
000120 a6 a4 d5 3d e7 74 1e bf 22 9f ad be b3 f9 72 3e
       0.10431795 -0.6189713 -0.3391047 0.23728065
000130 1a 2a 6b 3d db 7e 75 be f2 f5 78 3e cb 7e 8f 3e
       0.057413198 -0.23974173 0.2431257 0.28026423
000140 d1 97 45 3e 35 29 72 bc 32 72 d0 3e 44 f6 25 bf
       0.19296195 -0.014780332 0.40712124 -0.64828897
000150 9d 73 8d be f8 8e 60 3e 69 ab 1b be ef 5f d5 be
       -0.27627268 0.21929538 -0.15202107 -0.41674754
000160 5b 78 6a 3e c1 18 47 3d 39 2c c9 3e a5 dc fb 3c
       0.22897474 0.04860759 0.39291552 0.03074486
000170 63 4c 93 3c 1f 4a 06 be ce ca 8c be 8c 6e ee bd
       0.01798076 -0.13114212 -0.27498478 -0.11642179
000180 04 14 ed 3e 28 cb 86 be e9 a1 93 3d 8b 5a 82 3e
       0.46304333 -0.2632687 0.07208616 0.25459704
000190 55 63 86 be 7d 29 17 bf b5 89 91 be f1 a8 8c be
       -0.2624766 -0.5904768 -0.28425375 -0.27472642
0001a0 d2 a1 76 3e 9f 12 5d be 56 a2 08 be 0a 8f 52 be
       0.24085167 -0.21589135 -0.13343176 -0.20562378
0001b0 41 0b 89 be 93 8c 99 be 77 d5 a2 3e 4c 11 09 bf
       -0.267664 -0.29990062 0.31803486 -0.5354202
0001c0 ba 4b f9 3d b4 f8 94 3e 9f 31 43 3e 3c ae 97 3e
       0.12172647 0.29095995 0.19061898 0.29625118
0001d0 0c 89 aa 3e 68 05 db 3d d4 5a 67 bd 07 20 07 3e
       0.33307683 0.106943905 -0.056483105 0.13195811
0001e0 a7 81 83 be a6 e7 85 3d c2 25 ab bb 97 b7 40 be
       -0.25684854 0.06538324 -0.005223007 -0.18820034
0001f0 75 f1 ca be 3f dc 80 be 10 50 84 bd e0 af 69 3d
       -0.39637342 -0.25168034 -0.06460583 0.057052493
000200 d5 f3 46 be f3 38 57 3e 68 41 c3 3e 7d 08 60 bd
       -0.19428952 0.21017818 0.38135839 -0.054695595
000210 78 32 28 be 0b e1 6b be e9 29 21 3c 52 9e 17 bf
       -0.16425502 -0.23035066 0.009836652 -0.5922595
000220 8d 05 12 3e b6 ee 3e be e9 2f d8 bd a6 e1 22 3e
       0.1425993 -0.18645748 -0.10556013 0.1590639
000230 8d 38 a2 be b7 7b 2c 3e 3f db 7c 3e a0 db a7 3e
       -0.3168377 0.16844068 0.24693011 0.32784748
000240 55 f2 72 3e 99 0d 1d be 77 c4 76 3f a7 d9 00 bf
       0.23725255 -0.15337218 0.9639353 -0.5033211
000250 2e e0 28 bd f8 8a 1d be ab a6 13 bf 7d 21 00 bf
       -0.04122942 -0.15385044 -0.5767619 -0.500511
000260 13 b2 da 3d a1 e4 c3 3d 87 f5 aa be 1e d6 07 3e
       0.10678496 0.09565092 -0.33390447 0.13265273
000270 4e 33 c9 be c0 82 b8 bf 45 b8 65 3e 8a 69 f0 bd
       -0.39296955 -1.4414902 0.22433574 -0.1173888
000280 4a 3b 06 bf eb 06 d0 bd 69 45 86 3e c1 a5 96 3d
       -0.5243422 -0.101575695 0.2622483 0.07355834
000290 45 b8 b4 be 33 6f 81 bf c6 8b bb be 22 b5 7e be
       -0.35296836 -1.011206 -0.36630076 -0.24873784
0002a0 96 e0 85 be 0b cf 02 3f e0 05 06 3e 4a da 8e be
       -0.26147908 0.5109717 0.13088179 -0.27900916
0002b0 40 15 f0 3e 14 ec 8c be 1f 8d 93 3d 66 62 b3 bd
       0.46891212 -0.27523863 0.07204651 -0.087590024
0002c0 38 0a 82 bd 73 e3 33 3d 2d 25 49 bf c7 c0 68 bc
       -0.06349605 0.043918084 -0.7857235 -0.014206118
0002d0 3b 13 17 be 41 07 07 3f b5 1e d9 3f b6 e0 05 3f
       -0.1475343 0.52745444 1.6962496 0.52296007
0002e0 eb d4 e2 bd 0d 6d 3a bd f8 cf 52 be e7 9c 0d 3f
       -0.11075767 -0.045514155 -0.20587146 0.5531754
0002f0 31 45 dd bd 9e 17 59 3e fb 55 02 3f f4 5a 83 bc
       -0.10804213 0.21200415 0.50912446 -0.01603458
000300 fe 9d fa 3e 71 7f 4e bc cc 63 66 bc 9c b6 14 3f
       0.48948663 -0.012603627 -0.014061879 0.5809114
000310 fe b7 a6 3e 1c 36 4c be 05 23 10 bf 4e f9 41 3d
       0.3256225 -0.19942516 -0.56303436 0.047356896
000320 92 87 f2 3d 5c 1e 0d 3e c3 99 5f be 70 e8 43 be
       0.11842264 0.13781112 -0.21835999 -0.19131637
000330 89 f4 05 be 9d f4 8d bd dc f4 3a be 81 96 68 be
       -0.13081564 -0.06931422 -0.18257469 -0.22713663
000340 b8 43 f6 3d 57 04 c3 be 11 cd 3f be 89 24 84 3d
       0.12024635 -0.3808925 -0.1873057 0.06452281
000350 3a fb 64 3e 83 cc 42 3e 2f 45 0a be 02 e2 50 be
       0.2236146 0.19023328 -0.13502954 -0.20398715
000360 c1 2d fc 3b 0e 15 8f be cb 7e 2e 3e 1d bb 42 3f
       0.007695884 -0.2794575 0.17040555 0.7606676
000370 f3 f8 38 3f ce a8 0e be 27 85 a0 3e ce 60 06 bd
       0.72254866 -0.13931581 0.31351587 -0.032807164
000380 ef 3f ce 3e c1 17 dd be b5 4b 81 3f ea de ae bc
       0.40283152 -0.43182185 1.0101229 -0.021346528
000390 c2 3b fa 3d 23 33 07 bf af a7 0d 3f 5a bf ff 3d
       0.12218429 -0.52812403 0.5533399 0.12487669
0003a0 0e 11 fd be a8 5a 86 3e d3 e5 0b 3f 23 c3 78 3f
       -0.49427074 0.2624104 0.5464756 0.97172755
0003b0 74 e5 f4 bd 0e 38 a6 bc af 60 60 bd 54 1f a5 3c
       -0.11957827 -0.0202904 -0.054779705 0.02015654
0003c0 fc 09 2d be 84 ab 35 be 63 3f 4f be 14 dc 2a bb
       -0.1689834 -0.1774121 -0.20239024 -0.0026071118
0003d0 9a 10 aa 3e c0 86 2f bd 32 72 d9 be 6d f9 4f be
       0.3321579 -0.042853117 -0.42469937 -0.20309992
0003e0 82 88 0a bf 47 38 02 bb 8a c4 8d 3e 7a 4b b4 3e
       -0.54114544 -0.001986997 0.2768901 0.35213834
0003f0 61 ce b5 be 6e 3c b4 3e d9 0a 15 bb 6d ba 10 bf
       -0.35509017 0.35202354 -0.0022742061 -0.56534463

bias_ih_l0 f4 [512]
000000 f7 c5 99 3d e1 de f9 bb 83 89 38 3d 1f a4 b5 3e
       0.07508462 -0.007625446 0.045053016 0.35476777
000010 0e c7 9b 3d f9 96 b9 3e 0b b6 11 3e fa db a7 3d
       0.07606326 0.36247995 0.142296 0.08196254
000020 77 e8 a2 3e 7a f5 cc 3d 92 ae ca 3e b6 22 73 3e
       0.31817982 0.100077584 0.39586312 0.2374371
000030 b8 29 8c 3e 3a 0d be 3c 34 fb 18 3e 0f 24 fd 3d
       0.2737558 0.023199666 0.14939576 0.12360393
000040 5f a0 80 3d 2d 4d d0 3d a2 46 e4 3d 5c 11 42 3e
       0.06280588 0.1017097 0.11146285 0.18951935
000050 08 7a f3 3d 80 32 4e 3e fb 85 57 3e 9c fa d9 3d
       0.1188851 0.20136452 0.21047203 0.10643503
000060 5b 32 76 3e d1 26 e0 3d df 00 72 3e 5e 99 8f 3e
       0.24042647 0.10944904 0.23633145 0.28046697
000070 c3 ee 5b 3e 62 7e e9 3c 45 8e 4e 3e bc ee f2 bd
       0.21477799 0.028502647 0.20171459 -0.11861941
000080 eb d1 80 3e bf 87 30 3e 02 bd 55 3e 20 1c c5 3e
       0.25160155 0.17239283 0.20872882 0.3849802
000090 f6 4c 3f 3e 00 42 a7 3e a7 12 48 3e 0f 0a bb 3e
       0.18681702 0.32667542 0.19538365 0.36531112
0000a0 5a de 58 3e 74 0e ae 3e 53 1d 1a 3d 85 0a 5a 3e
       0.2117857 0.33995402 0.037625622 0.21293075
0000b0 e1 dd e1 3d d2 f7 f2 3d 87 47 47 3e be 92 f2 3d
       0.11028648 0.11863674 0.1946088 0.11844395
0000c0 4d c8 12 3e 0c 5f 23 bc 6f da 94 3e c4 cf c9 3e
       0.14334221 -0.009971391 0.29072902 0.39416325
0000d0 e9 66 e1 bd a7 68 29 3e 48 24 18 bd e9 2d 97 3e
       -0.11005957 0.16543828 -0.037143975 0.29527214
0000e0 09 dd 6c 3e bb 11 b8 3e 7f 61 d6 3d d5 fe 81 3e
       0.23131193 0.35951027 0.10467815 0.25389734
0000f0 9d fb a2 3e cf 69 58 3e 35 e2 a7 3e 6e a2 78 3e
       0.3183259 0.21134113 0.3278977 0.24280712
000100 54 0d a3 3e 77 f0 89 3e 88 cb 0d 3e 6a 16 80 3e
       0.31846106 0.26941273 0.13847172 0.250171
000110 01 34 ab 3e e7 59 01 3f 4d 51 bf 3d 86 87 75 3e
       0.33438113 0.50527805 0.09341679 0.2397748
000120 24 0e dc 3d 41 c0 80 3e c9 e9 86 3e 2f db 26 3e
       0.107448846 0.25146678 0.2635024 0.1629455
000130 7f 3e 42 3e 2c 6f 99 3e 2a 99 80 3e 7e cf 6c 3e
       0.18969153 0.2996763 0.25116855 0.23126027
000140 6f 95 bd 3e 0c 44 9f 3e 3e 89 7e 3d 51 2a 09 3e
       0.3702807 0.31106603 0.062142603 0.13395049
000150 0d 27 1a 3e 8b 7a 77 3e 92 a5 78 3e 61 f7 14 3e
       0.15053959 0.2416784 0.2428191 0.14547493
000160 5f 63 ca 3e 07 af ba 3d 3f ad 4f 3e 49 af 8d 3e
       0.3952894 0.09115415 0.20280932 0.27672794
000170 37 17 47 3e 12 3f c5 3e bb 59 00 3e 8f c5 b4 3d
       0.1944245 0.3852468 0.1253423 0.08826744
000180 d7 ee a9 bd c3 88 68 3e d4 d0 9e 3e a8 29 98 3e
       -0.08297508 0.2270842 0.31018698 0.2971928
000190 e3 af 8d 3e d0 95 a1 3b 9b f3 7d 3e 0e fe fc 3e
       0.27673253 0.004931189 0.2479996 0.49412578
0001a0 60 40 8a 3d d8 99 20 3e 87 cb 43 3e 43 d3 04 3e
       0.0675056 0.15683687 0.19120608 0.12971215
0001b0 7d 5b 2e 3e 9e ca 39 3e 5c 63 30 3e 1b 77 75 be
       0.17027088 0.18143699 0.17225403 -0.23971216
0001c0 e4 24 90 3e 09 0c 98 3e aa 77 a9 3d 80 12 5a 3e
       0.28153145 0.29696682 0.08274777 0.2129612
0001d0 c2 61 de 3d 98 be e8 3d ee f1 dc 3e e8 f3 5f 3e
       0.108584896 0.11364478 0.43153328 0.21870387
0001e0 10 17 4f 3e 7f 6e f7 3d fd 6c 84 3e 27 74 0a 3e
       0.20223641 0.12081622 0.258644 0.13520871
0001f0 0e 64 1e 3e c1 bb 06 3e df 25 58 bd a9 94 9e 3e
       0.15467855 0.1315756 -0.05277049 0.30972794
000200 ff 13 d2 3d 84 48 22 be 66 a0 01 3e a0 a6 6a bd
       0.1025772 -0.15847975 0.12658843 -0.057287812
000210 51 a7 f5 bd 25 e5 1b be 15 97 d0 bd a7 ca 1f bc
       -0.11994804 -0.1522413 -0.101850666 -0.009752906
000220 9e 87 c2 bc 64 0c e0 3d c4 1d 1b be 28 d5 b6 3d
       -0.023746308 0.10939863 -0.15148073 0.08927375
000230 4d 8a bf bd 6b 55 2c 3d c5 fd 3c 3c 55 7c 9e 3d
       -0.09352551 0.04207365 0.011535113 0.07738558
000240 62 95 ca 3d cb 90 5a be d8 70 2c 3d 6e 0c 2b be
       0.09891774 -0.21344297 0.042099804 -0.1670396
000250 f9 f9 06 3e 9a fd 51 3d ce 11 34 be 48 f6 0c be
       0.13181295 0.051267244 -0.17584917 -0.13765824
000260 28 1d 11 3e 26 9c d7 3d 88 24 f9 bd fd 2f 2a bd
       0.14171278 0.1052783 -0.12165171 -0.04154967
000270 7a d1 92 bb 3f 64 a2 bd 1f f6 09 3e 55 94 c5 be
       -0.004480538 -0.07929277 0.13472794 -0.3858973
000280 6c 3b 4c 3e 83 6d 05 be 00 7e 53 be d2 8a e6 3d
       0.19944543 -0.13030057 -0.20653534 0.112569466
000290 53 c7 9a bd 03 16 05 39 94 57 2f bd ce 70 69 bd
       -0.07557549 0.00012692068 -0.04280813 -0.056992345
0002a0 b1 3e 1e be e0 ee e1 bd 4d c4 30 3e 96 e3 8e 3d
       -0.15453602 -0.1103189 0.17262383 0.06977002
0002b0 3a 4f 51 3e 63 c9 88 3d 97 25 78 be 76 58 2c bd
       0.20440379 0.066790365 -0.2423309 -0.04207655
0002c0 fa bd 7a bd c8 b2 c3 bd f3 9a 90 bd 50 0e c8 bc
       -0.061216332 -0.09555584 -0.07060804 -0.024420887
0002d0 1d 7d 0a be 06 40 46 bd 52 86 71 be 1f fe 16 be
       -0.1352429 -0.0484009 -0.23586395 -0.14745377
0002e0 25 1d 52 be 8c 5d f5 bc e7 30 25 3e 35 db 9f 3d
       -0.2051893 -0.029951833 0.16131936 0.07805482
0002f0 49 50 94 3d 30 3b 7f be 4f 54 0c 3d 89 2a 55 3d
       0.07241876 -0.24924922 0.03426009 0.052042518
000300 0c 08 2e 3d 57 8e 38 bd 24 f2 2f 3e ef 68 3e be
       0.042488143 -0.04505762 0.17182213 -0.18594716
000310 41 76 50 be 26 ba 4a bc 1b 57 b5 bd 91 9f 6c be
       -0.2035761 -0.012373483 -0.08854505 -0.23107745
000320 d1 ff bd bd 5c 5b af 3d 52 fd 26 be 48 40 84 be
       -0.09277309 0.08562347 -0.16307572 -0.25830293
000330 a1 00 0f be 35 e1 1e bd ea 26 98 bc 0c a1 47 3d
       -0.13965084 -0.038788993 -0.018573243 0.04873757
000340 4f 31 8d bc cb 72 c0 3d 5c 05 89 bc 8e c9 42 bd
       -0.017235426 0.09396895 -0.016726188 -0.0475555
000350 f8 b1 12 3d 1e 73 bd bd 62 05 94 bd c0 45 01 3e
       0.035814255 -0.092504725 -0.07227589 0.12624264
000360 83 69 7f bd 16 e4 49 bd 87 4f 64 be ca 1f 58 be
       -0.062356483 -0.049289785 -0.22295962 -0.21105877
000370 14 25 ed bd c0 f1 25 3e 4b cb 1f 3e e2 e1 21 3d
       -0.11579338 0.16205502 0.15604894 0.03952206
000380 67 c1 a7 3d de 67 94 3d 27 25 58 bd 26 b3 6f 3d
       0.081911854 0.072463736 -0.052769806 0.05852046
000390 61 d0 5a 3d 2a a8 6a bd c0 7a 8b be 7c c6 2c 3e
       0.05342138 -0.05728928 -0.27242088 0.16872591
0003a0 91 79 a4 bc f0 64 11 3e 1d 3e 0b be 71 20 17 be
       -0.020077499 0.14198661 -0.13597913 -0.14758469
0003b0 1a f4 78 3d 17 9f 8d 3d 47 bb 39 bb 14 94 0f bd
       0.06077967 0.069151096 -0.0028340386 -0.035053328
0003c0 1a 3b 23 be 44 6b 3f 3d 43 4b c0 bc 62 1d 82 3e
       -0.15940514 0.046733156 -0.023473388 0.25413042
0003d0 96 d5 48 3d 84 59 fd 3d b0 fa 9c bd a6 6b 55 be
       0.049031816 0.123705894 -0.07665002 -0.20841846
0003e0 b5 6e 88 3d c9 8c 80 bc 48 66 00 bd 4c 64 39 be
       0.06661741 -0.015692132 -0.031347543 -0.18104666
0003f0 fa d6 b5 3d 80 15 f2 3c c0 bd 2e bd 8d 05 fa bb
       0.08878894 0.029551268 -0.04266143 -0.0076300562

bias_hh_l0 f4 [512]
000000 cd 60 d8 3d c6 37 f2 3d 61 68 4e bc 7f 37 85 3e
       0.10565338 0.11827044 -0.012598128 0.26018903
000010 34 04 e1 3d 75 dc 7f 3e 97 7f 22 3e b5 ad 8b 3d
       0.1098713 0.24986441 0.15868984 0.06820241
000020 36 6c 5c 3e ef 88 50 3e b0 b8 cb 3e d0 0f bc 3e
       0.21525654 0.20364736 0.39789343 0.36730814
000030 ef 66 86 3e 3e c4 2b 3d 10 36 02 3e aa 79 2c 3e
       0.26250407 0.041935198 0.12715936 0.16843286
000040 45 2c 01 3e d3 1e 0d 3e 47 3d ea 3d d7 0e 37 3e
       0.12614544 0.1378129 0.11437469 0.17876755
000050 55 bd 72 3e 4c 49 33 3e 68 61 4e 3e 88 21 2a 3d
       0.23705037 0.1750843 0.20154345 0.041535884
000060 d1 03 5b 3e 79 20 e4 3c f3 c1 77 3e d4 15 0f 3e
       0.21388175 0.027847515 0.2419508 0.1397317
000070 7e d2 94 3e 28 a7 35 bc fe 8e 29 3e 45 1c a6 bd
       0.29066843 -0.011087216 0.16558453 -0.08110861
000080 a2 56 73 3e 5b 46 a5 3d c5 51 66 3e 49 3d 6b 3e
       0.23763517 0.0807006 0.2249213 0.22972597
000090 70 41 8d 3e ab e9 b8 3e 1d 03 31 3e c3 d2 ba 3e
       0.27588987 0.36115775 0.17286344 0.36488923
0000a0 de ff 0a 3e cf 94 9e 3e ca 01 c6 3d f6 db 5d 3e
       0.13574168 0.30972907 0.0966831 0.2166594
0000b0 7c c4 83 3e 12 cf 48 3d ed e0 07 3e 5d 5a 49 3e
       0.25735843 0.049025603 0.13269396 0.19663377
0000c0 58 2f 15 3e 70 99 cc 3b 24 5f 90 3e 1f 96 b1 3e
       0.14568841 0.006243877 0.28197587 0.34684846
0000d0 c0 e5 72 bd 93 28 20 3e 6a 1d 2e bb 57 1f 99 3e
       -0.059301138 0.15640478 -0.0026567825 0.29906723
0000e0 33 4c 72 3e 51 e8 90 3e 6b c7 17 3e d1 94 a2 3e
       0.2366188 0.28302243 0.14822166 0.31754163
0000f0 37 fa b6 3e cc e1 fe 3d 24 ec d0 3e fd b3 8a 3e
       0.35737774 0.12445411 0.4080516 0.27090445
000100 9a 75 d3 3e 1d 2c 69 3e 55 fe e9 3d b6 8c 8c 3e
       0.4130066 0.22770734 0.11425463 0.27451104
000110 27 e0 a3 3e 9b 88 dc 3e 28 66 3b 3e d4 d8 4a 3e
       0.32006952 0.43072972 0.18300688 0.19809276
000120 7f 16 fe 3c a5 a3 43 3e f7 63 87 3e ac ac 7e 3c
       0.031016586 0.19105394 0.26443455 0.015544098
000130 6b 6f 69 3e d2 c1 0d 3e 98 0d da 3d 52 73 ff 3d
       0.22796409 0.13843468 0.10647124 0.124731675
000140 a5 97 bd 3e 61 1d 4d 3e 7f d8 13 3e 50 5f d5 3d
       0.37029758 0.20030738 0.14438055 0.1041857
000150 39 c2 0f 3e 8c 0d 81 3e 8f 6e 60 3e 1c 4e 2a 3e
       0.14038934 0.25205648 0.21917175 0.16631359
000160 1d b9 0a 3f a6 23 ed 3d 9b 99 c6 3d 97 0a 29 3e
       0.5418871 0.11579065 0.09697267 0.16507946
000170 be a3 99 3e fe 7f bb 3e 98 40 59 3e d4 e1 78 3e
       0.30007738 0.36621088 0.21216047 0.24304897
000180 1a c7 9a 3d 46 5d 8e 3e 5c 96 b0 3e 43 18 86 3e
       0.07557507 0.27805537 0.34489715 0.26190385
000190 0b 1d 67 3e 80 08 33 3d c6 61 90 3e 44 03 f9 3e
       0.22569673 0.043709278 0.28199595 0.48635304
0001a0 7b d8 34 3e 97 5c ec 3d 1c c7 49 3e e6 49 64 3d
       0.17660706 0.115410976 0.1970486 0.055734538
0001b0 0e 97 11 3e ba d6 57 3e 2d aa 69 3e a9 ba 45 be
       0.14217779 0.21078005 0.22818823 -0.19309486
0001c0 30 62 59 3e d7 f6 ad 3e d0 2e 7e bc 8c a5 63 3e
       0.21228862 0.33977386 -0.015514091 0.2223112
0001d0 e5 95 2c 3e 98 fe 17 3e 13 6e b3 3e ef c4 3c 3e
       0.16854055 0.14843214 0.35044917 0.18434499
0001e0 ee 4e 52 3e 26 6b ff 3a 24 ef 47 3e 44 a5 a9 3d
       0.20537922 0.0019486889 0.19524819 0.08283475
0001f0 a4 67 65 3e 8c b3 93 ba b2 39 84 3d 5d 4c 84 3e
       0.22402817 -0.0011268719 0.06456317 0.2583951
000200 14 8e ca 3c cd 83 2f be 17 8a 1c 3d 92 e9 89 bd
       0.024725951 -0.17140122 0.03821763 -0.06734003
000210 16 b3 4c bd be 6a 8a be 2a 2d bf bd c9 b4 14 bc
       -0.049975477 -0.27034563 -0.09334786 -0.009076306
000220 68 1a 1c bd ee d0 4b 3d 3d dd 21 bd 73 c6 e6 3d
       -0.03811112 0.049759798 -0.03951763 0.1126832
000230 47 11 03 be a3 36 00 3e b4 1e 77 bd 72 56 ff 3d
       -0.1279956 0.12520842 -0.060332015 0.1246766
000240 81 84 cd 3d d4 80 82 be d0 be 09 3e de ee e2 bd
       0.10035039 -0.25488913 0.13451695 -0.110807166
000250 8e b2 e8 3d 8c de d8 bb 4a 2b 80 be 2b 30 a7 bd
       0.113621816 -0.0066183265 -0.25033027 -0.08163484
000260 f1 e0 29 3e ad 23 1b bd 4a 4c 92 3a a6 2b 08 be
       0.16589715 -0.03787582 0.0011161652 -0.132979
000270 b6 c3 56 bb 64 82 16 be fa 08 01 3d 80 45 9b be
       -0.0032770461 -0.14698178 0.0315027 -0.30326462
000280 75 88 4e 3e a0 9e 0c be b4 3b 08 be c2 18 56 3d
       0.20169242 -0.13732386 -0.13304025 0.052269705
000290 9b e4 16 bb f5 1d 74 b9 38 e7 1f bb 60 3f aa bc
       -0.0023024443 -0.00023280813 -0.0024399292 -0.020782173
0002a0 aa b8 0c be 3c db 52 bd c7 d8 23 3e 86 a8 54 bd
       -0.13742319 -0.05147861 0.16000663 -0.05191853
0002b0 8d fd 7d 3e 7e 01 89 3d ca e2 a3 be c1 04 42 3b
       0.24803753 0.06689738 -0.32008964 0.0029604884
0002c0 98 bf 15 3d cd 0d 6d bd 8c 17 e6 3c 0e f8 c0 3d
       0.03655967 -0.05787449 0.0280874 0.09422313
0002d0 d8 4c f2 bd c4 40 1c 3d 17 93 36 be 32 31 88 bd
       -0.11831063 0.038147703 -0.17829548 -0.06650008
0002e0 0a 15 5d be 73 dc 62 bd de e9 2f 3e 86 5a ec 3d
       -0.21590057 -0.055386018 0.17179057 0.115407035
0002f0 af eb bb 3d a8 d4 4b be b6 61 98 bd d9 ac ec 3d
       0.091758125 -0.1990534 -0.07440512 0.115564056
000300 8c f9 14 3e 65 e8 8e bd 58 33 17 3e 4b 40 9b be
       0.1454832 -0.069779195 0.1476568 -0.3032249
000310 4f 2e 0e be e8 e8 c9 bc c6 31 14 bd 83 4c 57 be
       -0.13884853 -0.024647191 -0.03618028 -0.2102528
000320 88 23 26 be 9d 3d 66 bd 0e 90 08 bc 71 01 c4 be
       -0.16224492 -0.056211103 -0.008335127 -0.3828235
000330 5a 98 22 be f2 6b 4c 3d b7 99 e2 bc 44 ef 80 3d
       -0.1587843 0.049907632 -0.027661188 0.06295636
000340 be 9f 99 39 4a 5a 6c 3c 4c 79 49 bd 3e 99 03 bc
       0.0002930145 0.014425823 -0.049187943 -0.008032141
000350 89 07 39 3d 19 f4 dc 3c a2 38 af bc ab 34 3d 3e
       0.0451732 0.026971864 -0.02138931 0.18477122
000360 f9 4b 1d be c5 5f af 3d 93 54 91 bd 97 09 a7 bd
       -0.15361013 0.085631885 -0.070962094 -0.08156126
000370 79 c3 db bb 30 e8 e9 3b 88 2b 7c 3d 77 2f 45 3e
       -0.0067066518 0.0071382746 0.061564952 0.19256388
000380 ef 8b bc 3d b2 93 30 3e 39 85 3d 3d 3e 79 8a 3d
       0.09206378 0.17243841 0.04626963 0.06761406
000390 37 78 4b bc 18 c0 86 bd af f3 88 be ca 1a 03 3e
       -0.012418798 -0.06579608 -0.26748416 0.12803188
0003a0 1f d7 e0 bd 4a 74 90 3d 05 f4 44 be 43 e7 2e be
       -0.10978531 0.070534304 -0.19233711 -0.17080407
0003b0 cc 68 35 3e 3c 16 0b 3e 1f 53 8d 3b b4 9b a4 bd
       0.17715758 0.135827 0.0043128873 -0.080375105
0003c0 ad 7a a0 bd b4 b0 ed 3d 41 c3 cd bd 36 56 cd 3d
       -0.078358985 0.11605969 -0.10047007 0.10026209
0003d0 a9 7c eb bc 64 49 a3 3d 5f 20 8a bd 2f 68 72 be
       -0.028745966 0.079729825 -0.067444555 -0.23672555
0003e0 8f fb c2 bc cd f3 0f bd 7c b5 23 be 91 0b 68 be
       -0.023801593 -0.035144616 -0.159872 -0.22660662
0003f0 d7 a8 4e 3d a7 8b fe 3d b3 9c 1c bd 5a fb 27 bd
       0.050453987 0.1242898 -0.038235378 -0.041011192

weight f4 [29, 128]
000000 94 60 f3 3d 32 17 5c 3e 11 18 0d be fc 28 15 be
       0.11883655 0.21493223 -0.13778712 -0.14566416
000010 29 72 0d be f4 a9 9d be af ca b9 3d 18 d0 ad bc
       -0.1381308 -0.30793726 0.09071862 -0.02121739
000020 04 4f 0a be 80 dc cd 3c c3 e7 11 be 68 68 b4 3d
       -0.13506705 0.025129557 -0.14248566 0.088089764
000030 cc 71 4a 3d 27 dd 03 3e 50 a2 85 3d ef 15 a9 3d
       0.04942493 0.12877332 0.06525099 0.082561366
000040 48 d8 c5 bd 76 ec 43 3e 6b 54 fe bb 8a b0 7c bd
       -0.09660393 0.19133171 -0.0077615282 -0.0616918
000050 e9 dd db bd f9 6b fb bd 2c 19 91 bd b7 7e 41 be
       -0.107356854 -0.122764535 -0.07084879 -0.18895994
000060 fd c8 91 bd ee eb cd 3c c0 f5 ce bd 27 87 43 3e
       -0.071184136 0.025136914 -0.10105467 0.19094525
000070 ce 92 78 bb b7 b4 a2 bc 7c a5 c3 bd 4f 35 8e 3e
       -0.00379293 -0.019861562 -0.09553048 0.27775046
000080 ba 1c 01 be 13 d8 6d 3e 32 ee 6f be 8d 54 19 bd
       -0.12608615 0.23226957 -0.23430708 -0.03743415
000090 44 ab 09 be 86 f4 5e 3d a9 68 98 3a 24 20 e2 bd
       -0.13444239 0.054432414 0.0011627871 -0.110412866
0000a0 98 17 36 bd 95 26 81 bd 6b d9 ea 3d 57 a9 d5 bd
       -0.044456095 -0.06306187 0.114672504 -0.1043269
0000b0 c4 66 1e 3b 68 18 ca 3d 49 8f 85 3e c3 4b 13 be
       0.002417014 0.098679364 0.2608588 -0.1438437
0000c0 9d 01 09 be 05 fb 8d 3e c2 fc 4e bd 01 42 25 bd
       -0.13379522 0.27730575 -0.050534017 -0.04034615
0000d0 02 89 75 3e c8 d3 1a 3e d0 21 c1 3d 8a aa 1b 3e
       0.23978046 0.1511985 0.09430277 0.15201774
0000e0 3e 70 7f 3e 73 d5 ec bd 5d a5 36 be f6 60 bd 3c
       0.24945161 -0.1156415 -0.17836519 0.023117524
0000f0 c1 eb 28 3d 4c 15 5e be b0 e8 c3 3c ae fd 0f 3e
       0.041240457 -0.21687812 0.023914665 0.14061615
000100 f6 e1 5d 3c 37 e0 01 be ef 9e e2 3d 07 ef 19 be
       0.013542643 -0.12683187 0.110654704 -0.15032588
000110 37 8e 77 be c0 e6 dc bd ce 7f 0e 3e d2 93 61 be
       -0.24175344 -0.107861996 0.13915941 -0.22029045
000120 65 f9 e1 3d 67 57 7c be a3 db e4 bd c1 b9 5f be
       0.11033896 -0.24642716 -0.11174705 -0.21848203
000130 e0 de ab be fb 85 2b 3e 2a 97 18 3e 26 7e 21 3e
       -0.33568478 0.16750328 0.14901415 0.15770778
000140 9d ff 69 3e 8f bb f7 bd 1c d9 47 3e 04 c8 e6 3d
       0.22851415 -0.12096321 0.19516414 0.11268619
000150 86 dd 17 be b1 72 ca bd 7a 8d 2f be 74 16 ea bc
       -0.14830598 -0.09885157 -0.17143813 -0.02857516
000160 f9 e2 ca bd 72 21 78 be 00 6d 3b 3c 85 3c b3 be
       -0.09906573 -0.24231508 0.011439562 -0.3500711
000170 1d f8 7c ba e1 f8 00 3d 07 ff 20 be c4 ea 06 be
       -0.0009650009 0.03148735 -0.15722285 -0.13175493
000180 9c e4 10 3e 0b b4 ba 3d 48 bc 9a 3d f4 a2 90 3d
       0.14149708 0.09116372 0.07555443 0.07062331
000190 b4 db d5 bd 39 f4 26 be 14 87 20 be 9f 24 43 3e
       -0.10442296 -0.16304101 -0.15676528 0.19056939
0001a0 63 28 7c 3e 2f fa bb 3d d7 13 75 be f9 b1 dd 3d
       0.24624781 0.09178578 -0.2393335 0.10824961
0001b0 2d 1b 45 be e8 77 e1 3d 7c c0 19 3e 0f c5 5a bf
       -0.19248648 0.110091984 0.15014833 -0.8545694
0001c0 e4 a6 b4 be a6 e7 e1 bd f4 2e 6d be 9e 03 bc 3d
       -0.35283577 -0.110305116 -0.23162442 0.091803774
0001d0 40 13 14 be 60 48 df 3d fc 17 80 3e a6 63 ab be
       -0.14460468 0.10902476 0.250183 -0.33474463
0001e0 2d e7 98 3d 4a 7b e2 bd 3d c8 32 be 76 c2 7b be
       0.07465968 -0.11058672 -0.17459197 -0.245859
0001f0 7d b0 1a 3e 26 fc 72 3e ad 44 20 bf d2 e4 8c bd
       0.15106387 0.23729 -0.6260479 -0.068795815
000200 4e f1 31 bd b9 62 10 3d 71 d6 12 be cb 56 13 be
       -0.043443017 0.0352504 -0.14339615 -0.14388578
000210 b6 28 80 3d e1 e5 dc 3d 34 3d 6d bd 0b 47 81 3d
       0.06257765 0.107860334 -0.057919696 0.063123785
000220 f9 7d 2b bd c3 d4 0b 3d 97 a2 b8 bd ea b1 9d be
       -0.041868184 0.034138452 -0.090153866 -0.307998
000230 b7 de 13 3e 96 75 33 3e c2 b7 03 be 5e a4 4e be
       0.14440428 0.17525324 -0.12863067 -0.20179889
000240 db 78 db bd ac 5a 5e 3e b3 64 a0 be 54 b9 42 be
       -0.10716411 0.21714276 -0.31326827 -0.1901601
000250 1a 2e f6 3e 8c c9 04 3f c1 4b 30 3e 77 73 08 be
       0.48082048 0.51870036 0.17216398 -0.13325296
000260 fe 78 de bd e1 bf 20 bd 01 67 fa 3d 95 9e 3b 3d
       -0.10862921 -0.03924549 0.12226678 0.045805532
000270 6b 4c 27 3d 28 ee c0 3e 9f 2b cc bd 68 26 62 3e
       0.040844362 0.376817 -0.099692576 0.22084963
000280 cd 35 2c 3e 2f 1e 8b 3d f5 72 93 3d 15 72 dc 3d
       0.16817398 0.067928664 0.07199661 0.10763947
000290 7d 44 15 be d4 9b 25 bd 48 e8 bf 3d fd bd d7 bd
       -0.14576907 -0.040431812 0.09370476 -0.10534284
0002a0 ee 99 f4 bd c5 23 0e be 73 28 03 bd c6 2f 04 bd
       -0.11943422 -0.13880832 -0.032020997 -0.032272123
0002b0 e4 0c ec bd e7 05 53 3d ba 3b 54 be 82 d6 27 be
       -0.11525896 0.0515193 -0.20725909 -0.16390422
0002c0 6d d2 29 3e 94 25 37 be bf d0 97 bd 9e ce 9b bc
       0.16584177 -0.17885429 -0.07412862 -0.019019421
0002d0 a6 f0 50 3e 59 63 f9 bd 5f 38 0a bd 7f e0 14 be
       0.204043 -0.12177152 -0.033745166 -0.14538763
0002e0 31 c3 32 3e 3c 82 59 bc 00 99 91 3e 24 bb 8e bd
       0.17457272 -0.013275679 0.28437042 -0.06969288
0002f0 5b 13 4f 3d 1b 20 85 be 1b f8 03 bd 46 1d 13 3e
       0.05055557 -0.26001057 -0.032219034 0.14366636
000300 bb 23 c2 be 4a 11 8a bd 27 8b 82 bd 66 fe bf 3e
       -0.37917885 -0.06741579 -0.063741975 0.37498778
000310 dc cb 02 bd dd 7e ae bd 67 f2 8f 3d cc 3c b8 3d
       -0.031932697 -0.08520291 0.070286565 0.08995971
000320 59 06 e7 be 96 b0 90 be 04 50 94 be 8f 73 fb 3d
       -0.4512203 -0.28259724 -0.28967297 0.122779004
000330 6b 40 36 bd ac ce be be 92 2f 1c bd 16 03 25 3e
       -0.044495028 -0.37267053 -0.038131304 0.16114458
000340 05 f5 2d be 17 1e f8 bc 8a 26 0a 3e b7 36 fb bd
       -0.16987999 -0.030287785 0.13491264 -0.122662954
000350 e9 51 21 3e a3 64 1d 3e 7d 87 27 be 45 09 72 bd
       0.15753902 0.15370421 -0.16360278 -0.05909087
000360 7b 8d 2d 3d 45 2c ec 3e 3e b2 9e be 08 78 15 3f
       0.042371254 0.46127525 -0.30995363 0.5838628
000370 c4 2e 42 3e 32 9d 0b 3d a9 a6 9b bd 2b 17 f3 bd
       0.18963152 0.03408546 -0.07600147 -0.11869653
000380 cd 3d 21 3e 6d 54 7d 3d 27 7c f1 bd be d0 91 be
       0.15746231 0.061848093 -0.11791258 -0.2847957
000390 e6 33 82 bd 2e d5 c9 be 7c 46 4b be a6 43 96 3c
       -0.06357555 -0.39420456 -0.19851106 0.018342804
0003a0 df b0 01 be 3f d3 5b bb f9 3d 0b 3d 77 25 a0 3d
       -0.12665127 -0.003354266 0.03399465 0.07819646
0003b0 a6 20 c3 3d fd 33 80 bd 31 fe b1 bd c1 cf bd bc
       0.095277116 -0.06259916 -0.08691061 -0.023170354
0003c0 50 20 64 3e b2 bc 2f be 5a d1 0f bd de d9 00 3d
       0.22277951 -0.17161825 -0.035111763 0.031457774
0003d0 ed 30 31 3f 6a 04 2b bc f9 69 ec be 5a 54 99 3d
       0.6921528 -0.010438064 -0.461746 0.07486792
0003e0 f3 68 9a bc 61 7e 0d bc a4 c1 ab 3d 1e ff 60 3f
       -0.018848872 -0.008636088 0.083865434 0.8788928
0003f0 2b c5 59 be 59 91 7f be df 44 56 3e 08 e3 a5 3d
       -0.2126662 -0.2495779 0.2092471 0.080999434

bias f4 [29]
000000 12 ee ed 3e 8e 0b 66 be d7 a6 44 3e 72 ae 86 3d
       0.46470696 -0.22465345 0.1920427 0.065762416
000010 78 91 85 3e f5 6f fa be d6 12 cd bd 05 85 28 bf
       0.26087546 -0.4891354 -0.10013358 -0.6582797
000020 e8 64 49 3e 54 92 22 bf 8b 47 32 be 01 42 63 3e
       0.19667399 -0.6350453 -0.17410104 0.22193147
000030 d1 e4 a8 3d ac 0a d2 3e 20 35 23 be 01 f4 e9 bc
       0.08246768 0.41023767 -0.15938234 -0.028558733
000040 e7 db 82 bf 15 5b 24 3f b8 05 4c 3e 03 f0 02 3f
       -1.0223359 0.6420148 0.19924057 0.5114748
000050 93 e4 e9 be f7 79 2d bf 59 70 ab bf 64 50 7d bf
       -0.456822 -0.6776423 -1.3393661 -0.9895079
000060 27 bf 92 bf 95 ae 85 be a6 58 b0 bf 5c 5c 24 be
       -1.1464585 -0.26109758 -1.3777053 -0.16050857
000070 d6 71 b7 bf
       -1.4331615
