models/LSTM/128/ESEU_60-40/ESEU_60-40_3_threshold_train_30.pt (torch, 353807 bytes, 7 tensors)

weight f4 [29, 32]
0	0xbfd47379	-1.659774
1	0xc012a968	-2.2915897
2	0xbe7b976b	-0.2456948
3	0x3f8e76f5	1.1130053
4	0x3f8be09d	1.0927922
5	0xbfb32e8d	-1.3998581
6	0xc013c036	-2.3086066
7	0x3f39a1a5	0.72512275
8	0xbeaa197c	-0.33222568
9	0x400871bd	2.131942
10	0xbf6b0285	-0.9180072
11	0x3f373959	0.7157188
12	0x3ea992cd	0.33119813
13	0xbfd5dd8c	-1.6708236
14	0x3fc67ffa	1.5507805
15	0xbfb1fc7e	-1.390518
16	0x3f858635	1.0431582
17	0x3f88d676	1.0690448
18	0x3f0f2b40	0.5592537
19	0x3ff427ec	1.9074683
20	0x3fa0a684	1.2550817
21	0xbf57029e	-0.8398837
22	0xbecfd912	-0.405953
23	0x3e931ebf	0.28734395
24	0x3fa2c65d	1.2716786
25	0x3f845d5b	1.034099
26	0x3eb08b30	0.34481192
27	0x3e648f11	0.223202
28	0xbfc43b77	-1.5330647
29	0x3eb6e4cd	0.35721436
30	0xbf9be4a2	-1.2179148
31	0xbece46e5	-0.40288463
32	0xc0052a17	-2.080694
33	0x3f90ee21	1.1322671
34	0x3f5d6d26	0.8649467
35	0x3ddfa1f5	0.10919563
36	0xbf3c9b02	-0.73674023
37	0x40176cd7	2.366018
38	0x3f1c3a12	0.6102611
39	0x3f87bbda	1.0604203
40	0xbd188167	-0.037232783
41	0xbfd84ea4	-1.6898999
42	0x3f0c8aa7	0.54899067
43	0x3f56b60d	0.8387154
44	0x3f2c7578	0.67366743
45	0x4025e3e5	2.5920346
46	0xbfa92347	-1.3213891
47	0xbed46a01	-0.41487125
48	0xbe4adbf2	-0.19810465
49	0x3f43d231	0.764926
50	0x3d8aaf7e	0.06771754
51	0x3fe68ffd	1.8012692
52	0xbefd4c74	-0.49472392
53	0x3e7ad18d	0.24494
54	0x3f01effe	0.50756824
55	0xbe39cad1	-0.18143775
56	0x3f6990ed	0.91236764
57	0xbf8dd4f1	-1.108061
58	0x3e30adeb	0.17253844
59	0xc01b9b80	-2.431366
60	0x3f9168dc	1.1360126
61	0xbf01dcef	-0.5072774
62	0x3d16b627	0.036794808
63	0x3f3bf98a	0.7342764
64	0xbe38d2e4	-0.18049198
65	0xbf174410	-0.5908823
66	0x3f8d50d4	1.1040292
67	0x3fb647fd	1.4240719
68	0x3fd9fc78	1.7030172
69	0x3ef2352b	0.4730619
70	0xbfcd62cf	-1.6045779
71	0xbe927ed1	-0.28612378
72	0x3da4d513	0.08048453
73	0xbe8ee4bf	-0.27908894
74	0x3f86ae7e	1.0522001
75	0xbf889a3f	-1.0672072
76	0xbfdff25a	-1.7495835
77	0x400078b6	2.0073676
78	0xc053bb47	-3.3083055
79	0xbf8ff6d1	-1.1247197
80	0x3e08975d	0.1333899
81	0xbf990718	-1.195529
82	0x3ee7e26e	0.4528994
83	0xbfa4d79f	-1.2878302
84	0x3d33ec0d	0.043926287
85	0xbed7d30b	-0.421532
86	0xbfd2f572	-1.6481154
87	0x3fcbbbb2	1.5916655
88	0x3ea5543d	0.3229083
89	0xbf3420ae	-0.70362365
90	0xbf10bb7c	-0.5653608
91	0xbc6e2a30	-0.0145364255
92	0x3f20d2dc	0.62821746
93	0x3f8aced2	1.0844367
94	0xbf815d22	-1.0106547
95	0x3f4ce3e4	0.80035233
96	0x3fe10e0b	1.758241
97	0x3ddffd72	0.10937013
98	0x3f9c452d	1.2208611
99	0x3fad54f1	1.3541547
100	0xc0071bae	-2.1110644
101	0x40111c59	2.2673552
102	0xbf87ec3e	-1.061897
103	0x3f9caef8	1.2240896
104	0x3ed378cd	0.413031
105	0x3dbcc8cb	0.09217986
106	0x3da70c3f	0.08156633
107	0x3f13d94e	0.57753456
108	0xbfcd2cb8	-1.6029272
109	0x3e3bf255	0.18354161
110	0x3fa752d5	1.3072153
111	0xbf722ffd	-0.94604474
112	0xbf738635	-0.9512666
113	0xbfbf9493	-1.4967216
114	0xbf4d452e	-0.80183685
115	0xbf42e2d1	-0.76127344
116	0x3f58808c	0.84571147
117	0xbcfc6466	-0.030809592
118	0x3ee397f3	0.44451866
119	0xbe015ac0	-0.12632275
120	0xc020b3c3	-2.5109718
121	0x3fef1f77	1.8681477
122	0xbe8c1a7e	-0.27363962
123	0xbf8d0a77	-1.1018819
124	0xbf8957f0	-1.0729961
125	0xbf0e9ef7	-0.5571131
126	0x3f572b20	0.8405018
127	0x3ed3f650	0.4139886
128	0xbf055e7d	-0.520973
129	0xbfcb9791	-1.5905629
130	0x3f9019ee	1.1257913
131	0xbfab6137	-1.3389043
132	0x3e3e5b6f	0.18589567
133	0xbfa94f93	-1.3227409
134	0xc007202e	-2.111339
135	0x3f785c6f	0.9701604
136	0x3db202ed	0.08691964
137	0xbe89b433	-0.26895294
138	0x3f87366f	1.0563487
139	0xbf095727	-0.5364861
140	0x3e112747	0.1417514
141	0x3dba09ee	0.09083925
142	0xbd83dc4e	-0.06438504
143	0xbf758eae	-0.95920837
144	0x400d777c	2.2104177
145	0xbf884c80	-1.0648346
146	0xbf6c67b7	-0.92345756
147	0xbfa37e7f	-1.2772979
148	0xbec57857	-0.38568375
149	0x3f38ad59	0.7213951
150	0xbe3dd457	-0.18538032
151	0xbfcfd0e8	-1.6235628
152	0x3dac7b8c	0.08422002
153	0xbffefc2a	-1.9920704
154	0xbfb9c1aa	-1.4512227
155	0xbe796777	-0.24355875
156	0x3f274268	0.653357
157	0xbeb22587	-0.34794256
158	0xbf51a03f	-0.8188514
159	0xbf720beb	-0.94549435
160	0xbf993df4	-1.1972032
161	0xbfa3b6c9	-1.2790157
162	0x3c141692	0.009038584
163	0xbf5496b8	-0.8304248
164	0xbfec4ec9	-1.8461543
165	0xbdc82139	-0.09771962
166	0x3fa4b993	1.2869133
167	0xbfa03d6b	-1.2518743
168	0xbfc6a087	-1.5517739
169	0xbf69104f	-0.9104051
170	0xbf168c85	-0.58808166
171	0xbfbde64a	-1.4835904
172	0xbe7fee28	-0.24993193
173	0xbf23890a	-0.6388098
174	0xbf0fb108	-0.56129503
175	0xbf8b8d67	-1.0902528
176	0xbf7e7f47	-0.9941296
177	0xbffd3ff4	-1.9785142
178	0xbee9f48b	-0.45694384
179	0x3f7a079b	0.97667855
180	0xbef08977	-0.46979877
181	0x3fa8f635	1.3200136
182	0xbff9d371	-1.9517652
183	0xbf158d3f	-0.5841865
184	0xbfa94c6f	-1.3226451
185	0x3ea5d126	0.3238613
186	0x40047457	2.0696008
187	0xbfa5f218	-1.2964506
188	0x3f283db1	0.65719134
189	0xbf9f4814	-1.2443871
190	0x3d38eee7	0.04514971
191	0x3f1504da	0.5821053
192	0x3ede6b31	0.43441156
193	0xbf449c30	-0.76800823
194	0x3e54112e	0.20709679
195	0x3f4a4658	0.79013586
196	0xbfa36970	-1.2766552
197	0x3e76bcc0	0.2409544
198	0x3ed3bace	0.41353458
199	0x3e24183f	0.16024874
200	0xbe12b09b	-0.14325182
201	0xbee81b73	-0.45333442
202	0xbf9e9885	-1.2390295
203	0xbfa226fe	-1.266815
204	0xbf4869a6	-0.78286207
205	0xbe871fec	-0.26391542
206	0xbf740c26	-0.9533104
207	0x3ea75cca	0.3268798
208	0x3edb6f51	0.42858365
209	0xc013e08c	-2.3105803
210	0xbeb14895	-0.34625688
211	0xbcfaa697	-0.030597014
212	0xc03a2dff	-2.9090574
213	0xbf8e133b	-1.1099619
214	0x3e2b57cf	0.16732715
215	0xbf621354	-0.8831074
216	0x402e2f77	2.721647
217	0xbf05c81a	-0.52258456
218	0xbf66f1bd	-0.90212613
219	0xbf85889d	-1.0432316
220	0xbf9ec0c4	-1.2402577
221	0x3e4692a0	0.1939187
222	0x3d15ed2c	0.036603138
223	0xbeccb6fd	-0.3998336
224	0xbf90393f	-1.126747
225	0x40121768	2.2826786
226	0x3f5c351f	0.86018556
227	0x3f1c1534	0.60969853
228	0xbe6c9032	-0.23101881
229	0x3f93c3b4	1.1544099
230	0x3f4a4159	0.7900596
231	0x3f883162	1.064007
232	0x3fc10653	1.5080055
233	0x3fa43689	1.2829143
234	0xbffae998	-1.9602537
235	0x3f953191	1.1655751
236	0xbeed6ef6	-0.4637372
237	0x3c06143b	0.008183534
238	0xbfb14f0b	-1.3852247
239	0xbf60dd34	-0.8783753
240	0xbfe0d231	-1.7564145
241	0x3e5064a2	0.20350888
242	0xbeba3b9f	-0.36373612
243	0xbe491033	-0.19635086
244	0x3e753b6a	0.23948446
245	0x3fabcf58	1.3422651
246	0x3ea648aa	0.32477313
247	0x3f8c6c0e	1.0970476
248	0xbe53af60	-0.20672369
249	0x3da85fdc	0.08221409
250	0xbe5f5677	-0.21810327
251	0x3fda42f6	1.7051685
252	0xbdbe01c4	-0.092776805
253	0x3ef460f3	0.47730216
254	0x3fdc1fa0	1.7197151
255	0xbdb6fa1b	-0.089344226

weight_ih_l0 f4 [512, 32]
0	0x3e0f9507	0.14021693
1	0x3d8e5d54	0.06951395
2	0x3d074c1b	0.033031564
3	0x3e365b2b	0.17808215
4	0xbe09232f	-0.13392328
5	0x3d29210f	0.041291293
6	0xbe13b1ea	-0.14423338
7	0x3d323e73	0.043516587
8	0x3d2993dc	0.041400775
9	0x3de4f704	0.11179927
10	0x3e1969d9	0.14981784
11	0xbe392465	-0.1808029
12	0x3d96c8a1	0.07362486
13	0xbd8cb906	-0.06871228
14	0x3c00b5fb	0.0078558875
15	0xbd942c20	-0.07234979
16	0xbe12509d	-0.14288564
17	0xbd530a7e	-0.051523678
18	0x3d5d6db1	0.054059688
19	0x3e5380a9	0.20654549
20	0xbd81678e	-0.063185796
21	0x3cc39236	0.02387343
22	0xbdd06e89	-0.10177333
23	0xbe2236e5	-0.15841253
24	0xbc6106eb	-0.0137345595
25	0xbdd43032	-0.10360755
26	0xbe387b88	-0.18015873
27	0x3ded5116	0.115877315
28	0x3d38a374	0.045077756
29	0x3c3e00fc	0.011596914
30	0x3d85063a	0.06495328
31	0x3e28ce98	0.1648506
32	0x3da4d4ce	0.08048402
33	0x3c9d1cfe	0.019178864
34	0x3e0b120f	0.13581108
35	0x3dab85ed	0.08375154
36	0xbe0499b2	-0.12949255
37	0x3e414cd6	0.18876967
38	0x3c0afebf	0.008483588
39	0xbd8dc19b	-0.06921693
40	0x3ca63d6d	0.020292962
41	0x3dbd2cc4	0.09237054
42	0xbe158160	-0.14600134
43	0x3b8d6ffb	0.0043163276
44	0xbdc52fdf	-0.09628271
45	0x3adc8905	0.0016825503
46	0xbd204cf0	-0.039135873
47	0xbcb114c0	-0.02161634
48	0xbcd345ed	-0.02579018
49	0x3e0d7137	0.1381272
50	0xbd9dc69a	-0.07703896
51	0x3d9c8529	0.07642586
52	0x3d4152c4	0.047198072
53	0x3c6a8ca1	0.014315755
54	0x3e1f800d	0.15576191
55	0x3e398dec	0.18120545
56	0xbe01a3d7	-0.12660156
57	0x3d728439	0.05920813
58	0x3d81b307	0.06332975
59	0xbe1afb1a	-0.1513485
60	0xbe209dec	-0.15685242
61	0x3e4017af	0.18759035
62	0xbd90b05f	-0.0706489
63	0x3d698cc2	0.057019003
64	0x3d8f7653	0.070049904
65	0x3df1ff9e	0.11816333
66	0xbc5e62dc	-0.013573375
67	0xbd171c98	-0.036892503
68	0xbe0d2928	-0.13785231
69	0x3e2679f3	0.16257457
70	0x3dda86fd	0.10670278
71	0xbe1256e1	-0.14290954
72	0x3d486f66	0.048934363
73	0xbd8afc4d	-0.06786404
74	0xbe361dbe	-0.17784783
75	0x3d402bcc	0.046916768
76	0x3a245a8d	0.00062695966
77	0x3c6bb1a3	0.014385614
78	0xbe000010	-0.12500024
79	0x3d1906df	0.03736007
80	0xbe4dc4d4	-0.20094615
81	0xbd114f5b	-0.03547607
82	0xbdf8d72c	-0.12150416
83	0x3d055a71	0.032556955
84	0xbe2ce9b3	-0.16886024
85	0x3c8ce468	0.017198756
86	0xba9f34a0	-0.0012146421
87	0x3d3ecb58	0.046580642
88	0xbcd68946	-0.026188504
89	0x3d81cee2	0.06338288
90	0x3d9d9a47	0.07695442
91	0x3bc5c0f3	0.006034964
92	0xbdda9cb6	-0.106744215
93	0x3d9df692	0.07713045
94	0x3e290c87	0.16508685
95	0xbd77a4aa	-0.06045977
96	0x3d146842	0.03623224
97	0x3db28ddb	0.08718463
98	0xbcc5e68b	-0.024157783
99	0xbe5f71ee	-0.21820804
100	0xbceaea7c	-0.028676264
101	0x3d9e2685	0.07722191
102	0x3d07af36	0.03312608
103	0xbd208f6d	-0.03919928
104	0x3de130ac	0.109956115
105	0xbd43fb49	-0.047847066
106	0x3e7b4e09	0.24541487
107	0xbca07cf9	-0.019590842
108	0x3d3e953c	0.04652904
109	0x3e37b760	0.17941046
110	0xbdd483ba	-0.10376687
111	0x3d5f661a	0.05454073
112	0x3c9920f9	0.01869248
113	0x3b11d912	0.0022254628
114	0x3d98ab5c	0.07454559
115	0xbe4a3353	-0.19746141
116	0xbe56eae7	-0.20988046
117	0x3dfae2a0	0.122502565
118	0xbdc1671b	-0.09443494
119	0xbe81dbb3	-0.2536293
120	0xbe203695	-0.15645821
121	0xbe41e62d	-0.18935461
122	0xbe3ffc54	-0.187486
123	0x3d9a6383	0.075385116
124	0x3e5ecb39	0.21757211
125	0x3c549fbe	0.012977539
126	0x3cc2bfa7	0.023773028
127	0x3cdba641	0.026812674
128	0xbce0a6b8	-0.027423248
129	0x3e2f42a2	0.17115262
130	0xbd990628	-0.07471877
131	0x3e03a49a	0.1285576
132	0x3d948032	0.07251014
133	0x3da6200d	0.08111582
134	0x3cf9042a	0.030397493
135	0xbd82bec4	-0.06384042
136	0xbc08f102	-0.008358242
137	0x3da2b4b9	0.07944626
138	0xbdda8440	-0.10669756
139	0x3d09e4f7	0.033665624
140	0x3d2a4dfc	0.041578278
141	0xbe28acdf	-0.16472195
142	0xbce445c2	-0.027865294
143	0xbd3ee45a	-0.04660449
144	0xbda276a0	-0.07932782
145	0x3e434aa9	0.1907145
146	0x3d1981f6	0.037477456
147	0x3e6a57ef	0.22885107
148	0x3c1ef5f2	0.009702193
149	0xbd0a601f	-0.033783074
150	0xbd9d11ba	-0.07669397
151	0x3e822f96	0.2542693
152	0x3d996e17	0.07491701
153	0x3e5ce77b	0.21572678
154	0x3e713854	0.23556644
155	0x3e618db7	0.22026716
156	0xbd9b03bd	-0.075690724
157	0x3e339f18	0.17541158
158	0x3d45243d	0.048130263
159	0x3d44d1da	0.048051693
160	0x3e14ca7d	0.14530368
161	0x3dbb40d5	0.09143225
162	0x3d3f6372	0.046725698
163	0x3df07092	0.11740221
164	0xbe33bcf7	-0.17552553
165	0x3e82c80c	0.2554325
166	0x3df2fd7b	0.11864754
167	0x3d9044b8	0.07044357
168	0xbe27327f	-0.16327856
169	0xbd7d2f49	-0.061812673
170	0xbda8d211	-0.08243192
171	0x3dc99eaa	0.09844716
172	0xbd4fe035	-0.05075093
173	0x3d9bd4d5	0.07608954
174	0xbd874a37	-0.06605952
175	0x3d9e929c	0.07742807
176	0xbe629dff	-0.22130583
177	0xbd05a25b	-0.032625537
178	0x3d08a543	0.03336073
179	0x3de5ef70	0.1122731
180	0xbe3d2a59	-0.18473186
181	0x3e1a2282	0.15052226
182	0x3d64badd	0.05584227
183	0x3d0c1bc5	0.03420617
184	0xbe03f2f9	-0.12885655
185	0x3e07d23e	0.13263795
186	0xbc9487a1	-0.01813108
187	0xbdc91df4	-0.09820166
188	0xbe451dea	-0.19249693
189	0x3e41ce84	0.18926436
190	0x3e254bc6	0.16142187
191	0x3d3acc41	0.045604948
192	0xbb5d7410	-0.0033791102
193	0xbd37c787	-0.04486802
194	0x3d27cc7e	0.040966503
195	0xbd2124ed	-0.039341856
196	0x39bce3f1	0.00036027984
197	0x3d0099b7	0.031396594
198	0x3c6bf163	0.014400813
199	0x3c9bec01	0.019033434
200	0xbe07b3e9	-0.13252224
201	0x3d94c416	0.07263963
202	0x3dec8799	0.11549301
203	0x3d5e33ed	0.05424874
204	0x3d83c443	0.06433918
205	0xbcf21f31	-0.029555889
206	0xbe2d034d	-0.1689579
207	0xbd511ad1	-0.051050965
208	0x3d401d07	0.046902683
209	0x3dd70362	0.10498692
210	0x3b5a746d	0.0033333555
211	0x3dbd0f6a	0.092314556
212	0x3d590d56	0.052991234
213	0xbc3bcc44	-0.011462275
214	0xbe0eda34	-0.13950425
215	0xbd15adc6	-0.036542676
216	0xbd8a33a9	-0.06748135
217	0xbd8fecae	-0.07027565
218	0xbd9a03b7	-0.0752024
219	0x3dbf0d64	0.09328726
220	0x3cb7ac36	0.022420984
221	0xbceb2f7a	-0.028709162
222	0xbe53652e	-0.20644066
223	0xbd1a6ec7	-0.0377033
224	0xbde3b697	-0.111188106
225	0x3cd2f2de	0.025750574
226	0xbcde7326	-0.027154516
227	0xbd874406	-0.06604771
228	0x3d812d61	0.063074835
229	0xbdaba9aa	-0.0838197
230	0xbda91d4d	-0.08257542
231	0xbe31496f	-0.17313169
232	0x3da2c552	0.07947792
233	0x3bfabc02	0.007651807
234	0x3dafe883	0.0858927
235	0xbe5965e0	-0.21230268
236	0xbc70399c	-0.014662173
237	0xbd77a106	-0.0604563
238	0x3b902119	0.004398477
239	0xbd1a34a5	-0.037647862
240	0x3e8047b4	0.25054705
241	0xbd8e4210	-0.06946194
242	0xbe2e38d5	-0.17013867
243	0xbcd23952	-0.025662098
244	0xbdcf9796	-0.101363346
245	0xbd17200b	-0.036895793
246	0xbb1f86ca	-0.0024341815
247	0x3dd07667	0.101788335
248	0x3a8cdc8e	0.0010746883
249	0xbdd818b0	-0.10551584
250	0x3d01afb0	0.03166169
251	0x3db2cfad	0.08731017
252	0x3cbdfc09	0.023191469
253	0x3dd96448	0.1061483
254	0xbe031ed7	-0.12804733
255	0xbaa5d75e	-0.0012652685

weight_hh_l0 f4 [512, 128]
0	0xbde89cfb	-0.11358067
1	0xbdb2f6f9	-0.087385125
2	0xbd393c39	-0.04522345
3	0x3c6f3531	0.014600084
4	0xbe1b3b19	-0.15159263
5	0x3e0abcc8	0.13548577
6	0x3e170c21	0.1475072
7	0xbe170aaf	-0.14750169
8	0xbe9c2e38	-0.30504012
9	0x3c8c794e	0.017147686
10	0xbd8a1e39	-0.06744046
11	0x3d8a53ba	0.06754251
12	0xbd1cb9a2	-0.03826297
13	0x3da131f3	0.07870855
14	0x3d75123e	0.05983185
15	0x3e14b36b	0.14521568
16	0x3b6189b7	0.003441436
17	0x3ddd0b75	0.10793201
18	0x3d32107b	0.04347275
19	0xbd5f0125	-0.05444445
20	0xbe0b08ce	-0.13577577
21	0x3db0e1de	0.08636831
22	0x3d742ebf	0.059614893
23	0x3e0dae5b	0.13836043
24	0x3d4fc9a5	0.050729413
25	0x3d4aa501	0.049473766
26	0xbd71f89a	-0.059074976
27	0xbea26e82	-0.31724936
28	0xbd7f3ca0	-0.062313676
29	0xbe4d6ce8	-0.20061076
30	0xbe92ac5b	-0.28647122
31	0xbe0fff6b	-0.14062278
32	0xbd036358	-0.032077163
33	0xbe239915	-0.15976365
34	0x3dafe804	0.08589175
35	0x3d934410	0.07190716
36	0x3e1f6e7a	0.15569487
37	0x3e27b7ee	0.16378757
38	0x3ddb66e0	0.10712981
39	0xbe302dd5	-0.17204984
40	0xbbd7a76c	-0.0065812375
41	0x3c8f0ce3	0.0174622
42	0xbd8ad235	-0.06778375
43	0xbc115417	-0.008870146
44	0x3e4fd482	0.20295909
45	0x3cc78e63	0.024359887
46	0xbd492712	-0.049109526
47	0x3d10d1d1	0.035356347
48	0xbe65381b	-0.22384684
49	0x3b925363	0.004465507
50	0x3d44ff80	0.048095226
51	0xbe0376d5	-0.128383
52	0xbec2e613	-0.38066158
53	0x3e4efed8	0.20214403
54	0x3e5197d2	0.20468071
55	0x3e16a887	0.14712726
56	0xbd9386d0	-0.07203448
57	0xbe5e057b	-0.21681778
58	0x3d9af8f7	0.075670175
59	0x3d3c7a12	0.046014853
60	0xbd33c8b6	-0.043892585
61	0x3ce6b17c	0.028160803
62	0x3dc02d5f	0.09383654
63	0x3df87440	0.12131548
64	0x3e30e485	0.17274673
65	0xbbdedb5b	-0.0068010516
66	0xbd2218ca	-0.039574422
67	0xbe69739f	-0.22798012
68	0x39fb7324	0.00047960237
69	0xbe0c8a81	-0.1372471
70	0xbd796ee5	-0.060896773
71	0x3d7dd976	0.061974965
72	0xbd411023	-0.04713453
73	0x3e6abf52	0.22924545
74	0xbde855ff	-0.113445275
75	0x3e788378	0.24268901
76	0xbd770ae3	-0.060313117
77	0xbe0bd146	-0.1365405
78	0x3da54c4b	0.08071192
79	0x3dd03904	0.10167125
80	0xbe396169	-0.18103565
81	0x3e45073a	0.19241038
82	0x3d4780b6	0.048706733
83	0x3da5e917	0.08101099
84	0x3d881ad1	0.0664574
85	0x3d00e19b	0.031465154
86	0x3d3d2c36	0.04618474
87	0xbe348c60	-0.17631674
88	0x3e27cf1c	0.163876
89	0x3d91d8ff	0.07121467
90	0xbd9ea1ab	-0.077456795
91	0x3adba7fb	0.0016758436
92	0xbe43999e	-0.19101569
93	0xbd5608f5	-0.052254636
94	0xbd0d4cde	-0.034497134
95	0xbd79d31b	-0.06099234
96	0x3d90baa0	0.07066846
97	0x3e5b0a4a	0.21390644
98	0xbbac8c9c	-0.0052657854
99	0xbd7e45ee	-0.06207841
100	0xbd0751e8	-0.033037096
101	0xbcdfdaa1	-0.02732593
102	0x3e27de95	0.16393502
103	0xb943864b	-0.00018646677
104	0x3d0c918a	0.034318484
105	0x3e3cbc56	0.1843122
106	0xbdb20275	-0.08691875
107	0x3e48ccc7	0.19609366
108	0x3d8ae5ba	0.06782098
109	0x3eabd699	0.33562163
110	0xbdb6eb7f	-0.08931636
111	0xbdb31766	-0.08744697
112	0x3ddc21ea	0.10748656
113	0xbcd7d75c	-0.026347809
114	0x3e6b7c60	0.22996664
115	0x3c012967	0.007883406
116	0xbdd90bd1	-0.10597957
117	0xbdb7f7c3	-0.08982804
118	0x3d5a6800	0.05332184
119	0x3d867e4a	0.065670565
120	0x3d86e697	0.0658695
121	0xbcb7aa2b	-0.02242001
122	0x3db0ca06	0.08632283
123	0x3d643862	0.055717833
124	0x3d5f6957	0.05454382
125	0x3d970c6f	0.073754184
126	0x3db92861	0.09040905
127	0xbda782e1	-0.0817926
128	0xbc7ef88e	-0.01556219
129	0x3dcc8fd6	0.09988372
130	0x3c39ed99	0.011348152
131	0x3d31b627	0.043386605
132	0x3dc2491e	0.09486602
133	0xbd449ac3	-0.047999155
134	0xbd7d06b4	-0.06177397
135	0xbd7e6f65	-0.062117953
136	0xbe64fe2a	-0.22362581
137	0x3dd372c3	0.103246234
138	0x3c51bc78	0.012801282
139	0xbcebd6aa	-0.028788883
140	0x3c0f4e13	0.008746642
141	0x3db37ab3	0.087636374
142	0x3d84840b	0.06470498
143	0x3a44ee53	0.000751232
144	0x3d8c6663	0.06855466
145	0xbc3bd9d2	-0.011465507
146	0x3dbf4999	0.093402095
147	0x3e17a5c5	0.1480933
148	0xbe1f102f	-0.15533517
149	0x3dfe8a28	0.12428695
150	0xbe17be47	-0.14818679
151	0x3d340ab6	0.043955527
152	0xbccf28df	-0.025288044
153	0x3d1369b9	0.035989497
154	0x3b54c5ec	0.0032466603
155	0x3d41c329	0.04730526
156	0x3bb27e76	0.005447204
157	0xbe13f104	-0.14447409
158	0xbdc58f22	-0.09646441
159	0xbe3678e0	-0.17819548
160	0x3d1b1c38	0.03786871
161	0xbd7778e8	-0.06041804
162	0xbcbe38fa	-0.023220528
163	0xbde8c23c	-0.11365172
164	0x3decfadd	0.11571286
165	0xbc0eb05b	-0.008709039
166	0xbca352aa	-0.019936878
167	0xbc5fe6aa	-0.013665834
168	0x3b9391e3	0.004503475
169	0x3d15e653	0.036596607
170	0xbdd0b099	-0.10189933
171	0xbd9968be	-0.07490681
172	0xbd85caf8	-0.06532854
173	0xbc4ed8af	-0.012624904
174	0xbdc0e823	-0.094192766
175	0x3c50f92d	0.012754721
176	0xbb174a60	-0.0023085102
177	0xbc3b0404	-0.011414532
178	0x3de1bac1	0.110219486
179	0x3c4c360d	0.012464059
180	0xbbda902d	-0.006670019
181	0x3c78a774	0.015176643
182	0xbd115aab	-0.03548686
183	0xbd68ac0b	-0.056804698
184	0xbd50980a	-0.050926246
185	0xbd85bee7	-0.06530552
186	0x3e1bad43	0.15202813
187	0xbd01ded1	-0.031706635
188	0xbd9068dd	-0.07051251
189	0x3daf8655	0.08570544
190	0x3c872763	0.016498273
191	0xbd93c748	-0.07215744
192	0xbd2907d5	-0.041267235
193	0xbe134c94	-0.14384681
194	0x3d5bed03	0.05369283
195	0xbe5bf696	-0.21480784
196	0x3d0ad254	0.03389199
197	0xbccd78ca	-0.02508201
198	0x3d9454da	0.07242747
199	0xbd6d6dce	-0.057966046
200	0xbd36def8	-0.044646233
201	0xbc2b91ce	-0.010471774
202	0xbd07b649	-0.033132825
203	0x3cbb06e7	0.02283044
204	0xbc3e8ce5	-0.011630272
205	0x3c88db1e	0.016706046
206	0x3d1e8e80	0.038710117
207	0xbdd94e4e	-0.106106386
208	0xbdb2884a	-0.08717401
209	0x3d41090c	0.04712777
210	0x3d2f1898	0.042748064
211	0x3da48186	0.08032517
212	0xbd7bae77	-0.06144568
213	0xbc2bb178	-0.010479324
214	0xbd2a37f6	-0.041557275
215	0xbbe0a883	-0.0068560257
216	0xbc0c5dd6	-0.008567294
217	0xbd46f3e5	-0.04857244
218	0xbdf55a88	-0.11980158
219	0xbb27f461	-0.002562784
220	0x3c9f6844	0.019458897
221	0x3d61fb4a	0.05517129
222	0xbd8840be	-0.066529736
223	0x3a41f457	0.0007398775
224	0xbda49984	-0.08037093
225	0x3e01be1f	0.12670182
226	0x3d2caf60	0.042159438
227	0xbd9fb5e8	-0.07798368
228	0x3d92fe1a	0.07177372
229	0xbe096760	-0.1341834
230	0xbcca6358	-0.024705574
231	0x3cacb6b0	0.021083206
232	0xbe70bd31	-0.23509671
233	0xbc401d59	-0.011725747
234	0xbdfe6131	-0.124208815
235	0x3c0bb382	0.008526685
236	0x3b855b0d	0.004069692
237	0x3e1913ee	0.14949009
238	0x3ccbdf8b	0.024886867
239	0xbdca85d5	-0.09888808
240	0x3d351179	0.044206116
241	0xbd344f0e	-0.044020705
242	0x3c8f7350	0.01751104
243	0x3d512b66	0.05106678
244	0xbdcccc08	-0.099998534
245	0x3ca205f4	0.01977823
246	0x3d8864ad	0.066598274
247	0xbd640c88	-0.055676013
248	0x3e2493a1	0.16071941
249	0xbd738e07	-0.05946162
250	0x3e1772fe	0.1478996
251	0x3a506120	0.0007949043
252	0x3da9fbd7	0.08299988
253	0x3df5d1b0	0.12002885
254	0x3d0134b9	0.03154442
255	0x3d686f97	0.056747045

bias_ih_l0 f4 [512]
0	0x3da3ee95	0.0800449
1	0x3dd4ad38	0.10384601
2	0x3e00dc01	0.12583925
3	0x3dde3b20	0.10851121
4	0x3e1b6879	0.15176572
5	0x3d9d1734	0.07670441
6	0x3e4acded	0.19805117
7	0x3ca58f57	0.020209951
8	0x3e14a96c	0.14517754
9	0x3e27a887	0.16372882
10	0x3d8cef66	0.06881599
11	0x3cba470e	0.02273896
12	0x3d59cb38	0.05317232
13	0x3d7c9cc1	0.06167293
14	0x3e066680	0.13125038
15	0x3d744428	0.05963531
16	0x3e038731	0.1284454
17	0x3e014774	0.12624913
18	0x3d92d48f	0.071694486
19	0x3dd4440c	0.103645414
20	0x3dbc7157	0.09201305
21	0x3e08dedb	0.13366263
22	0x3d283cef	0.041073736
23	0x3dfb06ea	0.12257178
24	0x3c6a1110	0.014286295
25	0x3d7163c5	0.05893304
26	0x3e553b65	0.20823438
27	0x3db8887d	0.09010408
28	0x3e35300f	0.17694114
29	0x3cd547d9	0.026035236
30	0x3dc6ba48	0.09703499
31	0x3d9be46a	0.07611926
32	0x3d012384	0.03152801
33	0x3e408501	0.18800737
34	0x3c95b010	0.01827243
35	0x3dc613c9	0.096717425
36	0x3d0e4b14	0.03473957
37	0x3d8719e7	0.06596737
38	0x3e16f609	0.14742292
39	0x3d844996	0.06459348
40	0xbae64ede	-0.0017571112
41	0x3dc73289	0.09726436
42	0x3d86c0ff	0.0657978
43	0x3dbd2d4c	0.09237155
44	0x3e4d02e4	0.20020634
45	0x3e4d4ee5	0.20049627
46	0x3d49c57d	0.049260605
47	0x3dc2949f	0.095010035
48	0x3d191c9d	0.037380803
49	0x3e126baf	0.1429889
50	0xb8e2e29f	-0.00010818731
51	0x3e5bb23e	0.21454713
52	0x3e279b8e	0.16367933
53	0x3c672a61	0.014109225
54	0x3e12b6e6	0.14327583
55	0xbc921bf8	-0.017835602
56	0x3e26169a	0.1621956
57	0x3dafd832	0.08586158
58	0xbc4b915f	-0.012424796
59	0xbc92707c	-0.017875902
60	0x3dee9fc6	0.11651568
61	0xbc391338	-0.011296086
62	0x3dc41a26	0.095753
63	0x3e53872d	0.20657034
64	0x3e0d5b30	0.13804317
65	0x3d8fd550	0.07023108
66	0x3e17824d	0.147958
67	0x3d80379e	0.06260608
68	0x3ddceff4	0.10787955
69	0x3df31991	0.11870111
70	0x3a54b708	0.0008114432
71	0x3e2200ed	0.15820666
72	0x3e320414	0.17384368
73	0x3d283250	0.041063607
74	0x3e079cc4	0.13243395
75	0x3d61d147	0.055131223
76	0x3e4c8e88	0.19976246
77	0x3d0391eb	0.03212158
78	0x3e3c317f	0.18378256
79	0x3da73e25	0.0816615
80	0x3e460af9	0.19340123
81	0x3d107c30	0.035274684
82	0x3cac6af6	0.021047097
83	0x3e02eca7	0.12785588
84	0xbcd5750c	-0.026056789
85	0x3dda47e5	0.10658244
86	0x3ceb7ce5	0.028746078
87	0x3b336dc6	0.0027378662
88	0x3dd74d21	0.10512758
89	0x3dcb28ca	0.09919889
90	0x3e56f4f7	0.20991884
91	0x3cd20b3c	0.025640123
92	0x3d9f40fe	0.07776068
93	0x3c8470a0	0.016166985
94	0xbd03c367	-0.032168772
95	0x3e0754df	0.1321597
96	0x3e704e52	0.23467377
97	0x3d20a65f	0.039221164
98	0x3c17f438	0.009274535
99	0x3d9117e0	0.07084632
100	0x3df69688	0.1204043
101	0x3de13c23	0.10997798
102	0x3de433de	0.111427054
103	0x3e0d3fff	0.13793944
104	0x3e24929b	0.1607155
105	0xbb88a029	-0.004169483
106	0x3cd547fa	0.026035298
107	0x3d3342d1	0.043764893
108	0x3dc11e4a	0.09429605
109	0x3e1ba4ee	0.15199634
110	0x3dd5ade8	0.104335606
111	0x3d9141de	0.07092641
112	0x3e123118	0.1427654
113	0x3dd36bb4	0.10323277
114	0x3e4432e7	0.19160043
115	0x3d6052ca	0.054766454
116	0x3da6b932	0.08140792
117	0x3d322a07	0.04349711
118	0x3e311bc1	0.17295744
119	0x3e63dc90	0.22252107
120	0x3d94a02b	0.07257112
121	0x3dfabec8	0.1224342
122	0x3e414809	0.18875135
123	0x3d553a88	0.052057773
124	0xbc1a6120	-0.0094225705
125	0x3d994b54	0.07485071
126	0x3d70fd0f	0.058835085
127	0x3dd86a1e	0.10567115
128	0x3d8f74f7	0.07004731
129	0x3d82e88a	0.063920096
130	0x3b872e40	0.0041253865
131	0x3b92cce8	0.004479993
132	0xbdead964	-0.11467245
133	0x3d8cb73d	0.068708874
134	0xbc3f1794	-0.011663336
135	0x3e112b7a	0.14176741
136	0x3bc4a9d4	0.0060016904
137	0xbdc7d4b2	-0.09757365
138	0x3da835ee	0.08213411
139	0x3d945395	0.072425045
140	0x3d85ae2f	0.065273635
141	0x3ddcb335	0.107763685
142	0x3c067a4b	0.008207868
143	0x3ccbbc05	0.024869928
144	0xbd9fd240	-0.07803774
145	0x3d1139d3	0.035455536
146	0xbcadee25	-0.02123172
147	0xbdd027ca	-0.10163839
148	0x3d9fa8f1	0.07795895
149	0xbcf4fc95	-0.029905597
150	0x3d4c6400	0.049900055
151	0xbc261c14	-0.01013853
152	0xbd37e260	-0.044893622
153	0xbd0bea19	-0.0341588
154	0x3d615d9d	0.055020917
155	0xbd550915	-0.052010614
156	0x3c8d3dff	0.017241476
157	0xbdd45331	-0.1036743
158	0x3dfe2445	0.124092616
159	0xbcac2000	-0.021011353
160	0xbe0bf8f7	-0.13669191
161	0x3d8bd7ca	0.06828268
162	0xbda6bca7	-0.08141451
163	0x3bad8243	0.0052950694
164	0x3d0cd000	0.03437805
165	0x3d367788	0.044547588
166	0x3c388b18	0.011263631
167	0xbd07d142	-0.03315855
168	0x3ab8435e	0.0014058163
169	0xbd86aee2	-0.06576325
170	0x3d3080eb	0.043091696
171	0x3dacff21	0.084470995
172	0x3de68a91	0.11256898
173	0xbde451a7	-0.111483864
174	0x3cc976e4	0.024592824
175	0x3d0085ca	0.03137759
176	0xbd4feada	-0.05076108
177	0xbd6a0a2f	-0.057138618
178	0x3e0d630a	0.13807312
179	0xbc804854	-0.015659489
180	0xbe137be8	-0.14402735
181	0x3dd84bff	0.1056137
182	0xbb572e4d	-0.0032833994
183	0x3a4763fc	0.00076061464
184	0x3d7ca743	0.06168295
185	0x3d9c130d	0.07620821
186	0x3b7e58a8	0.0038810167
187	0x3d97c703	0.07411005
188	0xbd870a87	-0.06593805
189	0xbd826fbe	-0.063689694
190	0xbde43baa	-0.111441925
191	0xbe033387	-0.12812625
192	0x3d9725d0	0.07380259
193	0xbe19388d	-0.14962979
194	0x3da00dd0	0.078151345
195	0x3c8aaf28	0.016929224
196	0x3d828772	0.063734904
197	0x3d4794ca	0.04872588
198	0xbd7e0d18	-0.062024206
199	0xbe0a8f56	-0.13531241
200	0x3c18d94a	0.0093291495
201	0x3db13c64	0.08654097
202	0x3d643e30	0.05572337
203	0x3b15db6c	0.0022866381
204	0xbdac5e4b	-0.084164225
205	0x3da4e676	0.080517694
206	0x3daa8c40	0.08327532
207	0xbb8d2a13	-0.004307994
208	0x3cb80920	0.022465289
209	0x3d9ef258	0.07761067
210	0x3cd550f6	0.026039582
211	0x3ce293ee	0.027658429
212	0x3d8566ad	0.065137245
213	0x3d80a0a4	0.0628064
214	0x3cae98cf	0.0213131
215	0x3d848f67	0.06472664
216	0x3dbaa58a	0.09113605
217	0x3daf3d72	0.08556642
218	0xbdafc365	-0.085821904
219	0xbdfe5c1d	-0.12419913
220	0xbd102e01	-0.035200123
221	0x3dcc0a5d	0.09962914
222	0xbdff959b	-0.12479707
223	0x3c28d0ed	0.010303718
224	0x3b38c79a	0.0028195144
225	0x3d858bc8	0.06520802
226	0x3d3231f5	0.043504674
227	0xbd1cedb1	-0.038312618
228	0xbda33494	-0.07969013
229	0xbdf0c511	-0.117563374
230	0x3df79ebc	0.12090823
231	0x3d404a46	0.046945833
232	0xbdd4112b	-0.10354837
233	0xbc828fd2	-0.01593772
234	0xbcd00f35	-0.025397876
235	0x3c75df5a	0.015006864
236	0xbdd85d98	-0.105647266
237	0x3d8a8eca	0.06765516
238	0xbdafad88	-0.0857802
239	0x3d3b4020	0.04571545
240	0xbddb87b8	-0.10719246
241	0x3d73afd4	0.059493855
242	0xbd2e8ff8	-0.042617768
243	0x3c483211	0.012218968
244	0xbdfc5864	-0.12321547
245	0x3d98686b	0.07441791
246	0x3d71e55e	0.059056632
247	0x3bea55bc	0.0071513336
248	0xbd76f986	-0.060296558
249	0x3cf33b44	0.029691346
250	0xbd99ec03	-0.07515719
251	0xbca0176d	-0.01954242
252	0x3cf46e1b	0.029837659
253	0x3cafe97d	0.02147364
254	0x3d6065fa	0.054784752
255	0x3db9067d	0.09034441

bias_hh_l0 f4 [512]
0	0x3bcc534f	0.006235517
1	0x3c253d8d	0.010085476
2	0x3c9c5b68	0.019086555
3	0x3d4d5315	0.05012806
4	0x3d84054a	0.06446321
5	0x3dd3575c	0.10319397
6	0x3e15b3f3	0.14619426
7	0x3de97ca9	0.1140073
8	0x3e74587e	0.23861882
9	0x3db2fb92	0.087393895
10	0x3d5b16f2	0.05348868
11	0x3dc5fc23	0.09667232
12	0x3e05060b	0.12990586
13	0x3e199419	0.14997901
14	0x3d7dbd40	0.06194806
15	0x3e186b3e	0.1488466
16	0x3d535908	0.05159858
17	0x3d9eef1f	0.077604525
18	0xbd08c29e	-0.033388726
19	0x3e2b15c2	0.16707519
20	0x3dc512fd	0.09622762
21	0x3dd89784	0.10575774
22	0x3e440148	0.19141114
23	0x3d6dcb55	0.05805524
24	0x3db56287	0.08856683
25	0x3e1766f7	0.14785372
26	0x3e5c687e	0.21524236
27	0x3de62602	0.11237718
28	0x3e123a18	0.14279974
29	0x3d9ff2f4	0.078100115
30	0x3c64f51d	0.013974455
31	0x3d033527	0.032033112
32	0x3e3c5974	0.18393499
33	0x3e1c62bc	0.15272039
34	0x3d2f3c4f	0.042782124
35	0x3c3ccd0c	0.011523496
36	0x3e181694	0.14852363
37	0x3d977a6f	0.07396399
38	0x3d3945a2	0.045232423
39	0x3e0254fc	0.12727731
40	0x3dcbb274	0.099461466
41	0x3e632704	0.22182852
42	0x3dc5d973	0.09660616
43	0x3dabbae1	0.08385254
44	0x3e25a8b4	0.16177636
45	0x3e6997f4	0.22811872
46	0x3dd4f8e7	0.10399037
47	0x3e14885e	0.14505145
48	0x3e2dad34	0.16960603
49	0x3d8aab02	0.067708984
50	0x3d8afcbf	0.06786489
51	0x3e2c260d	0.1681139
52	0x3e146ec1	0.14495374
53	0x3de7b365	0.11313514
54	0x3e1f1999	0.15537108
55	0x3dd8c81e	0.10585044
56	0x3d92b098	0.07162589
57	0x3da8dcbb	0.08245226
58	0x3d908b39	0.070578046
59	0x3e13475d	0.14382692
60	0x3de4758c	0.11155233
61	0x3de766b5	0.11298887
62	0x3d40c407	0.047061946
63	0x3e25d3ca	0.16194072
64	0x3d5558dd	0.0520867
65	0x39b3f47f	0.00034323704
66	0x3e40ff25	0.1884733
67	0x3df49321	0.11942125
68	0x3dd76d58	0.105189025
69	0x3e0a731a	0.1352047
70	0x3e1af51a	0.15132561
71	0x3db007ca	0.08595236
72	0x3db8420a	0.08996971
73	0x3dc0cf5b	0.0941455
74	0x3e73f348	0.23823273
75	0x3bb17f76	0.005416806
76	0x3e0aace9	0.13542522
77	0xbc01fb0a	-0.0079333875
78	0x3e2b9f8a	0.16760078
79	0x3da9e5e4	0.08295801
80	0x3e1e9ea9	0.15490212
81	0x3e0721c4	0.13196474
82	0x3e2a6322	0.16639379
83	0x3b94c9ee	0.0045406735
84	0x3dabc133	0.08386459
85	0x3db18d40	0.086695194
86	0x3c28503a	0.010273034
87	0x3d15ecb8	0.036602706
88	0x3e1c5fd0	0.15270925
89	0x3e2afff3	0.166992
90	0x3e2d8e99	0.16948928
91	0x3e1e52a6	0.15461215
92	0x3d82d1da	0.06387682
93	0x3e192ba0	0.14958048
94	0xbc424d39	-0.011859232
95	0x3dd9412f	0.10608136
96	0x3e4f0905	0.20218284
97	0x3c410c17	0.011782668
98	0x3deeb93c	0.116564244
99	0x3d0e48c3	0.03473736
100	0x3e2f2a13	0.17105894
101	0x3e230350	0.15919232
102	0x3c6c9b2d	0.014441294
103	0xbc8a1e29	-0.016860085
104	0x3e720560	0.23634863
105	0x3dd5db97	0.10442274
106	0x3dfe0527	0.124033265
107	0x3e340315	0.175793
108	0x3dffb076	0.12484829
109	0x3dd934a7	0.10605746
110	0x3c153898	0.009107731
111	0x3e4d02a4	0.20020539
112	0x3c844fd3	0.016151344
113	0x3d2495e5	0.040182013
114	0x3d5edfdb	0.054412704
115	0x3e141cef	0.14464162
116	0x3df131a8	0.11777049
117	0x3dd50d79	0.1040296
118	0x3e3732d5	0.17890485
119	0x3dad41a2	0.08459784
120	0x3d949220	0.07254434
121	0x3ca0ec3c	0.019643895
122	0x3e3947fd	0.18093868
123	0x3d555c5e	0.05209004
124	0x3d1e7bf4	0.03869243
125	0x3df55868	0.11979753
126	0x3dbbb884	0.09166053
127	0x3d3b5d7b	0.045743447
128	0x3dc3156d	0.09525571
129	0x3dbe8cb6	0.09304182
130	0x3dcf48ae	0.101212844
131	0xbdc60cd2	-0.09670414
132	0xbc816339	-0.015794383
133	0x3d63e103	0.05563451
134	0xbc785b1b	-0.01515844
135	0x3ca37747	0.019954337
136	0xbd3cc1f6	-0.046083413
137	0xbd08b9b6	-0.033380233
138	0x3d977363	0.07395055
139	0x3d443578	0.047902554
140	0x3db54d37	0.08852618
141	0x3d8f9b36	0.07012026
142	0x3db81f90	0.08990395
143	0x3a341b15	0.00068704906
144	0xbce9cd8e	-0.028540399
145	0x3d267b7d	0.04064511
146	0x3db2aec5	0.08724741
147	0xbd0cde11	-0.034391467
148	0x3dc186b3	0.0944952
149	0xbcc1cf09	-0.023658292
150	0xbda3e99b	-0.08003541
151	0x3d394ef1	0.0452413
152	0xbd47bbeb	-0.048763197
153	0x3cd63966	0.026150417
154	0xbd892f20	-0.066984415
155	0xbda3bd59	-0.079950996
156	0x3c2a537a	0.010395879
157	0xbdd5cad6	-0.104390785
158	0x3e095bf9	0.13413991
159	0xbd73c10a	-0.05951027
160	0xbdc9ef53	-0.098601006
161	0x3df8d09e	0.121491656
162	0x3d631ec4	0.055449262
163	0xbd9505cf	-0.072764985
164	0xbda03b67	-0.0782383
165	0x3d306e17	0.04307374
166	0x3a9d473f	0.0011999382
167	0x3d8994bb	0.06717821
168	0x3ca45e7c	0.020064585
169	0x3c42d4bb	0.011891539
170	0xbb95c86a	-0.0045710104
171	0x3d4c6b7c	0.049907193
172	0x3dcfeae3	0.10152223
173	0xbe1da8a4	-0.15396363
174	0x3c48f0b6	0.012264421
175	0x39c7d323	0.00038113547
176	0xbd8ac4fe	-0.067758545
177	0xbd4c0990	-0.049813807
178	0x3bca2112	0.006168493
179	0x3c80cc31	0.015722366
180	0xbdb59eca	-0.08868177
181	0x3db26624	0.08710888
182	0x3da66043	0.08123829
183	0x3d962dee	0.07332979
184	0x3d509ce7	0.050930884
185	0xbd544abf	-0.051829096
186	0xbd13b9a3	-0.03606571
187	0x3d86ef75	0.065886416
188	0xbc4d340c	-0.012524616
189	0xbd9b6a43	-0.07588627
190	0xbd43ddff	-0.047819134
191	0xbd84f2a5	-0.06491593
192	0xbda3d9a5	-0.08000497
193	0xbe1585d1	-0.14601828
194	0xbdaaab11	-0.083334096
195	0xbce79559	-0.028269457
196	0xbbe4fbad	-0.00698801
197	0xbb99a261	-0.0046885465
198	0xbc74f837	-0.014951757
199	0xbdb89a2a	-0.090137795
200	0x3d27cfd2	0.040969677
201	0xbd8c0862	-0.068375364
202	0x3d80e300	0.06293297
203	0xbb1a5bb2	-0.002355319
204	0xbd6fe40d	-0.058567096
205	0x3d5b5fcd	0.05355816
206	0x3da15860	0.07878184
207	0x39bb8b6d	0.000357713
208	0x3d6bc944	0.05756499
209	0x3d6be1b0	0.05758828
210	0x3dfda42e	0.123848304
211	0x3c288d5f	0.010287612
212	0x3c8192b8	0.015817031
213	0x3db81e50	0.08990157
214	0x3cd5de06	0.026106846
215	0x3c1139a8	0.008863844
216	0x3de38b53	0.11110558
217	0x3df3f232	0.119114295
218	0xbdc920a5	-0.098206796
219	0xbd972a7f	-0.07381152
220	0x3da8a351	0.08234275
221	0x3b960fa6	0.004579502
222	0xbdff8cc1	-0.124780186
223	0xbc3ed8da	-0.011648381
224	0xbd37dbb1	-0.04488725
225	0x3c911960	0.017712295
226	0xbbfa5f96	-0.0076407893
227	0x3cde180d	0.027111078
228	0xbe1b8435	-0.15187152
229	0xbd7f0b11	-0.062266413
230	0x3d941334	0.07230225
231	0xbd2af94b	-0.04174165
232	0xbca48884	-0.020084627
233	0x3dbc198d	0.09184561
234	0x3d516d68	0.05112973
235	0x3d300603	0.042974483
236	0x3d8a9d17	0.06768244
237	0xbc62ffb6	-0.013854912
238	0x3d009b8d	0.031398345
239	0x3d4cd9f6	0.05001255
240	0xbdc461ea	-0.09588988
241	0x3da78b7a	0.081809
242	0xbc83edac	-0.016104542
243	0xbdc7f54b	-0.09763583
244	0xbd9191b8	-0.07107872
245	0x3d710cde	0.05885016
246	0xbd85161a	-0.06498356
247	0x3d3689eb	0.044565123
248	0x3c19616c	0.009361606
249	0x3d754252	0.0598777
250	0xbccfe596	-0.02537803
251	0xbcf3a3e0	-0.029741228
252	0x3d6f3ec8	0.058409482
253	0x3d26e3cb	0.040744584
254	0x3dcabfda	0.09899874
255	0x3d64cbec	0.055858538

weight f4 [29, 128]
0	0xbe03bf65	-0.1286598
1	0x3ddddb5d	0.10832856
2	0x3e0fc587	0.14040194
3	0xbe065c93	-0.13121252
4	0xbe82bd26	-0.25534934
5	0x3d1ce32f	0.038302597
6	0xbe01417a	-0.12622634
7	0xbdc54a59	-0.09633321
8	0x3d8752e6	0.066076085
9	0xbd38c720	-0.045111775
10	0x3ddcbcda	0.10778208
11	0xbc9bb7b7	-0.0190085
12	0xbda21130	-0.079134345
13	0x3d85a159	0.06524915
14	0x3dd34ddb	0.10317584
15	0xbd6d984a	-0.058006562
16	0x3e041ce9	0.12901653
17	0x3afe5eea	0.0019406949
18	0x3dd28102	0.102785125
19	0x3d8b9053	0.06814637
20	0xbc483a4c	-0.01222093
21	0xbcf698b8	-0.030102119
22	0x3e1a8b18	0.15092123
23	0x3d2bb10a	0.041916884
24	0xbdfbd9d8	-0.1229741
25	0x3da8a2ea	0.082341984
26	0x3d9f2e39	0.07772488
27	0xbdfdd1df	-0.12393545
28	0xbe56de13	-0.20983152
29	0x3d34248c	0.043980166
30	0xbe0882d9	-0.13331164
31	0xbdbd0761	-0.09229923
32	0xbb960c3b	-0.0045790947
33	0xbe0af2fd	-0.13569255
34	0x3ab6c86a	0.0013945226
35	0x3d2ed7ff	0.04268646
36	0xbc8626cf	-0.016375927
37	0x3db8fdc8	0.0903278
38	0x3d60d6b1	0.054892246
39	0x3da616ac	0.08109793
40	0xbe1998bf	-0.14999674
41	0xbe29e839	-0.16592492
42	0x3e7616be	0.24032113
43	0xbd678511	-0.056523386
44	0xbdaa9fd1	-0.08331264
45	0x3dc369fa	0.09541698
46	0xbe1bcac4	-0.15214068
47	0x3dbb9d66	0.09160881
48	0xbe26b2ff	-0.16279219
49	0xbdadbbfa	-0.08483119
50	0x3dec3472	0.11533441
51	0xbe46d1c8	-0.19415963
52	0x3ca9bddc	0.020720415
53	0x3d520d12	0.051281996
54	0x3e34425c	0.17603439
55	0x3dfdc136	0.12390368
56	0xbe708790	-0.23489213
57	0xbde99d9f	-0.11407017
58	0x3df37ced	0.11889062
59	0xbc844043	-0.016143924
60	0xbdf33fbb	-0.1187739
61	0xbdcd8f18	-0.100370586
62	0x3d73c57f	0.05951452
63	0x3dc5d490	0.09659684
64	0x3d7ec06c	0.062195227
65	0xbde7b898	-0.11314505
66	0x3d6831f5	0.056688268
67	0x3d11731b	0.035510164
68	0xbd8948b7	-0.067033224
69	0xbdf385da	-0.118907645
70	0xbd9a20ad	-0.07525764
71	0x3d8a2e81	0.06747151
72	0xbe1996d5	-0.14998944
73	0xbd696147	-0.056977537
74	0xbe49b53b	-0.1969804
75	0x3e2adbc7	0.16685401
76	0xbdaa1040	-0.08303881
77	0xbc284f25	-0.010272776
78	0xbe3cf96e	-0.18454525
79	0x3daec386	0.08533387
80	0x3c900b41	0.017583491
81	0x3e096729	0.13418259
82	0x3deccfe9	0.11563093
83	0x3dc3f2c0	0.09567785
84	0x3d7d18db	0.061791282
85	0x3dd423c0	0.10358381
86	0xbe13d549	-0.1443683
87	0xbabca8b8	-0.0014393544
88	0xbcc6d6e7	-0.024272395
89	0x3d9ab35b	0.075537406
90	0x3e6ea974	0.23306829
91	0x3cf7d433	0.030252552
92	0xbe49a111	-0.19690348
93	0xbd866c17	-0.06563585
94	0x3dd3077c	0.10304162
95	0xbdc113b8	-0.09427589
96	0x3d8f8e07	0.070095114
97	0xbd1a376d	-0.037650514
98	0x3df8d539	0.12150044
99	0xbe4ca916	-0.19986376
100	0xbe56c59f	-0.20973824
101	0x3dd8b770	0.10581863
102	0xbd664be9	-0.056224737
103	0xba88e2d5	-0.0010443578
104	0x3e5d7d57	0.21629845
105	0x3dc20add	0.09474728
106	0x3e74ba98	0.23899305
107	0x3dc19222	0.09451701
108	0xbd2a296d	-0.041543413
109	0x3da51e1e	0.08062385
110	0x3e206a60	0.15665579
111	0xbc2146e4	-0.009843562
112	0xbdf5b9c1	-0.1199832
113	0x3c73784e	0.014860226
114	0x3daa7080	0.08322239
115	0x3d1144a2	0.035465844
116	0xbde71e15	-0.112850346
117	0xbda0f849	-0.07859857
118	0xbe413f8c	-0.18871897
119	0xbe1bce40	-0.15215397
120	0x3a33092c	0.0006829675
121	0xbe243564	-0.16035992
122	0xbe5612e8	-0.2090565
123	0xbe2d340b	-0.16914384
124	0x3cc04f83	0.023475414
125	0x3c117b4e	0.008879496
126	0x3d5d8171	0.054078523
127	0xbe1c00c5	-0.15234669
128	0xbde285c7	-0.11060672
129	0xbe6aac0f	-0.22917198
130	0x3cdb28d9	0.026752876
131	0xbd051359	-0.032489154
132	0x3db6a6f1	0.0891856
133	0x3b890040	0.004180938
134	0x3e52c263	0.20581965
135	0x3e918faf	0.28429934
136	0xbd2069b0	-0.03916329
137	0x3dd51567	0.10404473
138	0xbe21f25f	-0.15815113
139	0x3e0bc804	0.13650519
140	0xbcfe97b3	-0.031078195
141	0xbd7e4b37	-0.06208345
142	0xbe7f9b38	-0.24961555
143	0xbd621e05	-0.05520441
144	0x3d261ab8	0.040552825
145	0xb9d6ba15	-0.00040955903
146	0xbe9dddf8	-0.3083341
147	0x3da1c0d9	0.07898111
148	0x3d738dc0	0.059461355
149	0x3dcb2975	0.09920017
150	0xbd19e338	-0.03757021
151	0xbe0544e5	-0.13014562
152	0x3e229f51	0.15881087
153	0x3d8c5214	0.06851593
154	0xbdcc5b9c	-0.099784106
155	0xbcd0c771	-0.025485726
156	0x3ba2983f	0.004961997
157	0xbe338bc5	-0.17533787
158	0xbd8a5093	-0.067536496
159	0x3a1b1c11	0.0005916963
160	0xbe82740e	-0.25479168
161	0xbd99b6ec	-0.07505593
162	0x3c1107b4	0.008851934
163	0xbccaa8a0	-0.02473861
164	0xbd1992cf	-0.037493523
165	0x3cbb0784	0.022830732
166	0x3c369708	0.011144407
167	0xbd245721	-0.040122155
168	0x3d37d9e4	0.04488553
169	0x3dcc0e91	0.09963716
170	0xbe3ffdea	-0.18749204
171	0x3e943c31	0.28952172
172	0xbe11687f	-0.14200018
173	0xbd8676fa	-0.06565662
174	0x3e43c915	0.19119675
175	0x3d2c2a82	0.042032726
176	0xbdc669af	-0.09688126
177	0x3d6df293	0.058092665
178	0x3d27a400	0.040927887
179	0x3dbfd7bf	0.09367322
180	0x3e26045c	0.162126
181	0x3d7b05a2	0.06128467
182	0x3d5c72f8	0.05382058
183	0xbd70edbb	-0.058820467
184	0xbd1399c4	-0.036035314
185	0x3dbcb282	0.09213735
186	0x3de09bc6	0.109672114
187	0x3d4b3548	0.04961136
188	0x3bc05e53	0.0058706193
189	0x3e04b2ae	0.12958786
190	0x3ccc7b85	0.024961242
191	0x3da5ea4a	0.08101328
192	0x3d3b2199	0.045686338
193	0xbd0ba6a8	-0.034094483
194	0x3d9069a5	0.070514
195	0xbd5f65f6	-0.054540597
196	0x3ca7d1b9	0.020485746
197	0xbc461e8f	-0.012092247
198	0x3e0c5c4f	0.13707088
199	0xbe68c7fe	-0.22732541
200	0xbe127a5b	-0.14304487
201	0x3e2b48c1	0.16726972
202	0x3e9d7d74	0.30759776
203	0x3d0c2b56	0.034221016
204	0x3b9f99fc	0.0048706513
205	0xbdfeb985	-0.12437729
206	0x3e741f72	0.2384012
207	0x3e32ad72	0.17448977
208	0xbe10b359	-0.14130916
209	0xbe2122a4	-0.1573587
210	0x3d3fe838	0.04685232
211	0xbe0c2d72	-0.13689211
212	0xbd445381	-0.047931198
213	0x3db57d43	0.088617824
214	0x3e5d0ed8	0.21587694
215	0xbd141a08	-0.036157638
216	0xbdfcb5cd	-0.12339363
217	0x3cd0eb11	0.025502713
218	0xbe1b37d5	-0.15158017
219	0xbe3a1ca6	-0.18174991
220	0x3dad090b	0.084489904
221	0x3dd7ae58	0.105313
222	0x3d9b5153	0.07583871
223	0x3c5bc120	0.013412744
224	0x3ddf5b80	0.10906124
225	0x3d7e7cf4	0.062130883
226	0xbdf09bc9	-0.11748464
227	0xbc1842fd	-0.009293315
228	0x3c834dc1	0.016028287
229	0xbc4e73e5	-0.012600874
230	0x3e02ac4e	0.12761042
231	0x3cd3fd10	0.025877506
232	0xbd823d2f	-0.06359326
233	0x3de2f448	0.11081749
234	0xbdc131d5	-0.09433333
235	0x3d223a3e	0.039606325
236	0x3dede625	0.11616162
237	0x3d6ff1ff	0.058580395
238	0xbb9925c5	-0.004673692
239	0x3d1d7bf1	0.038448278
240	0xbcb3f622	-0.021967951
241	0x3ca0ab85	0.019613037
242	0x3d1af497	0.037830915
243	0xbe17c4ed	-0.14821215
244	0xbe1c6de0	-0.15276289
245	0xbc6c3fdb	-0.014419521
246	0x3d9ca483	0.076485656
247	0xbcc5da12	-0.024151836
248	0xbc588993	-0.013216394
249	0x3e81839b	0.2529572
250	0x3d168d66	0.03675594
251	0x3c563a94	0.01307549
252	0xbd27114f	-0.04078799
253	0x3da8820e	0.08227931
254	0xbd9756eb	-0.07389625
255	0xbd084317	-0.033267107

bias f4 [29]
0	0x3db37b92	0.087638035
1	0xbd220442	-0.03955484
2	0x3d74ef33	0.05979843
3	0xbd05caa6	-0.032663964
4	0x3d0937e9	0.033500586
5	0xbd1ba44b	-0.03799848
6	0x3c343f83	0.0110014705
7	0xbcc2d408	-0.023782745
8	0x3e252aa3	0.16129546
9	0xbdf936df	-0.12168669
10	0x3c92e198	0.017929837
11	0x3dd96b7c	0.10616204
12	0x3d5d6928	0.054055363
13	0x3c91793e	0.017758008
14	0x3cf7621b	0.030198148
15	0xbc5b0db5	-0.013369967
16	0xbdd72190	-0.105044484
17	0x3dd56c21	0.104210146
18	0x3d5c87a1	0.053840283
19	0x3e1e8923	0.15482001
20	0xbd6cfe79	-0.05785987
21	0xbe06e510	-0.13173318
22	0xbd992d5b	-0.07479354
23	0xbe55b68a	-0.20870414
24	0xbd855044	-0.0650945
25	0xbd1ce1a6	-0.038301133
26	0xbe0ac9b5	-0.13553508
27	0xbd8e90f3	-0.069612406
28	0xbe303bd5	-0.17210324
