models/LSTM/128/ESEU_60-40/ESEU_60-40_4_threshold_val_30.pt (torch, 353807 bytes, 7 tensors)

weight f4 [29, 32]
000000 5d 9d 66 3f 03 07 09 40 db a6 d9 bf 4e 15 e1 be
       0.9008387 2.141053 -1.7004045 -0.43961567
000010 38 0f cb 3f da 31 9e 3f 19 f4 ae 3f 6f a9 4c 3f
       1.5864019 1.2358963 1.3668243 0.79946035
000020 1c 3e 68 bf 67 ee 6a bf 12 71 90 3f b0 ac 43 3f
       -0.9071977 -0.91770023 1.1284506 0.76435375
000030 1e f2 36 bf f4 88 01 c0 8d a2 c3 3e 13 b7 82 bf
       -0.7146319 -2.023984 0.38209954 -1.021212
000040 09 cc 02 40 92 6d ae bf f3 cd 01 c0 c1 a9 27 bf
       2.0437033 -1.3627188 -2.0281951 -0.654934
000050 3f 86 1e 40 d4 78 f8 bd ed ef a2 be d5 46 82 3f
       2.4769437 -0.12132421 -0.31823674 1.0177866
000060 11 2f 4c 3d 8d 17 fe be ff be 1e 3f 8a 92 92 be
       0.049849574 -0.49627343 0.62010187 -0.28627425
000070 53 25 76 3f c2 c0 49 c0 be 12 a5 3d c3 20 d3 3e
       0.961507 -3.15239 0.080602154 0.41235933
000080 b8 0d c2 3e 09 49 e7 3f 02 6b 70 3f fa 50 d0 be
       0.37901092 1.8069164 0.9391328 -0.4068678
000090 27 54 cc 3e 21 fd 18 c0 a8 a2 17 bf a4 2a d0 3f
       0.39907953 -2.3904498 -0.5923257 1.6263013
0000a0 a6 5f 58 3d 2a 49 78 bf 70 43 a2 3e 09 f3 b2 be
       0.052825592 -0.9698664 0.31692076 -0.34951046
0000b0 13 58 c7 bf 0e db e1 3f 7e 38 86 bf 40 ec 27 3f
       -1.5573753 1.7644975 -1.048599 0.65594864
0000c0 c0 25 d2 be 2a 25 1a c0 c2 75 5b bf 5d c2 75 3d
       -0.41044426 -2.4085183 -0.8572656 0.059999812
0000d0 53 b4 88 3f 75 3a 1d c0 86 a4 36 bf 9d a0 ef bc
       1.068003 -2.456693 -0.7134479 -0.029251391
0000e0 f4 af 9b 3f ff 12 86 bf da f6 aa bf 86 36 05 40
       1.2163072 -1.0474547 -1.3356583 2.0814528
0000f0 ae eb 36 3f 91 9a 96 3f 09 5d 35 3d cd d0 01 bf
       0.7145337 1.176592 0.04427818 -0.5070923
000100 2d 69 d1 3e 71 b7 e3 3f cf e5 d5 bf ce 6c 2c 3f
       0.40900555 1.7790357 -1.6710757 0.6735352
000110 5b e6 24 3e 11 5f 16 bf 80 eb d5 be d5 44 a4 3f
       0.16103499 -0.5873881 -0.41781235 1.2833506
000120 ff d7 8d 3f 36 7a 9a 3e 27 01 0d 3e 96 1b bf 3f
       1.1081542 0.30171365 0.13769971 1.4930294
000130 8e 4a 99 3f bf 6d ba 3f b2 08 ae bb b0 88 98 3d
       1.1975877 1.4564742 -0.005311095 0.07447946
000140 23 9e a7 be 6f d7 da 3e 11 79 c8 be 22 08 01 bf
       -0.32737836 0.42742488 -0.39154866 -0.50403035
000150 c8 f2 6d bf ef 31 3e 3f 99 44 8b 3f 78 61 aa 3e
       -0.9294858 0.7429494 1.0880309 0.33277488
000160 26 47 94 bf 00 1c 5a 3e ad b7 dd bf 80 42 a7 3f
       -1.1584213 0.21299744 -1.7321678 1.3067169
000170 f0 b4 b3 3e 6d 0e 21 bf 3c 41 db bf 9c 8b 03 3d
       0.35098982 -0.62912637 -1.7129283 0.032115564
000180 09 61 a2 bf 14 76 10 40 fa 49 c1 bf 4f 34 33 bf
       -1.2685863 2.257207 -1.5100701 -0.7000169
000190 88 18 1c 3f 60 e3 8b bf 23 ab 42 be 20 b5 28 bf
       0.6097493 -1.0928764 -0.19010596 -0.65901375
0001a0 b5 49 32 3e 91 fe 3a c0 22 95 a3 3f ef 55 7b 3f
       0.1741093 -2.9217875 1.2779887 0.98178
0001b0 4e e1 83 bf 5a 08 57 bd a9 10 0c 3f 39 e2 d2 3e
       -1.0303133 -0.0524982 0.5471292 0.4118822
0001c0 ec ce 2d bf 03 ce c3 3f fd 81 3f be 32 96 59 3e
       -0.6789386 1.5297245 -0.1870193 0.21248701
0001d0 d4 5d 03 bf b2 97 e9 be 18 8d c4 bf c8 33 af bf
       -0.51315045 -0.45623547 -1.5355558 -1.3687677
0001e0 85 9a e3 bf 78 ff 8f 3e 1e 32 6d 3f e7 4b 0e be
       -1.7781531 0.28124595 0.926546 -0.13896142
0001f0 27 50 f7 bf 38 fc f8 3f a9 c2 e4 3f bb e9 db be
       -1.9321336 1.9451971 1.7871906 -0.4295176
000200 5f 55 3b 3f 0d 23 86 bf 6e 4a b5 3f dc d1 ac be
       0.7317714 -1.0479447 1.4163339 -0.3375386
000210 31 85 a4 bf 11 21 6e 3e 6a df 84 3e ca b4 09 3d
       -1.2853147 0.23254801 0.259517 0.03361968
000220 5b 2b c7 be 77 df e2 3d 10 25 56 bf 5a 69 3b 3e
       -0.38900265 0.11077779 -0.836503 0.18301907
000230 05 1f 59 bf 58 dd 2f be 4a f6 10 c0 dc ee 6c bf
       -0.8481296 -0.1717428 -2.2650323 -0.9255197
000240 84 35 33 bd c1 e7 04 40 7b 9f bf 3f af bd 83 3f
       -0.04375221 2.0766451 1.4970545 1.0292262
000250 55 b3 0b 3f 62 01 c9 3f c0 c8 b8 3f 6f 67 9b 3e
       0.54570514 1.5703547 1.4436264 0.3035235
000260 65 5e 9f bf 2c ef 82 bf 34 69 e2 bf f7 2b 88 3f
       -1.2450682 -1.022924 -1.7688355 1.0638417
000270 97 73 4e bf d3 a8 63 3f 07 03 8b 3f d2 85 fb 3f
       -0.80645126 0.8892948 1.0860299 1.9650214
000280 ed c2 0d c0 ab 33 81 3f 38 b7 41 bf f0 a0 09 3f
       -2.2150223 1.0093893 -0.75670195 0.53761196
000290 30 26 8c bf 17 91 69 bf ba f9 a9 bd e2 c0 26 bf
       -1.0949154 -0.91237015 -0.08299585 -0.65138066
0002a0 b1 5d f0 3e b8 0e 4d 3e f9 18 db 3f 4a 00 f6 3f
       0.4694648 0.20025146 1.7116996 1.9218838
0002b0 d4 35 2f be 91 52 5e 3d df 47 33 bf 81 16 b5 3f
       -0.17110378 0.05427796 -0.7003154 1.4147493
0002c0 2f 59 e7 bc 17 f0 85 bf 04 fd 17 be 1c 44 8e 3e
       -0.028240768 -1.0463895 -0.14842612 0.27786338
0002d0 43 92 a2 3f ca 6c bc 3f 9a 04 1a bf ce 09 b7 3f
       1.2700886 1.47207 -0.6016327 1.4299867
0002e0 e8 40 82 bf da c3 5d 3e be 27 2e 3e cb cf ba bd
       -1.0176058 0.21656743 0.17007348 -0.091216646
0002f0 0f 59 00 3f 42 bd f9 3f d9 ea 18 bf 5b b9 2a 3e
       0.5013589 1.9510882 -0.5973335 0.1667227
000300 f2 da ca 3f 31 2d 35 3f a0 5b 86 bf ac 15 a5 3e
       1.5848067 0.7077208 -1.0496712 0.32243097
000310 81 5b 11 3f b7 47 63 bf c4 d6 b4 bf 60 46 1e bf
       0.5678025 -0.88781303 -1.4128041 -0.61826134
000320 83 c6 c2 3e 56 bb 14 3e 9e 28 8c 3f 5b 57 ac be
       0.38042077 0.14524588 1.0949895 -0.33660397
000330 5d c6 a1 bf 63 2f 37 be a3 cc 47 3f c9 44 fb 3f
       -1.2638661 -0.1788917 0.78046626 1.9630367
000340 0d 0e 44 3f b0 6a 01 be 78 cc 74 3f a1 b9 e5 bd
       0.7658394 -0.12638354 0.95624495 -0.112170465
000350 d8 5c ca 3e e6 63 9f be 76 d1 7e 3d 9e 6d 4a bf
       0.3952396 -0.31130904 0.062211476 -0.7907351
000360 e5 16 7b 3f bf 17 1c bf 3f 18 c7 bf 82 02 03 3f
       0.9808181 -0.60973734 -1.5554274 0.511757
000370 5f 40 56 3f a4 0b 19 3f d3 52 92 bf 9e 7f 69 3f
       0.8369197 0.5978339 -1.1431526 0.91210353
000380 51 38 a2 3e c4 07 a5 be 8e 63 35 40 b6 a5 af 3e
       0.3168359 -0.32232487 2.8342013 0.34306115
000390 ad 3c 0d 3f 3d d2 1c c0 b6 f3 52 bf 6d 7e 87 3f
       0.5517071 -2.450332 -0.82403123 1.0585457
0003a0 ce 0d 69 3e b3 4e 42 bf 12 61 32 3f ee d5 57 3f
       0.22759172 -0.75901335 0.6967937 0.84310806
0003b0 50 78 0f 3f 86 99 74 bf 47 c9 2a 3f 3a e4 28 be
       0.5604296 -0.9554676 0.66713375 -0.16493312
0003c0 86 91 c8 be 3c 7c 81 3f 6a 9f c3 bf 88 c1 08 3f
       -0.39173526 1.0116038 -1.5283024 0.53420305
0003d0 79 cc 0c bb 06 74 8f bf 63 2a 80 3f ab 2c ba bf
       -0.002148418 -1.1207283 1.0012935 -1.4544882
0003e0 8c ac 83 3d cd bf 4a bf 30 aa b9 3f 6b 71 5a bd
       0.06429395 -0.79198915 1.4505062 -0.05333082
0003f0 11 85 db 3e 32 7f 98 bd 7d 25 fe bf cc 33 d0 be
       0.4287496 -0.074461356 -1.985519 -0.40664518

weight_ih_l0 f4 [512, 32]
000000 fe 86 4d 3d 57 ae 8f 3d 92 3c 01 3d e3 bb ec 3d
       0.050177567 0.070156746 0.031551905 0.11559274
000010 2b 37 0e 3c 6c 52 64 ba 81 aa 3b bd 62 58 ab bc
       0.008680145 -0.00087097916 -0.045816902 -0.020916168
000020 8f b1 75 3d 3b c2 a1 3d ef 7a dc 3d 8c e2 96 bd
       0.059983786 0.07898375 0.10765635 -0.07367429
000030 0b 55 a3 bd 09 13 ad 3c c1 e9 46 bd 03 b6 e1 3c
       -0.07975205 0.02112724 -0.04856277 0.02755261
000040 a8 f3 e5 3c c6 af b5 3c 42 11 05 3d 75 08 1b bc
       0.028070286 0.022178542 0.03248716 -0.0094624655
000050 bc 4c 2a bd a3 98 b9 bc 0b 55 0b be 6f 56 e8 bd
       -0.041577086 -0.02265579 -0.1360666 -0.11344611
000060 37 00 d3 3c 54 09 a6 3d 82 55 83 3b bc 22 82 3c
       0.025756938 0.08107248 0.004007996 0.015885703
000070 a9 34 0a 3e 5b 0e 06 3e 9a 23 18 be f2 1e 39 bd
       0.13496651 0.13091414 -0.14857331 -0.045195527
000080 b0 05 3c 3d 10 7d fb bd 10 a0 0c 3e 58 36 e5 3d
       0.04590386 -0.12279713 0.13732934 0.11192006
000090 41 bc f2 bd 7a e9 8e bd c8 45 44 bd 5a 7e 67 3d
       -0.11852313 -0.06978126 -0.04791811 0.056516983
0000a0 12 a7 9f 3d de 78 0a 3d e0 40 4e be 5f be 98 bd
       0.07795538 0.033806674 -0.20141935 -0.074581854
0000b0 53 80 2e 3d e9 88 70 3d 8d 24 1b be a1 cf 2f bd
       0.04260285 0.058724318 -0.15150662 -0.04292262
0000c0 63 07 5f bd 4b cb 6d 3d 66 c5 18 bd af 9b 14 3e
       -0.054450404 0.058055203 -0.03729763 0.14512514
0000d0 c7 a4 4b bd 74 e3 28 3c 59 95 85 bc 07 4e cc bd
       -0.04971769 0.010308135 -0.016306566 -0.0997582
0000e0 16 e7 13 be 8d 20 30 3e 5c db 1d be a8 43 f0 bd
       -0.14443621 0.17199917 -0.1541571 -0.117316544
0000f0 20 c6 09 bc 78 c8 d5 3d 4b ce 2d bc 81 fc c3 3d
       -0.008409053 0.10438627 -0.010608266 0.09569646
000100 86 0e 56 bd 33 e3 6d bd 3f 3f c0 bc 2d 27 91 3b
       -0.052259944 -0.058078002 -0.023467658 0.004429719
000110 21 ac 60 bd 28 69 31 be f3 fc 48 bd 21 2a 6a bc
       -0.054851655 -0.1732527 -0.049069356 -0.014292271
000120 38 02 38 3e 7a 4e 36 be a8 75 73 3b dd 2d 0d be
       0.17969596 -0.17803374 0.0037148986 -0.13787027
000130 a2 a9 68 3d ce a9 ea ba f2 01 92 bd 6a 6f 53 bd
       0.0568024 -0.0017903389 -0.07129277 -0.051619925
000140 0a 9f 99 bd 9a 41 f3 3d 2d dd a9 3d ce 2d 81 bd
       -0.075010374 0.11877747 0.08294139 -0.06307565
000150 d0 04 82 bd 67 1b 88 bd 83 94 7d 3e a1 6b f3 bd
       -0.06348574 -0.066458516 0.24763684 -0.11885763
000160 98 eb 76 bd b1 6b 1f be b0 5f 32 3c a2 6a 14 3c
       -0.060283273 -0.15568425 0.0108870715 0.009058626
000170 bd 63 ac 3c dd 83 24 3d d0 22 38 3d 6d 08 74 3c
       0.021043653 0.040164817 0.044955075 0.014894587
000180 bd 96 77 bd db d3 a5 bd eb 90 31 bd ba c7 0d bd
       -0.06044649 -0.08097049 -0.043351095 -0.034614302
000190 a0 b3 9f bd 01 f6 e4 3c 8a a8 f4 3d 32 b0 53 3d
       -0.077979326 0.027949335 0.11946209 0.051681705
0001a0 ed ab ba 3d f3 7d 83 bd 53 7d 13 3e 3e 8b 15 3d
       0.091148235 -0.06420507 0.14403276 0.036509745
0001b0 89 0b 09 be df fc 88 bc 23 9d a9 bc d2 c3 3b be
       -0.13383307 -0.01672214 -0.020704811 -0.18336418
0001c0 de 2f 34 bb 80 20 98 3c 8a d6 0b bd b9 56 b5 39
       -0.0027494351 0.018570185 -0.034140147 0.00034587624
0001d0 9f 8f a2 3d ea 9f 32 be fe d3 3c 3e b9 85 be 3d
       0.0793755 -0.17443815 0.18440244 0.09302849
0001e0 c6 c5 13 3d c0 45 a0 3c e6 ae d8 3c 6f 73 1e bd
       0.036077283 0.01956451 0.026450586 -0.038684305
0001f0 e4 76 18 3e 38 28 c4 bd a0 54 cd bd 4e 9a fa bd
       0.14889103 -0.095779836 -0.100259066 -0.122364625
000200 fb 75 7d 3e b1 b4 98 3d 8e c2 ef 3d 47 96 d2 bd
       0.24752037 0.07456339 0.1170703 -0.102825694
000210 12 b1 22 3e 55 3e 29 3d 22 50 ce bc 48 01 03 3e
       0.1588786 0.04131921 -0.025184695 0.12793458
000220 9e 9b 51 bd d8 1e e1 3b c2 77 ac bd c9 c2 f9 3d
       -0.0511738 0.006870132 -0.084212795 0.121953554
000230 40 4b 5c be 32 1b 0a bd 98 ba e1 bd ea 9a be bd
       -0.2151308 -0.03371734 -0.11021918 -0.09306891
000240 4f 33 a6 3d bf eb 8d bd 2d 53 d8 bd eb 6a 66 3e
       0.08115255 -0.069297306 -0.105627395 0.22501723
000250 12 3b 3e 3e 4b 8b df bb 8b f3 4f 3d 2d 75 8b bc
       0.18577221 -0.006822025 0.05076937 -0.017023647
000260 6c b0 f0 3d 95 b7 db 3c 6b f8 bc 3d 1b f7 31 bc
       0.117524 0.026820937 0.092270695 -0.010862137
000270 83 ba bd bd 62 d2 9d bd 39 44 0a 3e 2c fe ec 3d
       -0.0926409 -0.07706143 0.13502587 0.11571917
000280 49 e6 34 3e df 99 c7 3c bd e4 72 3c 4a 70 ad 3d
       0.17665972 0.024365364 0.014825043 0.08468683
000290 7a 55 b3 3d 5d 34 bb 3d 23 52 44 bd dc c3 bc bd
       0.08756538 0.09140847 -0.047929894 -0.09217045
0002a0 ef 0a f2 3d 64 b2 31 3d 99 7a cb bc ad ab 11 3d
       0.11818492 0.043383017 -0.024838733 0.035564113
0002b0 e3 6f a3 bd 1c fa 3b 3d 87 5a c1 bd d3 7f b6 3d
       -0.07980325 0.04589282 -0.09441095 0.08911099
0002c0 b0 73 1f bd 09 0b 1b be 22 5e 7d bd f8 cf 88 3d
       -0.038928688 -0.15140928 -0.06185735 0.06680292
0002d0 6a 8a 77 bd 6e ce 43 3d b6 5c b9 3d fe 21 37 bd
       -0.060434736 0.04780429 0.09050886 -0.04471015
0002e0 e6 c4 af 3d ff 60 8e 3d 07 f7 d7 3d 23 88 a1 3d
       0.08582477 0.06952094 0.105451636 0.07887294
0002f0 17 1c 71 bd 53 75 c9 3d 31 8b 7e bd c1 28 2d 3d
       -0.05886468 0.09836831 -0.062144462 0.042275194
000300 dd f3 5c bd c8 bb 80 bc 8a 5f 8c bd df fd 1f 3e
       -0.053943504 -0.015714541 -0.0685416 0.15624188
000310 da 02 fc 3c 35 1a 96 bc 06 19 1e be ac 60 2c be
       0.030763078 -0.018323043 -0.15439233 -0.16833752
000320 5f 83 85 3e 7d ec 38 39 2b f2 0a bd 70 55 43 be
       0.2607679 0.00017635706 -0.033922356 -0.1907556
000330 b8 ac 07 3e cc 65 e0 3d 04 52 df 3d c4 94 41 3c
       0.1324948 0.10956916 0.10904315 0.011815254
000340 86 2f 1e be f4 be ac bb 29 a3 03 3d cf 84 ab bd
       -0.15447816 -0.005271787 0.032138024 -0.083749406
000350 ac c8 4a bd 34 28 87 bd 7f 94 19 bd 65 03 c3 bd
       -0.049507782 -0.06599465 -0.037495133 -0.09522132
000360 24 96 ac bd 66 46 0d 3e 77 45 98 bd 0b 79 8f 3d
       -0.084270746 0.13796386 -0.07435124 0.07005509
000370 71 61 75 3b cd 1e f2 3d b3 42 9d be 2d 6e 9e bc
       0.0037442113 0.11822281 -0.3071495 -0.019339645
000380 47 12 91 3d f7 dd 26 bd 4c b4 e4 bd ad d4 bd 3d
       0.07083564 -0.040739026 -0.111672014 0.0926908
000390 84 ca cb bc 71 3c 7a 3d ed af 3d 3c 11 b0 9d 3c
       -0.02487684 0.061092798 0.0115775885 0.019248994
0003a0 c4 80 bf 3d 77 13 0f be ca 6f 05 3d ce d1 c6 bc
       0.09350732 -0.13972269 0.032577313 -0.024269965
0003b0 1d 8a fc bc b3 df cd 3c da c6 9c 3c e6 74 2c be
       -0.030827576 0.025131082 0.019137789 -0.16841468
0003c0 ba bd a4 bd 88 1d a8 3d 90 26 25 3d e4 61 e0 3d
       -0.08044 0.08208758 0.04031998 0.10956171
0003d0 06 ec 5e 3d 4e 12 01 3d 44 0e 38 3d 1d 9c 64 bd
       0.05442431 0.031511597 0.04493548 -0.055812944
0003e0 3b 07 71 3c 4c 3b 6c 3d 53 5e 77 bd 37 42 49 bd
       0.0147111965 0.057673737 -0.06039269 -0.049135413
0003f0 db 4a 12 bc ea f3 9a bc 1c 7e 1c bd 55 cd 91 3d
       -0.00892898 -0.018915135 -0.038206205 0.07119242

weight_hh_l0 f4 [512, 128]
000000 23 3d 58 bd 53 db e1 bc 9f 59 cd 39 b6 e8 bb 3d
       -0.05279268 -0.027570402 0.0003916742 0.091752455
000010 52 cf ca 3c 1a 97 9a bc e3 0b 8c bc d1 f0 04 3e
       0.024757061 -0.018870879 -0.017095512 0.12982489
000020 36 8b b5 3d 25 36 b2 bb df f6 36 3d 9f 38 9d bd
       0.08864443 -0.0054385834 0.04466903 -0.07676815
000030 29 32 4d bd 0d 4b 0f be 31 f8 17 be cb 79 1a bd
       -0.050096665 -0.13993473 -0.14840771 -0.037713807
000040 91 fd e1 3d 1d bb 58 3d 20 e0 2d bd e8 f7 a9 3b
       0.11034692 0.05291282 -0.04245007 0.0051870234
000050 c5 27 6e 3d 4b b2 5a 3d cd a6 02 bd 28 af 8a bd
       0.058143396 0.05339269 -0.031897355 -0.0677169
000060 61 68 81 bc 21 33 bd bd c5 0e 1e 3d d8 40 72 bd
       -0.015796842 -0.09238268 0.038588304 -0.05914387
000070 f2 10 5d bb 22 d0 f6 bc dc fe d7 bd 65 dc db bc
       -0.0033732024 -0.030128542 -0.105466574 -0.02683849
000080 3a 01 67 3d 43 0d 23 bd a7 1f a4 bc dd da 7a bd
       0.056397654 -0.03980757 -0.020034624 -0.06124388
000090 97 3f 3e 3d 86 c4 a8 bc 68 54 13 3e 95 5f 07 3e
       0.046447363 -0.020601522 0.14387667 0.13220055
0000a0 ae 42 b7 bc 23 e7 c6 bd f2 3e 1f bd 29 1d 48 3e
       -0.022370663 -0.097120546 -0.03887839 0.19542374
0000b0 ec 07 ad bd 03 c3 7e bd 4c 01 91 3d 88 86 8c bc
       -0.084487766 -0.062197696 0.070803255 -0.017153993
0000c0 61 55 42 be ff 9a a9 3a 92 ae a1 3d e2 24 33 bc
       -0.18977882 0.0012939869 0.07894625 -0.0109340865
0000d0 f5 67 6e 3b 19 c6 47 bc c1 5d c0 3c f9 42 31 3c
       0.0036377881 -0.012193226 0.023482205 0.01081919
0000e0 bc 69 3a bd 22 a9 1b 3c 36 5d 89 3c 02 07 b2 3c
       -0.045510992 0.009500774 0.01676808 0.021731857
0000f0 45 21 a4 bd ea 21 4a bd a1 8d 85 bc 7f 40 fc 3c
       -0.08014158 -0.04934875 -0.016302885 0.030792473
000100 cf 7b f3 bc 3a 64 de bc 5b 84 13 3d ae 1a b3 bc
       -0.029722122 -0.027147401 0.036014896 -0.021863308
000110 d8 77 c0 3c 97 44 2d 3d e6 05 e8 3d de c3 0e 3c
       0.023494646 0.04230174 0.1132925 0.008713691
000120 d8 30 8b 3d 4a 55 91 bc 10 23 bb 3d 35 0d e7 bd
       0.067964256 -0.017740864 0.09137547 -0.11281816
000130 bb 0e a0 bd 4d e2 c7 bd 09 e6 81 bd 1c 8b bd 3d
       -0.078153096 -0.0975996 -0.06342704 0.09255049
000140 67 fc a2 bd 5e 95 80 3c 1b 10 16 3c 55 45 8d bd
       -0.07958298 0.015696224 0.009159113 -0.0689799
000150 8e f6 08 be 25 e5 a7 bd 3e d7 09 3c b5 76 89 3d
       -0.13375303 -0.08198003 0.008413134 0.06712095
000160 33 0d 80 3d af e3 c1 3c b1 d9 d1 bb eb de 67 bd
       0.062525176 0.023668138 -0.0064041247 -0.056609076
000170 8c 29 dd 3c 35 c3 12 bc bb b2 84 bc bf ab 2f 3d
       0.02699735 -0.008957674 -0.016198507 0.0428884
000180 16 95 bb 3c d5 93 05 3d 14 ef 90 3c 55 8e 69 3d
       0.022898238 0.032611687 0.017692126 0.057020504
000190 51 90 9b bc e8 97 e3 bc dd f2 83 bd bc 96 24 3e
       -0.018989714 -0.027782395 -0.06442807 0.16073126
0001a0 0f ac 3c 3d 08 30 ce 3d 7a dd c9 3d d0 56 89 3d
       0.046062525 0.10067755 0.098566964 0.06706011
0001b0 cf b1 12 3e e5 e5 6f 3d c9 fe 85 bd 2b 3b 6d bd
       0.14325641 0.058568854 -0.06542737 -0.057917755
0001c0 b0 7d be bc e7 dc 8c bd 04 76 04 bd d6 08 bb 3c
       -0.023253292 -0.06878071 -0.03233911 0.022831362
0001d0 55 3e 40 3d 10 f7 b5 3d c2 72 7b bd 72 88 84 3d
       0.046934444 0.08885014 -0.06138874 0.064713374
0001e0 f7 03 8a 3d de f3 03 3d 0f c6 01 3c 85 e5 13 3e
       0.067390375 0.03221499 0.007920756 0.14443024
0001f0 b4 8a 3d bc f9 22 3e 3b a0 dc 7d 3d de 16 19 bd
       -0.011568714 0.0029012545 0.061977983 -0.037375323
000200 d7 ef 75 3a 06 42 f6 3d 5b ef c8 3d 25 62 63 bd
       0.0009381747 0.12024312 0.098112784 -0.05551352
000210 6e 8f 6b 39 eb f7 f4 3d 73 c1 22 3e e2 e2 24 bd
       0.00022464778 0.11961349 0.15894108 -0.040255435
000220 a6 d2 26 3e b1 9e 38 be 26 74 a2 3d eb 1c fc bd
       0.16291294 -0.18029286 0.0793231 -0.12310203
000230 3a 0d 35 bd d6 a8 cc bc 6f 1d 8f 3c 3b bb 7c bd
       -0.044202067 -0.024982851 0.01747009 -0.061701994
000240 66 a1 34 3c 05 0a f3 3d 58 91 cc 3d c2 fd 5e 3d
       0.0110248085 0.118671454 0.099886596 0.05444122
000250 e7 fe 0f 3e c7 eb 9b bd 2d af 5e bd 06 6e 1b bd
       0.14062081 -0.0761333 -0.05436628 -0.037946723
000260 81 f5 05 be aa 02 94 bd 65 6a e2 bd 03 9c 42 bb
       -0.13081934 -0.07227071 -0.110554494 -0.002969504
000270 ac 6a c4 3d 0a ea 1a bc 8b b8 97 bd c9 1a 26 3d
       0.095906585 -0.009455213 -0.07408246 0.040552888
000280 1c 4d 0b be 6b 3b 1f 3d de d9 d1 3c c4 cb 06 3d
       -0.13603634 0.038875025 0.025616582 0.03290917
000290 54 c4 21 3d f8 80 32 bc 3d 52 96 bd 9f 1c cf bc
       0.039493874 -0.010895006 -0.073399045 -0.025282202
0002a0 49 00 ef 3d ea 3d 9a bc 0b cf 8a 3d d8 ab 01 3e
       0.11669976 -0.018828351 0.067777716 0.1266321
0002b0 22 3b 3b be 28 e3 2f bc 35 75 18 3e 94 af 35 be
       -0.18284276 -0.010735311 0.14888461 -0.17742759
0002c0 78 8f 0e bd 00 93 4d 3d 0d 66 e5 3d e4 e4 18 3e
       -0.03480479 0.05018902 0.11201105 0.14931065
0002d0 64 db 7c bb 59 6b ac bc f5 9d 0a 3e 50 20 42 3d
       -0.0038582915 -0.021047281 0.13536818 0.047394097
0002e0 f0 7c a4 3d cc 0b 7a bd 8e b5 26 3d 3b 70 d6 bd
       0.080316424 -0.061046407 0.040700488 -0.10470625
0002f0 11 3f da 3c f5 65 31 bd 5c ce 8f bd 81 65 2a 3e
       0.0266414 -0.043310124 -0.07021782 0.16640283
000300 71 7d 52 bd c5 47 fc 3d ad 72 b5 3c 71 34 04 3b
       -0.05138916 0.123183765 0.022149408 0.002017286
000310 f0 bd 3a 3d b2 37 31 bc 55 bd 9f 3d 37 51 f6 bd
       0.045591295 -0.010816501 0.07799784 -0.12027209
000320 c8 f8 6f 3d 06 f7 26 be 87 e5 40 3d 70 02 16 bd
       0.058586866 -0.1630517 0.047093894 -0.03662342
000330 57 3f 3c bd 11 0a 76 bd 0a 0f e4 bc 12 36 d6 3d
       -0.045958843 -0.060068194 -0.027839202 0.10459532
000340 c5 17 c9 3b e8 5f 8e 3d 91 b2 99 bd 9b fc 56 3c
       0.0061368668 0.069518864 -0.07504762 0.013121749
000350 2c cc 1a 3d 94 35 19 bd 5e 48 58 3d 08 7b 26 3e
       0.03779237 -0.03740461 0.05280339 0.1625787
000360 c5 c4 83 3d 14 17 ca 3c 91 2b 19 3e ab 4e 13 bd
       0.06434015 0.024669208 0.14958026 -0.035963695
000370 30 03 44 3d 57 18 15 bc 14 59 0b be e9 9a 13 3d
       0.047854602 -0.009100041 -0.136082 0.036036406
000380 32 82 37 3d b4 c5 ba 3d 26 6a 27 bd 87 66 c8 bd
       0.0448019 0.0911974 -0.040872715 -0.097851805
000390 01 a5 ea 3d 06 f7 51 3e 64 52 9c bd a9 19 ae ba
       0.11457253 0.20504388 -0.07632902 -0.0013282794
0003a0 c9 d9 7f bd 3d 3e 13 3e 9b db fb 3d 65 a7 12 3d
       -0.062463555 0.14379211 0.12297746 0.03580417
0003b0 bc 1e d2 3d 7e e2 09 3d 66 85 54 3d a8 7b 0a bd
       0.10259768 0.033663265 0.05188503 -0.033809334
0003c0 0f 95 9a 3d 5d 70 76 bd 87 9c 9c bd 59 74 3b bd
       0.07547962 -0.06016575 -0.07647043 -0.045765255
0003d0 fa e7 5d bc 5b 05 1d 3e 8f 04 80 3d a2 e9 bd bd
       -0.013544077 0.15334074 0.062508695 -0.092730775
0003e0 f7 01 09 3e cd 21 f7 bd 88 56 46 bc 61 8f fd 3d
       0.13379656 -0.12066994 -0.012105592 0.12380863
0003f0 af 32 0c 3e ae 97 5a 3d ae 8c d1 3d eb 25 43 bd
       0.1369121 0.05336731 0.10231911 -0.047643583

bias_ih_l0 f4 [512]
000000 22 c1 bd 3c 6e a7 9c 3d 00 b9 6c 3d 57 f0 11 3e
       0.023163382 0.07649122 0.057793617 0.14251839
000010 5a 73 53 3d d0 95 08 3e 8a ce f2 3d ca 5d 80 3d
       0.05162368 0.13338399 0.118558004 0.06267889
000020 66 21 87 3d 39 4c 90 3d 04 78 07 3e f0 f4 3c 3d
       0.06598167 0.07045788 0.13229376 0.046132028
000030 93 b5 a5 3d 01 09 10 3e 19 3f 08 3e bb a2 b8 bc
       0.08091273 0.14065935 0.1330532 -0.022538533
000040 ac 2c ee 3d a3 a9 f8 3d d6 bb d4 3d 4c d5 04 3e
       0.11629614 0.12141731 0.10387389 0.12971991
000050 d2 ad 06 3d e9 fc b1 3d f8 97 8e 3d 68 76 e4 3d
       0.03288061 0.08690817 0.069625795 0.11155397
000060 06 f3 14 3e 48 6e 27 3e 1d e3 e0 3d 81 b4 84 3d
       0.14545831 0.16350663 0.109808184 0.06479741
000070 d0 5d e1 3d 9f d7 fe 3d 84 40 30 3d 90 fa 02 bd
       0.110042214 0.1244347 0.043030277 -0.031977236
000080 8e 04 bf 3d 06 06 91 3c 7b 56 01 3e d5 aa 54 3d
       0.093270406 0.017703068 0.12630646 0.05192073
000090 a7 ce 0f 3e 56 f5 f6 3d be 87 13 3d ef c1 6a 3c
       0.14043675 0.12058513 0.036018126 0.014328464
0000a0 50 74 cb 3d 56 8b ce bb 4c 37 9d bc e4 12 2e 3d
       0.09934294 -0.006303231 -0.019191407 0.042498484
0000b0 77 a8 f6 3d 8f 37 e6 3d 1f b3 dd 3d 7e 0b 06 bd
       0.12043851 0.11241066 0.1082518 -0.032725804
0000c0 aa 2e e6 3d 96 1c f0 3d b6 f5 fb 3c 53 d4 f8 3d
       0.11239369 0.11724202 0.030756813 0.12149873
0000d0 c4 48 e0 3c 14 35 0a 3e a3 11 30 3d ea 6e 7f 3d
       0.027378447 0.1349681 0.04298557 0.062361635
0000e0 7f 4e 91 3d 81 9c 91 3d b5 31 18 3e fd 89 f3 3d
       0.0709505 0.07109929 0.14862712 0.118915536
0000f0 4d 0a 11 bc 0c e3 8d 3d 31 f6 cc 3d f2 b1 d1 3d
       -0.008852554 0.069280714 0.10007895 0.102390185
000100 af 3b 9a 3d 03 c7 9d bb d1 b6 41 3c a4 43 cd 3d
       0.07530915 -0.004814984 0.011823372 0.10022667
000110 6d 89 15 3e ff a5 1a 3e 6d ca cb 3b cc 58 6d 3d
       0.14603205 0.15102385 0.0062191994 0.05794601
000120 f7 3f 96 3d dd 87 c0 3d f8 11 10 3e f5 bc 91 3d
       0.07336419 0.09400914 0.14069355 0.07116119
000130 01 26 ab 3d c5 3f 75 3d 6d 94 ce 3d 99 aa 38 3d
       0.08356858 0.05987527 0.10086904 0.04508457
000140 3e 06 10 3e 95 fd 25 3e 86 e9 5f 3d e2 a0 b1 3d
       0.14064881 0.16210015 0.054666065 0.08673264
000150 b6 59 d2 3d c5 0f 91 3c 06 42 96 3c 2b 3e 52 39
       0.10271017 0.017707715 0.01834203 0.0002005032
000160 78 f4 4c bc 9b 2d 59 bc f6 b0 96 3d 39 b0 0c 3e
       -0.012509458 -0.013255502 0.07357971 0.13739099
000170 2f fe 14 3e 6a 2e bd 3d c8 5a 40 3d 25 8c c0 3a
       0.14550088 0.092373684 0.046961576 0.0014690204
000180 90 f2 bb 3c a4 3b 18 3e 5d c5 03 bd 86 ec c2 3d
       0.022942811 0.14866501 -0.032170642 0.095177695
000190 bf bf 01 3e 48 29 d4 3d 33 e8 e1 3d 6b 9c b7 3d
       0.12670802 0.10359436 0.110306166 0.08965381
0001a0 0d 77 44 3c ff 7f 46 3c cf ba 06 3e 2c 9f d6 bc
       0.011991275 0.012115478 0.131572 -0.026198946
0001b0 22 57 19 3e d9 ce 0d 3c 0d 69 ea 3d 07 ef 02 b9
       0.14974645 0.008655273 0.11445818 -0.00012486811
0001c0 be 33 01 3e 88 6b 2f 3e 56 93 b0 3d ef e5 0a 3e
       0.12617394 0.17130864 0.08621852 0.13564275
0001d0 9d 38 8e 3d 7d 19 97 3b ea 5a 0a 3e 96 80 e4 3d
       0.06944392 0.0046111927 0.13511243 0.11157338
0001e0 26 ab 98 3d 11 d2 a1 bb 23 a0 ea 3d 96 dc 1e 3d
       0.07454519 -0.004938372 0.11456325 0.038784586
0001f0 6e 52 35 3d 1d 0d 05 3b e2 3f 98 3d 06 d1 cd 3d
       0.044268064 0.0020302006 0.0743406 0.10049634
000200 4c 94 f4 3d 60 ce 5b 3d 44 4c 15 bd b8 96 16 bd
       0.11942348 0.05366361 -0.036449686 -0.03676483
000210 ad d2 64 3b 88 c7 ed 3d 1a e1 a9 bd 04 ee fd ba
       0.0034915612 0.11610323 -0.08294888 -0.0019373302
000220 9c 21 c1 3c c0 3e aa 3b ea 4b 05 bd cc d2 9c 3d
       0.023575597 0.0051954687 -0.0325431 0.07657394
000230 71 0c 45 bc 72 e1 01 3e e4 3b 96 3d 4d f2 da 3d
       -0.012026892 0.12683657 0.07335642 0.106907465
000240 a8 49 26 3d 37 db 09 bb e6 73 62 bd 1c 57 28 bd
       0.040597588 -0.0021035203 -0.05528631 -0.0410987
000250 26 fb b9 3d d9 a1 ef 3c 4c 52 4e 3d fc 65 ca 3b
       0.09081106 0.02925198 0.050371453 0.0061767083
000260 0a 95 8e 3d 53 63 14 bb e8 5b e9 bd ea 69 76 bd
       0.06962021 -0.002264221 -0.11394483 -0.0601596
000270 4e a4 d0 3d 0a 5c d8 bc 01 ae 18 be f5 63 94 3c
       0.10187589 -0.026411075 -0.14910127 0.01811407
000280 92 42 99 3d 04 55 5d bb 2a 5e aa bc 70 e4 7f 3d
       0.074834004 -0.0033772597 -0.020796854 0.062473714
000290 0c 79 bc bb 81 b2 2d bc 77 55 26 bc 89 97 d5 bc
       -0.0057517346 -0.010601641 -0.010152212 -0.026073234
0002a0 4b 6f bf bd 9d 98 7c 3d 96 7d 0f 3d 92 7e 00 bd
       -0.09347399 0.06166898 0.035031877 -0.031370707
0002b0 c5 63 d2 3d 0c 0d a8 bb 25 3b 98 3c 25 7b 4f 3c
       0.10272936 -0.0051285084 0.01858289 0.012663637
0002c0 cf d9 25 bd b9 99 85 3c f6 be 12 3d 62 2b e3 3a
       -0.04049092 0.016308652 0.035826646 0.0017331655
0002d0 c0 0f 97 3c 61 9a 80 3d d7 33 26 bd f1 c5 07 3d
       0.018440127 0.062794454 -0.040576782 0.033147756
0002e0 6e de 56 3d 16 0a a2 bc fd 07 9b 3b 1d bd c5 3d
       0.05245822 -0.0197802 0.004731177 0.09655211
0002f0 7a 10 09 3d 91 be 7d 3c 93 fe 6c bd 1b 05 a7 3d
       0.03346298 0.015487329 -0.05785997 0.08155271
000300 ba 47 40 3d 47 28 e8 3d 42 69 b7 3c 05 45 d0 bd
       0.046943404 0.11335807 0.022389058 -0.101694144
000310 12 41 9b 3d 26 85 fe bc d8 44 0f 3d 82 3c 2f 3d
       0.075807706 -0.03106935 0.034977764 0.042782314
000320 f3 e6 a1 bb 03 47 d7 bc 31 10 8b 3d 43 1d 62 bc
       -0.0049408614 -0.026278978 0.06790198 -0.013800922
000330 fc 32 8a bd 60 c1 0c 3c e0 17 09 3d ba 1d 83 bb
       -0.06748006 0.008591026 0.033470035 -0.0040013464
000340 50 b8 62 3d 52 06 bf bc f9 f5 fe 3c 53 19 fc 3c
       0.055351555 -0.023318443 0.031123148 0.030773794
000350 9c 52 67 bc e7 2d a9 3c 93 1a ee 3d f9 9a af bd
       -0.014118817 0.02065177 0.116261624 -0.085744806
000360 be 36 0f 3d e7 70 f4 3b ce 40 ee 3d bf af 80 bd
       0.034964316 0.007459748 0.11633454 -0.06283521
000370 1a 24 5d 3c fc c7 13 bd 47 ef d1 bb 04 16 0d 3d
       0.013497377 -0.03607939 -0.006406698 0.034444824
000380 a1 71 b5 bb 53 a9 02 3e 28 4e c9 3a 6b 81 a0 bd
       -0.0055372273 0.12759905 0.0015358375 -0.078371845
000390 4e 0c 1a 3d e6 d8 bc bc 7e d6 99 3d e6 9d 97 3d
       0.03760939 -0.023052644 0.07511614 0.074031636
0003a0 73 64 fe 3c e3 14 83 3c e1 da c9 3d 90 a3 2c bd
       0.031053757 0.01600117 0.09856201 -0.042148173
0003b0 fa 11 d7 bc 8e 9a fe 3d 58 04 e0 bd 73 59 8c 3d
       -0.02625369 0.12431823 -0.109383285 0.068529986
0003c0 80 b1 4a bd 48 50 b2 bd fd 11 bf 3d 8f 71 0b 3c
       -0.049485683 -0.08706719 0.09329603 0.008510961
0003d0 fe 95 be bd 6e 3b 45 3d 95 e0 f8 3d 7a 72 3e bd
       -0.093059525 0.04815238 0.121522106 -0.046495892
0003e0 92 00 34 3c 29 87 cd 3c b5 08 d7 bd 6b fd 31 bd
       0.010986464 0.025088863 -0.104997076 -0.04345457
0003f0 d6 51 e0 bd 01 fc d4 bc 11 99 59 3d 88 41 10 3d
       -0.10953109 -0.025999071 0.05312449 0.035218745

bias_hh_l0 f4 [512]
000000 ef 73 d7 3d ba eb 26 3c ed 68 91 3d db 17 c1 3d
       0.105201595 0.0101880375 0.07100091 0.09428378
000010 93 cf 02 3e d6 cd 04 3d 72 2f ce 3d 95 d8 40 3e
       0.12774496 0.032422863 0.10067643 0.1883262
000020 0b f5 41 3c b3 bb e5 bb f9 3f eb 3d 13 51 41 bd
       0.011838208 -0.007010901 0.11486811 -0.04719646
000030 08 ad 6e 3d e6 e1 06 3e 31 ad c8 3d 5d dd 8a 39
       0.058270484 0.13172111 0.09798659 0.0002648634
000040 d5 88 b8 3c a6 24 09 3d ea bb 4f 3d ef 1d 13 3e
       0.022526184 0.033482216 0.05071632 0.14366888
000050 95 df ba 3d 62 be 03 3e 78 89 15 3e 19 1a 21 3e
       0.09124676 0.12865594 0.14603221 0.15732612
000060 5d 6f 38 3d f6 14 4f 3e 12 f4 13 3d 1d db 0d 3e
       0.04502808 0.2022284 0.036121435 0.13853116
000070 56 e8 a4 bb 50 6f 41 3d 9e 54 28 3d fe 89 e7 3c
       -0.0050325794 0.047225296 0.041096322 0.028264042
000080 08 df 01 bc a5 98 e8 3d 5f 6e 59 3d 02 cd e3 3d
       -0.00792671 0.1135724 0.053083774 0.111230865
000090 ee 25 45 3d 3d 48 5b 3c 8d d1 0f 3e cc 8f 38 3e
       0.048131876 0.013383922 0.14044781 0.18023604
0000a0 06 85 2e 3e 77 b2 fc 3d 4d 90 85 bc 8d 7a 14 3e
       0.17042932 0.12338727 -0.01630416 0.14499874
0000b0 81 16 ca 3d 4a 9e 8e bc 01 08 b6 3d 3c 5f 07 bd
       0.098675735 -0.017409462 0.088882454 -0.033049807
0000c0 01 82 29 3e 6a ef c2 3c 32 f1 01 bd 39 e2 a8 3c
       0.16553499 0.023795802 -0.031724162 0.020615684
0000d0 32 81 33 bd ee 9b 03 bd 41 6e fe 3d 39 51 19 3e
       -0.043824382 -0.032131128 0.12423373 0.1497239
0000e0 34 ad 51 bc a9 00 29 bc 54 3e 1a 3e 74 dd 23 3d
       -0.0127976425 -0.010315099 0.15062839 0.040006116
0000f0 07 0d 09 3c 3f 41 ae 3d c2 4c dc 3c 07 cd d5 3c
       0.008364922 0.085085385 0.02689207 0.026098741
000100 56 19 bf 3d 43 e4 2a 3d ed 2f 00 3e 12 e5 38 3e
       0.09331004 0.041721594 0.12518282 0.18056133
000110 92 42 14 3e 26 86 13 3e 66 c0 2c 3d 94 17 8c 3c
       0.1447852 0.14406642 0.042175673 0.017101087
000120 54 d8 58 bd 7a 73 8e 3d 0f 0a 2d 3e dc 48 7c 3b
       -0.05294068 0.06955619 0.16898368 0.0038495576
000130 ef 16 f0 3d 8d 4d 17 3e 90 a1 bc 3d 9d e9 a4 3d
       0.11723124 0.14775677 0.09210503 0.08052371
000140 58 dc 00 3d 72 c6 03 3e 5b 99 d4 3d 5f 3e 4b 3d
       0.031460136 0.1286867 0.10380813 0.04962003
000150 71 23 07 3e b6 04 d3 3d c2 d4 93 3d 80 54 a4 3d
       0.13197114 0.10303633 0.07218315 0.080239296
000160 64 12 0f bd 35 e9 6d 3d 54 c3 66 3c 4b 0f 0c 3e
       -0.034929648 0.05808373 0.014084656 0.13677709
000170 4a 38 31 3d f0 48 13 3e 9f 8a d8 3d 47 ea 00 3e
       0.043266572 0.14383292 0.10573315 0.1258937
000180 39 76 22 3e 10 37 1b 3e 99 6a c3 ba a0 7e 8b bb
       0.15865411 0.15157723 -0.0014909088 -0.0042570382
000190 6e 67 73 bc 58 52 c8 3c dc 80 1b 3d 8d c2 a6 3d
       -0.0148562025 0.024453327 0.037964687 0.08142576
0001a0 02 3f 87 3d 30 27 72 3d 39 99 b0 3d 39 92 05 3e
       0.06603815 0.059119403 0.08622975 0.13044061
0001b0 59 e2 a4 3d 6a cd 28 3d 82 bf dc 3d 90 1a 08 3e
       0.08050985 0.041211523 0.10778715 0.13291383
0001c0 91 0c 93 3d 07 2b 5f 3d fd 0b c0 3d b3 57 22 3e
       0.07180131 0.054484393 0.093772866 0.15853767
0001d0 59 ea 01 3e a4 b0 d7 3d d6 c4 a0 bc 5c ae 79 bb
       0.12687053 0.105317384 -0.019625109 -0.003809831
0001e0 cc e0 35 bd ef f4 b9 bc 12 81 09 bc 15 35 81 3d
       -0.044403836 -0.022699801 -0.008392589 0.06308953
0001f0 e2 26 1b 3d 1f d2 0d bb 03 71 12 3d 11 60 2b 3d
       0.03787888 -0.0021640135 0.035752308 0.041839663
000200 da 59 d8 bb 93 bc b5 bc 41 91 a4 bd 68 74 b8 bc
       -0.006602508 -0.022184646 -0.080355175 -0.022516444
000210 a1 1e 87 3d 2e 05 68 3d 7a 99 3e bd 29 c0 8f bd
       0.06597639 0.056645565 -0.046533085 -0.070190735
000220 07 b6 a1 3c 00 02 83 3d 5d e4 e7 3d 0e 19 94 3d
       0.019740118 0.06396866 0.11322854 0.07231341
000230 82 0d 96 bd 94 40 93 3d 99 3e b0 bc f9 e5 67 ba
       -0.07326795 0.07190052 -0.021514224 -0.0008846219
000240 c6 f3 eb 3d f2 b7 a2 bd 57 ce 5a bc c0 5d c1 bc
       0.115211055 -0.07945241 -0.013354859 -0.023604274
000250 92 30 f5 3c ce 0c c5 bc b2 4e 3e 3d 3a bc cd bd
       0.029930387 -0.024053957 0.04646177 -0.10045667
000260 46 62 2a 3d f9 39 a5 bd 61 e0 63 bd 2f 5b 2d 3c
       0.041597627 -0.08067698 -0.055633906 0.010580822
000270 8b 0a 6f 3a d5 0e 64 3d c8 3b 36 be 94 4b 07 3c
       0.00091186975 0.055678207 -0.17796242 0.008257765
000280 4a 6d 48 3d 29 da 3c 3d 99 c0 4a bc 23 8f cc 3d
       0.04893235 0.04610649 -0.01237502 0.09988239
000290 43 39 21 3c 7b 1e 32 3a 18 75 2f be a2 a0 4c 3d
       0.009840312 0.0006794703 -0.17134511 0.04995788
0002a0 f5 94 24 bd 95 f6 81 bd 45 f1 0c 3e 88 da d4 3c
       -0.04018112 -0.0634586 0.13763912 0.02598311
0002b0 68 d6 aa bb ad d6 2c bc ef 7a 8c bd 59 72 d3 3d
       -0.0052135475 -0.01054923 -0.06859385 0.103245445
0002c0 ba 52 55 bd 97 fa b8 3d 62 50 0a bd 1d 85 14 3d
       -0.052080847 0.09032171 -0.033768065 0.03625976
0002d0 fd 61 93 bb 1e 2a 38 3d 77 0c b9 3d 3c dd bc bd
       -0.004497765 0.04496204 0.090355806 -0.092218846
0002e0 7f 94 c3 3c d1 94 75 3c 15 7c bb 3d 2b ce b8 3c
       0.02387452 0.014989094 0.09154526 0.022559246
0002f0 97 08 99 3d 48 e1 d4 bd 01 da dd 3c 0c d5 40 bc
       0.074723415 -0.103945315 0.027081491 -0.011769544
000300 b8 a1 8a 3d 62 1e 62 3d d9 06 55 bd b4 7a e0 bc
       0.06769127 0.055204757 -0.052008484 -0.02740226
000310 ea 52 7d 3d 70 af a3 3d 5e 0d b7 3d 97 c1 d4 ba
       0.06184665 0.079924464 0.089380965 -0.0016232011
000320 2e be 5c 3d 03 0c a3 3d 8c 01 9a bd 0a 5c c6 3d
       0.053892307 0.079612754 -0.07519826 0.09685524
000330 1c eb 53 bd 3d b1 8b bd c7 f8 95 bd 91 73 08 3e
       -0.05173789 -0.06820915 -0.07322841 0.13325335
000340 31 7d e9 3d 97 5a df 3c 91 81 09 bd 99 6f f7 3c
       0.114008315 0.027264876 -0.03357083 0.030204581
000350 05 ff 1d 3d da d5 35 bd b7 4b da 3d 2f a8 55 bd
       0.038573284 -0.044393398 0.10658973 -0.052162345
000360 c8 f9 73 3b 60 30 1e 3d 0f 4d 53 bd fb 49 8d bd
       0.0037227739 0.038620353 -0.05158716 -0.06898876
000370 fa 1b 9c bc af 66 e8 bc d4 ed 10 bd 98 bb d9 bb
       -0.019056309 -0.028369276 -0.03538306 -0.0066446774
000380 71 15 1e 3d 49 95 c7 3c 21 b6 8f bd 81 29 1a bd
       0.038594667 0.024363177 -0.0701716 -0.037637237
000390 96 da c0 3d 8c 0a 8f 3d 4d c5 0e bd ec ab 98 bd
       0.09416692 0.069844335 -0.03485613 -0.074546665
0003a0 10 b7 88 bd fe 66 e7 3b 2a 11 d7 3d 59 44 1e 3d
       -0.066755414 0.007061838 0.10501321 0.0386394
0003b0 db d8 e7 ba fe cb 36 bd 4d 90 56 bd 69 25 51 3c
       -0.0017688529 -0.044628136 -0.05238371 0.012765267
0003c0 01 8a 15 bd c9 1e c6 bd b4 c0 8c 3d 92 58 71 3d
       -0.036508564 -0.096738406 0.06872693 0.058922358
0003d0 c5 a1 04 bd a6 35 ac 3c 01 9a 85 3d 94 ae 12 3d
       -0.032380838 0.021021675 0.065235145 0.035811022
0003e0 ba 99 4d bc 35 f7 70 bc bb 03 7b bc bb bd 1d 3b
       -0.012548858 -0.014707376 -0.015320714 0.0024069387
0003f0 52 9d c8 bd e9 4a 40 bd 5e 5f 1c 3c dd 0d 97 bd
       -0.097956315 -0.04694644 0.009544222 -0.07375691

weight f4 [29, 128]
000000 4b cf b7 bd 80 e1 dc 3d c5 78 db 3c 85 c2 e6 bd
       -0.08975085 0.10785198 0.026790986 -0.112675704
000010 6a 97 05 bd 46 21 6b 3d b2 37 0c 3d 35 76 90 bd
       -0.032615103 0.05740478 0.034232803 -0.07053796
000020 d7 54 8d 3d e5 16 6b 3c 9e dd 5f 3d d3 5a bf bd
       0.069009475 0.01434872 0.05465471 -0.09343495
000030 42 35 a8 3d 67 68 e7 bc 83 33 30 3d fc 9d f2 bc
       0.08213283 -0.028248025 0.043017875 -0.029616348
000040 d3 a5 7b 3d bd 30 0b 3e 42 47 8a 3c ea 6e 90 3d
       0.06143744 0.13592811 0.016879681 0.07052405
000050 12 02 ae 3d ba 2a a9 3d 8f 2f 67 bd 34 fa 3b 3d
       0.08496489 0.082601026 -0.05644184 0.04589291
000060 28 4f ae bc b1 0a 18 be d1 8a d8 bd ea a8 84 bd
       -0.021277979 -0.14847828 -0.10573352 -0.0647753
000070 47 86 93 3c 0d 88 41 3d 77 89 e7 bd 06 04 39 bc
       0.018008364 0.04724889 -0.11305516 -0.011292463
000080 75 0e 67 bd 2b 89 8c 3c 4e ed 0b 3a c5 b6 89 3d
       -0.05641027 0.01715525 0.00053377904 0.06724314
000090 79 4e f7 3d 20 50 9e bc 45 9d 1a be 46 9a ca 3d
       0.12075514 -0.019325316 -0.15099056 0.098927066
0000a0 fb b7 0f 3e d8 75 d2 bc 30 55 85 3d fa ca 1c 3e
       0.14035027 -0.025690958 0.06510389 0.15311804
0000b0 06 33 ba bd 62 74 26 bd eb 89 ad 3d 22 4d d1 bd
       -0.09091763 -0.040638335 0.084735714 -0.1021979
0000c0 61 bc a9 bd 80 0b a9 3d 5e c7 7c 3d 2f c2 f2 3d
       -0.082878835 0.082541466 0.06171357 0.11853444
0000d0 bb c7 c3 3d e4 6d a9 bd 54 5f f5 3d b4 bf 00 3e
       0.0955958 -0.08272913 0.11981073 0.12573129
0000e0 8b 53 09 3c 82 85 83 bd ba 97 bd 3c 5b e8 87 bd
       0.008381735 -0.06421949 0.023143638 -0.06636115
0000f0 6d 07 1d bd 96 dc d6 bd 18 fe 8d bc e9 1c b4 3d
       -0.03833716 -0.10491292 -0.017333075 0.08794577
000100 d0 5f 3b be ed 8f 94 3d 1a 64 94 bd 9f fb 42 3e
       -0.18298268 0.07254014 -0.07245655 0.19041298
000110 81 ea 3e bb 59 5f 2e 3e fa 8f 24 3e 4f cb 00 be
       -0.0029131474 0.1702856 0.16070548 -0.12577556
000120 e0 3d b9 3c 5d cb 5e bd dd 90 c5 bd 07 db 49 bd
       0.022612512 -0.05439316 -0.09646771 -0.049281146
000130 58 09 aa bc 82 d1 e4 bd c7 ce 37 be b4 3c d5 3d
       -0.020756409 -0.11172773 -0.17949973 0.10411969
000140 ef 38 d3 bd 62 f0 35 3d a9 19 05 bd 85 5d ee bd
       -0.103135936 0.0444187 -0.032495175 -0.11638931
000150 e7 fb 20 bc d5 b4 ef bd 1d e2 b2 3d 6a 89 4a 3e
       -0.009825683 -0.11704413 0.08734534 0.19778982
000160 1e 49 c5 3d 76 82 ac 3d ff cd 04 3e cf 2e 03 3e
       0.096330866 0.08423321 0.12969206 0.12810825
000170 be 7f 6b 3d 2f b5 0b be fe 65 2b bd 3d d8 a3 3d
       0.05749487 -0.13643335 -0.041845314 0.080002286
000180 14 a9 35 3d 47 8d ba 3d cb e2 18 be 33 8b a4 bd
       0.0443507 0.09108978 -0.14930265 -0.08034363
000190 92 b0 99 3d 34 43 dc 3d 92 1f ba bd 9b d7 92 3c
       0.07504381 0.107550055 -0.09088053 0.017925074
0001a0 e0 5c e7 3d e6 90 76 3d a1 87 d7 3d 67 5d df 3d
       0.112970114 0.06019678 0.10523916 0.10906487
0001b0 3e 6f 06 3e 46 24 a9 3d 25 7b e7 3d de 61 bc bd
       0.13128373 0.08258872 0.11302785 -0.09198354
0001c0 d1 e4 f1 3d 87 98 48 3d 59 80 98 bd 82 d8 ee 3c
       0.118112214 0.048973586 -0.074463554 0.029155973
0001d0 fa 3b 22 3e f9 29 3f 3e 50 db 96 bd 6d c6 da bb
       0.15843192 0.18668355 -0.07366049 -0.006676486
0001e0 c8 0a 12 3e a6 30 60 bd 17 b8 15 3e 0d 97 b8 3d
       0.14261925 -0.054733895 0.14621006 0.09013186
0001f0 0f 18 82 3b 05 a2 78 bd 83 b3 7a bc 2b 0a 0b be
       0.003970153 -0.06070139 -0.015301588 -0.13578098
000200 b8 44 a5 3d 49 d2 e1 3d d8 3e 47 be 41 32 43 3d
       0.08069748 0.11026437 -0.19457567 0.047655348
000210 7d ae 9e 3d 58 c4 c1 bd 17 a8 08 bd 67 a7 28 3d
       0.07748125 -0.09461278 -0.033363428 0.041175272
000220 6f 4f e3 bd 5c f0 e7 3c 28 5d 8b 3c 6e d3 78 3d
       -0.11099135 0.028312854 0.017012194 0.06074851
000230 a8 3b c6 bd cc da 1a bd 92 81 9d bd 96 90 e4 3d
       -0.09679347 -0.037806317 -0.07690729 0.1116039
000240 82 0e a5 3d b8 31 c1 bd 3d b9 a7 3c cd 7a 2e bd
       0.08059408 -0.09433311 0.02047407 -0.04259758
000250 30 a0 d2 bd 2d a0 c2 bb dd 04 66 bd ee d1 59 bd
       -0.102844596 -0.0059395046 -0.05615698 -0.05317872
000260 0e 0f f6 3c 84 9e ac 3d c6 25 38 3d 23 2c 79 3e
       0.030036476 0.08428672 0.0449579 0.24333243
000270 fb 0b bf bd ee d9 ce 3c 7b a7 92 bc 12 aa 5f bd
       -0.09328457 0.025250401 -0.017902127 -0.05460555
000280 7e 1e 40 3e 64 30 90 3c 41 78 88 bc c1 12 98 bc
       0.18761632 0.0176012 -0.016658904 -0.01856363
000290 d7 fa a7 bc 14 59 42 bb bb 36 23 3e 2c d7 1d 3c
       -0.020505352 -0.0029655145 0.15938847 0.0096338205
0002a0 42 9d 26 bd 83 19 27 bd 7b 1b 08 3d ba a8 4d 3d
       -0.040677316 -0.040795814 0.033229332 0.05020974
0002b0 3a 5c 93 3d 2d 7d c9 3d 47 57 f4 3c b3 c3 31 3d
       0.07195325 0.098383285 0.029826773 0.043399524
0002c0 1f d0 2e bd e9 7d d4 bd 45 71 a3 bd 2d e7 2f 3d
       -0.04267895 -0.10375578 -0.07980589 0.042945076
0002d0 a7 65 e4 bd 60 91 13 3e 5e bb cd bd d5 c4 be bd
       -0.11152201 0.14410925 -0.10045503 -0.093148865
0002e0 4f 43 06 be 05 a6 ab 3d ff 42 39 bc 6d fe 6d bd
       -0.13111614 0.08381275 -0.011307477 -0.058103967
0002f0 d5 78 e1 3d d6 33 c6 3d b5 c4 91 bd 18 7d 7c 3b
       0.11009375 0.09677856 -0.07117597 0.003852671
000300 3d 28 e1 3c df be d3 bc 32 13 8f 3d ba d8 1e be
       0.027485007 -0.02584785 0.06986083 -0.15512362
000310 93 ac fa bb c9 b1 98 3a 4e c5 16 bd 73 cb 64 3e
       -0.007649967 0.0011649664 -0.03680926 0.22343235
000320 3c c7 ab 3c b5 78 9c 3d c7 16 87 3a 0a fd 10 bd
       0.020969026 0.076402105 0.0010306471 -0.035397567
000330 2c 8c 77 bd a5 ae a5 bd 3e c6 cd 3d 50 19 20 bc
       -0.060436413 -0.080899514 0.10047577 -0.00977166
000340 b7 cb dc 3d 7c a7 24 3d d3 1e 1c 3d 16 49 91 bd
       0.10781043 0.040198788 0.038115334 -0.07094018
000350 c6 d7 6f bd f4 fe 7c bd b1 46 75 bc 9f f6 0e be
       -0.058555387 -0.06176658 -0.014970467 -0.13961266
000360 ba 86 b5 bb 10 26 a9 bd ce 34 c3 bd 2a bc 0b 3d
       -0.0055397423 -0.08259213 -0.09531556 0.034114994
000370 96 a1 de bd 28 a7 94 bd 0d 63 16 3e ab 75 23 be
       -0.10870664 -0.07258445 0.14686222 -0.15962856
000380 87 8d 09 bc 31 8d 29 3d fc 74 34 bc ca 50 88 3d
       -0.008395559 0.041394416 -0.011014219 0.06656034
000390 ec b0 1f bd 92 b7 5d 3d c5 eb 12 3d 59 da e5 3d
       -0.038987085 0.054130144 0.03586938 0.11223287
0003a0 2e cd af bc 55 34 58 3b b0 68 2a bd 54 d3 c2 3c
       -0.021460142 0.0032990177 -0.041603744 0.02378241
0003b0 3b 60 08 bd 43 be 2d bd 40 cc b3 bd b9 ae 37 3d
       -0.033294898 -0.042417776 -0.08779192 0.044844363
0003c0 8b 1e c2 3c 10 f5 ac bd a2 a3 25 3c 2a ce 8f 3d
       0.023696205 -0.084451795 0.010109814 0.070217445
0003d0 56 e7 a0 3d ed 99 19 be 48 80 2a bd aa 1d b8 3d
       0.07856624 -0.15000124 -0.041626245 0.08990033
0003e0 11 1d 9b bd 8e 7d 01 3d 9c 41 83 3d ef b4 c3 3d
       -0.07573903 0.03161388 0.06408998 0.09555995
0003f0 1b 04 55 be 78 f3 23 bd 76 fb 9d 3c 52 d3 cd 3d
       -0.20802347 -0.04002711 0.019284945 0.10050072

bias f4 [29]
000000 5c ce cd 3d 5f cf 5e 3d 93 6b be 3c 88 dd 45 ba
       0.100491256 0.054396983 0.023244655 -0.00075479643
000010 51 0a ad 3d b4 b5 8b bd fd 48 9f bc 6a c9 f9 bc
       0.08449233 -0.068217665 -0.019443983 -0.03049155
000020 e9 1f e2 3d e4 87 b2 bd 2c 4d 28 3d 26 50 a4 bb
       0.11041243 -0.08717325 0.04108922 -0.0050144373
000030 f2 03 48 bd ac 1a 4d 3c b8 5d 6b 3d 25 b9 9f bd
       -0.048831888 0.012518566 0.057462424 -0.077989854
000040 16 3c 51 3c 74 af b6 3c f9 22 41 3d 65 da 9e 3d
       0.012770673 0.02230046 0.047152493 0.07756499
000050 03 87 68 3c df 2e ca bd 39 c8 4c bd c8 b8 9a ba
       0.014192346 -0.09872221 -0.049995635 -0.0011804337
000060 95 68 68 bc c1 ed 20 bd ce 5d f5 bd bc e6 53 bd
       -0.014185091 -0.03928924 -0.119807824 -0.051733717
000070 38 ed cf bd
       -0.10152668
