models/ESEN_60-40/ESEN_60-40_4_threshold_val_ldt_75.pt (torch, 318607 bytes, 7 tensors)

weight f4 [28, 16]
000000 f4 8d 91 bd 4f 8a a2 bf 89 2d a5 3f de 84 d3 bd
       -0.071071535 -1.2698458 1.2904521 -0.10328077
000010 c4 ee 39 3e 61 26 08 3e 0d 75 bb 3f 5e 0e e0 be
       0.18157488 0.1329589 1.4645096 -0.4376096
000020 77 00 21 c0 c0 23 49 c0 7d d8 4a bf 91 65 07 c0
       -2.5156534 -3.142807 -0.79236585 -2.1155741
000030 da db 5c bf fc 28 fb be b4 cf 92 bf f3 a4 56 3d
       -0.86272967 -0.49054706 -1.1469636 0.0524034
000040 11 b9 d3 bf 2d be c8 3e a1 36 ad be 9e c9 98 bf
       -1.6540853 0.39207593 -0.3383074 -1.1936529
000050 20 c2 83 3e 5b f2 ba bd 3c d3 55 3f 8e 60 2c bd
       0.25734043 -0.09128257 0.83525443 -0.04208427
000060 43 5b 0a be 91 2e a6 3f 51 1a 7e 3f 6f fe 48 be
       -0.13511376 1.2982961 0.99258906 -0.19628309
000070 99 b6 56 3d 4b c4 6b bf 08 f6 94 be 6f 0f 44 3e
       0.052420232 -0.92096394 -0.29093957 0.19146512
000080 94 25 bc bd ce 86 9b be 00 de c7 3e d7 80 7a bf
       -0.09186855 -0.30376285 0.3903656 -0.97852844
000090 d0 51 c7 3f f7 98 75 be 58 ff c3 bf 1b 13 7b bf
       1.5571842 -0.23984133 -1.53123 -0.9807603
0000a0 af a4 6e 3f 9f 66 18 bf c6 c7 94 3f 0c fe 81 3e
       0.9322004 -0.5953159 1.1623466 0.25389135
0000b0 69 c9 40 bb 9c 21 cf bf 80 be 9b bf 5e d4 d5 3f
       -0.0029416925 -1.6182132 -1.2167511 1.6705434
0000c0 68 e1 33 40 4c 5a 25 40 e7 94 8a 3f fe ed d4 3f
       2.8106327 2.5836363 1.0826691 1.663513
0000d0 0a 12 60 bf 3e 65 2c 3f 11 42 37 3d 44 62 5c bf
       -0.87527525 0.67341983 0.04474074 -0.8608744
0000e0 16 51 67 bf b8 d1 ea be c8 f1 fa 3f 37 ce 78 bf
       -0.903581 -0.45863128 1.9605036 -0.9718966
0000f0 1e 3b d2 be c0 67 53 bf f7 23 7b 3e c2 59 8c bf
       -0.41060728 -0.82580185 0.24525438 -1.0964892
000100 c6 17 6d 3f 1b 77 9c 3f 0b 2b 9a 3e 4e 1a a6 bf
       0.926144 1.2223848 0.30110964 -1.2976778
000110 44 1e 67 3f e0 c8 0b be 33 16 1d 3f b4 81 69 3f
       0.90280557 -0.13650846 0.61362 0.91213536
000120 01 5a 3b bf c1 2d 43 3f f7 27 81 bf 84 5b 30 3f
       -0.7318421 0.7624169 -1.0090321 0.6888964
000130 96 4d ca bf 0b 89 07 40 22 17 95 bf 40 db e7 3f
       -1.5804927 2.1177394 -1.1647685 1.8113785
000140 cd 96 8f 3e 25 76 8f 3f 11 92 db bf ab 1a be 3f
       0.2804474 1.120793 -1.7153951 1.4851888
000150 1f 3f a3 3f a5 e4 d8 3f 44 50 a4 3f 6a 8d 21 bf
       1.2753638 1.6944777 1.2836995 -0.63106406
000160 42 3b 8d bf cd 8d 68 bf c7 66 8b 3d 36 d1 fd 3f
       -1.1033709 -0.9084137 0.068067126 1.9829471
000170 69 32 ab 3d 86 c4 b0 3f fe 47 34 3f 0e 45 9c be
       0.08359224 1.3809974 0.7042235 -0.30521435
000180 1c 4e e7 3e de 6f 03 3e 6d 55 93 3f 6f 56 4c 3e
       0.4517678 0.12835643 1.1510445 0.19954847
000190 1f dd 55 bd 73 97 fb 3e a2 af 32 3f 49 0e 2f bf
       -0.05221283 0.49138984 0.69799244 -0.6838117
0001a0 7f b9 35 3f a9 c2 31 bf ca 9b bd 3f a8 b1 47 3e
       0.7098617 -0.6943765 1.4813168 0.19501364
0001b0 de e0 1c 40 50 2c a3 3e 09 73 5b 3f 2c 73 ad bf
       2.4512248 0.31869745 0.85722405 -1.3550773
0001c0 25 ce 2c bf e8 67 1d bf 20 72 29 c0 df b9 7d bf
       -0.6750205 -0.61486673 -2.6475906 -0.9911174
0001d0 06 f9 de 3f 3d 84 20 c0 0c 68 87 bf 69 93 39 bf
       1.7419746 -2.5080712 -1.0578628 -0.72490555
0001e0 78 a5 0a 3f 57 a7 98 bf 08 92 03 c0 43 0a d0 be
       0.54158735 -1.1926068 -2.055788 -0.4063283
0001f0 d0 f0 ab bf 84 fc af be 83 bc 88 be 06 f8 18 3f
       -1.3432865 -0.34372342 -0.26706323 0.59753454
000200 fb 22 47 3e 1b 62 ae 3c 32 64 9b ba c0 bb ee bf
       0.19446938 0.021287015 -0.0011855422 -1.8651047
000210 e7 52 85 bf 76 b1 6c 3f fa d3 16 3f 8d 6b 36 40
       -1.0415925 0.92458284 0.589172 2.8503144
000220 d2 2f ff 3f 96 f8 f8 be 9d 29 d8 be 24 9d 82 3e
       1.9936469 -0.48627156 -0.42219248 0.25510514
000230 be f1 e0 bd da fe e5 3e d0 79 09 40 13 e1 9f 3f
       -0.10983609 0.44921 2.1480598 1.2490562
000240 36 43 a0 bb 61 a9 89 3f 39 7a 39 3f aa b2 4c 3d
       -0.0048908247 1.0754815 0.7245212 0.049975075
000250 9e 52 3b be f7 53 b0 be 59 fb fc be 38 07 a6 bf
       -0.18293235 -0.3443906 -0.49410513 -1.2970953
000260 a2 94 c3 be 88 40 bb bf 82 4c 6b 3f 3f 50 75 40
       -0.38199335 -1.4629068 0.91913617 3.8330228
000270 15 c6 82 3f 23 ed 19 3e fb a5 32 3f f5 7e e6 be
       1.02167 0.15031867 0.69784516 -0.45018736
000280 bc 9b bb bf ca 54 2b bf 07 2a 77 3e b1 b1 14 40
       -1.4656901 -0.6692625 0.24137126 2.3233454
000290 07 57 91 bf 70 52 d1 3c 14 a0 99 3e b4 b5 3b bf
       -1.1354684 0.025552005 0.30004942 -0.7332413
0002a0 db fb ac bf 95 f1 85 bf 38 ee d8 3f 41 ad 63 be
       -1.351436 -1.046435 1.6947699 -0.2223406
0002b0 33 e2 a9 3e df f3 8a be 99 17 bd 3e f5 a4 c5 bf
       0.3318039 -0.27139184 0.36932066 -1.5440966
0002c0 80 d3 99 3f 81 18 b1 3e 85 23 a5 bf 78 08 7a bf
       1.201767 0.34589007 -1.2901465 -0.9766917
0002d0 79 25 8b bf 7e 46 8c 3d 1f a3 60 bf 5f ae 7f 3f
       -1.0870811 0.06849383 -0.87748903 0.99875444
0002e0 64 3a e3 bf 3a 27 cc 3d 4c 09 cf be 45 1f 7b bf
       -1.7752194 0.099684194 -0.4043678 -0.9809459
0002f0 4f 03 88 3f dc d5 a5 bf ba 1e 28 40 82 77 74 3e
       1.062601 -1.295589 2.6268754 0.23873714
000300 66 0f 59 3f d9 f6 70 3e b7 8c f4 bf 85 20 0b be
       0.8478912 0.23531665 -1.9105443 -0.13586624
000310 f0 21 c8 3e 40 45 2f bf 4f f1 01 bf be 4d 13 bf
       0.39088392 -0.6846504 -0.5075883 -0.575405
000320 ff 6c 3f 3f e4 7b 4b bf 41 d7 2b 3f e9 93 ae be
       0.7477569 -0.7948592 0.67125326 -0.34097221
000330 f2 e5 44 3f 70 ff 11 40 1d 6d 85 3e b0 aa 78 3f
       0.7691337 2.2812157 0.2605981 0.9713545
000340 0f 5a f0 3e 1b 21 99 bf f5 0b 29 bf 28 f9 34 3f
       0.4694371 -1.1963228 -0.6603387 0.7069268
000350 54 cd bd bf 45 79 24 3f ee 80 ef 3d 50 d6 57 bf
       -1.4828286 0.6424754 0.11694513 -0.8431139
000360 8c c5 84 3f 97 d5 b3 bf 10 92 25 c0 3b 1e dc 3f
       1.0372787 -1.4049557 -2.58704 1.7196726
000370 3d 27 a7 3f 88 35 4e be a6 57 d2 bd 11 84 ea 3f
       1.305885 -0.20137608 -0.10270624 1.8321553
000380 7e e8 69 be 68 13 13 c0 a8 d9 10 3f b5 a6 1f bf
       -0.22842595 -2.2980595 0.5658212 -0.6236375
000390 fe 74 7c 3f 6f 72 16 40 52 82 27 3e 71 75 f8 3e
       0.98616016 2.3507345 0.16358307 0.485271
0003a0 16 0a 98 3d 95 6e 1e 3f d7 a4 89 3f b4 16 ae 3f
       0.07423799 0.61887485 1.075343 1.3600678
0003b0 32 2f d5 bf e9 ed 69 3f 7f 9e 9a bc 3d 18 ee 3f
       -1.6655028 0.9137865 -0.018874405 1.8601147
0003c0 2f 83 b5 bf 06 95 e4 3f c8 db d2 3e 5c 0a d2 bd
       -1.4180659 1.7857978 0.41183305 -0.10255882
0003d0 5c 35 b8 3f b3 fa 29 b9 71 7b cd bf b3 f7 1a bf
       1.4391284 -0.00016210489 -1.6053296 -0.6053421
0003e0 52 84 8a 3e 2d dd fd 3d 5b 7e 5f 3e dc 36 aa 3f
       0.27054077 0.123957016 0.21825545 1.3297992
0003f0 91 5e 00 3f 9f 9a 59 3f cb 1c 45 bd f6 4e 3e be
       0.50144297 0.8500156 -0.048123162 -0.18584809

weight_ih_l0 f4 [512, 16]
000000 be 8e 68 3e e7 12 00 3e 41 f3 07 be d5 27 8f be
       0.22710702 0.1250721 -0.13276388 -0.27960077
000010 84 62 d6 bc fb f0 18 3e c8 58 3f 3e 7c d8 19 be
       -0.026170023 0.14935677 0.18686211 -0.15023988
000020 d6 14 94 be 8e b7 47 bc 9e a5 34 3e c4 33 55 3d
       -0.28922147 -0.012189759 0.17641303 0.05205132
000030 93 ee 12 3e aa ff b7 bd 5b 03 07 be b1 d4 24 3d
       0.14348821 -0.08984311 -0.13184874 0.0402419
000040 9c 0d 5b 3e ce d0 f6 3d 37 21 22 3e df 4d 83 be
       0.2139191 0.12051545 0.15832983 -0.25645348
000050 f7 f8 94 be 0d 4a a0 bd 8e 37 5f 3e fc e5 82 3d
       -0.29096195 -0.07826624 0.21798536 0.06391522
000060 ba ba fb bd 6e e9 76 be fb 1e 68 be e0 f0 29 be
       -0.12291475 -0.24112484 -0.22668068 -0.16595793
000070 d1 90 05 3e c7 d3 65 3e b9 6c c3 3d c0 13 87 3d
       0.13043524 0.22444068 0.095422216 0.06595564
000080 a2 f4 bf 3d db 1f f5 3d da 4a 98 3d 33 c2 17 be
       0.09372832 0.119689666 0.07436152 -0.14820175
000090 d9 d6 64 3e 26 23 35 3e 59 4d 43 3b e3 7a f2 3d
       0.22347583 0.1768919 0.0029800741 0.11839845
0000a0 33 02 d1 bd d1 c0 44 be ef 82 91 bd a3 0e ae 3d
       -0.102054976 -0.19214179 -0.07105052 0.084988855
0000b0 d7 3e 12 be ca 96 0f bd 62 d6 ba bd 64 ce 20 3e
       -0.14281784 -0.035055913 -0.091229215 0.15703732
0000c0 f4 fa 8c 3e 62 0b 69 3e 57 1d 53 3d a1 bb be be
       0.27535212 0.22758248 0.051541653 -0.37252524
0000d0 15 49 17 3d c9 41 9e 3d ec 57 71 3d 17 79 cb 3e
       0.03693493 0.07727391 0.05892174 0.39740822
0000e0 42 85 0a be 10 c7 a1 3d e1 d1 9d 3e 78 99 06 be
       -0.13527396 0.07899296 0.30824187 -0.13144481
0000f0 b9 3f b8 be 2f f4 19 3b 2e 25 e7 bd 8f 2f 2d 3e
       -0.35986117 0.0023491492 -0.11286388 0.16912673
000100 c8 bf c1 3e d4 52 d0 3d 50 a0 a2 3e e3 87 c3 bd
       0.3784163 0.10172048 0.31762934 -0.09547403
000110 06 9f 74 be 2d 43 af 3e 26 41 ce 3c 18 69 2d be
       -0.23888788 0.3423094 0.02517755 -0.16934621
000120 ec 97 b3 be 28 d8 6c 3e cb f2 e4 3d f3 b8 e3 bc
       -0.35076845 0.23129332 0.111791216 -0.027798152
000130 f1 41 1c 3e 9e a3 a8 3d d5 ae fe bc fc b9 7a 3e
       0.1525953 0.082343325 -0.031089226 0.2448501
000140 20 22 f7 3e 4b 93 87 3e 2f b7 71 bc 6c 47 8c be
       0.48268223 0.26479563 -0.014753147 -0.2739824
000150 75 b2 c3 bc 63 d5 4b be ea 01 6e 3e dd 90 ac 3d
       -0.023888806 -0.1990562 0.23242918 0.08426068
000160 e0 3b 0e be a7 c3 e0 bc 29 71 c9 3d f5 de aa bd
       -0.13890028 -0.027437044 0.09836037 -0.08343307
000170 29 c6 b9 3b 53 71 2b bd 59 23 eb bd ef 96 c2 bd
       0.0056693745 -0.04185612 -0.114813514 -0.095014445
000180 46 b9 24 bd 19 d5 da be 83 6f 49 be 54 65 5a 3c
       -0.040215753 -0.42740706 -0.19671445 0.013329823
000190 b6 f9 3e 3e be ff f7 bd da 66 c3 3e 60 53 15 be
       0.18649945 -0.12109326 0.38164407 -0.14582586
0001a0 22 d8 04 be 52 21 8a be 91 7f b5 3d b5 af 43 3e
       -0.12973073 -0.26978546 0.08862222 0.19109996
0001b0 6e 79 fd 3d 71 1e d6 be 6f 0d 5c 3d 67 8f ba 3e
       0.123766765 -0.418201 0.05372375 0.36437532
0001c0 ba d1 1a 3e aa fc 3b 3e 85 bc b1 3e 5f 89 47 bd
       0.15119067 0.18358102 0.3471414 -0.04871499
0001d0 e5 f5 ab be 69 24 8c 3e 34 70 88 3d b9 70 ba bd
       -0.3358604 0.2737153 0.06662026 -0.091035314
0001e0 1b 05 31 be 5b 56 2c be 32 c0 36 be c4 17 2f be
       -0.17287104 -0.16829817 -0.17846754 -0.1709891
0001f0 15 9e f2 3d 96 49 e5 bd 1a 30 19 be 50 49 4c be
       0.11846558 -0.11195676 -0.14959756 -0.19949841
000200 84 fa 47 3e 71 a7 4f 3e 66 3c 99 bd e7 50 b0 bd
       0.19529158 0.20278718 -0.07482223 -0.08609181
000210 e9 c8 a6 bd 41 29 ba bd ae cd 51 3e 4f eb a2 be
       -0.08143789 -0.090899 0.20488617 -0.3182015
000220 3e 05 37 be d8 ec 98 bd 35 8b 86 3d 48 16 fe bd
       -0.17873093 -0.07467049 0.065695204 -0.124065936
000230 e3 51 03 be be ad b1 bd 67 b5 70 be 3d 93 c2 3d
       -0.12824206 -0.08675717 -0.235067 0.0950074
000240 75 ed 5c be b9 3b 1e be 81 6d fe ba 41 b1 45 3e
       -0.21574958 -0.1545247 -0.0019411297 0.19305898
000250 0b f2 93 3e 61 1e d7 bd 24 db 95 bd 9f 42 5a 3d
       0.28895602 -0.10503841 -0.073171884 0.05328619
000260 45 c3 38 3e 5a cd c0 be 97 19 0a 3e 76 6a 20 3e
       0.1804324 -0.3765667 0.13486324 0.15665612
000270 6b c8 97 be 30 f2 af 3d 04 6a 44 3e 2d ff 3c 3e
       -0.29645094 0.085911155 0.19181067 0.18456717
000280 9b a9 02 3d ad 39 34 be 18 a5 6f bd c7 4d 95 bc
       0.03190003 -0.17600127 -0.058507055 -0.018225564
000290 85 b3 ae 3d 24 0d 80 bd 07 b4 79 3c 7a 55 e6 3d
       0.085303344 -0.062525064 0.015240676 0.11246772
0002a0 54 62 eb 3d ba 4d 82 bd b7 9c 15 bd e6 d7 9c 3d
       0.11493364 -0.063624814 -0.036526408 0.07658367
0002b0 e7 a9 11 be db 3c da 3d 95 89 5a bd 7c 41 46 3e
       -0.14224969 0.106561385 -0.053353865 0.19360918
0002c0 e4 c5 fc 3d 5f a4 3c 3e ec b4 59 be eb 8b 89 bc
       0.12342432 0.18422078 -0.21260422 -0.01679035
0002d0 2f a3 7e be ee 09 db 3d e8 23 03 3f 10 dc c8 3d
       -0.24866937 0.10695253 0.51226664 0.098075986
0002e0 ac dd 17 3d 34 ec 65 be d1 38 d2 3e 2d 0c 2d 3d
       0.037076637 -0.22453386 0.41058972 0.04224794
0002f0 d6 b8 c6 3d b4 ce 16 3e 35 89 0f 3e 77 96 08 be
       0.097032234 0.14727288 0.14017184 -0.13338648
000300 8e 6b 55 3e b6 3b 00 3d 41 54 d5 bd d6 3f 5c be
       0.2084181 0.031306945 -0.10416461 -0.21508726
000310 19 a9 b6 3b 9a df 31 bd 6d cb 41 3e da f6 53 3e
       0.005574357 -0.043426134 0.18925257 0.20699635
000320 ab 3c e4 bd 97 41 97 3c 1d 3c 7d 3e 83 53 12 bd
       -0.11144384 0.018463893 0.24729963 -0.035724174
000330 81 2e 15 be 03 b0 93 3e d3 84 2a 3e 0c 10 9e 3e
       -0.14568521 0.28845224 0.16652231 0.30871618
000340 e4 13 01 3e 46 02 5e be 42 11 2e bd a8 b6 1e ba
       0.12605244 -0.21680555 -0.042496927 -0.00060544396
000350 bd d0 4b 3e 22 2d 66 3e f6 f7 1d 3e 64 69 b7 bd
       0.19903846 0.22478154 0.15426621 -0.089556485
000360 00 26 8f 3c c7 7d 4c be 41 64 69 3e d1 27 04 3e
       0.017474174 -0.19969855 0.2279215 0.12905814
000370 6f 11 85 3d fd 89 71 3e 60 cb cd 3d ed 7e da bd
       0.06497466 0.23587795 0.10048556 -0.106687404
000380 1a 21 a7 3d 23 02 18 be 5a a4 18 3d 84 7a 34 3e
       0.081606105 -0.14844565 0.037266113 0.17624861
000390 0f 26 f1 3b f3 ac 9d bc df c9 72 bd e1 81 6a be
       0.0073592733 -0.019247508 -0.05927455 -0.22901107
0003a0 43 90 b1 be 8e d1 cf be 84 53 56 bd e3 b4 87 3d
       -0.34680375 -0.40589565 -0.05232574 0.06626298
0003b0 a0 5b af 3d 31 a8 9b be 2e 5b 1b be 12 1c 82 bd
       0.08562398 -0.30401757 -0.15171501 -0.0635301
0003c0 2c b7 24 be c6 c4 ea be 75 b4 26 be 2e 58 00 be
       -0.160855 -0.4585325 -0.16279776 -0.12533638
0003d0 a2 5f 38 3d f7 87 36 bc c0 bf 13 3d 3f 9b 25 3e
       0.045013078 -0.011140815 0.03607154 0.16172503
0003e0 1b 03 a7 3e 79 8a 87 bd e4 2a ef bd a7 a5 30 3e
       0.32619557 -0.066182084 -0.116781026 0.17250691
0003f0 35 3d 85 3d 73 5f cc bb 5d d5 f7 bc 8f 10 b0 3d
       0.06505815 -0.0062369644 -0.030253107 0.08596908

weight_hh_l0 f4 [512, 128]
000000 09 a9 1a be 0a 61 13 be a9 20 01 3e 5c fd 9c 3e
       -0.15103544 -0.14392486 0.12610115 0.30662048
000010 41 82 82 3d 2c b3 92 bc 4c ce f6 3d c9 6c 62 3e
       0.063725 -0.017907701 0.12051067 0.2211181
000020 eb 0d 8b be 1b 0f 2e bd ba 85 02 3e b9 a3 6b be
       -0.27159056 -0.042494874 0.12746325 -0.23011674
000030 d2 4f 67 be 3c ad cb 3c c2 90 85 bc 0b f1 c8 3d
       -0.22589043 0.024862878 -0.016304377 0.098116
000040 ce 7d a2 3d 71 d1 8d bc 7e 82 3b 3d 4f c0 11 bc
       0.079341516 -0.017311784 0.045778744 -0.008895948
000050 71 e3 20 3e 90 c8 21 3e 59 19 1d be 9a 74 47 be
       0.15711762 0.15799165 -0.153417 -0.19478074
000060 58 10 22 be e7 4a 63 3e 97 cb ef 3d 1d cc 43 be
       -0.15826547 0.22196542 0.117087536 -0.19120832
000070 cd 19 8f be 35 d9 86 be 1e b5 53 be d5 dc cf 3b
       -0.27949372 -0.2633759 -0.2067456 0.006343464
000080 30 c5 82 be 94 8f 23 be 9e 7e 84 be ba 0a 63 be
       -0.25541067 -0.1597274 -0.2587785 -0.2217206
000090 8e b6 65 3d b4 41 4d be 7c 77 53 be df 2b e8 3c
       0.0560823 -0.20044595 -0.20651048 0.028341232
0000a0 f4 20 81 3e 9d de 55 3d b1 41 05 be c7 50 42 be
       0.25220454 0.052214254 -0.1301334 -0.18976127
0000b0 e1 3c b4 bd be 4c c7 3d 0b bb 44 be 26 59 4a be
       -0.08800674 0.09731434 -0.19211976 -0.1976057
0000c0 85 47 9e bb 76 45 7b 3e 5c 78 dd 3d 45 52 2b be
       -0.004830303 0.24538216 0.10813972 -0.16730602
0000d0 bf e2 1d be 26 44 cb bd 8c bb ef 3c f7 84 d5 bd
       -0.15418528 -0.09925108 0.029264234 -0.10425752
0000e0 23 8d 4e be ea 6b 92 3c 0c 13 05 3d f6 4d 2c bd
       -0.20171027 0.017873723 0.032488868 -0.042066537
0000f0 16 74 1a 3e 28 22 88 3c 04 75 bd bd b2 67 f0 3c
       0.15083346 0.01661785 -0.092508346 0.02934632
000100 16 3d 42 3e f6 99 a7 bc 07 c9 f4 bd 85 93 e5 bd
       0.18968615 -0.020459156 -0.119524054 -0.11209778
000110 3d 1f 3e be 8f cc 4a 3e d9 0d d0 bd 08 53 00 be
       -0.18566604 0.19804595 -0.10158891 -0.12531674
000120 d7 2e 3b 3d ca da 0c be dc 2e a1 3d 0b 41 79 be
       0.045698967 -0.13755336 0.07870266 -0.24341218
000130 1f 1c 7c bd 1c 61 01 bd 1d c2 ec bd 51 17 75 3e
       -0.061550256 -0.03158675 -0.11560462 0.23934676
000140 3d 71 e7 3d 70 cb 54 3e 35 9d 47 3e 0f 0b 7d 3e
       0.11300895 0.2078073 0.19493563 0.2471125
000150 9a b6 4a be 4f ea 37 3e 0f f2 8d bd 36 d6 d3 bd
       -0.1979622 0.17960475 -0.06930935 -0.10343592
000160 2b d9 66 3e 40 a6 27 be 74 c0 b4 bd e8 13 06 be
       0.2254378 -0.16372013 -0.0882577 -0.13093531
000170 80 29 f6 3d f3 7b 86 bc 03 cf 13 3e be d4 0c 3e
       0.12019634 -0.016416525 0.14434437 0.1375303
000180 cd e4 34 3e 3e 42 e0 bd ef d1 1d be 40 ff a3 3d
       0.17665406 -0.10950135 -0.15412115 0.080076694
000190 56 b4 b8 3c 8d f8 3e be bb dc b0 bc dc 37 aa bb
       0.022546928 -0.18649502 -0.021589627 -0.0051946472
0001a0 8f 78 44 3e 0a 49 3f be 91 74 87 bb eb f9 60 3d
       0.19186614 -0.18680206 -0.004133769 0.05492584
0001b0 64 d7 bd 3d 42 cd de 3d 12 f0 86 3c f9 73 f7 bd
       0.09269598 0.108789936 0.016471896 -0.12082667
0001c0 1c a3 12 be f6 ed 26 3e f4 2a 11 bc 56 6c 8d bc
       -0.14320034 0.16301712 -0.0088603385 -0.017263573
0001d0 b3 e7 ed 3d b1 10 09 3d 4a 8e 88 be 13 da bc bd
       0.11616459 0.033463184 -0.26671058 -0.09221282
0001e0 1b d6 48 3d c3 9b 24 3e ef 76 34 3e c7 59 01 3e
       0.049032312 0.16075043 0.17623495 0.12631904
0001f0 17 46 6e 3c e3 cf a8 bd 4f a5 00 bf f8 99 88 3e
       0.014543078 -0.08242776 -0.5025224 0.2667997
000200 a8 58 0b 3d e5 93 86 3b 44 12 14 3e c7 fb 09 3e
       0.034020096 0.004106986 0.14460093 0.13474952
000210 14 e1 53 bc 8f 1a 1d bd 1c fd 0f 3e 39 86 78 3d
       -0.012932081 -0.038355406 0.14061397 0.06067488
000220 1b ec b0 bd 13 ff 06 3e 4d b5 30 3d be 32 3a bd
       -0.086387835 0.1318324 0.043141652 -0.045458548
000230 2f 87 9e bd 47 28 bc 3d 71 c1 c4 3a 5a 2f e2 bd
       -0.07740628 0.0918737 0.0015011263 -0.11044188
000240 83 b3 17 bc e4 5c 91 bd cb 36 a2 3d a3 40 4e 3e
       -0.0092591075 -0.070977956 0.07920607 0.20141844
000250 bb 7c a0 3d 0b 77 69 3d 3d 89 7b be 7b af 0c 3e
       0.078362904 0.056998294 -0.24564071 0.13738815
000260 ec 52 03 be 38 f4 13 3e f6 69 3d 3e ab 97 a3 bd
       -0.12824601 0.14448631 0.18497452 -0.07987913
000270 05 d2 c0 bd 0d 52 66 be 8e b3 d0 3c 9f 6c 4f be
       -0.09415058 -0.22492237 0.025476243 -0.2025628
000280 a7 12 07 be ad bf 18 be 28 08 4b be e2 5c b9 ba
       -0.13190709 -0.14916869 -0.1982733 -0.0014142061
000290 9b 14 99 bd 64 ef af bd 86 31 59 be 60 b1 97 bd
       -0.07474633 -0.08590582 -0.21210298 -0.074068785
0002a0 bb 0c 3b 3e 8c 54 61 3e 59 e7 f1 bc 07 58 07 be
       0.18266575 0.22004908 -0.02952926 -0.13217174
0002b0 cd bd 9b 3d 4d 92 c5 bc 17 c2 52 bd 57 b9 a3 3d
       0.07604561 -0.024117613 -0.05145463 0.07994335
0002c0 d0 c2 d5 3b ea 8b 80 3d aa 14 c0 3d b3 a2 45 be
       0.0065234676 0.062766865 0.09378941 -0.19300346
0002d0 f4 74 74 be 26 4e e2 3c 36 32 96 3d cd c9 f3 bd
       -0.23872739 0.027625155 0.07333796 -0.11903725
0002e0 58 50 1b be 75 18 28 bb 1b ff a4 bd 9b 33 50 bd
       -0.15167367 -0.0025649343 -0.0805647 -0.050830465
0002f0 fc 43 d5 3d 8b 13 66 3e f0 fe 81 be 63 57 5e 3d
       0.104133576 0.22468393 -0.25389814 0.054282557
000300 f5 01 88 3d a3 67 5a bd 64 53 b7 bd 62 f9 cf bd
       0.06640998 -0.053321492 -0.089514524 -0.10154988
000310 ab 5d 2f be f4 15 42 3e f3 ff 8f 3d 39 46 b2 3c
       -0.17125575 0.18953687 0.0703124 0.021762
000320 bd 93 21 3e 75 91 2f 3d 74 d0 88 bb b7 a3 11 be
       0.15779014 0.042863328 -0.00417524 -0.14222609
000330 4e 33 70 bd 7f cb 2a be b4 a8 5c be 06 60 7b bb
       -0.058642678 -0.1667919 -0.2154873 -0.0038356795
000340 cf b9 a3 3d d2 24 93 3c 2b c0 8a 3e ee 59 02 3e
       0.079944246 0.017961893 0.27099738 0.12729618
000350 27 a4 16 be ab 12 af 3d 9f 56 9b bd df 9c 06 be
       -0.14711057 0.085484825 -0.07584881 -0.13145779
000360 52 82 d6 3e 7f c0 9b be 42 87 61 be 19 9f 32 bd
       0.41896302 -0.304203 -0.22024253 -0.04360876
000370 58 6b 3f 3e bc 1f 79 be 93 ae 7d 3d 43 57 11 3d
       0.18693292 -0.24328512 0.061934065 0.03548361
000380 77 ac 30 3e 8d fc f4 bd f7 9e 47 be ce 8a f4 bd
       0.1725329 -0.11962233 -0.19494234 -0.119405374
000390 ed cb 6c 3c e6 5f 00 3d 18 6f 46 bd 48 f8 26 be
       0.014452917 0.031341456 -0.04844579 -0.1630565
0003a0 d4 78 02 bd cb 83 25 bd 7c 3e d0 3d 4e 92 74 be
       -0.031853512 -0.04040889 0.10168168 -0.23883936
0003b0 fb eb 25 3e 17 64 db bd 28 e9 0d 3e 04 ca 70 3d
       0.162033 -0.1071245 0.13858473 0.058786407
0003c0 ef 76 31 be ad a2 aa 3d 14 9f ac bd 3c 1d 36 bd
       -0.17330526 0.08331809 -0.08428779 -0.044461474
0003d0 ef 7b c8 3d f0 2d 37 3d 1b a4 17 be fe 59 fc bd
       0.097892635 0.044721544 -0.14808695 -0.12321852
0003e0 f2 c6 55 3d 7d 2f 51 3e 8b 56 88 3c 5a 78 7d 3e
       0.052191682 0.20428272 0.01664283 0.24752942
0003f0 5e be c6 3d 90 2f 18 be 00 43 b7 bd ae eb ef 3c
       0.097042784 -0.14861894 -0.08948326 0.029287186

bias_ih_l0 f4 [512]
000000 ed d4 69 3e 03 94 86 3d 68 f4 0e 3d 2a 82 09 3d
       0.22835131 0.065712 0.034901053 0.0335714
000010 e0 1e 68 3e ba 68 3a bd bf fb 2f 3e c2 d1 9d bc
       0.22668028 -0.04551003 0.17185877 -0.01926506
000020 cc a5 2f 3e 6d a4 5b 3e 75 65 9f 3d aa 9a 0f 3e
       0.1715309 0.21449442 0.07783023 0.14023843
000030 1b a8 6e 3e d2 c6 99 3c 23 b1 16 3e cd fa 75 3d
       0.23306315 0.018771563 0.1471601 0.060053635
000040 b8 12 e8 3d e5 d7 7b 3e f8 83 6e 3e 8d b7 4f 3d
       0.11331695 0.24594076 0.2329253 0.050712157
000050 02 18 0a 3e 90 38 09 3e 0d cc e2 3d 7b d3 c5 3b
       0.13485721 0.13400483 0.11074076 0.0060371733
000060 23 77 b2 3d cd fb 28 3e 74 c6 e0 3c 15 43 a6 3d
       0.0871413 0.16502304 0.02743838 0.08118264
000070 47 44 30 3e 74 7d 85 3d c2 87 3a 3e 4b cf 13 3d
       0.17213546 0.06518069 0.1821585 0.03608636
000080 bc d2 b9 3d 46 c8 d1 3d ff 85 18 3e 11 af 82 3d
       0.090733975 0.10243277 0.14894865 0.063810475
000090 2a 2e ff 3d ac 30 11 3d 34 17 fe 3d b1 f7 15 3e
       0.12459977 0.035446808 0.124067694 0.14645268
0000a0 bc 96 b8 3c d8 15 4d 3d 80 c4 05 3e 6f 2f 0f 3e
       0.022532813 0.05006966 0.1306324 0.13982938
0000b0 64 33 0c 3d 3b 91 cd 3d ec 24 bf 3d 74 35 67 3d
       0.034228697 0.10037466 0.09333214 0.05644746
0000c0 98 cb 2f 3e eb d3 57 3e 54 94 d8 3d d2 2c 32 bc
       0.17167509 0.21076934 0.10575166 -0.010874944
0000d0 36 33 df 3d cb 0c a9 3d 63 a1 9e 3d 7f 48 96 bc
       0.108984396 0.08254393 0.07745626 -0.018345116
0000e0 4a 88 ba 3d 28 72 8c 3c ad 29 9f 3d ff 88 45 bc
       0.09108026 0.017144278 0.07771621 -0.012056588
0000f0 07 c5 4a 3d 32 f4 a0 3d f6 be c9 bb da 7b 40 3e
       0.049504306 0.078590766 -0.0061567975 0.18797246
000100 9f 7f fc 3a 81 60 e2 3d 01 4a d1 3d dd 5f 65 3d
       0.0019264108 0.11053563 0.10219193 0.055999625
000110 55 39 be 3c 5b 03 b8 3d d6 0c 54 3e 91 73 a9 3d
       0.023220697 0.08985015 0.20708022 0.08273996
000120 7b 2f 0b 3e b8 11 f9 3d 1e 4e a7 3c c3 c3 1d 3e
       0.13592331 0.12161583 0.020422991 0.15406708
000130 2b 52 98 3d b9 93 16 3c f6 c1 ea 3d ff 0a dd 3d
       0.07437547 0.009190493 0.11462776 0.10793113
000140 9b b2 94 bc cc 72 71 3d 8a 64 7c 3d ef cd 1b 3d
       -0.018151572 0.05894737 0.06161932 0.03803819
000150 e5 ad 6a 3c 29 ac ca 3d 79 e7 03 3e 7b ba 55 3d
       0.014323686 0.09896118 0.12881269 0.052179795
000160 86 cd 0d 3e a9 4f 27 3d 59 c6 24 bd 07 fb 27 3e
       0.13847932 0.040847454 -0.04022822 0.16404353
000170 46 06 a9 3d 3e fc a3 3d b5 11 1e 3e 73 e3 92 3d
       0.0825315 0.08007096 0.15436442 0.07172289
000180 f7 1c 1f 3e 86 41 47 3d 0f 02 b8 3d f9 2a 29 3e
       0.15538393 0.048646472 0.08984768 0.16520299
000190 fb 51 39 3d e3 7d e6 3d 90 77 63 3e b2 d0 9f 3d
       0.0452442 0.1125448 0.22213578 0.07803477
0001a0 8a 17 01 3e 2c e4 73 3e 44 50 f3 3d d4 82 3a bc
       0.12606636 0.2381751 0.11880544 -0.011383731
0001b0 33 e8 85 3d 7e ed 0a 3e 73 27 df 3d 36 95 d1 3d
       0.06538429 0.13567159 0.10896196 0.10233538
0001c0 92 9f 32 3e af 9e 17 3e fd e7 62 3d 31 d9 9c 3c
       0.17443684 0.14806627 0.055397023 0.019146534
0001d0 57 15 c4 3d 62 0c 0d 3e a6 43 32 3e 1b 13 97 3d
       0.09574383 0.13774255 0.17408618 0.07376691
0001e0 ec 3d 0f 3e 6a f3 3b 3e 25 22 cb 3d e9 dd 1e 3d
       0.13988465 0.18354574 0.09918622 0.03878585
0001f0 9f 18 3e 3e 61 07 bb 3d b1 d7 f0 3d 04 53 01 3e
       0.1856408 0.09132267 0.1175989 0.12629324
000200 d1 7d a2 bd a0 cc 4f bc 52 31 67 3c 64 36 fd 3d
       -0.07934154 -0.012683064 0.01411088 0.1236389
000210 17 3e b6 bd 99 ca 7a bc cb 2b a4 bd e5 ff 07 3c
       -0.088985614 -0.015307092 -0.08016165 0.008300756
000220 3a 09 a4 3d 52 17 a6 bd f7 02 9a bc af 8c 18 3d
       0.08009572 -0.08109917 -0.018800242 0.03724354
000230 39 7e 48 3c 5b 05 59 bd 50 71 d6 bc 26 56 10 bd
       0.012237125 -0.052983623 -0.026177078 -0.035238408
000240 3a 3d 95 bd 81 47 af bd 6f 32 c3 bd 98 ac 82 3d
       -0.07287069 -0.0855856 -0.09531104 0.06380576
000250 35 15 7c bd 27 ef 8e bd ca 6d 4e 3d 8a 78 67 3d
       -0.061543662 -0.069792084 0.05039767 0.05651144
000260 6d 03 f0 bc a8 27 a9 ba 31 ac 40 bd ae 9a 68 bd
       -0.029298509 -0.0012905495 -0.047039215 -0.05678814
000270 b0 13 15 3e b6 84 d0 bc 46 bf 55 bb bf 45 dd 3d
       0.14558291 -0.025453907 -0.0032615229 0.10804319
000280 5c df b2 bd d1 b3 0d bd 32 37 ae 3d 44 65 ca bb
       -0.08734009 -0.034595314 0.085066214 -0.0061766226
000290 ba fa fe 3c 17 73 ff 3d 56 f4 34 bc cf 65 f9 3c
       0.031125415 0.124731235 -0.011044582 0.030444054
0002a0 78 41 8e 3d 91 87 5a 3c 57 91 5a 3d e8 66 bd bd
       0.06946081 0.013337986 0.053361263 -0.092481434
0002b0 ff b7 64 bb 07 08 ed bc 9d 77 64 3d 55 b7 76 bc
       -0.003489971 -0.028934492 0.055778135 -0.015058358
0002c0 9a 97 af bd 4a 7b 29 3c 1f c2 d4 3d 09 53 60 bc
       -0.085738376 0.010344336 0.10388588 -0.013691672
0002d0 32 f5 66 3d 5f 96 dd bb a5 ed 84 bd ae 27 95 3d
       0.05638618 -0.0067623104 -0.064906396 0.07282959
0002e0 eb ae be 3d 81 f7 50 bd 76 da bb bd ae b9 8d 3d
       0.09310707 -0.051017288 -0.091725275 0.06920181
0002f0 dc 9c 19 bd 99 56 e1 bd 17 27 11 3e 0c 50 87 3c
       -0.03750311 -0.11002845 0.14175068 0.016517662
000300 13 10 e0 bd 32 93 0e 3d 4c 83 fc bd 88 e8 94 ba
       -0.10940566 0.034808345 -0.123297304 -0.0011360804
000310 ce a4 d2 3d 16 b6 81 3c 2b 19 80 bd 92 c8 5b 3d
       0.1028534 0.015833896 -0.062548004 0.053658076
000320 1a f1 dc bd 70 b6 3c bd 74 8f e9 3d 0e 3e 1a bd
       -0.10788174 -0.046072423 0.11404315 -0.037656836
000330 7e a6 4a 3d f5 9b 0e bc b9 cc 02 bd 2c 93 fb 3c
       0.049475186 -0.008704175 -0.03193352 0.030709825
000340 35 a6 ea 3c c7 1e cd bd 3c ee 8b 3d ec 0a 85 bc
       0.028643707 -0.10015636 0.06832549 -0.01624056
000350 88 9e 5a bc 68 68 8b bd 5c c4 0c bd 7f bc 08 bd
       -0.013343461 -0.06807023 -0.03436695 -0.03338289
000360 18 9d e0 ba fb 47 54 3d b6 70 4a 3d ca d2 ad bd
       -0.0017136661 0.05182646 0.049423896 -0.084874704
000370 40 93 48 3c f4 19 b6 bc 25 c5 99 bd fb 3b b8 3d
       0.012242138 -0.022229172 -0.075083055 0.08995815
000380 d8 64 9a bc bb b1 6a 3d 72 de 82 bd 09 c4 71 bc
       -0.018846914 0.057298403 -0.06390084 -0.014756211
000390 39 1b 1f 3e 51 3f 72 bd ad da 03 be f4 c6 3d bd
       0.15537728 -0.059142414 -0.12876387 -0.046332315
0003a0 ea 88 ea bc 8f f3 5d bd 75 03 ca bd 09 6a 14 3e
       -0.028629739 -0.054187354 -0.098639406 0.14493574
0003b0 5f 64 ae 3c 0f 14 c5 bd 4f fa 6b bd bf 0d 89 3c
       0.021288095 -0.096229665 -0.05761176 0.016730187
0003c0 f7 78 30 bd 72 ec 25 3d 12 f2 35 bd 66 f4 ed 3c
       -0.04308411 0.040508695 -0.04442031 0.029047202
0003d0 58 61 b9 3c 55 2b f3 bd 24 f3 c8 3d 93 02 b4 3d
       0.022629425 -0.11873499 0.098120004 0.087895535
0003e0 0d 1c 04 bd e8 2c 87 3c fe 53 76 3d a4 ac ae bd
       -0.032253314 0.016500905 0.060138695 -0.08529022
0003f0 ba d4 0f bc f4 69 54 3d ef 4b 8d bd f4 53 11 3e
       -0.008778745 0.051858857 -0.06899249 0.14192182

bias_hh_l0 f4 [512]
000000 41 3c 98 3e df 96 5f 3e 59 46 4c 3c b4 52 16 3e
       0.2973347 0.21834897 0.012467944 0.14679986
000010 58 c0 f1 3d 8e 5c 68 3d 71 46 95 3d 70 c5 69 3d
       0.11804265 0.056728892 0.07288826 0.057073057
000020 c9 3a 4d 3d 9b 6b 04 3e 12 b2 bc 3d f9 f7 88 3e
       0.05010489 0.12931673 0.09213652 0.26751688
000030 cd e8 18 3e 5e 5e 27 3e a2 bf 76 3d 4f ca 1e bb
       0.14932556 0.16344592 0.06024135 -0.0024229472
000040 24 25 4b bc 83 d3 6b 3e 3d 1b 86 3e 47 c3 7f 3c
       -0.012398992 0.23029904 0.26192656 0.015610523
000050 a2 04 31 3e 0f 6e 1f 3e 9e a7 94 3d 71 eb 42 3c
       0.17286924 0.15569328 0.07258533 0.011896954
000060 5d 66 dc 3d 73 77 df 3d 9c f4 52 3d ff c4 b3 3d
       0.10761712 0.10911455 0.05150281 0.087778084
000070 bf 50 c3 3d 08 7a 54 3c a0 cb 4b 3e dc c8 fc 3c
       0.095368855 0.012968548 0.19901896 0.030857496
000080 f0 ad b1 3d db e0 ae 3d ed ce 2b 3e d9 eb 9c bc
       0.08675754 0.085389815 0.16778155 -0.01915543
000090 cd db c9 3d 81 f0 f3 3c 5d 57 8a 3d a5 76 07 3d
       0.09856377 0.029777767 0.067549445 0.033072133
0000a0 76 49 4c bc ad bd 8d 3c f2 26 25 3e fd 78 19 3e
       -0.012468686 0.017302359 0.16128138 0.1498756
0000b0 25 3a 2f bc 2c 75 ae 3d 28 7b 21 3e 12 f3 99 3c
       -0.010695015 0.085184425 0.15769637 0.018792663
0000c0 4d da 27 3d 23 db 35 3e 9a a7 18 3d 7c 69 4d 3d
       0.040979672 0.17759375 0.037269212 0.050149426
0000d0 6d 57 06 3e 71 a5 42 3d 07 93 d8 3d 78 b1 eb 3c
       0.13119288 0.04752106 0.10574918 0.028771147
0000e0 98 13 f5 3d b1 21 11 3e 01 30 5b 3e eb 97 0a bd
       0.11966628 0.14173009 0.21405031 -0.033836287
0000f0 ad b6 1f bb 90 a6 5d 3d 35 46 22 bd cb b6 01 3e
       -0.0024370358 0.054113925 -0.039617736 0.12667386
000100 7d 06 02 3d 9b c3 c1 3d 1f 09 19 3e 02 38 08 3e
       0.03174447 0.09461137 0.14944886 0.13302615
000110 6a 09 a3 3d 22 8e c1 3d 91 1e db 3d 7e 64 11 3e
       0.0796078 0.09450938 0.106991895 0.14198491
000120 d0 b2 65 3e c9 c3 00 3e 41 d0 d2 bc 32 65 fb 3d
       0.22431493 0.12574686 -0.025734069 0.12275161
000130 ff 38 90 3d 0f eb 97 3d 68 56 de 3c 1f 18 53 3d
       0.07042121 0.07417881 0.027140811 0.051536676
000140 bb 57 ba 3d 99 87 e2 3d e2 8e 4e bc a9 55 f5 3d
       0.090987645 0.110610195 -0.012607308 0.11979229
000150 a9 74 bf 3d 9a 6f b5 3d bc 91 74 3d c8 50 2b 3e
       0.09348423 0.08859177 0.059709296 0.16730034
000160 6e dc 26 3e 12 bd 65 3d 17 0b 46 bd 0c 80 31 3e
       0.16295025 0.056088515 -0.04835042 0.17334002
000170 50 96 a4 3d b3 d1 a3 3d 21 fa 39 3d 06 d0 71 ba
       0.08036482 0.07998981 0.045404557 -0.00092244183
000180 f0 c0 06 3d 25 c3 1d 3e a3 56 e5 3d 49 d9 2f 3e
       0.032898843 0.15406473 0.11198165 0.17172731
000190 fe 83 8d 3d 62 b4 62 3e ba f6 d9 3d 3c a8 6e 3d
       0.06909941 0.22139123 0.106427625 0.05826591
0001a0 38 b0 1e 3e a6 13 83 3e 9b b9 41 3e 59 80 7d bc
       0.1549691 0.25600928 0.18918459 -0.015472495
0001b0 61 36 e8 3c a2 2a 3b 3e dc c2 7e 3c 62 f7 b5 3d
       0.028346242 0.18277982 0.015549388 0.08885075
0001c0 41 34 5b 3e 39 14 75 3d f0 fd 22 3d 54 d3 0c 3d
       0.21406652 0.05983374 0.039792955 0.034381226
0001d0 cb 93 3d 3d f5 c0 3d 3e 05 d2 9e 3d 29 49 e1 3d
       0.046283524 0.18530639 0.07754902 0.11000282
0001e0 0e d6 4c 3e b2 11 2b 3e 6f ab 02 3e cb d1 60 3d
       0.2000353 0.16705969 0.12760709 0.054887574
0001f0 8a b9 5b 3e 27 86 0f 3c 3f 66 c0 3d 41 cc 42 3d
       0.21457496 0.008760012 0.09394502 0.047558073
000200 63 64 7a 3d e4 9b d5 bc bf b2 af 3d 9e 44 33 3d
       0.061130892 -0.026075311 0.08579015 0.04376661
000210 b0 0b 58 bd c2 50 a6 3d bc 22 08 be 35 1d a0 bd
       -0.05274552 0.08120872 -0.132945 -0.07818071
000220 22 09 61 3d c4 00 d8 bd e7 de ff bd 3e bb 6c 3a
       0.05494035 -0.10547021 -0.12493687 0.0009030587
000230 1d cb 16 3c 25 7c 83 3c d7 7c d9 bd 14 83 b3 3c
       0.009203699 0.016050408 -0.106195144 0.021913089
000240 02 25 4b 3d 03 5c 7c 3c a8 cd 38 be 37 6b f6 3c
       0.04959584 0.015402797 -0.18047202 0.03008042
000250 a0 12 04 bd 4b c4 bc 3d a6 d0 bc bc b4 79 ec 3d
       -0.032244325 0.092171274 -0.02304871 0.115466505
000260 94 eb b2 bc a3 a6 18 3b 92 71 2e bd c4 e5 d1 3d
       -0.021840848 0.0023292683 -0.042588778 0.102489024
000270 60 7e 09 3e 74 76 ba 3c 91 8c 82 bd 0c da 04 3c
       0.13427114 0.022761561 -0.06374467 0.008108627
000280 5c c1 88 bc 22 08 32 bd 5c 50 91 3d da 7c 19 3e
       -0.016693763 -0.043464787 0.070954055 0.14989033
000290 be a3 8b 3b c9 25 be 3b c9 ea 34 3d c2 54 2d bd
       0.004261463 0.005802844 0.04416922 -0.04231716
0002a0 16 a0 67 3d 01 24 d3 3d a2 62 7a 3d 6c 3b 12 be
       0.056549154 0.103096016 0.06112922 -0.1428048
0002b0 ed 1d cd bd b6 ff bd 3c e0 3f 16 bd 6c 1b 66 3c
       -0.100154735 0.023193222 -0.03668201 0.014044624
0002c0 d5 56 47 bc 30 3d e8 3d 58 55 02 3e cb 09 0e bd
       -0.012166698 0.113397956 0.12727869 -0.034677308
0002d0 c1 e2 da 3d 50 b2 a4 bb 5a 05 b4 bd c1 9f 7e 3a
       0.10687781 -0.0050261393 -0.08790083 0.0009713136
0002e0 a7 da 6a 3b 99 ef 39 bd 38 3f b9 3c 53 b7 0b 3d
       0.0035835893 -0.045394514 0.022613153 0.03411038
0002f0 53 97 8e 3b 06 90 ea bd f2 b4 f0 3d 90 4e 0a 3d
       0.0043515353 -0.114532515 0.117532626 0.03376633
000300 1c 20 80 bd 48 60 f5 3c 1a 83 93 bd a6 fd 0f be
       -0.062561244 0.029953137 -0.0720274 -0.14061603
000310 b5 7f c3 3d 83 7a aa 3d 1d c7 ab bd 13 0e ef 3d
       0.095458426 0.083241485 -0.08387587 0.11672606
000320 86 4b df bd c5 48 db bd ba 8f 97 3d 06 4a 64 bd
       -0.10903077 -0.10707239 0.074004605 -0.055734657
000330 df 01 c3 3d e2 56 25 bd cc fb ab bc f7 be 96 3d
       0.09521841 -0.04036606 -0.02099409 0.073606424
000340 8d 28 eb 3d 48 52 a5 bc 79 da 6f 3d c2 02 d6 bc
       0.11482344 -0.020180836 0.05855796 -0.026124362
000350 3b dd f1 3d ba 52 bb 3d 70 ac 74 bc 4f 59 de bc
       0.118097745 0.09146638 -0.01493369 -0.027142195
000360 71 08 d5 bd b8 72 bc bc d9 6c c0 3d de f4 11 bd
       -0.10402001 -0.02300392 0.09395761 -0.035633914
000370 e0 8e 37 bd b6 4d 82 3c ba 5d ae 3d 6c f7 62 3c
       -0.04481399 0.015906196 0.08513971 0.013852935
000380 ca eb 8e 3c 85 1c ef 3b fe 89 ef bd 3b 6e 05 be
       0.017446417 0.007297101 -0.11696242 -0.13030331
000390 2d 37 00 3e 0b ce 9d 3c af 1c 80 bd 50 d4 c9 3c
       0.12521048 0.019263288 -0.06255471 0.024637371
0003a0 d1 5c dd bc d0 a8 82 bd aa 8a 26 be fb d4 f9 3d
       -0.027021797 -0.06379855 -0.16263834 0.12198826
0003b0 c0 cc 1c 3e 2d 99 1d bd 54 a0 54 bd 17 a1 54 bc
       0.15312481 -0.038476158 -0.051910713 -0.01297786
0003c0 b4 7e 64 bd 99 49 2f 3d aa 58 1d 3c e7 c8 a5 3c
       -0.055784896 0.042794798 0.009603659 0.0202374
0003d0 e1 7e 11 3e 3c 08 0c be b8 76 53 3d 2b f6 1d 3d
       0.14208557 -0.13675016 0.05162689 0.038564842
0003e0 6e bc 1f 3c eb 73 cc 3c 9d 78 86 3d ea 4d 2b 3c
       0.009749515 0.024957618 0.06565974 0.010455588
0003f0 37 61 1f 3c 57 09 c9 3c fe 03 e4 bd b8 1f 07 3e
       0.009727768 0.024540586 -0.11133574 0.13195693

weight f4 [28, 128]
000000 c8 78 91 be c4 71 ae bd c5 2f 0c 3e 18 f2 8c 3e
       -0.2841246 -0.08517793 0.13690098 0.27528453
000010 b3 de 81 3b 95 bd 98 3d 7d 78 f2 bd e2 e7 83 bd
       0.0039633154 0.07458035 -0.118393876 -0.064407125
000020 12 09 2b bd 07 28 8b 3e be 8c 34 3e 89 9d 91 bd
       -0.041756697 0.27178976 0.17631814 -0.071101256
000030 a2 87 43 be d3 4a 87 be 8b 48 9b 3e a7 18 dd bd
       -0.19094709 -0.26424274 0.30328783 -0.10795718
000040 bb 90 5c 3e b9 c1 a8 be f6 63 8f be e1 3a 80 bc
       0.21539585 -0.329603 -0.28005952 -0.015653076
000050 f0 b3 1a 3e ee b1 51 3e 18 71 c2 bd dd bd 6d 3d
       0.15107703 0.20478031 -0.09494227 0.058042396
000060 c7 60 d7 bd a4 fe 7b 3d a1 3d 09 be ff 0e 37 3e
       -0.10516506 0.06152214 -0.13402416 0.17876814
000070 47 2b 12 3d ba 55 ad bd 0e 9e 8e bd f4 79 b7 bd
       0.035685804 -0.08463617 -0.0696374 -0.089588076
000080 67 57 0e be f6 1c c0 bd 31 df 5d be 3d 37 36 be
       -0.13900529 -0.09380524 -0.21667172 -0.17794509
000090 3d c3 10 3e 0c 07 69 bd c2 cf a9 3c ef 67 a5 bc
       0.14136977 -0.056891486 0.02072895 -0.020191161
0000a0 f3 a7 82 3d 63 83 2b bd dd c5 1a be ed d6 57 3e
       0.0637969 -0.041873347 -0.15114541 0.21078081
0000b0 82 39 83 be ce 44 19 bd 6a 70 b9 be ca 24 0f be
       -0.25629812 -0.037419133 -0.36218578 -0.13978878
0000c0 76 16 5a 3e 4a 82 34 3c ea a3 1c 3e 47 b6 a4 3d
       0.2129763 0.011017391 0.15296903 0.08042579
0000d0 d0 cd c4 bc f5 d9 30 be 1f c0 71 3e 3e 8f 22 3d
       -0.02402392 -0.17270644 0.23608445 0.039687388
0000e0 3c 87 81 bd 6c e7 44 be 98 f3 bd bd ef 85 4f be
       -0.06324622 -0.19228905 -0.092749774 -0.20265935
0000f0 17 35 02 3d c3 59 79 3d f0 ad 75 3c 9d ad fa b9
       0.03178891 0.06087662 0.014995083 -0.00047813068
000100 5e f3 e9 3d 70 fe 79 3d 51 48 f0 3d cb 9a 01 be
       0.11423372 0.061033666 0.11732543 -0.12656705
000110 cd e3 f9 bd 6a 96 df bd e7 eb aa 3e 58 23 bb bb
       -0.12201653 -0.10917361 0.33383104 -0.0057110004
000120 03 4f 1d 3c fd 2d 8a bd 9c 2f 58 3d 65 db 6c be
       0.009601357 -0.06747053 0.05277978 -0.23130567
000130 45 47 89 3d 54 a8 dc bc db 41 22 be 21 95 19 3e
       0.06703047 -0.026935734 -0.15845434 0.14998294
000140 4f f7 04 3e e2 c6 b9 3d e2 97 6f bc a0 5b e2 3d
       0.12984966 0.09071137 -0.014623614 0.11052632
000150 c9 24 1f bc 3f e6 81 3e f2 52 37 3d 90 a1 b4 bd
       -0.00971336 0.25370976 0.044756837 -0.08819878
000160 3a b3 1d 3e 8d 73 7e bd 5c 5d c3 bd e6 ce 2e 3e
       0.15400401 -0.062121917 -0.09539291 0.17071113
000170 38 34 68 3d e2 8b 66 be 39 06 60 3e 7d 47 95 3d
       0.056690425 -0.22514299 0.21877374 0.07289026
000180 6f ed 80 3e c5 5d e7 bd 86 6d fc 3d 48 5c 40 3e
       0.25181147 -0.11297182 0.123255774 0.18785203
000190 60 f7 16 3d 6e 08 1d be dd 92 ae 3e 6c f9 88 3e
       0.03685701 -0.15335247 0.34096423 0.26752794
0001a0 cf f9 2f 3e b7 17 a7 be d4 aa d4 3d 02 8c a5 bd
       0.17185138 -0.3263528 0.103841454 -0.08083345
0001b0 13 28 4b 3e 13 8b 5b 3e 22 38 09 3d b6 a7 79 be
       0.19839506 0.21439771 0.033500798 -0.24380383
0001c0 82 74 91 be 15 03 43 3e a5 87 50 bd 05 a8 13 bd
       -0.284092 0.19044144 -0.05091061 -0.036048908
0001d0 85 43 3b 3d 1f 3f 1c 3e 2e 5b 4b bd 0c f0 08 3d
       0.04571869 0.15258454 -0.049647503 0.03343205
0001e0 2f e5 86 be 19 6c 76 3d 72 0c c4 3d 40 da 8a 3c
       -0.26346728 0.060161684 0.09572686 0.016949773
0001f0 b7 ef 3c 3e 52 e1 2c be 03 2b ac be 7c d9 b2 b9
       0.18450819 -0.16882828 -0.33626565 -0.00034112844
000200 41 f7 62 3e 8a 22 27 bb ea 62 a3 be cb eb 93 bc
       0.22164632 -0.0025502765 -0.31911403 -0.01805677
000210 01 b8 d9 3d 40 1d ee bb 7a a1 50 be 10 a7 99 bd
       0.10630799 -0.0072666705 -0.20374098 -0.07502568
000220 58 fa 51 bd c7 3d b6 bd 66 57 1e 3e f7 81 6b 3d
       -0.051264137 -0.08898502 0.15463027 0.05749699
000230 64 67 5c bd 7f 8f 54 3d 26 dd a7 bc 8e 1a b0 bd
       -0.05380954 0.05189466 -0.020491194 -0.08598815
000240 25 fa 01 3e 24 8f 62 3e 0d 5f 90 3e 6c a4 51 3e
       0.12693079 0.22124916 0.28197518 0.20472878
000250 fb 19 4a 3e fa bf 62 be 1d af da 3d a2 89 6a bc
       0.19736473 -0.22143546 0.106779315 -0.014315041
000260 9c a1 c7 3b 61 56 db 3c fd b3 d4 3d 05 d0 aa 3c
       0.0060922634 0.026774587 0.103858925 0.020851145
000270 4b ba a2 bc aa 6e e7 bd 95 57 2d bd 60 29 6b 3d
       -0.019864222 -0.11300404 -0.042319853 0.057412505
000280 e1 c9 02 3d 25 73 14 3c 95 e9 1d be a7 6e 98 bd
       0.031930808 0.009060656 -0.15421136 -0.0744298
000290 65 b4 d6 3d cc 8b e9 bd 8c 2a 83 3a 35 07 7b 3e
       0.10483626 -0.11403617 0.0010007187 0.24514468
0002a0 36 27 47 be d6 d9 d7 3d 2d 90 79 bd 96 87 03 bd
       -0.19448552 0.10539596 -0.060928512 -0.032111727
0002b0 e0 25 69 3e aa ff fd bd 7a 25 4f 3d 1c 34 35 3e
       0.22768354 -0.1240228 0.05057285 0.1769566
0002c0 18 d1 b5 be 5b 98 6c 3e 38 51 df bd 38 cd eb 3d
       -0.35511088 0.23104994 -0.10904163 0.11513752
0002d0 50 c7 d4 3d a3 31 68 bd f2 7c 0e 3e 73 af 44 be
       0.10389578 -0.056687962 0.1391485 -0.19207554
0002e0 6d 6e d5 3e bf 49 0b 3e 53 97 06 bd c4 42 46 bd
       0.4168581 0.1360235 -0.032859158 -0.048403516
0002f0 89 bc e9 3c fd 1d b9 3c 97 c4 92 bd 6d d5 e6 bd
       0.028532283 0.022597307 -0.07166403 -0.112711765
000300 79 10 a1 bd fd 83 35 bd 29 35 64 be 6d 66 f0 bd
       -0.0786447 -0.044315327 -0.22285904 -0.11738286
000310 b9 67 a7 bc 1d 2c 97 3d 8c 2b 05 be 1c e3 d5 bc
       -0.020435201 0.07381461 -0.13004893 -0.02610927
000320 ff fd 8c 3e 0f 08 67 be 9d 5f 1e 3e 5e bc 44 3e
       0.27537534 -0.22561668 0.15466161 0.19212481
000330 df 9d 69 3e 83 4b f6 3d 5f 0f 1b 3d 48 78 11 be
       0.2281413 0.120261215 0.037856456 -0.1420604
000340 c3 9f 03 3d 27 0a ca 3d 1d 5a f2 bd 25 c7 49 be
       0.032134783 0.09865218 -0.11833594 -0.19704874
000350 0b 72 57 3e f6 5b 84 3e 17 5f f4 3d 06 d0 9f be
       0.21039598 0.2585141 0.119321994 -0.31213397
000360 68 2a 1c 3e b6 26 66 be ac a1 4c 3d e8 13 c0 bc
       0.15250552 -0.22475705 0.04995887 -0.023446992
000370 cd 48 6b be 54 92 4d 3e d5 0a 11 3d 62 82 07 3e
       -0.2297699 0.20075351 0.03541072 0.13233331
000380 65 eb 9e 3d e2 f6 2b bd bd 80 b0 be 92 57 17 3e
       0.07759742 -0.041983493 -0.3447322 0.14779499
000390 d8 bd bc 3b 88 33 80 3e 8c aa 4b be ab 8a 63 be
       0.005759936 0.25039315 -0.19889277 -0.22220866
0003a0 37 f6 35 3e 92 83 34 3d 6d 8d a6 bc 74 ca 21 ba
       0.17769705 0.044070788 -0.020331109 -0.00061718305
0003b0 a2 22 26 be 69 e3 2b be a0 c1 d1 be 71 14 13 3e
       -0.16224149 -0.16785969 -0.40968037 0.14363267
0003c0 8b ae 98 bd 4d f1 05 be 12 e8 91 3e ac 65 85 3d
       -0.074551664 -0.1308033 0.28497368 0.06513533
0003d0 46 bd 53 bd 0c 3f c5 3d 76 95 0c 3d f4 a0 75 3c
       -0.051694177 0.09631166 0.034322225 0.0149919875
0003e0 40 b3 9f be 65 49 a2 3d 43 e0 52 be 74 0a 24 3e
       -0.31191444 0.07924155 -0.20593362 0.16019613
0003f0 8b 67 a7 bd 85 d4 c6 3d e3 f0 78 be fa 41 03 3d
       -0.08174046 0.09708504 -0.24310641 0.032045342

bias f4 [28]
000000 64 0f a5 3d 17 24 f1 bd 9e b8 62 bc 58 f0 98 bd
       0.08059576 -0.11774462 -0.0138379615 -0.07467717
000010 83 d4 82 3c 04 88 d5 b9 31 38 25 bc c3 84 d1 3b
       0.015970474 -0.00040727865 -0.010084198 0.0063940003
000020 15 ee b2 3d 7b 59 64 bd f1 76 5b bc d0 0e 2e 3d
       0.08736817 -0.055749398 -0.013395057 0.042494595
000030 d7 08 3e bd 06 54 ac 3d 30 14 e5 3d 7f c4 8d 3d
       -0.04639515 0.08414464 0.11185491 0.06922244
000040 bd f0 c9 bd 9d db 46 bd ba 46 88 3d fc 00 f0 3d
       -0.0986037 -0.048549283 0.06654115 0.11718938
000050 c2 7d 26 3d a6 e4 f3 bd 76 e2 97 bc 69 9f 0a be
       0.040647276 -0.119088456 -0.018540602 -0.13537373
000060 a8 8f c3 bd 32 13 5c bd 0e 76 7c bd ce 92 eb bc
       -0.09548885 -0.053729244 -0.061636023 -0.028756525
