models/ESEN_60-40/ESEN_60-40_8_threshold_train_33.pt (torch, 353807 bytes, 7 tensors)

weight f4 [29, 32]
0	0xc001f6a8	-2.0306797
1	0x3fa59ba2	1.293812
2	0x3f6be906	0.9215244
3	0xbf036699	-0.51328427
4	0xbc937379	-0.017999398
5	0xbc956008	-0.018234268
6	0xbe8e4f42	-0.27794844
7	0x3ef49925	0.4777309
8	0xbf0fda63	-0.56192607
9	0xbf32da5a	-0.6986443
10	0x3d8caaff	0.068685524
11	0x3d8f0809	0.069839545
12	0xbf1a6128	-0.603045
13	0xbea9d36d	-0.33169118
14	0x3e28d630	0.16487956
15	0xbf170b49	-0.59001595
16	0xbfa29352	-1.2701209
17	0xbfaab6e5	-1.3337065
18	0x3e0d945a	0.13826123
19	0x3f673ca0	0.9032688
20	0xbe38e57d	-0.18056293
21	0x3f2cf002	0.6755372
22	0xc0108da6	-2.2586455
23	0x3edd7f14	0.43261015
24	0x3fa0eadd	1.2571675
25	0x3fc3dedb	1.5302385
26	0xbe507c08	-0.20359814
27	0xc02cfd0f	-2.7029455
28	0x3e9918dd	0.29901782
29	0x3f109f89	0.5649343
30	0xbef3d188	-0.47620797
31	0x3e93a163	0.28834066
32	0x3fdac57d	1.7091519
33	0x3fa2790b	1.2693189
34	0x3e1fab66	0.15592727
35	0xbedbf620	-0.42961216
36	0x3f8d89fc	1.1057734
37	0xbf028907	-0.5099034
38	0x3f9e5b56	1.2371624
39	0x405257de	3.286613
40	0x3ff72a53	1.9309791
41	0x3f8587fb	1.0432123
42	0xbf03a991	-0.5143061
43	0x3e885b81	0.26632312
44	0x3d8d37fe	0.06895445
45	0x3faa58eb	1.3308386
46	0xbf26d7a8	-0.65172815
47	0xbfbed886	-1.4909828
48	0xbfb4bbc2	-1.4119799
49	0x3f4bb6f3	0.79576033
50	0xbfd42cd5	-1.6576182
51	0x3e2349ad	0.15946074
52	0x3f92f45d	1.1480824
53	0x3f53bd6b	0.82710904
54	0xbfa9de1b	-1.3270906
55	0xbe8a36af	-0.26994845
56	0x3e247f64	0.1606422
57	0xbf0d267a	-0.55136836
58	0x3f877eaa	1.058553
59	0xbf3cec4b	-0.73798054
60	0xbfd80ba3	-1.6878551
61	0xbfa33956	-1.2751873
62	0xbf7b04cc	-0.98054194
63	0xbc87b45a	-0.01656549
64	0xbdc8970a	-0.097944334
65	0xbfad0ec6	-1.3520133
66	0xbeccfa2c	-0.40034616
67	0x3f4bf580	0.7967148
68	0x3f7b6251	0.98196894
69	0xbeb6c98c	-0.35700643
70	0xc01cd36e	-2.4504046
71	0xbeb255f9	-0.34831217
72	0x3fec60b7	1.8467015
73	0x3e2cf43e	0.16890046
74	0x3f9c10b6	1.21926
75	0x3fa07cdf	1.2538108
76	0xbfb2f910	-1.3982258
77	0xbd87aa62	-0.06624295
78	0x3be419df	0.006961092
79	0xbf702c6c	-0.9381778
80	0xbcfbef88	-0.030753866
81	0x4009a892	2.1509137
82	0x3dc114b8	0.0942778
83	0x3d2ef2ed	0.04271214
84	0xbf699ce9	-0.9125505
85	0xbfc1a0c6	-1.5127189
86	0xbd3985b9	-0.045293543
87	0xbf892832	-1.0715392
88	0xbf3cc867	-0.7374329
89	0x3e2126ae	0.15737411
90	0xbf7f380b	-0.9969489
91	0xbf48084c	-0.7813766
92	0x3f120ee7	0.5705399
93	0x3fe8feaf	1.8202723
94	0x3f55395e	0.8329066
95	0x3ebdb752	0.37053925
96	0xbe451293	-0.19245367
97	0x3f6772ea	0.9040972
98	0xbfa4124b	-1.2818083
99	0xbf94fdfa	-1.1640007
100	0x3f87adcc	1.0599914
101	0x3f226117	0.634294
102	0xbf2c5aa9	-0.67325836
103	0xbe1cc6ff	-0.15310286
104	0x3f8f86ad	1.1212975
105	0xbcc016d0	-0.023448378
106	0x3ce05863	0.027385896
107	0xbf6cd8bd	-0.92518216
108	0xbe61e1a1	-0.22058727
109	0x3f3c359d	0.7351931
110	0xbe2d096e	-0.16898128
111	0xbfc845e8	-1.5646334
112	0xbf13f8b6	-0.5780138
113	0xbf1b5731	-0.6067992
114	0x3c14e5d1	0.009087996
115	0xbf82f846	-1.0232017
116	0x3ff8cfe5	1.9438444
117	0x3e8e4f39	0.27794817
118	0x3ffd660c	1.9796767
119	0xc01d0e8d	-2.454013
120	0x3ea1d484	0.3160745
121	0xc028b1ad	-2.6358445
122	0x3ecd24e4	0.40067208
123	0x3ea380a3	0.3193408
124	0x3fcf4ad9	1.6194717
125	0x3e40cef8	0.18828952
126	0xc0089ed0	-2.1346931
127	0x3f8fdfbd	1.1240155
128	0x3e9379db	0.28803906
129	0x3fbd2985	1.4778296
130	0x3d9239f7	0.07139962
131	0x3f0180e4	0.50587296
132	0x4011a163	2.2754753
133	0xbf337a13	-0.70108145
134	0xc008959b	-2.1341312
135	0xbeaee038	-0.3415544
136	0xbf14d610	-0.58139133
137	0x3e2ecaca	0.17069545
138	0x3f9a8b60	1.2073784
139	0x3f978a79	1.1839134
140	0x3ea6628d	0.32497063
141	0xbf7b4085	-0.98145324
142	0x3f868639	1.0509712
143	0xbf8b0754	-1.0861611
144	0x3ee2b124	0.44275773
145	0xbfa097cc	-1.2546325
146	0x3f4fa81c	0.8111589
147	0x3fbb7e1b	1.4647859
148	0xbf12272a	-0.5709101
149	0x3ff66699	1.925006
150	0xbf857d86	-1.0428932
151	0xbd358df0	-0.044324815
152	0x3f0256ac	0.509135
153	0x3ed3924e	0.4132256
154	0x3c8c2c4a	0.017110962
155	0x3fa9a247	1.3252648
156	0x3ea423f3	0.32058677
157	0x3faa2cd9	1.3294936
158	0xbfdf586c	-1.7448859
159	0xbf17d234	-0.5930512
160	0xbf54c0aa	-0.8310648
161	0x3e93d7f6	0.28875703
162	0xbfd70c71	-1.6800672
163	0xbfab0828	-1.3361864
164	0x3c89292e	0.016743269
165	0xbf29b315	-0.6628888
166	0xbe837499	-0.25674894
167	0x3fa1b892	1.2634451
168	0x3fa488c2	1.2854235
169	0x3f84551c	1.0338473
170	0xbffc2bc0	-1.9700851
171	0x3f97c266	1.1856201
172	0x3f2903b9	0.66021305
173	0xbedf5a65	-0.43623653
174	0xbef9455c	-0.4868573
175	0xbfb32dd9	-1.3998367
176	0x3ff244c6	1.8927238
177	0xbf13dfe9	-0.57763535
178	0x3f9dc975	1.2327105
179	0xbe8d3d8b	-0.27586016
180	0xbfbe1e8c	-1.4853072
181	0xbe084c9a	-0.13310471
182	0xbf589da2	-0.8461553
183	0xbea79d7a	-0.32737333
184	0x3fd62834	1.6731019
185	0xbe741529	-0.23836197
186	0x3fd02b63	1.626324
187	0x3ea5837b	0.32326874
188	0x3fd559d0	1.6668034
189	0xbf92ccbe	-1.1468732
190	0x3fdee14c	1.7412505
191	0x4014e590	2.3265114
192	0xbf9b24e1	-1.212063
193	0x405bad8a	3.432467
194	0xbc9ac8bd	-0.018894548
195	0x4021cc56	2.5280967
196	0x3e939e90	0.2883191
197	0xbfa7df23	-1.3114971
198	0x3f705b06	0.9388889
199	0x3e95aacf	0.2923188
200	0xbef77f33	-0.48339233
201	0xbd2f4fc7	-0.04280069
202	0xbfd9af7a	-1.7006676
203	0x3f04abf9	0.5182491
204	0xbf6e130d	-0.9299782
205	0xbf0785ae	-0.52938354
206	0xbe105492	-0.14094761
207	0xbe164b9b	-0.14677279
208	0x3fc4e054	1.538096
209	0x3ff11bcc	1.8836608
210	0xbec24247	-0.3794119
211	0xbfc429be	-1.5325239
212	0xbf59fd91	-0.85152537
213	0xbd47e920	-0.04880631
214	0x3fedf707	1.8591012
215	0xbf8e39ed	-1.1111428
216	0x3e912cfd	0.28354636
217	0xbf6b0516	-0.91804636
218	0x3f8424b1	1.0323697
219	0xbfbc1a67	-1.4695557
220	0x3e2964ef	0.1654241
221	0x3fa804f0	1.3126507
222	0xbf06966c	-0.52573276
223	0x3f8a54c9	1.0807124
224	0xc028adb8	-2.635603
225	0x3f7a261d	0.97714406
226	0xc024edb9	-2.5770094
227	0x3e7d60f0	0.2474401
228	0xbeaa8369	-0.33303383
229	0xbfc535ef	-1.5407084
230	0x400280a5	2.0391018
231	0x3f936844	1.1516194
232	0x3ee403a5	0.4453403
233	0xbf75c90a	-0.96009886
234	0x3f9e27ce	1.2355897
235	0xbf18b31b	-0.59648293
236	0x3f047ca8	0.5175271
237	0x3fdd1fa9	1.7275287
238	0x3f4839ea	0.7821337
239	0x3e6cc2f7	0.23121248
240	0x3f5c7128	0.8611016
241	0x3f670c47	0.9025311
242	0xbe89fc93	-0.2695051
243	0x3eeb163b	0.45915398
244	0x3f5ca3e3	0.8618757
245	0xbf143d29	-0.57905823
246	0xbfe0c08e	-1.7558763
247	0xbedb3f85	-0.428219
248	0x3eb3e67c	0.35136783
249	0x3fbb142f	1.4615535
250	0x3c16009a	0.009155417
251	0x3fa06717	1.253146
252	0xbfd3bbfb	-1.6541742
253	0xbf1ae2fd	-0.60502607
254	0x402c8ec8	2.6962147
255	0x3edd3786	0.43206424

weight_ih_l0 f4 [512, 32]
0	0x3e44ef37	0.19231878
1	0xbe354440	-0.17701817
2	0xbea9db56	-0.33175153
3	0x3e9b5b92	0.303433
4	0x3c8ce20f	0.017197637
5	0x3e27458d	0.16335125
6	0x3e2c7e9b	0.16845171
7	0xbe3fb988	-0.18723118
8	0xbc870768	-0.016483024
9	0x3e47a248	0.19495499
10	0xbd82a164	-0.06378439
11	0x3da05cec	0.078302234
12	0xbe04fad4	-0.12986308
13	0xbe3dc9f3	-0.18534069
14	0x3da8d50b	0.0824376
15	0xbd14602b	-0.036224525
16	0x3c7f2344	0.015572373
17	0x3e8563cc	0.260527
18	0x3c43a8a3	0.011942062
19	0x3c975113	0.018471276
20	0x3db4ad2c	0.088220924
21	0x3c23cb18	0.009997152
22	0x3c73a14c	0.014869999
23	0xbdf5708a	-0.11984356
24	0xbde3fb5d	-0.11131928
25	0x3c849dda	0.01618855
26	0xbe7d0db7	-0.24712263
27	0x3e39d9ac	0.18149441
28	0x3c905506	0.017618667
29	0x3e21bb38	0.15794075
30	0xbdc99da5	-0.098445214
31	0xbc7cc1ea	-0.015427092
32	0xbc5f8016	-0.013641378
33	0xbe8c7f69	-0.27440956
34	0xbd63ae6b	-0.05558626
35	0xbe86d389	-0.26333264
36	0xbd5c755d	-0.053822864
37	0x3e9e992f	0.30976245
38	0xbe8a51d2	-0.2701555
39	0xbe7e8e67	-0.2485901
40	0xbeb43624	-0.35197556
41	0xbea72965	-0.3264877
42	0xbcd851fa	-0.026406277
43	0x3e726b91	0.23673846
44	0x3e4474fe	0.19185254
45	0xbe07e9f7	-0.13272844
46	0x3cc7dbbd	0.024396772
47	0x3de652c9	0.11246259
48	0xbe43c51e	-0.19118163
49	0xbecd67c9	-0.40118244
50	0x3eb3ca0d	0.3511509
51	0xbe3c5227	-0.18390714
52	0xbdfa79d7	-0.1223027
53	0x3e004c86	0.12529191
54	0x3db6075f	0.08888125
55	0xbe02252e	-0.12709495
56	0xbef3998c	-0.47578084
57	0x3ebb503c	0.3658465
58	0x3e8c3156	0.2738139
59	0xbe2136b5	-0.15743525
60	0x3e5b81b2	0.21436194
61	0x3dc39ce0	0.09551406
62	0x3e140e3c	0.14458555
63	0xbe56b691	-0.20968081
64	0xbdd8e092	-0.105897084
65	0x3d0aca90	0.033884585
66	0x3c2e44e0	0.010636538
67	0xbe02725b	-0.12738936
68	0xbe000281	-0.12500955
69	0x3d3d56a0	0.04622519
70	0x3e0ab7ab	0.13546626
71	0x3d9c8e3e	0.07644318
72	0x3ea910e5	0.33020702
73	0x3e31be1b	0.17357676
74	0xbdd2ea8b	-0.10298642
75	0x3e265e61	0.1624694
76	0xbdf83558	-0.121195495
77	0xbc462c71	-0.012095557
78	0x3e14bdc8	0.14525521
79	0xbe0c2b3b	-0.13688366
80	0x3dce69fc	0.10078809
81	0xbc602765	-0.013681267
82	0x3e23c917	0.15994678
83	0x3c82db60	0.015973747
84	0xbe6b3bdc	-0.22972053
85	0xbd88bbcc	-0.066764444
86	0xbe2bd399	-0.16779937
87	0xbd2e815b	-0.04260383
88	0xbd369912	-0.044579573
89	0x3e4f7a6d	0.20261545
90	0xbd7c9e96	-0.061674677
91	0xbe0f8f3b	-0.14019482
92	0x3dcbe37d	0.09955499
93	0x3d3e299a	0.046426393
94	0x3dfa6a6d	0.1222733
95	0xbe09037c	-0.13380235
96	0xbd051aea	-0.03249637
97	0x3d613aa2	0.054987557
98	0xbed1b8dd	-0.40961352
99	0x3ec1129b	0.37709507
100	0xbcf20daa	-0.029547531
101	0x3e192770	0.1495645
102	0xbeaad0d6	-0.33362454
103	0xbebfeed6	-0.37486905
104	0x3e1d5ee9	0.15368237
105	0xbdcb07c3	-0.0991359
106	0x3cc79589	0.024363296
107	0xbdfe7717	-0.12425058
108	0x3e53637f	0.20643423
109	0xbc9b114c	-0.018929146
110	0x3ea9d3f9	0.33169535
111	0x3da73bac	0.081656784
112	0x3eb324e1	0.34989074
113	0x3e16cbb9	0.14726152
114	0xbb7981b5	-0.0038071696
115	0xbdd1dec4	-0.10247567
116	0x3ddbfeaf	0.107419364
117	0x3e33e37b	0.17567246
118	0x3eaef13b	0.3416842
119	0xbe2fc8e0	-0.17166471
120	0xbe803cd6	-0.25046414
121	0xbcc25d9a	-0.023726273
122	0xbce24392	-0.02762011
123	0x3e20a515	0.15687974
124	0x3ca372d9	0.019952225
125	0x3ef16bae	0.47152466
126	0x3dac13b8	0.084021986
127	0xbd8751ab	-0.06607374
128	0xbd5c9799	-0.053855512
129	0xbdc7f6a3	-0.09763839
130	0xbd317979	-0.043328736
131	0xbe37cc27	-0.17948972
132	0xbe166e47	-0.14690505
133	0xbe4973ce	-0.19673082
134	0x3e9a3936	0.30121773
135	0x3df0afe1	0.11752296
136	0x3eab0922	0.33405405
137	0x3e87c3cc	0.2651657
138	0xbe959231	-0.29213098
139	0xbbd3e5b0	-0.00646659
140	0xbe99dbcc	-0.30050504
141	0xbd9e8ee1	-0.07742096
142	0x3d82a23d	0.06378601
143	0xbebc4545	-0.36771598
144	0xbda24789	-0.079238005
145	0x3f0e4b61	0.5558377
146	0xbd60b941	-0.054864172
147	0xbdbaf698	-0.09129065
148	0x3d9c8ca5	0.07644013
149	0xbe49e186	-0.19714937
150	0x3d18d90e	0.037316374
151	0xbe0e1b1e	-0.13877532
152	0x3d8f4183	0.06994917
153	0x3b75aba4	0.003748634
154	0xbda780c5	-0.08178858
155	0xbdee04ea	-0.11622031
156	0x3e5f520b	0.2180864
157	0x3e7d2547	0.24721251
158	0x3d6655ac	0.056234047
159	0xbe4a48f1	-0.19754387
160	0xbe258617	-0.16164432
161	0xbcdfe92c	-0.027332865
162	0xbf060b55	-0.5236104
163	0x3dab5826	0.08366422
164	0xbe617807	-0.22018443
165	0x3e4011ef	0.18756841
166	0xbce0d948	-0.027447358
167	0xbd0ca1b4	-0.0343339
168	0x3e2e71c6	0.17035589
169	0x3d65e245	0.05612399
170	0x3cbcba8f	0.023038177
171	0x3d991d43	0.07476284
172	0x3dab0c37	0.08351939
173	0xbb53cc77	-0.0032317915
174	0x3b17a622	0.0023139794
175	0x3d243fb0	0.0400998
176	0xbd88c361	-0.066778906
177	0x3e89abcc	0.26888883
178	0x3daccd96	0.0843765
179	0xbd711e86	-0.058867
180	0x3e9a23eb	0.30105528
181	0x3e30307a	0.17205992
182	0x3d7e3704	0.062064186
183	0x3cd4347d	0.025903935
184	0x3e05045d	0.12989946
185	0x3d2c3147	0.042039182
186	0x3e203976	0.1564692
187	0xbd54c6e9	-0.051947508
188	0x3d543c50	0.05181533
189	0x3e0092ba	0.12555972
190	0xbcfd9118	-0.030952975
191	0x3e20ff29	0.15722336
192	0xbcc7c875	-0.024387578
193	0x3e08aaaf	0.1334636
194	0xbd4ebce2	-0.0504731
195	0x3ca599c8	0.02021493
196	0xbe18444c	-0.14869803
197	0xbd6d0c3d	-0.057873
198	0xbe044dcf	-0.12920307
199	0x3d8e960d	0.06962214
200	0x3f16557a	0.58724177
201	0xbc22af63	-0.009929511
202	0xbe8ebde0	-0.27879238
203	0x3df7ad82	0.12093641
204	0xbe28748f	-0.16450714
205	0x3b9eb90e	0.0048438376
206	0xbdc46176	-0.09588902
207	0xbe82cb59	-0.25545767
208	0x3ca60a49	0.020268576
209	0x3e67ac89	0.2262441
210	0x3d980341	0.07422496
211	0xbd8d5a63	-0.069020055
212	0x3cfdb5c8	0.03097047
213	0xbdb45da5	-0.08806924
214	0xbd1b5dfc	-0.037931427
215	0xbdb774ff	-0.08957862
216	0xbe6b404a	-0.22973743
217	0xbe818a5d	-0.25300875
218	0x3daff5b8	0.08591789
219	0xbc16e69e	-0.009210257
220	0x3e2c3f4f	0.16821025
221	0x3dc08dce	0.09402047
222	0x3e249049	0.16070665
223	0x3b4bf425	0.0031120863
224	0xbe6b5aa3	-0.22983794
225	0xbe22f72f	-0.15914606
226	0xbdd283cf	-0.10279047
227	0x3e11d440	0.14241123
228	0xbe768613	-0.24074583
229	0xbd59a28d	-0.053133536
230	0xbd0042dc	-0.031313762
231	0xbe2e5b7a	-0.17027083
232	0xbeec924b	-0.46205363
233	0x3e183cb0	0.148669
234	0x3dbabd9a	0.09118195
235	0xbe9da2c1	-0.30788234
236	0x3e20571b	0.15658228
237	0xbcf707ab	-0.030155024
238	0x3e079d34	0.13243562
239	0x3e040c05	0.1289521
240	0x3e1e33f3	0.15449505
241	0xbe1ac953	-0.15115862
242	0xbd63dd56	-0.055631004
243	0xbca8ea18	-0.020619437
244	0xbe731896	-0.23739848
245	0x3d3d3d64	0.046201125
246	0x3dd2c86a	0.10292132
247	0xbdc0104c	-0.093781084
248	0x3cc2958c	0.02375295
249	0x3e6ff785	0.23434265
250	0xbe63229c	-0.22181171
251	0xbd7d8d6f	-0.06190246
252	0x3e1983da	0.14991704
253	0x3e80dc39	0.25168017
254	0x3be268b5	0.0069094547
255	0xbe0f984b	-0.14022939

weight_hh_l0 f4 [512, 128]
0	0xbe1a6575	-0.15077765
1	0xbd81d294	-0.06338993
2	0x3c45e727	0.012079037
3	0xbd93537b	-0.07193657
4	0xbdec3768	-0.115340054
5	0xbe4bd4af	-0.19905351
6	0x3e8d1c91	0.27560857
7	0xbd507078	-0.05088851
8	0x3ded4580	0.11585522
9	0x3c89f8b8	0.016842231
10	0x3b8527e9	0.0040635956
11	0xbe8151bb	-0.25257668
12	0xbcd0cf5a	-0.025489498
13	0xbe5a2152	-0.21301773
14	0xbe82cbde	-0.25546163
15	0xbe2151a4	-0.157538
16	0xbd74da89	-0.059778724
17	0x3d1928b0	0.03739232
18	0xbe24e6cc	-0.16103667
19	0x3e927434	0.2860428
20	0x3d5960e5	0.05307092
21	0xbd384ff6	-0.04499813
22	0x3ec61ee4	0.38695443
23	0xbd9809bb	-0.07423731
24	0x3e22179f	0.15829323
25	0xbd98c02f	-0.07458531
26	0xbe2b6296	-0.16736826
27	0xbd369c30	-0.044582546
28	0xbe8f40dc	-0.2797917
29	0x3e535f11	0.20641734
30	0xbe11e2a6	-0.14246616
31	0x3e96d22b	0.2945722
32	0xbdb501d5	-0.0883824
33	0x3d7e0f5d	0.06202637
34	0x3dfcf169	0.12350733
35	0x3e61f9b0	0.22067904
36	0xbdb03c7d	-0.08605287
37	0xbf0dc43e	-0.55377567
38	0xbe167998	-0.14694822
39	0x3e24d780	0.16097832
40	0xbd9c5c32	-0.07634772
41	0xbec9b3fc	-0.3939513
42	0x3e69ac69	0.22819676
43	0xbe76b4b6	-0.24092373
44	0xbccfa8a2	-0.025348965
45	0xbecd4300	-0.4009018
46	0x3cb4f8c8	0.022091284
47	0x3e0778c1	0.13229658
48	0xbd457827	-0.04821029
49	0xbd9064eb	-0.070504986
50	0xbdc8587b	-0.09782501
51	0x3e58b44f	0.21162532
52	0x3de4b276	0.11166851
53	0x3e887777	0.26653644
54	0x3d6b3139	0.05741999
55	0xbe3d6a9f	-0.18497704
56	0xbcab3843	-0.020900851
57	0x3ba770e1	0.0051098918
58	0x3e37cef6	0.17950043
59	0xbe9972ce	-0.29970402
60	0x3e5e87f6	0.21731552
61	0xba0a52c8	-0.00052766176
62	0xbe495fec	-0.19665498
63	0xbe814f73	-0.25255927
64	0xbc17860b	-0.009248267
65	0x3e0d0d7c	0.13774675
66	0xbdd690db	-0.10476848
67	0xbd0c55e9	-0.034261618
68	0xbde70c80	-0.11281681
69	0x3dbdcecf	0.09267961
70	0xbccbc9c8	-0.02487649
71	0x3e4b59cf	0.19858478
72	0xbe59cbd2	-0.21269158
73	0x3f035b1c	0.51310897
74	0xbdd1f55b	-0.10251876
75	0xbea5949d	-0.32339945
76	0xbe19ba4a	-0.1501247
77	0x3e07803f	0.13232516
78	0x3e4c5c1c	0.19957012
79	0x3d7656cc	0.06014137
80	0xbdbdacb3	-0.092614554
81	0x3b82b562	0.0039889077
82	0xbede19f8	-0.43379188
83	0x3e1cf26e	0.15326855
84	0xbc827b65	-0.01592798
85	0xbf2d3d07	-0.67671245
86	0x3e944746	0.28960627
87	0xbe330527	-0.17482434
88	0x3e88507c	0.26623905
89	0xbf1776d6	-0.59165704
90	0x3e1784a5	0.14796694
91	0xbe0689e8	-0.13138545
92	0xbe6efa4e	-0.23337671
93	0xbdaabd99	-0.08336944
94	0xbcba9cc8	-0.022779837
95	0x3ed62c53	0.41830692
96	0xbd16ac44	-0.03678538
97	0xbe4775e1	-0.19478561
98	0x3e9cff20	0.30663395
99	0xbe75a731	-0.2398956
100	0x3eab6a7b	0.33479676
101	0x3e2e01e1	0.16992904
102	0xbd11e3a6	-0.035617493
103	0xbda2ecd3	-0.07955327
104	0x3df82715	0.12116829
105	0xbdb97650	-0.090557694
106	0x3e2f3201	0.17108919
107	0x3dec83e9	0.11548597
108	0xbe298723	-0.16555457
109	0xbf0b5aae	-0.5443524
110	0xbdb1891c	-0.0866873
111	0x3d058927	0.0326015
112	0xbecdc652	-0.4019037
113	0x3e772a65	0.24137266
114	0x3eb79efb	0.3586348
115	0xbeccb41b	-0.3998116
116	0x3db46b37	0.08809512
117	0xbd84b998	-0.06480712
118	0x3dd25a84	0.10271171
119	0xbd9e7e34	-0.07738915
120	0x3d31eaf1	0.04343695
121	0xbe5ce3e1	-0.21571304
122	0x3ce6f8db	0.028194835
123	0xbdb26a87	-0.08711725
124	0x3e807e55	0.25096384
125	0x3e5006d7	0.20315109
126	0x3d1c6f40	0.038192034
127	0xbece719d	-0.40321055
128	0x3e3031c5	0.17206486
129	0x3df2fdb1	0.11864794
130	0x3e1b39bb	0.15158741
131	0xbe2faa21	-0.17154743
132	0xbd49e0c4	-0.04928662
133	0xbc31a9f6	-0.0108437445
134	0x3e4ce88e	0.20010588
135	0xbe1951b9	-0.14972581
136	0xbe66410d	-0.22485752
137	0x3d13260d	0.03592496
138	0xbe419859	-0.18905772
139	0xbe3667bb	-0.17813008
140	0xbe201994	-0.15634757
141	0xbea12aff	-0.31478116
142	0x3e84fa81	0.2597237
143	0xbdf31664	-0.11869505
144	0xbe8cc4e8	-0.27493978
145	0xbdfa748c	-0.12229261
146	0x3ec5c0e8	0.38623738
147	0xbd86efe0	-0.06588721
148	0x3d6349bb	0.055490237
149	0x3d952ab9	0.07283539
150	0x3cb97125	0.02263696
151	0xbd874b9f	-0.066062205
152	0x3da7666f	0.081738345
153	0x3d0e4bcc	0.034740254
154	0x3d6c350c	0.057667777
155	0x3ec727ea	0.3889764
156	0x3d17c193	0.03704984
157	0xbdbd604b	-0.09246882
158	0xbe3f6818	-0.18692052
159	0x3ea7c078	0.3276403
160	0xbe587b94	-0.21140891
161	0x3e39b7e2	0.18136552
162	0x3e8a4ec5	0.2701322
163	0x3ea1ee4f	0.31627128
164	0xbe6ee549	-0.23329653
165	0x3ddae1a9	0.106875725
166	0x3e183d37	0.14867102
167	0x3e14c5a9	0.14528526
168	0xbe39122b	-0.18073337
169	0xbe3c62ba	-0.18397036
170	0x3d9d6b51	0.076864846
171	0x3e831fa1	0.25610068
172	0x3e91284a	0.2835105
173	0xbe41aec6	-0.18914327
174	0xbe5a1793	-0.21298055
175	0x3e706652	0.23476532
176	0x3d930991	0.07179559
177	0xbe0be6ac	-0.13662213
178	0x3d883aa7	0.06651812
179	0xbe6de186	-0.23230562
180	0xbde40eec	-0.111356586
181	0x3dbfd8b6	0.09367506
182	0xbd538a4e	-0.05164557
183	0x3ed42e64	0.41441643
184	0x3e71549a	0.23567429
185	0x3ce6987a	0.028148878
186	0xbe69efb8	-0.22845352
187	0xbd5b766d	-0.053579737
188	0xbe7dfeab	-0.2480418
189	0x3e5509b7	0.20804487
190	0xbda31223	-0.07962444
191	0x3da000dd	0.07812665
192	0xbb869a0b	-0.004107719
193	0x3c169986	0.009191876
194	0x3eab8fa8	0.3350804
195	0x3c669b56	0.014075121
196	0xbdfd1484	-0.12357429
197	0xbe0da97b	-0.13834183
198	0x3df7318a	0.12069996
199	0xbae1b3d6	-0.0017219733
200	0x3db8bdab	0.09020551
201	0xbd9f5c35	-0.07781259
202	0x3ebda78b	0.37041888
203	0x3dfb1bef	0.12261187
204	0xbe7042d6	-0.23462996
205	0x3e1bf1be	0.15228936
206	0x3e89e7ae	0.2693457
207	0x3eafb8d0	0.34320688
208	0xbebbf427	-0.3670971
209	0xbdd1b5bb	-0.102397405
210	0xbec9ec52	-0.3943811
211	0x3c22e653	0.009942609
212	0x3dcb7e2f	0.09936177
213	0x3dd92791	0.1060325
214	0xbe516d47	-0.20451842
215	0xbe5a7317	-0.21332966
216	0x3df924f1	0.12165249
217	0x3d5290ac	0.0514075
218	0xbc04ed81	-0.008113266
219	0x3cb8f2e4	0.022576757
220	0x3ea2fd13	0.31833705
221	0xbd7f8bbe	-0.062389128
222	0xbe53e9d0	-0.20694661
223	0xbea96191	-0.3308225
224	0xbc8192db	-0.015817096
225	0xbdfc5278	-0.12320417
226	0xbe46737d	-0.19379993
227	0xbe95f042	-0.29284865
228	0xbdfe7b6a	-0.12425883
229	0xbe70ee83	-0.23528485
230	0xbe1e39eb	-0.15451781
231	0xbc418a6d	-0.011812788
232	0xbd36502d	-0.044510055
233	0xbe5ae870	-0.2137773
234	0x3d39da76	0.045374356
235	0xbd9409d6	-0.072284386
236	0x3cf0fb7a	0.029416788
237	0x3dde4d0f	0.108545415
238	0x3c5b35ce	0.013379527
239	0xbee98104	-0.45606244
240	0x3dfcaf02	0.123380676
241	0xbe8639c8	-0.2621596
242	0x3d267118	0.0406352
243	0xbe3e37e5	-0.1857601
244	0x3db33358	0.087500274
245	0xbdf1a414	-0.117988735
246	0x3ec4044f	0.38284537
247	0xbd2336d3	-0.039847206
248	0xbd973f6c	-0.07385144
249	0x3e978fe8	0.2960198
250	0xbe85f15a	-0.261607
251	0xbe947e60	-0.29002666
252	0x3e396948	0.18106568
253	0xbdf3e411	-0.119087346
254	0xbd70a22e	-0.058748417
255	0xbe33ddc9	-0.17565073

bias_ih_l0 f4 [512]
0	0x3d88e0cf	0.06683504
1	0x3d935eea	0.07195838
2	0x3e3362da	0.17518178
3	0x3dbf1889	0.093308516
4	0x3e80607a	0.25073606
5	0x3e269a02	0.16269687
6	0x3d5ef730	0.054434955
7	0x3e33e059	0.1756605
8	0x3c9aa564	0.018877693
9	0x3e8a6546	0.2703039
10	0x3d3ec498	0.046574205
11	0x3e0f48e8	0.13992655
12	0x3df42eb2	0.11922969
13	0x3e233b03	0.1594048
14	0x3e3a6e10	0.18206048
15	0x3e0c26e0	0.13686705
16	0x3d831af5	0.06401626
17	0x3e17b1ea	0.14813963
18	0x3d94b220	0.07260537
19	0x3e1b2727	0.15151654
20	0x3dc396d5	0.09550253
21	0x3e5081ff	0.2036209
22	0x3dda9a09	0.10673911
23	0x3e0ecdb0	0.13945651
24	0x3e1a885e	0.15091082
25	0x3e1db549	0.15401186
26	0x3e350dfb	0.17681114
27	0x3e4602d7	0.19337021
28	0x3e868167	0.262706
29	0x3d98227e	0.07428454
30	0x3df76d06	0.120813414
31	0x3dc9cc7a	0.09853454
32	0xbc6bf157	-0.014400802
33	0x3dd36510	0.103220105
34	0x3e707ddf	0.23485516
35	0xbd3e478d	-0.046454955
36	0x3e6655be	0.22493646
37	0x3e1665a9	0.14687218
38	0x3e014c11	0.12626673
39	0x3e1c4bf6	0.15263352
40	0x3dd49e80	0.10381794
41	0x3e084ff1	0.13311745
42	0x3e2c164d	0.16805382
43	0x3e4bdcd9	0.19908465
44	0x3d8d656c	0.0690411
45	0x3db1b777	0.08677571
46	0x3dded83b	0.108810864
47	0x3e607369	0.21919025
48	0x3d088087	0.0333257
49	0x3e3250d0	0.1741364
50	0x3db1f71d	0.08689711
51	0x3dd6c735	0.104872145
52	0x3de67d4f	0.112543695
53	0xbe184926	-0.14871654
54	0x3d918b61	0.071066625
55	0x3e3fb595	0.18721612
56	0x3df7c776	0.12098591
57	0x3e4bff9f	0.1992173
58	0x3d02da77	0.031946626
59	0x3d04c854	0.03241761
60	0x3e67f892	0.22653416
61	0x3e4304f0	0.19044852
62	0x3e1d9e76	0.1539248
63	0x3e42038d	0.18946667
64	0x3d9c4fb1	0.076323874
65	0x3e7ff637	0.24996267
66	0x3de62ea9	0.112393685
67	0x3e249e46	0.16076002
68	0x3d2de03e	0.042450182
69	0x3daba2bc	0.083806485
70	0x3d8d4df8	0.06899637
71	0x3d8e45a9	0.0694688
72	0x3e4a5186	0.19757661
73	0x3dc7f633	0.09763756
74	0x3dc3b27d	0.09555528
75	0x3e2e75a3	0.17037062
76	0xbc04f417	-0.008114836
77	0x3e181eb7	0.14855467
78	0x3db78e63	0.08962705
79	0x3e06e15b	0.13171904
80	0x3d9c4aa8	0.07631427
81	0x3e5f8adb	0.21830313
82	0x3e51afc8	0.20477211
83	0x3e45b2cd	0.19306488
84	0x3de53cbe	0.11193226
85	0x3daa8264	0.08325651
86	0x3ddfc36d	0.109259464
87	0x3d9698ae	0.0735334
88	0x3de22ab3	0.110433005
89	0x3e10bc23	0.14134268
90	0x3e44f6ef	0.19234823
91	0x3dedf316	0.116186306
92	0x3d4a31a5	0.04936375
93	0x3e186e4d	0.14885826
94	0x3e56e49d	0.20985647
95	0x3cdd66bd	0.027026528
96	0x3e36632f	0.17811273
97	0x3e498261	0.19678642
98	0xbba21b65	-0.0049471133
99	0x3dd416c0	0.10355902
100	0x3e4e4724	0.20144325
101	0x3cb81d18	0.02247481
102	0x3e59097c	0.21195024
103	0x3e2d706d	0.16937418
104	0x3e0d8594	0.13820487
105	0x3dc97c54	0.09838167
106	0x3e8d7a5d	0.27632418
107	0x3e306e1a	0.172295
108	0x3e8a77e4	0.27044594
109	0x3e599124	0.21246773
110	0x3d8940a1	0.0670178
111	0x3da1142e	0.07865177
112	0x3e0169dc	0.12638038
113	0x3dea6fb6	0.114470884
114	0x3e0b102a	0.13580385
115	0x3dba1a6f	0.09087073
116	0x3e20a275	0.15686972
117	0x3d0a5d08	0.033780128
118	0x3e12fd5b	0.1435446
119	0xbd2ee09e	-0.04269468
120	0x3e4f8165	0.20264204
121	0x3e481be9	0.19541897
122	0x3e35349d	0.17695852
123	0x3e5b45c7	0.21413337
124	0x3dd066f2	0.10175885
125	0x3e16d35f	0.14729069
126	0x3df7eb53	0.121054314
127	0x3e4085ff	0.18801115
128	0xbdc30ce5	-0.09523944
129	0x3ce93b71	0.028470727
130	0x3cb8355b	0.02248638
131	0x3b71466d	0.0036815659
132	0x3d5f77ca	0.0545576
133	0xbd9973bb	-0.07492777
134	0x3de4ae34	0.11166039
135	0x3dda7efe	0.10668753
136	0xbc719519	-0.01474502
137	0x3d220758	0.039557785
138	0xbd5acd76	-0.0534186
139	0xbdbb182d	-0.091354705
140	0xbb60c7cd	-0.0034298778
141	0x3e08995a	0.13339749
142	0xbd97bdaf	-0.07409226
143	0x3db42b8d	0.08797369
144	0xbd924b85	-0.071433105
145	0xbd8ddb0c	-0.069265455
146	0xbe465f91	-0.19372393
147	0xbda22b95	-0.07918469
148	0xbc4f6937	-0.0126593625
149	0x3bfb1fc7	0.0076637003
150	0xbc38dafb	-0.011282678
151	0xbbe307dc	-0.006928427
152	0xbd873fd8	-0.06603974
153	0xbdd67be2	-0.104728475
154	0xbe34801c	-0.17626995
155	0xbcda338a	-0.026635904
156	0xbd40218c	-0.046906993
157	0xba8330ae	-0.0010009015
158	0xbda5c4cd	-0.080941774
159	0xbe47ebfb	-0.19523613
160	0x3da9053a	0.0825295
161	0x3d46ef43	0.04856802
162	0x3d8da3a1	0.06915975
163	0x3d842eca	0.06454237
164	0xbd13bcb4	-0.036068633
165	0xbd162b0b	-0.036662143
166	0xbe3b7291	-0.18305422
167	0xbdf6dfe3	-0.12054422
168	0x3d81e234	0.06341973
169	0xbe0b567a	-0.13607207
170	0x3c22c80c	0.00993539
171	0x3d16a0ac	0.036774322
172	0xbda544b4	-0.08069745
173	0xbcd7bc9d	-0.026335055
174	0xbca2fe14	-0.019896545
175	0x3dcb1f64	0.09918097
176	0x3d738560	0.05945337
177	0x3d06e0ef	0.032929357
178	0xbd56e414	-0.052463606
179	0x3e023e6e	0.12719128
180	0x3de4234a	0.11139543
181	0xbdfe5aeb	-0.12419685
182	0xbc00cf2d	-0.007861895
183	0x3e228e1e	0.15874526
184	0x3c7dd331	0.0154922465
185	0x3d05e3c1	0.032687906
186	0xbdd3f4c8	-0.10349423
187	0xbdccdf8e	-0.10003577
188	0xbdf4d0b4	-0.119538695
189	0x3d9ba55b	0.075998984
190	0x3d4d41d6	0.050111614
191	0xbd26e153	-0.04074223
192	0x3dddcfee	0.10830675
193	0x3db3ef4a	0.08785875
194	0x3d91012a	0.070803
195	0x3d2a22ca	0.041537084
196	0xbd772687	-0.060339477
197	0x3d8d4062	0.06897046
198	0xbc374897	-0.01118674
199	0x3d1fe5fe	0.039037697
200	0x3dd63d50	0.10460913
201	0xbdb565fe	-0.08857344
202	0xbca0d5f9	-0.01963328
203	0xbde3de3d	-0.11126373
204	0xbdaaed59	-0.08346052
205	0x3dd28f4c	0.10281238
206	0xbd39e638	-0.04538557
207	0xbd543e2f	-0.051817115
208	0x3dee2957	0.11628979
209	0xbd93c5a9	-0.07215435
210	0xbc9b19e7	-0.01893325
211	0x3dd4d5d9	0.10392351
212	0xbdefe54a	-0.11713655
213	0xbdcf621e	-0.10126136
214	0x3d5902cf	0.052981194
215	0x3c5f6269	0.013634303
216	0xbd9bedec	-0.07613739
217	0xbdaa47b0	-0.083144546
218	0x3dbba4bb	0.09162279
219	0xbbbe4665	-0.0058067315
220	0xbd0469fe	-0.032327645
221	0xbc8b5bb0	-0.017011493
222	0xbdfee077	-0.12445157
223	0xbcb41dfe	-0.021986958
224	0xbe037d97	-0.12840877
225	0xbde0b120	-0.10971284
226	0x3ca3cdba	0.019995559
227	0x3df64b06	0.12026028
228	0x3ccb6393	0.024827754
229	0x3df53a14	0.11973968
230	0xbd8b705e	-0.06808542
231	0x3c3c5311	0.011494414
232	0xbda770c9	-0.08175809
233	0x3c76900a	0.01504899
234	0x3c8bdf43	0.017074233
235	0x3da42e2a	0.080166176
236	0xbd9cbfac	-0.07653746
237	0xbcea60a2	-0.028610531
238	0x3d40d7a1	0.04708064
239	0xbcd840c5	-0.026398072
240	0xbb9aac1c	-0.004720224
241	0x3caf5cea	0.02140661
242	0x3d551c15	0.052028734
243	0xbd829ab2	-0.06377162
244	0xbc9069fd	-0.017628664
245	0xbcd7571a	-0.02628665
246	0x3b8c391a	0.004279268
247	0xbcad449f	-0.021150885
248	0xbd165629	-0.036703262
249	0xbd427082	-0.047470577
250	0xbdf52bf5	-0.11971275
251	0x3ce8dfcd	0.028427029
252	0x3d4635f3	0.048391294
253	0xbe5914c9	-0.21199335
254	0x3d23ec1b	0.04002009
255	0x3d162eea	0.036665834

bias_hh_l0 f4 [512]
0	0x3deb4c4a	0.1148916
1	0x3e18e2a9	0.14930214
2	0x3e80794a	0.25092536
3	0x3e0a21f3	0.13489513
4	0x3e4d987d	0.20077701
5	0x3e0b3fb2	0.13598517
6	0x3e42aaa0	0.19010401
7	0x3e1603c9	0.14649881
8	0x3d6bd553	0.05757649
9	0x3e567f01	0.20946886
10	0x3d811040	0.063019276
11	0x3e24a58d	0.16078778
12	0x3e2289ee	0.15872929
13	0x3e0fdfd4	0.14050227
14	0x3e6d286a	0.23159948
15	0x3e24f3ff	0.16108702
16	0x3e273f42	0.16332725
17	0x3defd270	0.1171006
18	0x3d5a5b75	0.053309876
19	0x3e28220a	0.16419235
20	0x3d991321	0.07474352
21	0x3ddebc00	0.10875702
22	0x3dfa6c1d	0.12227652
23	0x3daf301f	0.085541
24	0x3dcea20a	0.100895
25	0x3e7afedd	0.24511285
26	0x3e2bd9de	0.16782328
27	0x3d295006	0.041336082
28	0x3e71adfb	0.23601525
29	0x3e31b8f6	0.17355713
30	0x3e0cdc8a	0.13756004
31	0x3e083886	0.13302812
32	0xba26b21b	-0.0006358937
33	0x3e354149	0.17700686
34	0x3dc00608	0.0937615
35	0x3dab19fe	0.08354567
36	0x3dc57336	0.09641115
37	0x3dcf6c36	0.101280615
38	0x3d725910	0.059166968
39	0x3dfc2e60	0.12313533
40	0x3e0cc58f	0.13747238
41	0x3b94f0ee	0.0045453226
42	0x3e4171b0	0.18891025
43	0x3e7b344c	0.24531668
44	0x3e08fe8d	0.13378353
45	0x3dce396e	0.100695476
46	0x3dceac64	0.10091475
47	0x3e393086	0.18084916
48	0x3d11772c	0.03551404
49	0x3e01d324	0.126782
50	0x3e4edef1	0.20202233
51	0x3e26b0a3	0.16278319
52	0x3e210d66	0.15727767
53	0xbd32e1d5	-0.0436724
54	0x3e0e1878	0.13876522
55	0x3e5b9c3c	0.21446317
56	0x3e6ceebd	0.23137946
57	0x3e3a325e	0.18183276
58	0xbcce821b	-0.025208523
59	0xbbbce3c4	-0.0057644565
60	0x3e0bd0ea	0.13653913
61	0x3da3fab9	0.08006806
62	0x3dacb9ff	0.084339134
63	0x3e319a5f	0.17344044
64	0xbb27aff0	-0.0025587045
65	0x3db21e8a	0.08697231
66	0x3e07dac0	0.1326704
67	0x3dc109ff	0.09425735
68	0xbd4aa2d7	-0.049471702
69	0x3da6e5a4	0.08149269
70	0x388ce2f4	6.7179935e-05
71	0xbd22a431	-0.039707366
72	0x3ddfda22	0.109302774
73	0x3e32afa2	0.17449811
74	0x3dd2abeb	0.10286697
75	0x3de6294c	0.112383455
76	0x3dc6ea91	0.09712709
77	0x3e0886c0	0.13332653
78	0x3de84019	0.11340351
79	0x3e3c9ede	0.18419978
80	0x3da4a790	0.080397725
81	0x3e187e08	0.14891827
82	0x3e691a1f	0.2276387
83	0x3e2b7880	0.16745186
84	0x3e483c6c	0.19554299
85	0x3e318f9f	0.17339943
86	0x3dd626e5	0.10456637
87	0xbc84ccb9	-0.0162109
88	0x3d8aea9a	0.06783028
89	0x3e5df260	0.2167449
90	0x3e4c7430	0.19966197
91	0x3dd48676	0.10377209
92	0x3d737405	0.059436817
93	0x3d95b6f6	0.07310288
94	0x3e595cee	0.21226856
95	0x3c922c3a	0.017843354
96	0x3d7eb09e	0.062180154
97	0x3eb51705	0.35369125
98	0x3dc1a04e	0.09454404
99	0x3e391ade	0.18076655
100	0x3e177270	0.14789748
101	0xbcabb971	-0.020962449
102	0x3e427f6a	0.18993917
103	0x3c4749db	0.012163605
104	0x3dc522a3	0.09625747
105	0x3c96330d	0.01833489
106	0x3e28e552	0.16493729
107	0x3e2da892	0.16958836
108	0x3dff673e	0.12470864
109	0x3db4d3a6	0.08829431
110	0x3e0809b2	0.13284948
111	0x3dce84d3	0.10083928
112	0x3e41c19b	0.18921511
113	0x3d6315d0	0.055440724
114	0x3e172c30	0.1476295
115	0x3dc06944	0.09395078
116	0x3c7049e9	0.014666059
117	0x3db28266	0.08716278
118	0x3e022796	0.12710413
119	0x3d788388	0.060672313
120	0x3d6c8a0f	0.05774885
121	0x3e8eaea9	0.2786763
122	0x3e0d384d	0.13791008
123	0x3d99a03e	0.07501267
124	0x3e505833	0.20346145
125	0x3dcd859b	0.10035249
126	0x3e69c20c	0.2282793
127	0x3d68b824	0.056816235
128	0xbdf93715	-0.12168709
129	0xbcee30b5	-0.02907596
130	0xbd1776e7	-0.03697863
131	0x3d5e2b8d	0.054240752
132	0xbdabdf74	-0.0839223
133	0xbcf82e5f	-0.030295549
134	0x3e42c72f	0.19021295
135	0x3cbe263f	0.023211597
136	0xbce74506	-0.028231155
137	0xbcd8f4d0	-0.026483923
138	0xbd408656	-0.047003113
139	0xbd2564ec	-0.04037945
140	0x3e18f56e	0.14937374
141	0x3d21dea3	0.039518964
142	0xbde0f89b	-0.10984918
143	0x3dc20655	0.09473864
144	0x3daa995c	0.08330032
145	0xbdabe5e1	-0.08393455
146	0xbe61852d	-0.22023459
147	0xbe18e291	-0.14930178
148	0xbc9b2d0c	-0.018942378
149	0x3e292de5	0.16521414
150	0xbcd8ef72	-0.026481364
151	0x3e1840ff	0.14868544
152	0xbd93d319	-0.07217998
153	0xbdf22909	-0.11824233
154	0xbd25cbeb	-0.040477674
155	0xbe09419c	-0.13403934
156	0x3c9469cb	0.018116852
157	0xbe141a90	-0.14463258
158	0x3b9a53da	0.004709703
159	0xbe0d57c4	-0.13803011
160	0x3d41b502	0.047291763
161	0x3d5e9921	0.054345254
162	0x3d164b87	0.036693122
163	0x3ce7bbec	0.02828785
164	0x3d185c31	0.037197296
165	0x3d417a52	0.047235794
166	0xbd7f0a06	-0.06226542
167	0xbdf8f4fd	-0.12156103
168	0x3ddbed43	0.107386135
169	0xbe071d45	-0.13194759
170	0xbb8643a2	-0.004097418
171	0x3d9597d0	0.073043466
172	0xbd740c06	-0.05958178
173	0x3ca6f928	0.020382479
174	0x3d88fb0f	0.066885106
175	0x3e29ed1d	0.16594358
176	0xbadee543	-0.0017005581
177	0xbd88de70	-0.066830516
178	0xbd834531	-0.064096816
179	0x3c47c4bb	0.0121929
180	0x3d4541ff	0.048158642
181	0x3ba40edc	0.005006654
182	0xbd0bb693	-0.034109663
183	0x3dc11f7d	0.09429834
184	0x3d63ebb8	0.05564472
185	0xbdc39b5d	-0.095511176
186	0xbdbd72af	-0.0925039
187	0xbc5adef0	-0.0133588165
188	0xbe01f70c	-0.12691897
189	0x3d147032	0.03623981
190	0x3d929c01	0.07158662
191	0xbc28ce80	-0.01030314
192	0x3e0ce6ad	0.13759871
193	0x3dba34e8	0.09092122
194	0x3dd3d9c9	0.103442736
195	0xbcf6fe18	-0.030150458
196	0xbc4b7e21	-0.012420208
197	0x3da97baa	0.0827554
198	0x3d93fc55	0.07225863
199	0xbd3ef060	-0.04661596
200	0x3d629a55	0.055322964
201	0xbcf82542	-0.030291203
202	0xbe0ad254	-0.13556796
203	0xbd2f06d0	-0.042731106
204	0xbdf198e8	-0.11796743
205	0x3de14c74	0.110009104
206	0x3cec2444	0.028825887
207	0x3d93638e	0.07196723
208	0x3c8bd584	0.017069586
209	0xbb63cb58	-0.0034758653
210	0xbd717f60	-0.058959365
211	0x3e0448b2	0.12918356
212	0xbe007ac3	-0.1254683
213	0xbd03e2cc	-0.032198712
214	0x3df178ff	0.11790656
215	0xbdcac686	-0.099011466
216	0xbd5ae6e6	-0.05344286
217	0xbcc1e857	-0.023670359
218	0xbd8c3516	-0.06846063
219	0x3e1ec08b	0.15503137
220	0xbdc33a36	-0.09532587
221	0x3d22b777	0.039725747
222	0xbd679a02	-0.056543358
223	0xbdc4784e	-0.09593259
224	0xbd8d62ec	-0.069036335
225	0x3d1b64a7	0.037937786
226	0x3db7899c	0.08961794
227	0x3dcb18c3	0.09916832
228	0x3dc011cc	0.093783945
229	0x3c680527	0.014161385
230	0xbdd58164	-0.1042507
231	0x3c6b9472	0.014378654
232	0xbd18eec6	-0.037337087
233	0x3d77258b	0.06033854
234	0xbc939f0b	-0.018020174
235	0x3d51be5c	0.05120693
236	0x3da5571e	0.08073257
237	0x3d85b107	0.06527906
238	0x3db741d6	0.08948104
239	0xbdf108cb	-0.11769255
240	0xbc9a0590	-0.01880148
241	0xbd58803d	-0.052856673
242	0xb909d618	-0.00013145094
243	0xbd3e625c	-0.04648052
244	0xbd1ce470	-0.038303792
245	0x3c45dd52	0.012076693
246	0xbc1c933e	-0.00955659
247	0x3d276ec5	0.040877122
248	0xba0039a5	-0.0004891402
249	0xbe2e99e7	-0.17050897
250	0xbdfdada9	-0.12386639
251	0xbdd44eed	-0.103666164
252	0x3e022d88	0.12712681
253	0xbde53df0	-0.11193454
254	0x3da7e352	0.08197655
255	0xbdb59e8b	-0.0886813

weight f4 [29, 128]
0	0x3ddadefd	0.10687063
1	0x3d9f1084	0.07766822
2	0x3d82eb6e	0.06392561
3	0xbe06bf2c	-0.13158864
4	0xbe33e09c	-0.1756615
5	0x3ddd6284	0.10809806
6	0x3dc56a87	0.09639459
7	0xbcb00b87	-0.021489872
8	0xbcd8e655	-0.026477018
9	0xbe6c1497	-0.2305473
10	0xbb103bbd	-0.0022008263
11	0xbe286404	-0.16444403
12	0xbdc7fa2f	-0.097645156
13	0xbda5ac5e	-0.08089517
14	0xbd3bec08	-0.045879394
15	0xbe0157e2	-0.12631181
16	0x3e3e3a49	0.18576922
17	0xbe6e1ea2	-0.23253873
18	0xba58364b	-0.00082478364
19	0xbda31bd9	-0.07964296
20	0xbd520698	-0.05127582
21	0xbd7e8267	-0.06213608
22	0x3e1c6a99	0.15275039
23	0xbdc03b34	-0.09386292
24	0xbc1c5845	-0.0095425295
25	0xbd321eb8	-0.043486327
26	0xbe2bb02d	-0.16766424
27	0x3c572bc2	0.013132991
28	0xbe0d1b47	-0.13779937
29	0xbe33c3cb	-0.17555158
30	0xbdb977c7	-0.09056049
31	0xbd37169a	-0.04469929
32	0x3e4a5e6a	0.19762579
33	0x3e219d22	0.15782598
34	0xbd9faac7	-0.07796245
35	0x3db99dbd	0.09063289
36	0xbd269478	-0.040668935
37	0xbe0bfb91	-0.13670184
38	0xbee87938	-0.45404983
39	0xbe33cede	-0.17559382
40	0xbdd632ee	-0.10458933
41	0xbdf90a09	-0.12160117
42	0x3e8427f2	0.25811726
43	0x3dc9d1c3	0.09854462
44	0xbe19568f	-0.14974426
45	0x3ce24286	0.027619611
46	0xbdbef005	-0.09323124
47	0xbb443b43	-0.002994255
48	0xbda11db7	-0.07866996
49	0xbdb862c9	-0.09003217
50	0x3e62738a	0.22114387
51	0x3e01b4fb	0.12666695
52	0xbe53ec94	-0.20695716
53	0x3e0c95e4	0.13729054
54	0xbd64e66f	-0.05588382
55	0xbe61e839	-0.22061242
56	0xbcea9ae6	-0.028638314
57	0x3e6f0fdc	0.23345894
58	0x3e3f7fe6	0.18701133
59	0x3c131a46	0.008978432
60	0x3c6734ad	0.01411168
61	0xbca487af	-0.02008423
62	0x3e15a053	0.1461194
63	0x3e51f29d	0.20502706
64	0xbe129329	-0.1431395
65	0xbdfb7e83	-0.122799896
66	0x3cd37b79	0.025815712
67	0xbc0b2fa7	-0.008495248
68	0x3f053002	0.5202638
69	0x3d661c7a	0.0561795
70	0x3dfb7eaa	0.12280019
71	0x3e59bcbd	0.21263404
72	0xbdd6ea0a	-0.10493858
73	0x3de3b175	0.111178316
74	0xbe4935a0	-0.19649363
75	0xbdba627e	-0.09100817
76	0x3e83d967	0.25751802
77	0x3d844aa1	0.06459547
78	0x3e2d3869	0.1691605
79	0x3e5b7722	0.21432164
80	0x3dfabaf3	0.12242689
81	0x3eb7c3df	0.35891625
82	0xbdf97eda	-0.12182398
83	0x3d941914	0.07231346
84	0xbdb2c2f8	-0.087285936
85	0xbd7a4e8f	-0.061110076
86	0x3e152921	0.1456647
87	0x3df1c15f	0.11804461
88	0xbe2b772a	-0.16744676
89	0xbbd5772b	-0.00651445
90	0x3e04d4ed	0.1297185
91	0xbe45d7b3	-0.19320564
92	0x3e5d6386	0.21619996
93	0xbe6e144e	-0.23249933
94	0xbd2bd704	-0.0419531
95	0x3d2ed97c	0.042687878
96	0xbe526980	-0.20548058
97	0x3e163e73	0.1467226
98	0x3d7f5a76	0.06234213
99	0xbda7c6b5	-0.08192197
100	0x3d4d95d7	0.050191727
101	0xbdedbd98	-0.11608428
102	0x3de6989c	0.11259577
103	0x3d98bc88	0.074578345
104	0xbe29af45	-0.16570766
105	0xbdcba1f8	-0.099430025
106	0x3e017686	0.1264287
107	0xbcca02b8	-0.0246595
108	0xbdea1c1e	-0.11431144
109	0xbd007746	-0.031363748
110	0xbda47aa8	-0.08031207
111	0xbdffc3f6	-0.124885485
112	0xbe40b079	-0.18817319
113	0xbdebd411	-0.11515058
114	0xbdfbf8e4	-0.123033315
115	0x3e365519	0.178059
116	0x3d4e375b	0.05034576
117	0xbd613a73	-0.054987382
118	0x3d361fb5	0.044463832
119	0xbd53a2be	-0.051668875
120	0x3d8f74cd	0.070047
121	0xbe245ceb	-0.1605107
122	0x3e5a9c63	0.2134872
123	0x3e05e595	0.1307586
124	0x3d08c94c	0.033395097
125	0x3c612426	0.013741529
126	0xbcfe1cda	-0.031019617
127	0xbdbcfacb	-0.092275225
128	0x3df04ba7	0.117331795
129	0x3ddd2311	0.10797704
130	0xbc863b17	-0.016385598
131	0x3c0a8612	0.008454816
132	0x3eac1b5e	0.3361463
133	0xbde7b72a	-0.11314233
134	0xbe88fd07	-0.26755545
135	0x3d183bd3	0.037166428
136	0x3d824187	0.063601546
137	0x3e4d2d61	0.20036842
138	0xbc296608	-0.010339268
139	0x3e8756ca	0.26433402
140	0x3e8e519b	0.27796635
141	0x3e01cca7	0.12675725
142	0xbdaa9c4c	-0.083305925
143	0x3c912e58	0.017722294
144	0x3b0ea0d5	0.0021763344
145	0x3ea0e062	0.3142119
146	0x3e996500	0.2995987
147	0x3d9bc287	0.076054625
148	0x3da5632b	0.080755554
149	0xbe0d4a2b	-0.13797824
150	0xbe2b9ba5	-0.16758592
151	0x3cc2d682	0.023783926
152	0xbe5bb11a	-0.21454278
153	0x3e2b82ff	0.1674919
154	0x3e9d70ea	0.3075021
155	0xbe83cda2	-0.25742823
156	0x3e847074	0.25867045
157	0x3e846bee	0.25863594
158	0x3e1ba472	0.1519945
159	0xbebdf447	-0.3710043
160	0x3cda315c	0.026634865
161	0x3d4502b3	0.048098277
162	0x3de9a2c7	0.114080004
163	0x3c6975bc	0.0142492615
164	0x3e295fbf	0.1654043
165	0xbdd6d14b	-0.10489138
166	0xbdb42d54	-0.08797708
167	0xbedf7e1b	-0.43650898
168	0x3d33b942	0.043877847
169	0x3d7e1f80	0.06204176
170	0x3d226c24	0.039653912
171	0x3dd0a146	0.101870105
172	0xbe952a66	-0.2913391
173	0x3d296a79	0.041361306
174	0xbe457425	-0.19282587
175	0xbe8cfbfa	-0.27535993
176	0xbd9544e7	-0.07288533
177	0x3e785f82	0.24255183
178	0xbdc27d8a	-0.09496601
179	0x3dfbaf65	0.12289313
180	0x3e079b58	0.13242853
181	0x3dcc48ca	0.09974821
182	0x3e72ab9a	0.23698273
183	0x3e82b215	0.2552649
184	0x3c51dfd6	0.012809714
185	0xbe7082b0	-0.23487353
186	0x3dfa3c79	0.122185655
187	0xbe02fbba	-0.12791339
188	0x3ce05915	0.027386228
189	0xbe8a5b0a	-0.27022582
190	0xbbd5f849	-0.006529842
191	0xbddbc1e6	-0.107303426
192	0x3d26ef9d	0.040755857
193	0xbdc55313	-0.09634986
194	0x3c488154	0.0122378655
195	0x3d90d234	0.07071343
196	0xbe5f30e9	-0.21796001
197	0x3d61a847	0.055092122
198	0xbddb2fef	-0.10702502
199	0x3d57b517	0.052662935
200	0xbcb60e12	-0.022223506
201	0xbdde5b85	-0.108573
202	0x3eaabcab	0.33347067
203	0x3dfa9410	0.12235272
204	0x3e01635c	0.12635559
205	0x3cbdf297	0.023186965
206	0x3dc28d82	0.09499647
207	0xbe68d784	-0.22738463
208	0x3e18a6b9	0.1490735
209	0xbc61c20d	-0.0137791755
210	0x3e3230fc	0.17401499
211	0xbc7d6b3f	-0.015467464
212	0x3cfc71bb	0.03081595
213	0x3d3e0def	0.046400007
214	0x3af8df99	0.0018987536
215	0xbe3b84aa	-0.18312326
216	0x3db58d26	0.088648126
217	0xba6693f9	-0.00087958534
218	0x3daa7a85	0.0832415
219	0xbd9fdb4e	-0.07805501
220	0x3cd5545a	0.026041199
221	0x3e78684f	0.2425854
222	0x3e051c5c	0.129991
223	0x3d85be94	0.065304905
224	0xbe3b58a3	-0.18295531
225	0x3e6790e7	0.2261387
226	0x3dae4694	0.085095555
227	0x3e82dea1	0.25560477
228	0xbc7a4d94	-0.015277285
229	0xbdf577c4	-0.11985734
230	0xbe867d72	-0.26267582
231	0x3e44d16b	0.19220512
232	0x3e02454b	0.12721746
233	0x3ecfeab8	0.40608764
234	0xbdccfcec	-0.100091785
235	0x3c9622d5	0.018327156
236	0xbc02f482	-0.0079928655
237	0xbd80057e	-0.062510476
238	0x3ce9d8ba	0.028545726
239	0xbe083d4a	-0.1330463
240	0xbd54373e	-0.051810496
241	0x3e2a7f57	0.16650139
242	0x3e164810	0.14675927
243	0x3ba3cc9f	0.004998758
244	0xbb10b128	-0.002207825
245	0xbd405b26	-0.046961926
246	0x3b5f84ce	0.0034106257
247	0xbcd3427e	-0.025788542
248	0xbdb94a24	-0.09047344
249	0xbd67d0c7	-0.05659559
250	0x3d66deea	0.05636493
251	0xbc1e0c06	-0.009646421
252	0x3e1a1b24	0.15049416
253	0xbd9760e5	-0.07391528
254	0x3ee8887d	0.45416632
255	0xbde5f39a	-0.11228104

bias f4 [29]
0	0x3e6845ad	0.22682829
1	0xbdf87ec0	-0.12133551
2	0x3e91c220	0.28468418
3	0x3d66e474	0.056370214
4	0x3e058d9b	0.130423
5	0xbe66c680	-0.22536659
6	0xbdf078ea	-0.117418125
7	0xbe3f39a1	-0.18674327
8	0x3e2139c0	0.15744686
9	0xbeabdf6e	-0.335689
10	0xbe9e03d8	-0.30862308
11	0x3da22dfa	0.079189256
12	0xbb1753b0	-0.0023090653
13	0x3e33ab11	0.17545725
14	0xbaff2d88	-0.0019468525
15	0x3ca0e00e	0.019638088
16	0xbebc1fe9	-0.36743096
17	0x3e41dde4	0.18932301
18	0x3e36dea2	0.17858365
19	0x3e6bc8bb	0.23025791
20	0xbe7d2f97	-0.24725185
21	0xbe9cf349	-0.30654362
22	0xbe00f554	-0.12593585
23	0xbeac9b35	-0.33712164
24	0xbe90aa67	-0.28255007
25	0xbebff1f6	-0.3748929
26	0xbebd4734	-0.36968386
27	0x3d0ba848	0.034096032
28	0xbed2ddbb	-0.41184792
