models/ESEN_60-40/ESEN_60-40_1_best_loss.pt (torch, 318607 bytes, 7 tensors)

weight f4 [28, 16]
-0.31830174 -2.4524329 0.76214963 -1.1805458 0.64922154 0.8744699 -1.3818064 0.8056426
-2.0966136 1.1243981 -1.5379857 -0.8414322 -1.3838623 1.4196945 -0.08822251 -0.18235688
-0.14195484 -0.96335524 -2.6711924 -2.188494 -2.1582198 -1.921394 -0.531252 1.234635
-1.7593352 -0.43144053 0.7174846 -0.06673677 -0.42000633 1.2537203 0.28704733 -1.5459433
1.2463223 0.9842046 0.5696212 0.7926274 0.6483006 -2.02456 0.7710111 2.6345475
-2.3828871 0.17764269 -1.3242097 0.07573246 0.7975966 0.39257258 0.24883243 -2.4146469
-0.9433061 -0.116217405 -0.623585 2.3088405 -2.3066118 -0.6112979 1.1541454 0.64301646
-0.5331703 0.41970307 0.54193544 0.42513007 -0.028779916 -1.136029 -2.223432 1.3156544
-0.17254609 -0.48235756 -0.6030365 -0.1842554 -0.77832055 1.2278383 0.54781556 -0.09502974
1.4079198 2.2839718 -2.5420263 -1.9290079 -1.2355207 -0.43277472 -1.1899813 -0.45368597
1.3252689 -1.359519 -0.8979634 1.1532701 0.21768203 0.10759996 0.2766232 -0.56550217
0.29145548 -1.3065618 0.651637 0.31566435 0.11333544 0.52705127 1.7465621 -0.72108334
1.833555 0.44052222 -0.27107733 -0.8370852 -0.7505895 1.1830604 0.42440417 0.74691826
0.48959985 -0.6820322 1.4355519 -0.12156793 0.14975794 0.55477005 -2.1470222 -0.80532396
0.34912667 1.047907 -0.6661463 1.8250861 -1.0382792 -0.02956536 1.6405878 -0.06167405
0.8006842 0.00094410504 1.6156975 -0.06870004 -1.1146683 -1.0648282 1.3916137 -0.60326874
-0.4009799 -0.8677813 -1.1519096 -0.95093983 2.1079478 0.4134268 -2.4441094 -1.0965538
-0.17770159 -0.9728178 0.033417452 -1.984358 1.7407757 1.196187 1.71135 -0.553957
1.5743092 1.9383299 -1.5764427 -1.4422953 -0.4249828 -1.6790968 0.39884242 -0.8062239
-0.9205897 0.32536846 0.3380569 -0.77553654 -0.5159951 0.17058796 -1.631352 1.0190221
1.1249679 -0.109094866 1.5933409 -1.0025539 -1.0563204 0.5331835 -1.185886 0.23857138
0.053364005 -0.35549894 1.5914187 -2.9700847 0.85481226 -2.9506595 0.50571287 1.7111267
1.720012 2.8759637 -0.78567564 -1.3618296 -1.1647594 0.53417975 0.09238966 -2.1330028
-0.9331181 -0.43005064 -0.426659 1.234861 -0.92355853 -0.71423155 0.4903918 0.9400745
-0.109422095 -1.0112369 0.28652465 -0.70844495 -2.2471707 -1.5741534 -1.6654074 -3.4729006
-0.21805544 -0.2560629 -0.2688666 0.70639044 0.11413838 -0.81049067 -1.1523135 -0.6067864
-0.30605993 2.4146237 -2.650573 2.453352 -1.9488666 0.4501048 -0.6422636 0.12555657
-0.67549783 0.60535437 -0.086458065 -0.4068708 -0.08035468 0.56652284 0.209872 2.3069592
1.1850456 1.5119064 2.3348336 0.26275122 -1.7094569 1.4381307 -1.634003 1.1814758
0.66578716 -0.70949644 -1.6760252 1.9916365 -0.614484 1.2812053 0.6256683 -1.4237761
1.2455482 -1.7159023 -1.8410584 -0.5518252 0.40000007 0.92556375 1.0459186 2.0626223
-0.1858942 -2.747646 -0.8731896 -0.48469555 -0.30996493 -0.6197173 -1.6838113 0.040461935
00000000: 72f8 a2be a9f4 1cc0 3d1c 433f 201c 97bf
00000010: 6233 263f 42dd 5f3f 08df b0bf 983e 4e3f
00000020: eb2e 06c0 47ec 8f3f b7dc c4bf 1a68 57bf
00000030: 6622 b1bf 8db8 b53f 01ae b4bd c3bb 3abe
00000040: 9c5c 11be 739e 76bf d1f4 2ac0 4910 0cc0
00000050: 4620 0ac0 3df0 f5bf 2200 08bf 8508 9e3f
00000060: e531 e1bf c6e5 dcbe 12ad 373f 4aad 88bd
00000070: 120b d7be e879 a03f def7 923e 78e1 c5bf
00000080: 7d87 9f3f d5f4 7b3f b2d2 113f a1e9 4a3f
00000090: 07f7 253f 6492 01c0 fc60 453f 6d9c 2840
000000a0: 3981 18c0 f7e7 353e b47f a9bf 9f19 9b3d
000000b0: 4a2f 4c3f 46ff c83e eecd 7e3e 9389 1ac0
000000c0: 827c 71bf 6403 eebd 44a3 1fbf 0bc4 1340
000000d0: 879f 13c0 057e 1cbf 09bb 933f ba9c 243f
000000e0: d97d 08bf 52e3 d63e 48bc 0a3f a6aa d93e
000000f0: dcc3 ebbc 6669 91bf b64c 0ec0 5d67 a83f
00000100: ecaf 30be 92f7 f6be 9a60 1abf 73ad 3cbe
00000110: 0440 47bf ce29 9d3f a43d 0c3f f49e c2bd
00000120: b736 b43f 982c 1240 8fb0 22c0 bbe9 f6bf
00000130: 8b25 9ebf a694 ddbe 4f51 98bf 8749 e8be
00000140: 69a2 a93f b804 aebf eee0 65bf 5b9e 933f
00000150: 0ae8 5e3e 5e5d dc3d 8ea1 8d3e c0c4 10bf
00000160: a739 953e 6b3d a7bf afd1 263f c29e a13e
00000170: 691c e83d d5ec 063f 598f df3f eb98 38bf
00000180: eeb1 ea3f 218c e13e a6ca 8abe 374b 56bf
00000190: a226 40bf 866e 973f 814b d93e 0936 3f3f
000001a0: d5ac fa3e aa99 2ebf 2ac0 b73f 9bf8 f8bd
000001b0: 255a 193e 6905 0e3f d068 09c0 b629 4ebf
000001c0: bbc0 b23e d121 863f 9088 2abf 6c9c e93f
000001d0: 55e6 84bf 0e33 f2bc c8fe d13f ee9d 7cbd
000001e0: a4f9 4c3f d17d 773a 2dcf ce3f 9bb2 8cbd
000001f0: 73ad 8ebf 4a4c 88bf 6620 b23f d26f 1abf
00000200: 3d4d cdbe ea26 5ebf c671 93bf cb70 73bf
00000210: 9ee8 0640 adac d33e 4a6c 1cc0 e05b 8cbf
00000220: 68f7 35be 960a 79bf bde0 083d 71ff fdbf
00000230: bdd1 de3f a81c 993f 840d db3f 20d0 0dbf
00000240: f782 c93f 321b f83f e0c8 c9bf 229d b8bf
00000250: 5897 d9be a5ec d6bf 1335 cc3e b164 4ebf
00000260: c4ab 6bbf b296 a63e cb15 ad3e 9089 46bf
00000270: 4118 04bf 9cae 2e3e 24d0 d0bf 516f 823f
00000280: f3fe 8f3f 216d dfbd 98f2 cb3f b053 80bf
00000290: 8235 87bf b77e 083f 1dcb 97bf 0e4c 743e
000002a0: 3794 5a3d f503 b6be 9cb3 cb3f de15 3ec0
000002b0: fad4 5a3f 9bd7 3cc0 6676 013f 3306 db3f
000002c0: 5a29 dc3f ca0f 3840 0a22 49bf 6f50 aebf
000002d0: d616 95bf 01c0 083f ca36 bd3d 1e83 08c0
000002e0: d4e0 6ebf 992f dcbe 0c73 dabe ed0f 9e3f
000002f0: 556e 6cbf e1d7 36bf a214 fb3e b9a8 703f
00000300: b118 e0bd 3670 81bf 5cb3 923e a65c 35bf
00000310: a5d1 0fc0 dc7d c9bf 122c d5bf 0144 5ec0
00000320: ed49 5fbe ad1a 83be e2a8 89be 01d6 343f
00000330: 62c1 e93d 517c 4fbf 027f 93bf 5a56 1bbf
00000340: e3b3 9cbe 3289 1a40 fda2 29c0 b803 1d40
00000350: 7674 f9bf 2374 e63e 636b 24bf e791 003e
00000360: 6ded 2cbf 81f8 1a3f ed10 b1bd 5f51 d0be
00000370: ff90 a4bd a407 113f b0e8 563e 38a5 1340
00000380: 93af 973f 2686 c13f ea6d 1540 5487 863e
00000390: 7ccf dabf ab14 b83f 0327 d1bf 993a 973f
000003a0: 0771 2a3f 8fa1 35bf fe87 d6bf f2ed fe3f
000003b0: d34e 1dbf 89fe a33f cc2b 203f 4c3e b6bf
000003c0: 206e 9f3f b0a2 dbbf cda7 ebbf 6b44 0dbf
000003d0: cfcc cc3e bff1 6c3f a9e0 853f 0102 0440
000003e0: 0d5b 3ebe 6fd9 2fc0 5b89 5fbf 042a f8be
000003f0: b9b3 9ebe cba5 1ebf 2187 d7bf 6abb 253d

weight_ih_l0 f4 [512, 16]
0.026220165 0.144839 -0.16763958 0.00480047 -0.10149576 0.17544816 0.39016184 0.11643711
-0.3166233 0.106621705 0.025136985 0.3883188 -0.37262595 0.06360657 -0.37426722 -0.5083931
0.30523354 0.028618386 -0.1531049 0.3483777 -0.30508068 0.05330243 -0.08409867 0.253492
-0.110671036 -0.07762498 -0.18325344 0.045802843 0.1371278 0.29662213 0.045434136 -0.26209402
-0.19442154 -0.26656646 0.09256877 0.70117307 -0.86404467 -0.29553643 0.49962237 -0.2522005
-0.06310355 -0.41176477 0.16589452 -0.13321488 -0.24668181 -0.64145744 -0.25182202 -0.31706995
0.4012866 0.07135207 0.007084592 -0.36394212 -0.21506093 -0.541252 -0.07309018 -0.18875653
-0.5490909 0.4049613 -0.401549 0.1960643 0.19427754 0.084008396 -0.20159414 -0.13823722
0.055233166 0.13066462 0.1318755 0.26753944 0.2214948 -0.39260074 0.12895773 0.4149205
-0.07320512 0.31064495 0.17040902 -0.04448415 0.35107085 -0.1326294 0.25639835 -0.079001434
0.093959756 -0.03750544 0.39260906 0.30414706 -0.3569362 -0.33231094 0.14666453 0.15526585
-0.34673488 -0.022514405 -0.29293296 -0.22896832 -0.0690625 0.02432242 -0.49935773 -0.34360033
0.062815234 -0.045095876 -0.010397749 -0.09303775 0.0033125929 -0.099490255 0.16256249 0.18324216
-0.18356769 0.114620045 -0.1471829 0.3531332 -0.14595014 0.30816588 0.022891736 0.09417326
-0.08893038 -0.21791314 0.037938334 -0.13129367 0.21723023 0.17757824 0.085226305 -0.079261966
0.11050465 -0.11532921 -0.20067328 -0.03358852 -0.21678862 -0.19234592 -0.469596 0.008879268
0.06984883 0.48777467 -0.1931258 -0.39150372 -0.051496685 0.09652101 0.06537322 0.49400926
-0.032543227 -0.06320055 0.51270044 0.46447402 -0.21777035 0.10333837 -0.09043863 0.2554351
-0.037781388 0.02179625 -0.1879106 0.30141565 -0.15972191 0.023990657 -0.27645242 -0.2548301
0.04082426 -0.006051235 -0.17038484 0.004639746 0.2215555 -0.118151374 0.04266078 0.19325161
0.10036693 -0.12778893 0.18065105 -0.28312373 -0.34364042 -0.080751754 0.13318656 0.44629
-0.45587397 0.59401625 0.19577014 0.001462396 -0.26091856 -0.1920313 -0.40550712 0.1903208
-0.02046234 -0.15944046 -0.10753225 0.17176741 -0.30044886 -0.42655975 0.16594124 -0.34050542
-0.49501562 -0.106463134 0.012035118 0.23699418 0.46758923 0.16251747 -0.033947054 0.4243945
-0.015614861 -0.17852153 0.14787737 0.29702854 -0.20709 0.05920129 0.01817265 0.40225914
-0.10449303 0.094868794 0.05880777 -0.12960799 0.14935128 -0.19341652 -0.29593655 -0.41960174
-0.27822208 0.045796707 0.15743889 -0.3895205 0.1573543 -0.6890159 -0.19260627 -0.16410887
-0.29782858 0.4040014 -0.44663456 -0.3008461 0.33576474 0.047927983 0.37274963 -0.17134568
-0.0048197918 -0.17908579 0.26017433 -0.1322265 -0.10777355 -0.080004185 -0.17263772 0.36879864
0.26862478 0.3275615 -0.33695462 -0.19689523 0.078649916 -0.01852041 -0.13446087 0.0069257184
0.10731405 -0.15307274 -0.26937136 -0.39066446 0.05905172 0.3170471 0.05883557 -0.13191046
-0.031176502 0.00065113243 0.1228851 0.20851025 0.2525782 0.06518829 -6.900722e-05 0.018996906
00000000: accb d63c ad50 143e b6a9 2bbe 434d 9d3b
00000010: 02dd cfbd afa8 333e 4bc3 c73e 9476 ee3d
00000020: 731c a2be 7b5c da3d 14ec cd3c b9d1 c63e
00000030: d4c8 bebe 2944 823d f49f bfbe 0d26 02bf
00000040: 9247 9c3e 1b71 ea3c 88c7 1cbe 905e b23e
00000050: 8933 9cbe a653 5a3d ec3b acbd b4c9 813e
00000060: 7fa7 e2bd d8f9 9ebd caa6 3bbe c39b 3b3d
00000070: 3b6b 0c3e dbde 973e 2519 3a3d 3031 86be
00000080: 7116 47be 667b 88be b294 bd3d 1480 333f
00000090: 0832 5dbf 8d50 97be 81ce ff3e 6d20 81be
000000a0: 6f3c 81bd d5d2 d2be 41e0 293e 7b69 08be
000000b0: 289a 7cbe 8e36 24bf d1ee 80be fe56 a2be
000000c0: 7075 cd3e 0921 923d dd25 e83b 9f56 babe
000000d0: ef38 5cbe 7e8f 0abf 4eb0 95bd 6449 41be
000000e0: 3991 0cbf 1657 cf3e d597 cdbe 14c5 483e
000000f0: b1f0 463e 980c ac3d b26e 4ebe 0f8e 0dbe
00000100: 2c3c 623d f2cc 053e 5f0a 073e eefa 883e
00000110: 88cf 623e f702 c9be 7f0d 043e 7670 d43e
00000120: 91ec 95bd db0c 9f3e b47f 2e3e 0335 36bd
00000130: 8fbf b33e 00d0 07be a546 833e 81cb a1bd
00000140: f96d c03d 4e9f 19bd 0e04 c93e 2ab9 9b3e
00000150: 57c0 b6be a924 aabe 3a2f 163e 03fe 1e3e
00000160: 3c87 b1be 2170 b8bc 4ffb 95be ac76 6abe
00000170: a470 8dbd d03f c73c d1ab ffbe 62ec afbe
00000180: 46a5 803d 74b6 38bd 525b 2abc 938a bebd
00000190: 1618 593b 8cc1 cbbd c876 263e d5a3 3b3e
000001a0: 2bf9 3bbe eabd ea3d 1db7 16be e0cd b43e
000001b0: f473 15be ebc7 9d3e 7387 bb3c e9dd c03d
000001c0: 2221 b6bd 9f24 5fbe 3a65 1b3d d971 06be
000001d0: 9a71 5e3e 12d7 353e 218b ae3d 1954 a2bd
000001e0: 4350 e23d b931 ecbd 4c7d 4dbe 1e94 09bd
000001f0: d6fd 5dbe 54f6 44be e36e f0be 597a 113c
00000200: e70c 8f3d 9abd f93e c5c2 45be 2d73 c8be
00000210: 30ee 52bd cfac c53d 65e2 853d c8ee fc3e
00000220: 0c4c 05bd 4a6f 81bd 5640 033f 8acf ed3e
00000230: 31ff 5ebe 11a3 d33d e337 b9bd 64c8 823e
00000240: a8c0 1abd 0d8e b23c a36b 40be 2753 9a3e
00000250: 248e 23be 0e88 c43c 2c8b 8dbe 1779 82be
00000260: 5737 273d 7049 c6bb 5d79 2ebe 0309 983b
00000270: 72df 623e 59f9 f1bd 12bd 2e3d c0e3 453e
00000280: 2d8d cd3d 1adb 02be 97fc 383e 98f5 90be
00000290: a3f1 afbe 2d61 a5bd 0f62 083e 1f80 e43e
000002a0: 5068 e9be 7311 183f f877 483e dead bf3a
000002b0: 1e97 85be daa3 44be a19e cfbe 75e3 423e
000002c0: a3a0 a7bc 5c44 23be de39 dcbd cce3 2f3e
000002d0: 6fd4 99be 0a66 dabe 80ec 293e ba56 aebe
000002e0: b072 fdbe 5809 dabd f22e 453c 9aae 723e
000002f0: db67 ef3e fb6a 263e 110c 0bbd 3c4a d93e
00000300: 79d5 7fbc 59ce 36be 2a6d 173e 2014 983e
00000310: 670f 54be 0d7d 723d cfde 943c e9f4 cd3e
00000320: 7100 d6bd 924a c23d 6be0 703d f5b7 04be
00000330: 8bef 183e fb0e 46be ff84 97be 0ad6 d6be
00000340: 2073 8ebe 5495 3b3d a937 213e 3b6f c7be
00000350: 7c21 213e 5963 30bf 943a 45be 280c 28be
00000360: fd7c 98be 46d9 ce3e 49ad e4be 8008 9abe
00000370: 5be9 ab3e 2250 443d 0ad9 be3e 3e75 2fbe
00000380: 58ef 9dbb 4462 37be 9235 853e 6266 07be
00000390: 61b8 dcbd 3cd9 a3bd f1c7 30be 2dd3 bc3e
000003a0: 3089 893e 24b6 a73e 5185 acbe e79e 49be
000003b0: 3513 a13d 1db8 97bc 1cb0 09be 23f1 e23b
000003c0: 78c7 db3d 1abf 1cbe 0beb 89be 2c05 c8be
000003d0: 37e0 713d ff53 a23e 91fd 703d 8913 07be
000003e0: dd65 ffbc c2b0 2a3a 2fab fb3d b683 553e
000003f0: ee51 813e 7081 853d f8b7 90b8 669f 9b3c

weight_hh_l0 f4 [512, 128]
0.03716294 0.02043443 -0.10029808 -0.19697255 -0.017417597 -0.3240223 -0.07180699 0.21761349
0.28421134 -0.039712954 -0.22916561 -0.16762199 0.2927206 0.42527738 -0.14674559 0.24455915
0.085156135 -0.07329176 0.073253796 0.43335453 -0.2984147 0.02795879 -0.23446777 0.01438233
-0.21064042 -0.23249416 0.29740086 0.035287745 -0.19774835 0.68046135 -0.11388592 0.4173675
0.010794791 -0.14769569 -0.046127297 0.07608278 -0.13303491 0.4361597 0.18289506 0.09134994
-0.46726325 0.17286818 -0.19293907 -0.09059209 0.059351593 -0.014522997 0.07146154 0.12812938
0.1356265 0.16830346 0.37960902 0.11641429 0.17580792 0.6216201 -0.01321977 -0.18507136
0.012150028 0.14738062 -0.1912458 0.077020995 0.057267867 0.44497743 0.09929703 0.032032184
-0.16641098 -0.4002867 0.20537984 -0.048691045 0.19054969 -0.1033864 0.3290251 0.06012419
-0.46162403 0.039902356 -0.40724257 -0.33835116 0.28435963 0.1973535 0.24436511 -0.113082595
-0.04890415 -0.018866718 0.0094259605 0.0003972578 0.021340832 -0.07226165 -0.31021944 0.23305641
-0.06240766 -0.065859735 -0.105825394 0.2614408 0.20060232 0.17780228 0.22656797 0.23460516
0.16746193 -0.039123256 -0.2907844 -0.045032527 -0.38870248 -0.13978872 0.41910428 0.024299506
-0.044977527 0.014179017 0.16280451 -0.068907425 -0.29028952 -0.08184666 0.025336215 -0.3417453
-0.13928896 0.023274262 -0.15323469 -0.23080795 -0.23659496 -0.25506386 -0.13363333 -0.051899575
-0.41620252 -0.13992316 -0.05042843 0.10577677 -0.105760634 0.028669616 0.07796596 0.07512423
0.20515078 -0.21689908 0.18527079 -0.053491496 0.1496601 -0.18657643 0.11698101 0.057014916
0.12501104 -0.20132373 0.08570108 0.09522496 -0.062296655 0.3976854 -0.027858892 0.062516466
-0.070509695 -0.046616726 0.32457545 0.15888216 -0.07043864 -0.08976275 -0.30408198 -0.252709
-0.12841365 0.17948036 0.255928 -0.024315257 -0.11417634 0.18747868 -0.27296534 0.20223132
-0.1660229 -0.28186426 0.12566124 -0.3839512 -0.2646515 -0.19314891 -0.07866641 0.13903621
-0.1255395 0.040211 -0.21621813 -0.45100495 0.09096052 -0.51959544 0.24450622 -0.09213114
-0.008344309 0.25980136 -0.13286155 0.020922735 -0.031720586 -0.091795206 -0.019112686 0.0056865625
-0.15313974 -0.029943174 -0.37485912 -0.101742305 -0.19165678 0.26368612 -0.1485474 -0.07437062
0.13902143 0.17741568 0.14973406 0.16036268 0.39032352 0.29199904 -0.06495042 -0.12751572
0.025615145 0.32330734 -0.017491437 0.2604867 0.31127813 -0.18805693 0.21771541 0.0856262
0.15642601 0.7222304 -0.057860162 0.019010786 -0.04797336 0.34024397 -0.17564623 -0.2698486
-0.095245294 -0.19289093 0.41505924 0.1917579 -0.07051485 -0.12186125 0.24923064 -0.0793234
-0.058537364 -0.2711484 0.050426003 0.03037546 0.083186805 0.01649936 0.15462384 0.016587837
-0.39659688 -0.2360582 -0.20238131 -0.19411485 -0.39052048 -0.11025634 0.12197477 0.01582609
0.118919164 -0.36390465 0.22630493 0.13366622 -0.090231106 0.005887906 0.065926746 -0.2950402
0.22579958 0.14909327 -0.14530092 -0.005574588 0.14656943 -0.019885447 -0.54552346 0.27008474
00000000: 2b38 183d 1b66 a73c 1469 cdbd 2cb3 49be
00000010: 59af 8ebc 40e6 a5be 8b0f 93bd 12d6 5e3e
00000020: 2684 913e 0daa 22bd 64aa 6abe 19a5 2bbe
00000030: 79df 953e f5bd d93e 7a44 16be b76d 7a3e
00000040: 5766 ae3d fe19 96bd 1606 963d a5e0 dd3e
00000050: d0c9 98be d509 e53c 5218 70be dda3 6b3c
00000060: 1fb2 57be f312 6ebe ed44 983e e289 103d
00000070: 8b7e 4abe b732 2e3f 053d e9bd 31b1 d53e
00000080: a3dc 303c 8a3d 17be faef 3cbd 4ad1 9b3d
00000090: 4e3a 08be 5350 df3e d848 3b3e ad15 bb3d
000000a0: 213d efbe 5b04 313e d291 45be 5888 b9bd
000000b0: a81a 733d ddf1 6dbc 6e5a 923d 5934 033e
000000c0: ace1 0a3e be57 2c3e 1d5c c23e 9e6a ee3d
000000d0: fe06 343e 7f22 1f3f bc97 58bc 5983 3dbe
000000e0: e910 473c f2ea 163e f0d5 43be 2fbd 9d3d
000000f0: b691 6a3d 15d4 e33e 3e5c cb3d 2e34 033d
00000100: a467 2abe 61f2 ccbe 184f 523e 4370 47bd
00000110: 751f 433e 40bc d3bd fa75 a83e c844 763d
00000120: fc59 ecbe a770 233d 1982 d0be 5d3c adbe
00000130: 9697 913e 0917 4a3e d93a 7a3e d997 e7bd
00000140: b84f 48bd 608e 9abc 586f 1a3c 0a47 d039
00000150: f8d2 ae3c eafd 93bd 15d5 9ebe 57a6 6e3e
00000160: 2d9f 7fbd 78e1 86bd fcba d8bd 92db 853e
00000170: b26a 4d3e cd11 363e 6f01 683e 563c 703e
00000180: 247b 2b3e b53f 20bd b1e1 94be 0774 38bd
00000190: 0304 c7be c624 0fbe d694 d63e c20f c73c
000001a0: 5b3a 38bd 1c4f 683c 3ab6 263e 561f 8dbd
000001b0: d4a0 94be 399f a7bd e58d cf3c 3df9 aebe
000001c0: c4a1 0ebe aaa9 be3c 8ee9 1cbe eb58 6cbe
000001d0: f345 72be bb97 82be 2dd7 08be a694 54bd
000001e0: 7f18 d5be 0448 0fbe 0b8e 4ebd 7ea1 d83d
000001f0: 0899 d8bd 8bdc ea3c 9eac 9f3d bbda 993d
00000200: 0c13 523e cb1a 5ebe a0b7 3d3e e619 5bbd
00000210: 7f40 193e e40d 3fbe bd93 ef3d 7988 693d
00000220: e502 003e cf27 4ebe 0c84 af3d 4e05 c33d
00000230: c72a 7fbd 6c9d cb3e 5538 e4bc a208 803d
00000240: 6367 90bd 2ef1 3ebd c12e a63e 01b2 223e
00000250: 2242 90bd 88d5 b7bd a2b0 9bbe 1363 81be
00000260: de7e 03be b3c9 373e ff08 833e ca30 c7bc
00000270: 49d5 e9bd 69fa 3f3e 1dc2 8bbe ba15 4f3e
00000280: e801 2abe 8350 90be 57ad 003e 4095 c4be
00000290: 6780 87be d4c8 45be db1b a1bd 825f 0e3e
000002a0: 6d8d 00be 4ab4 243d 4968 5dbe 1fea e6be
000002b0: 8249 ba3d 3504 05bf d75f 7a3e 40af bcbd
000002c0: 92b6 08bc af04 853e dc0c 08be 2866 ab3c
000002d0: 72ed 01bd 20ff bbbd 3592 9cbc 5856 ba3b
000002e0: aad0 1cbe 634b f5bc 89ed bfbe 455e d0bd
000002f0: ad41 44be de01 873e cf1c 18be a04f 98bd
00000300: a25b 0e3e 75ac 353e e353 193e 1d36 243e
00000310: 7cd8 c73e e680 953e ba04 85bd 7b93 02be
00000320: dad6 d13c 8a88 a53e 344a 8fbc 835e 853e
00000330: d95f 9f3e ff91 40be caf0 5e3e ca5c af3d
00000340: 242e 203e 17e4 383f c7fe 6cbd 82bc 9b3c
00000350: b77f 44bd 7534 ae3e 9bdc 33be 9829 8abe
00000360: f70f c3bd 3385 45be a582 d43e 2f5c 443e
00000370: 176a 90bd 6492 f9bd 5136 7f3e 4f74 a2bd
00000380: e0c4 6fbd f7d3 8abe 7f8b 4e3d f5d5 f83c
00000390: d85d aa3d aa29 873c b655 1e3e 37e3 873c
000003a0: bf0e cbbe 3eb9 71be 0c3d 4fbe 0bc6 46be
000003b0: 4df2 c7be 13ce e1bd e9cd f93d b7a5 813c
000003c0: e48b f33d b651 babe 7bbc 673e ccdf 083e
000003d0: 16cb b8bd 56ef c03b 9a04 873d 820f 97be
000003e0: 0138 673e e8ab 183e c4c9 14be 09ab b6bb
000003f0: 4c16 163e cee6 a2bc 6da7 0bbf 8c48 8a3e

bias_ih_l0 f4 [512]
0.18219712 0.21696474 0.2667361 0.08248661 0.024059467 0.12179299 0.038509134 0.06296058
-0.069912806 0.2318827 0.26158476 0.39882272 0.28003588 0.09171156 0.013150412 0.15052684
0.37068972 0.13555256 0.23722684 0.14571491 0.24478725 0.07863288 0.122661404 0.1226928
0.14140232 0.17627208 0.18378028 0.11007384 0.25331932 0.27707404 0.12355941 0.11702988
0.20848721 0.16664727 0.1994133 0.30678582 0.16825676 0.12520014 0.33272436 0.14656264
0.07376034 0.29525357 0.30742133 0.16575386 0.25969782 0.3169444 0.04061988 0.057645354
-0.010235486 0.25446367 0.032610465 0.25472882 0.077253774 0.18424521 0.18366563 0.21489067
0.0971428 0.135122 0.14478818 0.14920075 0.06913236 0.34736407 0.018058766 0.061936066
0.12191808 0.17163296 -0.015093248 0.092530526 0.14396031 0.30066696 0.08736641 0.27107626
0.25881833 0.12487059 -0.027885979 0.12647656 0.10872105 0.12985498 0.09250696 0.11123193
0.23260064 0.30391493 0.16307442 0.33127925 0.14870258 0.24286135 -0.008986407 0.20510331
0.31208774 -0.008425188 0.23226343 0.10560514 0.0071229218 0.1610669 0.013018836 0.24871488
0.31156772 0.19002308 0.14604914 0.19019869 0.116573095 -0.02351998 0.072155304 0.14184085
0.25429648 0.1516537 0.045783915 0.13962388 0.054457705 0.14679044 0.1941489 0.17879955
0.4514477 0.3093868 0.16936067 0.21167585 0.015894188 0.08611342 0.100027874 0.12255884
0.19206747 0.18672654 0.24382253 0.04855809 0.22982883 0.24083711 0.19626169 0.3869019
-0.0071552084 0.07364698 -0.06081469 -0.10863161 -0.05776538 0.112281986 0.09897012 0.13919364
0.057141095 0.05340873 -0.17164898 -0.08661153 0.09038974 -0.02911527 0.012616102 0.03274391
0.016360816 0.034467872 -0.057617612 -0.19355522 0.115800396 0.022184316 0.04566953 0.17822602
0.17252406 -0.04748212 -0.114964984 -0.042022184 0.13573396 -0.017722672 -0.05629929 -0.0920109
-0.051644154 0.12820327 -0.085516855 0.10368545 0.19480962 -0.09203371 -0.2484957 0.029410398
-0.018899992 0.050126914 -0.04538351 -0.0218382 0.09790402 -0.25928813 -0.028119892 -0.040218666
-0.07164828 -0.050049625 0.014483509 0.088485055 0.06641873 0.123524666 0.1355456 0.044759233
-0.13275605 -0.0264153 0.19611134 0.37597823 -0.07874028 -0.14005229 -0.00490026 0.12027446
0.07635157 0.02126406 -0.018721728 0.011452922 0.023221552 -0.019334177 0.012764701 -0.08718076
-0.22082287 -0.056813262 0.028861249 -0.13446221 0.026073648 -0.048418842 0.0007244201 -0.09868125
0.040458247 -0.08788866 0.056495205 -0.14888936 0.100722976 -0.0024414668 -0.10419292 0.011146967
0.11269875 0.10511252 -0.14047351 0.21014145 -0.028873706 0.0834027 0.2325576 0.014775789
-0.076733544 -0.0074433275 -0.008837695 -0.07680589 -0.08078841 0.054062862 -0.05851127 -0.01333517
0.09582455 -0.037362333 -0.045436013 0.05567543 -0.26067916 0.06635093 0.13000795 0.14688815
-0.10584902 -0.037446268 0.19941238 -0.11207094 0.0058052945 0.07981724 0.008081362 0.09808234
-0.0009505898 0.054199878 -0.045256197 0.015209183 -0.039950345 -0.02259443 -0.004101138 -0.16454254
00000000: e291 3a3e 012c 5e3e a291 883e bdee a83d
00000010: 5c18 c53c 9a6e f93d c1bb 1d3d 7af1 803d
00000020: 722e 8fbd a972 6d3e 70ee 853e 7e32 cc3e
00000030: dd60 8f3e 45d3 bb3d d374 573c b523 1a3e
00000040: 0bcb bd3e 4ace 0a3e 98eb 723e 4a36 153e
00000050: 82a9 7a3e 460a a13d e735 fb3d 5d46 fb3d
00000060: c5cb 103e ab80 343e e630 3c3e 656e e13d
00000070: 12b3 813e a6dc 8d3e b70c fd3d 5dad ef3d
00000080: ac7d 553e 95a5 2a3e 0033 4c3e 0813 9d3e
00000090: 804b 2c3e 7734 003e d95a aa3e 8414 163e
000000a0: a90f 973d 7a2b 973e 5466 9d3e 61bb 293e
000000b0: 1df7 843e 8946 a23e 0861 263d 891d 6c3d
000000c0: bdb2 27bc 1049 823e 8d92 053d d16b 823e
000000d0: 3a37 9e3d c7aa 3c3e d812 3c3e 4d0c 5c3e
000000e0: cef2 c63d 6c5d 0a3e 5a43 143e 15c8 183e
000000f0: 4495 8d3d b4d9 b13e faef 933c acb0 7d3d
00000100: 30b0 f93d 8dc0 2f3e ac49 77bc a580 bd3d
00000110: 556a 133e 05f1 993e 29ed b23d 82ca 8a3e
00000120: d683 843e 27bc ff3d 2371 e4bc 1283 013e
00000130: 24a9 de3d b4f8 043e 4a74 bd3d 91cd e33d
00000140: dd2e 6e3e bd9a 9b3e fbfc 263e 6f9d a93e
00000150: 7d45 183e a5b0 783e b93b 13bc 9a06 523e
00000160: f7c9 9f3e cd09 0abc 77d6 6d3e 8247 d83d
00000170: 6667 e93b b9ee 243e f54c 553c 1daf 7e3e
00000180: ce85 9f3e 6995 423e e88d 153e 72c3 423e
00000190: e0bd ee3d f9ac c0bc 29c6 933d ba3e 113e
000001a0: 2633 823e 1c4b 1b3e ea87 3b3d 90f9 0e3e
000001b0: 0b0f 5f3d 3c50 163e f8ce 463e 3b17 373e
000001c0: 2724 e73e f267 9e3e e26c 2d3e 8ec1 583e
000001d0: 8734 823c 3c5c b03d 6adb cc3d 2100 fb3d
000001e0: 56ad 443e 3e35 3f3e 9dac 793e d9e4 463d
000001f0: 4058 6b3e 019e 763e d3f8 483e 0118 c63e
00000200: 3d76 eabb 3ad4 963d d318 79bd 407a debd
00000210: 649b 6cbd 19f4 e53d d9b0 ca3d c788 0e3e
00000220: c80c 6a3d 1dc3 5a3d c0c4 2fbe 6361 b1bd
00000230: 421e b93d 2683 eebc c4b3 4e3c 7a1e 063d
00000240: 1e07 863c 2f2e 0d3d 7200 6cbd 5733 46be
00000250: c228 ed3d e2bb b53c f90f 3b3d e280 363e
00000260: 26aa 303e 9d7c 42bd c372 ebbd 741f 2cbd
00000270: d8fd 0a3e 232f 91bc 169a 66bd 3670 bcbd
00000280: d288 53bd b847 033e 7623 afbd 0a59 d43d
00000290: 2c7c 473e 2b7c bcbd a875 7ebe 13ee f03c
000002a0: 28d4 9abc e151 4d3d 0fe4 39bd 06e6 b2bc
000002b0: e781 c83d 6ac1 84be b05b e6bc 54bc 24bd
000002c0: 55bc 92bd d600 4dbd 3d4c 6d3c a737 b53d
000002d0: 8b06 883d 80fa fc3d 77cc 0a3e 7555 373d
000002e0: 34f1 07be e664 d8bc 69d1 483e 3880 c03e
000002f0: 9542 a1bd de69 0fbe 5c92 a0bb 7552 f63d
00000300: 365e 9c3d f731 ae3c 4f5e 99bc 09a5 3b3c
00000310: 203b be3c b562 9ebc 0923 513c d48b b2bd
00000320: 641f 62be 06b5 68bd 6d6e ec3c 76b0 09be
00000330: 6798 d53c d652 46bd 03e7 3d3a 6519 cabd
00000340: 8cb7 253d f8fe b3bd 8467 673d 7476 18be
00000350: d947 ce3d 0401 20bb 1963 d5bd c5a1 363c
00000360: 9ace e63d 3c45 d73d 4ad8 0fbe 522f 573e
00000370: 8d88 ecbc 09cf aa3d 9423 6e3e 2716 723c
00000380: 7a26 9dbd 28e7 f3bb fbcb 10bc 684c 9dbd
00000390: 6574 a5bd 0571 5d3d 83a9 6fbd c27b 5abc
000003a0: a93f c43d 3f09 19bd 1d1b 3abd eb0b 643d
000003b0: bd77 85be ffe2 873d ce20 053e d969 163e
000003c0: 5fc7 d8bd 4261 19bd c232 4c3e 7385 e5bd
000003d0: 573a be3b 3977 a33d b067 043c 65df c83d
000003e0: 0031 79ba b100 5e3d 905e 39bd f02f 793c
000003f0: f9a2 23bd f417 b9bc d762 86bb d77d 28be

bias_hh_l0 f4 [512]
0.12617283 0.2140447 0.29007956 0.03075505 0.087432206 0.2903807 0.16681626 0.20280294
0.067207344 0.10924036 0.31529552 0.28472388 0.28189424 0.231808 0.039662417 0.1043672
0.3077143 0.12353249 0.10784886 0.21952502 0.22702524 0.15507512 0.034170344 0.11104421
0.15816055 0.10856899 0.1848486 0.15903327 0.23315695 0.27713838 0.1056747 0.06591914
0.13953853 0.13856928 0.13980904 0.2963531 0.2040747 0.23570389 0.34681383 0.1936466
0.0861367 0.19465579 0.23057608 0.10569553 0.1371983 0.32914257 0.06489414 -0.07230985
0.04577386 0.22857688 0.04583054 0.3363898 0.07270484 0.16283202 0.117778525 0.10949425
0.16940814 0.14175315 0.108238496 0.1592693 0.024609936 0.28384516 0.039184425 0.03677196
0.18182623 0.21110871 0.10394628 0.16586362 0.19566132 0.19585426 0.014384773 0.38227594
0.19614922 0.09573465 0.058488175 0.19524035 0.11505455 0.06024054 0.13137013 0.14019173
0.15572464 0.2694666 0.17524782 0.20259194 0.15250546 0.18244578 0.12692235 0.25463995
0.21238638 -0.0145408865 0.15895954 0.15176645 0.009675523 0.27082118 0.10496949 0.19428319
0.21256782 0.11750758 0.18086427 0.037665166 0.27131528 0.034495793 0.07527048 0.2530493
0.19421788 0.17267184 0.11885699 -0.0037465931 0.15209994 0.119148865 0.29723296 0.12763423
0.4927716 0.16343528 0.08403211 0.20814493 0.12485362 0.13838916 0.19273087 0.057694085
0.18684854 0.2412105 0.2183467 0.07686329 0.37970462 0.20573 0.2284802 0.24907264
-0.11461432 0.08298088 -0.12115374 -0.093545236 -0.045448076 0.10165372 0.065762416 0.071715266
0.014583206 0.1061908 -0.029436637 -0.13757998 0.093101405 0.0041431854 -0.11581687 0.067383885
-0.033723786 0.025470966 -0.085710965 -0.14508668 0.07264864 0.07122827 0.08156407 0.12829451
0.092687815 0.05724256 -0.15120532 -0.0039909924 0.1264351 0.026792781 0.009827701 -0.04790469
-0.07492613 0.15898682 -0.18140677 0.18088627 0.1558249 -0.0035281414 -0.23064546 0.0038877514
0.13650313 0.017569482 -0.024399929 0.07536852 0.17521882 -0.2315373 0.12114759 0.059538584
0.01524426 0.075230934 -0.017982543 -0.017494265 0.16535564 0.048870333 0.25608003 -0.006604458
-0.14702551 -0.00943008 0.17117256 0.36048815 -0.11055149 -0.10745147 -0.048670176 0.043576762
0.01030416 0.021834292 -0.05206323 0.13317214 -0.08752705 -0.04883747 0.06131049 -0.047501117
-0.09722669 -0.048581988 0.027787674 -0.14357574 0.17756131 -0.006220327 -0.04019647 0.03591281
-0.11324258 -0.14004967 0.054563295 -0.036858972 0.044933226 0.08613589 0.0014031534 -0.120526314
0.037472058 0.01787139 -0.18325387 0.17684965 -0.100209914 0.0859083 0.20287919 0.003471789
-0.04422171 -0.0029279238 0.025383003 -0.027732458 -0.05125636 -0.047807667 0.08003361 -0.024931105
0.055495247 -0.056711677 0.103401445 0.16138425 -0.2149399 -0.0022507238 0.15354548 0.013268365
-0.13785188 -0.061647817 0.2354685 -0.20008661 0.011117402 0.08396361 0.08557267 0.09892439
0.10315555 -0.03288935 -0.029868845 0.130872 0.03915758 0.019653399 -0.049327813 -0.2653231
00000000: 7333 013e 892e 5b3e 4f85 943e 04f2 fb3c
00000010: a80f b33d c7ac 943e e2d1 2a3e 93ab 4f3e
00000020: 01a4 893d 69b9 df3d 6a6e a13e 54c7 913e
00000030: 7154 903e 145f 6d3e 0f75 223d 78be d53d
00000040: bb8c 9d3e 9afe fc3d dddf dc3d 2bcb 603e
00000050: 4e79 683e 03cc 1e3e 34f6 0b3d 266b e33d
00000060: d7f4 213e 6b59 de3d f448 3d3e 9ed9 223e
00000070: b2c0 6e3e 15e5 8d3e fa6b d83d 9d00 873d
00000080: 30e3 0e3e 1be5 0d3e 1a2a 0f3e 98bb 973e
00000090: f5f8 503e 5c5c 713e 9591 b13e 4b4b 463e
000000a0: 7068 b03d d953 473e 231c 6c3e e676 d83d
000000b0: b67d 0c3e 6085 a83e 38e7 843d 3017 94bd
000000c0: 5f7d 3b3d 0f10 6a3e ceb8 3b3d 493b ac3e
000000d0: 46e6 943d 70bd 263e de35 f13d 853e e03d
000000e0: 5479 2d3e bd27 113e 25ac dd3d 7e17 233e
000000f0: c79a c93c 2754 913e d97f 203d 329e 163d
00000100: a830 3a3e e22c 583e cae1 d43d 27d8 293e
00000110: 715b 483e 058e 483e 1cae 6b3c acb9 c33e
00000120: 57db 483e 8710 c43d 4c91 6f3d 16ed 473e
00000130: b8a1 eb3d c9be 763d e485 063e 6c8e 0f3e
00000140: 4876 1f3e 87f7 893e 2a74 333e 4374 4f3e
00000150: 642a 1c3e 11d3 3a3e eff7 013e 2b60 823e
00000160: d17b 593e e63c 6ebc 4ac6 223e aa68 1b3e
00000170: 1686 1e3c 13a9 8a3e 3efa d63d 2cf2 463e
00000180: 61ab 593e d0a7 f03d 7c34 393e ca46 1a3d
00000190: d6e9 8a3e 764b 0d3d 6927 9a3d ae8f 813e
000001a0: 0de1 463e e3d0 303e 4b6b f33d 6789 75bb
000001b0: 16c0 1b3e 5204 f43d eb2e 983e 8cb2 023e
000001c0: 8f4c fc3e 945b 273e 0719 ac3d f223 553e
000001d0: 41b3 ff3d e3b5 0d3e 3e5b 453e a250 6c3d
000001e0: 3955 3f3e e3ff 763e 4796 5f3e 806a 9d3d
000001f0: a568 c23e e3aa 523e b7f6 693e e60c 7f3e
00000200: eaba eabd e1f1 a93d 741f f8bd a594 bfbd
00000210: c327 3abd d32f d03d 72ae 863d 74df 923d
00000220: 66ee 6e3c 907a d93d 1a25 f1bc c4e1 0cbe
00000230: f3ab be3d 8fc3 873b 6531 edbd 9000 8a3d
00000240: f421 0abd 7da8 d03c 3b89 afbd 9a91 14be
00000250: cfc8 943d 21e0 913d 100b a73d a35f 033e
00000260: 1cd3 bd3d 2d77 6a3d 91d5 1abe dfc6 82bb
00000270: 3478 013e 897c db3c 5e04 213c b537 44bd
00000280: df72 99bd 71cd 223e b2c2 39be 403a 393e
00000290: 9090 1f3e 6438 67bb 532e 6cbe a5c9 7e3b
000002a0: 7ac7 0b3e e0ed 8f3c 5ce2 c7bc d05a 9a3d
000002b0: 906c 333e 1d18 6dbe 3a1c f83d bbde 733d
000002c0: 10c3 793c ad12 9a3d 2050 93bc 2250 8fbc
000002d0: fd52 293e 422c 483d ec1c 833e 366a d8bb
000002e0: db8d 16be 9f80 1abc dc47 2f3e e791 b83e
000002f0: d268 e2bd 840f dcbd 615a 47bd 8c7d 323d
00000300: c8d2 283c d4dd b23c 4140 55bd 475e 083e
00000310: 6241 b3bd cd09 48bd b520 7b3d 8890 42bd
00000320: c91e c7bd e8fd 46bd faa2 e33c 8505 13be
00000330: a2d2 353e e3d3 cbbb 0ea5 24bd 5019 133d
00000340: baeb e7bd 2e69 0fbe c37d 5f3d 6ff9 16bd
00000350: e70b 383d 0368 b03d 04ea b73a 80d6 f6bd
00000360: 4d7c 193d 0567 923c e7a6 3bbe 1318 353e
00000370: db3a cdbd b1f0 af3d 90bf 4f3e f486 633b
00000380: d321 35bd 69e2 3fbb 04f0 cf3c 2e2f e3bc
00000390: 30f2 51bd f9d1 43bd a9e8 a33d 513c ccbc
000003a0: fc4e 633d 814a 68bd 23c4 d33d ea41 253e
000003b0: 3519 5cbe e180 13bb 073b 1d3e 8e63 593c
000003c0: 0b29 0dbe 6c82 7cbd a81e 713e 81e3 4cbe
000003d0: c425 363c 1df5 ab3d b940 af3d df98 ca3d
000003e0: 3843 d33d fcb6 06bd 82af f4bc 4f03 063e
000003f0: b363 203d 2a00 a13c f60b 4abd 6ed8 87be

weight f4 [28, 128]
0.34811717 0.29319504 -0.19774596 -0.48317322 0.11640737 -0.16419694 -0.3813276 -0.20930742
0.19939342 0.25948566 0.3899758 -0.19489513 -0.15777737 0.019960038 0.22701263 0.31621242
-0.09637827 0.12691507 -0.11988607 -0.53230506 -0.079263754 -0.12651627 -0.29820767 -0.13496627
-0.06060642 0.23732449 0.2526741 0.12308189 -0.067779005 -0.2277666 0.40102574 -0.1124104
0.28058782 -0.2728445 0.2170725 -0.21322303 -0.259313 0.36609268 -0.10843242 -0.048036054
0.15351334 -0.33711877 -0.10313017 -0.3179954 0.23763174 -0.3218747 0.15760261 -0.067049004
0.4114766 0.2587718 -0.21589133 -0.15557821 -0.12998234 -0.25010806 0.01584931 0.40092617
0.26977336 -0.052472495 -0.04273323 -0.15034366 -0.1869439 0.13215369 -0.13719381 0.0057756766
0.084261775 0.14848514 -0.1938642 0.41426474 -0.003985124 -0.069096036 -0.10004624 0.14678533
-0.15766928 0.12789883 0.50349265 -0.77257687 -0.072209716 0.018929388 0.08737644 -0.11660573
0.223419 0.33686188 -0.1803993 0.48565304 -0.2882198 -0.12150594 -0.121678494 0.11834795
-0.32488552 -0.31702772 -0.25637573 0.21702641 0.50114167 -0.054144736 -0.07507675 -0.024654029
0.088213146 0.05131683 0.04243408 -0.18224747 0.055738505 -0.3999018 0.30524874 0.27594832
0.071320586 -0.35831082 0.10336749 -0.024627242 0.16214037 0.1375351 0.11560962 0.3496953
0.0076042027 -0.12432418 0.016719066 0.35079718 -0.047126345 -0.13055645 -0.36836526 0.17524582
0.100967854 0.030662816 -0.21585266 0.033407968 -0.33946913 -0.14807615 -0.27462566 -0.09818395
-0.44966343 -0.08131011 0.22976533 0.040529516 0.16928275 -0.124759555 0.11205884 0.21540964
-0.21155019 0.27870956 -0.15378843 0.37214178 0.02739416 0.23794913 -0.13593085 -0.038995635
-0.33778438 0.30861253 -0.011422957 0.40882736 -0.003056226 0.13523315 0.15464959 -0.15878344
-0.020653594 -0.22649315 0.39062098 -0.33172187 -0.058153875 0.32159525 -0.4047914 -0.15704496
0.0209626 -0.10513273 0.33269227 0.23185405 -0.12597243 0.28775612 0.021787947 0.018090146
-0.35681108 0.13863163 0.06469602 0.4117698 0.22963867 0.41614994 0.03966821 -0.3245321
-0.008570847 0.37649918 -0.05166823 -0.1804295 -0.09327306 -0.0896541 -0.17195234 0.08935087
-0.093529664 -0.21241298 -0.017770912 0.022235775 -0.014764448 0.24317771 -0.33271852 0.4048816
0.04892437 -0.21147911 0.09866078 0.24092166 -0.1843618 -0.13296834 -0.20835134 -0.20676546
-0.258609 0.21302432 -0.20055269 -0.2354783 -0.013424265 0.17991155 0.24153039 -0.050598145
0.10575878 -0.19640736 0.10808642 0.23384878 0.0059554814 -0.3048769 0.3499375 -0.058858596
-0.09801321 0.23170795 0.24346578 -0.16497822 -0.08621045 0.038620688 -0.014536135 0.25548917
-0.19153908 0.31879014 -0.080284804 -0.15596831 -0.08660735 -0.07240227 -0.2256212 -0.22164682
0.03107555 0.44674933 -0.2620168 -0.53172517 -0.2867539 -0.31210342 0.24029075 0.15025792
0.00023249447 0.22498806 -0.34934175 -0.46626794 -0.121383935 -0.21862829 -0.054037314 0.30829853
0.0055251704 -0.2841293 0.08253817 0.17552958 0.16436838 -0.096516326 0.13655448 0.124880694
00000000: 6a3c b23e a91d 963e eb7d 4abe 7b62 f7be
00000010: fd66 ee3d 3e23 28be 5f3d c3be af54 56be
00000020: ca2d 4c3e 4edb 843e e8aa c73e 9792 47be
00000030: 6490 21be 3c83 a33c 0076 683e 98e6 a13e
00000040: f861 c5bd 06f6 013e d486 f5bd 2545 08bf
00000050: 0955 a2bd 7b8d 01be adae 98be 9934 0abe
00000060: 703e 78bd 3105 733e 805e 813e 5c12 fc3d
00000070: b8cf 8abd a63b 69be 3f53 cd3e 6c37 e6bd
00000080: 35a9 8f3e 46b2 8bbe 4148 5e3e 2357 5abe
00000090: acc4 84be 8070 bb3e d111 debd 74c1 44bd
000000a0: 9a32 1d3e d59a acbe e935 d3bd 4bd0 a2be
000000b0: bc55 733e c3cc a4be 9462 213e fd50 89bd
000000c0: 10ad d23e bd7d 843e 9e12 5dbe e54f 1fbe
000000d0: 171a 05be 2a0e 80be 6ad6 813c 3246 cd3e
000000e0: bc1f 8a3e 66ed 56bd 0a09 2fbd b0f3 19be
000000f0: 396e 3fbe 4c53 073e 897c 0cbe e341 bd3b
00000100: 7091 ac3d 7d0c 183e 5684 46be 821a d43e
00000110: a595 82bb 3982 8dbd 0be5 ccbd e54e 163e
00000120: 0e74 21be e9f7 023e e5e4 003f 99c7 45bf
00000130: b0e2 93bd ce11 9b3c 6bf2 b23d fcce eebd
00000140: f3c7 643e 2979 ac3e 98ba 38be 84a7 f83e
00000150: 8c91 93be 1bd8 f8bd 9332 f9bd 6960 f23d
00000160: 6557 a6be 7551 a2be ae43 83be 2c3c 5e3e
00000170: d24a 003f dfc6 5dbd d7c1 99bd 3ff7 c9bc
00000180: 18a9 b43d 9931 523d 5ccf 2d3d 159f 3abe
00000190: 0f4e 643d eebf ccbe 9049 9c3e 1949 8d3e
000001a0: 8710 923d 8474 b7be 56b2 d33d 12bf c9bc
000001b0: 2008 263e 00d6 0c3e bdc4 ec3d 430b b33e
000001c0: ad2c f93b ad9d febd 6cf6 883c b09b b33e
000001d0: 8e07 41bd 97b0 05be 5f9a bcbe a473 333e
000001e0: 3cc8 ce3d 9630 fb3c 7b08 5dbe cbd6 083d
000001f0: e6ce adbe 46a1 17be bc9b 8cbe ab14 c9bd
00000200: 493a e6be ea85 a6bd 9a47 6b3e 4702 263d
00000210: 7558 2d3e f081 ffbd 1b7f e53d 5894 5c3e
00000220: 9da0 58be 05b3 8e3e b77a 1dbe 5e89 be3e
00000230: b869 e03c f0a8 733e 7531 0bbe e3b9 1fbd
00000240: 13f2 acbe 7602 9e3e 5b27 3bbc d251 d13e
00000250: f74a 48bb 8f7a 0a3e 765c 1e3e 2098 22be
00000260: ba31 a9bc d2ed 67be 79ff c73e 73d7 a9be
00000270: c232 6ebd 22a8 a43e d240 cfbe 65d0 20be
00000280: c2b9 ab3c d44f d7bd a456 aa3e 266b 6d3e
00000290: ebfe 00be c554 933e a37c b23c c931 943c
000002a0: f1af b6be 73f5 0d3e 597f 843d 7ed3 d23e
000002b0: 6626 6b3e 9b11 d53e 227b 223d 1229 a6be
000002c0: bd6c 0cbc 80c4 c03e 11a2 53bd 83c2 38be
000002d0: f205 bfbd 929c b7bd 4614 30be 97fd b63d
000002e0: 7b8c bfbd ca82 59be 4e94 91bc cd27 b63c
000002f0: 95e6 71bc 9403 793e 155a aabe a44c cf3e
00000300: ec64 483d fb8d 58be aa0e ca3d 2bb4 763e
00000310: 57c9 3cbe da28 08be 0e5a 55be 53ba 53be
00000320: 6668 84be 0c23 5a3e af5d 4dbe 3921 71be
00000330: 73f1 5bbc bc3a 383e be53 773e 0040 4fbd
00000340: 0f98 d83d 031f 49be 6a5c dd3d 0e76 6f3e
00000350: 3326 c33b d318 9cbe 022b b33e b615 71bd
00000360: 26bb c8bd d944 6d3e 184f 793e 0df0 28be
00000370: 1b8f b0bd ba30 1e3d f828 6ebc 7acf 823e
00000380: d222 44be 7638 a33e 5c6c a4bd 28b6 1fbe
00000390: 325f b1bd a447 94bd 3e09 67be 62f7 62be
000003a0: 2792 fe3c 54bc e43e 1127 86be 241f 08bf
000003b0: 68d1 92be 05cc 9fbe c70e 763e 36dd 193e
000003c0: c2c9 7339 4563 663e ecdc b2be acba eebe
000003d0: 2498 f8bd 18e0 5fbe 3b56 5dbd 4ed9 9d3e
000003e0: 7d0c b53b 6579 91be c609 a93d 07be 333e
000003f0: 2f50 283e 5aaa c5bd f0d4 0b3e 73c1 ff3d

bias f4 [28]
0.08555192 -0.07277679 -0.024867876 0.032639146 0.11345713 -0.08141444 -0.0733555 -0.0021673532
-0.037137114 -0.10657668 -0.0014201553 0.006737965 -0.03446883 0.13319498 0.108640514 -0.07088877
-0.18332382 0.027916314 0.15234487 0.09687229 0.101071484 -0.037727244 -0.033579696 -0.09160045
0.057854995 -0.106215514 -0.017763367 -0.11821034
00000000: d835 af3d ff0b 95bd b7b7 cbbc a0b0 053d
00000010: 365c e83d 9dbc a6bd 693b 96bd 270a 0ebb
00000020: 161d 18bd e044 dabd 8124 baba 26ca dc3b
00000030: 302f 0dbd 4464 083e eb7e de3d 222e 91bd
00000040: 3db9 3bbe c1b0 e43c 4b00 1c3e fb64 c63d
00000050: 91fe ce3d e287 1abd dd8a 09bd 0499 bbbd
00000060: 5cf9 6c3d 8587 d9bd 7b84 91bc 4318 f2bd
