models/ESEN_60-40/ESEN_60-40_9_threshold_ldt_85.pt (torch, 318607 bytes, 7 tensors)

weight f4 [28, 16]
000000 97 da 4f be 60 b0 12 bf 5b 8d b2 3f 75 d4 a1 bf
       -0.20298229 -0.57300377 1.3949388 -1.2642962
000010 c0 83 3a 40 df 8a e5 bf b9 51 b9 3e 9b f4 c0 3f
       2.9142914 -1.7933005 0.36195162 1.5074648
000020 2c a4 3e 3e 83 83 f1 3f 77 1f 10 3e 87 16 18 3f
       0.18617314 1.8868259 0.14074503 0.59409374
000030 55 9f b5 3e b3 19 c5 3f 8b 50 98 bf 07 14 18 3d
       0.35473123 1.5398468 -1.189958 0.037128475
000040 4e 79 09 40 3d 7a a1 3f 8b 48 dd bf be fd 6e 3e
       2.1480289 1.2615429 -1.7287763 0.23338982
000050 0c f6 88 bf 44 02 32 c0 a1 3c 0e bf cc f9 b8 3f
       -1.0700088 -2.7813883 -0.5556126 1.4451232
000060 dc 61 30 3f 47 3e 1e 3f 05 9a 9a 3f 84 11 44 bf
       0.6889932 0.6181378 1.2078253 -0.76589227
000070 d9 a1 bb 3e 79 7f 6b be e4 23 aa bf ab a1 87 3f
       0.36646917 -0.22997846 -1.3292203 1.0596212
000080 42 77 2e bf 9b 5c 5a bf 06 53 b9 bf e2 2f 07 40
       -0.68150723 -0.85297555 -1.4478462 2.1122975
000090 ff 95 ed bf 06 11 7f 3d be 39 30 bf 6d 09 af 3f
       -1.85614 0.062272094 -0.6883811 1.3674752
0000a0 86 9a 5f c0 77 f7 8e be 50 f5 66 bf 7b d0 7b bf
       -3.4938064 -0.27923176 -0.9021807 -0.9836499
0000b0 08 4a a9 3e 7a 4f 88 3f 5b 43 0d c0 5b 8f 02 40
       0.33064294 1.0649254 -2.207236 2.0399997
0000c0 20 6e b9 3e be da 13 40 72 b8 8f 3e 6f 0c f0 bf
       0.3621683 2.310226 0.28070408 -1.8753794
0000d0 46 96 a4 3f 12 83 91 3f 4e 51 08 c0 3f cb b9 3f
       1.285836 1.1368124 -2.1299624 1.4515151
0000e0 61 5e c2 3d ab 7f 17 40 55 88 a7 3f 90 3f da 3f
       0.094906576 2.3671672 1.308848 1.7050648
0000f0 50 2f f6 3d 55 65 bd 3d d5 2a ee 3f 51 67 ff be
       0.12020743 0.09247843 1.8606821 -0.49883512
000100 24 c0 02 40 b8 02 01 bf 80 05 cd 3f 62 19 f2 bf
       2.0429773 -0.50394773 1.6017303 -1.8913996
000110 1b d6 c9 3e cc 51 a9 be 47 7c 1e 3e c2 16 8d 3e
       0.39421162 -0.3307022 0.15477096 0.27556425
000120 bd 08 02 3d 13 d2 c1 bf f0 17 e0 bf f9 43 b6 3f
       0.031746615 -1.5142235 -1.7507305 1.4239494
000130 c7 f5 a3 be 02 16 87 be 29 1d b8 bd f1 31 a5 3f
       -0.3202345 -0.26383978 -0.08989937 1.2905866
000140 71 36 bf bd b7 dd bb 3f 6c 50 99 bf 3b fc 04 bf
       -0.09336556 1.4677037 -1.1977668 -0.51947373
000150 24 ff 1f bf d0 8f 25 3f 3a 32 62 3d ef 2d 51 be
       -0.6249869 0.64672565 0.05522368 -0.20427679
000160 00 7b 83 3f 7c a4 e5 3f 20 f8 7c bf aa 23 15 40
       1.0271912 1.7940822 -0.9881611 2.3303018
000170 6d 19 fa 3f 01 d6 7a bf cc aa af 3f 10 a4 ed bf
       1.9539009 -0.97982794 1.3723998 -1.8565693
000180 84 94 e3 3f 79 e0 ae be 33 6e 06 3f a4 89 90 be
       1.7779698 -0.34155634 0.525119 -0.2823001
000190 ad b5 29 c0 70 c0 14 c0 70 4e 33 be 62 1d 01 be
       -2.6517136 -2.3242455 -0.1751039 -0.12608865
0001a0 52 c2 b3 3d f9 f4 5c be 1c 75 9c be d3 75 bd 3d
       0.08777298 -0.21577825 -0.30558097 0.09250989
0001b0 0f 55 cb 3f 35 62 5b c0 ea 9d 80 3f 98 71 86 bf
       1.5885333 -3.427869 1.0048192 -1.0503416
0001c0 e8 a0 0b 3f 52 ef af bf 92 f2 da bf 24 61 68 bf
       0.545424 -1.374491 -1.7105277 -0.90773225
0001d0 9c 56 fa be 35 62 b8 bf bb 63 20 bd 57 d8 33 3e
       -0.48894203 -1.440497 -0.03915761 0.17562996
0001e0 93 d9 bd bf 5d 40 6f 3f f3 c4 17 40 54 1d 17 c0
       -1.4832023 0.93457586 2.3713958 -2.361165
0001f0 68 fb 2b be 43 e8 44 3f fb cf 8a 3f 80 62 8d be
       -0.16795123 0.76916903 1.0844721 -0.27614212
000200 21 aa d5 bf e7 e3 f6 bf a3 6e d5 3f f2 56 a1 3f
       -1.6692544 -1.92883 1.6674389 1.2604659
000210 8e 1a 90 bd 99 0b 3c 3f 6b 61 a1 bf 0e 3d a5 3e
       -0.07036315 0.73455197 -1.2607855 0.32273144
000220 f2 7b 21 3f c5 dd 1c c0 d0 da 3a bf 35 d5 57 bf
       0.6307975 -2.4510357 -0.7299013 -0.84309703
000230 95 89 2b be 61 bf 0f 3e f4 67 d7 3b 93 01 09 3f
       -0.16751702 0.14037849 0.0065736715 0.5351803
000240 fe 4b 05 40 4f f8 2a 3d 69 cd 2b c0 83 e8 bf 3e
       2.0827632 0.04174071 -2.6844122 0.3748208
000250 46 e1 2a 3f 20 f2 7e 3f 62 e8 be bf 75 78 80 bf
       0.6674999 0.99588203 -1.4914668 -1.003676
000260 18 75 a9 be 23 77 47 bf 25 9a a4 3f cb 21 7b 3f
       -0.33097148 -0.77916163 1.2859541 0.9809844
000270 28 4d 38 bf 68 6f fb bf 33 6c 00 3f 1e 9d f1 bf
       -0.7199273 -1.9643373 0.501651 -1.8876073
000280 bc 07 e4 3f 85 a3 f8 bf f4 47 f5 be 7e 81 82 bf
       1.781486 -1.9424902 -0.47906458 -1.0195768
000290 a5 ee 55 3e 3f 11 31 3f c5 28 97 3f d8 68 e2 3e
       0.20891817 0.6916694 1.1809317 0.44220614
0002a0 d9 bf 3e 3e c8 38 b7 3f ce 69 55 3f 4f 4a 53 3e
       0.18627872 1.4314203 0.8336457 0.20633815
0002b0 ec 24 8a bf d2 a3 08 c0 88 6c ba 3f dc 53 48 3e
       -1.0792518 -2.1349988 1.4564371 0.1956324
0002c0 d6 88 98 3f 90 9b aa 3c 05 c5 f5 3e 46 e0 77 3f
       1.1916759 0.020826131 0.48001876 0.9682659
0002d0 32 a6 2a 3c 16 8a 7f 3f a6 7b f7 be 8a bf 23 bf
       0.010415601 0.9982008 -0.48336524 -0.6396414
0002e0 f7 bf 4f bf 0f 77 64 3e b3 e3 65 bf a6 d7 22 c0
       -0.8115229 0.22311042 -0.89800566 -2.5444121
0002f0 32 91 41 c0 4f 6c 1f 3f af 2a 1d bf c5 e2 29 c0
       -3.024487 0.6227464 -0.61393255 -2.654466
000300 d4 78 ea bf b2 a3 85 3f c4 8c 4c 3d 17 11 32 c0
       -1.8318124 1.0440581 0.049938932 -2.782293
000310 3d c6 0c c0 70 03 f6 3f 48 7d a2 bf 4f c7 0e bd
       -2.1995995 1.9219799 -1.2694483 -0.034858044
000320 96 6e 1e bf ba 1a 02 3d fc dd ca 3f 6f 61 08 c0
       -0.6188749 0.03176377 1.5848994 -2.1309469
000330 bc 9e a2 bf 7f be 4d bf 4a 22 2a 3f 10 f1 3f 40
       -1.2704692 -0.803688 0.6645857 2.9990883
000340 f6 06 61 be 81 0c 63 be 0d 95 33 bd 9b 2d f7 bf
       -0.21975312 -0.22172739 -0.043843318 -1.9310793
000350 4a 87 67 bf dc dc d5 be dc 7b 1b 3e ba 9f 0a 40
       -0.9044081 -0.41770065 0.15183967 2.165999
000360 fe 7b 17 40 22 28 14 bf f8 97 2d 40 ff 80 34 bf
       2.366943 -0.5787374 2.7124004 -0.7050933
000370 7e 6a 0b bf 0c 85 82 bf f1 87 d6 bf 82 8d 24 c0
       -0.5445937 -1.0196853 -1.6760236 -2.571137
000380 e5 b7 81 3e 97 4d 16 bf 3c ab 4b 3f 98 90 0d bf
       0.25335613 -0.5871214 0.7955816 -0.5529876
000390 d2 33 9d 3f e2 7b a4 bf e2 ed 72 3f d9 ce 3f c0
       1.2281439 -1.2850306 0.9489423 -2.997
0003a0 89 38 b2 be 4b 9e f4 3c 75 55 7f 3f f9 62 8f bf
       -0.34808758 0.029860636 0.9973977 -1.1202079
0003b0 f8 72 90 3f d2 4a a9 3e 75 69 c9 be ae de d2 3e
       1.1285086 0.33064896 -0.3933827 0.41185516
0003c0 26 2c f8 3e 0e 0e da 3f 4d 21 bd 3f 93 17 1b 40
       0.48471183 1.7035539 1.4775788 2.4233139
0003d0 86 94 4a bf b9 7a bf 3f 4b c4 a5 3f 56 1c 9d 3f
       -0.7913288 1.4959327 1.2950529 1.2274272
0003e0 99 c1 45 bf 9b 5e db 3f 75 25 2e 40 35 cd 37 3f
       -0.7724853 1.7138246 2.7210362 0.71797496
0003f0 49 a1 9e 3f 94 01 98 bf 13 43 b1 bf 45 ba c5 3f
       1.239297 -1.1875482 -1.3848594 1.544747

weight_ih_l0 f4 [512, 16]
000000 06 79 4c 3f 95 9f 7f be 14 ba 8d 3e 43 10 e4 3d
       0.7987217 -0.2496322 0.2768103 0.11135914
000010 87 fa 74 be 69 79 87 3d 89 63 7d be 1d 9d 3c 3e
       -0.23923694 0.06614954 -0.24745001 0.18419309
000020 b6 3b a3 3e 09 37 8f be 90 6c cf be f2 7b 13 bd
       0.31881493 -0.27971676 -0.40512514 -0.036006875
000030 e9 15 56 3d c6 d5 54 be f8 02 a6 3e 8c 41 62 bd
       0.05226699 -0.20784673 0.3242414 -0.05523829
000040 41 33 7c 3c 51 73 d4 3e fe 9e 37 3e f2 5c b7 bd
       0.015393079 0.4149423 0.17931744 -0.08953275
000050 2d 1f 8f bd 25 97 24 3e 43 46 65 be 99 9a 10 bf
       -0.06988368 0.16073282 -0.22390084 -0.564859
000060 a7 90 83 bd c7 80 2a bf 1d e9 26 3e 4d 2f d1 be
       -0.064240746 -0.6660275 0.16299863 -0.408564
000070 57 45 8c be 72 89 0b bf 59 b5 c8 3e a1 e7 3b bf
       -0.27396652 -0.545066 0.39200857 -0.7340031
000080 4c 9a 03 be c4 5f 41 be 75 d3 0e bf 92 15 33 3e
       -0.12851828 -0.18884188 -0.5579141 0.17488697
000090 91 57 49 be 29 df d6 be 91 0a c6 3e da 25 9e bc
       -0.1966231 -0.41967133 0.38679937 -0.019305158
0000a0 45 c8 5f 3e 3f 39 97 bb 14 64 ee be fd 13 36 bf
       0.2185374 -0.0046149786 -0.4656073 -0.7112425
0000b0 fc e8 7b be 63 be 91 be f8 96 96 3c e6 71 18 be
       -0.24600595 -0.28465566 0.018382534 -0.14887199
0000c0 31 48 d3 3d 02 81 25 be d6 26 1a 3c ea ae b1 3d
       0.10316504 -0.16162494 0.009408673 0.0867594
0000d0 44 a4 8a 3e c5 3e be 3e f4 42 e3 be c0 84 cc 3d
       0.2707845 0.37157264 -0.4438702 0.099862576
0000e0 14 fe 15 be c6 ba d3 3e 93 f8 11 3e 0c fe 8c 3e
       -0.14647704 0.41353434 0.1425498 0.27537572
0000f0 de b8 23 be 1f 6c 11 3e 0f 93 39 3d 04 a3 a2 be
       -0.1598849 0.14201401 0.04530626 -0.31764996
000100 d7 4f 3b 3d b2 81 20 3e 5b b5 e2 bd db 49 8a be
       0.045730438 0.15674475 -0.11069747 -0.27009472
000110 ef f5 14 3f d4 23 3a be 49 46 c2 3e 56 3a 07 3f
       0.58187765 -0.1817773 0.37944248 0.5282339
000120 dd 79 38 3e bd 98 8b 3e 19 8d ff be 7f bc 88 be
       0.18015237 0.27264968 -0.49912336 -0.2670631
000130 51 91 62 be d7 29 00 3f f7 59 67 be aa dd 00 3f
       -0.22125746 0.5006384 -0.22592913 0.5033823
000140 e1 39 8a be 70 ab e2 be 62 51 58 3e 26 c2 44 3e
       -0.26997283 -0.4427142 0.21124795 0.19214687
000150 2f 3a 01 bf e7 82 68 3d 4d 11 14 be 24 8f 08 3f
       -0.50479406 0.056765463 -0.14459725 0.53343415
000160 4f d1 85 3e 23 64 80 3e b3 c2 c3 bd 13 9b d8 be
       0.26136252 0.25076398 -0.0955862 -0.42305812
000170 73 7c dc bd 2e 17 b0 be b6 0c e4 be 8f 2b 32 3f
       -0.10765924 -0.34392685 -0.44540948 0.69597715
000180 76 82 a3 bd 40 9f a4 3e af b3 98 3e 39 de 8d be
       -0.07983868 0.32152748 0.29824588 -0.27708605
000190 44 e4 e2 be 0c 9e 3d 3f 50 df ef bd fc 16 18 3e
       -0.44314778 0.74069285 -0.11712515 0.14852518
0001a0 a1 27 a6 3e a5 c0 34 bf a8 96 91 be f8 66 7f 3e
       0.3245211 -0.7060645 -0.28435254 0.24941623
0001b0 dd 13 ad be a2 e3 f6 bc 57 2f e6 3e 68 b8 9e bd
       -0.33804217 -0.03013784 0.44957992 -0.077500165
0001c0 e7 0d c5 bd d4 df 4d be f6 7b f3 3d 00 d9 52 3e
       -0.09621792 -0.20104915 0.11888878 0.20590591
0001d0 e6 d5 66 3d a3 99 e5 bc 56 04 07 bf 5c 1f 1d 3f
       0.056356333 -0.028027361 -0.5274099 0.61375976
0001e0 91 7c ba be 4b f9 0f bd 7f 8a 38 be c7 92 76 3e
       -0.36423162 -0.035149854 -0.18021582 0.24079429
0001f0 11 84 ae be 67 07 fb 3d e9 4b 1c 3e c5 63 47 3e
       -0.34085134 0.12257271 0.15263332 0.19471653
000200 8a 39 4b 3e 8e 77 86 bd 32 2d a1 b9 b7 1e 8c 3e
       0.19846168 -0.06565772 -0.00030741986 0.27367184
000210 02 9f 2d be 67 78 70 3e ad f0 f2 be d7 70 fd be
       -0.16955188 0.2348343 -0.47449246 -0.49500152
000220 76 6d 3f be 66 30 b7 be 67 e5 6d ba bc 19 5e 3d
       -0.186941 -0.35779113 -0.0009075016 0.05422376
000230 c5 41 80 3e 4a dc 65 bf 84 c6 89 be 8c 9e 31 bd
       0.25050178 -0.8978926 -0.26909268 -0.043364093
000240 13 09 6b 3e a5 24 c5 3c a3 58 1f 3e ad 82 90 3d
       0.2295268 0.024065325 0.15561156 0.070561744
000250 df d9 33 bd 30 53 b6 bd 1e 40 7c 3e 1e 2d fd be
       -0.04390895 -0.089025855 0.24633834 -0.49448484
000260 a1 f9 1e be 72 d0 b3 be 38 71 d2 bd ff 35 4c bf
       -0.15524913 -0.3511997 -0.10275501 -0.7976989
000270 01 c9 df 3b 84 95 28 3e a1 2c 28 3d ae 21 c9 3d
       0.0068293815 0.16463286 0.041058186 0.09820877
000280 f4 73 56 3e 5e 13 81 3e 19 c0 9f 3e ad 8f 1d 3e
       0.2094267 0.25210088 0.31201246 0.15386839
000290 0f aa 63 bd c2 f5 fc bd 57 81 a7 3e ca e5 31 3d
       -0.055582102 -0.12351562 0.32715866 0.043432035
0002a0 81 a7 e6 3d 6d aa 98 be 4d e2 e1 bd 39 47 60 bd
       0.112624176 -0.29817525 -0.110294916 -0.054755423
0002b0 ea 63 d2 3d 3b 9b ee 3d 92 93 d3 3d 6b 71 1e bf
       0.10272963 0.116507016 0.10330881 -0.6189181
0002c0 07 6b 6f 3e 5a 2b 73 be 75 3f 29 bd 7c 8a c3 3e
       0.23380671 -0.23747006 -0.041320283 0.38191593
0002d0 78 1f 01 be ab bb f6 bd 4c 8f 49 bd 18 1b 9e bd
       -0.1260966 -0.120475136 -0.049208924 -0.077200115
0002e0 9c 73 aa be 57 6e 7b be fe 7a 23 3e b5 a0 8d 3e
       -0.33291328 -0.2455381 0.15964887 0.27661672
0002f0 3f ff 2f be 40 4c de bd 4a 03 d2 bc 8a 44 dd 3d
       -0.17187212 -0.10854387 -0.025636334 0.108040884
000300 6a 7f 50 3e 44 a0 15 bf d1 b3 40 3e 5c bf 20 be
       0.20361105 -0.5844767 0.18818595 -0.15697998
000310 57 a8 b7 bd ad 82 33 3f 4e ee 3b bd aa 70 22 3e
       -0.08967655 0.7012127 -0.045881562 0.1586329
000320 b7 19 cd 3e ee f4 b6 3c 2b df ff 3d 92 7c 42 3d
       0.4005868 0.022333588 0.12493738 0.04748208
000330 3c 31 d0 be f4 14 15 3f 0c 8f 62 3e 72 80 ad 3e
       -0.40662563 0.58235097 0.2212488 0.33887058
000340 41 12 f0 bd 3e e9 2d 3e 78 13 8e bd 47 c8 ed 3e
       -0.11722232 0.16983506 -0.06937307 0.46441862
000350 89 7c 97 3d c5 7a 43 3f 77 47 86 bc 57 62 1b be
       0.073968 0.76359206 -0.016391499 -0.15174232
000360 1f 96 db 3d 37 1e b9 be f4 81 98 3d 81 64 68 3e
       0.10721993 -0.36155865 0.074466616 0.22694589
000370 22 79 19 be 32 87 80 be 5b 41 1a 3e 67 10 f8 3d
       -0.14987615 -0.25103146 0.15063994 0.121125035
000380 e6 b7 fb bd b3 16 99 3c 57 18 5a 3d 9a 5a 05 3e
       -0.12290935 0.018687582 0.05324587 0.13022843
000390 c9 98 66 be fe 86 4f be 6a 8a 12 3e 23 90 66 bc
       -0.2251922 -0.20266339 0.14310613 -0.014072451
0003a0 76 74 b8 3e 5f 7f 4b 3e ff 5e 89 3e 39 91 f7 bd
       0.36026353 0.19872807 0.2683029 -0.12088246
0003b0 ca aa ea 3c dd c0 7a bc 96 78 a5 3c 33 59 0e bb
       0.028645892 -0.015304771 0.020199101 -0.0021720647
0003c0 02 40 27 be 93 7d 6d 3e ba ef 9e be 81 8d 18 bf
       -0.16333011 0.23192434 -0.31042272 -0.5959092
0003d0 cf 2c 02 3c d8 1a d0 bd fd fa 06 bf 46 42 ce 3e
       0.0079452535 -0.1016137 -0.5272673 0.40284938
0003e0 3e 4e 7b 3e 52 58 40 3e 66 11 9e 3e 60 a7 c3 3e
       0.24541566 0.18783692 0.3087265 0.38213634
0003f0 d4 95 84 be 04 fd 18 3e 69 90 2e 3d 9b f1 cd be
       -0.2589556 0.14940268 0.04261819 -0.40223393

weight_hh_l0 f4 [512, 128]
000000 d7 3b 22 3f 3e a8 7c be 5a 56 7c 3d 94 c9 01 bb
       0.6337256 -0.24673554 0.06160579 -0.0019803988
000010 b5 ed b3 bd e0 9c b3 bc 5f 1d f6 3e 62 69 58 3f
       -0.087855734 -0.02192539 0.48069283 0.845358
000020 12 4d d1 3e 38 26 4a 3e 97 74 15 3f fa af 68 3d
       0.40879112 0.19741142 0.58381027 0.05680845
000030 f7 b6 bc 3d 42 4a db 3e d1 39 e5 be ce 33 dc bd
       0.09214585 0.42830092 -0.44770673 -0.107520685
000040 a0 46 1a be 56 e6 da be 00 b9 07 3f 42 fe 04 3f
       -0.15066004 -0.42753857 0.5301666 0.51950467
000050 37 b1 c7 3e d1 b1 7f 3e b1 7e 36 3e ae 53 b1 bd
       0.39002392 0.24970175 0.17821766 -0.08658539
000060 6f ac ed be 1e e3 24 bd 2e dc 8c 3d a5 04 b2 be
       -0.4642062 -0.04025566 0.068779334 -0.34769168
000070 08 96 5a be 8f 79 91 3e 65 d7 c9 be b8 2e b3 3d
       -0.21346295 0.28413054 -0.39422145 0.08749145
000080 cc fc 57 3f 3d 46 0d bf af 93 41 bf 54 2c ae 3e
       0.8437011 -0.551853 -0.7561597 0.34018195
000090 b4 15 bc be d0 7f 19 bf fc 78 b0 bd c6 4e 80 3d
       -0.36735308 -0.5996065 -0.08616826 0.06265025
0000a0 a7 df 4a bd 0d 10 e4 be d6 25 1c bf 1d bf 2f bd
       -0.049529698 -0.44543496 -0.60995233 -0.04290687
0000b0 7a 9f 91 3e 59 f8 df bd 80 a6 70 3e d7 74 cf be
       0.28441983 -0.109360404 0.23501015 -0.4051883
0000c0 51 2a 16 3e f1 40 22 be da a1 b5 3e ae 56 b2 3d
       0.1466458 -0.15845086 0.35475045 0.08707939
0000d0 4c a1 af 3e fe 77 76 3d 34 05 8a 3d 1d b6 96 3e
       0.34302747 0.060173027 0.06739274 0.29435816
0000e0 01 ed 49 3e ef a1 5b be 15 fa 4b be 87 dc a3 be
       0.19719316 -0.21448492 -0.19919617 -0.32004187
0000f0 7b 06 8a be 3b d7 7e be 4f 88 0a bf f9 71 98 be
       -0.2695807 -0.24886791 -0.5411424 -0.29774454
000100 6d 97 f5 3e df 95 82 3e a8 f9 af 3d 6c 40 eb 3d
       0.4796709 0.25504968 0.0859254 0.11486897
000110 e2 92 dc 3d 97 19 8b 3e 83 91 94 be d6 1b db 3e
       0.10770203 0.2716796 -0.29017267 0.42794675
000120 93 fc 7a be 92 2c fb 3e c2 ce 01 be 98 df ab be
       -0.24510412 0.49057442 -0.12676528 -0.33569026
000130 1b 0d 06 3d fa ed af be 93 ed 23 3d 52 6d 22 3e
       0.032727342 -0.3436125 0.04002149 0.15862015
000140 9b 20 cf bc 31 32 ba bd 95 60 cf bd b5 53 61 3e
       -0.025284102 -0.090916045 -0.101258434 0.22004588
000150 4c 67 4a be c4 4c f6 3e f3 83 f4 be 0e 09 0c bf
       -0.19765967 0.48105443 -0.4775692 -0.54701316
000160 dd 8b 24 bd 84 37 95 bd 92 e7 65 bd 0e cf 6a be
       -0.040172447 -0.072859794 -0.056129046 -0.22930548
000170 97 f3 21 bc e0 a7 b4 be 57 d4 23 3e 3a a2 83 3e
       -0.0098847365 -0.35284328 0.1599897 0.25709707
000180 7c 35 10 bf 74 4e 42 3f f9 a2 70 bd aa 3d 0f bf
       -0.5633161 0.7590096 -0.058749173 -0.55953467
000190 88 ff 1f be 86 a5 0e 3d 93 86 9e bd 3a 33 9a 3d
       -0.15624821 0.034825824 -0.07740512 0.07529302
0001a0 96 68 50 3e b5 0d 08 bf 70 53 5e be d2 1d c3 bd
       0.20352396 -0.53145915 -0.21711516 -0.09527172
0001b0 08 e6 91 3e 52 88 bf be a5 3a 82 3d 6b 12 8d 3e
       0.28495812 -0.37408692 0.06358842 0.27553114
0001c0 99 f9 b5 3d 5f 97 8c 3e 8a 9d df bc 61 34 20 bf
       0.088854976 0.27459237 -0.0272968 -0.62579924
0001d0 37 13 57 be 08 30 d8 bd e9 15 f3 3e 32 2b 3a 3d
       -0.21003424 -0.10556036 0.47477654 0.04545135
0001e0 ce a9 bd 3e 3f 83 96 3e 02 4b 5f 3d 0b b0 cc 3e
       0.37043613 0.29397008 0.054514892 0.3997806
0001f0 fd 5d 7d be bb fd 50 be f8 f5 93 3e ae c4 70 be
       -0.24742885 -0.2040929 0.28898597 -0.23512527
000200 3e eb 30 3c f0 42 3c 3c 46 cd 95 bc 9b a6 dd bc
       0.010798274 0.0114905685 -0.018286359 -0.027056983
000210 8e e2 c6 bd 18 ea a9 3e a3 4f dc 3c c5 b6 a3 be
       -0.097111806 0.33186412 0.026893442 -0.3197538
000220 79 98 8d 3e ac 22 f1 bd b7 61 b0 3e 6c 43 6e 3d
       0.2765539 -0.11774191 0.3444955 0.058169767
000230 da 7b 86 bd f2 ee b4 3c 65 18 c7 3d 0e 1f d1 3e
       -0.065665916 0.022086594 0.0972145 0.40844005
000240 d1 67 3d be ba 10 55 3e 0e d1 41 3e c8 82 75 3e
       -0.18496634 0.20807162 0.18927404 0.2397567
000250 c0 92 61 be a0 fc 74 bd ee ec a8 3e df fe 54 3d
       -0.22028637 -0.059811234 0.32993263 0.052000877
000260 fc 34 90 be 08 14 32 3e 4f e5 e6 3d 17 18 e7 3d
       -0.28165424 0.17390454 0.11274206 0.11283892
000270 fd 83 0f 3e a6 2b 57 3e 43 2b 1a 3d 0f 25 63 3e
       0.14015193 0.21012744 0.037638914 0.22182105
000280 be 6d 88 3e 31 8b 0c bf 22 df f4 bd 48 e6 13 3e
       0.26646227 -0.5489989 -0.11956622 0.14443314
000290 76 48 16 be 8d ef 38 3e 5e 43 54 3d db f9 12 3d
       -0.14676079 0.18060131 0.05182206 0.035882812
0002a0 ea 48 c5 3d f3 4c 0b 3e b8 8d 80 bd 00 a9 20 be
       0.09633048 0.13603573 -0.06277031 -0.15689468
0002b0 75 7a 3e 3f 7b 22 0e 3e 21 ec eb 3d 51 63 11 be
       0.74405605 0.13880341 0.115196474 -0.14198042
0002c0 6e b2 78 bd f7 96 c7 be 6a 41 19 3e d8 de 62 3e
       -0.06071704 -0.38982365 0.1496636 0.2215532
0002d0 d4 43 56 3e 6e 20 9d 3d d4 88 08 3d 7d f5 d4 3e
       0.20924312 0.07672201 0.033333614 0.41593543
0002e0 5d 8b 14 be f3 f9 a5 be 82 df d8 3d e9 e7 e2 3c
       -0.14506288 -0.3241726 0.10589506 0.027698474
0002f0 9a 98 ff be fe 2e 8b 3e 92 6d 12 be 21 e9 66 3d
       -0.49921113 0.2718429 -0.1429961 0.056374673
000300 a0 ee 1a 3e 75 cd c2 3c 81 81 b1 3e 0d 7e e6 3d
       0.1513009 0.02377961 0.34669116 0.11254511
000310 4f e0 7c bb d0 c7 6c 3e e3 1c b0 3d 28 66 1a be
       -0.0038585847 0.23123097 0.0859926 -0.15078032
000320 f4 12 31 bf 87 81 e0 3e 45 9e 2c bc 3a fe 62 bc
       -0.69169545 0.43848822 -0.010535781 -0.013854558
000330 84 94 7b 3e 59 f6 4a 3e 88 f9 7d be 74 2f 5e bd
       0.24568373 0.19820537 -0.2480222 -0.054244474
000340 de c8 16 bd 7f 37 fc 3d e2 b7 fe bd de 61 ee bb
       -0.036812656 0.123152725 -0.124374166 -0.0072748503
000350 c6 df 81 3e bc cc 27 bd f2 0c f5 3e 17 88 8f 3d
       0.25366038 -0.040966734 0.4786144 0.07008379
000360 7c f2 cc 3e 42 29 97 3e 66 d8 a1 3d 35 fd 16 3e
       0.4002875 0.29523665 0.07902603 0.14745028
000370 8d a2 91 be dc 2b 22 3e 16 e7 14 be 0b 24 41 be
       -0.2844433 0.15837044 -0.14541277 -0.18861406
000380 0a 74 48 3e 3c d8 b0 be 5e ee 9d bd 48 17 9f 3e
       0.19575515 -0.34539974 -0.077114806 0.3107245
000390 06 ef ec bd b4 1f e8 3d 24 ea 01 3f bb 6b 4f be
       -0.115690276 0.11334172 0.50747895 -0.2025594
0003a0 e0 3b c8 bd c3 58 8e bd bd 26 91 3e 1f b9 bc 3e
       -0.09777045 -0.06950524 0.28349867 0.36859986
0003b0 58 21 01 3e 60 0d 4d bc b5 0a 75 3e 8a 0f e4 3d
       0.12610376 -0.012515396 0.23929866 0.11135776
0003c0 f4 1a 89 be 25 f7 9a 3c d1 87 22 3e 8e 69 29 3e
       -0.26778376 0.018916676 0.15872122 0.16544172
0003d0 c3 52 40 3d 3d 8e de bd b7 6c 49 3e f6 9f de 3e
       0.046953928 -0.108669735 0.19670378 0.43481416
0003e0 5b 0f 69 be 3f 7c 43 3d c9 74 7a 3e a5 2f 47 be
       -0.22759764 0.047725912 0.24458613 -0.19451769
0003f0 07 19 35 be 8d a3 6d be 70 3e 7f bd 70 63 2f 3e
       -0.17685328 -0.23206921 -0.062315404 0.17127776

bias_ih_l0 f4 [512]
000000 ae f8 94 3e 15 3d 5e 3e 43 62 c8 3d a4 58 87 3e
       0.29095978 0.21702988 0.09784367 0.26434815
000010 bc 49 a5 bc 7e 3a cf 3e 86 84 a3 3e 0f 51 0e 3e
       -0.02017676 0.40474313 0.31937045 0.13898109
000020 4e 0d 34 3e 25 af 84 3e 38 8f 3d 3e 5b 87 62 3e
       0.175832 0.25914875 0.18511665 0.22121947
000030 c6 a9 32 3e 28 68 0b 3e 5a dd 45 3d 60 0e a3 3d
       0.17447576 0.13613951 0.0483068 0.07961726
000040 11 27 86 3e f6 5f 3b 3d 4b 67 35 3e bb da a4 3e
       0.2620168 0.045745812 0.17715184 0.32198128
000050 02 95 89 3e 94 74 55 3e 4d 0f 4b 3e c1 a3 99 3e
       0.26871496 0.20845252 0.19830056 0.30007747
000060 fa 57 6d 3e 6d 4b 7c 3e 25 47 ac 3e 6b 68 18 3e
       0.23178092 0.24638148 0.3364803 0.14883582
000070 36 4a c3 3e cb 18 e1 3d 5b 2c 0b 3d bb 24 22 3e
       0.38142556 0.10991057 0.033977848 0.15834324
000080 a3 eb 51 3e f4 d7 26 3d 4e 72 93 3e 1c e1 94 3e
       0.20500045 0.040733293 0.28798145 0.29077995
000090 27 4f b2 3e 8f 7a 07 3e 02 61 ed 3d 23 70 84 3e
       0.34826013 0.13230346 0.115907684 0.25866804
0000a0 dd b2 f4 3d 71 13 aa 3e da 04 05 3e 2d a0 f0 3e
       0.11948178 0.33217958 0.12990132 0.46997204
0000b0 82 b0 df bc 78 7d 14 3d 59 6d a6 3d 9c ab 03 3e
       -0.027305845 0.03625247 0.08126325 0.12858433
0000c0 a1 6c 33 3d 21 f3 82 3c d5 33 5e 3e 79 6f 66 3e
       0.04380477 0.015985074 0.2169946 0.22503461
0000d0 07 dc ce 3c 53 4e 9d 3c b4 5d 93 3e cd 72 8e bc
       0.025251402 0.019202387 0.28782427 -0.017388726
0000e0 1b 8e da 3d 6a 06 58 3e 87 7d 12 3e 2f 81 5b 3e
       0.10671636 0.21096197 0.14305697 0.21435998
0000f0 18 d4 eb 3d 61 97 c8 3e e2 fb 4a 3e bb 00 ec 3d
       0.11515063 0.39177993 0.19822648 0.11523577
000100 c9 09 58 3e 0e ae 6c 3e d9 d8 91 3d 81 a8 87 3e
       0.21097483 0.23113272 0.071214385 0.26495746
000110 e1 5c 03 3e 31 fa 8f 3e e1 0b a5 3e 34 6b b8 3c
       0.12828399 0.28120568 0.32235625 0.022512056
000120 77 31 d7 3e 56 db 2b 3e bd 4a bd 3e dc 0f 14 3d
       0.42029926 0.16782889 0.36971083 0.036147937
000130 c7 6b 4d 3e 6b f2 49 3e fc 13 f3 3d f2 7c 22 3e
       0.20060645 0.19721381 0.11869046 0.15867975
000140 65 d8 a5 3e cf e0 d1 3d 83 12 a8 3e 6e 76 48 3e
       0.32391658 0.10247957 0.32826623 0.19576427
000150 b8 2d 19 bc a4 6a 79 3e c1 2a 8a 3d 69 d4 1e 3e
       -0.009349279 0.24357086 0.06746436 0.15510716
000160 95 ef 0f 3e a9 8f 7d 3e fe 24 94 3d c1 3b 83 3d
       0.14056237 0.24761833 0.07233618 0.064078815
000170 57 71 9f 3e 58 e6 56 3e e3 5e cd 3b 5c 94 a6 3d
       0.3114116 0.20986307 0.006267415 0.08133766
000180 e1 f5 2e 3e 50 09 a5 3e fe 71 20 3e 96 45 3a 3e
       0.17085983 0.32233667 0.15668485 0.18190607
000190 58 04 ae bc 4d 99 8c 3e 8f a8 88 3e 1c 47 a2 3e
       -0.021242306 0.2746071 0.266911 0.31694877
0001a0 88 20 f6 3d 87 aa 97 3e ce 6d 51 3c a6 59 7f 3e
       0.120179236 0.2962229 0.012782527 0.24936542
0001b0 c5 0e aa 3e 11 b8 f5 3d 09 2b 6e 3e ff f5 41 3e
       0.33214393 0.119979985 0.23258604 0.18941496
0001c0 a3 27 ab 3e 4c ff e0 3b 38 55 be bc c3 a5 bb bd
       0.33428678 0.0068663713 -0.023233995 -0.09162476
0001d0 49 f0 c1 3e c1 e0 56 3e e8 43 86 3e df b2 ab 3d
       0.37878636 0.20984174 0.26223683 0.08383726
0001e0 e5 61 11 3e ec b2 e8 3d 84 b7 79 3e 8f 54 2d 3e
       0.141975 0.11362252 0.24386412 0.16926788
0001f0 af 4c 19 3e bd 3a 8f 3e 4c 04 4c 3e ff 73 5f 3e
       0.14970659 0.279745 0.19923514 0.21821593
000200 86 c1 8b 3d 40 a1 c8 3d 82 1c 0a 3e f5 1a f9 3d
       0.06824021 0.09796381 0.13487437 0.12163345
000210 45 fe 0e bd aa 83 a6 bd 24 ed 21 3e e4 42 3b be
       -0.03491046 -0.08130582 0.15813118 -0.18287235
000220 41 3f cb 3c 5b 38 84 be c1 b0 09 3d 74 c6 e3 3d
       0.024810435 -0.25824246 0.03361583 0.11121836
000230 53 1b 53 3e b6 72 b8 3c 8f 5c 10 3d 15 a5 49 be
       0.20615892 0.022515636 0.03524452 -0.1969188
000240 f7 c0 7a bd 39 31 65 bd a0 69 c3 bc 48 37 0c 3d
       -0.061219182 -0.055955146 -0.023854077 0.034232408
000250 70 44 22 3e f7 ef 11 3e ae 59 10 3e eb 3b 82 3d
       0.1584642 0.14251696 0.1409671 0.06359085
000260 4a 89 5b bd 8a b2 03 bd 80 65 47 bc c1 5a ed bd
       -0.053597726 -0.03215269 -0.012170196 -0.115895756
000270 e8 38 84 be 14 35 46 3e 60 55 b2 bd 25 4e 78 3e
       -0.25824666 0.19356185 -0.0870769 0.2424856
000280 70 b3 e2 3d 7c 52 2a 3d fc 91 18 bd 64 4b 84 bd
       0.11069381 0.04158257 -0.037248597 -0.06459692
000290 61 bf ab 3c 97 61 46 bd 29 af 12 be ab 9d 8c be
       0.02096528 -0.048432913 -0.14324631 -0.2746404
0002a0 eb ff 82 be ce 12 66 3d c8 99 88 3d b6 ee 74 be
       -0.25585875 0.056170277 0.066699564 -0.23919186
0002b0 ae 72 81 bd 67 cb 43 3d 99 37 97 bd d6 3e 6f 3e
       -0.063207015 0.0478014 -0.07383651 0.23363814
0002c0 f5 37 dc 3b 80 01 60 be ba a9 04 3e 09 a0 4f 3d
       0.006720538 -0.21875572 0.1295537 0.05068973
0002d0 cc 9c 6d be 48 f9 c9 3d 05 f3 8e bd ba a6 11 bc
       -0.23204345 0.09862 -0.06979946 -0.008889848
0002e0 1e 8f a3 3e 6f 1f 49 3e 49 13 ae 3d 15 12 70 3c
       0.31945127 0.19640897 0.08499772 0.014652749
0002f0 75 45 b2 3d 6b 86 53 be f1 98 cd bd 04 2b e3 3c
       0.08704654 -0.20656745 -0.10038937 0.027730472
000300 b0 af d5 bd a7 44 ed 3d 65 bb a4 bc 1c f2 49 3d
       -0.104339 0.1158536 -0.020108888 0.04930316
000310 a5 97 71 be ff fc 1a be ea 67 3b 3e 69 f6 de 3d
       -0.23593004 -0.15135573 0.18301359 0.10886843
000320 1d df 17 be 89 b2 45 3e 4b b2 11 be b5 56 d6 3d
       -0.14831205 0.19306387 -0.1422817 0.10465757
000330 e2 ea 44 3d 16 bb 81 be 96 b8 68 be a9 15 9d 3e
       0.048075564 -0.25338048 -0.22726664 0.30680588
000340 16 78 31 bd 28 bb 84 bd 8c 3d ea bc 5d f9 da 3d
       -0.043327413 -0.0648101 -0.028593801 0.106920935
000350 bd d8 02 3e c9 5e b6 be 0b a3 09 3d 31 a1 14 be
       0.12777992 -0.3561919 0.033602756 -0.14514615
000360 ad 38 52 bd 8a 46 00 3e be e0 90 3d b1 ee 02 3c
       -0.05132358 0.12526909 0.07074116 0.007991479
000370 ff 29 db ba 1f 63 e0 3d f0 ac 46 bb a6 66 90 3d
       -0.001672089 0.10956406 -0.003031548 0.07050829
000380 7d 50 15 bd f9 9d 95 bd f2 5d 88 be d7 8d 06 be
       -0.036453713 -0.073055215 -0.26634175 -0.13140045
000390 75 90 f0 3d fd 3d 28 3e b6 66 d5 bd aa 16 8b 3d
       0.11746303 0.16429897 -0.10419981 0.06791432
0003a0 55 89 06 3d 82 30 27 bc a0 c5 94 3e 9f a9 09 be
       0.032845814 -0.010204436 0.29057026 -0.13443612
0003b0 f2 c4 14 3d 14 04 4c 3e 91 a2 f9 3c f1 dd 2c 3e
       0.036320634 0.1992343 0.030473026 0.16881539
0003c0 9e 96 c8 bd ef ac 8f bd 5e 87 78 3c 0e 81 90 3c
       -0.09794353 -0.07015406 0.015168993 0.017639663
0003d0 96 91 e9 3d 37 ad 98 bd da 78 10 be f4 07 d9 bc
       0.114047214 -0.07454913 -0.14108601 -0.02649305
0003e0 3d a1 ab 3d 26 d8 07 bd f9 92 82 bd 19 fd 68 3e
       0.08380363 -0.03316512 -0.06375689 0.22752799
0003f0 01 59 9e 3d d4 cd 49 bd 5c 4c c4 bd d9 5b fb bc
       0.0773182 -0.04926856 -0.09584877 -0.030683445

bias_hh_l0 f4 [512]
000000 37 ab 56 3e d1 9b 1d 3e 78 f8 26 3e a3 3d 6f 3e
       0.20963751 0.1539147 0.16305721 0.23363356
000010 74 51 00 3d f1 b4 c5 3e 6b 6c ab 3e 78 c1 72 3e
       0.03132768 0.3861461 0.33481154 0.23706615
000020 da 5f ac 3d 77 60 8a 3e 49 f2 d2 3d df ad 68 3e
       0.0841672 0.27026722 0.103001185 0.22722577
000030 b2 aa 81 3e 18 72 1b 3e 33 ef 23 3d 7a 1f c3 3d
       0.25325543 0.15180242 0.04002304 0.09527488
000040 fa d1 c9 3e d0 5c 2f 3e 9a 66 8d 3e e4 f5 a8 3e
       0.39418012 0.17125249 0.2761734 0.330001
000050 f6 e8 fe 3d 2d 94 6f 3d f8 ec 55 3e e6 ac 38 3e
       0.124467775 0.05849092 0.20891178 0.18034706
000060 34 0a 1b 3e da d5 38 3e f8 5e 98 3e dd 3f f8 3d
       0.15140611 0.18050328 0.29759955 0.12121556
000070 29 54 c7 3e d5 04 d7 3b d1 6f fb 3d fa b2 b5 3d
       0.38931397 0.0065618553 0.12277187 0.08872028
000080 d2 e2 62 3e bb 4b 2a 3e 77 90 28 3e dd 34 41 3e
       0.22156838 0.16630451 0.16461359 0.18867822
000090 68 68 8f 3e d0 b1 70 3e 2c 72 d6 3c 25 74 79 3e
       0.28009343 0.2350533 0.026177488 0.24360712
0000a0 22 9a 8c 3e 94 5b 8a 3e 7d 51 23 3e 8c eb f5 3e
       0.27461344 0.27022994 0.15949054 0.4803127
0000b0 b5 83 f0 3c af c1 1b 3e 4e 9e 22 3e b3 fa f7 3d
       0.029359678 0.15210603 0.15880701 0.12108364
0000c0 75 f9 1b 3d c9 3d 01 3e b0 ed ad 3d c1 94 6e 3e
       0.038079698 0.12621225 0.08492601 0.23298933
0000d0 a8 9c 24 ba da 60 d8 3d b6 d0 95 3e e3 f6 81 3d
       -0.0006279447 0.10565348 0.29260796 0.06345918
0000e0 d7 9d 39 3e 72 7a 47 3e a1 cf 0f 3e 80 11 34 3e
       0.18126617 0.19480303 0.14044048 0.175848
0000f0 45 74 ed 3d 63 3b 81 3e 71 72 fb 3d b1 47 fb 3d
       0.11594442 0.2524062 0.12277687 0.122695334
000100 3c 63 2c 3e 2c 0c 32 3e 7c 5f 5f 3e 7f 0a 8b 3e
       0.1683473 0.17387456 0.21813768 0.27156445
000110 ad fb d6 3d d7 36 33 3e 32 cc 30 3e d1 6e 7e 3d
       0.10497222 0.17501388 0.17265394 0.0621174
000120 c6 1f de 3e cd e2 24 3e de 1d ce 3e 1d d2 2a 3e
       0.43383616 0.16102143 0.40257162 0.16681714
000130 6f b2 8b 3e 91 b5 0f 3e 1e e7 45 3e 26 5a 40 3d
       0.27284572 0.14034106 0.19326445 0.046960972
000140 ce 06 a2 3e 26 cc 86 3e e0 f7 a8 3e 20 10 3e 3e
       0.31645817 0.26327628 0.33001614 0.18560839
000150 fb 49 16 bd 8e 06 7a 3e 14 ec 47 3e 09 db d2 3d
       -0.036691647 0.24416563 0.1952365 0.10295684
000160 ea 5d 46 3e 47 99 a2 3e 2b d5 3b 3e 4d 0c 22 3e
       0.19371763 0.31757566 0.18343036 0.15825005
000170 ae 0e 90 3e 99 f8 42 3e 9c b6 55 bd 23 4c 71 3e
       0.281362 0.19040145 -0.052176103 0.235642
000180 11 6a 48 3e 7c d1 8f 3e 44 d1 2f 3e 21 8c 35 3e
       0.19571711 0.2808951 0.17169672 0.17729236
000190 6b 66 2a 3d c8 4b 80 3e 8f 2f 72 3e 33 e2 2a 3e
       0.04160158 0.25057817 0.23650955 0.1668785
0001a0 f2 00 24 3d dd 99 95 3e 8f a1 bb 3d cd 36 5c 3e
       0.040039964 0.2921895 0.09161674 0.2150528
0001b0 0b a0 7a 3e fe 1a 03 3e 7c d0 19 3e 99 13 2f 3e
       0.24475114 0.12803265 0.15020937 0.1709732
0001c0 d4 73 84 3e d6 cd 99 bc 90 2a 93 b9 b9 9e 65 3d
       0.2586962 -0.018774908 -0.00028069736 0.056059573
0001d0 a9 78 8e 3e 8e ef cc 3d ce ac 9b 3e b4 2c e0 3d
       0.2782643 0.10006629 0.30405277 0.109460264
0001e0 b0 63 80 3e b2 6f 60 3e 0f 2c 5b 3e 56 3c 63 3e
       0.25076056 0.21917608 0.21403526 0.22190985
0001f0 5b 44 44 3e 2e a4 34 3e 50 9b 5e 3d 65 38 0e 3e
       0.191667 0.17640755 0.054347336 0.138887
000200 cb ce f4 3d 5a 2b 08 3e 48 db d9 3d 98 e6 3f 3e
       0.11953505 0.13297787 0.10637528 0.18740308
000210 bd b1 48 3d bb 2d a4 bd 39 d9 37 3d 8b f2 f5 bd
       0.04899763 -0.08016535 0.044884894 -0.12009152
000220 ee 45 53 3d dc f5 50 be be 97 a9 3d 91 5a e3 3d
       0.051580362 -0.20406288 0.08280896 0.111012585
000230 1f 26 1d 3e 8f ed 6a 3d 29 f6 b1 bc 15 4e 75 be
       0.15346573 0.05735546 -0.021723824 -0.23955567
000240 13 1b 63 3d ed 42 88 3b 35 af 2c bd 83 a9 59 3d
       0.05544574 0.004158369 -0.042159278 0.053140175
000250 37 0d 42 3e 75 db 26 3d 20 fe 00 ba cc db 8f 3d
       0.18950354 0.040736634 -0.000492068 0.07024345
000260 94 a0 f5 bd 66 59 9f bd ef 4f b0 bd 34 e7 5f be
       -0.119935185 -0.07780723 -0.08608996 -0.2186554
000270 f8 dd 7f be da 71 44 3d ba dc 39 bd 86 4b ef 3d
       -0.24987018 0.04796014 -0.045376517 0.11684327
000280 1e eb d8 3d f0 35 50 3d f5 91 35 bd 2a 29 41 bc
       0.1059172 0.05083269 -0.04432865 -0.011789599
000290 cd 9e 76 bd af e5 d5 bd 0a 32 cd bd d4 5f 80 be
       -0.060210038 -0.10444199 -0.1001931 -0.2507311
0002a0 c7 2e 73 be 2f 43 76 3d 38 3d 2a 3d d7 da 21 be
       -0.23748313 0.060122665 0.04156229 -0.15806137
0002b0 4f ee 43 bc 18 56 2d 3c 5f 76 81 bd 9c 09 44 3e
       -0.011958673 0.010579608 -0.063214056 0.1914429
0002c0 a9 38 c4 3a 1d 9e 0b be 12 22 32 3e 08 00 2a 3e
       0.0014970499 -0.13634534 0.1739581 0.16601574
0002d0 86 52 2b be f8 e3 98 3d 89 82 57 3d 9b 50 36 3d
       -0.16730699 0.074653566 0.052614722 0.044510465
0002e0 ab b2 ab 3e 73 42 60 3e 2e 10 a2 3c b7 21 5a bc
       0.3353475 0.21900348 0.019783106 -0.013313702
0002f0 00 95 92 3d 0c 17 c1 bd 5a ee 71 be 98 3b 2b bc
       0.07157326 -0.09428224 -0.2362608 -0.01045122
000300 44 7b 4e bd 82 89 31 3d de f2 fc 3b 4b db 97 bd
       -0.050410524 0.04334403 0.0077193817 -0.07414874
000310 2c 31 1d be e7 c9 b3 bd c5 b5 44 3e 37 6e 81 3e
       -0.15350789 -0.08778744 0.19209965 0.252794
000320 8b 38 b3 bd 10 04 52 3e aa 15 39 be 7a ac e5 3d
       -0.08751019 0.20509362 -0.1807467 0.11214538
000330 22 06 ea 3d c2 84 9c be 9c a9 70 be 62 83 34 3e
       0.11426951 -0.30570036 -0.23502201 0.17628244
000340 17 2b 78 bd 01 a9 c6 bc 50 12 3f 3d 93 5d 51 3d
       -0.06058797 -0.02425051 0.046648324 0.05111463
000350 b2 ba 05 3e 7e 45 90 be 64 fd 02 3e df 3a 59 be
       0.130595 -0.28178018 0.12791973 -0.21213864
000360 31 25 c0 3c ff 3d 3c 3e dc d1 cf 3d 44 5b 0b 3e
       0.023455234 0.18383025 0.101474494 0.13609034
000370 08 34 fb bc 74 9b e7 3d 7d 58 77 bd 51 40 66 3d
       -0.030664459 0.11308947 -0.060387123 0.05621368
000380 5f 49 dd bd b1 5c f9 bd 39 2d 7e be ce b4 f4 bd
       -0.1080501 -0.121758826 -0.24821939 -0.11948548
000390 14 45 ba 3d 45 bc 41 3e b4 3b 58 3c 96 c0 76 3d
       0.09095207 0.18919475 0.013197828 0.060242258
0003a0 0b 28 3f 3d ea 2b b9 bb 96 1a 3f 3e 64 9c 25 bd
       0.046669047 -0.005650987 0.18662485 -0.04043235
0003b0 f9 06 86 3d 13 5e 96 3d 80 4c b8 3c cc 0d 97 3e
       0.06544299 0.07342162 0.022497416 0.29502714
0003c0 66 a5 7a 3d 04 52 30 bd 1d af 86 3d 64 de e6 bb
       0.061192892 -0.043046966 0.06576369 -0.007045554
0003d0 8c 08 20 3d fd 64 7d 3d 29 f8 1a be 96 d8 40 3d
       0.03907065 0.061863888 -0.15133728 0.047081552
0003e0 b1 fe 31 3e a2 63 14 be 15 86 bc bd ab b6 0d 3e
       0.17382313 -0.14491132 -0.092052616 0.13839214
0003f0 26 36 c8 3d 13 05 c4 3c e6 9a 31 bd ce f6 88 bd
       0.09775953 0.0239282 -0.043360613 -0.06687699

weight f4 [28, 128]
000000 cd 5a 02 3f 62 2d 51 be 5c 70 13 3e 62 30 1e 3f
       0.509198 -0.20427468 0.1439833 0.61792576
000010 01 72 e0 bd a8 15 b6 3e 0c 4b e8 3e f7 00 7c be
       -0.109592445 0.35563397 0.45369756 -0.24609743
000020 2e 12 a9 3d f6 d3 31 be 7d 67 1f 3e 0c 23 56 3e
       0.082554206 -0.17366013 0.15566821 0.20911807
000030 d1 d5 5a 3e 1a 9a c5 be e6 fd f9 3b ba be 28 3e
       0.21370627 -0.38594133 0.007629144 0.16479006
000040 99 34 fd 3e 41 7f bf be 87 8a e5 3e 66 16 30 3e
       0.4945419 -0.37401775 0.4483225 0.17196044
000050 8c 81 f6 3b 9f a8 a3 3d a0 ae c6 bc be b4 8b 3e
       0.0075227674 0.07991146 -0.02425319 0.27286333
000060 9e 6d 01 3e a8 31 92 3e 95 77 ab 3e 09 bf dd 3e
       0.12639472 0.2855351 0.3348967 0.4330981
000070 cf 45 2f 3e 8c dd 32 3c ed 01 07 be 7f 0f 0f 3e
       0.17116474 0.010917079 -0.13184328 0.13970755
000080 cd 3d 6b 3e 06 2a a3 be e0 86 02 be 0e 2d 3d bc
       0.22972794 -0.31868 -0.12746763 -0.011546386
000090 61 86 a9 bd 9f 75 71 bb 71 92 e1 3e 7e 34 48 be
       -0.08277584 -0.003684379 0.44057038 -0.19551274
0000a0 e0 7f 15 3e a3 b0 52 3e 12 03 c4 bd 58 f3 a7 be
       0.14599562 0.20575194 -0.09570898 -0.32802844
0000b0 39 5d 90 3e 16 94 44 3e bf 12 af be a4 d4 44 be
       0.28196123 0.19197115 -0.3419399 -0.19221741
0000c0 ee 90 0c 3f f8 19 3b 3e 7e 34 48 be 13 e8 b7 be
       0.54908645 0.18271625 -0.19551274 -0.35919246
0000d0 6e 9c 14 3f 62 20 85 3e 33 a1 a3 be 42 94 b3 be
       0.5805119 0.2600127 -0.31958923 -0.3507405
0000e0 1d 90 c2 be 8f 22 e1 3d e0 50 d1 be 5d b8 31 be
       -0.38000575 0.1099292 -0.40882015 -0.17355485
0000f0 ab a6 d8 be cd 82 0c bf eb cf be be 9e b5 fe be
       -0.42314658 -0.54887086 -0.37268004 -0.49747938
000100 7a 76 cb 3c ce e9 b3 bc ab 74 cb be 47 94 b5 be
       0.024836767 -0.021962073 -0.39737448 -0.3546469
000110 43 a1 5b be 8b a9 63 bb 24 4c 4f be 86 16 c5 be
       -0.21448235 -0.0034738507 -0.20243889 -0.38493747
000120 5b 11 23 3e 6e eb 94 3e 1a 26 f9 be a6 00 bb bd
       0.1592459 0.2908587 -0.48661882 -0.09130983
000130 42 3c c3 bb 8b 54 e7 3e d4 43 e2 3e 15 0b 3c be
       -0.005958111 0.4518169 0.44192374 -0.18363602
000140 30 3b 67 be 9a 80 e5 bd 36 72 c3 3d df 40 93 bd
       -0.22581172 -0.112061694 0.095432684 -0.071901076
000150 09 5b 32 be f5 48 1e bf 0e b4 b6 be 52 56 e6 be
       -0.1741754 -0.61830074 -0.35684246 -0.44987732
000160 f0 2d ec 3a 23 92 89 bd cc d3 47 3e 6c bb d4 be
       0.0018019062 -0.067173265 0.19514388 -0.41549242
000170 b3 a8 97 bd 37 40 25 3e 86 5a 03 bf 52 7a b2 bd
       -0.07405224 0.16137777 -0.5131 -0.08714737
000180 7e 5e f6 be 7e 1e 72 be 37 14 f9 3e ca 66 a9 3e
       -0.48118967 -0.23644444 0.48648235 0.33086234
000190 1d e5 49 bc e3 74 bd bd 63 27 c7 3d 80 87 86 be
       -0.012322691 -0.0925081 0.09724309 -0.26275253
0001a0 34 4a df 3e c2 19 d2 bc a0 cd 0d 3c d1 09 6f bd
       0.436113 -0.025647048 0.008654982 -0.05835897
0001b0 53 19 04 bf 42 9b 13 3d 6f 43 98 bb 19 cf 68 3e
       -0.5160114 0.036036737 -0.0046467106 0.22735251
0001c0 92 de a1 3e 5a 7b 4a 3e a4 fe b5 bd 72 cf 04 3d
       0.3161512 0.19773617 -0.088864595 0.032424398
0001d0 f0 67 16 3e 9e 29 9a 3d c5 b1 12 3e 7c 14 ac bd
       0.14688087 0.07527469 0.14325626 -0.084023446
0001e0 37 ba 0a be 99 9c cd bd 5a a8 8e 3e 77 aa 42 3e
       -0.13547598 -0.10039634 0.27862817 0.1901034
0001f0 b6 5c 3b be 77 e2 40 be 90 a8 e8 be ce 1d 22 bf
       -0.18297085 -0.1883639 -0.45441103 -0.6332673
000200 c0 f1 2c bc e8 5b 52 3e fa bd 8e be ce 24 2d bb
       -0.010555685 0.20542872 -0.27879316 -0.0026419642
000210 e6 03 8e 3e b0 35 98 3d a3 92 34 3e 89 d9 1a be
       0.2773735 0.07432115 0.17634062 -0.15122046
000220 d1 86 34 be fc b0 91 3e 55 25 df be 36 98 c1 3d
       -0.17629553 0.2845534 -0.4358317 0.0945286
000230 9c 63 7b be 3c 8b e3 be 62 68 16 3d 7a b0 f4 be
       -0.24549717 -0.44442165 0.03672064 -0.4779089
000240 b6 cf 54 be df 9e 10 3c cf af 44 3e 60 e9 23 3e
       -0.2078236 0.00882694 0.1920769 0.16006994
000250 a2 4c 67 3d 17 23 93 3e e5 0b 66 3d 21 40 41 bf
       0.056469567 0.2873771 0.056163687 -0.7548848
000260 16 6d 0a 3d 3e dc f9 be 88 7a 7d be 94 a5 06 3e
       0.03379544 -0.48800844 -0.24753773 0.131491
000270 a1 3b 65 be 29 22 c9 bc 5c 67 2d be 84 fc 2c 3e
       -0.22386028 -0.024552422 -0.1693396 0.16893202
000280 5b 54 04 3f 2c 2f 3d be fe 26 c8 be 3e 93 27 3f
       0.51691216 -0.18475026 -0.3909225 0.6545905
000290 ff cc 71 bd 8c a2 8b be c1 45 99 bd 2e c0 91 3d
       -0.05903339 -0.2727245 -0.074840076 0.071167335
0002a0 0e 92 e3 3e d3 30 3d 3e 58 2c b5 3e 0c 56 41 be
       0.44447368 0.18475656 0.35385394 -0.1888048
0002b0 46 c3 22 3e 25 d8 d4 3e 9c dd 9f 3c d5 74 ae bb
       0.15894803 0.41571155 0.019514851 -0.005323986
0002c0 43 5a 0c be 2e f3 88 bf 20 50 2c 3e 72 39 ae be
       -0.13706307 -1.0699213 0.1682744 -0.34028202
0002d0 8c 63 66 bf 7e c5 64 be 93 06 38 3c ee 60 a0 bd
       -0.89995646 -0.22340962 0.011232036 -0.07830988
0002e0 7f 34 4e 3e 12 a0 a3 3e 48 e6 1d 3f 3f 6a 80 bd
       0.20137213 0.3195806 0.61679506 -0.06270265
0002f0 81 a8 1e be f9 16 37 3f c8 fb 49 3d 1b 01 80 3e
       -0.15493967 0.7151943 0.049312383 0.25000843
000300 60 a3 78 be 05 59 6c 3e d0 1a 3c bf 05 08 6f be
       -0.24281073 0.23080833 -0.7347841 -0.23342903
000310 7b 43 15 3e 55 f2 d1 3d 47 e2 7f be 8a 33 a0 bc
       0.14576523 0.10251299 -0.24988662 -0.019555826
000320 3b 9d 44 3e 26 28 fd bd da 8c d5 3e 9c f4 bb 3e
       0.19200604 -0.12361173 0.41709024 0.3671006
000330 f3 23 78 be 0b b4 22 bf 95 77 e4 bc 5e 1e 05 3f
       -0.24232464 -0.63555974 -0.027889052 0.5199946
000340 7e 97 46 3f 43 a7 26 bf 40 e8 40 3e 43 a4 f6 be
       0.7757491 -0.6509897 0.18838596 -0.48172197
000350 72 ae a9 3d 07 84 ca 3e 2a 2a 59 be 79 d0 02 be
       0.08285226 0.39553854 -0.2120749 -0.12774839
000360 80 79 0c bf e2 38 20 3f 2b d1 b3 3c 65 13 02 3a
       -0.54872894 0.62586796 0.021950325 0.00049619965
000370 2f 23 fd be c0 22 3b 3c 86 2c 9b 3e 20 4e 80 be
       -0.49440905 0.011421859 0.30307406 -0.25059605
000380 ae 13 ed 3e aa 57 6f 3e f6 b6 8a be 71 2f 20 be
       0.46304077 0.23373285 -0.27092713 -0.15643097
000390 17 2a 06 3e 97 0a 0c 3f 64 e4 94 bc 1f 70 85 3e
       0.13101994 0.5470366 -0.018175311 0.26062104
0003a0 b6 ff a1 3e 33 59 5b 3e a6 2a e9 3d 55 61 ea bd
       0.31640404 0.21420746 0.11385088 -0.11444346
0003b0 37 0b 23 3e 29 23 a6 bd ed f8 28 3e be 9e 9f bd
       0.15922247 -0.08112175 0.16501208 -0.077939495
0003c0 e1 6f 98 3c 9d 96 4d 3e 83 be 08 bf 98 88 48 3e
       0.018608036 0.20076986 -0.534157 0.19583356
0003d0 23 a8 78 3e e9 ab ca 3b 36 9c e6 3d 48 bc e4 3e
       0.24282889 0.006185044 0.112602636 0.44674897
0003e0 9f b1 a4 be 93 df 84 3d 3f 16 91 3d 23 12 73 bb
       -0.32166764 0.06487956 0.07084321 -0.0037089668
0003f0 69 98 a6 bd 82 a2 78 3d a8 80 6e 3e f1 7a 90 3e
       -0.08134539 0.060701855 0.23291266 0.28218797

bias f4 [28]
000000 a3 fe 37 3c b6 0c 46 bc d5 6b 91 3d 34 ce 36 bd
       0.011230144 -0.012087991 0.071006455 -0.044630244
000010 9e 82 25 bc 7d f2 de bc 74 78 48 bc 56 31 07 3d
       -0.010101942 -0.027215237 -0.0122357495 0.033006035
000020 54 73 ca 3d 49 d2 2b be 58 5d df bd 32 1f 24 3d
       0.09885278 -0.16779436 -0.10906476 0.040068813
000030 70 e2 3b bd b7 84 52 3b dd b3 cd 3d b5 cd 17 3d
       -0.045870245 0.0032122561 0.10044072 0.037061412
000040 0e 13 c0 bd 5e 2f 84 3d 15 d2 05 3d 38 eb 1d 3e
       -0.093786344 0.06454347 0.032671053 0.1542176
000050 1d 6e 65 bd 02 5c 2d be 4d 06 db bd 55 9e 56 be
       -0.056013215 -0.1692963 -0.10694561 -0.20958836
000060 90 ae 1c 3e 5b 9d ea bd a6 b4 0e 3d 4c 71 80 be
       0.15300965 -0.114557944 0.03484025 -0.2508644
