models/ESEN_60-40/ESEN_60-40_6_threshold_train_30.pt (torch, 353807 bytes, 7 tensors)

weight f4 [29, 32]
00000000: 88e0 a53e cfb6 593e 9da5 d4bc a795 2cbf
00000010: e0f5 d8be 1ae9 e33f b8bb 5cbf 7c41 c03f
00000020: cb84 393f b80f 753e 2a7c fd3f 668c 0cbe
00000030: 0b80 84be 5e7b cd3e 5cb4 52bf 2cea e3bd
00000040: a212 423e 1a9f 8e3f 3082 80bf c19f 0fbf
00000050: 4ba7 32bf 4120 e83f 3e9d f3be 293c f73e
00000060: 1158 f23f a287 c33d 2acf 9bbe 54f9 e7bf
00000070: 0ea8 e33e 7134 a2be 4ae1 0840 16cb b3be
00000080: 4490 06c0 c056 673f 936c 9fbe 4b5c 4fbf
00000090: 6fad 993d af8a c93e 054b 953f b940 7abe
000000a0: 8936 ec3e d6f0 383f d9c5 b83f 09ba 283f
000000b0: c3b9 a7bf 7cbf 0b40 45d6 45bf 6865 133f
000000c0: 1d76 e6be 70cc 203f 2150 63bf 7074 12be
000000d0: 31ab 893e eec4 0abf c492 d0bf ba67 1d40
000000e0: df52 febe c3ff a8be f8dd 963f 12f8 92bf
000000f0: 0a96 6abf ad97 b4bf 35ff f63e 1e65 483e
00000100: 4431 6bbf 52fb 07c0 2712 9b3f 6544 61bf
00000110: e161 e5be f7a3 83be b79f aa3e c5c6 8e3f
00000120: 248d 7fbf 1049 6b3f 1ae6 00bf b71c 8bbe
00000130: 789a 88bf 0c1d 063f 8024 de3f 4a5b 683f
00000140: 2ecf a43f cd0b 613f 4cac 72bf 1f41 1dbf
00000150: 8f36 50bd ae79 87bf a0d6 e03f 7ea7 933e
00000160: de7b 4b3e 79c5 14bf c8ed 5abf e040 44bf
00000170: 4230 063e 0987 2e3f f3d6 31bf 24bd e8be
00000180: ebf7 5a3d f45e e23f a97a 563e 4934 e03e
00000190: da1a 3ebe e725 55bd ac30 2a3f 9017 823e
000001a0: a1bf 87bf d178 91bf 580f 5fc0 41df 883f
000001b0: f322 26bf 9321 40bf 0ab1 57bf 014a babe
000001c0: 411e 8cbf 6393 5f3f cb00 2bbf 857a 5c3f
000001d0: df58 f13f dd55 0bbf 5836 2dc0 1d20 f3be
000001e0: 7a6b 90bf 149d e53e 08bb 0940 e363 e1bf
000001f0: 77e9 39bf 6721 0e3f 164d 9ebf eebf 0e3f
00000200: 203d 6c3f cf89 87bf a21e 7cbf 1b62 f1bf
00000210: 2298 81bd 1b74 723f 9334 81be 9fc9 cebe
00000220: 6a79 e8bf 8013 923d fbce 16bf 42b8 f5be
00000230: c53e d33f 0930 9abe 5a5d c5bf a44c d73f
00000240: 3c62 00bf 64fe 693f ef18 01bd 9446 14c0
00000250: 9ea8 093f 3f57 aa3e 5084 afbf cc61 923e
00000260: 6318 923f bbe5 353f 0c6a 3cbf 995c 9f3f
00000270: 09cd ae3f fcf1 5a3f beae 1cc0 cceb 843f
00000280: edf2 40bf f24e 733e 268d 273d e84b a9bf
00000290: 2c82 d03f 96df d3bf ab66 7cbf 0e63 263f
000002a0: 5ee4 7abd 2685 1dbe fba1 903f ca2d 373f
000002b0: 00ad 14be 4698 ad3f fbe6 023f c553 47bf
000002c0: 9505 c03e 9dcf 0ec0 ecc5 98be d9c6 24bf
000002d0: 4a41 02c0 5458 813c 0758 8abf 4e3e bf3e
000002e0: 520d 90be b016 1ebf 4129 283e c6b0 fcbf
000002f0: 0eb3 babf f9c7 9ebf 7e18 603f c0c9 3fbf
00000300: 89df 05bf 0dbb 96be 7a1a d5bd 9b72 863d
00000310: 9df8 04bf 4909 a7be 015d a2be 0352 9f3f
00000320: 7fa9 fc3e 168e 15c0 749f b33e c0fe 01c0
00000330: 0ae2 933f 9e4c 943f 0d95 5c3f 52e5 af3e
00000340: 1904 c83e 360c ad3e a156 d83d 69fa aabf
00000350: bc65 ce3f fcff 963d 75fd bb3f 55f3 73bf
00000360: 062c c1bf 21b4 6d3f b280 ea3f 5606 83be
00000370: 1c49 11c0 4248 9f3e 4c5e c4bf df84 61bf
00000380: b876 ab3f 4c61 e83f 0647 773f 90f4 43bf
00000390: 06f4 d63f b071 24bf 3d0a 3a40 7599 d5bf
000003a0: df85 72bf 7d0d 77bf 4327 2b40 60aa 70bf
000003b0: aacd e2be 4ee5 97bf 47a7 ba3f f72e 1cbf
000003c0: 85cf a33f 26e1 093f 3e54 d7bf 6e4c 34bf
000003d0: 2fdf cabf 7316 86be 8a38 da3f 0d90 723f
000003e0: 2900 023e 3f41 91bf f3a7 94bd 9ebf 1ebd
000003f0: 4e41 e5be c3e3 5bbe d4ed bbbe fb7f 74bf
0.32397866 0.21261142 -0.025957877 -0.6741585 -0.42375088 1.7805512 -0.86223936 1.5019984
0.7246825 0.23931777 1.9803517 -0.13725433 -0.2587894 0.40133184 -0.82306457 -0.11128649
0.1895242 1.1142304 -1.003973 -0.5610314 -0.6978652 1.8134843 -0.47580904 0.48288086
1.8933126 0.09547354 -0.3043149 -1.8122964 0.44464153 -0.31680635 2.1387506 -0.3511588
-2.1025553 0.90366745 -0.31137523 -0.810002 0.07503783 0.3936362 1.1663519 -0.24438752
0.46135357 0.72242486 1.4435378 0.6590887 -1.3103565 2.1835623 -0.77280074 0.5757661
-0.45011988 0.62811947 -0.8879414 -0.1430223 0.2688842 -0.5420674 -1.6294789 2.459456
-0.496726 -0.3300763 1.178649 -1.1481955 -0.9163519 -1.4108788 0.48241583 0.19569823
-0.9187205 -2.1247144 1.2114915 -0.87994987 -0.44801238 -0.25711033 0.33324978 1.115441
-0.9982474 0.9190836 -0.5035111 -0.27170345 -1.067214 0.5238807 1.7354889 0.90764296
1.2875726 0.8790863 -0.94794154 -0.6142749 -0.05083328 -1.0584009 1.7565498 0.28838724
0.1987147 -0.5811382 -0.85519075 -0.7666149 0.13104346 0.681748 -0.6946861 -0.45456803
0.05345909 1.7685227 0.20945229 0.4378989 -0.1856493 -0.0520381 0.6648052 0.25408602
-1.0605356 -1.1364995 -3.4853115 1.0693132 -0.6489708 -0.7505123 -0.84254515 -0.36384585
-1.0946733 0.8733427 -0.66798085 0.8612445 1.8855246 -0.5442789 -2.7064419 -0.47485438
-1.1282799 0.44846404 2.1520405 -1.7608608 -0.72621864 0.5551972 -1.2367275 0.5576161
0.9228077 -1.0588931 -0.9848424 -1.8858064 -0.06327845 0.9470841 -0.25235423 -0.403882
-1.8162053 0.071326256 -0.5890958 -0.4799214 1.6503531 -0.30114773 -1.5419114 1.6820264
-0.50149894 0.91403794 -0.03151792 -2.3168077 0.53772914 0.33269688 -1.3712254 0.28590238
1.1413692 0.71053666 -0.73599315 1.2450134 1.3656322 0.8552549 -2.4481654 1.038446
-0.75370675 0.23760584 0.040906094 -1.322629 1.6289725 -1.6552608 -0.9859416 0.64994895
-0.061252944 -0.15382823 1.1299433 0.71554244 -0.1451912 1.3562095 0.511337 -0.778622
0.3750426 -2.2314217 -0.29838502 -0.6436592 -2.035235 0.015789188 -1.0808114 0.37352222
-0.28135163 -0.6175337 0.16421987 -1.9741447 -1.4585893 -1.2404777 0.8753737 -0.7491722
-0.5229421 -0.29439583 -0.10405441 0.06564828 -0.51941854 -0.32624272 -0.3171158 1.2446903
0.49348065 -2.3367972 0.3508259 -2.0311737 1.1553357 1.1585882 0.86164933 0.34354645
0.39065626 0.3379838 0.10563398 -1.3357669 1.6124797 0.07373044 1.4686724 -0.9529317
-1.509156 0.9285298 1.8320525 -0.2559077 -2.2700872 0.31109816 -1.5341277 -0.8809337
1.3395605 1.8154693 0.9659275 -0.7654505 1.679322 -0.64235973 2.906875 -1.6687456
-0.9473552 -0.96504956 2.6742713 -0.9400997 -0.44297534 -1.1866853 1.4582299 -0.6100916
1.2797705 0.53859174 -1.6822584 -0.7042912 -1.584936 -0.26189002 1.7048504 0.94751054
0.12695374 -1.1348037 -0.07258596 -0.03875696 -0.44776386 -0.21473603 -0.36704886 -0.9550778

weight_ih_l0 f4 [512, 32]
00000000: 743a c73c 5ad8 84bd 97b0 37bd d579 30be
00000010: f84d 1ebe 4bcb 093d 53b1 0a3d 37d6 a83d
00000020: 5a72 16bc 749e babd e3b2 7dbd 88b7 56bd
00000030: 6d58 8b3d db92 3a3e a046 03be 3167 55bd
00000040: d5d2 79bc e3ab a53d 4e1b 40be 12d7 6ebc
00000050: ad77 13bc 1c3f 66be 9860 a7bd ea83 c1bd
00000060: f184 d4bd 6602 113b 5290 493e 5631 c8be
00000070: 51f6 8f3c a136 023d 258c 9b3c 91ba 7abd
00000080: 7375 293b d557 08be a710 06be 31bf fabc
00000090: 13ee 13be 0483 15be f0aa debc c2af e3bd
000000a0: 89a9 c7bb 6a95 8abe 3f6d 27be b579 d53c
000000b0: c9c8 0a3e 1da3 cf3d 8bf6 9abd 1d36 653d
000000c0: c979 bdbd bb25 fbbd 9812 693d 5f57 d6bd
000000d0: 5fae 643d 59c5 e8bd 5ed5 09be 2774 1f3d
000000e0: 92dc 3fbe 52c3 69bd 8f21 383e b144 6dbd
000000f0: ab61 d1bd f1a2 4bbe 0dfe 82bd 2369 453e
00000100: e309 80bd 6c55 26bd a5a5 4b3a a7a1 cfbc
00000110: 534b 363d 5642 86bd cc6c 8b3d b43e 27be
00000120: d611 03bd 7ad7 58be 1087 1bbe 955c 17be
00000130: 403f 293d 4215 d5bc d691 bebc c9c4 b3bc
00000140: 6b7b 8a3d c86c 973c 4d9c 5abe bd66 503d
00000150: 97bc 943d 55a9 aebe f1c1 133d 167b d1bd
00000160: b839 d0bd 6e14 023e 7167 613e ee82 43be
00000170: 5027 9f3c bae6 07bb fb34 84bd 6791 46be
00000180: cbb3 adbd 6e3e 72be 18dc fbbd c069 77be
00000190: e998 43be b76c abbd 91ca a63d 6aac 91bd
000001a0: 3776 7cbd ec96 57bd cead 72bd 2002 20be
000001b0: fbbd e63d 43d4 103e 8f77 913e 907a 3d3d
000001c0: 6771 e03c 5a28 cebd 1915 3dbd 1b5d 38bd
000001d0: ca20 b73c 800c d1bb c52b 41bd dfb2 6bbe
000001e0: ee4f 09bd 4f64 cfbd 22d5 12be d6c2 ebbc
000001f0: f089 d23d 6d5a 73be c8ca 9cbd 17e5 8dbd
00000200: 61c3 523d 2954 a9bd 5983 993c 762c 1cbd
00000210: beef 5c3d 5686 23bd 6e72 2abd 1e4a 643b
00000220: b599 963d 1865 043e b7c4 51bd 9357 b23d
00000230: 4a78 9cbc 3cc9 1a3e cd69 733c 9236 85bd
00000240: e901 113d 5e1b 3bbd f67d f03d c03a afbc
00000250: 9d2f 58bd 209d 82bc 1b4a 013e 2fc4 813d
00000260: b663 973d 17d4 adbd cf6f 7cbd 83ae b5bd
00000270: f825 46bd 0b55 79bc 6b6d eebd e370 9e3d
00000280: 0ea4 41be e32f 86be 3bdb e53d 377d 89be
00000290: c019 0a3e 9b37 2f3e cbbd 6d3e 5852 5e3e
000002a0: 3aab 00be 6a1d 943e 94cc de3d 2e4d 83be
000002b0: 4175 6bbc 55db bc3d dbef 3a3e 0ecb 923d
000002c0: 6e86 023f 1a41 763d e79b 08be c712 1cbe
000002d0: f271 c43d 9fbb 5fbe 825a f23d a9bf 183d
000002e0: fd63 d23e 8371 dbbd 35de 37be ee1b 9ebb
000002f0: 4409 013e 2bf1 843e 111a f5ba 5d62 ccbe
00000300: 08b7 073d 4773 59be 964a f6bd 915e 573c
00000310: acdf b23d dc32 07bc 0740 efbc 4f82 023e
00000320: f884 2f3d b2f7 99bd 4715 8f3d f6d4 89be
00000330: 7cc5 dd3d 0c3b d8bd 8959 ca3d d3e6 0f3e
00000340: 2c81 02bd 76b8 113e a8a5 103d d3aa afbd
00000350: f61c 10be b553 2e3d c74f 4ebd 02f8 bbbd
00000360: 9a9c 3e3d 7bb5 a0bd 6856 0bbe 5a2a ca3d
00000370: d5be d93c 0ff8 c8ba 40ce 743d 0a23 a13e
00000380: a5c9 44be 07ac 00be ce32 df3d 6120 813e
00000390: eb48 643e 158c 56be e942 aa3d 253c 86bd
000003a0: bd50 28be c6fb c3bd e49f 31be 28d6 57be
000003b0: 3a45 f8bd d57b 57bd 290a ad3d 9451 03be
000003c0: d3da 1abd eb0f 80be 8e15 3bbc 7494 ab3d
000003d0: 46b6 80be 6a13 b4be 8357 83be c5e4 583d
000003e0: 2814 34bd 73e4 fcbd 8d14 42be 26e0 bb3c
000003f0: 348a 2abe 2006 e13d fdf3 25be 6340 493e
0.024319865 -0.06486578 -0.044846144 -0.17233975 -0.1545943 0.03364114 0.033860516 0.08243983
-0.009182537 -0.09112254 -0.061938178 -0.052421123 0.06803975 0.18220083 -0.1281991 -0.052100364
-0.01524802 0.080894254 -0.18760416 -0.014577644 -0.009000701 -0.22485012 -0.08172721 -0.09448989
-0.10376919 0.0022126674 0.1968396 -0.3910014 0.017573508 0.03179038 0.018987725 -0.06121308
0.0025857359 -0.13314755 -0.1309229 -0.030608745 -0.14446287 -0.1460076 -0.027181119 -0.111175075
-0.006093208 -0.2706712 -0.16350268 0.026059011 0.13553156 0.10138533 -0.075665556 0.05595981
-0.09251744 -0.12263056 0.056902498 -0.104658835 0.055830356 -0.11365766 -0.134603 0.03892913
-0.18736485 -0.057071038 0.17981552 -0.057926837 -0.10223707 -0.19886376 -0.063961126 0.19278388
-0.06251886 -0.04060881 0.00077685184 -0.025345637 0.04450543 -0.06555621 0.06807861 -0.16332513
-0.03199943 -0.21175948 -0.15188241 -0.14781411 0.041320086 -0.026011113 -0.0232629 -0.02194442
0.06761821 0.018484488 -0.21348687 0.05087923 0.07262533 -0.34113565 0.03607363 -0.10228555
-0.10167259 0.12703106 0.22012116 -0.19092914 0.019427925 -0.002073689 -0.06455418 -0.19391404
-0.084815584 -0.23656628 -0.12297839 -0.24161434 -0.191013 -0.08370345 0.08144105 -0.071129635
-0.061636176 -0.052634165 -0.059247784 -0.1562581 0.11266705 0.14143471 0.28411528 0.046259463
0.027397824 -0.1006629 -0.0461627 -0.045010667 0.022354502 -0.006379664 -0.047160883 -0.23017453
-0.033523493 -0.10126554 -0.14339116 -0.028779428 0.10280216 -0.23764963 -0.07655865 -0.06928461
0.05145586 -0.082680054 0.01873939 -0.03812834 0.053939573 -0.039923035 -0.041613035 0.0034834216
0.07353536 0.12929189 -0.051212993 0.0870811 -0.019100327 0.15115827 0.014856768 -0.06504549
0.035402212 -0.045680396 0.11742775 -0.021390319 -0.052779783 -0.015944064 0.12625925 0.06336247
0.07392065 -0.084877186 -0.061630066 -0.08871176 -0.048376054 -0.01521803 -0.116419636 0.07736375
-0.18910238 -0.2620841 0.112234555 -0.26853344 0.13486385 0.17111056 0.23216932 0.21711099
-0.12565318 0.2892869 0.10878864 -0.2564482 -0.014371217 0.09221522 0.1825556 0.07167636
0.50986373 0.06012068 -0.13340722 -0.15241538 0.09592046 -0.21848916 0.11833669 0.037292156
0.4109191 -0.1071501 -0.17955859 -0.004825107 0.12601191 0.25965247 -0.0018699785 -0.39918795
0.033133537 -0.21235381 -0.12025945 0.013145105 0.08734068 -0.008251872 -0.029205335 0.12745021
0.04285142 -0.07517947 0.0698648 -0.2692029 0.10828683 -0.10558137 0.09880359 0.14052896
-0.03186147 0.14230523 0.035314232 -0.08577504 -0.14073548 0.042560298 -0.05036905 -0.09178163
0.046536066 -0.07847115 -0.1360718 0.09871359 0.026580254 -0.0015332716 0.059767008 0.31472045
-0.19217546 -0.12565623 0.10898362 0.25220016 0.22293441 -0.20951875 0.08313543 -0.065544404
-0.16437049 -0.09569506 -0.1734615 -0.21077788 -0.12122579 -0.05260833 0.084492035 -0.12824088
-0.037806343 -0.25012144 -0.011418713 0.083779246 -0.25139064 -0.35171062 -0.25652704 0.052952547
-0.043964535 -0.12348261 -0.18953152 0.02293403 -0.16654283 0.109874964 -0.16206355 0.19653468

weight_hh_l0 f4 [512, 128]
00000000: 6636 14be ec6a 9c3b a920 d4bd c8cf afbc
00000010: b848 223e 6153 eb3b 8662 c03d 22d7 553e
00000020: c284 ea3d 14d3 aabd 3505 e5bd a92b 1f3d
00000030: 20ea 673c 2dd9 a73e 7ab1 a43c 344f 5dbd
00000040: ec7a bdbc 233f e43d c8ce d93d a77e 013c
00000050: 89c2 51be 6980 edbd 77c2 5e3d c9f5 4cbe
00000060: 6f5b 043e d818 79be e008 c8bd 3e3d e03d
00000070: f013 533c 7657 333d 5793 883d f20c 7fbd
00000080: 64c3 afbd 9aa4 00bc ea19 04be 912b 36bc
00000090: edbd 8f3d c98f 1bbd 3776 0c3e 3843 393d
000000a0: 3654 adbc 7fc1 fbbc 5c5d 1cbc 1f37 133e
000000b0: f8c7 30be 7587 8a3d 2007 213e d2be b1bd
000000c0: c674 35be c7ac 153e d3d3 05be 637e ff3d
000000d0: fa33 f83c d8c5 e73d ae36 8ebd 2671 1fb9
000000e0: 631c bcbd dae6 91bd 5a12 8dbd bce1 e2bc
000000f0: 7484 dfbd 52b2 883d e068 b6bc c594 4b3e
00000100: 09bc 71bd fce8 66bc 71e0 df3d 3f4e 06bd
00000110: d909 f3bc f76b 0f3e 0aad 1ebe 377b f93d
00000120: 92dc 5cbd 146d 17bd 7a50 62be 3930 d4bd
00000130: e2cf 54bd e391 2bbe d809 d3bc dc03 03be
00000140: 6043 f1bd b929 1dbd 884d 053e 4ed3 5f3e
00000150: 9ff6 c6bc 1c8b 6cbe 7876 cabd 0f67 27bc
00000160: 1999 36be a463 b33e 267e c2bd 4d5d 763d
00000170: 7c42 ec3d 470d 2b3d 73a0 813d 6400 f5bc
00000180: be44 143e f352 473c 4bb2 aa3d 4de9 b9bc
00000190: c956 30be c589 993d 5fc6 2d3e d6ab 49bd
000001a0: f943 f3bd 71bd aa3d 8841 033e 1c48 333e
000001b0: e8c2 803e 7f75 c1bd cc6e e3bd 44f5 eb3d
000001c0: 0d98 3abe f9ca 563a 28bc ad3d dc8d 51bd
000001d0: a8c7 493e e407 703d e4ac cf3d 95fd bfbd
000001e0: 556d 3b3e eddc f5bd 0819 04be 2154 493d
000001f0: 8b65 233d 0f73 db3d cb3b 2b3e 824e 31bc
00000200: e18c 2f3d 5901 2fbd d5eb 10be df83 6bbe
00000210: 7cf5 d53d 3196 913e 3b91 3d3e 256a 633e
00000220: 12fd d53c 9e86 1e3e d67d 4ebe 0815 9c3d
00000230: c280 f0bc 86c3 313e ba49 493d 8e40 953d
00000240: 2f25 85be 1f0a 13bb 28fe 9dbd 6574 36bd
00000250: 9d89 0abd 52fe 033d 2ee3 4ebd 7409 bb3d
00000260: adfa 7c3e 25fa a7bd 8a5d 3abe 0c20 25bd
00000270: 97c1 af3c 9490 033f 3245 c4be d7f7 e03c
00000280: 1075 28be 2672 9d3b 830d 3ebe a77d 39be
00000290: ec6a a83e 12bd 083c f0be 223e 6a72 573c
000002a0: 8f72 a2bd 364d 2a3c 534c 83bd 0261 733c
000002b0: e3dc 013e 845f 1cbc 025e 12be 7b83 fabd
000002c0: 89e4 95be 17ba d9bd acad 5ebe ce81 913d
000002d0: 5302 7abe 403b dd3d c09a 2abe 90af 0b3d
000002e0: a675 053d b2e2 da3d 5e2b 173d 685b 26bd
000002f0: aa35 d3bd 3b7d ce3c 6d12 393e e99e 783e
00000300: 2311 4ebe 16f3 7abd 8545 f3bd b2a0 8fbd
00000310: 4561 1ebe 2602 863d 9c57 2fbe 69fb a13e
00000320: 4aaa 32be 7ab4 41bc 057b e8be 7f45 7e3d
00000330: bc26 113e bbcd 3abe 5890 52bd 692b 07be
00000340: 8837 903e e172 8d3c 680c 533e d123 ff3d
00000350: 1765 ca3d a060 38be d89c 3cbd c13c 9bbe
00000360: 0ac1 2ebe 7121 2d3e fc6b 0fbe 9753 4a3e
00000370: c955 c5bd c868 a83b 3347 93bd 9d12 6bbe
00000380: 537b ffbd 4ea6 7b3d 9621 b3bd 639b cbbd
00000390: d6df 96bd cbcc e73d 1017 cfbd 2ccf 3d3e
000003a0: ef7f 1bbe c2ac 4d3c c9b0 b93d 88db 263e
000003b0: fe1b bc3c 5786 893d 7766 f4bc d75a 10bb
000003c0: 90db 783c 00ee 263d 489e a43e 203a abbd
000003d0: 6694 3bbe 2438 823d 3bba b23d a999 8bbe
000003e0: c459 b23d 876c edbd 95e6 b2bd 5bfb 1e3b
000003f0: d62f 7ebd ba99 4d3d 3cc2 7d3e 2f74 74bd
-0.14473876 0.0047734883 -0.10357792 -0.021461383 0.15848053 0.0071815704 0.09393792 0.20882848
0.11451103 -0.08341041 -0.11182634 0.038859997 0.014154941 0.3278288 0.020104159 -0.054030612
-0.023129903 0.11144855 0.106351435 0.007903731 -0.20484366 -0.11596758 0.054384675 -0.20015635
0.12925504 -0.24325883 -0.09767318 0.10949181 0.012883171 0.04378458 0.06668728 -0.062268205
-0.0858219 -0.007851744 -0.1290051 -0.0111187855 0.07018647 -0.03797892 0.1371697 0.04523012
-0.021158319 -0.030731915 -0.009543743 0.14376496 -0.17263782 0.06764118 0.15725374 -0.08678974
-0.17720327 0.1461669 -0.13069086 0.12475278 0.030298222 0.113170326 -0.06944023 -0.00015205573
-0.09185102 -0.071241096 -0.06888266 -0.02769553 -0.10913935 0.06674637 -0.022266805 0.1988097
-0.059017215 -0.014093634 0.10931481 -0.032789465 -0.029667782 0.14006029 -0.15495697 0.121817045
-0.05392129 -0.03696926 -0.22101012 -0.1036076 -0.051956065 -0.1675487 -0.02576153 -0.12794441
-0.11780429 -0.038369868 0.13017857 0.2185795 -0.02428752 -0.23099941 -0.09885877 -0.010217442
-0.1783184 0.35036957 -0.09496717 0.060147572 0.115361184 0.04176071 0.063294314 -0.029907413
0.14479348 0.012165773 0.08334788 -0.022694254 -0.17220606 0.074969806 0.16970204 -0.04923614
-0.11878199 0.08336914 0.12817967 0.17507976 0.25148702 -0.09446239 -0.11105117 0.1152139
-0.18222065 0.00081936974 0.084831536 -0.05116068 0.19705069 0.058601275 0.10140398 -0.09374539
0.18303426 -0.12005029 -0.12900174 0.049152497 0.03989176 0.10715305 0.16722028 -0.01082194
0.042858962 -0.042725895 -0.14152463 -0.22999524 0.10447213 0.284349 0.18512432 0.2220846
0.02612165 0.1548104 -0.2016519 0.07621199 -0.029358272 0.17359743 0.049142577 0.072877035
-0.2600493 -0.0022436453 -0.07714492 -0.044544596 -0.033822645 0.03222496 -0.050509624 0.091326624
0.24705 -0.08202008 -0.18199745 -0.040313765 0.021454616 0.51392484 -0.38334042 0.02746193
-0.16450906 0.0048048673 -0.18559842 -0.18114339 0.32894075 0.008345859 0.1589315 0.013149837
-0.079320066 0.010394385 -0.06411042 0.014854671 0.12681918 -0.009544257 -0.14293674 -0.12232109
-0.2927592 -0.10631197 -0.21745938 0.071048364 -0.24414949 0.10802317 -0.16660595 0.034102976
0.0325829 0.1068777 0.036906593 -0.040614516 -0.1031297 0.025206199 0.18073435 0.2427937
-0.20123725 -0.06126698 -0.11878494 -0.07013072 -0.15466793 0.065433785 -0.17123264 0.31637123
-0.17447773 -0.011822814 -0.45406356 0.062077995 0.14174932 -0.18242542 -0.05140719 -0.13200153
0.28167367 0.017266693 0.20610201 0.12458003 0.098825626 -0.1800561 -0.046048015 -0.3031979
-0.17065826 0.16907288 -0.14006037 0.1975845 -0.09635503 0.005139444 -0.071913145 -0.22956319
-0.12474694 0.061437897 -0.087466404 -0.09941747 -0.07366912 0.11318358 -0.10111821 0.18536061
-0.15185522 0.012553396 0.09066922 0.16294682 0.022962566 0.067150764 -0.029834015 -0.00220268
0.0151890665 0.04075432 0.3215201 -0.08360696 -0.18318328 0.06358364 0.08726927 -0.2726567
0.08708528 -0.115929656 -0.08735386 0.0024258706 -0.06205734 0.050195433 0.24781126 -0.059681114

bias_ih_l0 f4 [512]
00000000: c266 563c c4ff afbb 1f15 973d b0f7 073e
00000010: d1ca cb3d 9081 463e 2343 613d 59b0 643e
00000020: a0cf ab3d 2b88 1c3d 225c c03d 73f6 1b3e
00000030: 2087 923d 503d 9a3e 943e 4e3e dc51 bf3d
00000040: a527 203e d6c3 2a3e 4434 a53d 1b98 a93d
00000050: e4a3 413e 581e a03d 474f af3d 6120 783d
00000060: 969b 9bbc 4f4f d03d 3dcd 76bc 6281 6b3d
00000070: 6952 633d 6523 2d3d 33a9 8f3d 38c8 c43d
00000080: 5028 dd3d 669f 083e 1ed5 243d 2c31 153d
00000090: 429f 313e e8fc b63d 6718 b43d bb10 bd3d
000000a0: 43c6 c13d cd7c 903d e264 073e 5627 f23d
000000b0: b48a b03d e4ea 1e3e 705b d93d 3da7 343d
000000c0: 09b2 113e 6845 1f3e 6134 c63d 91c9 073d
000000d0: 4535 193e eef6 b93d 28be 1f3e 1a60 ac3d
000000e0: ef33 4a3b 65d0 d33c 1df4 003e cf84 c43d
000000f0: 8d7d 093e f235 5a3d 32c4 893d ca7f c03d
00000100: 07d5 df3d d0b1 bc3d 8881 873d f738 0e3e
00000110: f2e5 b13d 9519 303e 2b95 ca3d 8f76 543d
00000120: 2774 053e d386 373e d85a bb3d 839c c1bc
00000130: 25d1 f63d 5659 2f3e 8c54 1e3e ae80 313d
00000140: b63a 8b3d 3f32 323d a92f 743e fed8 9c3d
00000150: f53e 0e3d d797 b33d c526 883d fe1e 063e
00000160: dd6d 523e 5fc9 a23d b2e0 1a3e ac08 c03d
00000170: f8fd ad3d 0b77 263e d0bf 243e 0a3c 0f3c
00000180: ba35 1f3e ba3e fb3c 1a17 063e 681a 143e
00000190: 1e8e e33d 8770 5c3e 8044 d53d 5a71 093e
000001a0: 0877 b03d b90a 4f3d 280b 163e c209 773d
000001b0: 25e1 7b3d 7b40 0fbc 9c89 303e e9c2 0a3d
000001c0: ccc8 643d 1a48 ba3d b421 a73d f4d1 e73d
000001d0: bdd1 103e 8c1a 903d 011a 3dbd bbd5 873d
000001e0: aa33 ca3d 5c88 283e fdf3 75b9 f862 a63d
000001f0: 261c e63d 6231 48bd 596e 283d 6b27 c63d
00000200: b3dd 92bd 6efa 523d 6d39 693d 460b 8b3d
00000210: 9eb8 4e3d 10c3 c4bd 7c44 f3bc 79b4 c1bc
00000220: 622f 97bd 9a38 8dbd faf3 a1bd 82a5 a3bc
00000230: fefe 123d b423 d8bd 9922 203d 1782 5dbd
00000240: b4f9 18be fe2d 1b3d b88e 01be d4a7 81bd
00000250: a302 c9bd 544d 6ebc a594 04bd 375f 39be
00000260: 28f8 603d c6a8 94bd 33a8 cbbd 5bba 94bd
00000270: 2970 903d 7dc0 ee3b 0c4f 07be cf74 023d
00000280: 3055 52bd 811d 573d c694 48bd 965a e33d
00000290: ce6b 31be 025b ca3b 4ea0 b03d 4e91 eebc
000002a0: 3772 803d 7585 f13b 6ae2 8b3c a315 89bc
000002b0: ced7 5dbd cc71 92bd c5f4 bb3d be75 83bd
000002c0: c78d 20bd 56e1 0bbe 053f febc 5352 e13d
000002d0: bcc7 a0bc 2e0c 6a3c 939f 5ebd b73b 84bd
000002e0: 636d 0abd 4f32 03be 22da 76bd 7829 1f3c
000002f0: e5fd bf3c a1fd ad3d 0853 553c db55 093d
00000300: 81e3 a9bd 4f3c 113c 19f8 17bd 3032 49be
00000310: 6be4 afbd 2730 d4bc 3d12 0dbe 115e e9bd
00000320: f313 06bd dfa2 28bd 57e7 4fbd 7e78 b33c
00000330: e033 ba3d f15b 7fbd cac7 093d 468e bb3d
00000340: de4f 2cbe 06e7 4e3d a587 aabd 29be 1e3b
00000350: 1f03 803c 5880 a4bd 8c92 f7bc 7b2e dc3c
00000360: d60e 93bd 775d 6fbd 5309 8fbd fc40 e1bc
00000370: acc1 9c3d 775a 49bb 2eed 2ebd 3f97 29bc
00000380: 3280 9bbd e1c4 8bbd 56bb eebd e273 693c
00000390: 47a3 8b3d 6663 f8bd 30ea e93d e5ca 34be
000003a0: 61e7 0bbc abbe 97bd e502 d53d 67d6 da3c
000003b0: 2a8e 053e 96f5 cc3c 7080 ce3d 3016 c73d
000003c0: 8ac8 0a3e 9313 40bd ded7 00bc a325 de3d
000003d0: bdb7 debd 6d1a 213e a943 5fbd 09bb 0dbd
000003e0: 245f 963d f894 923b efdd 123d ce2b 3dbd
000003f0: f953 9cbd 9c5d 6d3d 9a65 06bd 0ea5 8bbc
0.013086023 -0.005371066 0.073770754 0.13278079 0.099507935 0.19385362 0.054995667 0.22332896
0.08389211 0.038215797 0.09392573 0.15230732 0.07154679 0.30124903 0.20141059 0.09341785
0.15640123 0.16676268 0.080666095 0.08280965 0.18910176 0.078182876 0.08560043 0.060577754
-0.018995088 0.10171377 -0.015063581 0.057496436 0.055498514 0.042270083 0.07014694 0.09608501
0.107987046 0.13342056 0.040242307 0.036423847 0.17345908 0.08934957 0.08793717 0.09231707
0.094616435 0.07055054 0.13222077 0.11823909 0.086202055 0.15519291 0.106131434 0.044104803
0.14228071 0.1555382 0.09677959 0.033151213 0.14961727 0.09080301 0.15599883 0.084167674
0.0030853709 0.025856206 0.12593122 0.09595644 0.134268 0.053274103 0.067268744 0.09399374
0.109293036 0.092136025 0.06616503 0.13888918 0.08686437 0.17197259 0.09891733 0.05187088
0.1303259 0.17922525 0.091481864 -0.0236342 0.1205161 0.17123923 0.1546194 0.04333561
0.067983076 0.04350495 0.23846306 0.076585755 0.03472801 0.087691955 0.0664802 0.1309776
0.20549722 0.07948565 0.15124777 0.09376654 0.08495706 0.16256349 0.16088796 0.008742342
0.15547839 0.030669559 0.1309475 0.14463198 0.11111091 0.21527301 0.10413456 0.13422146
0.086164534 0.050547335 0.14652693 0.06031204 0.06149401 -0.008743401 0.17239994 0.033877287
0.055855557 0.090957835 0.08160725 0.11319342 0.14142509 0.070363134 -0.046167377 0.06632563
0.098731354 0.16458267 -0.00023455913 0.081243455 0.11235838 -0.04887522 0.04112086 0.09675487
-0.07171192 0.05150836 0.05693953 0.067892596 0.050469033 -0.09607518 -0.029695742 -0.023645626
-0.073820844 -0.068955615 -0.07907863 -0.019976381 0.03588771 -0.10553685 0.039095495 -0.05407914
-0.14939004 0.03788566 -0.12652099 -0.06330839 -0.09814956 -0.014544804 -0.03236832 -0.18102728
0.05492416 -0.072587535 -0.09944191 -0.07262107 0.07052643 0.00728613 -0.13213748 0.03184968
-0.051350772 0.05251837 -0.048970006 0.11101262 -0.1732628 0.0061753998 0.08624326 -0.029122021
0.06271785 0.0073706456 0.017075736 -0.01673395 -0.054160886 -0.07150611 0.091775455 -0.06418942
-0.03919771 -0.13660178 -0.03103591 0.1100203 -0.01962649 0.01428513 -0.0543514 -0.06456702
-0.033795726 -0.1281216 -0.06026662 0.009714477 0.023436496 0.084956415 0.0130202845 0.033529144
-0.08295346 0.008864476 -0.03710184 -0.19648051 -0.08588489 -0.025901867 -0.13776489 -0.11394895
-0.03273387 -0.04117095 -0.050757732 0.021908041 0.090919256 -0.06234354 0.0336378 0.09157996
-0.16827342 0.05051329 -0.083266534 0.002422223 0.015626488 -0.08032292 -0.030221246 0.026877632
-0.07180564 -0.058438744 -0.069842 -0.027496807 0.076541275 -0.0030724087 -0.04270666 -0.010351001
-0.07592811 -0.06824661 -0.11656825 0.01424882 0.06818252 -0.12128334 0.11421621 -0.17655523
-0.008539052 -0.07409414 0.10400943 0.026713563 0.13042513 0.025019448 0.10083091 0.09721029
0.13553062 -0.046893667 -0.007863967 0.108470224 -0.10874889 0.15732737 -0.054507885 -0.0346022
0.073423654 0.004473325 0.035856184 -0.046184354 -0.07633204 0.0579506 -0.03281174 -0.017046478

bias_hh_l0 f4 [512]
00000000: 83f1 e83d fd4b 113e 89e1 b93d 4f4b de3d
00000010: 3c5a 63bb 0c5f 303e ca23 ba3d b906 043e
00000020: 17b7 a53d b241 da3d 1743 3d3e caa1 9f3d
00000030: 1f01 163c 884d 8a3e 943f f63d a557 803d
00000040: 23dd 2f3c e417 cd3d c6ec 313e 373d cebc
00000050: b846 e93d 2c2d 533d 551c ea3d e432 843d
00000060: 993a b2bc 2fe9 193e ea04 a03d d77e 25bc
00000070: a784 503e 3063 8e3b 9772 783c 0691 f63d
00000080: 9916 023d 6c2c 843d ecc7 0a3e e813 f03d
00000090: 5628 653d 5685 a33d 1d7f eb3d 3035 4d3e
000000a0: d99f d53d 7ed2 193e 2c95 6e3d 08d4 3a3e
000000b0: 1fa8 9e3d ffbb 3b3e 4814 8e3d edae 2c3e
000000c0: b187 3b3e 9cba d43d d281 013e a0f3 1e3e
000000d0: ccab e53d 4af2 0b3e 3b39 633e 9b57 9d3d
000000e0: d9d6 93bd d75c 003e 1464 ec3d 2676 cf3c
000000f0: 2524 353e 2416 823c 4e70 113d ba36 3f3e
00000100: e19d 503e 946d 993d 013e 363d 6fe9 f83d
00000110: be2d 3e3d 9c52 803d 373f 213e 0b82 613d
00000120: 6574 893b 22b3 773d d51a 253e f6e5 693d
00000130: 3578 833d d5d9 6e3e 9b2a b93d 58aa ed3d
00000140: b445 6f3d 76cb 1bbc 7806 6e3e c513 9e3d
00000150: db1d 133e a5a6 513d 5614 ac3d cca1 513d
00000160: be2b 9c3d e185 1b3e 41a7 193e c8ae 3c3d
00000170: f9d3 3c3d 00b1 3d3d d6c3 2d3e a6d5 4fbc
00000180: 1f1a c83d f818 613c 1a6b f53d c5cd 393c
00000190: 1c11 213c 52ff 3f3e 7bdb f53d 208e b53d
000001a0: ffa6 d23d 66da 063d d9c2 093e 59bb fe3d
000001b0: 0f97 fd3d 84bb cc3d 5b03 183e 6817 d83d
000001c0: 9ba9 37bd aa22 2f3d 917b 7a3d 4dc3 333e
000001d0: f6fe 1d3d 792d 41bd 5c02 eabc 0ce1 683d
000001e0: 7d8e 373e 72fb b83c 66b6 81bb 532c 093e
000001f0: b898 c03d 6d23 413c a55b 8e3d 4722 093e
00000200: b3c9 d63c 06bd 803d 93a8 873d 9399 16bd
00000210: d96f 163e e159 04be 5e30 edbd e128 803d
00000220: dc58 9dbd fb99 0bbe 0a64 9b3c 8534 28bd
00000230: bafe 003d 1bf8 1abc 20a6 bcbd 7d5f aa3d
00000240: 3c26 66bd d8b8 6c3d a62d 1abe d63a 38bd
00000250: 1b90 a5bd 91b4 9cbd e49d 7e3b ca8c e9bd
00000260: 9571 a03c d72a 793d 1151 5ebd 73cc 583d
00000270: 908a cb3d d18d 2e3d 2425 cdbd 6586 80bd
00000280: 13ee d9bd eb83 68bd bd2c 24bd 3051 913d
00000290: ccee 16be 146a 58bb 3b01 6b3d 97b2 523b
000002a0: c539 773a 786d 00bd 473c 31bc 858d 4a3d
000002b0: 6b31 c33d 4934 53bb ca37 cdbc e0f7 893d
000002c0: 1cac c7bd 24a7 e5bd f241 fd3b 5c19 113e
000002d0: e6fa 11bd f749 8ebc 35b9 79bd 21a6 dd3c
000002e0: 8c91 22bd 6539 1ebe 5ade 13bc b6da 96bd
000002f0: 2de7 e53d 9825 743c 8292 50bd 8754 0f3d
00000300: 211d b83c 358a de3d d33e 9a3d 0029 07be
00000310: aff5 1f3d d0d4 5ebd 0ce1 0ebd a034 e2bd
00000320: 7688 ae3d bef8 86bd 05ef 3bbd ce25 263d
00000330: 8b3e 3ebc 9dee 39bd 6e2c dfbc 3d01 33bd
00000340: 0198 12be b208 8abc 2365 833c a3ac b33d
00000350: d991 c5bc 8607 e0bd ca97 44bd bedf ebbd
00000360: 05ab 08be 1d2e d0bd eecd a8bc ca68 d5bd
00000370: b4a9 243d 2845 993c 321b c93d a6d3 a9bd
00000380: 0746 36be 60a2 99bd a8a7 bbbd 329f 1a3c
00000390: 17ac 893d a041 99bd 5b03 223e 33f0 c3bd
000003a0: 94cf 073e 0fba 09be eebb dd3d b500 df3c
000003b0: 1682 023e db55 603d d49b e23d 8b5b 5d3c
000003c0: 13c6 893d 0364 183d 33d8 d4bb 0ec8 773d
000003d0: 33d4 13bd 10da ac3c ba8b 07bd 9a29 7e3d
000003e0: c962 c33c 5c8b 5f3c 50cb a73d 2966 733d
000003f0: 69d7 98bd e557 1e3d fed6 e5bd 1d74 11bd
0.1137419 0.14189143 0.090762205 0.10854208 -0.0034691235 0.17223758 0.090888575 0.1289319
0.08091562 0.10657062 0.18482624 0.07794531 0.009155541 0.27012277 0.12023845 0.06266717
0.010733875 0.100143224 0.17375478 -0.025175674 0.11390442 0.05155675 0.11431185 0.06455019
-0.021756457 0.15030359 0.07813437 -0.010101042 0.20363103 0.00434532 0.015164039 0.1203938
0.031759832 0.06453785 0.13552827 0.11722547 0.05594667 0.07984416 0.11498854 0.2003982
0.10430879 0.15021703 0.05824773 0.18244946 0.0774691 0.18333434 0.06937462 0.16863604
0.18313481 0.103871554 0.12647179 0.15522623 0.11214408 0.13666645 0.221898 0.07682725
-0.07218713 0.12535416 0.11542526 0.025324892 0.1768957 0.015879698 0.035507493 0.1867322
0.20372726 0.074916035 0.044492725 0.12153899 0.046430342 0.062657565 0.15746771 0.05505566
0.0041947835 0.06047357 0.16123517 0.057104073 0.06419412 0.23325284 0.090413295 0.11604756
0.058416083 -0.009508958 0.23244655 0.077186145 0.14366858 0.051184315 0.08402316 0.051179692
0.07625531 0.1518779 0.15005209 0.046065122 0.04610059 0.04631138 0.16969237 -0.012685215
0.09770607 0.013738863 0.119833186 0.011340563 0.009830739 0.1874974 0.12004753 0.08864999
0.10285758 0.032923125 0.13453235 0.124380775 0.12382328 0.09996703 0.1484503 0.105513394
-0.044839483 0.042757668 0.061153 0.1755497 0.038573228 -0.047162507 -0.028565578 0.056855246
0.17925449 0.022580836 -0.003958511 0.13395815 0.09404129 0.011788231 0.069510736 0.13391982
0.026219225 0.06286053 0.0662395 -0.036767554 0.14691104 -0.12924911 -0.11581491 0.06257797
-0.07682964 -0.13632958 0.0189686 -0.04106571 0.031492926 -0.009458567 -0.09211373 0.08318994
-0.056188807 0.05779347 -0.15056476 -0.044977985 -0.080841266 -0.07651628 0.0038851434 -0.114038065
0.01958541 0.06083187 -0.05427653 0.052929353 0.09938538 0.042615715 -0.1001685 -0.06275634
-0.10641112 -0.05676643 -0.04008173 0.070955634 -0.14739531 -0.0033022212 0.05737422 0.0032149905
0.00094309106 -0.031354398 -0.010817594 0.04945137 0.0953091 -0.003222721 -0.025051016 0.067367315
-0.09749624 -0.1121352 0.0077288086 0.1416983 -0.035639666 -0.017369254 -0.060967643 0.027056755
-0.039689586 -0.15451582 -0.009025181 -0.073659346 0.11225734 0.014901541 -0.05092097 0.03499272
0.022474827 0.10866205 0.07531514 -0.13199234 0.03905266 -0.054402173 -0.03488259 -0.11045194
0.085221216 -0.065904126 -0.045882244 0.040563397 -0.011611591 -0.045393575 -0.027242865 -0.043702353
-0.14315797 -0.01684985 0.016039437 0.08773162 -0.024117397 -0.10938935 -0.04799632 -0.11517285
-0.13346489 -0.101650454 -0.020606007 -0.104203776 0.040200904 0.018709734 0.0981964 -0.08292322
-0.17800151 -0.07501674 -0.09162837 0.009437369 0.06722277 -0.0748322 0.15821593 -0.09567299
0.13262779 -0.13449882 0.1082686 0.027222017 0.12744936 0.05476938 0.11064878 0.013510595
0.06727233 0.037204754 -0.0064954995 0.06049352 -0.03609104 0.021100074 -0.033092238 0.062051393
0.023850815 0.013644066 0.08193076 0.0594236 -0.07462961 0.03865804 -0.11222647 -0.035511125

weight f4 [29, 128]
00000000: d566 bdbd 4347 f93d 0d69 48be 3f25 05be
00000010: cdad c3bc b00e 56be 840e d93d 95bb 2e3e
00000020: 557d 373c 4974 0dbe 4c54 e3bc f749 fbbd
00000030: 046f e13d ced8 4abe 1b70 143e 3a69 d0bd
00000040: 2e89 86bd 2987 213d ae2f 283d 4f72 1bbe
00000050: 0587 363e b1de 08be 8deb 9dbd 7e44 893d
00000060: c8ec 0a3d c505 cebd f0a3 4ebe 2d79 653d
00000070: 745c 383e 0de4 d5bc b1d3 273a 3f83 0abe
00000080: cd83 a8bd 32b2 613e 8f44 7b3d a1bf e1bd
00000090: c917 0b3e ecaa fc3c 3bc3 bd3d e3d8 32be
000000a0: a396 ba3d 4cdf d83c 8454 cfbd d3d0 ab3d
000000b0: 294d a1bd eabd 60be da22 3dbd d1b6 8a3e
000000c0: 9c48 6c3e 2ccd 22be 742c 16bd 5864 af3d
000000d0: 7b37 d0bd 4d4d 973d 1676 b1bd 3bb5 0a3e
000000e0: 2705 3b3e 6791 11be ce71 61bd 0f61 cdbd
000000f0: 3d41 753d bcb2 383d 3d92 ef3d 4e4f 9b3c
00000100: b0d3 0abe 0d42 06be e624 da3d 25a8 1dbe
00000110: 63b6 623e eece bfbd 8ea8 2c3e 902a 7ebe
00000120: d63b 1cbe 06f5 39bd 8b4e 08bd 420e c8bc
00000130: af9a 68bc e00f 41bc 46a7 88bd e0f3 1abe
00000140: d375 663e 055b 07be 8360 60bd 5ccc 0c3d
00000150: 34f0 0cbe c861 763d 01c7 213e 9e7e 2c3b
00000160: 8401 2dbb 3f5d 18be 7bc9 de3c 76ae 6c3d
00000170: c945 133e 50ec 633d 922a 37bd 55c6 95bd
00000180: 9e97 2ebe ef1b 51be 4c2c c0bd e4a2 a33d
00000190: 7b2d 023d 5fe3 d9bc a87e 9c3d f985 3c3e
000001a0: 833f e8bc b236 0f3e 3b56 043e bfb9 ba3c
000001b0: 8d6f 923d 4e6d 9ebd 85e0 49bc 7616 e83d
000001c0: f1f3 b0bd c381 6bbd 213d 0b3e 412e 86bc
000001d0: b53d 813d ddeb e03d 84d1 3b3e 3461 98bd
000001e0: 3367 58bb 1dde 52bd 2c23 47bd d018 0b3e
000001f0: 0a8b b43d e098 a33d ce7c 2a3e 7ebc 58be
00000200: 4986 1d3e b5ab 983c c210 8c3d a30f af3c
00000210: 87e4 6cbd f9bd 6c3e e888 45be 46a5 543d
00000220: ccc5 113e e659 53be 4b05 c83d 9a50 003d
00000230: ad9f 303e 9b52 06be fb66 dcbd ab7b 41bc
00000240: ab92 eb3c 8e06 993d e7fd 913e adf0 573e
00000250: 515e febd 0661 e5bc 4849 56be 6363 003b
00000260: c730 a63c ac84 97bd 7b47 bd3d 1338 8c3d
00000270: fc10 9abe a114 25bd 697c 2abd abd4 153d
00000280: adff b3bd 25d3 183d a683 a63d f808 5abd
00000290: 9167 1ebe 54cd 193e 5808 67bc 0737 ad3d
000002a0: 0dbe 39be c230 d7bd 788a ca3c e6ee 9f3c
000002b0: 085e 6ebb 4eb9 923e a04a 0e3d edd3 ef3d
000002c0: 9d05 44be c47d 2d3d 6c03 bf3d 14e4 5ebc
000002d0: 3733 75be 4933 eebd c430 68bd 1949 383b
000002e0: 05aa f7bd 0393 123e 0da7 443e eb62 573d
000002f0: 310f bebd 6848 9abd 5c16 ef3c fba0 20be
00000300: 84f6 0d3e 88cb e5bd d709 393d 65c3 97bd
00000310: 055b 903d 9020 71bd 6d43 8ebd 5c54 873d
00000320: 5540 e13d 7212 fb3d b98e 3cbd 6fd6 90bc
00000330: 6376 093c eee6 ea3d ba8d e33d 7494 ccbc
00000340: 3145 3ebe 6dd3 b8bc 72c7 0a3e 8221 703c
00000350: 5ace bf3d 0eab bb3c c87d b9bd 6687 0ebb
00000360: ec74 e4bd 501d 343e 36b0 37be 6c41 98bc
00000370: eb0f 64be 0929 40bc dd93 1d3e b936 743e
00000380: 57ff 873d 5728 56be 0da3 1cbc 71b3 0b3e
00000390: 0ae0 003e 01f4 16be 832c 023d 9455 06bd
000003a0: 6a65 163c 8323 bfbd 2efc 993d 5525 d83d
000003b0: f3b4 fd3d 5c38 663d b451 d6bc a694 bf3c
000003c0: 5d35 bb3d e180 9abd e8fb 06bc 4a9a 41be
000003d0: c3fe c83d 16d0 313c 3fac d2b9 a736 793c
000003e0: 4914 53bd 0b5b 613d 9632 173e 8c2e 84bd
000003f0: b0fa a7be 7e47 8c3d 75d0 863d 92c3 0a3e
-0.09248129 0.12171795 -0.19571324 -0.1300249 -0.023886586 -0.2090404 0.10598472 0.17063744
0.011199315 -0.1381389 -0.027750157 -0.12269967 0.11007503 -0.19809267 0.1449589 -0.101763204
-0.06569134 0.03943554 0.041061096 -0.15180324 0.17824943 -0.133662 -0.07710943 0.06702517
0.03391722 -0.10059694 -0.20179725 0.056023765 0.18004018 -0.02610972 0.0006402089 -0.13526629
-0.08228264 0.22040632 0.06134468 -0.110228784 0.13583292 0.03084322 0.09265753 -0.17465548
0.09110763 0.026473664 -0.10123542 0.083894394 -0.07876045 -0.21947446 -0.046175815 0.27092603
0.23074573 -0.1589858 -0.036663488 0.08564061 -0.10166832 0.07387791 -0.08665101 0.13545696
0.18263684 -0.14215623 -0.055040173 -0.10028278 0.05987667 0.04509233 0.116978146 0.018958714
-0.13557315 -0.13111134 0.10651569 -0.15396173 0.22139888 -0.093656406 0.16861174 -0.24820924
-0.152572 -0.04539969 -0.03327803 -0.024420861 -0.014197036 -0.01178357 -0.0667253 -0.15132093
0.22505884 -0.13218315 -0.05477954 0.03437458 -0.13763505 0.060151845 0.1579857 0.0026320587
-0.0026398608 -0.1487932 0.027195683 0.057783566 0.1438209 0.055645287 -0.044718333 -0.073132195
-0.17050025 -0.20420812 -0.09383449 0.07990053 0.031781655 -0.026597677 0.07641345 0.18410482
-0.028350597 0.13985708 0.1292352 0.022793649 0.07150183 -0.07735692 -0.012321596 0.11332409
-0.08640278 -0.057496797 0.13597538 -0.016379477 0.06310598 0.10982487 0.18341643 -0.07440415
-0.0033020496 -0.051481355 -0.048617527 0.13583684 0.08815582 0.07988143 0.16649172 -0.21165654
0.15383257 0.018636564 0.06839134 0.02136976 -0.05783513 0.23119344 -0.19290507 0.05191543
0.1423561 -0.20639762 0.097666346 0.031326868 0.17248411 -0.13117449 -0.107618295 -0.01180927
0.02875646 0.07471953 0.28514025 0.21087904 -0.12420333 -0.028000366 -0.20926392 0.001959049
0.02028693 -0.07398352 0.092421494 0.06846633 -0.30091083 -0.040302876 -0.041622553 0.03657977
-0.08789001 0.037310738 0.08130579 -0.05323121 -0.15469195 0.15019733 -0.01410111 0.08457761
-0.18138905 -0.10507347 0.02472423 0.019523095 -0.0036371965 0.28657 0.034739137 0.117103435
-0.19142766 0.042356268 0.093268245 -0.013604183 -0.23945318 -0.116308756 -0.05668713 0.0028119741
-0.120929755 0.14313893 0.1920435 0.05258457 -0.09280241 -0.07533342 0.029185466 -0.15686409
0.1386357 -0.11220461 0.0451754 -0.074103154 0.070486106 -0.058868945 -0.06946454 0.06607887
0.109985985 0.122593775 -0.04603455 -0.017680375 0.008390042 0.114698276 0.111110166 -0.024973132
-0.18581082 -0.022561753 0.13552645 0.014656426 0.0936553 0.022908714 -0.09057194 -0.0021748184
-0.111551136 0.17589307 -0.17938313 -0.018585883 -0.22271697 -0.011728534 0.15388437 0.23849
0.06640499 -0.20913826 -0.009560359 0.1364267 0.12585464 -0.14741518 0.03178073 -0.032796457
0.009179452 -0.09332945 0.075188026 0.105539955 0.12388029 0.056206092 -0.026162006 0.02338631
0.091410376 -0.07544113 -0.00823877 -0.18906513 0.09814217 0.010852834 -0.00040182655 0.015210784
-0.051533017 0.055018466 0.14765391 -0.064541906 -0.32808447 0.068495736 0.06582729 0.13551167

bias f4 [29]
00000000: c1b5 833d 2495 0cbc 9027 f13c a185 423d
00000010: 9fba 4e3d 5ea0 21bd c4f2 c43c 66ca 16bd
00000020: f3ea 83bc c006 e2bd 9066 25bd 2b79 d83d
00000030: 3dd8 953d c74b 3d3d c228 e93d 5e4f 2a3d
00000040: 49d8 5bbe dce7 b33d dc2d 073e e44a bb3d
00000050: d3bf f8bd cbfd 72bd 344e 89bd c8ec 9fbd
00000060: eec8 66bd ed2b 61be fce0 92bd 3f67 693d
00000070: 296c 69be
0.06431151 -0.00858048 0.02943781 0.04749072 0.050470944 -0.03945958 0.02404154 -0.036814116
-0.016103243 -0.11036444 -0.040381014 0.10569986 0.07316635 0.046214845 0.11384727 0.041579597
-0.21469225 0.08784458 0.13201088 0.09145144 -0.121459626 -0.059324067 -0.06704369 -0.07808834
-0.056343965 -0.21989413 -0.071718186 0.05698323 -0.22795166
