models/ESEN_60-40/ESEN_60-40_3_best_loss.pt (torch, 318607 bytes, 7 tensors)

weight f4 [28, 16]
-0.15589248 1.9344487 0.31977838 -0.5550364 1.3068143 -1.0869744 -0.5492912 2.5956926
-0.46316472 0.8264939 0.31308073 1.102714 -2.2921407 -0.41694015 -0.6527271 1.8619287
-1.3827807 0.32465643 0.55577755 1.3558265 -1.0294796 0.68083394 0.84410435 1.6980791
1.2516611 0.47989604 2.2302063 0.38031706 -0.3805134 0.010284774 -0.7378613 -1.2918267
-1.0197918 -1.6021854 -0.6501505 -0.2552206 2.105493 -1.6321803 0.07507428 0.54202276
-1.6679015 0.9298822 0.87428886 -0.88740975 -1.9449784 -0.7424386 -1.35663 -1.585968
-0.42944968 -0.52497154 -0.8374177 -0.059287775 -1.3599001 1.3881652 -0.50960684 2.2441738
-0.90860987 0.50799423 -0.4115612 -1.3092095 2.8543563 -0.6655885 -0.02666635 1.5610603
-0.42742437 2.1061237 1.5605667 -1.6069096 1.3594605 -1.637538 -0.76665086 0.19673538
-0.023954535 -1.7997403 0.83113754 -0.14757916 -0.40712675 0.9235934 1.1524677 -1.0980445
-1.1690458 0.022335865 -3.2900622 0.49971077 -0.80217266 0.8425487 -1.081041 -0.85252476
1.0687853 -0.6970012 1.3681351 0.7975122 -1.7669384 0.26705343 -0.2621737 -0.85962445
-0.23041165 0.4468317 -1.1817079 -0.032157578 1.1884707 -0.0010526981 -0.21827814 1.4560524
0.57787657 -0.6714134 1.0852144 -0.18142805 0.30682817 -2.5265126 -0.8927753 -1.1809938
1.6784558 -1.5624212 0.64266473 0.33931175 -0.90296954 -1.7166792 -1.7066611 -0.2857575
-0.12139577 0.5760606 0.16609405 -0.37621394 1.1084477 -0.002758844 1.3615985 -0.7565115
1.5925268 -0.06789096 -0.56094617 -2.0773976 0.97254443 -0.30922496 0.9363924 0.8046185
1.6288992 -0.06004757 1.2638196 -0.64420086 1.140026 0.98798823 -2.0274358 1.6599088
-2.0822685 -0.40734053 -0.4446693 -1.353162 -0.8467728 1.6344669 0.3258218 1.1857266
1.3614942 3.0303223 -1.704932 -1.2918552 -0.52027935 -0.67884386 0.17293146 -0.20964389
0.5675153 -1.0180576 -0.059243485 0.70039296 -1.8351454 0.04293964 -0.73174834 -0.18943915
-0.38934335 -1.2268358 0.049613785 1.1654948 -0.8753642 -0.077945024 -0.4473874 -1.0734786
0.43827727 0.8557983 0.55414605 0.9735136 -0.69902384 -0.95831764 -0.8590548 -1.1876193
0.743878 1.1496751 -0.40239906 -2.438002 -1.0674845 0.49904615 0.26416725 -1.7647623
0.103960365 1.9737737 -0.5467132 -0.023701586 0.36658663 2.5455818 -2.8542607 -0.37899303
-0.6008936 2.1580179 1.2657144 -0.4880046 0.95110524 0.088581435 -0.907039 -0.39401075
-0.5547367 -0.4282338 0.52634215 -0.0695729 1.5359297 1.4611198 0.21358597 -1.7964592
-1.6215208 1.2081845 -2.5235589 0.70690244 0.9079765 1.0548377 -0.95899916 -2.3523936
0.33256814 -0.3166172 -0.2549333 1.6168963 0.1352377 0.20456973 -0.53593516 0.6431866
1.1188455 -1.988057 -0.7276072 0.9107902 -1.8877764 -0.05476638 1.1015766 2.9883833
0.29171216 -0.8837089 -0.6620724 -1.4580405 0.8204351 0.46409413 -1.5883517 -1.5697063
1.831477 -0.27460742 1.2504207 -0.9238184 -0.9169663 -1.1668596 1.8543568 -0.94888026
00000000: 47a2 1fbe 049c f73f feb9 a33e de16 0ebf
00000010: b145 a73f fa21 8bbf 599e 0cbf d41f 2640
00000020: ed23 edbe 1b95 533f 1e4c a03e bb25 8d3f
00000030: 6fb2 12c0 2e79 d5be 2019 27bf ae53 ee3f
00000040: f5fe b0bf 5e39 a63e 7047 0e3f b98b ad3f
00000050: fdc5 83bf 224b 2e3f 3917 583f a85a d93f
00000060: 6e36 a03f efb4 f53e b3bb 0e40 ebb8 c23e
00000070: a7d2 c2be 7881 283c 7ae4 3cbf 945a a5bf
00000080: 8a88 82bf 6914 cdbf 4370 26bf 46ac 82be
00000090: 66c0 0640 49eb d0bf 8bc0 993d 01c2 0a3f
000000a0: cc7d d5bf c30c 6e3f 65d1 5f3f 492d 63bf
000000b0: 0df5 f8bf 7510 3ebf 0da6 adbf 0001 cbbf
000000c0: d4e0 dbbe 8964 06bf 0261 56bf bdd7 72bd
000000d0: 3511 aebf 66af b13f 9875 02bf 8ba0 0f40
000000e0: a89a 68bf e90b 023f 26b8 d2be 2d94 a7bf
000000f0: c6ad 3640 0264 2abf 6473 dabc d3d0 c73f
00000100: 5ed7 dabe bbca 0640 a6c0 c73f 37af cdbf
00000110: cd02 ae3f d89a d1bf 3b43 44bf 0075 493e
00000120: 4d3c c4bc e45d e6bf 6ec5 543f fe1e 17be
00000130: eb72 d0be 9e70 6c3f 1084 933f b98c 8cbf
00000140: 4ba3 95bf b4f9 b63c 6190 52c0 17da ff3e
00000150: 305b 4dbf 46b1 573f 8d5f 8abf 103f 5abf
00000160: f5cd 883f ac6e 32bf 0d1f af3f c229 4c3f
00000170: 0a2b e2bf 3abb 883e a23b 86be 5910 5cbf
00000180: 08f1 6bbe 20c7 e43e 3442 97bf aab7 03bd
00000190: cf1f 983f b0fa 89ba 4e84 5fbe ed5f ba3f
000001a0: b8ef 133f c0e1 2bbf 4ee8 8a3f 46c8 39be
000001b0: 9518 9d3e 62b2 21c0 ec8c 64bf ce2a 97bf
000001c0: a4d7 d63f 6bfd c7bf ad85 243f 45ba ad3e
000001d0: 0329 67bf 25bc dbbf df73 dabf cf4e 92be
000001e0: 589e f8bd b578 133f 8f14 2a3e 1d9f c0be
000001f0: 9de1 8d3f b9cd 34bb dc48 ae3f bdaa 41bf
00000200: ebd7 cb3f 6a0a 8bbd 2b9a 0fbf 15f4 04c0
00000210: acf8 783f bc52 9ebe 6ab7 6f3f 7afb 4d3f
00000220: c57f d03f 71f4 75bd d7c4 a13f 59ea 24bf
00000230: 5fec 913f ccec 7c3f 82c1 01c0 e477 d43f
00000240: e343 05c0 f08e d0be b2ab e3be 6a34 adbf
00000250: 1ac6 58bf 3636 d13f 1dd2 a63e e4c5 973f
00000260: 7145 ae3f cdf0 4140 363b dabf 835b a5bf
00000270: 0731 05bf b6c8 2dbf f214 313e e3ac 56be
00000280: af48 113f b64f 82bf 4ca9 72bd f44c 333f
00000290: 0be6 eabf 7ae1 2f3d dc53 3bbf 56fc 41be
000002a0: 0358 c7be f508 9dbf d337 4b3d ef2e 953f
000002b0: de17 60bf a4a1 9fbd f60f e5be bf67 89bf
000002c0: e165 e03e 9915 5b3f 84dc 0d3f 3038 793f
000002d0: 3af3 32bf 4e54 75bf 04eb 5bbf e903 98bf
000002e0: ca6e 3e3f 8e28 933f 4007 cebe 3a08 1cc0
000002f0: 55a3 88bf fa82 ff3e ee40 873e bbe3 e1bf
00000300: 2ce9 d43d 9ea4 fc3f 65f5 0bbf d429 c2bc
00000310: 3eb1 bb3e d0ea 2240 35ac 36c0 600b c2be
00000320: 2ad4 19bf f71c 0a40 ee02 a23f bddb f9be
00000330: a27b 733f 2f6a b53d b533 68bf c7bb c9be
00000340: 3903 0ebf 7641 dbbe 5cbe 063f 3d7c 8ebd
00000350: 5899 c43f f905 bb3f 48b6 5a3e 60f2 e5bf
00000360: fe8d cfbf caa5 9a3f fd81 21c0 8ff7 343f
00000370: 2671 683f ec04 873f f880 75bf 9e8d 16c0
00000380: 5f46 aa3e a61b a2be 9e86 82be 75f6 ce3f
00000390: c07b 0a3e ba7a 513e 0c33 09bf e1a7 243f
000003a0: 5436 8f3f a778 febf 7744 3abf 8c29 693f
000003b0: a8a2 f1bf b652 60bd 7600 8d3f ac41 3f40
000003c0: 4c5b 953e bf3a 62bf 947d 29bf 12a1 babf
000003d0: 0908 523f bf9d ed3e 1c4f cbbf 23ec c8bf
000003e0: d76d ea3f 5899 8cbe c90d a03f 5d7f 6cbf
000003f0: 4ebe 6abf a85b 95bf 905b ed3f d1e9 72bf

weight_ih_l0 f4 [512, 16]
0.095521756 -0.17837107 0.13873178 0.22422868 0.24166104 0.02501642 -0.47664788 -0.14324917
0.023134282 0.2585382 -0.15661325 -0.14469865 -0.003852029 -0.2253527 0.11969318 0.21908848
-0.19531658 0.010439414 0.20923164 -0.46651286 -0.042386208 -0.24797256 -0.4085115 0.19192584
0.050434325 0.26360342 -0.122138724 -0.22239284 -0.2138531 0.15062898 0.29613397 -0.08050781
0.3400997 0.047434624 -0.13606432 0.1954223 0.18190344 -0.091307715 0.0137976995 0.23201838
0.09667683 -0.05873371 0.44910827 0.078756385 -0.35994482 -0.053986244 0.024465706 0.27164906
0.603469 -0.015785312 0.07864665 -0.042790007 0.18427213 0.04065702 -0.130706 -0.54724574
0.16988957 0.11825437 -0.01006421 -0.5292844 0.2117349 0.19553478 0.054172706 -0.043583054
0.2588939 -0.5286078 -0.639946 -0.29583424 0.47190914 -0.25271454 -0.03281673 -0.10430445
-0.26164314 0.075640306 0.45183542 -0.23983924 0.12503958 0.26121485 -0.3759672 0.06297708
0.4903315 -0.2710679 -0.44785425 -0.44738063 -0.041331504 -0.07239504 -0.1961966 0.004886692
-0.07275443 0.004349928 -0.06291218 -0.25138852 0.15354925 -0.21443546 0.24222273 -0.02609708
-0.12503469 -0.1281771 -0.3159198 -0.40802094 0.34769705 -0.21097158 -0.12890361 -0.54362583
0.5758035 -0.19038525 0.1317473 0.05144988 0.050554045 0.009856016 0.5652491 0.008224915
0.3250148 0.09795585 -0.169697 -0.06373894 0.3358082 -0.04661907 -0.21044967 -0.40252602
0.1607164 0.36451638 0.16053917 -0.13842526 -0.25512004 -0.10944341 0.15141486 -0.1305213
0.05947758 -0.19189577 -0.34636697 -0.0056378315 -0.26263544 0.11615198 0.18258448 0.11706153
0.6985422 -0.082340345 0.26580378 -0.031840462 0.12687975 -0.032384966 0.05365168 0.4011507
0.2914807 0.07987493 0.083636336 -0.1516378 -0.27396616 0.033556692 -0.16017991 -0.16075668
-0.05518933 0.19189952 -0.52063805 0.30090567 0.23696585 0.21279228 0.31771013 0.35391328
-0.5856746 0.19113626 -0.089052826 0.016561793 0.16356139 0.052924756 -0.2865099 0.12691829
0.2679077 0.16795993 0.046578635 0.16823217 -0.31460208 -0.18436992 0.4294068 0.077187344
0.2153389 -0.15799643 -0.1497597 0.07979993 -0.19957884 -0.22968318 -0.42489126 -0.1725689
-0.26613533 0.6170636 -0.056006815 -0.09392282 -0.05809991 -0.25138253 -0.21736814 -0.15927276
-0.833163 -0.25852153 -0.09067921 -0.47445688 -0.13302262 0.13341406 0.26782206 -0.27427098
0.08180683 0.05517844 0.4252853 -0.17189683 0.43984708 0.412637 0.20136587 -0.2789871
0.25456697 -0.0927144 -0.2972226 -0.35049394 0.108477585 0.1594049 -0.22004525 0.24065623
0.07123473 -0.20994377 0.22415213 0.04673393 -0.016266897 0.23996231 0.30913866 0.2109319
0.108570226 -0.34714192 -0.29027316 -0.18028894 0.4964655 0.0996783 0.22792196 0.15739061
-0.3091362 -0.02577181 0.21918155 0.14778033 0.4588948 0.063009344 -0.36174932 0.051923525
-0.14964104 -0.13158515 0.1645091 -0.33885938 0.086344115 -0.5011388 -0.06307007 -0.28317118
-0.30760735 -0.09895073 0.16159093 -0.14952569 0.56885 0.23856859 0.018856084 -0.23901881
00000000: e9a0 c33d e8a6 36be b40f 0e3e 349c 653e
00000010: fe75 773e 3cef cc3c 310b f4be e9af 12be
00000020: 1b84 bd3c 1e5f 843e 395f 20be e22b 14be
00000030: 5372 7cbb dcc2 66be b321 f53d bb58 603e
00000040: 1201 48be 130a 2b3c d240 563e c6da eebe
00000050: 299d 2dbd 85ec 7dbe 6b28 d1be 3588 443e
00000060: 3994 4e3d 07f7 863e de23 fabd f3ba 63be
00000070: 4ffc 5abe 7c3e 1a3e df9e 973e 47e1 a4bd
00000080: 8c21 ae3e cf4a 423d 7254 0bbe c91c 483e
00000090: e544 3a3e 8aff babd bf0f 623c 3a96 6d3e
000000a0: 80fe c53d c292 70bd 85f1 e53e 074b a13d
000000b0: b04a b8be ae20 5dbd 4e6c c83c 9615 8b3e
000000c0: f27c 1a3f 3350 81bc 7f11 a13d 9344 2fbd
000000d0: d5b1 3c3e fa87 263d cbd7 05be 4c18 0cbf
000000e0: 88f7 2d3e 592f f23d 5be4 24bc 2f7f 07bf
000000f0: 09d1 583e 453a 483e 33e4 5d3d 2584 32bd
00000100: be8d 843e d752 07bf 80d3 23bf 9677 97be
00000110: 139e f13e cd63 81be d66a 06bd 929d d5bd
00000120: 17f6 85be 4ee9 9a3d f956 e73e 6b98 75be
00000130: 600a 003e f4bd 853e c67e c0be 21fa 803d
00000140: bb0c fb3e 69c9 8abe 274d e5be 130f e5be
00000150: 394b 29bd da43 94bd c3e7 48be 8b20 a03b
00000160: 4600 95bd d789 8e3b 1ad8 80bd ffb5 80be
00000170: 043c 1d3e f894 5bbe 3c09 783e 8bc9 d5bc
00000180: 1809 00be dc40 03be 3dc0 a1be 1fe8 d0be
00000190: 5905 b23e ef08 58be 4fff 03be 102b 0bbf
000001a0: dc67 133f 5af4 42be c4e8 063e 1cbd 523d
000001b0: c211 4f3d 217b 213c 2ab4 103f cbc1 063c
000001c0: 5768 a63e 149d c83d 0dc5 2dbe 9089 82bd
000001d0: 0def ab3e a3f3 3ebd 1e80 57be e417 cebe
000001e0: d792 243e e4a1 ba3e 6164 243e 5abf 0dbe
000001f0: 189f 82be de23 e0bd 7f0c 1b3e 60a7 05be
00000200: c39e 733d 5380 44be 0357 b1be 8fbd b8bb
00000210: 2778 86be 17e1 ed3d 6df7 3a3e f5bd ef3d
00000220: a9d3 323f 0ea2 a8bd 6f17 883e 256b 02bd
00000230: c4ec 013e 19a6 04bd ddc1 5b3d a063 cd3e
00000240: f53c 953e 7895 a33d 8749 ab3d f046 1bbe
00000250: 4b45 8cbe be72 093d 3406 24be 669d 24be
00000260: 350e 62bd 4f81 443e 8948 05bf 4f10 9a3e
00000270: 2da7 723e 38e6 593e e7aa a23e 1f34 b53e
00000280: c5ee 15bf 39b9 433e 5461 b6bd 99ac 873c
00000290: a37c 273e a1c7 583d 6db1 92be def6 013e
000002a0: 332b 893e b0fd 2b3e 3dc9 3e3d 0e45 2c3e
000002b0: 8613 a1be 78cb 3cbe 35db db3e 6614 9e3d
000002c0: cd81 5c3e d1c9 21be 9b5a 19be 256e a33d
000002d0: 655e 4cbe 1132 6bbe 598b d9be e7b5 30be
000002e0: e442 88be e1f7 1d3f 6767 65bd 9c5a c0bd
000002f0: 2cfa 6dbd 36b5 80be c195 5ebe 6618 23be
00000300: 2c4a 55bf ef5c 84be 06b6 b9bd 03ec f2be
00000310: 1537 08be b29d 083e f91f 893e 3f6d 8cbe
00000320: 578a a73d ca02 623d ffbe d93e b905 30be
00000330: a333 e13e 2845 d33e db32 4e3e 66d7 8ebe
00000340: 9a56 823e 0ce1 bdbd 902d 98be f173 b3be
00000350: 7f29 de3d 0a3b 233e 8b53 61be 966e 763e
00000360: 84e3 913d 80fb 56be 2388 653e 146c 3f3d
00000370: 2842 85bc aeb8 753e 6c47 9e3e 88fe 573e
00000380: 115a de3d 96bc b1be af9e 94be aa9d 38be
00000390: ba30 fe3e 2324 cc3d 6064 693e 012b 213e
000003a0: 1a47 9ebe 671f d3bc 2171 603e ba53 173e
000003b0: 42f4 ea3e 0b0b 813d 3537 b9be c3ad 543d
000003c0: 803b 19be 42be 06be 1375 283e fa7e adbe
000003d0: 2fd5 b03d a24a 00bf e22a 81bd d0fb 90be
000003e0: b67e 9dbe aea6 cabd 1878 253e 431d 19be
000003f0: 27a0 113f 534b 743e 1378 9a3c 59c1 74be

weight_hh_l0 f4 [512, 128]
-0.23375906 0.47039148 -0.009151103 -0.06251732 -0.37855414 0.19062996 -0.085760556 -0.034531146
-0.31663367 -0.33078745 -0.27803287 -0.03015879 -0.12985297 0.10644089 -0.21908492 -0.32406494
-0.15596527 0.03866072 0.21869658 -0.097684555 -0.21111828 -0.029062003 0.2580797 -0.21961941
0.3248457 -0.18233289 -0.4592065 -0.19718471 0.07306095 0.29014495 0.79941505 -0.47052458
0.0004583351 0.13778475 0.39315376 0.12502852 -0.2262011 0.21250778 0.10502205 -0.3698348
-0.12865564 -0.064599216 -0.25175694 -0.23373993 -0.2056798 0.002174202 0.1247606 0.1572644
0.24646115 0.36803922 0.23418319 -0.28840804 0.05401485 0.04091775 0.24752787 -0.15301174
0.18288848 0.08402967 0.0011734975 0.08938188 0.33239868 -0.05607744 0.24778269 0.40861332
-0.11431496 0.5462287 0.09460993 0.20742886 -0.4640082 -0.24309239 -0.25356203 0.017926222
-0.21811506 0.21206129 0.20527846 -0.21816352 -0.61807114 -0.15825929 -0.3136557 -0.54737335
-0.23843585 -0.024592578 -0.10891677 -0.0049449555 0.26859176 -0.07361445 -0.29238778 -0.13315889
0.061662443 0.05484719 0.0243708 -0.14988314 -0.47018024 0.08187961 -0.62376565 0.090792574
-0.18776064 -0.004351208 -0.12524761 -0.14007553 -0.3121125 -0.25523406 0.14157069 -0.015671246
0.5648267 -0.27520669 -0.09927032 0.015415668 -0.018547669 0.038263407 0.46529388 -0.1563241
0.2928127 0.34783885 0.25755322 0.83885664 0.22619054 0.013420882 -0.42056555 0.59309787
0.76062196 0.4011537 0.108105995 -0.21456856 0.50038314 0.6106648 0.2592589 -0.41056392
-0.055894475 0.036596254 0.25703153 -0.6497931 -0.2809231 0.05958523 0.19811445 0.3023829
-0.2063037 -0.23304348 0.33632836 0.21822803 0.04960347 -0.14871809 -0.50265086 0.50417423
-0.31995246 0.23658754 -0.038113363 -0.14354247 0.36590263 0.32569724 -0.015754577 -0.32918164
-0.075347416 -0.39434463 -0.038018182 0.3278667 -0.053292204 0.0647381 0.47175145 -0.06519628
-0.65332824 -0.007092275 0.5167458 -0.08456142 0.15480782 0.092746474 0.22399496 -0.041238666
0.5591215 0.034235887 0.20385171 -0.10254088 0.33249977 0.51078796 -0.3734487 0.18376617
0.33202127 0.1652068 -0.14811914 -0.21898523 -0.20633872 0.68845844 0.024441445 0.1400674
-0.07489494 0.25827914 -0.24942458 0.10642296 0.067100056 -0.3579548 -0.0828857 -0.04997118
-0.38684323 -0.12835553 0.05075407 0.27215877 -0.36333105 -0.50225025 -0.3863211 0.009619158
0.19898626 0.2991624 0.10534303 -0.17489529 -0.044354003 0.2278826 -0.33688858 -0.25876525
-0.091576785 0.29296112 0.17184682 0.2909505 -0.14965127 -0.34171456 0.16473179 -0.32203904
0.024857443 0.22910544 0.092492275 -0.29259524 -0.40509406 0.32220137 0.2982509 0.048258565
0.01420247 0.34942842 -0.55927265 0.01556774 0.2537459 0.035363346 -0.18858613 0.6002018
0.04241983 -0.20729406 -0.21559502 0.12456903 -0.22382247 0.24765025 0.34852841 0.14377198
0.04022614 0.2608075 0.27614465 0.23107241 -0.12520853 0.1128758 -0.014129241 0.31101814
0.13705102 0.47200337 -0.4434684 -0.23817223 0.16159424 0.21950476 0.10565144 -0.08862899
00000000: 895e 6fbe 27d7 f03e 82ee 15bc 1509 80bd
00000010: d9d1 c1be 8034 433e 3ba3 afbd 8870 0dbd
00000020: cf1d a2be f95c a9be 535a 8ebe 910f f7bc
00000030: 2df8 04be aefd d93d cc57 60be d7eb a5be
00000040: 5cb5 1fbe b45a 1e3d fff1 5f3e d70e c8bd
00000050: 642f 58be 7013 eebc 0623 843e e9e3 60be
00000060: 2d52 a63e 79b5 3abe 1d1d ebbe caea 49be
00000070: fba0 953d e18d 943e 77a6 4c3f 99e8 f0be
00000080: b24c f039 7217 0d3e 734b c93e 7a07 003e
00000090: 43a1 67be a49b 593e cd15 d73d fd5a bdbe
000000a0: 4ebe 03be 984c 84bd 49e6 80be 8559 6fbe
000000b0: ba9d 52be 0e7d 0e3b 7c82 ff3d eb09 213e
000000c0: 5060 7c3e a36f bc3e b8cd 6f3e 38aa 93be
000000d0: ad3e 5d3d 5f99 273d f277 7d3e 1caf 1cbe
000000e0: 1e47 3b3e bf17 ac3d 0bd0 993a d90d b73d
000000f0: 2930 aa3e 75b1 65bd bfba 7d3e c435 d13e
00000100: f61d eabd a5d5 0b3f dac2 c13d 3b68 543e
00000110: 7c92 edbe 36ed 78be e2d2 81be 03da 923c
00000120: 8e59 5fbe 9826 593e 8434 523e 4266 5fbe
00000130: e939 1ebf b90e 22be 7b97 a0be a920 0cbf
00000140: 8728 74be 6076 c9bc c10f dfbd 4b09 a2bb
00000150: dc84 893e 2cc3 96bd dab3 95be ce5a 08be
00000160: c291 7c3d 72a7 603d 46a5 c73c f77a 19be
00000170: 77bb f0be 7fb0 a73d 1baf 1fbf 75f1 b93d
00000180: 5344 40be 9494 8ebb e940 00be f66f 0fbe
00000190: 36cd 9fbe 0aae 82be e8f7 103e fc60 80bc
000001a0: 7c98 103f e4e7 8cbe 3d4e cbbd ff91 7c3c
000001b0: 48f1 97bc 17ba 1c3d 003b ee3e 6d13 20be
000001c0: 8ceb 953e ef17 b23e 04de 833e 4fbf 563f
000001d0: 7e9e 673e 42e3 5b3c 5e54 d7be 43d5 173f
000001e0: 1fb8 423f 0564 cd3e ad66 dd3d dcb7 5bbe
000001f0: 1c19 003f 8754 1c3f 95bd 843e 6f35 d2be
00000200: 9bf1 64bd f4e5 153d a399 833e d758 26bf
00000210: 27d5 8fbe a40f 743d 84de 4a3e eed1 9a3e
00000220: 4741 53be f3a2 6ebe 3b33 ac3e 2b77 5f3e
00000230: 022d 4b3d 8e49 18be baad 00bf 9011 013f
00000240: cfd0 a3be 0144 723e c21c 1cbd ccfc 12be
00000250: 9757 bb3e cac1 a63e be0f 81bc 7f8a a8be
00000260: bf4f 9abd 8ae7 c9be f4b8 1bbd 25de a73e
00000270: ed48 5abd 6995 843d 6889 f13e a185 85bd
00000280: 8540 27bf 5166 e8bb 7449 043f 8a2e adbd
00000290: f185 1e3e ddf1 bd3d ef5e 653e e0e9 28bd
000002a0: 9622 0f3f ee3a 0c3d 81be 503e f400 d2bd
000002b0: 693d aa3e 00c3 023f ab34 bfbe 332d 3c3e
000002c0: b1fe a93e f92b 293e 8bac 17be aa3d 60be
000002d0: 754a 53be d03e 303f 6d39 c83c d46d 0f3e
000002e0: 8562 99bd 2a3d 843e 2869 7fbe 48f4 d93d
000002f0: c16b 893d da45 b7be fabf a9bd 94ae 4cbd
00000300: 5110 c6be a26f 03be 80e3 4f3d 6558 8b3e
00000310: 8706 babe 7993 00bf e1cb c5be ac99 1d3c
00000320: 0ec3 4b3e d02b 993e 16be d73d c017 33be
00000330: 8bac 35bd 0e5a 693e a97c acbe e17c 84be
00000340: 9c8c bbbd 00ff 953e 9df8 2f3e 77f7 943e
00000350: 2f3e 19be 36f5 aebe 73af 283e 4de2 a4be
00000360: d6a1 cb3c 9e9a 6a3e 976c bd3d 0bcf 95be
00000370: 7d68 cfbe 94f7 a43e 58b4 983e c6aa 453d
00000380: 7ab1 683c 48e8 b23e 7e2c 0fbf d60f 7f3c
00000390: fcea 813e 28d9 103d b91c 41be d3a6 193f
000003a0: 6ac0 2d3d e544 54be f1c4 5cbe 0c1e ff3d
000003b0: b831 65be 0798 7d3e 5172 b23e f638 133e
000003c0: 2ac4 243d 9088 853e d562 8d3e 3f9e 6c3e
000003d0: aa36 00be 6d2b e73d 557e 67bc c53d 9f3e
000003e0: 1a57 0c3e 6daa f13e 4a0e e3be 6ce3 73be
000003f0: f678 253e dbc5 603e c85f d83d 1e83 b5bd

bias_ih_l0 f4 [512]
0.114546254 0.25050324 0.26608664 0.16094063 0.24536425 0.16159646 0.1991215 0.11626528
0.18066287 0.08152634 0.18125571 0.26342022 0.23874983 0.26691625 0.36029714 0.32841277
0.11102477 -0.015542551 0.2793662 0.139151 0.15723538 0.16203335 0.09426766 0.021754542
0.18927638 0.25551105 0.22460027 0.24214882 0.23397008 0.031439967 -0.017825268 0.056248542
0.10885956 0.19198376 0.026760349 0.1687863 0.13436748 0.2144578 0.12462872 0.09627489
0.17019612 0.20815574 0.19734532 0.34510997 0.16831508 0.2746289 0.073342524 0.19195381
0.30549377 0.28626359 0.12895481 0.069462545 0.3289954 0.123469345 0.16615301 0.08807708
0.23646598 0.12048938 0.2630604 0.13719495 0.021837074 0.1982117 0.24312456 0.07541275
0.24188986 0.04494477 0.0603622 0.14829378 0.184049 0.08616626 -0.05839503 0.03729425
0.31708926 0.08795085 0.19456579 0.108921304 0.19232221 0.117991544 0.14714488 -0.021149188
0.09000936 0.13483018 0.17668532 0.3230809 0.16932912 0.34820467 0.02895264 0.09253442
0.24673747 0.057165004 0.23343264 0.37638202 0.120734915 0.077643864 0.11783676 0.23551543
-0.018439505 0.2827752 0.38824373 0.29446557 0.1793287 0.07849548 0.113753185 0.08375558
0.14919798 0.21001992 0.12630102 0.19012788 0.02261573 0.18651895 0.19782512 0.07430021
-0.02781254 0.030432068 0.27850887 0.007041739 0.24013722 0.15659946 0.32592595 0.18812478
0.014393433 0.114049934 0.20538549 0.2869706 0.13316502 0.049821112 0.25240695 0.28149298
0.069854274 -0.14805727 -0.072381414 -0.021265097 -0.11599055 -0.071184136 0.038894374 -0.11805894
0.18025532 0.0143547645 0.18686582 -0.08558281 -0.019982448 0.022711245 -0.24367121 0.10836069
0.14843978 0.045464717 -0.05121848 0.15837435 0.08566825 0.11665504 0.09376929 -0.1055536
-0.04401884 0.10390791 0.0058734408 0.08375233 0.032154977 -0.247627 0.11143374 -0.016388815
-0.017372483 0.1819694 0.08483965 0.032215744 0.08726918 0.16733132 0.030490056 -0.0045049735
-0.021120397 -0.10056892 0.057923563 -0.22430344 -0.008546687 -0.14045067 0.11507629 0.07874936
-0.09272404 -0.03203131 -0.02075485 0.0429325 -0.020910786 0.064416535 0.026191922 0.007054252
-0.055477675 -0.116215035 -0.082896024 0.08908899 -0.045728415 0.12563421 0.06950693 -0.1074046
0.23084146 0.08702254 0.14389087 0.21095203 0.1053016 -0.04524787 0.24332106 -0.02113508
0.0555082 0.16021727 0.15638001 0.14248334 -0.067205735 -0.10834869 -0.026959516 0.021844054
0.012916117 0.0862422 -0.052937105 0.07846508 -0.0016940222 -0.001118095 0.03864552 -0.061634857
-0.12128917 -0.10894822 -0.041419283 -0.014552479 0.049724042 0.03607878 -0.037933603 -0.124219835
0.07485401 0.06936154 -0.07833687 -0.06598886 -0.061829682 0.06402022 0.13787237 0.15168162
0.0982087 -0.10739072 -0.093945295 0.07607074 0.12088283 0.18383117 -0.16499312 0.10646978
-0.012310758 -0.049654417 0.20172979 -0.089021936 0.086172365 0.02435941 -0.062062353 0.17992741
0.09015878 -0.08588821 -0.3130786 -0.051142596 0.029775385 0.036918078 -0.21669436 -0.0027567355
00000000: 3a97 ea3d f641 803e 823c 883e 9fcd 243e
00000010: c440 7b3e 8b79 253e 82e6 4b3e 7e1c ee3d
00000020: b0ff 383e 48f7 a63d 199b 393e 04df 863e
00000030: d67a 743e 3fa9 883e de78 b83e b825 a83e
00000040: f460 e33d 2fa6 7ebc 1609 8f3e 9a7d 0e3e
00000050: 5002 213e 12ec 253e 670f c13d 9536 b23c
00000060: abd1 413e 58d2 823e 9dfd 653e dcf5 773e
00000070: da95 6f3e 32c7 003d 4c06 92bc df64 663d
00000080: c3f1 de3d 6497 443e 8538 db3c 51d6 2c3e
00000090: a197 093e d39a 5b3e 583d ff3d c52b c53d
000000a0: e447 2e3e c726 553e e414 4a3e 41b2 b03e
000000b0: ca5a 2c3e 299c 8c3e 9b34 963d 8a8f 443e
000000c0: ae69 9c3e 2491 923e bb0c 043e 6142 8e3d
000000d0: 1672 a83e 7fdd fc3d 0424 2a3e c261 b43d
000000e0: 2324 723e 23c3 f63d daaf 863e d57c 0c3e
000000f0: aae3 b23c 02f8 4a3e a5f5 783e 0072 9a3d
00000100: fab1 773e 0218 383d 5b3e 773d 53da 173e
00000110: 5777 3c3e f077 b03d a12f 6fbd dbc1 183d
00000120: 8659 a23e 931f b43d 413c 473e 2212 df3d
00000130: 1df0 443e 8da5 f13d 26ad 163e 1041 adbc
00000140: d456 b83d ec10 0a3e ffec 343e dc6a a53e
00000150: 9d64 2d3e e247 b23e 162e ed3c b082 bd3d
00000160: bfa8 7c3e da25 6a3d f708 6f3e 25b5 c03e
00000170: de43 f73d bf03 9f3d 6654 f13d f52a 713e
00000180: 720e 97bc e9c7 903e e2c7 c63e 31c4 963e
00000190: f1a1 373e 3dc2 a03d 6ef7 e83d 0c88 ab3d
000001a0: 5bc7 183e 760f 573e 0e55 013e e2b0 423e
000001b0: a044 b93c d3fe 3e3e ab92 4a3e b52a 983d
000001c0: 20d7 e3bc ac4c f93c b798 8e3e 63be e63b
000001d0: 88e6 753e 9c5b 203e c4df a63e c8a3 403e
000001e0: 6fd2 6b3c 0393 e93d 9350 523e cfed 923e
000001f0: 695c 083e 3911 4c3d 7c3b 813e d91f 903e
00000200: c20f 8f3d 539c 17be b53c 94bd 2434 aebc
00000210: 748c edbd fdc8 91bd b54f 1f3d e3c8 f1bd
00000220: da94 383e 3f30 6b3c c159 3f3e 0a46 afbd
00000230: 3bb2 a3bc ef0c ba3c f284 79be 36ec dd3d
00000240: 9900 183e 3639 3a3d 78ca 51bd e32c 223e
00000250: d672 af3d d6e8 ee3d 1d0a c03d 7c2c d8bd
00000260: 194d 34bd accd d43d fe75 c03b 5786 ab3d
00000270: f0b4 033d ef91 7dbe 5f37 e43d d641 86bc
00000280: bd50 8ebc 3056 3a3e 69c0 ad3d a8f4 033d
00000290: 2fba b23d e758 2b3e 48c6 f93c 759e 93bb
000002a0: af04 adbc 14f7 cdbd 4241 6d3d cdaf 65be
000002b0: 6707 0cbc 4dd2 0fbe 1ead eb3d 5847 a13d
000002c0: 1ae6 bdbd 4333 03bd 1306 aabc fdd9 2f3d
000002d0: 194d abbc d1ec 833d 7190 d63c 5b27 e73b
000002e0: 8f3c 63bd 2602 eebd 64c5 a9bd 4a74 b63d
000002f0: b84d 3bbd 41a6 003e a659 8e3d f1f6 dbbd
00000300: b461 6c3e e038 b23d 2158 133e cf03 583e
00000310: 5ea8 d73d d555 39bd 2829 793e 7a23 adbc
00000320: 915c 633d ff0f 243e 1522 203e 27e7 113e
00000330: 29a3 89bd ebe5 ddbd 34da dcbc 4df2 b23c
00000340: 1f9e 533c c09f b03d 94d4 58bd 4db2 a03d
00000350: f409 deba 0b8d 92ba c44a 1e3d d574 7cbd
00000360: 7566 f8bd 3f20 dfbd 44a7 29bd 856d 6ebc
00000370: 70ab 4b3d 58c7 133d 4460 1bbd f866 febd
00000380: 0f4d 993d 6c0d 8e3d 156f a0bd 2b25 87bd
00000390: 1f41 7dbd 081d 833d 6a2e 0d3e 6d52 1b3e
000003a0: a521 c93d aaef dbbd 6466 c0bd faca 9b3d
000003b0: 6b91 f73d 3d3e 3c3e f5f3 28be d40c da3d
000003c0: 10b3 49bc 6e62 4bbd 4192 4e3e 2251 b6bd
000003d0: 237b b03d 638d c73c 1835 7ebd e43e 383e
000003e0: 2ba5 b83d 28e6 afbd d74b a0be e67a 51bd
000003f0: 82eb f33c 6937 173d 20e5 5dbe 59aa 34bb

bias_hh_l0 f4 [512]
0.1813566 0.29108453 0.15902309 0.14865007 0.32234576 0.14748888 0.20295101 0.17611575
0.13563135 0.030596165 0.24522299 0.11982506 0.2748785 0.121385366 0.3040347 0.31912535
0.026050942 -0.016599923 0.26804328 0.10100565 0.119131394 0.060172934 0.014672606 0.050364226
0.23116784 0.21366546 0.17309514 0.18847501 0.16209161 0.15705666 0.03235644 0.086051606
0.2004175 0.15087505 0.051443588 0.23076423 0.18010774 0.19239756 0.055146158 0.1604996
0.15142272 0.15200967 0.14894411 0.282222 0.20421311 0.1346914 0.17893972 0.13601652
0.20929113 0.3385535 0.036457688 0.11703856 0.31015798 0.059216958 0.13949768 0.22842513
0.2895199 0.236401 0.2107329 0.06059384 0.1558298 0.19040547 0.2427897 0.141245
0.24096398 0.050177567 0.021650096 0.08717301 0.04455884 0.099615976 -0.02906307 0.13679695
0.21670784 0.15288818 0.17004402 0.17801367 0.2456706 0.03653454 0.13426018 0.08134672
0.14602144 0.07387792 0.21118687 0.29484773 0.2518731 0.36115617 0.06883719 0.18598543
0.28396854 0.14249443 0.20178567 0.414498 0.16025274 0.14768405 0.13398947 0.13272195
0.1428928 0.23158708 0.3320672 0.24475673 0.22426605 0.18257014 0.05625543 0.18524839
0.08837345 0.35310414 0.17149663 0.15195534 0.04366323 0.040678777 0.1923308 0.082529984
0.08297494 0.07994115 0.133974 0.03835833 0.13581508 0.06911814 0.21951622 0.12491928
-0.035795562 0.06600533 0.21974246 0.24785043 0.11674367 0.048140667 0.21335095 0.15664384
-0.034332782 -0.0066992096 -0.025824616 0.09976035 -0.12573126 0.06932966 0.093093306 0.006050124
0.09807591 0.061212413 0.037564877 -0.0823777 -0.118313745 0.074372485 -0.23444448 -0.017022286
0.033708304 0.087894864 0.04177379 0.012577891 0.12299095 0.22626421 0.051108923 -0.07941109
-0.06261844 0.1396645 -0.04007823 0.14577691 0.100382306 -0.21536165 0.03745306 -0.056219883
-0.054365247 0.15795532 0.040240772 0.0004614151 0.07244318 0.042643026 0.13780573 -0.032088507
-0.0428533 -0.058127016 -0.05537815 -0.24653928 -0.10443651 -0.16891328 0.13071021 0.023157416
-0.044942576 0.02111124 0.07973164 -0.11600317 -0.14758256 0.14232658 -0.037961364 -0.022554105
-0.15274139 -0.09069851 -0.08842538 0.097389735 -0.14289676 0.22450903 0.033255573 -0.07735967
0.21653672 0.07187643 0.012673294 0.10498534 0.0045626024 -0.10190127 0.21779777 -0.12114284
-0.072052084 0.069206335 0.09899297 0.05434502 -0.09751962 -0.15517914 -0.024540868 0.09884935
0.025595406 0.12684543 -0.15583922 0.13156985 -0.008143184 -0.03670375 0.15463464 -0.15168363
-0.020705657 0.000325721 0.040975958 -0.05099495 0.095663704 0.06041033 -0.11796094 -0.12427928
0.09251036 0.11814987 -0.04893818 -0.16673386 0.09035047 0.100786746 -0.00510591 0.05938633
0.09788184 -0.07195672 -0.026163066 0.087447435 0.19041774 0.07228009 -0.20656478 0.16808796
-0.109800495 0.033285387 0.07449247 -0.16201286 0.06669981 0.10375199 -0.16962528 0.16673951
0.118263476 0.032039877 -0.24584018 -0.14723557 0.025626455 0.018318467 -0.09904528 -0.049920257
00000000: 8bb5 393e 0809 953e f3d6 223e b937 183e
00000010: 810a a53e 5307 173e 64d2 4f3e b057 343e
00000020: f2e2 0a3e cfa4 fa3c bc1b 7b3e d766 f53d
00000030: e0bc 8c3e e498 f83d 70aa 9b3e 6664 a33e
00000040: c968 d53c 90fc 87bc f83c 893e 0ddc ce3d
00000050: 29fb f33d e577 763d 5f65 703c b84a 4e3d
00000060: 43b7 6c3e 1ecb 5a3e da3f 313e 98ff 403e
00000070: 58fb 253e 76d3 203e 3088 043d d33b b03d
00000080: 3f3a 4d3e fd7e 1a3e 83b6 523d 754d 6c3e
00000090: 2a6e 383e de03 453e f0e0 613d 025a 243e
000000a0: 8f0e 1b3e 6ca8 1b3e ce84 183e 677f 903e
000000b0: 3e1d 513e 8bec 093e f93b 373e ea47 0b3e
000000c0: 6a50 563e e256 ad3e a854 153d eab1 ef3d
000000d0: 07cd 9e3e 7b8d 723d 7bd8 0e3e 47e8 693e
000000e0: f43b 943e 1b13 723e 5eca 573e 3f31 783d
000000f0: d991 1f3e a7f9 423e dd9d 783e 87a2 103e
00000100: 43bf 763e fe86 4d3d 8b5b b13c c387 b23d
00000110: 5583 363d 7603 cc3d ad15 eebc 8014 0c3e
00000120: a9e8 5d3e b88e 1c3e 0520 2e3e 3749 363e
00000130: 1391 7b3e 3ea5 153d 807b 093e 1c99 a63d
00000140: a586 153e 4f4d 973d 5f41 583e 48f6 963e
00000150: 83f5 803e 76e9 b83e 83fa 8c3d f772 3e3e
00000160: 5364 913e 0fea 113e e7a0 4e3e 1539 d43e
00000170: 4b19 243e 7d3a 173e 8934 093e 43e8 073e
00000180: 7d52 123e 2a25 6d3e b604 aa3e 82a1 7a3e
00000190: 00a6 653e abf3 3a3e 186c 663d c1b1 3d3e
000001a0: 24fd b43d 11ca b43e d09c 2f3e 2e9a 1b3e
000001b0: 37d8 323d ca9e 263d 5ef2 443e 7b05 a93d
000001c0: c4ee a93d 30b8 a33d 7b30 093e a01d 1d3d
000001d0: 1c13 0b3e d08d 8d3d dcc8 603e aed5 ff3d
000001e0: 5e9e 12bd cd2d 873d 2b04 613e 81cc 7d3e
000001f0: 4e17 ef3d 262f 453d ac78 5a3e 3e67 203e
00000200: 88a0 0cbd 0b85 dbbb 258e d3bc 284f cc3d
00000210: b2bf 00be b5fc 8d3d b4a7 be3d 1e40 c63b
00000220: 06dc c83d deb9 7a3d a1dd 193d a4b5 a8bd
00000230: 7a4e f2bd 9a50 983d 3712 70be 5272 8bbc
00000240: b811 0a3d 3902 b43d fe1a 2b3d 8013 4e3c
00000250: aee2 fb3d ceb1 673e 9757 513d 48a2 a2bd
00000260: 193e 80bd 3604 0f3e 1229 24bd 8b46 153e
00000270: 3d95 cd3d c487 5cbe 6168 193d d246 66bd
00000280: 18ae 5ebd 0abf 213e 82d3 243d 16ea f139
00000290: 175d 943d 74aa 2e3d f21c 0d3e 3d6f 03bd
000002a0: f186 2fbd 9816 6ebd 33d4 62bd cb74 7cbe
000002b0: cfe2 d5bd 9af7 2cbe e6d8 053e 9fb4 bd3c
000002c0: b515 38bd 7bf1 ac3c 584a a33d 1293 edbd
000002d0: e21f 17be 0fbe 113e 607d 1bbd 63c3 b8bc
000002e0: 3d68 1cbe 24c0 b9bd 5e18 b5bd 4574 c73d
000002f0: 8753 12be b2e5 653e ff36 083d bf6e 9ebd
00000300: cdbb 5d3e f333 933d a6a3 4f3c 8e02 d73d
00000310: e281 953b 9db1 d0bd 6106 5f3e bd19 f8bd
00000320: 0b90 93bd 0dbc 8d3d d4bc ca3d e298 5e3d
00000330: 5eb8 c7bd 48e7 1ebe ee09 c9bc 8771 ca3d
00000340: 75ad d13c c5e3 013e 5194 1fbe 3fba 063e
00000350: fd6a 05bc ac56 16bd 8b58 1e3e f452 1bbe
00000360: e99e a9bc 88c5 aa39 68d6 273d 15e0 50bd
00000370: 55eb c33d d270 773d 8195 f1bd 2386 febd
00000380: 1276 bd3d 8ff8 f13d 6773 48bd 48bc 2abe
00000390: ab09 b93d 4869 ce3d 7a4f a7bb 153f 733d
000003a0: 4676 c83d 0b5e 93bd ed53 d6bc a417 b33d
000003b0: defc 423e 9507 943d b885 53be 401f 2c3e
000003c0: 15df e0bd 4256 083d 828f 983d b3e6 25be
000003d0: e999 883d ec7b d43d 40b2 2dbe c3bd 2a3e
000003e0: 1f34 f23d 3f3c 033d 87bd 7bbe ecc4 16be
000003f0: 92ee d13c 9c10 963c 40d8 cabd 2f79 4cbd

weight f4 [28, 128]
-0.12886237 0.01944285 -0.16198578 -0.06703103 -0.33214647 0.104244314 -0.19245668 0.39073643
0.05439214 0.14143713 -0.24582401 0.24674691 -0.4439775 0.0072749467 0.23550954 -0.11789704
-0.07748157 -0.06590634 -0.15912975 0.0020355247 -0.04247448 -0.09860702 -0.008683263 -0.1733722
0.026389202 -0.21797374 -0.22938502 -0.34255663 -0.21975301 -0.1108986 -0.038687877 -0.51183194
0.106980994 0.07367075 -0.05961573 0.35225275 -0.3759705 0.27332044 0.0788661 -0.30555597
0.11180238 0.17194124 0.116785154 -0.4460249 0.189599 0.20558098 0.43440413 -0.23887767
0.27893847 0.4122768 -0.34798145 -0.06006913 -0.10740152 0.1677783 0.029199898 0.13107748
-0.03643912 -0.25098073 -0.12296961 -0.09928756 -0.14613242 -0.24512255 -0.14127785 0.2026319
-0.13926063 -0.33192146 0.19927116 0.41024718 -0.5077361 -0.3912976 0.2066066 -0.4606449
-0.30950415 -0.048352055 -0.63814956 -0.36608574 -0.15344219 0.09220998 0.019405946 0.039712794
-0.21699893 0.18709445 0.4975717 0.124675564 -0.17001067 0.1015718 -0.4197299 -0.307136
-0.21190237 0.13696752 0.19084689 0.0062315 -0.25082526 -0.5158543 0.31180054 0.2583628
-0.27430752 0.21558692 0.055042665 -0.0033647546 -0.22711863 -0.008882404 0.07588985 0.11446316
0.02786039 0.32132512 -0.5442568 -0.026528373 -0.08032278 0.033249006 -0.15677138 0.28527573
-0.034634054 -0.06732967 0.1336617 0.15280825 -0.13943447 0.028391957 0.17205375 0.006927108
0.012890015 -0.21355115 0.08897214 -0.25298247 -0.08293299 0.18295024 -0.072692044 0.38050616
0.26550475 -0.1438603 0.35060734 -0.2899251 0.25390235 -0.21110864 -0.08754124 0.14317091
0.23793472 0.4710712 -0.16497797 -0.17863815 0.22655453 0.11482105 -0.21739224 0.4212348
0.45329502 -0.023276124 -0.1520004 0.29040396 0.06810348 0.058093708 0.07103434 -0.11766714
-0.43273205 0.012437102 0.31806657 0.11435985 0.12260387 -0.61475235 -0.010292277 0.24762094
0.27331376 -0.11542404 -0.03916521 -0.003869885 0.108155794 0.25437725 -0.11491492 -0.024826618
-0.08329442 -0.28294477 0.027893497 0.29865822 -0.08422498 -0.41252455 0.2728525 -0.08966188
-0.1496834 -0.07753384 0.31685838 -0.019746525 -0.45612904 -0.11823527 -0.44230625 -0.008803434
-0.72145694 0.16347982 -0.16185826 -0.33296075 -0.44955212 0.111196496 -0.25179097 -0.072240286
0.09807611 0.014849585 0.22877914 0.11430066 0.09562761 0.07265571 -0.107847705 0.05986289
0.22946389 -0.1434507 -0.013119958 0.015045254 0.14061892 -0.49522611 0.09152862 0.52627474
0.1982921 -0.08748005 0.23959236 0.33296674 -0.05376552 -0.21014214 0.22511148 0.35738268
0.24917513 0.36150432 -0.16129059 -0.037687447 -0.175837 0.2475431 -0.06304371 -0.29291022
0.41864857 -0.035431195 0.013601486 -0.26579905 -0.38546816 0.015540918 -0.25292534 -0.1620479
0.30036706 0.14395039 0.020003837 -0.25969368 0.13913766 -0.016048254 -0.053302888 -0.13286209
-0.1730109 0.04729246 -0.27529225 -0.21446201 -0.06128188 -0.14558399 -0.19393879 0.01593574
-0.049843986 -0.1904615 -0.36386624 0.060984056 -0.19417717 0.48692766 0.37461257 -0.20831436
00000000: 7ff4 03be 9d46 9f3c 9adf 25be 9147 89bd
00000010: 1a0f aabe 0b7e d53d 5d13 45be 9b0e c83e
00000020: 4bca 5e3d e5d4 103e 4ab9 7bbe 39ab 7c3e
00000030: 0551 e3be ad62 ee3b 6a29 713e 0174 f1bd
00000040: a8ae 9ebd e7f9 86bd e9f2 22be 7066 053b
00000050: b8f9 2dbd 7af2 c9bd 3f44 0ebc 7b88 31be
00000060: 2b2e d83c 8234 5fbe e8e3 6abe 9563 afbe
00000070: ef06 61be ce1e e3bd 2e77 1ebd 6b07 03bf
00000080: da18 db3d b1e0 963d a02f 74bd 795a b43e
00000090: 357f c0be a8f0 8b3e 8d84 a13d d571 9cbe
000000a0: a5f8 e43d 5d11 303e 0e2d ef3d 605d e4be
000000b0: 3e26 423e d283 523e 386a de3e 599c 74be
000000c0: 06d1 8e3e f215 d33e a02a b2be 0c0b 76bd
000000d0: 54f5 dbbd 13ce 2b3e a034 ef3c 2d39 063e
000000e0: 3041 15bd 8c80 80be 7ed7 fbbd 4757 cbbd
000000f0: bda3 15be 6801 7bbe 24ab 10be bd7e 4f3e
00000100: 579a 0ebe 9cf1 a9be bd0d 4c3e eb0b d23e
00000110: fefa 01bf 2958 c8be ae90 533e a6d9 ebbe
00000120: 5477 9ebe ce0c 46bd c55d 23bf 976f bbbe
00000130: f31f 1dbe 96d8 bc3d 38f9 9e3c e2a9 223d
00000140: f834 5ebe b095 3f3e b8c1 fe3e e755 ff3d
00000150: 4717 2ebe e004 d03d d6e6 d6be ee40 9dbe
00000160: effc 58be 3741 0c3e 5e6d 433e 9c31 cc3b
00000170: 2b6c 80be 070f 04bf 52a4 9f3e 2148 843e
00000180: 0972 8cbe d1c2 5c3e 6b74 613d 3783 5cbb
00000190: c991 68be 8187 11bc 236c 9b3d a96b ea3d
000001a0: 793b e43c ba84 a43e 6a54 0bbf 0852 d9bc
000001b0: 4580 a4bd 1c30 083d ad88 20be a90f 923e
000001c0: 70dc 0dbd 23e4 89bd 9dde 083e c479 1c3e
000001d0: e9c7 0ebe 4096 e83c dc2e 303e cbfc e23b
000001e0: a430 533c 27ad 5abe 0637 b63d eb86 81be
000001f0: c5d8 a9bd 4f57 3b3e 91df 94bd b4d1 c23e
00000200: 3df0 873e 1d50 13be ce82 b33e 1071 94be
00000210: 7dff 813e dd2c 58be d248 b3bd 659b 123e
00000220: 29a5 733e 3f30 f13e fcef 28be ebec 36be
00000230: e9fd 673e 4c27 eb3d 129c 5ebe 16ac d73e
00000240: 4916 e83e 92ad bebc fea5 1bbe d4af 943e
00000250: d679 8b3d abf3 6d3d 747a 913d 78fb f0bd
00000260: 0e8f ddbe fdc4 4b3c 9fd9 a23e 7f35 ea3d
00000270: bd17 fb3d 6960 1dbf f0a0 28bc 5890 7d3e
00000280: c8ef 8b3e 7063 ecbd b36b 20bd e69d 7dbb
00000290: c980 dd3d bc3d 823e 8358 ebbd 3161 cbbc
000002a0: 4496 aabd 23de 90be e780 e43c bbe9 983e
000002b0: 257e acbd 6b36 d3be 53b3 8b3e a6a0 b7bd
000002c0: 9b46 19be 10ca 9ebd 433b a23e 77c3 a1bc
000002d0: bf89 e9be 5525 f2bd f775 e2be 473c 10bc
000002e0: 67b1 38bf 4167 273e 2cbe 25be d579 aabe
000002f0: b22b e6be fdba e33d bfea 80be b7f2 93bd
00000300: 21dc c83d ac4b 733c 1445 6a3e 7716 ea3d
00000310: 69d8 c33d 84cc 943d 42df dcbd ca32 753d
00000320: 95f8 6a3e bee4 12be 18f5 56bc 5e80 763c
00000330: 68fe 0f3e 478e fdbe 5b73 bb3d f1b9 063f
00000340: 160d 4b3e be28 b3bd b357 753e 9e7a aa3e
00000350: 3c39 5cbd 802f 57be a083 663e ddfa b63e
00000360: c427 7f3e 1817 b93e 5c29 25be 275e 1abd
00000370: 9d0e 34be f07b 7d3e 101d 81bd 54f8 95be
00000380: 1b59 d63e 4d20 11bd c4d8 5e3c d016 88be
00000390: 155c c5be 569f 7e3c 6e7f 81be e2ef 25be
000003a0: b6c9 993e bb67 133e 16df a33c 92f6 84be
000003b0: 1a7a 0e3e a177 83bc 2154 5abd 000d 08be
000003c0: c529 31be bdb5 413d 1bf3 8cbe ee9b 5bbe
000003d0: b502 7bbd f813 15be e497 46be ab8b 823c
000003e0: 3529 4cbd 5708 43be ad4c babe 6bca 793d
000003f0: 61d6 46be 954e f93e 38cd bf3e 5c50 55be

bias f4 [28]
0.016150316 -0.12368862 0.035099156 -0.013115853 0.12826797 -0.0052834055 0.07891619 -0.03242322
0.12859854 -0.058233496 -0.048168868 0.028681086 0.08827149 0.0902562 0.08240514 0.04498516
-0.10270666 -0.037571765 0.021190055 0.020546777 0.021614289 0.032589637 -0.082025625 -0.12189232
-0.048912134 -0.11122824 0.032860633 -0.17984024
00000000: ab4d 843c 7650 fdbd 22c4 0f3d e0e3 56bc
00000010: ae58 033e 6b20 adbb d09e a13d 36ce 04bd
00000020: 56af 033e 3f86 6ebd b84c 45bd 99f4 ea3c
00000030: afc7 b43d 3ed8 b83d 07c4 a83d 5c42 383d
00000040: df57 d2bd dae4 19bd c496 ad3c b751 a83c
00000050: 7310 b13c b67c 053d 0dfd a7bd aea2 f9bd
00000060: 1758 48bd a2cb e3bd df98 063d 0a28 38be
