models/ESEN_60-40/ESEN_60-40_5_threshold_ldt_70.pt (torch, 318607 bytes, 7 tensors)

weight f4 [28, 16]
-1.4020222 -1.3561366 1.6525418 -0.83062595 0.7433461 0.9155632 1.1881266 2.0657098
-1.0521575 0.01138671 3.5073142 -0.39830187 0.87765276 -1.796596 0.4216886 -0.046071433
-0.21081091 1.6880708 -0.3183957 -0.97433215 -1.1645262 -0.2716825 -0.3752014 0.66160715
0.56149364 -0.59314716 0.51021934 -0.85404474 0.47092155 1.156701 2.234591 -2.012077
1.0530034 -0.5043429 0.72536457 -0.30138797 2.8963795 -2.2541614 0.3309628 -2.220701
-0.7571753 0.60132235 0.35769704 0.32887056 0.19842727 0.41333717 0.21976225 0.48123738
-1.6621491 2.2717907 -0.37000647 -0.4865685 -0.19642971 0.44093275 -0.260377 0.40542498
1.900087 -0.6889908 -2.2759535 -1.0576403 0.5279149 -2.1311748 -1.0257261 0.100882255
0.33301833 -0.676908 2.710847 0.9409641 -0.14696747 0.6998144 0.26554498 -0.40401214
1.5678577 -0.67640394 0.6090689 -2.5352721 -1.3212771 -0.54621834 -1.0097257 0.5076952
-0.10306485 -0.11300369 -0.0297857 0.71985 1.3128413 1.1022139 -0.9390479 0.7152071
0.27500072 0.9931035 -0.2057634 0.19175854 -0.6070813 -0.22933218 -1.0076591 -2.3817089
0.4122491 -0.07490304 -0.018066483 0.8821429 -0.90102065 -0.96874315 -2.258111 -0.40102202
1.2856566 0.7002425 0.45951483 -0.8440268 -1.9012833 1.1845237 0.47033 -0.11623353
1.791449 2.1841571 0.13823994 1.4662167 0.52014446 0.22804339 0.8960432 -2.6867518
0.06916108 -0.40515697 0.044622343 0.26363313 -0.45635337 -0.289361 -0.39402854 -1.2233089
0.5574462 -0.8057654 1.8581495 -1.1022165 1.0956897 -0.42205197 1.1552721 1.3308316
1.1225927 0.42554227 -0.6885548 -0.85174984 2.5703835 0.37614876 -0.9038708 -0.23872176
0.024938518 1.5203121 0.689328 -0.39657477 1.1699456 0.08530294 -0.39055514 -0.14465544
0.5086375 2.551192 0.55448234 0.2602774 -0.114850596 -1.1302099 -0.41549078 1.5778798
1.3888134 -0.15014373 0.51864725 2.126251 -1.5379555 0.10751875 -1.841871 -0.58116853
0.609162 0.20339955 -0.18083715 1.0498635 -1.1920277 -0.92259336 -0.7773941 -2.1789682
0.20225842 1.2427803 -1.0596219 0.41092363 -2.3732224 -3.2161582 1.2890804 0.89869016
0.1918371 1.0198109 0.80515915 1.6735457 -1.2756915 1.0852444 -1.5909901 0.7325372
-0.6929529 1.11769 -0.33830366 -1.9327371 0.119137235 -1.132287 1.2988693 -0.27601904
0.37157494 0.74175286 -0.32002318 2.3772316 1.5890957 -0.14418425 -0.24881327 -0.4864444
1.1135023 1.8024021 -0.102301836 2.309662 -0.6768509 0.8172463 1.648808 0.14383149
0.7367542 -0.039198693 -0.6464764 0.16225405 0.52051896 0.25902936 0.28346378 1.0614331
-1.5845735 -0.79866755 2.5829453 0.1515007 0.42176482 -0.97517556 0.9129498 1.604074
0.629094 -1.1108577 1.2234527 1.0971771 0.03554396 -0.4797631 2.568432 2.3949654
-2.4793332 0.28309488 -1.3880912 -0.38754398 1.4435319 0.67741835 1.0034143 0.83926535
-0.8622054 1.2444565 -1.632377 0.38744068 -1.0870259 -0.40043247 1.9143772 -0.08326991
00000000: 7775 b3bf e295 adbf 7d86 d33f e7a3 54bf
00000010: ee4b 3e3f 5a62 6a3f 8814 983f 9734 0440
00000020: 19ad 86bf 538f 3a3c d677 6040 39ee cbbe
00000030: daad 603f dcf6 e5bf 91e7 d73e 66b5 3cbd
00000040: d1de 57be b412 d83f c304 a3be d56d 79bf
00000050: 320f 95bf f819 8bbe 661a c0be 165f 293f
00000060: 0cbe 0f3f 7ed8 17bf bc9d 023f ada2 5abf
00000070: a11c f13e c70e 943f 8a03 0f40 dfc5 00c0
00000080: d1c8 863f 9e1c 01bf 7eb1 393f 864f 9abe
00000090: 485e 3940 2e44 10c0 f573 a93e f71f 0ec0
000000a0: 3ed6 41bf 43f0 193f 1124 b73e b961 a83e
000000b0: 8530 4b3e eea0 d33e 5b09 613e bf64 f63e
000000c0: 4dc1 d4bf 0565 1140 7d71 bdbe 821f f9be
000000d0: df24 49be f0c1 e13e 2250 85be dd93 cf3e
000000e0: 0d36 f33f b361 30bf 39a9 11c0 c260 87bf
000000f0: 6e25 073f 2b65 08c0 fe4a 83bf 5b9b ce3d
00000100: 6181 aa3e d849 2dbf 847e 2d40 06e3 703f
00000110: a47e 16be 0927 333f 83f5 873e aeda cebe
00000120: 90af c83f cf28 2dbf f0eb 1b3f e641 22c0
00000130: 9c1f a9bf f7d4 0bbf b13e 81bf 50f8 013f
00000140: aa13 d3bd 7b6e e7bd 2401 f4bc 1748 383f
00000150: 2f0b a83f 5815 8d3f 7165 70bf d017 373f
00000160: e5cc 8c3e 083c 7e3f a4b3 52be 5a5c 443e
00000170: ae69 1bbf 0ed6 6abe f9fa 80bf eb6d 18c0
00000180: 5012 d33e c466 99bd 2900 94bc 1ed4 613f
00000190: 4aa9 66bf 8dff 77bf e484 10c0 c252 cdbe
000001a0: 6590 a43f 1843 333f 8745 eb3e 2412 58bf
000001b0: 405d f3bf 799e 973f 18cf f03e d80b eebd
000001c0: 334e e53f 3bc9 0b40 c58e 0d3e fdac bb3f
000001d0: 3028 053f 3584 693e 1663 653f bef3 2bc0
000001e0: 53a4 8d3d bc70 cfbe ebc5 363d ecfa 863e
000001f0: 26a7 e9be 2027 94be 1cbe c9be 6395 9cbf
00000200: cbb4 0e3f a446 4ebf d8d7 ed3f 6e15 8dbf
00000210: 8f3f 8c3f 3217 d8be f5df 933f b158 aa3f
00000220: 1eb1 8f3f ade0 d93e 2145 30bf 470c 5abf
00000230: 2a81 2440 9296 c03e 1464 67bf 7a73 74be
00000240: dd4b cc3c 9699 c23f cd77 303f d90b cbbe
00000250: c7c0 953f 4fb3 ae3d d8f6 c7be 8e20 14be
00000260: 1136 023f bb46 2340 8ef2 0d3f 1443 853e
00000270: ca36 ebbd b8aa 90bf 35bb d4be f7f7 c93f
00000280: a3c4 b13f 47bf 19be 11c6 043f 7f14 0840
00000290: badb c4bf ca32 dc3d 6ec2 ebbf 76c7 14bf
000002a0: 0af2 1b3f f947 503e 602d 39be ed61 863f
000002b0: 5d94 98bf 142f 6cbf 4d03 47bf 3774 0bc0
000002c0: d51c 4f3e 6d13 9f3f b1a1 87bf 9564 d23e
000002d0: e0e2 17c0 89d5 4dc0 9600 a53f 8f10 663f
000002e0: f270 443e 2a89 823f e91e 4e3f bf36 d63f
000002f0: dc49 a3bf 4ae9 8a3f 90a5 cbbf 8f87 3b3f
00000300: 5c65 31bf 7710 8f3f 2336 adbe ee63 f7bf
00000310: 39fe f33d c8ee 90bf 5941 a63f 5e52 8dbe
00000320: 123f be3e 84e3 3d3f 14da a3be 9024 1840
00000330: 7d67 cb3f 09a5 13be e8c8 7ebe 3e0f f9be
00000340: 3e87 8e3f 1db5 e63f a083 d1bd 81d1 1340
00000350: 1a46 2dbf 0e37 513f 240c d33f 9048 133e
00000360: ec9b 3c3f cf8e 20bd 7a7f 25bf ed25 263e
00000370: bb40 053f 7f9f 843e 2a22 913e 0add 873f
00000380: 4ed3 cabf 7a75 4cbf fa4e 2540 0023 1b3e
00000390: 8ff1 d73e 1ba5 79bf 14b7 693f 4c52 cd3f
000003a0: 4e0c 213f 9630 8ebf 199a 9c3f 4d70 8c3f
000003b0: 8b96 113d 82a3 f5be 3161 2440 1d47 1940
000003c0: 65ad 1ec0 d0f1 903e f9ac b1bf 2a6c c6be
000003d0: a7c5 b83f 4a6b 2d3f e16f 803f 18da 563f
000003e0: 7eb9 5cbf 5a4a 9f3f bbf1 d0bf a05e c63e
000003f0: aa23 8bbf 7c05 cdbe 500a f53f 6a89 aabd

weight_ih_l0 f4 [512, 16]
0.2919132 0.014083687 0.053023357 0.36856705 0.27148023 -0.34154543 0.07788329 -0.19388139
0.17281269 -0.15404116 -0.13503082 -0.08170557 0.2844854 0.027693722 0.06405235 -0.3348931
0.12507425 0.13270587 0.028010271 -0.13427119 0.01891986 -0.07287289 -0.1291941 0.07788061
0.041565094 0.23936051 -0.2570721 -0.026832948 0.25563484 0.25537917 -0.10459332 -0.15427268
0.02646057 0.083412535 0.17821237 0.08010149 0.505252 0.09209599 -0.028551985 -0.022302473
0.1575319 0.095324054 -0.095943846 -0.15209451 0.11565818 -0.04190345 -0.07800429 0.06964082
-0.26125565 0.12311884 0.062276673 0.033223215 -0.21384001 0.40371567 -0.4571781 0.07034116
0.12807943 0.24338053 -0.039983448 0.14059684 0.05872122 0.29941222 0.045284778 -0.07086148
0.188853 -0.17106105 0.072934166 -0.15852045 0.54767317 -0.23025525 -0.3000361 -0.20149468
0.2218921 0.2042476 -0.058049593 0.046905123 0.2607613 0.23703016 -0.24817261 -0.2248608
-0.16206658 0.12238956 -0.028871179 -0.1267583 0.115576975 -0.23658364 -0.1686222 0.09457909
0.10568102 0.50912607 0.017742436 0.13063921 -0.008358328 0.4739701 0.1716061 0.03920134
0.0011733312 -0.07691741 0.062379662 0.19527684 -0.08201518 0.044850785 0.083504155 0.06075969
0.023181122 -0.18932259 0.09722027 -0.24480608 -0.019388981 -0.21657002 -0.2433255 0.14433789
-0.22161436 0.048132077 -0.10719558 -0.020887999 -0.05254519 0.031526644 -0.016622672 0.0444468
0.36649773 0.57066053 0.07408162 0.25896254 0.11448901 0.16658553 0.3001061 -0.07154309
-0.025840176 -0.25944468 0.25964096 -0.18622513 0.46601135 0.14743757 0.115664646 0.14177561
-0.15249383 0.05344938 -0.38333544 0.12308401 0.24655493 0.092771456 -0.110995315 0.74019414
0.24695116 0.28572804 0.0041512647 0.010729428 0.21982484 -0.5169218 -0.026740525 -0.033522457
-0.048877306 -0.1156271 -0.17095836 0.124670774 -0.03199922 0.16079612 0.06710193 0.17490232
0.18608265 -0.24940431 0.060519867 0.15222764 0.09217214 -0.21778935 0.21625589 0.12490964
-0.1968423 -0.14582534 0.083382875 -0.19864762 -0.04565606 -0.06935379 -0.1318091 -0.032470647
-0.101444505 0.015544265 0.086379796 -0.070482604 -0.011982433 0.037693787 0.12004981 0.056973834
0.006072897 0.06465644 -0.013707271 0.05346418 0.111702 0.108302675 -0.04699663 -0.05874057
-0.27400666 0.0055747405 0.20587933 -0.08321102 0.3003646 0.01877334 -0.11758226 0.078802444
0.07844298 0.1947052 0.17320314 0.30292177 0.0073011494 0.030871626 -0.17974736 -0.068799675
-0.14585268 0.19177817 -0.12995866 -0.2962858 -0.021574087 -0.052975085 -0.05969566 -0.11098567
-0.018834904 0.38268402 -0.18927701 0.2369741 0.11372127 0.04123101 -0.10766135 -0.12919733
0.12077378 -0.2475482 0.16964257 0.18957923 -0.24405374 -0.0014629184 -0.34497935 -0.039388694
-0.114731625 -0.15151401 0.34740722 -0.21861018 -0.16078079 0.06399391 -0.2290036 0.14363123
0.08452448 0.11974551 -0.05937752 0.061460923 0.337055 0.2055859 0.017590301 0.023338305
0.071153015 0.6851229 -0.18714757 -0.19626151 0.031890333 0.17029487 -0.36690435 -0.34786168
00000000: a675 953e 44bf 663c 052f 593d d2b4 bc3e
00000010: 75ff 8a3e 0bdf aebe 4681 9f3d d888 46be
00000020: cff5 303e f7bc 1dbe 8545 0abe 4055 a7bd
00000030: 12a8 913e f2dd e23c e12d 833d 1c77 abbe
00000040: 7713 003e 0ce4 073e cc75 e53c 637e 09be
00000050: d2fd 9a3c 623e 95bd 754b 04be df7f 9f3d
00000060: 2940 2a3d ec1a 753e f49e 83be c5d0 dbbc
00000070: 92e2 823e 0fc1 823e 0635 d6bd a8f9 1dbe
00000080: d6c3 d83c 31d4 aa3d 4e7d 363e 400c a43d
00000090: 3258 013f d39c bc3d dae5 e9bc adb3 b6bc
000000a0: 0b50 213e 4239 c33d 357e c4bd aabe 1bbe
000000b0: 32de ec3d f4a2 2bbd b7c0 9fbd d99f 8e3d
000000c0: 4dc3 85be bb25 fc3d d315 7f3d 1115 083d
000000d0: e0f8 5abe d2b3 ce3e 3f13 eabe 070f 903d
000000e0: 4127 033e bf38 793e afc5 23bd 9ef8 0f3e
000000f0: a985 703d 8f4c 993e 887c 393d d31f 91bd
00000100: ae62 413e a12a 2fbe 825e 953d 2f53 22be
00000110: 4f34 0c3f 08c8 6bbe 559e 99be 9f54 4ebe
00000120: af37 633e 4826 513e 69c5 6dbd 961f 403d
00000130: 8182 853e 09b8 723e f620 7ebe e941 66be
00000140: c8f4 25be 61a7 fa3d 4083 ecbc eecc 01be
00000150: 9fb3 ec3d fb42 72be 4cab 2cbe afb2 c13d
00000160: 4a6f d83d 1656 023f 9658 913c 49c6 053e
00000170: 5ef1 08bc 35ac f23e 82b9 2f3e 9691 203d
00000180: 76ca 993a e086 9dbd d181 7f3d a7f6 473e
00000190: 93f7 a7bd 75b5 373d 3a04 ab3d 27df 783d
000001a0: 56e6 bd3c c8dd 41be 6c1b c73d 72ae 7abe
000001b0: a4d5 9ebc 88c4 5dbe 522a 79be 50cd 133e
000001c0: e0ee 62be 2426 453d 5b89 dbbd 4f1d abbc
000001d0: a039 57bd 1522 013d 452c 88bc d90d 363d
000001e0: 97a5 bb3e cf16 123f 1bb8 973d bd96 843e
000001f0: 3779 ea3d 6695 2a3e 82a7 993e 2f85 92bd
00000200: c7ae d3bc efd5 84be a9ef 843e cdb1 3ebe
00000210: 0a99 ee3e e0f9 163e 96e1 ec3d a02d 113e
00000220: 5827 1cbe bded 5a3d 8b44 c4be 7813 fc3d
00000230: e578 7c3e f6fe bd3d 8351 e3bd 5d7d 3d3f
00000240: c4e0 7c3e f24a 923e 5507 883b 7cca 2f3c
00000250: c319 613e fd54 04bf f20e dbbc d84e 09bd
00000260: 9233 48bd e7cd ecbd b50f 2fbe 6453 ff3d
00000270: 9d11 03bd bda7 243e bd6c 893d 9819 333e
00000280: 738c 3e3e d863 7fbe aee3 773d 90e1 1b3e
00000290: bfc4 bc3d 2c04 5fbe 2f72 5d3e a0d0 ff3d
000002a0: 0791 49be 3d53 15be a4c4 aa3d 486a 4bbe
000002b0: d901 3bbd 5c09 8ebd f7f8 06be f1ff 04bd
000002c0: 23c2 cfbd 5fad 7e3c e4e7 b03d 2f59 90bd
000002d0: f751 44bc cd64 1a3d addc f53d 655d 693d
000002e0: 27ff c63b 986a 843d 7694 60bc 42fd 5a3d
000002f0: 05c4 e43d cbcd dd3d 8a7f 40bd f499 70bd
00000300: 9a4a 8cbe 50ac b63b 08d2 523e 8a6a aabd
00000310: 64c9 993e 8cca 993c f8ce f0bd 2d63 a13d
00000320: b7a6 a03d cd60 473e 2a5c 313e 9018 9b3e
00000330: 7b3e ef3b 7ee6 fc3c b10f 38be d8e6 8cbd
00000340: 685a 15be 7f61 443e e213 05be c6b2 97be
00000350: 24bc b0bc 67fc 58bd 7083 74bd 744c e3bd
00000360: a84b 9abc 29ef c33e d5d1 41be 57a9 723e
00000370: b2e6 e83d d9e1 283d 8e7d dcbd 4e4c 04be
00000380: 3e58 f73d 467d 7dbe c8b6 2d3e 0f21 423e
00000390: 39e9 79be 65bf bfba 22a1 b0be 0a56 21bd
000003a0: 6af8 eabd 7d26 1bbe 5cdf b13e 59db 5fbe
000003b0: b8a3 24be 3d0f 833d eb7f 6abe 1114 133e
000003c0: 2c1b ad3d 223d f53d d835 73bd 73be 7b3d
000003d0: 7992 ac3e 1c85 523e 8919 903c f92f bf3c
000003e0: acb8 913d 3764 2f3f 9da3 3fbe c7f8 48be
000003f0: 709f 023d c761 2e3e e3da bbbe ed1a b2be

weight_hh_l0 f4 [512, 128]
0.20241025 -0.1629253 0.072291836 -0.15986007 0.39002964 -0.13429773 0.05243367 -0.34426403
0.63608414 -0.49131015 -0.12571494 0.2111187 -0.04203184 0.019267216 0.32700184 -0.16534255
0.058438107 0.08697813 -0.30504915 -0.05576108 0.29644892 -0.03663033 -0.12263394 -0.17323504
-0.2888832 0.23804967 -0.0504742 0.079448305 0.01882565 0.018088108 -0.37030494 -0.17496519
-0.07895364 0.15955813 0.01862224 0.4740642 -0.09084982 -0.12411151 -0.32401228 -0.06780796
-0.017934915 -0.22559574 0.14177765 -0.048401214 -0.116547436 -0.08381992 -0.12471305 0.051133398
-0.024815913 0.09848178 -0.32539752 0.493874 0.006284598 0.009083505 -0.2035151 -0.060368113
-0.1279759 0.18704472 -0.022090267 0.10408698 -0.41833135 -0.30846593 -0.017740943 -0.21900493
-0.10834504 -0.072893895 -0.057652395 0.14587231 -0.21454194 -0.08324148 0.012988423 0.12185953
0.15694807 -0.11403946 -0.29801118 0.017647386 -0.10661754 0.22581145 -0.044962347 0.43674806
0.21542332 0.08805821 -0.06938881 -0.12377776 -0.13678518 -0.1348584 -0.06437583 -0.14014946
-0.021233095 0.16835555 0.27672622 -0.09931945 -0.30739218 0.4817786 -0.053716015 0.01626985
-0.25550422 0.23994166 -0.49993816 0.022716008 -0.3999327 0.06075735 0.39158633 -0.11104593
-0.08846476 0.07489911 0.39550987 0.19962555 0.012693178 0.2064504 0.31319433 -0.46835163
-0.02123029 0.09062192 0.15581045 -0.1421218 0.18352555 0.3580686 -0.46755472 0.19367
0.35090712 -0.3371733 -0.21082625 0.12332547 0.3536332 0.30452636 0.11379868 -0.03702438
-0.06964729 0.0148525825 0.31211254 -0.44826376 0.042826664 -0.14556344 -0.39714977 -0.45284128
0.08948711 0.0045061577 0.10943107 0.22928123 0.077611014 0.16482414 0.21154326 -0.06914508
-0.05024292 0.016365334 -0.43677753 -0.26102865 0.043478895 -0.17546684 -0.17354216 0.06938257
0.39478377 -0.020057028 -0.14152177 -0.18799037 0.021026598 -0.10042491 0.070244305 -0.38154036
-0.15989305 -0.0928057 0.36641487 0.35417747 0.21626396 0.2683573 -0.19623359 0.17604198
0.05614348 -0.28645182 0.10238587 -0.037681773 0.2894763 -0.16444048 0.19917935 0.32785305
-0.077772096 0.10147496 -0.36794376 -0.05637356 0.27340963 0.10917412 0.017393583 -0.24495219
0.40502772 0.2524524 -0.0589867 -0.103298716 -0.15511306 -0.19431078 0.15071659 -0.2547263
-0.22748809 -0.20296806 0.015319404 -0.051220346 -0.27077928 0.35103247 0.025848024 -0.14347163
-0.24745066 0.1957292 -0.14177285 0.2431372 -0.2523824 0.29386544 0.059925474 0.089794904
0.018158542 -0.24901639 0.034711614 -0.09954668 0.10476924 -0.14654723 -0.18205036 -0.029374262
-0.38042742 0.23412576 0.1280312 -0.04712424 0.0064965836 0.05917555 -0.18690631 0.022498436
-0.39622617 -0.066041514 0.17861402 0.18345982 0.21126078 0.0672851 0.3426194 0.19056085
-0.17448868 0.053648565 0.16943687 0.094533615 -0.26260525 0.04889398 -0.21706349 -0.113180414
-0.089301966 0.21626763 -0.1773402 -0.21767892 0.14103748 0.32373405 -0.014377044 0.054221272
0.22065622 0.2313996 -0.20260364 0.19561577 0.1217898 0.304243 0.02636487 -0.23020767
00000000: a244 4f3e e4d5 26be be0d 943d 5cb2 23be
00000010: f7b1 c73e 5885 09be b0c4 563d 6043 b0be
00000020: 69d6 223f 018d fbbe 6bbb 00be 802f 583e
00000030: 9429 2cbd 48d6 9d3c c96c a73e 8f4f 29be
00000040: cc5c 6f3d 9721 b23d 672f 9cbe bb65 64bd
00000050: 27c8 973e af09 16bd 8127 fbbd 8764 31be
00000060: 80e8 93be 4bc3 733e 09be 4ebd cbb5 a23d
00000070: 4038 9a3c 832d 943c 9c98 bdbe 132a 33be
00000080: 72b2 a1bd 3563 233e ab8d 983c 8bb8 f23e
00000090: 780f babd 2d2e febd f0e4 a5be e6de 8abd
000000a0: 3eec 92bc 9202 67be 292e 113e 5a40 46bd
000000b0: 6cb0 eebd c7a9 abbd 8e69 ffbd 4171 513d
000000c0: be4a cbbc d1b0 c93d 819a a6be 0edd fc3e
000000d0: 07ef cd3b fbd2 143c 4366 50be 8e44 77bd
000000e0: 1d0c 03be a788 3f3e a6f6 b4bc 8e2b d53d
000000f0: 872f d6be 3fef 9dbe 7455 91bc d442 60be
00000100: 01e4 ddbd 6549 95bd eb24 6cbd 8d5f 153e
00000110: e2b0 5bbe 827a aabd 65cd 543c 7d91 f93d
00000120: ffb6 203e 858d e9bd ec94 98be 4091 903c
00000130: 4c5a dabd 1e3b 673e 702a 38bd 719d df3e
00000140: ee97 5c3e dd57 b43d b81b 8ebd 327f fdbd
00000150: 6a11 0cbe 5218 0abe 7ad7 83bd 5783 0fbe
00000160: 07f1 adbc 6665 2c3e 0faf 8d3e ff67 cbbd
00000170: 8262 9dbe afab f63e 5305 5cbd 5948 853c
00000180: 73d1 82be 44b3 753e e5f7 ffbe ec16 ba3c
00000190: fbc3 ccbe b3dc 783d 017e c83e 0c6c e3bd
000001a0: 032d b5bd b464 993d 4580 ca3e a46a 4c3e
000001b0: 0cf7 4f3c bc67 533e 025b a03e c9cb efbe
000001c0: 25eb adbc fc97 b93d c68c 1f3e 6188 11be
000001d0: 1fee 3b3e c454 b73e 5563 efbe 6e51 463e
000001e0: 19aa b33e fba1 acbe d6e2 57be 1092 fc3d
000001f0: 690f b53e e1ea 9b3e 480f e93d e0a6 17bd
00000200: 3da3 8ebd 3f58 733c 37cd 9f3e d482 e5be
00000210: 036b 2f3d 950e 15be 3757 cbbe d0da e7be
00000220: 0545 b73d 64a8 933b 661d e03d b3c8 6a3e
00000230: 86f2 9e3d a9c7 283e cc9e 583e f09b 8dbd
00000240: 85cb 4dbd 9810 863c 4ea1 dfbe 8ca5 85be
00000250: ed16 323d 94ad 33be 09b5 31be 7318 8e3d
00000260: 1921 ca3e a34e a4bc 15eb 10be 8c80 40be
00000270: f93f ac3c 93ab cdbd 3fdc 8f3d 4259 c3be
00000280: 01bb 23be ea10 bebd bb9a bb3e c056 b53e
00000290: 4d74 5d3e 2166 893e 75f1 48be 5944 343e
000002a0: b5f6 653d d0a9 92be afaf d13d 3458 1abd
000002b0: 3d36 943e 1663 28be acf5 4b3e 5bdc a73e
000002c0: fa46 9fbd 1bd2 cf3d 2063 bcbe f6e7 66bd
000002d0: 59fc 8b3e ae96 df3d fd7c 8e3c bfd4 7abe
000002e0: cb5f cf3e 7141 813e 0a9c 71bd 478e d3bd
000002f0: f5d5 1ebe 68f9 46be 7355 1a3e 7c6b 82be
00000300: a3f2 68be dcd6 4fbe 3dfe 7a3c 6dcc 51bd
00000310: 95a3 8abe 87ba b33e 3cbf d33c 3aea 12be
00000320: b563 7dbe 3c6d 483e e72c 11be f5f8 783e
00000330: 4438 81be 8875 963e 6a74 753d 64e6 b73d
00000340: 39c1 943c 27fe 7ebe c42d 0e3d 21df cbbd
00000350: 4191 d63d 7a10 16be 696b 3abe 4ba2 f0bc
00000360: 62c7 c2be aabe 6f3e 9c1a 033e 5905 41bd
00000370: 4be1 d43b 1062 723d 5e64 3fbe a44e b83c
00000380: 28de cabe c640 87bd 98e6 363e e4dc 3b3e
00000390: bf54 583e c5cc 893d cf6b af3e 6222 433e
000003a0: 29ad 32be 99be 5b3d dc80 2d3e d79a c13d
000003b0: 3274 86be 0e45 483d e445 5ebe 22cb e7bd
000003c0: f3e3 b6bd 4375 5d3e ab98 35be 39e7 5ebe
000003d0: 216c 103e 78c0 a53e b18d 6bbc 2017 5e3d
000003e0: b4f3 613e 04f4 6c3e 5477 4fbe 804f 483e
000003f0: ee6c f93d bdc5 9b3e 24fb d73c 8fbb 6bbe

bias_ih_l0 f4 [512]
0.103881136 0.22762436 0.011835591 0.027654022 -0.024305906 0.15773094 0.100473545 -0.028611764
0.17051864 0.04216787 0.16175781 0.1431781 0.054285016 0.12135837 -0.022434419 0.07029229
0.1814165 0.045564793 0.17509955 0.11660459 0.057378512 0.10745304 0.13879417 0.15086229
0.17302758 -0.011693114 0.0060327183 0.2518489 0.15169117 0.08993502 -0.0014178697 0.13010094
0.014586496 0.05809621 0.056677703 0.08521882 0.169992 0.11055993 0.15540822 0.07062848
0.08913014 0.15029289 0.1433169 0.08312096 -0.0065964796 0.033661306 0.14805388 0.15895775
0.044332497 0.1443504 0.10234817 0.23236606 0.058169097 0.03950304 0.008971369 0.15834457
-0.014550305 0.14355801 0.0028169819 0.21649048 0.117245995 0.04469845 0.10192171 0.16754986
-0.02745277 0.1761319 0.19766153 0.091394596 0.10065108 0.124254405 0.106626734 0.11267232
0.11028634 0.1936374 0.05355654 0.0981664 0.05403024 0.11129591 0.007383251 -0.032458156
0.069972135 0.2175364 -0.03094806 0.109117456 0.08236392 0.07803773 0.12931278 0.10146875
0.030441072 -0.047044158 0.08803375 0.027687402 -0.0003694995 0.09332146 0.12367094 0.16457833
-0.009941908 0.124646805 0.14123818 0.085457355 0.12437585 0.095323466 0.13221198 -0.025722804
0.2282329 0.042999618 0.12494702 0.09346043 0.089165084 0.22166435 0.019178074 0.04943175
0.009660468 0.12257336 0.10641904 0.21868971 0.23459019 0.06571934 0.17643806 0.04562657
0.03996085 0.10946984 0.10644563 0.14931378 0.053236526 0.23331559 0.1054102 0.19099884
0.05030511 -0.022842543 0.08407009 -0.0053073983 -0.12551047 0.04840388 0.06879223 -0.09388104
-0.15549387 -0.06068291 -0.16168498 0.04350692 -0.0876326 0.08662184 0.014711993 0.016000532
0.008157955 0.09019588 0.041698772 0.07572654 0.009375042 0.123001695 0.045062985 -0.11610621
-0.11885613 0.10717375 0.12992962 0.0072540273 0.0014424238 0.0040697325 0.0033600815 -0.0969092
0.05732385 -0.08206934 0.12067508 -0.026983425 -0.0739244 -0.051972583 -0.05445465 0.10767949
0.029835638 0.0852039 -0.14027274 -0.06792618 0.070491806 0.019933822 -0.10796121 0.074257925
-0.04736342 0.12923688 0.06187039 -0.066386096 -0.06576064 0.033338394 -0.010253645 0.028468544
-0.08714799 0.107086994 0.019127918 0.050893277 0.0672554 -0.0039471136 0.06434293 0.03379092
0.013854819 -0.04418683 -0.008017828 0.06466064 0.16425788 0.1056147 0.01824713 0.13222203
-0.08120201 0.060905572 0.12652387 0.03062377 -0.17850357 0.12140063 0.01410765 0.028722616
-0.06535941 -0.10892334 0.062147707 -0.079867624 -0.05002003 -0.056264758 0.046009567 -0.09912315
0.0016320803 0.014834055 -0.11090543 0.07784864 -0.05750265 -0.05124866 0.055082507 0.056437507
-0.026660144 -0.10200187 -0.059321675 -0.15363227 -0.18364285 0.0018261241 -0.12789588 0.06524737
0.049931876 0.07862808 -0.051860847 -0.08039926 0.07908851 0.044052735 -0.06653845 -0.039194625
-0.033998873 0.13510317 -0.011983454 0.1567177 0.03183248 -0.07860345 -0.08845565 0.02392139
-0.055997685 0.08961394 0.123257376 0.09970761 0.068103924 0.081959024 0.08082842 0.015175129
00000000: a2bf d43d 5c16 693e 11ea 413c b08a e23c
00000010: 2e1d c7bc 3884 213e 13c5 cd3d 3863 eabc
00000020: 709c 2e3e 37b8 2c3d d7a3 253e 489d 123e
00000030: f759 5e3d bd8a f83d 63c8 b7bc 67f5 8f3d
00000040: 3fc5 393e 26a2 3a3d 4c4d 333e 63ce ee3d
00000050: bb05 6b3d 5710 dc3d 0f20 0e3e a57b 1a3e
00000060: 242e 313e 7a94 3fbc 1cae c53b 57f2 803e
00000070: ee54 1b3e da2f b83d d0d7 b9ba 2e39 053e
00000080: 33fc 6e3c 4bf6 6d3d e126 683d 3487 ae3d
00000090: 6212 2e3e 3f6d e23d 5523 1f3e aaa5 903d
000000a0: dd89 b63d 61e6 193e aac1 123e 523b aa3d
000000b0: 4827 d8bb 70e0 093d 709b 173e d2c5 223e
000000c0: fe95 353d 97d0 133e eb9b d13d 5ef1 6d3e
000000d0: b842 6e3d f1cd 213d a6fc 123c 1425 223e
000000e0: 6764 6ebc df00 133e 1d9d 383b aeaf 5d3e
000000f0: ab1e f03d b915 373d 54bc d03d 3192 2b3e
00000100: a2e4 e0bc ec5b 343e c967 4a3e 172d bb3d
00000110: 2722 ce3d 1879 fe3d 1e5f da3d bfc0 e63d
00000120: cedd e13d e248 463e 1a5e 5b3d 770b c93d
00000130: d04e 5d3d 1cef e33d 33ef f13b d8f2 04bd
00000140: 8d4d 8f3d ddc1 5e3e c986 fdbc f978 df3d
00000150: 6aae a83d 3fd2 9f3d 926a 043e d9ce cf3d
00000160: 8e5f f93c 60b1 40bd 0a4b b43d b1d0 e23c
00000170: 62b9 c1b9 521f bf3d 3147 fd3d 3987 283e
00000180: 62e3 22bc d346 ff3d bea0 103e 4404 af3d
00000190: c4b8 fe3d f338 c33d 9462 073e a1b8 d2bc
000001a0: e3b5 693e 5e20 303d 39e4 ff3d 2f68 bf3d
000001b0: 2f9c b63d fbfb 623e 561b 9d3c f278 4a3d
000001c0: f146 1e3c be07 fb3d 3af2 d93d 32f0 5f3e
000001d0: 6938 703e dd97 863d 2eac 343e ede2 3a3d
000001e0: fdad 233d b931 e03d 2b00 da3d b6e5 183e
000001f0: 8b0e 5a3d 48ea 6e3e 4ee1 d73d 3395 433e
00000200: bb0c 4e3d 4920 bbbc f02c ac3d afe9 adbb
00000210: d185 00be 2643 463d f1e2 8c3d b444 c0bd
00000220: c939 1fbe a58e 78bd bf90 25be 5034 323d
00000230: b878 b3bd cb66 b13d 920a 713c 8c13 833c
00000240: f1a8 053c 9eb8 b83d 55cc 2a3d 8416 9b3d
00000250: c799 193c 50e8 fb3d f793 383d 18c9 edbd
00000260: d86a f3bd e97d db3d 450c 053e 31b3 ed3b
00000270: b60f bd3a 645b 853b d034 5c3b 5578 c6bd
00000280: 6acc 6a3d f813 a8bd 7f24 f73d 580c ddbc
00000290: ad65 97bd 34e1 54bd d70b 5fbd 1087 dc3d
000002a0: de69 f43c 627f ae3d a8a3 0fbe e21c 8bbd
000002b0: 025e 903d 414c a33c c41a ddbd 8a14 983d
000002c0: 2500 42bd ac56 043e ce6b 7d3d 6ff5 87bd
000002d0: 84ad 86bd d78d 083d e7fe 27bc dd36 e93c
000002e0: a57a b2bd 6d50 db3d 27b2 9c3c 7875 503d
000002f0: 33bd 893d ca56 81bb 3ac6 833d 5968 0a3d
00000300: 53ff 623c 40fd 34bd 355d 03bc cc6c 843d
00000310: 3833 283e 854c d83d 017b 953c 3665 073e
00000320: 3d4d a6bd 1f78 793d 798f 013e b3de fa3c
00000330: a4c9 36be e5a0 f83d c623 673c b14b eb3c
00000340: 28db 85bd 3313 dfbd 988e 7e3d a391 a3bd
00000350: cee1 4cbd e075 66bd 8774 3c3d 1401 cbbd
00000360: 87eb d53a 890a 733c 6322 e3bd 1c6f 9f3d
00000370: e687 6bbd 1dea 51bd 329e 613d 042b 673d
00000380: 6066 dabc 5be6 d0bd 49fb 72bd c751 1dbe
00000390: df0c 3cbe 8f5a ef3a 23f7 02be 6aa0 853d
000003a0: 5e85 4c3d c207 a13d 0a6c 54bd 5ea8 a4bd
000003b0: 28f9 a13d a470 343d 5045 88bd 8b8a 20bd
000003c0: 6742 0bbd 7c58 0a3e 4056 44bc 9b7a 203e
000003d0: c662 023d d8fa a0bd 3c28 b5bd caf6 c33c
000003e0: d45d 65bd 8387 b73d 5d6e fc3d 8133 cc3d
000003f0: 127a 8b3d 22da a73d 5f89 a53d 1ba1 783c

bias_hh_l0 f4 [512]
-0.0060656155 0.07337279 0.05190286 0.038681563 0.11934666 0.17002416 0.05829318 0.13405944
0.15141903 0.12876043 0.21721946 0.021325815 0.079495884 0.104804255 0.0008005024 0.03595374
0.13701129 0.047846705 0.09387458 0.13928361 0.13811783 0.04947661 0.18772991 0.09044862
0.027479285 0.09852128 0.042055633 0.15218419 0.12672748 0.09258106 0.072210364 0.17281666
0.10341114 0.16726215 0.010593006 0.22436419 0.14597961 -0.012979742 0.14000067 0.118797794
0.023059424 0.031668283 0.0027138623 0.097650774 0.04303562 -0.007058434 0.19954427 0.06908588
0.10402694 0.14901662 0.06026618 0.20494868 0.020470602 0.036244202 0.15070155 0.05186501
0.110345244 0.20209756 -0.029576937 0.14653267 0.08285464 0.1668837 0.09005272 0.22862239
0.06954094 0.05448296 0.072441086 0.012098979 0.03350616 0.11477819 0.13350086 0.1411985
0.21275134 0.055451434 0.0094894655 0.10189457 0.054692484 0.040350743 0.1060018 0.10746879
0.065437116 0.14397311 0.047435526 0.11333505 0.12072839 -0.021597655 0.13286436 0.15976617
0.18517463 0.061856322 0.19208886 0.033084106 0.0354938 0.19966222 0.0739213 0.15742365
0.07967938 0.20252489 0.0065008425 0.12932813 0.055314317 0.038958352 0.1991359 0.0846195
0.21812189 -0.045261554 0.096796 0.0033977805 0.055953275 0.17187308 0.049958944 0.13450189
0.009814 0.079924725 0.18263197 0.08307198 0.17321627 0.018487466 0.16790065 0.10021503
0.20148234 0.07935109 0.06107464 0.13034849 0.13301598 0.14121003 0.061567836 0.1209908
0.18004216 0.020615073 0.016917625 -0.091659 -0.12716004 -0.01692521 0.06600895 -0.016761843
-0.028392918 -0.054000095 -0.17664064 0.042211223 -0.01684692 -0.068286665 0.044322368 -0.028672928
-0.079123914 -0.031133475 0.014984786 -0.06231174 0.12981744 0.12246767 0.09677298 -0.03951386
-0.13048199 0.03990227 0.12554951 -0.10209451 0.0037507047 -0.0025311664 0.0040531023 0.011533732
0.022612212 0.02850456 0.0880103 0.011662305 0.019836064 -0.08422916 -0.03174084 0.044766344
0.018107127 0.051969238 -0.08214255 0.0023495776 0.0020622495 0.018048123 -0.09314255 0.0870037
-0.044890124 -0.0019605593 0.012635551 -0.03485598 0.05263311 -0.040351827 0.16317599 -0.11381488
-0.10591822 0.13571839 -0.050623227 -0.06804681 -0.041171335 -0.02887641 0.04186238 0.10001722
0.051360954 -0.07494486 0.08837625 0.10646176 0.06959541 0.05059608 0.11013268 0.048584323
0.012501342 -0.050472524 0.11283982 0.102727965 -0.14758919 0.12332525 -0.05477502 0.016497381
-0.010768157 -0.08810623 -0.017275644 -0.1046529 -0.03202671 -0.08199308 -0.085973844 -0.0052214526
0.012347145 0.0004834135 -0.20557499 0.0074008773 -0.04768414 0.051085543 0.046394188 0.11934562
0.027139056 -0.07323581 -0.0508064 -0.061382897 -0.07950322 0.043849766 -0.1000678 0.12650353
0.05065517 0.07232337 0.04700333 -0.107439965 -0.040913463 0.12630004 -0.011843585 0.058711037
0.030535106 0.05917363 0.0655495 0.044645183 0.13644165 -0.014212176 -0.09682003 0.065458104
-0.06918176 0.059933435 0.024733929 0.026456792 0.054211218 -0.012627578 0.031749044 -0.02797835
00000000: 12c2 c6bb 7944 963d 1898 543d 8f70 1e3d
00000010: 066c f43d d01a 2e3e d4c4 6e3d e146 093e
00000020: 970d 1b3e c6d9 033e c76e 5e3e 7ab3 ae3c
00000030: bdce a23d 9da3 d63d cfd8 513a 3b44 133d
00000040: b04c 0c3e e8fa 433d 5141 c03d 5da0 0e3e
00000050: c36e 0d3e fca7 4a3d 453c 403e 203d b93d
00000060: 3d1c e13c 86c5 c93d 8742 2c3d 2cd6 1b3e
00000070: d9c4 013e 249b bd3d 07e3 933d daf6 303e
00000080: 38c9 d33d c546 2b3e 4a8e 2d3c babf 653e
00000090: ae7b 153e fca8 54bc 565c 0f3e 424c f33d
000000a0: 1ee7 bc3c 9ab6 013d 0edb 313b 21fd c73d
000000b0: 1e46 303d 704a e7bb 5555 4c3e e67c 8d3d
000000c0: 140c d53d d097 183e acd9 763d 11de 513e
000000d0: f7b1 a73c cd74 143d 8251 1a3e 6870 543d
000000e0: b0fc e13d aaf2 4e3e 554b f2bc a90c 163e
000000f0: b2af a93d 90e3 2a3e 8f6d b83d fd1b 6a3e
00000100: 7b6b 8e3d 8629 5f3d fe5b 943d cc3a 463c
00000110: c13d 093d d410 eb3d 73b4 083e 5796 103e
00000120: 7ddb 593e 0b21 633d b479 1b3c 1aae d03d
00000130: 3a05 603d d246 253d 7917 d93d 9918 dc3d
00000140: e503 863d b06d 133e c14b 423d 351c e83d
00000150: 7240 f73d 91ed b0bc 980d 083e be99 233e
00000160: 6b9e 3d3e 0e5d 7d3d f1b2 443e 3383 073d
00000170: f261 113d 4174 4c3e 0d64 973d aa33 213e
00000180: f12e a33d af62 4f3e 0505 d53b 986e 043e
00000190: 4491 623d cb92 1f3d 48ea 4b3e fd4c ad3d
000001a0: 585b 5f3e 2e64 39bd fb3c c63d 4cad 5e3b
000001b0: 432f 653d 7fff 2f3e c0a1 4c3d ddba 093e
000001c0: e6ca 203c 93af a33d e003 3b3e a421 aa3d
000001d0: 9b5f 313e 0773 973c 26ee 2b3e 8a3d cd3d
000001e0: 6351 4e3e d382 a23d 6729 7a3d 137a 053e
000001f0: 5735 083e 5d99 103e 8e2e 7c3d 06ca f73d
00000200: f95c 383e f1e0 a83c d596 8a3c b7b7 bbbd
00000210: 3e36 02be bda6 8abc b32f 873d 2250 89bc
00000220: 4498 e8bc 342f 5dbd 49e1 34be ade5 2c3d
00000230: 8d02 8abc e1d9 8bbd 5f8b 353d 7de3 eabc
00000240: b80b a2bd a10b ffbc bf82 753c 983a 7fbd
00000250: ddee 043e 54d0 fa3d ea30 c63d 49d9 21bd
00000260: 129d 05be 9070 233d 0d90 003e ed16 d1bd
00000270: 62ce 753b ede1 25bb e3cf 843b faf7 3c3c
00000280: 3f3d b93c 6582 e93c bf3e b43d 4113 3f3c
00000290: 3e7f a23c 5680 acbd af02 02bd ea5c 373d
000002a0: 6655 943c b2dd 543d 5a3a a8bd 5ffb 193b
000002b0: ce26 073b a8d9 933c 85c1 bebd ff2e b23d
000002c0: b5de 37bd ba7c 00bb 5805 4f3c 25c5 0ebd
000002d0: d195 573d f547 25bd 9b17 273e c717 e9bd
000002e0: a7eb d8bd c3f9 0a3e 4d5a 4fbd 205c 8bbd
000002f0: 46a3 28bd 398e ecbc e377 2b3d d4d5 cc3d
00000300: dd5f 523d b17c 99bd 9bfe b43d a008 da3d
00000310: 0a88 8e3d d63d 4f3d 3e8d e13d 5b00 473d
00000320: 6ed2 4c3c 47bc 4ebd 9018 e73d 0a63 d23d
00000330: 9f21 17be f391 fc3d c55b 60bd 8425 873c
00000340: ed6c 30bc 0a71 b4bd a785 8dbc 4254 d6bd
00000350: 712e 03bd fdeb a7bd 0e13 b0bd b818 abbb
00000360: ae4b 4a3c a972 fd39 4082 52be 0f83 f23b
00000370: 7250 43bd 133f 513d d507 3e3d 7a6b f43d
00000380: ba52 de3c a8fc 95bd 5f1a 50bd a26c 7bbd
00000390: 96d2 a2bd d09b 333d 59f0 ccbd 248a 013e
000003a0: cc7b 4f3d 461e 943d 9086 403d 7c09 dcbd
000003b0: e094 27bd cc54 013e 990b 42bc fc7a 703d
000003c0: c224 fa3c 0c60 723d d13e 863d dedd 363d
000003d0: 5cb7 0b3e 30da 68bc 9449 c6bd e60e 863d
000003e0: 2baf 8dbd c37c 753d cf9e ca3c eabb d83c
000003f0: 950c 5e3d e7e3 4ebc 490b 023d da32 e5bc

weight f4 [28, 128]
0.18193601 0.08908687 0.06016708 -0.12906796 0.16291949 -0.10291198 0.22796103 0.07433114
0.08042766 -0.21492617 0.2696379 0.15333124 0.20882614 0.11940365 -0.007865877 -0.017275335
0.28330824 0.19501562 0.041004665 -0.05691241 0.16202536 -0.18944146 0.09211118 -0.22704598
0.3726947 0.08082288 -0.1079637 -0.10429846 0.16047558 -0.031964432 -0.48953563 -0.025902871
-0.09114645 0.14376399 0.06334737 0.16743974 0.08588117 -0.32005793 -0.2599811 0.18473324
-0.09778911 0.07171903 -0.009256865 -0.005477816 -0.08924498 -0.09446722 0.3004819 0.21016201
-0.044470415 0.2208463 -0.1491395 0.22076118 -0.10004354 0.21490933 -0.11877556 -0.012057956
-0.29427186 0.11628999 0.008466622 -0.23196709 0.12800618 0.07065203 -0.057527743 -0.11693822
0.020024197 -0.02277617 0.032450747 0.079255395 -0.10480026 0.008355391 0.0535569 0.06911067
0.45934477 0.2632339 -0.15953802 0.055213984 0.1988348 0.10149607 0.14556755 0.0039719245
0.08142052 0.19060756 0.03452288 0.04209768 0.048682004 0.1502304 -0.11660066 0.35213792
-0.032761663 0.0109771695 0.45718193 -0.0045690313 -0.31704226 0.142774 -0.020046175 0.16851147
-0.1480218 0.024299314 -0.29165286 0.29312542 -0.29321545 0.16271697 0.0790861 -0.022347441
0.054736484 -0.069877215 0.42051873 -0.17133181 -0.16019061 -0.12719505 0.27576867 -0.28187764
0.05612082 -0.051395625 -0.0727562 0.015507307 0.08207655 0.14659184 0.078876056 0.08073872
0.06269976 -0.1784088 -0.1795613 0.05951779 0.039363705 0.11901747 0.017482052 0.055255063
-0.14190748 -0.12885794 0.082577646 -0.13182162 0.085818894 0.16606973 0.2939156 0.06887899
-0.010875268 -0.017019644 -0.1416855 0.012523605 0.070468515 0.03322421 -0.012485234 0.12168394
-0.2868374 -0.009924236 0.14354257 0.038144663 0.12748188 -0.025141 0.014226926 -0.085200295
0.40115 -0.050476804 -0.019970369 0.032592975 -0.1317583 -0.059955955 0.17935887 -0.1124815
0.14921333 0.16604583 -0.0029490557 0.40606645 -0.07453566 0.024801707 0.047997553 0.14137492
0.046494108 -0.073156126 0.033970304 0.017519964 0.1242456 0.12966965 -0.26414797 0.045563824
0.020914141 0.0205304 0.28158474 -0.04223498 -0.1621683 -0.15859833 0.13275912 -0.12947309
0.012847602 0.111009136 -0.14867046 0.13474911 0.09128743 0.049405012 -0.12231768 -0.052324645
-0.13253742 -0.21786991 0.13758272 -0.065016545 -0.1666949 -0.013095722 -0.1681103 0.054649767
0.043876037 -0.068163745 0.09241708 -0.048589688 -0.14620626 0.061562866 -0.26648977 0.28105083
-0.032080553 -0.07943124 0.021165965 -0.08966661 -0.11702069 0.0780577 -0.025757518 -0.34860536
0.20966557 0.17714323 -0.3054409 0.048785113 0.3593813 0.025872491 0.09130502 0.09633663
0.113236256 -0.11737928 0.17804235 0.19329594 0.5059185 0.080765486 0.44403234 0.026455425
0.2998021 -0.033165805 -0.11702827 -0.20950885 -0.12833601 0.00495412 -0.113251194 0.1408244
-0.077318534 -0.17968543 -0.06426485 0.0056070997 -0.22286478 0.06806641 -0.35731485 -0.12150235
-0.0020454137 0.08032723 -0.11390955 0.0032842853 -0.12262391 -0.1812556 0.26284578 -0.06982003
00000000: 6f4d 3a3e 2d73 b63d c271 763d 642a 04be
00000010: 5ed4 263e 84c3 d2bd 9e6e 693e ed3a 983d
00000020: 42b7 a43d 9b15 5cbe fb0d 8a3e dd02 1d3e
00000030: 85d6 553e e789 f43d e1df 00bc 0185 8dbc
00000040: c70d 913e 2db2 473e 82f4 273d fd1c 69bd
00000050: fae9 253e f1fc 41be c9a4 bc3d be7e 68be
00000060: d7d1 be3e 7786 a53d 131c ddbd 6e9a d5bd
00000070: b653 243e 23ed 02bd 6aa4 fabe 4232 d4bc
00000080: fdaa babd de36 133e 44bc 813d 5375 2b3e
00000090: 78e2 af3d a2de a3be 3e1c 85be b62a 3d3e
000000a0: a845 c8bd 6de1 923d 1baa 17bc 407f b3bb
000000b0: 12c6 b6bd 0878 c1bd c3d8 993e b634 573e
000000c0: 9c26 36bd 8825 623e 06b8 18be 380f 623e
000000d0: a1e3 ccbd 3111 5c3e 9a40 f3bd bc8e 45bc
000000e0: cdaa 96be 7229 ee3d 96b7 0a3c c888 6dbe
000000f0: 0d14 033e 03b2 903d 36a2 6bbd 4e7d efbd
00000100: c909 a43c 1795 babc 13eb 043d a750 a23d
00000110: 85a1 d6bd 0de5 083c 7b5e 5b3d e589 8d3d
00000120: 3d2f eb3e 98c6 863e ef5d 23be 0f28 623d
00000130: 5a9b 4b3e 2cdd cf3d a90f 153e eb26 823b
00000140: cdbf a63d a12e 433e dd67 0d3d 9e6e 2c3d
00000150: c866 473d ffd5 193e 54cc eebd 6c4b b43e
00000160: 1831 06bd 96d9 333c c013 ea3e d0b7 95bb
00000170: 5d53 a2be 5933 123e e037 a4bc 458e 2c3e
00000180: 0793 17be 5b0f c73c 8653 95be 8914 963e
00000190: 5620 96be 479f 263e e5f7 a13d fb11 b7bc
000001a0: 5d33 603d c91b 8fbd 3b4e d73e 9b71 2fbe
000001b0: 0209 24be 6b3f 02be 8d31 8d3e 4452 90be
000001c0: f2de 653d 3884 52bd 3401 95bd 5c12 7e3c
000001d0: c017 a83d 2c1c 163e c589 a13d 585a a53d
000001e0: bb68 803d ccb0 36be ebde 37be edc8 733d
000001f0: d63b 213d 6ebf f33d 8536 8f3c 2253 623d
00000200: 3250 11be 56f3 03be 781e a93d 3ffc 06be
00000210: d1c1 af3d 2f0e 2a3e 1b7c 963e 6e10 8d3d
00000220: 2e2e 32bc c86c 8bbc 0116 11be ce2f 4d3c
00000230: cc51 903d 1c16 083d de8e 4cbc 6e35 f93d
00000240: 5adc 92be 4399 22bc d3fc 123e 943d 1c3d
00000250: 9c8a 023e 80f4 cdbc 0d18 693c 7e7d aebd
00000260: 8863 cd3e c4c0 4ebd e698 a3bc 3680 053d
00000270: a6eb 06be 6094 75bd daa9 373e b35c e6bd
00000280: 61cb 183e eb07 2a3e f244 41bb f1e7 cf3e
00000290: 27a6 98bd f32c cb3c 1599 443d 96c4 103e
000002a0: 9b70 3e3d e1d2 95bd 7224 0b3d 0786 8f3c
000002b0: 7a74 fe3d 1fc8 043e 673e 87be 22a1 3a3d
000002c0: 2254 ab3c 5f2f a83c e02b 903e 96fe 2cbd
000002d0: 720f 26be 9a67 22be 02f2 073e 9894 04be
000002e0: c07e 523c c258 e33d 123d 18be acfb 093e
000002f0: e7f4 ba3d e95c 4a3d b181 fabd 5e52 56bd
00000300: e4b7 07be 4a19 5fbe 7ce2 0c3e 6527 85bd
00000310: 11b2 2abe 708f 56bc 1b25 2cbe 6fd8 5f3d
00000320: 5cb7 333d 6f99 8bbd 2b45 bd3d fb05 47bd
00000330: 18b7 15be 5829 7c3d 5971 88be e5e5 8f3e
00000340: e666 03bd d9ac a2bd 3f64 ad3c 21a3 b7bd
00000350: 8ba8 efbd b7dc 9f3d 6e01 d3bc 677c b2be
00000360: 92b2 563e 0965 353e c062 9cbe e6d2 473d
00000370: d300 b83e 8cf2 d33c 20fe ba3d 244c c53d
00000380: 69e8 e73d 8c64 f0bd bc50 363e 5fef 453e
00000390: e083 013f 6068 a53d 3558 e33e 0cb9 d83c
000003a0: a97f 993e ded8 07bd 85ac efbd 7d89 56be
000003b0: 846a 03be 2c56 a23b 3ef0 e7bd 4634 103e
000003c0: 2e59 9ebd 75ff 37be 4a9d 83bd c3bb b73b
000003d0: aa36 64be 6766 8b3d f9f1 b6be 39d6 f8bd
000003e0: 590c 06bb 9a82 a43d 6949 e9bd 2a3d 573b
000003f0: 3f22 fbbd 119b 39be b993 863e cefd 8ebd

bias f4 [28]
-0.019495867 0.005529922 0.020725202 -0.0017732411 0.08214554 0.021805858 -0.0591202 -0.0034865942
0.11727417 -0.17540437 -0.01681004 -0.00066801 0.01588241 -0.062296413 0.07993564 0.06752243
-0.1298887 0.05949638 -0.018299887 -0.00083450624 -0.15363394 -0.08259505 -0.0692291 -0.073077634
-0.03783578 -0.19043766 0.06362843 -0.035896145
00000000: ccb5 9fbc 5934 b53b e6c7 a93c 196c e8ba
00000010: ec3b a83d 33a2 b23c 0628 72bd 587f 64bb
00000020: 712d f03d 349d 33be 36b5 89bc 641d 2fba
00000030: d41b 823c 862a 7fbd 4cb5 a33d 3349 8a3d
00000040: 8b01 05be 7ab2 733d a5e9 95bc c4c2 5aba
00000050: 3752 1dbe 9827 a9bd fdc7 8dbd baa9 95bd
00000060: b1f9 1abd 1702 43be 9f4f 823d d607 13bd
