models/ESEU_60-40/ESEU_60-40_4_threshold_ldt_80.pt (torch, 318607 bytes, 7 tensors)

weight f4 [28, 16]
000000 b9 7d 31 3e 47 f0 93 bf ff 51 e0 3f 24 46 dd 3f
       0.17333116 -1.1557702 1.7525023 1.728703
000010 98 a3 11 3f 59 2b 5c bf 06 ae d9 3f ca 64 cd bf
       0.5689025 -0.86003643 1.7006233 -1.6046383
000020 d3 66 47 bf 41 ce 3c 3f 2e d8 db 3f 80 32 d0 3f
       -0.7789127 0.7375222 1.7175348 1.6265411
000030 bd b2 27 3f 96 37 11 bc 5c 3a 08 c0 e8 3a 86 3e
       0.6550711 -0.00886335 -2.128562 0.26216817
000040 43 87 37 3f f4 54 9a be f8 38 8a bf c4 a2 0d bf
       0.7169077 -0.3014294 -1.0798635 -0.55326486
000050 e8 58 1b c0 e4 7a 11 c0 ca 20 b3 3f b7 0f 93 bf
       -2.4273014 -2.2731256 1.3994381 -1.1489171
000060 97 68 4b bf 64 19 02 c0 00 e6 b3 3f c6 14 ab bf
       -0.79456466 -2.0327997 1.4054565 -1.3365715
000070 ed d1 e3 be 11 d4 14 40 c0 15 1f c0 56 4a 1a 3f
       -0.44496098 2.3254435 -2.4857025 0.6026968
000080 fd 5e f7 bf 67 23 bf bf 94 98 11 c0 61 d8 3a 3e
       -1.9325863 -1.4932679 -2.2749376 0.18246605
000090 78 72 af 3f 37 41 39 bf 18 9d 0e c0 af a8 53 be
       1.3706808 -0.72365135 -2.2283382 -0.20669816
0000a0 f6 16 a1 3e e2 cf ff bf 41 41 20 c0 14 c9 80 3f
       0.3146283 -1.9985316 -2.5039828 1.0061364
0000b0 fe 47 e8 bf df a9 11 40 36 62 9d 3f ad 10 18 40
       -1.814697 2.275993 1.2295597 2.3760178
0000c0 7b 34 dd 3d 46 19 a1 3e fb ae a4 be 35 74 b2 bf
       0.108010255 0.31464595 -0.3216475 -1.3941714
0000d0 64 a3 ab bd ac e7 2d c0 6d d0 52 be 70 62 43 bf
       -0.08380774 -2.7172651 -0.2058732 -0.7632208
0000e0 bc 1b b4 be c7 56 40 40 45 7b 67 bf ea e4 2b c0
       -0.3517741 3.0052965 -0.9042247 -2.6858468
0000f0 43 79 71 bf f6 ee 42 3f 96 f9 e9 bf f4 f4 26 bf
       -0.94325656 0.76145875 -1.8279293 -0.6521752
000100 3f fe ef be 83 42 49 40 4d 53 13 40 a4 43 c3 bf
       -0.46873662 3.1446846 2.3019593 -1.5255017
000110 13 dc 08 bf 5f 31 ba 3e 50 2c b0 3f 8f b1 31 bf
       -0.53460807 0.36365792 1.3763523 -0.6941156
000120 5d 29 c5 be 95 b8 0b 3f f0 2d 47 3f 67 e1 a4 3f
       -0.3850812 0.54578525 0.7780447 1.2881287
000130 d5 b3 11 c0 7b 4b 51 bf 34 6e ab bd 23 76 e6 bc
       -2.276601 -0.817558 -0.08370629 -0.028132504
000140 6b a2 ed bf f8 f9 3b 3e 7f f0 f7 bf 9e 5f ae be
       -1.8565191 0.18357074 -1.9370269 -0.34057325
000150 3a a4 8a be 1e 42 0a c0 b3 ca 70 3f c6 e4 be bf
       -0.2707842 -2.1602855 0.94059294 -1.4913566
000160 72 4c 77 bf 1a 63 f8 3e 6c 11 6e bf 2b da 79 bf
       -0.9660102 0.48513108 -0.92995334 -0.9759852
000170 12 10 1c bf 34 78 6d 3f 46 f4 a5 3f bd ae 90 3f
       -0.6096202 0.9276154 1.2965171 1.1303326
000180 2c 41 01 c0 c8 60 a3 bf f0 f2 86 bf 23 da 57 be
       -2.0196028 -1.276391 -1.0542889 -0.21079306
000190 1d 3a b3 bf 68 b1 a4 3f bf b0 c9 3e da b3 c5 bf
       -1.400211 1.286664 0.3939266 -1.5445511
0001a0 35 34 af 3e 03 41 f5 bf f1 0f 0a be 20 9a eb bf
       0.34219518 -1.9160465 -0.13482644 -1.840641
0001b0 e7 7a f4 bd 77 46 09 c0 49 f5 8b bf f4 48 4e 3f
       -0.11937504 -2.1449258 -1.093423 0.8058007
0001c0 9c 05 ea 3e f5 24 a4 bf 4a 69 3c be 3d 25 30 3f
       0.45707405 -1.2823778 -0.1839954 0.6880682
0001d0 ca 09 96 bf 98 c4 e7 3f 79 5f fd 3c 8a f9 f5 bf
       -1.1721737 1.8106871 0.030929314 -1.9216778
0001e0 4e c4 68 3f 29 dd 01 40 08 29 1e 3f 74 08 03 c0
       0.9092454 2.0291235 0.6178136 -2.047391
0001f0 db e5 cf bf b0 80 61 bf 01 13 6c 3e 80 d0 b2 3f
       -1.6242021 -0.88086987 0.23054124 1.3969879
000200 c3 08 54 3e 1d 45 db 3f 8d 28 1e 3f 98 c5 b3 3f
       0.20706467 1.7130467 0.61780626 1.4044676
000210 92 80 ca 3f 43 32 fc 3e 38 ff 92 3f 4c 06 d9 3f
       1.5820487 0.49257097 1.1484137 1.6955047
000220 19 ba 33 bf 59 68 af bf d7 de 22 3f 89 da d0 bf
       -0.7020584 -1.3703719 0.63621277 -1.6316692
000230 4d 0d 11 bf fa 41 0a 3f b0 fc c6 3f 19 28 81 bf
       -0.5666092 0.5400692 1.5545864 -1.0090362
000240 b7 52 b0 3e 62 67 31 40 f4 c0 fa bf a0 7e 00 3f
       0.34438106 2.771935 -1.9590135 0.50193214
000250 b1 8c a3 bf ee 63 b1 3c ab d6 e8 bf f2 68 e0 3f
       -1.2777311 0.021654096 -1.8190511 1.7532027
000260 6e 2c ea 3e 2d ed 9d 3e b4 51 19 c0 00 26 a7 bf
       0.45737022 0.30845013 -2.3956118 -1.3058472
000270 86 8a 7e bf 5c 36 67 bf c0 87 11 3f ca 74 73 3f
       -0.9943012 -0.9031732 0.56847763 0.9510008
000280 45 ca 85 3f 3b f7 7e be 4e 02 55 be 7d 32 92 bf
       1.0452353 -0.24898998 -0.2080166 -1.1421658
000290 ff 3f 0f 40 5b 74 b8 bf 4d c4 0f c0 e1 20 03 3f
       2.238281 -1.4410509 -2.2463562 0.51222044
0002a0 1a 9b fe 3f 31 73 2f c0 66 85 c9 3e 6c 31 11 3e
       1.9891083 -2.7414057 0.39359587 0.14179009
0002b0 7e bf f4 bf 81 82 9e bd 8f 36 3b c0 23 b9 23 bf
       -1.9120939 -0.077397354 -2.925205 -0.6395437
0002c0 ba e9 ac 3f dd 27 d4 3e 07 35 dd bf 5f fc 8b bf
       1.3508828 0.41436663 -1.7281808 -1.0936393
0002d0 c1 d6 b8 3e f1 eb 15 40 35 09 a1 be e4 d9 20 bd
       0.36101344 2.3425257 -0.31452337 -0.039270297
0002e0 68 a0 e9 bf 1d 15 18 bf bf e2 20 be 09 e0 9a 3f
       -1.8252077 -0.59407216 -0.15711497 1.209962
0002f0 a2 d6 e9 3e 3b 9e ff 3e 8c 50 bc bf 35 c3 2e 3f
       0.45671564 0.49925408 -1.4712081 0.6826661
000300 25 05 c3 bf 84 29 df be c1 7f 30 3f c1 ec 4d c0
       -1.5235945 -0.4358636 0.68944937 -3.2175753
000310 ce 97 11 40 5a e1 0d 40 00 11 12 40 fa 10 2c bf
       2.2748904 2.2168794 2.2822876 -0.67213404
000320 a9 76 42 3e 6e 53 74 bf 8b 21 6d bf 1e ef fc be
       0.18990578 -0.95439804 -0.9262931 -0.49401182
000330 01 c0 eb 3f 63 fc 7c 3f a8 6a 56 bf f9 b8 08 40
       1.841797 0.9882261 -0.83756495 2.1362898
000340 ed 6c 15 40 dd b8 93 bd 5d 86 7d 3e 1f a4 39 be
       2.3347733 -0.07212994 0.24758287 -0.18129013
000350 9b 65 e0 3e c2 bb 93 3e ac 31 16 bf 23 19 1b 40
       0.4382752 0.28854185 -0.58669543 2.4234092
000360 3e e5 7f 3f 5d 3a 0e 40 16 e3 88 bc bf 43 c9 3e
       0.9995917 2.2223122 -0.016709846 0.393095
000370 43 eb a0 bf a9 73 6c bf ff fe 8a bf 6b 9b dc 3f
       -1.2571796 -0.92363983 -1.0859069 1.723493
000380 9f 53 11 c0 26 5a 62 be d8 c2 bf bb 1c ff c0 3d
       -2.2707288 -0.22104701 -0.0058520846 0.09423658
000390 f3 6d fa 3e de ab d1 bf c2 a9 a7 bf e7 30 99 3c
       0.4891201 -1.6380575 -1.3098681 0.018700076
0003a0 ee f2 90 bf 41 1f f3 3e a3 a8 5f bd f4 6f e3 3f
       -1.1324136 0.47484782 -0.054604184 1.776854
0003b0 3e 72 e7 3f 95 2c 53 bf 4d e3 57 3f 3c 29 95 be
       1.8081739 -0.824899 0.8433121 -0.29133022
0003c0 f4 dd 78 bf 3d 94 ff bf 21 f7 b7 bf 2c ce d8 bf
       -0.97213674 -1.9967114 -1.4372293 -1.6937919
0003d0 63 05 8e be 82 da 8b bf a5 6b a5 bf a1 43 f9 bf
       -0.27738485 -1.0926058 -1.2923476 -1.9473764
0003e0 54 b8 a9 3f 01 09 ea 3e de 11 04 c0 83 b6 7d bf
       1.3259377 0.45709994 -2.0635905 -0.99106616
0003f0 2d 1b 7a c0 7b 00 de 3f 79 78 35 40 9d 88 1e bf
       -3.9079087 1.7343897 2.835478 -0.61927205

weight_ih_l0 f4 [512, 16]
000000 fb 64 f2 bd 53 70 a7 3e af 11 5b be 23 53 c1 3d
       -0.11835667 0.32702884 -0.21393465 0.09439685
000010 4a 04 ef bb 50 3e d8 3b f8 ea 84 bd 83 0f 2e be
       -0.0072942125 0.006599225 -0.06490129 -0.16998105
000020 70 86 04 bf 9a 01 27 be 3c ad 2b 3d 81 80 c6 bd
       -0.51767635 -0.16309205 0.041913256 -0.09692479
000030 9a 19 a2 bd 15 1f 89 3e 0b 0c 8f 3e bb 05 d3 3c
       -0.07915039 0.26781526 0.27938876 0.025759568
000040 ce d2 b8 be 39 b5 aa 3d e7 e8 58 bd d4 7f c7 be
       -0.3609833 0.08335347 -0.052956488 -0.38964713
000050 6d f6 4e bd 46 f2 2a be 86 b8 94 bd 5f 49 a9 bd
       -0.05052798 -0.16693982 -0.072617576 -0.082659476
000060 e3 b5 81 3e 4d 51 d6 be 47 1b 56 be e7 98 c5 be
       0.2533408 -0.41858903 -0.20908843 -0.38593218
000070 ee fd d2 3d 63 54 7c 3c a5 d2 9a 3e 66 f1 30 3c
       0.103023395 0.015400979 0.30238834 0.010799741
000080 d2 65 c9 3c 4d ae 97 be 4f 90 b4 3e fa 24 b2 3e
       0.024584685 -0.29625168 0.3526635 0.34793836
000090 83 6a b5 be 9a 33 bd bc b6 ae 35 3e d6 8b 88 be
       -0.35432824 -0.023095895 0.17742428 -0.26669186
0000a0 1a ed 29 be 88 a2 db be e8 2c 84 3e 41 3f d3 be
       -0.16594353 -0.4289744 0.2581551 -0.41259196
0000b0 e4 c0 d7 3d e0 b9 9a 3e 5f 7c b1 bc 50 88 0d 3f
       0.10534838 0.30219936 -0.02166575 0.5528612
0000c0 f9 41 c9 be fb 96 ca 3e b9 3c 1f 3e 44 01 8a be
       -0.39308146 0.39568314 0.15550508 -0.2695409
0000d0 1c 51 17 3e 3c 04 13 be 83 a9 9e 3c f5 db 2a be
       0.14777035 -0.14357084 0.019367939 -0.1668547
0000e0 6a 1f e4 3e 6f 48 8f 3e a3 43 62 be 12 87 23 be
       0.44555217 0.2798495 -0.22096114 -0.15969494
0000f0 2a 96 6e bd bd 61 91 be 39 31 dc 3e 54 b6 3b be
       -0.058248676 -0.2839488 0.43006304 -0.18331271
000100 bb 5f c6 3e ac 37 0b be b2 61 d4 3e 6f 8f 24 3e
       0.38744912 -0.13595456 0.41480786 0.1607034
000110 ed 6f 97 3c 48 e8 fe 3e 6e 2b bf 3e 48 3d 56 3e
       0.018485988 0.49786592 0.37337822 0.20921814
000120 95 7f 13 bf 0b c2 5f 3e 2b 5a 1b 3f 05 66 49 3d
       -0.5761655 0.21851365 0.6068446 0.04916956
000130 1e 4f c5 3e 46 1a c0 be f8 c6 37 bd 82 51 58 3e
       0.38536924 -0.37520045 -0.044867486 0.21124843
000140 94 53 bb bd 21 18 90 be f6 26 af 3d 38 d7 ab 3d
       -0.09146801 -0.2814341 0.08552353 0.08390659
000150 ab 68 ee 3e 42 25 01 be 03 a7 da bd b7 af 2d be
       0.4656423 -0.12611869 -0.10676386 -0.16961561
000160 3b 0a fc bd 86 ee dd be f3 fd e6 3c e4 17 0a 3e
       -0.12306639 -0.4334604 0.028197264 0.13485676
000170 fc 9d d8 3e 03 34 61 3e 9a bf 2c be d2 e6 d9 3e
       0.42308033 0.21992497 -0.16869965 0.42558914
000180 1e 2a 9a bd d8 0d d8 3e 71 41 85 3d db 7b 20 3e
       -0.075275645 0.42198062 0.065066226 0.15672247
000190 c5 2e 0d bd 58 70 33 bf 71 58 56 3e 45 57 ad 3d
       -0.03446843 -0.700933 0.20932175 0.08463911
0001a0 e9 68 94 3e ad 17 52 be 49 c5 fd 3d 83 0b c3 be
       0.2898629 -0.20516844 0.12391145 -0.3809472
0001b0 51 ce b8 3e f8 e3 31 3d b9 9b ee 3d b0 a4 0b bd
       0.36094907 0.0434303 0.116507955 -0.034092605
0001c0 2f e2 66 be 46 69 8b bd 20 38 8e be 4c 68 db be
       -0.2254722 -0.06807189 -0.27777195 -0.4285301
0001d0 7f 34 c4 bd 1f 21 c4 3d 3b 62 00 bd 32 7a f7 be
       -0.09580325 0.0957663 -0.03134368 -0.48335415
0001e0 39 0f 78 3d 27 c2 02 bf 17 25 bd bd b8 79 8f bd
       0.060561392 -0.510775 -0.0923559 -0.07005638
0001f0 bf 3e bb be d6 f9 0a 3e 9e 76 68 be 1f 46 5e 3e
       -0.3657131 0.13571867 -0.22701499 0.21706437
000200 84 be 3d 3e ef 2b de bd aa 05 a9 bd 3d 25 17 3d
       0.18529707 -0.108482234 -0.082530335 0.036900748
000210 d7 8b f3 3d c6 e6 6d 3c f1 33 43 3e a4 0c bb bc
       0.11891907 0.014520353 0.19062783 -0.022833176
000220 77 98 c9 3d 63 3b 41 be e1 68 98 bc 19 b4 11 bc
       0.098435335 -0.1887031 -0.018604698 -0.008893036
000230 1a b7 e2 3d cb 3e 39 3e 96 2e 0d 3e 62 f4 80 3b
       0.1107008 0.1809036 0.13787302 0.0039353827
000240 92 be d3 bd 07 4d 3a 3e 4a a6 6a 3d cc 0d c8 be
       -0.10339083 0.18193446 0.05728749 -0.39073026
000250 eb 60 56 3e be 3e cc 3c 8a 83 3a be e8 f8 ca 3d
       0.20935409 0.024932262 -0.1821424 0.09910756
000260 55 01 ab bd e7 6e 69 3c 63 8b 39 be 3b 22 db bc
       -0.083498634 0.014247633 -0.18119578 -0.02674972
000270 49 e8 b3 be f3 cb 41 be 7e 49 95 3e e6 4a 87 3e
       -0.35138157 -0.18925457 0.29157633 0.2642433
000280 29 e7 e7 be e7 fe 99 3e 16 6c c8 bd 56 a2 62 3d
       -0.4529355 0.30077288 -0.09786241 0.055330597
000290 cf 46 6c 3e 67 d4 78 3e f5 d5 11 3e 1e a1 b8 3e
       0.23073886 0.24299775 0.14241774 0.36060423
0002a0 c8 96 f6 bd f1 e1 59 be 06 37 6b be 70 ca f7 3d
       -0.12040478 -0.21277596 -0.22970209 0.12099159
0002b0 58 9b 62 3d e0 31 34 bd 87 74 91 3e 04 a1 27 3f
       0.05532393 -0.043992877 0.28409216 0.65480065
0002c0 9d fc 02 bd 0d 76 30 3d 7e 97 4a 3e cb a6 9f bc
       -0.031979192 0.043081332 0.19784352 -0.019488713
0002d0 3e 96 1f be 4f 96 67 be 6c 95 8c bd be c8 b4 be
       -0.15584657 -0.22615932 -0.068644375 -0.35309404
0002e0 e1 3b 53 be c1 3e 09 be 0d 05 9c 3e f6 b1 0b be
       -0.2062831 -0.13402845 0.30472603 -0.13642105
0002f0 48 7d 19 3f c8 06 07 3f 19 66 fc 3d f5 fe e1 bc
       0.5995679 0.5274472 0.12324161 -0.027587393
000300 b7 e2 76 bc 10 2a 63 be ce 38 22 3e 12 10 6d be
       -0.0150687015 -0.22184014 0.15841982 -0.23150662
000310 c5 67 26 3f e9 f1 28 bf 3f 88 7d 3e 86 8c ec 3e
       0.6500209 -0.65994126 0.24759005 0.4620096
000320 63 3e c8 bd d5 bd ec bd 38 4b df bd 71 7e 4c bd
       -0.09777524 -0.11559645 -0.10903019 -0.04992527
000330 d8 21 77 be bc 7c 13 3f 4b 1f 0b be 13 43 2e be
       -0.24134004 0.57612205 -0.13586156 -0.17017774
000340 ad a8 71 3e 0e 51 b0 3d 64 47 63 be c1 ed 18 3f
       0.23599501 0.0860921 -0.22195202 0.59737784
000350 08 07 31 3d 24 7e cb be ac cc fe be 26 ae f7 3e
       0.043219596 -0.39744675 -0.49765527 0.48375052
000360 27 ab 6b 3d b9 9f f5 be 4a ef 86 bd 48 6d c4 3d
       0.05753627 -0.4797342 -0.065886095 0.09591156
000370 00 50 0f 3f c5 c4 6f be 43 21 83 be 25 68 d9 be
       0.55981445 -0.23414905 -0.25611314 -0.42462268
000380 40 08 a2 3e 2a 8d 82 be 2e 4f 9c be 09 39 3a be
       0.3164692 -0.25498325 -0.3052916 -0.1818582
000390 98 bd be be 94 00 8f 3d e7 68 c1 be dc dc 95 bd
       -0.37254024 0.06982532 -0.37775347 -0.07317516
0003a0 e5 86 cb 3e 9e 92 8a be f2 f7 34 be 7c 55 f3 3d
       0.39751354 -0.27064985 -0.17672709 0.11881539
0003b0 98 d6 08 bd 76 b1 8d be fb bd c1 bd a1 72 d7 3e
       -0.033407778 -0.27674454 -0.09460064 0.42079642
0003c0 57 2d 2c bd 52 db 4d bc 7e 84 09 bb ea 57 dd 3d
       -0.042035427 -0.012564497 -0.0020983513 0.10807784
0003d0 b3 37 cb bc c8 c4 10 bf ea 26 ea 3d 38 f9 14 bf
       -0.024806833 -0.56550264 0.114332035 -0.5819278
0003e0 de 5e 13 3e 8e 6d 9e 3e bf e7 52 be 7a fc 31 be
       0.14391658 0.3094296 -0.20596217 -0.17381468
0003f0 18 8f 30 bf 0f 38 ea be 81 e4 be 3b 3f 28 8e be
       -0.68968344 -0.45745894 0.0058255796 -0.2776508

weight_hh_l0 f4 [512, 128]
000000 86 1c b3 be f1 6a bb 3e c9 f2 43 3e 17 0a fe 3d
       -0.349827 0.36605027 0.19135584 0.12404268
000010 42 58 c5 be e2 6c 97 bd c9 1c ca bc 21 32 20 be
       -0.38543898 -0.073938146 -0.024671929 -0.15644123
000020 07 73 0b 3f 70 a4 ab 3d 18 1c 8f 3e ec b5 30 3d
       0.5447239 0.08380973 0.2795112 0.043142244
000030 c0 a1 ba 3c cc 7c 06 3f 10 33 76 be 16 51 b8 3d
       0.022782207 0.52534175 -0.24042916 0.08999841
000040 56 8d 80 bd 0d 31 a3 3e a2 6b f2 be c3 0a 88 be
       -0.06276958 0.3187336 -0.47347742 -0.2657071
000050 ae 43 00 be 7e af 45 3e c0 52 00 3e f0 50 ed be
       -0.12525818 0.19305226 0.12531567 -0.46350813
000060 d3 3f 80 be fb e8 d1 bd 0a 5c 99 be d8 eb 35 3d
       -0.25048694 -0.102495156 -0.29953033 0.04441437
000070 ce fb fc bd b4 4c ad be 82 7b f4 3c 86 4e be 3d
       -0.123527154 -0.33847582 0.02984405 0.09292321
000080 87 76 0a 3e 34 54 31 3d 6f 63 25 3e b0 b3 08 bd
       0.13521777 0.043293193 0.16151212 -0.03337449
000090 69 96 5f be 59 a7 b7 bd 1b 6c 38 3e e3 8d e6 3d
       -0.2183472 -0.08967466 0.18009989 0.112575315
0000a0 4a 47 9f 3e 81 71 46 3d ab 04 6a bd 8b 02 68 be
       0.31109077 0.04844809 -0.057133358 -0.2265722
0000b0 c4 65 7b bd 14 a5 dc be d7 21 0f bc 8d 33 92 be
       -0.06137635 -0.43094695 -0.008736095 -0.28554955
0000c0 a3 07 17 bd 40 6a 1e bd 28 13 fa bc ac 26 4c be
       -0.036872517 -0.038675547 -0.030526713 -0.19936627
0000d0 ad 91 81 3d 22 56 b5 bd da 05 3c 3d 7c d0 47 be
       0.063266136 -0.08854319 0.045904018 -0.19513124
0000e0 61 49 31 bd 6c 09 50 bd 93 d5 ee 3d f1 50 88 3e
       -0.04328287 -0.050790235 0.1166183 0.26624253
0000f0 f0 eb e6 bc 65 54 ed be d6 22 52 be f6 ac 79 3e
       -0.028188676 -0.4635345 -0.20521101 0.24382386
000100 3b ea ee 3d bf 89 29 3e 23 56 0e 3e e7 c6 16 3e
       0.1166577 0.16556452 0.13900046 0.14724313
000110 44 e5 37 3d de 33 2b bd c1 38 08 bd 44 2e 1b be
       0.04489638 -0.04179751 -0.03325725 -0.15154368
000120 6c 79 08 be ea 5b d4 bd 05 b3 8f bd 94 bc 26 be
       -0.13327569 -0.10369094 -0.07016567 -0.16282874
000130 04 8d a8 3e b8 ac 86 be bd 33 94 3d 00 0e 67 bd
       0.32920086 -0.2630365 0.07236431 -0.056409836
000140 28 cd b8 bc 44 57 6d 3e 1f bf 00 be 69 53 e9 3d
       -0.022558764 0.2317782 -0.12572907 0.11392862
000150 27 77 ba 3d bc e7 61 bd c0 c4 41 be fc 83 a9 3e
       0.09104758 -0.05515264 -0.1892271 0.3310851
000160 b7 bd 23 3e 34 e3 46 bd a8 ac ed bd 88 7c 93 3e
       0.15990339 -0.04855652 -0.11605197 0.28805947
000170 52 e8 15 3e 55 b4 e3 3d de 19 c6 3e 2f 56 f8 3b
       0.14639404 0.1111838 0.3869161 0.0075786333
000180 ba d7 b9 bd d3 62 68 bd 10 5f d9 3d 1e 67 4d bd
       -0.0907435 -0.05673487 0.10613835 -0.05014717
000190 96 44 4f 3a db a2 79 bc e8 36 a9 bd 0f 5d 46 bd
       0.00079066434 -0.015236582 -0.08262426 -0.04842859
0001a0 0a ee 35 3e 9b 8f fc bd 78 65 a7 3e 9f 0f 48 be
       0.17766586 -0.12332078 0.32694602 -0.19537209
0001b0 f4 5f 72 bb 95 b3 cd 3d b8 a6 f3 3d 33 08 9f bd
       -0.0036983462 0.10044018 0.118970335 -0.07765236
0001c0 68 bf 72 bd 0b b8 48 3e ff 59 9e 3d 40 73 18 bc
       -0.05926457 0.19601457 0.07732009 -0.0093048215
0001d0 0a cc 22 3e 90 f9 e6 bb 40 1a b6 3d c0 e1 93 be
       0.15898147 -0.007048793 0.088917255 -0.2888317
0001e0 8a c9 57 bd eb 6c 29 ba 1e 00 cd 3e ec a9 e4 bd
       -0.052682437 -0.00064630684 0.40039152 -0.111652225
0001f0 39 a7 cb 3c 28 f2 ea 3e ed 58 d5 3d 73 ad 8b bd
       0.024860011 0.45887876 0.10417352 -0.06820192
000200 10 b5 66 3e f9 5e 75 be a3 3f b6 3a c1 23 80 be
       0.22530007 -0.2396201 0.0013904463 -0.25027278
000210 d0 2b c0 3e 14 6a 1d be 17 49 66 3e 20 2b fe 3a
       0.37533426 -0.15372497 0.22488819 0.0019391514
000220 a3 58 35 3d ea e8 f9 3e 4d 6b 24 3e 6c 7a 56 be
       0.044273984 0.48810512 0.16056557 -0.20945138
000230 22 11 2a be 8c 49 c6 be 33 e9 76 be 97 4b 42 3e
       -0.16608098 -0.38727987 -0.24112396 0.18974148
000240 13 b3 92 be 15 b1 9e 3e 97 88 5b 3e 35 04 1d bf
       -0.28652248 0.30994478 0.21438824 -0.61334544
000250 03 44 c9 be d4 4d bb bd 19 06 21 3e 1b ff 60 bd
       -0.393097 -0.09145704 0.15724982 -0.054930788
000260 ed 92 aa be a8 60 a5 3c 6e 98 65 be 08 8d 4c bd
       -0.3331522 0.02018769 -0.22421429 -0.049939185
000270 cc 34 05 bd 5d 0e 42 be 28 ee 47 be e3 bc 87 3e
       -0.032521054 -0.18950792 -0.19524443 0.26511297
000280 85 74 eb bd 40 a8 48 3c 65 78 2a bf 4b d1 5b be
       -0.11496834 0.012247145 -0.6658996 -0.21466558
000290 d7 65 53 be 00 f1 a9 3d 26 fc 13 3e 38 5c fe bc
       -0.20644318 0.0829792 0.14451656 -0.031049833
0002a0 5f ac f1 3e 80 a5 a8 bd f6 6f 0f 3e 5e c6 37 be
       0.4720182 -0.082346916 0.14007553 -0.17946765
0002b0 09 08 09 3f a6 24 a6 be 42 7d a2 bd cd d3 e6 be
       0.53527886 -0.32449836 -0.07934047 -0.45083466
0002c0 0a 0c c8 be 36 2f 03 be 0c a4 38 3e 2f 30 2d bf
       -0.39071685 -0.12810978 0.18031329 -0.6765165
0002d0 45 44 1c 3d a3 af ea bc 28 d3 fc 3e 49 2c de 3e
       0.038151044 -0.028648203 0.4937985 0.43393162
0002e0 3c 29 a0 bd b0 a0 a4 be 21 b5 18 3f 9a 9b 19 bc
       -0.07820365 -0.32153845 0.5965138 -0.009375477
0002f0 d8 76 03 bf e1 9e 50 3e a2 0d 5c be b3 02 8c be
       -0.51353216 0.20373107 -0.21489576 -0.2734581
000300 06 a3 f1 3e 71 72 6a 3e d4 96 59 3e 23 0d e1 3e
       0.4719469 0.22895218 0.21248943 0.43955335
000310 07 f4 c8 3e 72 b7 c0 bb d4 5f 08 3e fd 72 4a 3d
       0.39248678 -0.0058812434 0.13317806 0.049426068
000320 eb e4 c9 be e4 5f 1a be 72 aa b1 be 3c a5 56 bd
       -0.39432463 -0.15075642 -0.34700352 -0.052403674
000330 b3 1d 01 3e 57 79 29 be e6 7c bc 3d e6 6a be be
       0.12608986 -0.16550194 0.0920351 -0.37190932
000340 09 dd e3 be 61 dc ee 3e 92 2d fa 3b 38 66 bd 3e
       -0.44504574 0.4665251 0.007634827 0.3699205
000350 80 0c 8e be 30 8d 00 3f 58 d7 27 3e c6 6c 30 3e
       -0.27743912 0.50215435 0.16390741 0.17228994
000360 30 b0 1b 3d 13 3d 19 3e 0a 2a 44 bd 08 1d f6 3d
       0.038009822 0.14964704 -0.047891654 0.12017256
000370 ad 32 08 3e 7d b5 18 3f 6c 4d 0d 3e c0 6e 2b bf
       0.13300581 0.5965193 0.13799065 -0.66965866
000380 8b ef f0 3d 82 9d 38 3e 06 7c da 3e 18 b4 0b 3e
       0.11764439 0.18028834 0.42672747 0.13642919
000390 2b 70 4c 3d b8 dd b8 be 77 e3 da bd 9a d3 8d 3d
       0.04991166 -0.36106658 -0.10687917 0.069251254
0003a0 18 a9 ed 3e 0b 7d a2 bd 48 6b d7 3d 07 ea c2 be
       0.4641807 -0.07934006 0.10518509 -0.38069174
0003b0 35 0a 41 be 90 42 2f 3f 48 c1 4c 3e d9 f0 73 3e
       -0.1885155 0.6846094 0.19995606 0.23822345
0003c0 61 ab b8 3e 85 3e 7e bd 70 ad 09 bf 6e d6 97 3d
       0.36068252 -0.062071342 -0.5378027 0.07413946
0003d0 bf 58 f6 3c c6 66 18 bf 70 06 fa 3d 08 ee 29 be
       0.030071614 -0.5953182 0.12208259 -0.16594708
0003e0 c2 73 5a bd 05 11 91 bd 26 5b 12 3e fe 12 a4 be
       -0.05333305 -0.07083324 0.14292583 -0.3204574
0003f0 66 47 ac bd dd a4 65 3c e6 f7 10 3f 51 26 1a be
       -0.08412056 0.014016357 0.56628263 -0.15053679

bias_ih_l0 f4 [512]
000000 fd 38 35 3e 86 b2 a7 3d b8 74 82 3e 25 aa 15 3e
       0.1769752 0.081883475 0.25479674 0.14615686
000010 c9 e0 69 3e be 6a 99 3d 90 f5 49 3e 83 ee 6f 3e
       0.22839655 0.074910626 0.19722581 0.23430829
000020 ba 50 25 3e 88 a2 5b 3e e0 8e 09 3e d3 eb 02 3e
       0.16144076 0.2144872 0.13433409 0.12785272
000030 78 c4 39 3e b4 d6 80 3e c9 f6 6e 3e ee 1b 4e 3e
       0.18141353 0.25163805 0.23336329 0.20127842
000040 70 05 b1 3d 01 52 ce 3d 65 cb 1a 3e a9 62 6c bd
       0.08643615 0.10074235 0.15116651 -0.057711277
000050 99 8d 55 3d d5 0e db 3d 6d 83 d4 3e af 34 2f 3d
       0.05213699 0.10696188 0.4150652 0.042774852
000060 af 61 3a 3e 6c 0c a1 3d 1c d5 b0 3d ac 7f 28 3e
       0.18201326 0.078636974 0.086343974 0.16454953
000070 26 f3 55 3e 10 58 92 3d da 67 45 3e 9f 2f cd 3d
       0.20893535 0.07145703 0.19277897 0.10018849
000080 cd f9 d9 3b 3a 1d ff 3d 70 5a e2 3d 5a 45 91 3d
       0.006652093 0.124567464 0.11052406 0.07093306
000090 15 ac 20 3e 33 2c ee 3d 60 24 68 3c c7 9e c6 3d
       0.15690644 0.11629524 0.014168829 0.09698253
0000a0 39 f9 0e 3e 61 cc b8 3d 09 10 16 3e 26 7c c1 bd
       0.13962258 0.09023357 0.14654554 -0.094475076
0000b0 f2 3b 9f 3e 44 b2 6c 3e 79 06 9d 3d 08 59 83 3d
       0.31100422 0.23114878 0.0766725 0.06413466
0000c0 5c 22 a4 3e 17 30 94 3e d2 3b 7a 3e 79 f1 94 3d
       0.32057464 0.2894294 0.24436882 0.0727262
0000d0 83 bb 34 3e c3 8d 19 3e 38 8e 2e 3e 9c 63 bc 3c
       0.17649655 0.14995484 0.1704644 0.022996716
0000e0 89 a4 41 3e 57 65 4d 3e 63 27 c3 3d 51 20 14 3e
       0.18910421 0.2005819 0.09528997 0.14465453
0000f0 98 d7 56 3e c3 ca 98 3d 9d 67 6d 3e 2a 78 43 3e
       0.2098068 0.07460549 0.23184057 0.19088808
000100 5d 90 c7 3d cc 22 b6 3d 0b 80 a3 3d e4 77 c2 3d
       0.09744332 0.08893356 0.07983407 0.094955236
000110 20 cc 35 3e 25 00 4c 3e 91 b2 24 3e db 59 ae 3d
       0.17753649 0.1992193 0.16083743 0.08513232
000120 dc aa bd 3e 45 31 b7 bc da f5 7b 3d 40 bc ce bc
       0.37044418 -0.02236236 0.06151376 -0.025236249
000130 2c 57 44 3e f3 13 1a 3c d4 a6 4d 3e 57 d6 54 3e
       0.19173878 0.00940417 0.20083171 0.20784889
000140 37 90 26 3e b3 68 a6 3d f5 05 4c 3d 37 0e 71 3e
       0.16265951 0.081254385 0.04981037 0.23540579
000150 8d 9a 38 3e a3 51 39 3c b8 4e af 3d 7b 5b 57 3d
       0.18027706 0.011310968 0.08559936 0.052577477
000160 a0 db 88 3e 0b b4 38 3e 82 49 8d 3e 1b 9b e5 3d
       0.2673006 0.18037431 0.27595145 0.11211225
000170 86 a3 14 3d f3 e8 96 3e 7f 17 2d bd 27 86 36 3e
       0.03628876 0.294746 -0.042258736 0.17824613
000180 06 6f 80 3e 8d dc 64 3e 0d a3 d6 3d 4b e7 29 3c
       0.25084704 0.22349758 0.10480318 0.010370086
000190 34 a6 11 3c 9e 9c 25 3e 8c c5 56 3e d7 3e 52 3e
       0.008889724 0.16173026 0.20973796 0.20531784
0001a0 46 d3 5a 3e b0 32 41 3d 0c 76 de 3c af 69 da 3c
       0.21369657 0.04716748 0.027155899 0.026661722
0001b0 0c 34 1d 3d 8c 8c 2b 3e ee da e2 3d bf 2f 6d 3e
       0.038379714 0.16752833 0.11076914 0.23162745
0001c0 b5 0c d8 3d dd 68 e8 3d 6c 6b 92 3b 30 2d 20 3e
       0.10549299 0.11348126 0.004468372 0.15642238
0001d0 24 d1 18 3e 65 d1 e4 3d 78 ac f8 3c e2 61 42 3e
       0.14923531 0.11172751 0.030355677 0.18982652
0001e0 01 e1 23 3e 94 e2 a9 3d 6a 1c e2 bc a8 08 b3 3d
       0.16003801 0.082951695 -0.02760144 0.087418854
0001f0 c9 98 1c 3e 7e ba 43 bd df 17 bb 3e 5c cd ec 3d
       0.15292658 -0.047785275 0.3654165 0.11562607
000200 39 e3 29 3d 16 e4 e4 bd aa 1d a4 bd 8e b2 1e be
       0.041476462 -0.111763164 -0.080134705 -0.154978
000210 04 56 7d be 8b 8c 28 3e 09 cc 80 bd 31 d4 18 3e
       -0.24739844 0.16459863 -0.062889166 0.14924695
000220 19 fb 15 3e e0 94 84 3b bf 3e 55 3d 68 3e 03 3e
       0.14646567 0.0040460676 0.052061792 0.12816775
000230 c2 47 31 3d 80 70 63 bd fa 45 2b be 34 98 8e bd
       0.043281324 -0.05552721 -0.16725913 -0.06962624
000240 ed 1a a7 bd 11 14 0d 3e ff f3 82 3d 92 43 9a 3e
       -0.081594326 0.13777186 0.06394195 0.30129677
000250 9e 0b 9b 3d ef 35 0e 3e bd 1b d0 bc b3 39 36 bd
       0.07570575 0.13887762 -0.025403852 -0.04448862
000260 a3 ea 08 3d 76 70 0d 3e e1 81 eb 3d a3 9f 46 be
       0.033426892 0.13812432 0.11499382 -0.19396834
000270 db 5f 0d 3e 48 6f d3 bd 6e 61 87 bd b7 9b b3 3d
       0.13806097 -0.103239596 -0.0661038 0.087699346
000280 6f 7e 3a 3d e9 6f 66 3d 46 9a 0d 3e 5d ab 4a 3d
       0.045530733 0.05625907 0.13828382 0.04947983
000290 33 be e9 3c 90 23 10 3e 9d d7 ec 3d ae 16 48 bd
       0.028533077 0.14076066 0.115645625 -0.048849754
0002a0 da 3f 8b 3c b1 32 07 bc c4 0f a9 bd f1 9f f6 3d
       0.01699822 -0.008251832 -0.0825496 0.12042225
0002b0 1b f5 d6 3d a1 49 01 be ed 40 01 3e 1f a9 26 3e
       0.10495969 -0.12625743 0.12622423 0.16275452
0002c0 7d 68 36 3d 53 b4 12 be 14 fc 72 be e7 0c 19 3e
       0.04453324 -0.143266 -0.23728973 0.14946328
0002d0 eb 15 d8 bc 8d 8c 30 be 1c e9 37 3d 32 e4 2d 3e
       -0.026377639 -0.17241116 0.044900045 0.16981581
0002e0 e5 ce ff bc 3d 89 47 3e e3 57 5a 3e 01 e8 e9 bd
       -0.031226585 0.19485946 0.21322589 -0.11421204
0002f0 91 0e 47 be 2f 6e a9 bd 45 3f 62 3d 59 b8 3f 3e
       -0.1943915 -0.08272969 0.05523612 0.18722667
000300 ad b4 27 3e 02 db cf 3d ef 3c cb bd 70 3f b5 3d
       0.16377516 0.10149194 -0.099237315 0.0884999
000310 38 b2 31 3e b2 8d 94 bd 89 b9 7f 3d c4 d0 0d bd
       0.17353141 -0.07253589 0.0624328 -0.034622923
000320 2f a5 5e 3e 28 6f 02 3e 77 65 52 3e 9f c1 5e bd
       0.217427 0.12737715 0.20546518 -0.05438387
000330 e7 e7 5a bd 76 be 0a 3e 6c 40 22 be d5 81 80 3d
       -0.053443816 0.13549218 -0.15844887 0.062747635
000340 30 a5 58 3e b6 77 78 bd f2 10 6b bd 68 95 e6 3d
       0.21156764 -0.06066104 -0.057389207 0.11258966
000350 d4 2f 8f 3c 8b 88 37 3d 5f ca 49 3c 24 55 28 3e
       0.01747886 0.044807952 0.012316315 0.16438729
000360 02 ca 82 3d ac 38 c0 3d ce 54 9c 3d e3 d4 40 bc
       0.06386186 0.09385809 0.07633363 -0.011769506
000370 68 0b 4e bd dd 91 50 3e 2c 38 90 3d d1 7f 6d 3d
       -0.050303847 0.20368142 0.07041964 0.057983223
000380 e0 ed 09 be 71 9c 04 bd ed ae 69 3e 4d b9 77 bd
       -0.13469648 -0.032375757 0.22820635 -0.06047945
000390 c2 c3 59 bd 6d 26 03 3e a4 ae 11 be 97 08 de bb
       -0.053165205 0.12807627 -0.14226776 -0.0067759263
0003a0 44 a7 4e 3d ee 73 bb 3d ca 39 ac 3c 5e 92 5f bc
       0.050452486 0.09152971 0.02102365 -0.0136457365
0003b0 df 1d 79 3d ea 39 86 bd d9 50 11 bb f2 f7 95 3d
       0.060819503 -0.06554015 -0.0022173433 0.073226824
0003c0 fb 12 2d 3e f4 29 a4 3d cb 87 c8 3c db c2 d9 3a
       0.16901772 0.080158144 0.024478814 0.0016613858
0003d0 b9 9b 9c bc 6f a5 55 bb e0 43 ef bd 02 0a 07 3e
       -0.019117223 -0.0032599827 -0.11682868 0.13187411
0003e0 3e 62 19 bd 2d fd 79 3c 0c ad 18 be 49 f6 ca 3d
       -0.037447207 0.015258116 -0.14909762 0.099102564
0003f0 df 65 bf 3d bd c0 46 3e 25 cf 38 bc 9d e8 ac 3d
       0.09345602 0.19409461 -0.011279856 0.08442805

bias_hh_l0 f4 [512]
000000 30 37 b6 3d ba 05 4f 3e bc 7c 5c 3e c0 78 c8 3c
       0.08897245 0.20217028 0.21531957 0.02447164
000010 a2 5b b1 3e 24 03 9b 3d c6 52 2d 3e d7 9d 0a 3e
       0.34640223 0.075689584 0.16926107 0.13536774
000020 ed c1 db 3d 15 16 54 3e 6e 15 55 3d 78 fa 1e 3e
       0.10730348 0.20711549 0.05202239 0.15525234
000030 e9 1e c9 3c 1b 5d be 3d 9a 4b 46 3e 2b 60 45 3e
       0.024550872 0.09295102 0.19364777 0.19274966
000040 34 f8 13 3e 40 40 63 3d 37 f0 5f 3c af a8 32 3b
       0.1445015 0.055481195 0.0136681115 0.0027261188
000050 5d da 82 3d 9e be 3c 3e 17 37 de 3e 83 4e 0c 3e
       0.06389306 0.1843209 0.43401405 0.13701825
000060 22 b9 aa 3e 7c 4e 2b 3e 5a 3b 5d 3d d6 df 20 3e
       0.3334437 0.16729158 0.05401168 0.15710387
000070 5c 40 d3 3d 22 d1 23 3e da cd c2 3d e5 b7 3c 3e
       0.1031501 0.15997747 0.09511919 0.18429525
000080 39 75 27 bd b4 e5 7c 3d f3 df 67 3e 44 c4 aa bc
       -0.040883277 0.0617425 0.22644024 -0.02084554
000090 22 5d 41 3e 7a ba 27 3e 74 9f 04 3d ec 1e 03 3e
       0.18883184 0.16379729 0.03237863 0.12804765
0000a0 a7 92 56 3e bc b2 39 3e a4 eb 7e 3e bb 4d 8f 3d
       0.20954381 0.18134588 0.24894577 0.06997248
0000b0 8a 87 88 3e 1e 23 22 3e d6 9c bd 3d ad 93 c8 3d
       0.26665908 0.15833709 0.0925843 0.09793792
0000c0 00 70 44 3e 2b a1 bc 3e 27 0d 48 3e 7f d7 75 3d
       0.1918335 0.3684171 0.19536267 0.060019966
0000d0 a4 d1 b0 3d 46 68 1d 3e ff 55 9b 3d cd c9 a7 3d
       0.08633736 0.15371808 0.07584762 0.08192787
0000e0 2b ef fc 3d 2c 81 31 3e 78 b0 48 3c 3f 02 27 3e
       0.12350305 0.17334431 0.012249105 0.1630945
0000f0 b5 44 43 3e 85 ce 99 3d 65 41 73 3e ab 0d 60 3e
       0.19069178 0.075100936 0.23755415 0.21880214
000100 27 ae 5c 3d eb 10 c2 3d e3 9d d3 3d e5 51 67 3d
       0.053877022 0.09475883 0.10332849 0.056474585
000110 7a 16 bd 3d fb 2a 10 3e 9d 1e 1d 3e d9 39 60 3e
       0.09232803 0.14078896 0.1534371 0.21897067
000120 fe 07 89 3e e8 70 cb bd 49 3b b4 3c 4b 5c 00 3e
       0.2676391 -0.099336445 0.022000926 0.12535207
000130 0f bf 21 3e 5d 54 df 3d 03 b0 90 3e a1 b7 6e 3e
       0.1579554 0.10904763 0.28259286 0.23312236
000140 6e 3a 23 3e 64 8e 09 3e fc 04 e6 3d 6f ef ff 3d
       0.15940258 0.13433224 0.112314194 0.1249684
000150 88 3a 7f 3e b0 79 2f 3e 6d 33 b4 3d 42 77 ed 3d
       0.24924672 0.17136264 0.08798871 0.11595012
000160 fc 07 6b 3e ec 58 4a 3e 39 b2 7b 3e 31 39 a2 3d
       0.22952265 0.19760484 0.24579705 0.07921065
000170 9c 4e dd 3c 9d 0f 95 3e 81 57 8a 3d 2e 68 3b 3e
       0.027015023 0.29113474 0.06754971 0.1830146
000180 28 8b 6d 3e 1b 98 60 3e 45 c0 d9 3d f5 26 a9 3d
       0.23197615 0.21933024 0.10632376 0.082593836
000190 78 bc cd 3d 40 5b 04 3e 06 ae 09 3e 6e 31 e2 3d
       0.10045713 0.12925434 0.13445291 0.11044584
0001a0 f0 39 88 3e 10 14 6a 3d d2 51 ab 3b 67 f6 22 3e
       0.26606703 0.05714804 0.0052282596 0.15914308
0001b0 cd 79 0d 3d 0c b1 73 3e 84 80 2a 3d 20 0c f3 3d
       0.034539986 0.23798007 0.04162647 0.11867547
0001c0 d9 3a 2b 3d 04 cc 57 3e ab 3b cb 3d b2 c5 7e 3e
       0.04180417 0.2107392 0.0992349 0.24880102
0001d0 2f ad 7c 3d 3d 1d 87 3d 8c b7 25 3e e5 24 1d 3e
       0.0616886 0.06597374 0.16183299 0.15346105
0001e0 74 44 cf 3d 3c 10 f8 3d fc 38 21 3b 2f 1e af 3d
       0.10120478 0.121124715 0.0024600616 0.08550679
0001f0 0a 08 e5 3d 91 da 28 bc 9d b2 ba 3e ed 0b 2d 3e
       0.11183174 -0.010306017 0.36464396 0.1689908
000200 9e 6c df 3d cc 5a 1e be ec b7 28 bd 76 f1 0e be
       0.10909389 -0.15464324 -0.041191027 -0.13959298
000210 58 73 10 be 1f 4b 83 3d fc 60 94 bd 70 1f 9d bc
       -0.141065 0.064108126 -0.07245061 -0.01918003
000220 15 76 27 3e e0 a7 24 3c 1c 07 29 3e 70 a5 0a 3e
       0.16353638 0.01004979 0.16506618 0.13539672
000230 1f f1 78 3d 9e ad 21 be a1 a1 28 bd 8a 04 3e bd
       0.060776826 -0.15788886 -0.041169766 -0.046391048
000240 5a a4 89 bd 2e fd d9 3d 75 b7 9b 3d 48 1c 56 3e
       -0.06720801 0.10643993 0.07603351 0.20909226
000250 7c ac d2 3d 98 87 e9 3b 55 90 7e bd 6e 30 7f 3d
       0.10286805 0.0071267597 -0.062149365 0.062302046
000260 e9 af 16 3d 9e ba e8 3c db a2 b4 3c c4 0d 8d be
       0.036788855 0.028409299 0.022050312 -0.27549565
000270 ef 81 25 3e ee 79 4f be ee 56 91 3d 60 d7 c9 3d
       0.16162847 -0.20261356 0.07096659 0.09855533
000280 3b c2 6d 3d 15 43 67 3d 04 b0 2e 3e 15 7f d0 3c
       0.05804656 0.05646046 0.17059332 0.025451222
000290 f2 5e 32 3d 80 28 b4 3d 8e 21 09 3e 10 90 02 3d
       0.04354758 0.08796787 0.13391706 0.03187567
0002a0 81 fb ac 3d 10 f3 01 3d 76 7f 95 bd 6b 57 17 3e
       0.08446408 0.031725943 -0.07299702 0.14779441
0002b0 b1 b6 29 bd ff 27 38 be 74 13 41 3e 60 73 07 3d
       -0.041433994 -0.17984007 0.18855077 0.033069015
0002c0 7c d7 a4 bd 45 ea 59 bd c3 03 2b be 89 d4 34 3e
       -0.08048913 -0.053201932 -0.16700654 0.176592
0002d0 39 8e 08 3e 6a be 91 be 1e a1 d4 3d 15 22 91 3d
       0.13335504 -0.28465587 0.10382293 0.07086579
0002e0 5d 11 f0 bd 54 54 b8 3d 61 bb 10 3e 10 7f 28 be
       -0.11722062 0.09000459 0.1413398 -0.1645472
0002f0 49 f6 f0 bd b4 0b 25 3d eb 2f de 3d 57 5f 05 3e
       -0.11765725 0.040294364 0.108489834 0.1302465
000300 41 ca ef 3d f0 ac 7a 3d 8e 29 0b be 77 87 ec bc
       0.11708499 0.061200082 -0.1359007 -0.028873188
000310 25 a7 69 3e 72 0c 8e 3b bb d0 1f 3e 7c c8 85 3d
       0.22817667 0.0043349797 0.15606968 0.0653238
000320 dc 78 69 3e 78 6e 32 3e 9e 46 50 3e db cd 46 3d
       0.2280001 0.17424953 0.20339438 0.048536163
000330 0d 4e 40 be 07 53 70 3e 62 c0 e7 bd 74 cb 7c bc
       -0.18779774 0.23469172 -0.11315991 -0.015429366
000340 37 dc 51 3e 4d a3 ab bd ed 11 76 bb 7d 01 83 3d
       0.20494162 -0.083807565 -0.0037547306 0.06396768
000350 3d 9b ca 3d d5 fd 22 3d d2 12 6f 3d 3a 77 9b 3d
       0.098928906 0.039792854 0.058367558 0.075911
000360 4d 4e de 3d ef c3 a2 3d 2e be 97 3d d1 ad 8b bd
       0.108547784 0.079475276 0.07409321 -0.06820262
000370 2d 42 f0 bd 39 36 61 3d 60 33 ef bc 4a 0a 23 3c
       -0.11731372 0.05498335 -0.029199302 0.009951184
000380 a6 d6 b3 bd 1c c1 02 bd b8 44 c1 3d c9 9c 8f 3b
       -0.08781175 -0.031922445 0.09436935 0.004382704
000390 40 57 34 bd a7 f9 95 3d 8a 95 66 be c5 75 87 bb
       -0.04402852 0.07323008 -0.22517982 -0.0041339123
0003a0 b0 4e 85 3d 08 c0 c7 3d 9c 43 d6 3d e6 17 c4 bd
       0.06509149 0.09753424 0.10462114 -0.09574871
0003b0 63 0a 35 3c d0 1e 1f be 81 2e e5 bc 25 71 99 3d
       0.01104984 -0.15539098 -0.027976276 0.07492284
0003c0 e6 07 69 3d 85 b6 8f 3c 1b b6 a3 bc ba 28 8f 3c
       0.0568923 0.017543087 -0.019984296 0.017475475
0003d0 01 48 0a 3e 58 fc 26 3d 3f 63 53 be b5 41 9b 3b
       0.1350403 0.040767998 -0.20643328 0.0047380575
0003e0 cd 06 5c 3c 71 96 64 3d ce b3 e7 bd 4b d6 59 3d
       0.013429356 0.055807535 -0.11313592 0.05318288
0003f0 ae 67 a7 3d 08 6a 26 3e 9e cb 7c bc aa 92 99 3a
       0.08174072 0.16251385 -0.0154294055 0.0011716683

weight f4 [28, 128]
000000 bc cc 29 be e0 ac 46 3e 91 af 0c 3e c0 d9 01 be
       -0.16582006 0.19401884 0.13738848 -0.12680721
000010 a7 f4 b4 3e 85 bf 0a bd dd 1a 58 3c 71 e3 77 be
       0.35342905 -0.033874054 0.013189998 -0.24207856
000020 3a 70 fb 3d e7 7d 72 be bb cc ad 3e 21 73 6d 3e
       0.12277265 -0.2368084 0.3394526 0.2318845
000030 af 13 f2 be e6 b5 3e 3e fd 7c 24 3e 97 2c 84 3d
       -0.47280642 0.18624076 0.16063304 0.06453817
000040 f9 03 6b 3e e4 ca 96 3e 53 4e 97 bd 7e 8b 22 be
       0.22950734 0.29451668 -0.07387986 -0.15873525
000050 d8 8f 5d 3e 6d 9d e2 be 80 dc f8 be cd f4 52 3e
       0.21636903 -0.4426073 -0.48605728 0.20601197
000060 eb 00 a5 be 60 5f 34 be 59 47 8f 3e 20 01 7c 3d
       -0.32227263 -0.17614508 0.2798412 0.06152451
000070 e7 c5 68 be 83 bf 66 3e 86 6f a7 3e a5 e1 42 3d
       -0.22731744 0.22533993 0.32702273 0.047578473
000080 46 80 3e 3e fc 9f 4c 3d 69 60 13 be 08 ab a2 be
       0.1860362 0.04995726 -0.14392246 -0.3177111
000090 6a 8d 25 3d 1d 49 6d 3e 07 0e 8e be 65 88 b4 be
       0.040418066 0.23172422 -0.27745077 -0.3526031
0000a0 4a 40 1f 3e 62 2c c2 bc 01 86 0b 3f a2 a9 8a 3c
       0.15551868 -0.023702804 0.5450135 0.01692659
0000b0 55 d0 43 be e4 4c 18 be 3d 4d 83 be 71 f2 df bd
       -0.19122441 -0.14873081 -0.25644866 -0.10934914
0000c0 96 c3 9a be c1 73 37 bd 72 29 b6 3e f2 0c 0d 3d
       -0.30227345 -0.044788126 0.35578495 0.034436174
0000d0 9d e6 9a 3e 8d ff c1 3e 05 96 b9 3e 79 99 13 be
       0.3025407 0.37890282 0.36247268 -0.14414014
0000e0 61 c2 82 bd aa 8b 2d be ba 4b a7 b9 9a cf 36 3e
       -0.06384731 -0.16947809 -0.00031909143 0.17852631
0000f0 7a 8e ea be 3f 88 2f be c4 3e 70 3e e9 1d e6 bd
       -0.45811826 -0.17141818 0.23461443 -0.11236174
000100 f2 86 e1 3d a8 4e 83 bd c0 ab d3 3a 4c 63 76 3e
       0.11012067 -0.06411487 0.0016149208 0.24061316
000110 a5 28 1c 3e 0f 32 2d be 06 92 68 3e 5d 71 29 3f
       0.1524988 -0.16913627 0.22711954 0.66188604
000120 cb cd b7 be bc 9f 68 bd e4 f2 69 bd da 22 8d be
       -0.35899195 -0.05679296 -0.057116404 -0.27565652
000130 ba 29 1b 3f 99 29 9a be 1f 45 26 be 8e 23 de bc
       0.60610545 -0.30109861 -0.16237305 -0.027116563
000140 b9 bb 58 3d 1a 9d 05 bf c3 70 5d 3e 89 00 95 3c
       0.0529134 -0.5219284 0.21625046 0.018188732
000150 60 26 03 3f c7 7d 79 bd 6a aa 20 be 1a 1d 96 3e
       0.5123043 -0.060910966 -0.15690008 0.29319078
000160 f7 44 24 3c 78 d6 1e 3e 9f 32 bb 3e 0a be 77 be
       0.010026208 0.15511501 0.36562058 -0.24193588
000170 5f e7 c3 be a4 92 84 3e d1 f2 86 3e 96 c5 35 bc
       -0.3826246 0.25893128 0.2635713 -0.011094471
000180 a8 5d 16 3d b0 48 46 be 2a 36 0a 3e c2 4d 34 3d
       0.03671041 -0.19363666 0.13497224 0.044019468
000190 00 03 a4 3e a7 c8 0b be 25 d7 bc be d4 c8 9f 3e
       0.3203354 -0.13650762 -0.36882892 0.31207907
0001a0 6b 3d e2 be e4 97 e0 3c 0b f5 94 bd c1 ea c3 be
       -0.44187483 0.027416177 -0.07273301 -0.3826504
0001b0 2c 94 3b be c0 4b c1 3e 3d f9 74 be 05 84 d4 3d
       -0.18318242 0.37753105 -0.23923202 0.10376743
0001c0 d8 1c 99 3e ce 1f 2a 3e 6e 12 a5 3e 07 9a 59 be
       0.2990482 0.16613695 0.32240623 -0.21250163
0001d0 72 77 6f bd 61 18 d2 be 9f f6 be 3e 73 de 0b 3e
       -0.05846352 -0.41034225 0.37297532 0.13659076
0001e0 e5 c1 9a 3d 1b 0f ea 3e 5c d9 70 3e 4f 6c a7 bd
       0.07556514 0.4571465 0.23520416 -0.08174955
0001f0 ca 9a 29 be 9a 93 53 3e a9 49 18 bf 76 6f 9d bd
       -0.16562954 0.20661774 -0.59487396 -0.07687275
000200 63 86 3b be 8e 5d 76 be 4b 47 17 3e 52 7e 18 be
       -0.18312983 -0.24059126 0.1477329 -0.14891937
000210 93 0d 9b be 1c 99 22 be 37 5d 54 be 93 73 a4 bd
       -0.30283794 -0.15878719 -0.20738684 -0.080298565
000220 30 c6 61 be fd bd bb bd 1d 3b be bd 97 93 60 3e
       -0.22048259 -0.09167097 -0.09288619 0.21931301
000230 90 23 b0 bd b4 99 ce 3e 7c 6f a4 bc f1 a2 83 3d
       -0.08600533 0.4035164 -0.020072691 0.06427563
000240 b6 2f 0a bf f2 c5 31 3e 3e 54 72 be a3 c5 47 3d
       -0.5397905 0.17360666 -0.23664948 0.048772465
000250 3c b6 a8 bd 32 6f 5b 3e 3f b4 47 bc a2 00 94 bd
       -0.082378834 0.21429136 -0.01218897 -0.07226683
000260 0a 9e 3a be 0b c4 05 bd 91 60 03 3e 42 30 68 be
       -0.1822435 -0.032657664 0.12829806 -0.22674659
000270 48 e1 80 3e a0 38 d2 3e f8 16 b6 bc 9c 6f 11 3e
       0.25171876 0.41058826 -0.02222775 0.14202732
000280 ec e4 06 bd 8b 97 37 be b7 05 5e 3e f5 10 b1 bd
       -0.03293316 -0.17928903 0.21681868 -0.086458124
000290 a4 a1 64 be 73 af 75 bd ca 9a 96 be 0c b5 cc 3c
       -0.22327286 -0.059981775 -0.2941497 0.024988674
0002a0 0b c5 b4 3d b6 81 33 3f 09 b8 85 be 5d 92 ea 3e
       0.088266455 0.701198 -0.2611697 0.4581479
0002b0 b1 85 30 3f a7 b3 22 bd 05 d6 7c 3e 59 58 41 be
       0.68953997 -0.03972211 0.24691017 -0.18881358
0002c0 66 c5 3a be 9e cf b0 bd 3a 8c 5a bf 20 04 52 3e
       -0.18239364 -0.0863335 -0.8537022 0.20509386
0002d0 fe a5 e4 be e5 83 ed 3d e4 0b 51 be dd de 90 3e
       -0.44657892 0.115974225 -0.20414692 0.2829503
0002e0 83 3d 38 bf 10 85 71 bd c0 e8 8e bd 40 ef b9 3d
       -0.7196886 -0.05896479 -0.06977987 0.090788364
0002f0 c6 20 b1 3e a7 de fa 3e e0 30 28 be 64 12 73 3c
       0.34595317 0.48997995 -0.16424894 0.014835928
000300 f8 4d 25 3c 16 8d 53 3e 05 b6 0f 3f c4 b8 4c 3e
       0.01008939 0.20659289 0.56137115 0.19992357
000310 54 e8 99 be 09 4c 36 be c1 62 8d be 4e 33 78 be
       -0.30060065 -0.17802443 -0.27614406 -0.24238321
000320 55 45 2d 3d 40 35 22 be 1e 75 cf 3e 55 6c 87 bd
       0.04230245 -0.15840626 0.4051904 -0.066124596
000330 9a 82 94 bd 32 c7 6e bb e3 bc 8f 3d 79 5b d1 be
       -0.07251473 -0.0036434648 0.07018449 -0.408901
000340 ae f4 4c be 6d cd 71 3e 0f 6c e8 bd b4 ca 01 bd
       -0.20015213 0.2361352 -0.113487355 -0.031687453
000350 67 46 98 bd e1 f2 b0 be 64 b3 7d bc 1f 21 c7 bd
       -0.07435303 -0.34560302 -0.015484665 -0.09723114
000360 f0 6f 4c be a6 b1 0c bf d4 17 c5 3d 86 ca 8b 3d
       -0.19964576 -0.5495857 0.096236855 0.06825738
000370 6e f7 01 3e 48 99 e6 3e b0 42 29 bf 15 53 6f be
       0.12692043 0.4503882 -0.6611738 -0.23371537
000380 c7 4a 2b 3e a7 e9 0f 3e c3 86 d7 be a2 88 f9 be
       0.16727744 0.14053975 -0.42095003 -0.48737055
000390 a4 8e 65 bd 83 e4 92 bd c4 91 b9 be c4 99 b0 3e
       -0.056044236 -0.071724914 -0.36244023 0.34492314
0003a0 e3 89 93 3d 53 df e3 be 56 f0 ba 3d 15 37 b3 3d
       0.07204034 -0.4450632 0.09127872 0.087507404
0003b0 ce 5e 12 be fe 06 e0 3c 12 78 94 bd b7 b3 af 3e
       -0.14293978 0.027347084 -0.07249464 0.343168
0003c0 49 7c da be d6 6f 4f bb bc 4d dc 3d 7e 24 8a bd
       -0.42672947 -0.0031652353 0.10757014 -0.067452416
0003d0 f1 8d 25 be 0c 1b 5d 3d 5c f6 aa 3a 0d 63 a9 be
       -0.16167428 0.053980872 0.0013043392 -0.33083382
0003e0 30 79 88 3a 1a de c8 3c 0d fc 02 bf 69 4f 29 bc
       0.0010412093 0.024519969 -0.5116585 -0.010333874
0003f0 48 fa 97 3d 63 6e 3b 3d bc ea 84 3d 5e de 04 be
       0.07420784 0.04575957 0.064900845 -0.12975451

bias f4 [28]
000000 46 79 ba 3c 9b 1b cd bd b8 80 4b bc c5 de d6 3c
       0.022762906 -0.10015031 -0.012420826 0.026229272
000010 99 6b f4 3c 4e a7 e2 bd c6 50 08 bd a5 26 b3 3c
       0.029836463 -0.11067067 -0.033280157 0.021869013
000020 ff e1 88 3d dc 89 fc bd 30 e8 44 bd 32 b4 dd bc
       0.0668373 -0.12330982 -0.048072994 -0.027063463
000030 b8 a7 bb 3d 95 00 2b bd 1a 08 da 3d 2e 48 c7 bc
       0.09162849 -0.041748602 0.106460765 -0.02432641
000040 d3 59 a1 bd 41 33 07 3c 28 0c 8a 3d 3c c1 8d 3c
       -0.07878461 0.008251966 0.067406 0.017304055
000050 79 7a 43 bd 0f 02 24 3d e2 94 03 be 50 45 09 bb
       -0.04772422 0.040041026 -0.12849763 -0.0020945854
000060 ce 4e c2 bd ca e8 ae bd 1e 14 d4 3d 23 da 41 be
       -0.09487687 -0.08540495 0.103553995 -0.18930869
