models/ESEU_60-40/ESEU_60-40_1_threshold_ldt_80.pt (torch, 318607 bytes, 7 tensors)

weight f4 [28, 16]
-1.7836481 -1.3368441 -1.3574775 0.7941428 0.5059292 -0.01932212 -1.2729485 -0.56429136
1.399806 1.5198163 -0.08934114 -0.84655243 -2.4314814 1.4134891 -2.191592 -1.2606413
-0.17545941 1.1783737 0.19713594 0.010526035 -1.1226907 0.4245267 3.304877 0.5526869
-1.7265711 0.6039668 -1.4154344 1.7764273 0.8909734 -0.5452519 -0.16299973 -0.41726097
-1.1665204 -1.3041707 0.17348874 0.99240315 0.33700347 -1.9034998 -0.279198 -2.953397
1.1426314 -0.97630405 0.8637718 1.500129 -0.70774084 0.3586087 3.314153 0.9731445
-1.3164358 2.5391898 1.0094469 -0.030875824 1.2838469 -0.35868198 0.78710026 -1.2439625
0.16586725 -1.1010686 -0.16692603 -0.7956979 0.41720703 -0.6829117 -3.3449802 0.80146503
0.27692032 -2.481048 1.0978023 0.17202345 -1.6615337 1.1352707 -0.5297109 0.04914774
-0.22017345 -0.4622387 0.13099825 -0.2648059 0.38344342 1.0883646 0.42104512 -0.936403
0.2879339 1.5501258 -0.88055056 -0.24797304 1.0092722 -0.0792383 0.2620639 -0.7197852
-3.017216 -0.2526679 0.39039338 -0.2641224 -1.507128 -0.20328777 0.77422065 0.796289
0.31520075 0.9027694 -1.0071415 0.785457 2.1332457 -0.71364117 1.4985629 -2.0753605
0.98854804 1.470737 -0.58293736 1.6279284 0.5465299 0.20717993 -0.39415327 0.4773148
3.906721 1.5132813 0.12109041 -0.0370762 -2.2047977 -0.16966212 -0.80434483 -0.18547769
0.075789854 0.0076703494 -0.63609105 1.5231915 1.0981685 -0.99454665 -1.8369284 1.434727
-1.5724714 1.7000772 0.67744833 -1.8752717 0.15934467 0.6131082 -0.05780588 0.16574493
1.3893546 0.3770716 0.7289296 -0.6992681 0.114679806 0.96310085 -0.056888063 -2.9335213
-0.09869288 2.0709994 -0.9310139 1.1494454 0.13122752 -0.13084035 0.025385004 0.14153746
0.88119024 -1.3706244 -0.6991797 0.2238478 -0.043575782 -2.1307845 1.3540939 -1.5512757
-1.2513386 -0.08535413 0.95348924 2.4975867 0.19186218 2.3348315 0.2805694 0.16906932
1.6174573 -1.7657919 -1.5324019 2.0353756 0.42598328 1.2294308 -2.6372137 1.7438666
-1.1126238 1.1699378 0.52385676 1.1503676 2.2466488 -0.9010418 -0.10043254 2.3638022
0.59496367 1.6584835 2.0401103 0.9554015 -0.61525893 -1.3148304 -0.79511124 -0.59146774
1.9074419 -0.30051666 -0.22374864 -0.27896482 -2.778266 -2.7856688 -0.85387975 -0.06438758
-0.009491166 -0.6101992 1.2263769 0.24456882 -0.22843336 -1.2559927 0.309161 0.35086003
0.3084576 -0.52337533 0.06897079 0.8323487 1.0280386 -0.55075735 -2.481317 2.2290764
-0.8108915 -1.5993466 -0.9926837 -0.21481189 1.9684044 -0.0015886163 0.22429296 -0.72257555
0.19095126 -2.485196 0.03405974 -0.04520772 -2.053618 -2.7151864 -0.427683 0.4581915
2.5661287 1.4040068 -1.7578375 -1.5152615 1.5066428 -0.7542793 -1.4915776 -0.32716778
-0.1707327 0.92850727 2.636115 2.6684768 -0.39725357 2.1877642 0.11780944 0.55329585
-1.5801762 -1.3014385 0.82398397 0.23593284 -1.1315062 -1.0813527 0.8494849 0.12949012
00000000: 954e e4bf b51d abbf d3c1 adbf f14c 4b3f
00000010: 9384 013f 6c49 9ebc faef a2bf 6675 10bf
00000020: d82c b33f 5789 c23f 7df8 b6bd a9b7 58bf
00000030: 649d 1bc0 36ed b43f 0b43 0cc0 b25c a1bf
00000040: a2ab 33be f3d4 963f 01de 493e 6475 2c3c
00000050: 54b4 8fbf 905b d93e 1b83 5340 e47c 0d3f
00000060: 4800 ddbf 919d 1a3f f42c b5bf f861 e33f
00000070: d516 643f a195 0bbf 67e9 26be 3ba3 d5be
00000080: 8a50 95bf 11ef a6bf 08a7 313e 220e 7e3f
00000090: b88b ac3e e2a5 f3bf 0af3 8ebe 7504 3dc0
000000a0: bf41 923f 10ef 79bf 2620 5d3f 3a04 c03f
000000b0: 812e 35bf 8f9b b73e 151b 5440 ff1f 793f
000000c0: f880 a8bf 1682 2240 8e35 813f 4cef fcbc
000000d0: 1855 a43f 2aa5 b7be 677f 493f 2a3a 9fbf
000000e0: 1bd9 293e d1ef 8cbf a8ee 2abe dcb2 4bbf
000000f0: 299c d53e 4dd3 2ebf 2814 56c0 d02c 4d3f
00000100: 80c8 8d3e 7ec9 1ec0 c984 8c3f ea26 303e
00000110: 23ad d4bf 8d50 913f 229b 07bf 244f 493d
00000120: 2675 61be 8daa ecbe 6824 063e a494 87be
00000130: b252 c43e 884f 8b3f 3a93 d73e 1bb8 6fbf
00000140: 126c 933e 866a c63f c36b 61bf a5ec 7dbe
00000150: d52f 813f b147 a2bd 3d2d 863e d843 38bf
00000160: 111a 41c0 b05d 81be a4e1 c73e 0d3b 87be
00000170: 92e9 c0bf ab2a 50be 5333 463f 99d9 4b3f
00000180: fe61 a13e e51b 673f 03ea 80bf b613 493f
00000190: 1987 0840 30b1 36bf e9d0 bf3f b5d2 04c0
000001a0: 7c11 7d3f 1c41 bc3f 623b 15bf f55f d03f
000001b0: 62e9 0b3f fa26 543e 75ce c9be 9b62 f43e
000001c0: b807 7a40 34b3 c13f 40fe f73d 37dd 17bd
000001d0: 681b 0dc0 e8bb 2dbe 8be9 4dbf dded 3dbe
000001e0: b637 9b3d 8e57 fb3b ddd6 22bf f0f7 c23f
000001f0: c990 8c3f 9c9a 7ebf 7820 ebbf 22a5 b73f
00000200: be46 c9bf 219c d93f 416d 2d3f e708 f0bf
00000210: 402b 233e a9f4 1c3f dcc5 6cbd 0ab9 293e
00000220: 5fd6 b13f 870f c13e 219b 3a3f 3c03 33bf
00000230: 3fdd ea3d c78d 763f 7503 69bd d0be 3bc0
00000240: 7e1f cabd 418b 0440 ed56 6ebf 0721 933f
00000250: 8260 063e 03fb 05be 36f4 cf3c 32ef 103e
00000260: af95 613f 9f70 afbf 71fd 32bf 5c38 653e
00000270: 857c 32bd c65e 08c0 f352 ad3f 3490 c6bf
00000280: dd2b a0bf 25ce aebd df17 743f 76d8 1f40
00000290: 8577 443e e16d 1540 cba6 8f3e 8220 2d3e
000002a0: d708 cf3f 7805 e2bf bf25 c4bf 9843 0240
000002b0: 7b1a da3e fd5d 9d3f 1cc8 28c0 0537 df3f
000002c0: 756a 8ebf 86c0 953f 7a1b 063f 3f3f 933f
000002d0: 18c9 0f40 adaa 66bf 93af cdbd 8948 1740
000002e0: 8a4f 183f 3049 d43f 2b91 0240 3195 743f
000002f0: 9c81 1dbf 5d4c a8bf 698c 4bbf 6e6a 17bf
00000300: 0e27 f43f 52dd 99be 5d1e 65be 7ad4 8ebe
00000310: 1ccf 31c0 6648 32c0 dd97 5abf a3dd 83bd
00000320: d680 1bbc 0436 1cbf ebf9 9c3f 4070 7a3e
00000330: 6fea 69be 5ec4 a0bf 5a4a 9e3e eda3 b33e
00000340: 28ee 9d3e edfb 05bf 8f40 8d3d ce14 553f
00000350: c596 833f 6ffe 0cbf e6cd 1ec0 30a9 0e40
00000360: 9696 4fbf 64b7 ccbf 8520 7ebf a6f7 5bbe
00000370: adf4 fb3f 1e39 d0ba 0ead 653e b6fa 38bf
00000380: ba88 433e 740d 1fc0 3a82 0b3d bb2b 39bd
00000390: 7a6e 03c0 9dc5 2dc0 44f9 dabe 1498 ea3e
000003a0: 743b 2440 7fb6 b33f d200 e1bf 17f4 c1bf
000003b0: acd9 c03f 7318 41bf 04ec bebf 8982 a7be
000003c0: 8ed4 2ebe a7b2 6d3f 1cb6 2840 53c8 2a40
000003d0: d264 cbbe 5404 0c40 1346 f13d cca4 0d3f
000003e0: 3743 cabf 8995 a6bf 9df0 523f 6198 713e
000003f0: 32d5 90bf c469 8abf d877 593f 0f99 043e

weight_ih_l0 f4 [512, 16]
0.039513193 -0.4613964 0.22987564 0.26293072 -0.1572693 -0.5782562 0.30108324 0.25908569
0.123754516 0.03679017 0.33822963 0.1609777 0.44159064 0.06209792 0.38489777 -0.115249075
0.12745623 -0.5069237 0.4484281 -0.14867757 -0.11125856 0.21884139 -0.2529312 -0.02316051
-0.18406796 0.30761227 0.019126866 0.13351907 0.3993527 -0.11808595 0.20544054 0.065736756
0.0009954663 0.22584893 0.21092904 -0.30565864 -0.0881636 0.04057531 -0.07444778 -0.118467815
0.00014865184 -0.04718255 0.14994666 0.42968714 0.03783066 -0.36688322 0.29784456 0.035921793
0.2372451 -0.3017279 -0.16057932 -0.24184251 0.029042706 -0.17148153 -0.19026956 0.17526273
0.17922446 0.045314122 0.04306153 0.1397113 0.2169269 -0.25902817 -0.018147573 0.052316237
0.12927508 -0.20799923 -0.035603482 0.20978825 -0.13914874 -0.15443322 0.34468243 -0.0625423
-0.002061577 -0.37827647 0.40771577 -0.38405073 0.079697125 -0.22637014 -0.29174545 -0.048288114
-0.2637722 0.054238323 -0.06557256 -0.017874738 0.09817877 -0.354926 0.15451102 0.55040485
0.61759615 0.11128751 0.42354557 0.09204984 0.2530242 -0.11281867 -0.1209361 -0.550605
0.014331784 -0.081515685 -0.2648489 0.46968642 0.48591393 -0.23447427 -0.44595614 0.21330363
0.37677413 0.184596 -0.5098994 -0.3158959 -0.15578347 0.22360998 -0.013765652 -0.005228089
-0.25275588 0.14603747 0.37591052 0.45581636 -0.40208045 -0.105698496 0.33411714 0.055696353
0.58291954 0.19733153 0.40632161 0.005468904 0.3567158 -0.08065509 -0.74001247 -0.30177352
0.26160315 0.37147993 -0.12670983 0.06745569 0.16127814 0.15351272 0.06966933 0.14435586
-0.13781022 -0.3231638 -0.04119465 0.1570323 -0.039631803 -0.31791466 -0.19965284 -0.00832994
0.220174 0.2379266 -0.3292292 -0.08393741 0.033703867 0.011703625 -0.18971907 0.26278567
-0.33194342 0.12750265 -0.17347936 -0.093947016 -0.24419193 0.44930324 0.07888622 -0.15548193
0.28239375 0.37207484 -0.12859897 -0.014554534 -0.3480675 -0.33911538 0.011081693 0.0417911
-0.012887513 -0.03482847 -0.15324767 -0.029192256 -0.052161608 0.27887756 -0.5050365 0.06318202
-0.008789074 0.30386534 -0.19841005 -0.10901891 -0.29178447 0.04141092 -0.001913145 0.62317353
0.10332208 0.6505039 -0.033610046 0.38605392 0.1356944 0.13156071 0.009881741 -0.017922303
-0.38355088 0.24031675 0.21089037 -0.2650984 0.10165172 0.030587003 -0.18200633 0.48127282
0.31852156 0.12517577 0.29202193 -0.17785266 0.048019465 -0.3736249 -0.26414922 -0.1622243
0.17162867 -0.34101117 0.36437538 0.14855881 0.23925656 -0.044015847 -0.046701778 0.5189542
0.01654088 -0.2567894 0.08328788 -0.36703697 -0.083502986 -0.10773231 -0.209947 -0.15970129
-0.05500061 0.30642244 0.054733574 0.27546245 0.04406023 -0.17301457 -0.058998425 0.34352368
-0.32303518 -0.22564985 -0.07450395 -0.0902698 -0.3096434 0.32089713 0.0087686535 0.12913215
-0.39351654 -0.10978018 0.045937594 -0.3294805 0.012810183 0.21982154 -0.55566865 0.24968651
0.493225 -0.4735928 -0.07198762 -0.3528265 -0.12843485 0.66354793 -0.53279567 -0.047412775
00000000: 96d8 213d 263c ecbe 8564 6b3e db9e 863e
00000010: 340b 21be 9908 14bf 9527 9a3e e1a6 843e
00000020: 0273 fd3d 4ab1 163d 6f2c ad3e 57d7 243e
00000030: 2b18 e23e 635a 7e3d 5211 c53e b507 ecbd
00000040: e383 023e c0c5 01bf 5e98 e53e ef3e 18be
00000050: 87db e3bd f517 603e 3380 81be 1cbb bdbc
00000060: 507c 3cbe 5b7f 9d3e f2af 9c3c 39b9 083e
00000070: f577 cc3e 0cd7 f1bd 015f 523e fea0 863d
00000080: 4e7a 823a f144 673e c8fd 573e 4a7f 9cbe
00000090: 1e8f b4bd 4c32 263d 1478 98bd 419f f2bd
000000a0: 6ddf 1b39 7d42 41bd 9e8b 193e f4ff db3e
000000b0: 52f4 1a3d 1ed8 bbbe 157f 983e bb22 133d
000000c0: 61f0 723e 147c 9abe e86e 24be 90a5 77be
000000d0: f8ea ed3c db98 2fbe 06d6 42be 1378 333e
000000e0: 9e86 373e 4d9b 393d 4961 303d 7b10 0f3e
000000f0: 1622 5e3e 579f 84be 38aa 94bc 8d49 563d
00000100: b060 043e c0fd 54be f5d4 11bd bbd2 563e
00000110: 027d 0ebe be23 1ebe 377a b03e 2d16 80bd
00000120: 861b 07bb 74ad c1be 1fc0 d03e 4ca2 c4be
00000130: 3f38 a33d 93cd 67be a95f 95be c2c9 45bd
00000140: 260d 87be 0129 5e3d e84a 86bd 0b6e 92bc
00000150: f311 c93d dcb8 b5be 2338 1e3e 55e7 0c3f
00000160: c81a 1e3f b5ea e33d f7da d83e a084 bc3d
00000170: 638c 813e 7a0d e7bd 59ad f7bd 73f4 0cbf
00000180: dccf 6a3c b2f1 a6bd 469a 87be bd7a f03e
00000190: b6c9 f83e 061a 70be 5d54 e4be 446c 5a3e
000001a0: 8ae8 c03e bc06 3d3e c488 02bf 1bbd a1be
000001b0: b485 1fbe 04fa 643e 5489 61bc 6450 abbb
000001c0: 3869 81be d98a 153e 5877 c03e c360 e93e
000001d0: 7ddd cdbe 7478 d8bd 6711 ab3e dc21 643d
000001e0: 373a 153f 4711 4a3e 6309 d03e 7e34 b33b
000001f0: 74a3 b63e 7f2e a5bd 7571 3dbf 0f82 9abe
00000200: d9f0 853e 9e32 be3e 39c0 01be 3526 8a3d
00000210: 1926 253e 7032 1d3e cbae 8e3d 06d2 133e
00000220: 1f1e 0dbe ba75 a5be b9bb 28bd 13cd 203e
00000230: f554 22bd b6c5 a2be cb71 4cbe 4d7a 08bc
00000240: 4b75 613e 08a3 733e bb90 a8be 60e7 abbd
00000250: 110d 0a3d 90c0 3f3c b745 42be d88b 863e
00000260: 7df4 a9be 0e90 023e 93a4 31be 4b67 c0bd
00000270: 730d 7abe 130b e63e 198f a13d a836 1fbe
00000280: ea95 903e 9880 be3e 73af 03be 2476 6ebc
00000290: e735 b2be 88a0 adbe fd8f 353c 252d 2b3d
000002a0: 2626 53bc 4ca8 0ebd f5ec 1cbe 9924 efbc
000002b0: 69a7 55bd 0ac9 8e3e 124a 01bf 9365 813d
000002c0: 0c00 10bc 3d94 9b3e 012c 4bbe 4e45 dfbd
000002d0: c664 95be 7f9e 293d 7ec2 faba 4d88 1f3f
000002e0: 879a d33d 6c87 263f b0aa 09bd dca8 c53e
000002f0: 79f3 0a3e dab7 063e 07e7 213c cbd1 92bc
00000300: c860 c4be 9815 763e a5f3 573e faba 87be
00000310: c72e d03d 9891 fa3c de5f 3abe 6469 f63e
00000320: 4215 a33e 142e 003e e683 953e 021f 36be
00000330: 0fb0 443d c34b bfbe 913e 87be 201e 26be
00000340: 6dbf 2f3e 0499 aebe 698f ba3e cd1f 183e
00000350: acff 743e f649 34bd 5d4a 3fbd 2fda 043f
00000360: bd80 873c e679 83be d692 aa3d 45ec bbbe
00000370: 9d03 abbd c2a2 dcbd 59fc 56be bc88 23be
00000380: 5248 61bd 67e3 9c3e 5030 603d 6a09 8d3e
00000390: 8078 343d bb2a 31be 55a8 71bd 56e2 af3e
000003a0: de64 a5be c110 67be 8795 98bd 5fdf b8bd
000003b0: 9489 9ebe a14c a43e 66aa 0f3c 383b 043e
000003c0: 007b c9be 6ed4 e0bd 0f29 3c3d abb1 a8be
000003d0: cde1 513c e618 613e 4d40 0ebf d2ad 7f3e
000003e0: fd87 fc3e c17a f2be 3f6e 93bd ada5 b4be
000003f0: 6d84 03be 47de 293f 4c65 08bf e633 42bd

weight_hh_l0 f4 [512, 128]
-0.45618337 -0.19764446 0.07493501 -0.44992003 0.08323436 0.23488204 0.013655499 0.32668558
0.0681921 -0.12623079 0.042772993 0.80368334 -0.17559119 -0.33862132 -0.19365256 0.09749856
0.47941157 0.092418 -0.21722504 -0.21984547 -0.32489237 -0.061346114 0.0036227428 0.29718933
0.4542843 -0.055136006 0.031816244 -0.43483424 0.2328516 0.08622493 0.27201518 -0.052710127
-0.27498418 -0.05427395 -0.50414616 -0.02453946 -0.11834406 0.16824095 -0.25188512 -0.34650794
-0.20153832 0.29929915 0.2795029 -0.18638444 -0.15496561 -0.33825564 0.022324037 0.07613562
0.1884422 0.12885906 -0.33036062 0.4772995 9.134716e-05 -0.03099083 0.08041742 -0.28592038
-0.345204 -0.14594312 0.3051309 -0.05512426 0.044985987 0.23237157 0.37859237 -0.5299985
0.17283739 0.2783833 0.20280702 -0.24513492 -0.4619394 -0.062737815 -0.20902619 -0.0674942
0.2520655 -0.13740306 -0.0060251723 -0.59717596 -0.1391967 -0.19532113 -0.52760464 0.03982829
0.21340406 -0.109310955 0.5059743 -0.46795446 0.7235332 0.0057843933 -0.41326126 0.36797404
-0.127578 -0.20019583 0.15063113 0.51570827 -0.075194985 0.0813009 0.53124124 -0.5448698
-0.26964137 0.27671537 -0.3540565 -0.36497375 0.15276505 0.111410424 0.05345992 0.007745383
-0.18413627 -0.02181382 0.1604003 0.24935772 0.22209035 0.18524896 0.12834491 0.27009857
-0.29875514 -0.2951186 -0.38680926 0.7216082 0.118764594 -0.25589132 -0.66147757 0.24082223
-0.13091 0.39814526 -0.016317239 0.30448768 0.3651045 -0.50790876 -0.20120904 0.18181737
0.39203578 0.26437563 -0.117034286 0.27719447 -0.1776637 -0.2423784 0.2799604 -0.27960888
0.15166615 0.761982 0.1712293 -0.05158601 0.06718103 -0.14339986 0.45213747 0.34017298
0.091601394 -0.29350615 0.17586848 -0.23014103 -0.07393328 0.06886692 0.06425183 -0.40359974
0.075132094 0.22836399 0.25689209 0.012006725 -0.10616043 0.45744443 0.07560241 0.19755448
0.16109903 0.010038314 -0.47723386 0.12260479 -0.029797347 0.20228557 -0.07053114 -0.12142727
-0.4471219 -0.5787337 -0.08498724 -0.012617318 -0.5871309 0.035141055 -0.05087904 0.52876425
0.10317137 0.054247815 -0.36331415 0.2251577 0.07969803 0.16935539 0.07004051 -0.7331482
-0.08652075 -0.03106688 -0.29071343 0.13892172 -0.18144456 -0.48769656 0.28298804 -0.38700843
0.064133026 0.084089965 0.5762945 0.2995935 -0.8395691 0.27445495 0.03275366 0.7013251
0.0378013 -0.09805367 0.29178855 0.06835477 0.409706 -0.22232345 -0.10154063 0.14626734
0.53333867 -0.32690504 0.1808651 0.12095329 0.18153922 -0.28866354 0.2520276 0.3839228
0.04164304 -0.47402853 0.06007333 0.29951346 -0.06007019 0.12593812 -0.13814758 -0.5624633
0.24452618 -0.40982625 -0.065162376 -0.51251507 -0.0055265226 -0.038229138 0.26331154 -0.20112269
0.72638434 -0.2519841 0.35357493 0.066620335 0.3083298 -0.02019556 0.3982534 0.31229404
-0.099287994 0.0017270896 0.042388216 0.3905118 -0.09604008 0.13362983 -0.053115815 -0.6933843
-0.60554445 0.05017151 0.01496786 0.2852067 0.22873397 -0.31756166 -0.0036844083 0.039531022
00000000: de90 e9be 4f63 4abe 8777 993d eb5b e6be
00000010: c776 aa3d eb84 703e 50bb 5f3c 5543 a73e
00000020: 4da8 8b3d a542 01be bc32 2f3d 31be 4d3f
00000030: 2dce 33be c65f adbe db4c 46be 53ad c73d
00000040: 6f75 f53e a645 bd3d 3e70 5ebe 2c1f 61be
00000050: 4b58 a6be 1046 7bbd 8a6b 6d3b 3329 983e
00000060: f497 e83e 4bd6 61bd c051 023d 98a2 debe
00000070: a670 6e3e b296 b03d 9345 8b3e 93e6 57bd
00000080: baca 8cbe 5d4e 5ebd b90f 01bf fa06 c9bc
00000090: 5f5e f2bd 5b47 2c3e 16f7 80be 7d69 b1be
000000a0: 1060 4ebe bd3d 993e 011b 8f3e 90db 3ebe
000000b0: 4eaf 1ebe d82f adbe e6e0 b63c feec 9b3d
000000c0: fef6 403e a1f3 033e 0725 a9be 9a60 f43e
000000d0: a291 bf38 7be0 fdbc e3b1 a43d 2864 92be
000000e0: 94be b0be 1d72 15be 1e3a 9c3e fac9 61bd
000000f0: 3a43 383d d0f2 6d3e dcd6 c13e fbad 07bf
00000100: 49fc 303e 4288 8e3e a5ac 4f3e a604 7bbe
00000110: 5283 ecbe af7c 80bd f60a 56be 663a 8abd
00000120: bb0e 813e 63b3 0cbe cf6e c5bb 86e0 18bf
00000130: 9489 0ebe 4302 48be 1911 07bf fd22 233d
00000140: 9886 5a3e 6cde dfbd 8887 013f ba97 efbe
00000150: 7939 393f 028b bd3b fb96 d3be 1867 bc3e
00000160: cfa3 02be 2300 4dbe 0c3f 1a3e 7505 043f
00000170: d4ff 99bd 1681 a63d 6dff 073f 967c 0bbf
00000180: 6f0e 8abe a3ad 8d3e e546 b5be d7dd babe
00000190: 716e 1c3e 262b e43d caf8 5a3d fbcc fd3b
000001a0: 388e 3cbe e5b2 b2bc fa3f 243e a157 7f3e
000001b0: a76b 633e e7b1 3d3e d96c 033e 5c4a 8a3e
000001c0: 6ff6 98be c919 97be dd0b c6be 51bb 383f
000001d0: da3a f33d 3004 83be 9856 29bf 1a9a 763e
000001e0: 450d 06be b2d9 cb3e bbab 85bc cfe5 9b3e
000001f0: faee ba3e 4f06 02bf be09 4ebe 552e 3a3e
00000200: eab8 c83e 3e5c 873e acaf efbd 6fec 8d3e
00000210: 79ed 35be 0b32 78be f856 8f3e e528 8fbe
00000220: 5f4e 1b3e 4111 433f bc56 2f3e da4b 53bd
00000230: 3596 893d 6ad7 12be 907e e73e 272b ae3e
00000240: 8399 bb3d 7046 96be de16 343e 17aa 6bbe
00000250: 556a 97bd 1a0a 8d3d 7796 833d a0a4 cebe
00000260: dbde 993d 40d8 693e 5c87 833e dbb7 443c
00000270: a46a d9bd 2836 ea3e 70d5 9a3d b94b 4a3e
00000280: 25f7 243e be77 243c ff57 f4be 3818 fb3d
00000290: 9119 f4bc f323 4f3e a172 90bd dcae f8bd
000002a0: 29ed e4be e427 14bf ca0d aebd deb8 4ebc
000002b0: 364e 16bf 11f0 0f3d 8a66 50bd 185d 073f
000002c0: 834b d33d f532 5e3d 5004 babe bd8f 663e
000002d0: b938 a33d 806b 2d3e 6671 8f3d 9aaf 3bbf
000002e0: ca31 b1bd f87f febc 64d8 94be 7f41 0e3e
000002f0: 9acc 39be 5db3 f9be cfe3 903e f825 c6be
00000300: 2d58 833d 5c37 ac3d 0988 133f 5264 993e
00000310: 00ee 56bf 5c85 8c3e b428 063d 0b8a 333f
00000320: 89d5 1a3d 5dd0 c8bd 4f65 953e 96fd 8b3d
00000330: fcc4 d13e c2a8 63be 89f4 cfbd 1bc7 153e
00000340: e288 083f 1960 a7be b334 393e 5cb6 f73d
00000350: 6be5 393e b5cb 93be c309 813e 8791 c43e
00000360: e491 2a3d deb3 f2be 740f 763d d459 993e
00000370: 290c 76bd ecf5 003e 8f76 0dbe 98fd 0fbf
00000380: 1265 7a3e bfd4 d1be da73 85bd 3034 03bf
00000390: d517 b5bb 2896 1cbd c5d0 863e 1bf3 4dbe
000003a0: 53f4 393f 0f04 81be c607 b53e 3e70 883d
000003b0: 67dd 9d3e 2971 a5bc dfe7 cb3e 01e5 9f3e
000003c0: 8157 cbbd 835f e23a 449f 2d3d 2af1 c73e
000003d0: a9b0 c4bd 42d6 083e f88f 59bd a281 31bf
000003e0: f604 1bbf a480 4d3d c13b 753c 9d06 923e
000003f0: 3d39 6a3e 7197 a2be 1d76 71bb 48eb 213d

bias_ih_l0 f4 [512]
0.2798275 0.04474587 0.09869689 0.24815872 0.21631484 0.14485215 0.14996976 0.46879968
0.08339708 0.15253496 -0.01845516 -0.04229075 0.11506437 0.027003957 0.10142819 -0.007227899
0.1556046 0.16052444 0.095896706 -0.0030624513 0.20305178 0.14266823 0.13477735 -0.07174582
0.13559088 0.1718833 0.10103376 0.02817394 0.21179825 0.23985666 0.073187 0.18032745
0.18773925 0.0366052 0.15952316 0.26372102 -0.08530996 0.22130544 0.15201215 0.1405013
0.282241 0.19755827 0.24914029 0.1441692 -0.0547504 0.13236791 0.22909544 0.19503716
0.05638274 0.18740568 0.14364055 0.06484096 0.18535729 0.3224958 0.076124646 0.104236275
0.17177226 0.23360737 0.06280307 0.21777159 0.13622263 0.26447877 0.07135135 0.10178242
0.22406659 0.19888012 0.042529613 0.24266763 0.15515265 0.06404917 0.27088308 0.14325404
0.12649067 0.1083796 0.25964665 0.09450527 0.060193144 -0.0047522313 0.071264826 0.10819223
0.3583052 0.17193502 0.13165578 0.03436032 0.34021482 0.06488968 0.2213322 -0.03755055
0.14756437 0.068834856 0.12531273 0.2127749 0.09039348 0.15801981 0.16983455 0.20817843
0.12494421 0.25360972 0.11530058 0.18038212 0.17868869 0.058695298 0.14903489 0.24737178
0.23577408 0.154338 0.034013852 0.2468401 0.24134564 0.1077775 0.24489713 0.224089
0.14760193 0.0020346497 0.31718746 0.08976219 0.22724526 0.31338283 0.10385385 0.18233879
0.11375457 0.14642707 0.041980777 0.3369903 0.18877117 0.24357265 0.3848538 0.21292026
-0.068752594 -0.11623673 0.063922346 0.057191465 -0.049469605 -0.14400057 0.06365527 -0.09671977
0.1483541 0.011289995 0.03518654 0.10013147 0.19296929 -0.11167976 -0.019168649 0.18854539
-0.12788114 -0.16655824 0.051083215 0.20617904 -0.100415014 0.027451437 0.22410882 -0.11691326
0.021044137 0.0804036 0.040992506 -0.29723918 0.08905623 -0.017569607 0.14753668 0.038789403
-0.13030113 -0.12184616 0.07540658 -0.018302053 -0.056300595 0.09350314 0.0175391 -0.069541655
-0.052184273 -0.039451722 0.05503239 0.13842632 -0.0550327 0.13089561 -0.04082455 0.10835279
-0.0071630166 -0.04743728 0.17691663 0.09346272 0.0599063 -0.15391864 -0.102048256 0.17083256
-0.016278934 0.24835838 0.11577647 0.086337395 0.24113366 0.11610703 -0.0028929026 0.048881263
0.09887396 0.092585325 0.014827743 0.06425871 0.16698925 -0.10871956 -0.17023778 0.10992437
0.11757604 -0.04541428 0.0055311215 0.21177459 -0.05597561 0.13436314 0.09653054 0.10084585
-0.0638837 -0.04030342 0.10523294 0.083679095 0.021054886 0.16327226 -0.091311626 -0.21085253
-0.08198379 0.0035782137 0.0857234 -0.044737585 -0.099792115 0.038551554 0.1071691 -0.22773245
-0.15598091 -0.17270994 0.04693222 -0.046654023 0.11893513 -0.01546293 -0.027062165 0.0326512
0.094629966 -0.039832726 -0.07663545 0.08696132 0.089447156 0.021368103 0.017825484 0.19745737
-0.021483606 -0.053771317 -0.3103804 0.09560273 -0.08075204 -0.16360451 0.020271163 0.048977245
-0.07622432 0.11969549 0.13548067 0.047992386 0.16770749 0.018684877 -0.052829437 -0.18199995
00000000: 8d45 8f3e 7247 373d 9821 ca3d 521d 7e3e
00000010: a381 5d3e 1f54 143e ac91 193e 8306 f03e
00000020: 17cc aa3d 2032 1c3e 472f 97bc 1139 2dbd
00000030: dea6 eb3d 6737 dd3c 95b9 cf3d 03d8 ecbb
00000040: d056 1f3e 8560 243e 7e65 c43d 68b3 48bb
00000050: ceec 4f3e 9f17 123e 1303 0a3e 79ef 92bd
00000060: 56d8 0a3e 2d02 303e caea ce3d 09cd e63c
00000070: a4e1 583e fc9c 753e 11e3 953d c2a7 383e
00000080: b83e 403e 56ef 153d 0a5a 233e 7106 873e
00000090: fdb6 aebd e59d 623e 13a9 1b3e 93df 0f3e
000000a0: e481 903e b74c 4a3e a21e 7f3e 17a1 133e
000000b0: f541 60bd 748b 073e ff97 6a3e d2b7 473e
000000c0: 97f1 663d 46e7 3f3e 8216 133e 56cb 843d
000000d0: 4dce 3d3e 2b1e a53e 3de7 9b3d d479 d53d
000000e0: 11e5 2f3e c536 6f3e e59e 803d 84ff 5e3e
000000f0: f27d 0b3e c369 873e a820 923d 4d73 d03d
00000100: b671 653e 3ba7 4b3e 8833 2e3d dd7d 783e
00000110: 56e0 1e3e 362c 833d 30b1 8a3e 30b1 123e
00000120: c586 013e 20f6 dd3d 68f0 843e fb8b c13d
00000130: 168d 763d 9bb8 9bbb 4bf3 913d e393 dd3d
00000140: c773 b73e bc0f 303e c6d0 063e 68bd 0c3d
00000150: a330 ae3e e1e4 843d e9a4 623e 9bce 19bd
00000160: 1d1b 173e 4af9 8c3d fb51 003e aae1 593e
00000170: 3820 b93d f2cf 213e 1ce9 2d3e ba2c 553e
00000180: c0e2 ff3d 22d9 813e b622 ec3d 17b6 383e
00000190: 2bfa 363e 7b6a 703d 9a9c 183e 074f 7d3e
000001a0: c36e 713e c80a 1e3e 1c52 0b3d a7c3 7c3e
000001b0: 5023 773e 73ba dc3d 50c6 7a3e 9677 653e
000001c0: f624 173e c257 053b 6566 a23e 3dd5 b73d
000001d0: fbb2 683e b773 a03e 54b1 d43d 05b7 3a3e
000001e0: 28f8 e83d faf0 153e 09f4 2b3d fe89 ac3e
000001f0: 3b4d 413e 1c6b 793e 8f0b c53e c507 5a3e
00000200: 29ce 8cbd 860d eebd b8e9 823d 9941 6a3d
00000210: a4a0 4abd e374 13be b25d 823d 0415 c6bd
00000220: 23ea 173e acf9 383c c31f 103d ba11 cd3d
00000230: be99 453e 5cb8 e4bd 9207 9dbc 0b12 413e
00000240: 46f3 02be 3e8e 2abe a23c 513d 9920 533e
00000250: 63a6 cdbd d6e1 e03c c87c 653e 3870 efbd
00000260: c164 ac3c a5aa a43d c2e7 273d bc2f 98be
00000270: 1d63 b63d 23ee 8fbc db13 173e a3e1 1e3d
00000280: a96d 05be 7b8a f9bd c46e 9a3d 30ee 95bc
00000290: 749b 66bd 937e bf3d 29ae 8f3c db6b 8ebd
000002a0: 2dbf 55bd 2198 21bd a569 613d a1bf 0d3e
000002b0: f869 61bd 8009 063e a537 27bd 11e8 dd3d
000002c0: bdb7 eabb 984d 42bd a229 353e 6269 bf3d
000002d0: 4f60 753d d99c 1dbe adfe d0bd bbee 2e3e
000002e0: 665b 85bc a951 7e3e 371c ed3d a9d1 b03d
000002f0: beeb 763e 86c9 ed3d da96 3dbb b837 483d
00000300: 6e7e ca3d 609d bd3d 10f0 723c 129a 833d
00000310: 3bff 2a3e 5ca8 debd d052 2ebe 0720 e13d
00000320: b5cb f03d 5304 3abd 693e b53b 70db 583e
00000330: ae46 65bd 7e96 093e ceb1 c53d 4588 ce3d
00000340: 75d5 82bd 3315 25bd 5e84 d73d f25f ab3d
00000350: 4c7b ac3c d830 273e 9701 bbbd bae9 57be
00000360: 1ee7 a7bd 7780 6a3b c08f af3d c23e 37bd
00000370: cf5f ccbd 3ce8 1d3d 797b db3d b232 69be
00000380: 76b9 1fbe e0da 30be 003c 403d 4a18 3fbd
00000390: 4394 f33d 3b58 7dbc 79b1 ddbc 44bd 053d
000003a0: 5bcd c13d a427 23bd 0cf3 9cbd c718 b23d
000003b0: 1230 b73d 290c af3c c006 923c 4432 4a3e
000003c0: 63fe afbc 503f 5cbd 2eea 9ebe 5dcb c33d
000003d0: 5361 a5bd f187 27be b60f a63c 5d9c 483d
000003e0: 7f1b 9cbd e922 f53d 72bb 0a3e aa93 443d
000003f0: 83bb 2b3e 0711 993c ae63 58bd 325e 3abe

bias_hh_l0 f4 [512]
0.23659648 0.079293005 0.15882707 0.2950926 0.22718781 0.21942174 0.22980128 0.47215453
0.11356071 0.07714134 0.07018642 -0.043626875 0.20803866 0.04044245 0.25830668 0.0578232
0.17065789 0.14542288 0.042394616 -0.030029722 0.2840538 0.15218408 -0.027841179 -0.0014306599
0.1457322 0.20696586 0.07138924 0.049112603 0.1599149 0.10740503 0.19885437 0.05474236
0.18934429 0.099737324 0.1776433 0.38533917 0.052885246 0.16743825 0.2938281 -0.013049352
0.18973514 0.20422335 0.15414351 0.08887113 0.0206529 0.05749268 0.28042334 0.18580976
0.08752226 0.12200547 0.06084693 0.1484353 0.15821373 0.22424924 0.11351148 0.08823064
0.16885917 0.2380586 0.16193336 0.2547511 0.18668632 0.1367501 0.20180279 0.061052017
0.18981123 0.054751404 0.071418226 0.21527474 0.05028925 -0.015494456 0.37376317 0.16457717
0.053554334 0.16843596 0.24289896 0.122191176 0.074630834 -0.07079575 0.07301269 0.08792277
0.2806123 0.27845094 0.0821506 0.047518905 0.26887786 0.21328731 0.2710108 0.037590306
0.13294679 0.043952703 0.15736946 0.24626875 0.012119572 -0.007334029 0.02889485 0.26809755
0.11097695 0.28677717 0.20696318 0.15854394 0.14147715 -0.018362718 0.11524537 0.09485101
0.14318432 0.22190268 0.18615331 0.22689453 0.28696212 0.25109908 0.23345429 0.23979707
0.06878857 0.0018956071 0.26824194 0.041221254 0.21280992 0.3607307 -0.036822904 0.13702604
0.05621892 0.055097256 -0.020225115 0.21226215 0.1084054 0.30874002 0.38567254 0.2272464
-0.17220704 -0.12851256 -0.081955045 0.18207726 0.0040365118 -0.12445709 0.09012613 -0.14886047
0.13715386 -0.008140885 0.111237064 0.14583929 0.21682933 -0.23139511 -0.116455294 0.08831431
-0.030072099 -0.17144772 0.12929495 0.20714918 -0.10724635 0.015279559 0.15478617 -0.094362535
-0.12121554 0.1725182 0.008424497 -0.31617954 0.2032359 0.048711043 0.29118097 0.16547136
-0.094834566 -0.07581542 0.054590855 -0.03690116 0.030806005 0.07129594 0.045618836 -0.021655237
-0.056033604 0.02584221 0.08002217 0.032784015 -0.027015978 0.11417608 0.06118564 0.0834174
-0.06367228 0.04174226 0.07284352 0.060772385 0.1570077 -0.13865066 -0.032841887 0.101643324
0.08336192 0.14335313 0.16480471 0.06080356 0.26650402 0.09911186 0.010540323 0.10527205
0.10643977 0.08152179 -0.0007731426 0.0038028618 0.09203865 0.019508995 -0.21794525 0.014893384
0.16579005 -0.024658693 0.042969417 0.12221695 -0.21602105 0.011936686 -0.0044424394 0.18466173
0.0087129995 0.04334902 0.09611885 0.18098444 0.052204642 0.2465146 -0.09318175 -0.1950966
-0.02598128 -0.111473344 0.08744439 -0.0443606 -0.108013034 0.02868115 0.07550622 -0.107733674
-0.013017289 -0.10687405 0.044636413 -0.009410712 0.18593062 0.13643354 0.11033172 0.15456301
-0.04141902 -0.028567135 0.000764223 0.08909418 0.09320236 0.07838462 0.1476642 0.04062832
-0.07887065 0.024158245 -0.2780294 0.1479972 -0.07841945 -0.23441362 0.03285898 0.013243716
-0.15127784 0.15358576 0.10843012 -0.07360196 0.08157484 -0.010216308 -0.14192754 -0.15679897
00000000: 5946 723e 5f64 a23d 90a3 223e 6116 973e
00000010: eca3 683e 18b0 603e 0751 6b3e 3dbe f13e
00000020: 8492 e83d 47fc 9d3d e6bd 8f3d 18b2 32bd
00000030: 1608 553e fca6 253d c640 843e 05d8 6c3d
00000040: f1c0 2e3e bce9 143e faa5 2d3d e400 f6bc
00000050: 806f 913e 25d6 1b3e 2f13 e4bc fb84 bbba
00000060: d23a 153e dcee 533e 8634 923d 4c2a 493d
00000070: bbc0 233e 2bf7 db3d 7ba0 4b3e 8639 603d
00000080: 78e3 413e 1543 cc3d 20e8 353e 2d4b c53e
00000090: 339e 583d ef74 2b3e a370 963e f3cc 55bc
000000a0: ee49 423e ed1f 513e ccd7 1d3e 1102 b63d
000000b0: 4530 a93c 727d 6b3d a693 8f3e ea44 3e3e
000000c0: df3e b33d 01de f93d a13a 793d 6cff 173e
000000d0: c802 223e 98a1 653e b578 e83d 44b2 b43d
000000e0: 6be9 2c3e a2c5 733e dcd1 253e bc6e 823e
000000f0: b32a 3f3e 3808 0c3e 64a5 4e3e ae11 7a3d
00000100: e05d 423e 0243 603d b843 923d fb70 5c3e
00000110: 1afc 4d3d 75dc 7dbc e35d bf3e eb86 283e
00000120: ca5b 5b3d 7a7a 2c3e 81ba 783e 5e3f fa3d
00000130: 0dd8 983d 5dfd 90bd ad87 953d da10 b43d
00000140: 6aac 8f3e 1f91 8e3e 933e a83d 2fa3 423d
00000150: 5caa 893e fd67 5a3e edc1 8a3e 4bf8 193d
00000160: 3423 083e c007 343d 7625 213e e02d 7c3e
00000170: 2b91 463c 4b52 f0bb e4b4 ec3c 1544 893e
00000180: e247 e33d 75d4 923e 28ee 533e 5859 223e
00000190: 63df 103e 696d 96bc c405 ec3d 3f41 c23d
000001a0: e99e 123e 753a 633e f99e 3e3e 0a57 683e
000001b0: b3ec 923e 0f90 803e a40e 6f3e 5d8d 753e
000001c0: 06e1 8c3d 0576 f83a 0257 893e 9ed7 283d
000001d0: d8ea 593e b2b1 b83e 9dd3 16bd 8e50 0c3e
000001e0: cf45 663d a9ad 613d 24af a5bc 405b 593e
000001f0: a603 de3d 2c13 9e3e df76 c53e 48b3 683e
00000200: 0b57 30be cc98 03be 0cd8 a7bd 7672 3a3e
00000210: b744 843b 5ce3 febd 0c94 b83d e16e 18be
00000220: 1072 0c3e 5961 05bc 42d0 e33d e556 153e
00000230: 8208 5e3e d7f2 6cbe 1d80 eebd 22de b43d
00000240: c359 f6bc fe8f 2fbe e565 043e ea1e 543e
00000250: f9a3 dbbd 1e57 7a3c 4480 1e3e 2541 c1bd
00000260: da3f f8bd 9ca8 303e e706 0a3c 49e2 a1be
00000270: 121d 503e 3b85 473d ac15 953e 5371 293e
00000280: a038 c2bd 1d45 9bbd a99a 5f3d ac25 17bd
00000290: e05c fc3c 9b03 923d d1da 3a3d 5366 b1bc
000002a0: 7e83 65bd 0bb3 d33c aae2 a33d 8848 063d
000002b0: 9d50 ddbc 26d5 e93d cb9d 7a3d bed6 aa3d
000002c0: 9d66 82bd eff9 2a3d fc2e 953d 77ec 783d
000002d0: a0c6 203e 70fa 0dbe 3785 06bd 602a d03d
000002e0: a8b9 aa3d 2acb 123e 91c2 283e 270d 793d
000002f0: 3773 883e 29fb ca3d 52b1 2c3c df98 d73d
00000300: 18fd d93d e5f4 a63d b9ac 4aba 6f39 793b
00000310: c27e bc3d 54d1 9f3c 0a2d 5fbe 6103 743c
00000320: dec4 293e 0701 cabc b300 303d e14c fa3d
00000330: 9f34 5dbe 1792 433c e291 91bb f717 3d3e
00000340: f8c0 0e3c be8e 313d f6d9 c43d fc53 393e
00000350: 89d4 553d 536e 7c3e 13d6 bebd 67c7 47be
00000360: b1d6 d4bc 234c e4bd 0b16 b33d 76b3 35bd
00000370: f035 ddbd bbf4 ea3c 01a3 9a3d 79a3 dcbd
00000380: 7846 55bc c8e0 dabd acd4 363d 632f 1abc
00000390: 9964 3e3e 3cb5 0b3e 99f5 e13d c445 1e3e
000003a0: fea6 29bd a005 eabc 2356 483a 0277 b63d
000003b0: e1e0 be3d 1e88 a03d 4935 173e e269 263d
000003c0: ef86 a1bd 83e7 c53c df59 8ebe 948c 173e
000003d0: 609a a0bd 200a 70be 2397 063d 2cfc 583c
000003e0: 94e8 1abe 9645 1d3e 9c10 de3d a0bc 96bd
000003f0: b610 a73d 4d62 27bc 7455 11be e98f 20be

weight f4 [28, 128]
-0.3715928 -0.023556253 -0.16277456 0.028466836 -0.12244702 -0.16495886 0.060602434 -0.23544978
0.25783023 0.26269665 -0.0152221015 -0.023108605 -0.23210703 0.4086691 -0.19820026 -0.3162559
0.09251768 0.19348069 0.24584989 -0.31399313 0.0025219303 -0.16883862 -0.30312943 0.3036215
0.048083536 -0.04020438 0.20126809 0.65145606 -0.14361364 -0.0023069633 0.38657546 -0.41884923
-0.325853 -0.37522772 -0.06375738 0.2493208 -0.3921109 -0.2543841 -0.044356335 -0.28619698
0.6655079 -0.35915434 0.05271219 0.024673361 0.12588248 -0.055092435 0.19979753 0.06679656
-0.23841162 0.24291055 -0.24830078 -0.0870204 -0.017312966 0.17437544 -0.26724908 0.3390617
-0.21141866 0.373641 -0.23684448 0.21165615 0.0808163 -0.3988574 -0.15437922 -0.28379887
0.082386166 0.22271614 0.042888436 -0.11910503 0.34155273 0.17867582 -0.102516145 0.015074835
0.29710346 -0.053636413 0.16959822 -0.13931556 -0.349996 0.13458543 -0.5364146 0.15617488
0.21181008 -0.15876126 0.2813924 -0.35413992 -0.33860335 0.17040038 0.4044187 -0.20065506
0.3733166 -0.1173642 -0.1941773 -0.083041884 0.31416458 -0.0813886 -0.0015829216 -0.32766515
0.07773455 -0.53400815 0.027942682 0.11942699 0.15256263 0.23081027 -0.06395342 -0.08561327
0.112803936 -0.6624116 -0.1935772 -0.01775719 0.22682013 0.054194 0.13506529 0.29762354
0.35219324 -0.004680599 0.48460987 -0.3440503 0.28354982 0.31205472 -0.27166978 -0.29151157
-0.323351 0.14183779 -0.095819145 0.021980263 0.174164 -0.2150523 -0.5016907 -0.5005683
-0.03120105 -0.259482 0.18393202 -0.4012179 0.10103356 0.10158771 0.31431583 0.32270426
0.115768366 -0.024735285 -0.12703958 0.07865402 -0.118954994 0.43593833 -0.2761069 -0.4082219
0.36229143 -0.19515967 -0.05080186 0.09463303 -0.06820594 -0.1877669 -0.007274227 -0.8383713
0.61049914 0.26596397 -0.2090897 -0.48726907 -0.12874778 -0.13165036 0.050145004 0.31239986
-0.15345813 0.09603346 0.43028453 0.033603802 0.106813885 -0.012390367 0.4374241 -0.1734881
-0.40119696 0.367493 0.30190712 -0.42746916 -0.03607379 0.16950324 0.05775044 0.15658069
0.24436837 -0.20068175 -0.41386423 -0.09175409 0.024029551 -0.21508598 0.28460824 0.3570688
0.09412109 -0.36565542 -0.24555513 -0.28136995 0.21331167 0.19803387 0.25193268 -0.26853347
0.44460016 -0.12216119 -0.20975877 -0.16140261 -0.2809172 -0.5362264 0.5035021 -0.5323117
0.0073810457 0.2350665 -0.27098107 0.3361707 0.0024887 0.048476685 -0.43796873 0.16051131
-0.3213647 0.32320336 0.31511825 0.21030399 -0.21093245 0.17825025 -0.08931912 -0.58763206
-0.15710019 -0.26818353 0.23930626 -0.18180059 -0.6885402 0.06276521 0.069230475 -0.20655562
-0.13957621 0.04160401 0.21748988 -0.3047115 0.0323389 0.068701014 0.05795177 0.010420746
-0.22649817 -0.063200265 0.025019951 0.06958986 -0.12525015 0.17865288 0.29079983 -0.41101807
0.36772946 -0.5124963 -0.054700166 0.1022121 0.037230387 -0.17827728 -0.6234203 0.2629897
-0.22828113 0.13760439 0.40557235 0.19105937 -0.17988369 0.041564725 0.38068938 0.25886944
00000000: 6941 bebe 0bf9 c0bc 60ae 26be 4833 e93c
00000010: 81c5 fabd faea 28be 423a 783d bf19 71be
00000020: 5302 843e 2d80 863e 1f66 79bc 424e bdbc
00000030: 77ad 6dbe 143d d13e 02f5 4abe 4bec a1be
00000040: e979 bd3d cd1f 463e 13c0 7b3e b5c3 a0be
00000050: f846 253b 08e4 2cbe c833 9bbe 4774 9b3e
00000060: 3ef3 443d 59ad 24bd 3919 4e3e d3c5 263f
00000070: 740f 13be 6c30 17bb 38ed c53e 6873 d6be
00000080: 34d6 a6be d91d c0be 3b93 82bd f44d 7f3e
00000090: c3c2 c8be a23e 82be fdae 35bd 6988 92be
000000a0: ba5e 2a3f 14e3 b7be bde8 573d ca1f ca3c
000000b0: 56e7 003e 9ba8 61bd b997 4c3e a3cc 883d
000000c0: 2d22 74be 8bbd 783e 8f42 7ebe c037 b2bd
000000d0: ecd3 8dbc 7a8f 323e dfd4 88be 7f99 ad3e
000000e0: 227e 58be e04d bf3e 5c87 72be 64bc 583e
000000f0: 0483 a53d 0a37 ccbe 9615 1ebe 164e 91be
00000100: 14ba a83d b30f 643e c9ab 2f3d 57ed f3bd
00000110: 00e0 ae3e cbf6 363e fcf3 d1bd 71fc 763c
00000120: f21d 983e dbb1 5bbd 28ab 2d3e bda8 0ebe
00000130: ad32 b3be c3d0 093e 7852 09bf 4fec 1f3e
00000140: bee4 583e 5092 22be aa12 903e d451 b5be
00000150: 6b5d adbe 707d 2e3e f80f cf3e 8578 4dbe
00000160: 5a23 bf3e a45c f0bd 6ad6 46be dd11 aabd
00000170: 2eda a03e 11af a6bd 097a cfba bac3 a7be
00000180: 4b33 9f3d c2b4 08bf 0de8 e43c 2396 f43d
00000190: 6139 1c3e 8759 6c3e 03fa 82bd 0356 afbd
000001a0: c005 e73d ce93 29bf 1a39 46be 8777 91bc
000001b0: 8943 683e 87fa 5d3d 8e4e 0a3e 1d62 983e
000001c0: ac52 b43e b65f 99bb c91e f83e 5c27 b0be
000001d0: 712d 913e a3c5 9f3e 4d18 8bbe 0141 95be
000001e0: 438e a5be ed3d 113e d43c c4bd f40f b43c
000001f0: 0c58 323e ac36 5cbe cd6e 00bf 3e25 00bf
00000200: 5899 ffbc d3da 84be ad58 3c3e 6f6c cdbe
00000210: afea ce3d 380d d03d 01ee a03e 7e39 a53e
00000220: f717 ed3d a7a1 cabc aa16 02be 5c15 a13d
00000230: ad9e f3bd 4f33 df3e e25d 8dbe 7602 d1be
00000240: 437e b93e f0d7 47be 9c15 50bd f6ce c13d
00000250: 8eaf 8bbd f745 40be a45c eebb 809f 56bf
00000260: ac49 1c3f 6e2c 883e 9c1b 56be 557b f9be
00000270: 75d6 03be 5acf 06be d964 4d3d e0f2 9f3e
00000280: 2124 1dbe 31ad c43d 414e dc3e 24a4 093d
00000290: 3dc1 da3d f700 4bbc 0df6 df3e dda6 31be
000002a0: b069 cdbe 0b28 bc3e 9293 9a3e 3ddd dabe
000002b0: 1cc2 13bd 4292 2d3e ba8b 6c3d b056 203e
000002c0: b43b 7a3e 847f 4dbe 03e6 d3be 91e9 bbbd
000002d0: 9fd9 c43c 803f 5cbe 2cb8 913e b9d1 b63e
000002e0: 8fc2 c03d 3037 bbbe ce72 7bbe b90f 90be
000002f0: 606e 5a3e 64c9 4a3e 52fd 803e 387d 89be
00000300: a2a2 e33e a52f fabd 01cb 56be ba46 25be
00000310: 61d4 8fbe 2246 09bf 83e5 003f 9445 08bf
00000320: b3dc f13b 46b5 703e 08be 8abe 911e ac3e
00000330: 7519 233b 7d8f 463d 703d e0be 145d 243e
00000340: ea89 a4be e97a a53e 2e57 a13e ee59 573e
00000350: adfe 57be 3c87 363e f1ec b6bd 0e6f 16bf
00000360: dfde 20be 5a4f 89be b30c 753e ef29 3abe
00000370: 2c44 30bf 0c8b 803d b5c8 8d3d 5183 53be
00000380: 11ed 0ebe f768 2a3d abb5 5e3e 2503 9cbe
00000390: cb75 043d 1eb3 8c3d d65e 6d3d c7bb 2a3c
000003a0: 23ef 67be 246f 81bd a4f6 cc3c 2185 8e3d
000003b0: 9341 00be c8f0 363e b7e3 943e f670 d2be
000003c0: 0947 bc3e f532 03bf 480d 60bd 9454 d13d
000003d0: e47e 183d 528e 36be 7998 1fbf 96a6 863e
000003e0: 87c2 69be 2ae8 0c3e 2ea7 cf3e 11a5 433e
000003f0: 6e33 38be c63f 2a3d b8e9 c23e 898a 843e

bias f4 [28]
-0.004482884 -0.0066675134 0.092908435 0.0001346825 0.09000779 -0.13820818 -0.042897493 0.010517388
0.011177887 -0.038548075 -0.0049829907 0.071242295 -0.056789473 -0.01850357 0.08394614 -0.09542489
-0.041560754 0.11544112 0.011930655 -0.022975296 0.037782755 -0.062294118 -0.15317057 -0.05752732
-0.075616084 -0.026517848 0.05322024 -0.20735683
00000000: 28e5 92bb 287b dabb c746 be3d 8f39 0d39
00000010: 0156 b83d 7286 0dbe 48b5 2fbd 1f51 2c3c
00000020: 7523 373c 96e4 1dbd 5b48 a3bb 7be7 913d
00000030: 149c 68bd cd94 97bc f4eb ab3d 206e c3bd
00000040: 9c3b 2abd 656c ec3d cb78 433c b036 bcbc
00000050: 17c2 1a3d 1e28 7fbd bfd8 1cbe c4a1 6bbd
00000060: 9bdc 9abd f53b d9bc 77fd 593d 5955 54be
