models/ESEU_60-40/ESEU_60-40_3_threshold_train_33.pt (torch, 353807 bytes, 7 tensors)

weight f4 [29, 32]
00000000: 089c d9bf 967c 10c0 fa7b 66be fb08 913f
00000010: 694a 8a3f 1e75 b4bf 75d5 15c0 9e98 483f
00000020: 7401 afbe 6ea4 0c40 bc2f 6dbf 614e 363f
00000030: 1c8a b53e 103d d4bf 7a4a cd3f f3d8 aebf
00000040: 4220 893f 2ae5 883f 9591 0f3f 5714 0040
00000050: f9ad a53f 05b6 5cbf 53fe c8be bbed aa3e
00000060: 0ce4 aa3f 3c5c 833f d30c cd3e e08d 533e
00000070: ad15 c7bf 5fe7 b63e 2576 9dbf 316b d4be
00000080: cf00 0dc0 e1b3 9b3f 2dd8 533f 8f54 ac3d
00000090: bb17 48bf acaf 2640 3f82 283f 9e40 8c3f
000000a0: 6eb6 453d e8d0 e8bf 4d67 fc3e 43ab 643f
000000b0: ea08 433f 1e6b 3340 92d5 acbf b407 dbbe
000000c0: 5922 8ebe 26a7 4d3f 5f00 363d a4f5 0140
000000d0: 29ed f1be 9bea 1a3e 99b7 223f 31fb b3bd
000000e0: 6a5d 833f 0ee5 87bf 9803 8b3e e3d9 25c0
000000f0: f0b2 923f ef73 f0be 4d70 5d3e c934 4f3f
00000100: cacb 40be e778 0fbf 1f7f 873f 8d12 ca3f
00000110: 5d32 e53f fc19 0f3f 2da9 d8bf f92d 93be
00000120: dec9 b03d 68b3 8dbe b81f 8b3f 4b1d 97bf
00000130: 6267 ddbf 5e45 0640 3547 5bc0 7471 8ebf
00000140: 587d cf3d cb31 acbf 1011 fb3e c609 a3bf
00000150: 6567 d03d 0349 e5be d7a4 e2bf b1a7 df3f
00000160: 3c73 a63e a2ee 37bf f664 febe 2210 e9bc
00000170: 65e1 0e3f 34cd 9d3f ff4d 7fbf 0136 503f
00000180: 2218 e73f d280 4f3e ed33 9b3f a500 b33f
00000190: 87c9 11c0 1644 1f40 6f0c 93bf f87f 9b3f
000001a0: a241 0d3f dcd2 d7ba 7c66 a03d f450 043f
000001b0: 4163 cfbf 9eae 733e 8c0a b73f 04bd 6fbf
000001c0: d0f3 69bf 6dbe c8bf c3e8 60bf 7a18 4bbf
000001d0: 5166 563f 139c b5bd 904c d63e 5dfc c1bd
000001e0: d87d 23c0 157c 0340 5804 7fbe e40e 97bf
000001f0: d77b 98bf c97f 27bf c8a8 6f3f 8ac7 c93e
00000200: f0d6 10bf 5607 d0bf 5b08 933f 4e6b b2bf
00000210: 95fa 423e 3af9 b3bf 377e 0cc0 f3e2 873f
00000220: ad04 8a3d 8661 92be b566 863f 6207 0dbf
00000230: 1a3d 533e 9463 dd3d 464e 313a 5c29 74bf
00000240: 9255 1440 c8ee 90bf 7c36 6cbf 2c5c a9bf
00000250: 4d64 b5be 7286 433f c2f8 38be 4a53 d8bf
00000260: 2061 303e 7249 06c0 e7d6 c0bf e63d 82be
00000270: 59c5 303f f7ce b6be e4a6 55bf 8db0 7ebf
00000280: b15e 9ebf 8f3f a5bf 1f8e c2bb f4a1 6fbf
00000290: c0d4 eabf a25a 1bbe 4a46 ab3f 2598 aabf
000002a0: 98f7 c0bf 24c6 7ebf 5a09 35bf fa57 e0bf
000002b0: 79ac acbe 61a7 18bf 4f6d 22bf 5ac8 b3bf
000002c0: 3e36 8ebf a8ab 05c0 e7a2 b2be 9e93 583f
000002d0: 5d5a ebbe 2330 b63f a635 fdbf 233a 16bf
000002e0: 5cc4 b0bf 39f9 b23e 1cef 0e40 fbeb afbf
000002f0: 87db 3e3f c9c2 95bf 32dc 023e 5f24 3c3f
00000300: 885d e33e b419 53bf edae 983e ca1e 3d3f
00000310: bab3 afbf e770 8e3e 5133 dc3e 9236 163e
00000320: 0293 e5bd 52f3 f6be d8e4 a8bf f19b a9bf
00000330: c2a1 4fbf 2590 63be 01ac 84bf 633f d93e
00000340: 5319 e23e 27f0 1dc0 6b89 c6be 4800 403a
00000350: c63d 48c0 a564 99bf 5abc 833e e42f 78bf
00000360: 4542 3740 2ddf 0dbf 484b 69bf 5479 93bf
00000370: c7f1 abbf 7bad 2e3e e1bc 523d 3af9 e6be
00000380: 5e10 a3bf 7ab8 1440 0055 673f f579 283f
00000390: 3607 61be 6490 963f 578c 533f 28f1 793f
000003a0: ffd0 ce3f f2a5 b13f 091b ffbf 7512 9c3f
000003b0: e205 0ebf 3baa 573d 7470 abbf b21b 89bf
000003c0: 06f2 edbf 88d7 8b3e bd33 8abe 03de 8bbe
000003d0: 6dd1 773e 5c0b b03f 9130 b83e 0421 973f
000003e0: 6cef 49be 1c88 693b adfb 68be 07b5 e33f
000003f0: 5800 47bd a218 e03e f876 e03f 0afb 0fbe
-1.7000742 -2.2576041 -0.22508231 1.1330866 1.0803958 -1.4098241 -2.3411534 0.78357875
-0.34180796 2.197536 -0.9265096 0.71213347 0.35456932 -1.6581135 1.6038353 -1.3659958
1.0712969 1.0694935 0.56081516 2.0012414 1.2943717 -0.8621524 -0.39256534 0.333845
1.3350844 1.0262523 0.40048847 0.2065959 -1.555349 0.35723397 -1.230168 -0.4148803
-2.2031744 1.216427 0.82751733 0.08414566 -0.7816121 2.6044722 0.6582374 1.095722
0.04826968 -1.8188753 0.49297562 0.89323825 0.76185477 2.803413 -1.3502676 -0.42779315
-0.2776058 0.80333173 0.044433948 2.0306177 -0.4725125 0.15128557 0.635614 -0.08788145
1.0262883 -1.0616777 0.2715118 -2.5914237 1.1460857 -0.4696345 0.2162487 0.8093992
-0.1882774 -0.5604386 1.0585669 1.5786911 1.7905995 0.55899024 -1.6926628 -0.28746012
0.08632253 -0.2767594 1.0869055 -1.1805815 -1.7297175 2.0979838 -3.4262211 -1.1128373
0.10131329 -1.3452696 0.49036455 -1.2737358 0.10175971 -0.44782266 -1.7706555 1.747305
0.32509792 -0.718485 -0.49686402 -0.028450076 0.55812675 1.2328248 -0.9972839 0.81332403
1.805424 0.20263985 1.2125221 1.3984572 -2.2779253 2.4885306 -1.148817 1.2148428
0.5517827 -0.0016466039 0.07832047 0.51686025 -1.6202165 0.2379708 1.4300094 -0.9364779
-0.91387653 -1.5683113 -0.87855166 -0.79334223 0.8374987 -0.088676594 0.41855288 -0.094719626
-2.554556 2.0544484 -0.24904001 -1.1801419 -1.1912793 -0.6542936 0.93616915 0.3941005
-0.5657797 -1.6252239 1.1486925 -1.3938997 0.19040902 -1.4060433 -2.1952035 1.0616134
0.06739173 -0.2859003 1.0500094 -0.5508939 0.20628777 0.10810009 0.0006763678 -0.9537561
2.3177228 -1.132287 -0.92270637 -1.3231254 -0.35428086 0.7637702 -0.18063644 -1.6900418
0.1722455 -2.0982327 -1.5065583 -0.2543785 0.6905113 -0.35704777 -0.8345778 -0.99488145
-1.2372648 -1.2910022 -0.0059373523 -0.93606496 -1.8346176 -0.15171292 1.3380826 -1.3327681
-1.507556 -0.9952109 -0.70717394 -1.7526848 -0.33725336 -0.596304 -0.6344804 -1.4045517
-1.1110303 -2.088602 -0.3488991 0.84600246 -0.4596738 1.423344 -1.9781997 -0.5868246
-1.3809924 0.34955767 2.233344 -1.374389 0.7455372 -1.1700069 0.1277931 0.73493
0.44407296 -0.82461095 0.29820958 0.73875105 -1.3726723 0.27820513 0.430079 0.14669254
-0.1120968 -0.48232514 -1.3194838 -1.3250715 -0.811062 -0.22222956 -1.0364991 0.42431173
0.44159946 -2.4677827 -0.38776717 0.00073242607 -3.1287704 -1.1983839 0.25729638 -0.96948075
2.8634198 -0.55418664 -0.91130495 -1.1521401 -1.343316 0.17058365 0.05144966 -0.4511202
-1.273937 2.3237596 0.90364075 0.6581109 -0.21975407 1.1762815 0.82636017 0.976336
1.615753 1.3878767 -1.9930125 1.2193133 -0.55477726 0.05265258 -1.3393693 -1.0711577
-1.8589485 0.27312875 -0.26992598 -0.2731782 0.24200983 1.3753467 0.35974553 1.180695
-0.19720238 0.0035634106 -0.22752257 1.778962 -0.048584312 0.43768793 1.7536306 -0.14060608

weight_ih_l0 f4 [512, 32]
00000000: b5c5 5f3d 5ade 083e 73d0 fc3d 281d 553e
00000010: 0bba 0cbe 7c7b aa3d 4d47 31be 4029 823d
00000020: 49ab 053c b377 073e 26ad b13d 716f 4bbe
00000030: bf2a 323d ac3e 0dbe 05b7 eabd cb7e 0cbe
00000040: dc39 c5bd b90d 643d 7232 9bbb 2a1d 373e
00000050: c409 2ebd 64a7 903d 9ae0 17be f93e efbd
00000060: 3d4d 07bb 01b5 9bbd 2295 d5bd ab60 f93d
00000070: 607c bcbd 02d2 6c3d c389 c03b d634 3f3e
00000080: ff2a c9bb 943f d03c b866 223e a584 6b3d
00000090: e635 04be 3e83 993e 52ba 23bc 3c4e 0fbe
000000a0: dd69 693d 833a f63d 9ba4 13be 1669 0dbc
000000b0: 448a afbd 5e7d 3a3d d2b9 b5bd e703 e4bc
000000c0: 8fd4 81bd a5d5 623e c60b 70bd 5807 073e
000000d0: f8d7 6f3d b442 5b3d 98a9 1b3e e192 633e
000000e0: 10be 64bd fcd7 ba3d f5b7 b23d f6f2 21be
000000f0: c9b2 82be 4815 7a3e f2b5 e3bd 44bc 933d
00000100: 894e 9e3c 50ee 043e f587 8bbb 0148 87bc
00000110: 963e 21be d5b9 7b3e 2cbf af3d 2576 42be
00000120: d8cd 28bc 754b efbd 0b62 35be 71ee babc
00000130: fd7d 51bd 9651 943d b64c b0bd 9138 373d
00000140: 054b 41be 5254 1abe 51d8 0ebe 0e7f 193c
00000150: 739f 0cbe 2a1c b9bc 2d8a 9dbd 1208 023e
00000160: c4a3 003b 940b 873d a642 d93d c626 06bd
00000170: ffa8 2cbe 664a 8e3d aec2 783e c5c5 8dbc
00000180: 68ae c33d 58bd be3c a1c1 6b3d d877 adbe
00000190: 8461 13bc 9e43 013e 9e26 173d 1030 45bd
000001a0: d7ed 063e bc37 cfbd bd75 8a3e 159b 35bd
000001b0: b164 38bd c67e 643e ac7f 7dbe ab76 263d
000001c0: f8bb c9bc 056e adbd ee93 1ebd e1ce 88be
000001d0: 8440 96be 6d10 6f3e 5cce 91bd 8be8 d2be
000001e0: 1b6b 74be 269e 9bbe 6753 86be 27c3 623d
000001f0: 505b 8c3e 9b5f d43d 9443 303d 33b2 043d
00000200: d8ed 0cbd 3a1f 153e e5fc 08be e7f8 123e
00000210: df7b 773e d6f9 5abc 3f30 c03c b28d d7bd
00000220: cb2f c33d b522 b13d 94cd 76be 63bd c03d
00000230: 7da3 60bc a776 7fbe 499d 98bd 5471 8fbd
00000240: 1d5f 2abd 9c64 943e 23b5 a43d d390 673e
00000250: 149c 65bc dd68 46bd eb67 8fbd 6148 9d3e
00000260: 84fb b73d 010d a93e ad75 923e 2253 b73e
00000270: 2c57 11be d84d 543e 99b6 e43c a829 e13c
00000280: 6187 f13d 8ec3 dd3d d6fb 1c3e 3671 523d
00000290: 6ecb 22be de13 e63e b445 743e c17a c63c
000002a0: 08a5 92be ebac 23be 5771 3bbe 2883 643e
000002b0: 30f0 1ebe 50ed 8c3d c35d a1bc cdd5 063e
000002c0: 2ce2 65be 9aca 813d 2d90 163c 1c97 e53d
000002d0: c91f 1abe fc97 2f3e 1d17 eb3d 7e6b a13d
000002e0: 733e febd bdd8 913d abe2 db3b 106f 81be
000002f0: 3827 89be 4dd3 543e 5d3a 233e fd56 7abc
00000300: 2e23 733c f590 1cbe 8305 b23d cb18 20bd
00000310: 013f 0fbd 9a2a 923d 7615 133e 8797 31be
00000320: 6c16 0fbe 6fef adbb ac8a 663e 773d 363b
00000330: e05e f53d e898 093e 89d5 58be 2af9 c937
00000340: 9749 483d 08fa b2bc ed7f f6bc 66d4 a93d
00000350: 0c8a 10be 7ab7 8ebd e749 92bd e454 debd
00000360: 9b9a d7bd 0560 9fbe 832c 71bc b7a2 ae3c
00000370: 0e8e a83e b342 27be 705a acbe bd1e a63c
00000380: f05f 30bd c0b3 8bbd 25fd a63c 8b6a dcbd
00000390: 7cbe ea3d 1962 7bbe df9c 2dbe ba45 7ebe
000003a0: 0241 313c 80c2 b13d 52a5 e63d 409f b7be
000003b0: e4e4 67bc a58a 2dbe 50ac 75bd dc9c 3ebd
000003c0: e52a 8e3e 1a46 02be e576 85be 2d35 7fbd
000003d0: 940c c6bd 1192 1cbd 5bba 4fbd 405c 763d
000003e0: 87dc f4bc e755 f8bd 447f 873c ae3b 2a3e
000003f0: 7ce9 d1bc 16c6 df3d 8bf7 80be c447 333c
0.054631907 0.1336607 0.12344446 0.20811903 -0.13742845 0.08324334 -0.17312355 0.06355524
0.008158513 0.13229255 0.086756036 -0.1986673 0.043497797 -0.13793439 -0.114606895 -0.13720243
-0.096301764 0.05567715 -0.004736238 0.17882219 -0.042489782 0.07063177 -0.14831772 -0.11681933
-0.0020645403 -0.07602883 -0.104288355 0.12176641 -0.0920341 0.057817467 0.0058757975 0.18672499
-0.0061391587 0.025420941 0.15859497 0.057499547 -0.12911186 0.29982942 -0.009993153 -0.13994688
0.056985725 0.12022879 -0.14418261 -0.0086310115 -0.08571294 0.045529716 -0.08873333 -0.027833892
-0.063393705 0.22151811 -0.058604978 0.13186395 0.058555573 0.05353041 0.15201414 0.22223999
-0.05584532 0.09123227 0.08726493 -0.15815338 -0.25527027 0.2442218 -0.11118688 0.07213643
0.019324558 0.12981534 -0.0042581507 -0.016513826 -0.15746531 0.24582608 0.08581385 -0.18990381
-0.010302983 -0.11684314 -0.17713182 -0.022818776 -0.051145542 0.07242124 -0.086083815 0.04473168
-0.18876274 -0.15071228 -0.13949706 0.009368671 -0.137327 -0.022596437 -0.076923706 0.12698391
0.0019628862 0.06594005 0.10608415 -0.03275182 -0.16861342 0.06947784 0.24293014 -0.017306218
0.0955475 0.023283646 0.057557706 -0.33880496 -0.0089954175 0.1262345 0.036902063 -0.04814154
0.13176666 -0.10118052 0.27042952 -0.04433735 -0.0450179 0.22313985 -0.24755734 0.040640514
-0.024625763 -0.0846825 -0.038715295 -0.26720336 -0.29346097 0.2334611 -0.07119438 -0.4119304
-0.23868982 -0.30394095 -0.26235506 0.055361893 0.27413416 0.10369798 0.043033198 0.032396507
-0.034406513 0.14562693 -0.13377722 0.14352761 0.24168347 -0.01336523 0.023460506 -0.10525073
0.095306 0.08649198 -0.2410186 0.09411123 -0.013710854 -0.24947606 -0.07451875 -0.070040375
-0.041594613 0.2898301 0.080423616 0.2261384 -0.014014263 -0.04843985 -0.07002243 0.30719283
0.0898352 0.33017734 0.28605404 0.35805613 -0.1419341 0.2073282 0.0279191 0.027485684
0.117933996 0.10828315 0.15330443 0.051377498 -0.15897915 0.44937032 0.23854715 0.024228455
-0.28641534 -0.15983932 -0.18304954 0.22315657 -0.15521312 0.06881201 -0.01969803 0.13167496
-0.22449559 0.06337471 0.009189648 0.112104625 -0.15051188 0.17147821 0.11479018 0.07881831
-0.12414255 0.07121418 0.0067103705 -0.25280046 -0.26787734 0.2078373 0.15940233 -0.015279529
0.01483993 -0.15289672 0.086924575 -0.039086144 -0.034972195 0.07137032 0.14363655 -0.1734296
-0.13973397 -0.0053080837 0.22513837 0.0027807632 0.119809866 0.13437235 -0.21175207 2.4077093e-05
0.048898306 -0.02184774 -0.030090297 0.08292465 -0.1411516 -0.06968589 -0.07143002 -0.10856035
-0.105275355 -0.31127945 -0.014720085 0.021317823 0.3292088 -0.16334037 -0.33662748 0.020278329
-0.043060243 -0.06821394 0.02038438 -0.10762509 0.11462113 -0.2454914 -0.16954373 -0.24831286
0.010818722 0.08679676 0.11262001 -0.35863686 -0.014153693 -0.1694742 -0.059978783 -0.04653631
0.277671 -0.12722054 -0.26067272 -0.06230657 -0.09670368 -0.038225237 -0.05071483 0.06014657
-0.029890312 -0.121257596 0.016540177 0.16624328 -0.02562403 0.10926454 -0.2518886 0.010942403

weight_hh_l0 f4 [512, 128]
00000000: e331 6dbe 9dd1 8d3d 40df 473d 7ddd 5cbe
00000010: f88d 93be b747 1a3e 19e6 b1bb 902f 4bbd
00000020: bd6e 62be b6aa 823d 38a0 e33d 8a37 be3d
00000030: 6452 67be 7c8a 7e3e 357a 123e b1e9 1abe
00000040: cab1 893e 3c16 5f3e 71cf 663e 49e6 353e
00000050: cd62 58be 0e35 2dbc 2a3e 9e3c 6e03 8e3e
00000060: f94e 48be 1a35 083e 06f4 35bb db87 f1be
00000070: 0e01 f8bd 5445 44be c5ae d6be 3718 0bbe
00000080: b27a e23d 3e39 32be 8aa3 b93d fd81 7c3e
00000090: 449e 283e 612b be3e 38a0 653e 0216 a2bd
000000a0: 8af8 46be 8056 833c 153f 903e 8863 43be
000000b0: c038 883e 5a40 fe3d 48eb 53be 1233 0c3e
000000c0: 16b6 8bbe 1252 f7bd 2687 5a3e b568 9bbe
000000d0: 6c55 1cbe 49fe 7f3e 5983 953e 4ffa 793e
000000e0: 1cf6 43be b14a f7bd 22dc 2fbe 3f85 2f3e
000000f0: 3242 15be 2994 f93d f320 28be d25e 2a3e
00000100: f999 bb3d 4b25 483c ac8e 06bd 73ec 12bd
00000110: 54ba 83bd 3c06 debe 9fe9 88be b1a3 e33e
00000120: 9951 253d dc35 513e e810 2abe a58f 943e
00000130: a710 423e dc80 3fbb 0ead 8f3d 8621 643e
00000140: d4b4 5cbe 2ae8 b93e 3fc0 1a3e 3e96 313e
00000150: 4fe0 863e d767 153e d4bf 43bd 7e61 42be
00000160: a326 fa3b 94c6 213e ef68 333e 760e aa3c
00000170: bcbb babe 924f 26be 0c71 b73d 79ed 88be
00000180: 4978 3c3e 892f 233e 1b37 483e 934b debd
00000190: 64e3 f2bd 2a61 eabd 66e8 2dbd 3041 2c3e
000001a0: 4c50 f93a cfef 6f3e 9a7f b6bd 7e87 a13e
000001b0: ef46 bcbd ffda 833e 6a9b 573b fe40 ddbd
000001c0: 3b3e 9f3d 9701 14be aae3 6c3e 38a3 f83d
000001d0: 4b4a 59be d08a a2be d9e1 87bc 94b2 3bbe
000001e0: 91be c53d 143e f5bd a29b eabb 7d9a a0bd
000001f0: 9f6d be3d 5dfe dd3d 4208 c03e 8f67 15be
00000200: 622e 823b ea6f e33d 14a0 1a3e 9904 923d
00000210: f9eb 813d e885 f6bc 1e85 d6bd 6446 d8bc
00000220: 4a2d 85be 04b4 133e fa33 d13d de47 3abd
00000230: 4f55 a7bd 0837 083e dbca b33d 3a20 493c
00000240: 9dfe 2e3e 9b82 18be 260a 0f3e 617f d83d
00000250: 0668 31be 985e 2c3e a86e 6abd ad3e 873d
00000260: c66b 5f3c 46ff 2fbc d42e 66bd fa6c af3d
00000270: 2fe2 0fbe bb87 7dbe b161 19be e61b a1be
00000280: a028 6e3d 9f52 12bc 14cd 883c 1a5f 04be
00000290: c052 2f3e f81c 44bc 008c 0fbc 8200 89bd
000002a0: 3724 03be 27e7 ef3c 1f69 40bd 1303 15bd
000002b0: f1a9 6b3c 75ab 06be 80b7 1cbe 8064 5bbc
000002c0: aa92 72bd c63a 1c3d 8fc6 533e 3903 b73c
000002d0: 11f7 73bb 7e76 7b3c e607 b2bd 5894 7abd
000002e0: 5267 1fbe b3e8 a6bd 6cd3 113e 46df a53d
000002f0: 7966 edbc a4fa b13c 2cb1 253e d49c 53bd
00000300: 6893 2c3d c3b7 4bbe 65e7 c43d 0280 9bbe
00000310: 2f05 a0bc b44e d33c b567 bf3d faf1 3cbc
00000320: 3b99 a63b f1ba 0abe 4a24 41bd 9fef 413e
00000330: 7344 05be f089 f63b d304 f73d 0c01 96bd
00000340: 2a74 14be 226c 5f3d 6668 4e3d 184a 963d
00000350: 3d68 9cbd e094 c5bd 483a 8e3b 48dd 05bd
00000360: 4a1f b23c 5592 67bd 1fa1 9dbd 8cd1 9a3d
00000370: 124d ef3d 723b 82bb acdb 1cbd 2cc1 b93c
00000380: 83e1 afbc 926d 723e 69f5 643d c6b2 51bd
00000390: 3af2 2e3e 2a34 37be 079d 123d 5966 103d
000003a0: e215 89be 78a7 d4bd 4147 ebbd 9030 ba3c
000003b0: 216f 1abe fb70 a73e cf3d 7b3d 48df 3abd
000003c0: a6da e33d faff 683c f7f2 563e 51a7 903d
000003d0: 0bbf 61be 691d f93a 287a 353d 90c9 5bbd
000003e0: b25f 7c3e d063 59be 5ae3 333e 90ce e1bc
000003f0: f6da 0e3d 80a7 4d3e 5f1a a83d 7bb5 84bc
-0.23163562 0.06924746 0.048796892 -0.21568866 -0.2881925 0.1506642 -0.005429041 -0.049605906
-0.22112556 0.06380217 0.11114544 0.09287937 -0.22590023 0.24857515 0.14304431 -0.15128209
0.26893455 0.21785825 0.2254007 0.17763628 -0.2113144 -0.010571731 0.019316752 0.27736992
-0.19561376 0.13301507 -0.0027763858 -0.47173962 -0.12109576 -0.19167072 -0.41930214 -0.13583456
0.110585585 -0.17404649 0.09064396 0.24658962 0.16466624 0.3714247 0.224244 -0.07914354
-0.19430748 0.016032457 0.28173128 -0.19080937 0.26605797 0.12414618 -0.20695221 0.13691357
-0.27287358 -0.120762005 0.21340618 -0.30353323 -0.15266961 0.24999346 0.29201773 0.24411891
-0.19136852 -0.12074793 -0.17173818 0.17140673 -0.14576033 0.121864624 -0.16418819 0.16637734
0.09160227 0.012215923 -0.032850906 -0.035870027 -0.06432024 -0.4336413 -0.2674074 0.44460824
0.04036102 0.20430702 -0.16608012 0.29015842 0.18951665 -0.0029221093 0.070154294 0.22278413
-0.21553355 0.3630994 0.15112399 0.17342469 0.2634301 0.14590393 -0.047790363 -0.18982503
0.0076340004 0.15798408 0.17520498 0.020758849 -0.36471355 -0.16241291 0.08957109 -0.26743677
0.1840526 0.15936102 0.19552271 -0.108542584 -0.118597776 -0.11444314 -0.04245796 0.16821742
0.0019021123 0.23431323 -0.08911057 0.31548685 -0.09193217 0.25753018 0.003289903 -0.10803412
0.077755414 -0.14453731 0.23133722 0.121405065 -0.21219747 -0.3174653 -0.016587185 -0.18329841
0.09655488 -0.11974731 -0.007159666 -0.07841966 0.09298252 0.108395316 0.375063 -0.14590286
0.0039728144 0.1110533 0.15100127 0.07129783 0.06343836 -0.030093148 -0.10474609 -0.026400752
-0.26011115 0.1442414 0.10214992 -0.045478694 -0.08170568 0.13302243 0.08778926 0.01227575
0.17089315 -0.14893572 0.13968715 0.105711706 -0.17324838 0.1683296 -0.057234436 0.06603751
0.013636535 -0.010742014 -0.056197003 0.085657075 -0.14051126 -0.24758808 -0.14978673 -0.31466597
0.05814421 -0.008930831 0.016699351 -0.12926903 0.1712141 -0.011969797 -0.008761406 -0.0668955
-0.12806784 0.029285027 -0.04697525 -0.036379885 0.014383779 -0.13151343 -0.15304375 -0.01339066
-0.0592219 0.03814199 0.20681213 0.022340404 -0.003722612 0.015348075 -0.08692913 -0.061176628
-0.15566757 -0.081498526 0.14240807 0.08099227 -0.028979527 0.02172596 0.16180867 -0.051663235
0.042132765 -0.19894318 0.096144475 -0.303711 -0.019533722 0.025794365 0.093459524 -0.011532301
0.0050841845 -0.13547875 -0.04715375 0.18939064 -0.13014393 0.0075237677 0.12061467 -0.073244184
-0.14497438 0.054546483 0.05039253 0.07338351 -0.076370694 -0.09647536 0.0043404438 -0.032681733
0.021743435 -0.056536037 -0.07696747 0.07559499 0.11684622 -0.0039743716 -0.038295433 0.02267512
-0.021469837 0.2367461 0.055898104 -0.051195882 0.1708459 -0.17890993 0.035794284 0.035253856
-0.26774508 -0.10383505 -0.114882 0.022728235 -0.15081455 0.32703385 0.061338242 -0.045623094
0.11125688 0.014221186 0.20991121 0.07063163 -0.22045533 0.0019005957 0.04430595 -0.05365902
0.2464588 -0.21229482 0.17567196 -0.027564317 0.034876786 0.20083427 0.08208155 -0.016199818

bias_ih_l0 f4 [512]
00000000: 326c 3a3e d6bb 483e 5d88 1d3e 62ed 563e
00000010: 1a1b 163e 5cff 9c3d 44b2 343e 2951 a83d
00000020: 75fb 5f3e 0b42 793e b087 083e 4f1d 293d
00000030: 2425 853d 90c9 ee3d 588d 463e 7ec5 a23d
00000040: 256c 153e bc1f 283e 076f f73d b7c2 013e
00000050: d983 023e e91a d83d 0273 863d 5cf9 3f3e
00000060: 3e23 8b3d 5993 443d cb42 8b3e 5efc ff3d
00000070: 4c69 813e 413a 563d bc32 c93d 703c 943d
00000080: ab92 8a3c 7174 2e3e 36ed 183d bbb1 ca3d
00000090: c7e2 a23d 931c 3a3d c9ae 5e3e c183 153e
000000a0: d046 a03c fd71 d53d 4fb9 b93d 9272 e03d
000000b0: 3afe 4f3e 78c4 513e bf28 1f3e 1ebf e03d
000000c0: dc7a f43d bdbd 1e3e c02a 233d 4594 633e
000000d0: cebb 313e ee6f 9f3d 8366 413e f82f 0a3d
000000e0: 9039 403e 8fe4 193e cc9f cb3c ffee 1bbd
000000f0: ee53 c03d 5695 9d3a 3f1b e83d 3773 823e
00000100: 5982 a03e 00d6 d53d 1f28 f53d 0185 b93b
00000110: 24e4 273e f312 f83d df53 773c 7232 293e
00000120: c318 843e c2b8 4a3d fa9c 253e f284 633d
00000130: 34e4 5e3e 7a42 523d 4768 543e 0076 9a3d
00000140: 53dd 6a3e a70a 9e3d c44a 5c3d 2063 563e
00000150: 09b6 76bc a757 203e fd9e 303d 10a2 8f3d
00000160: b230 453e 10d2 183e 44d3 793e 92c2 9b3d
00000170: aebf ef3d 05ab 0e3d 6145 bdbd 978c 343e
00000180: 5ede 9e3e db0a 753d 038f a93d 1585 8f3d
00000190: 8fa8 363e dff6 073e ebc8 023e 03a1 303e
000001a0: 9505 593e ef0a ea3c a3e1 223d 7dc7 733d
000001b0: 6070 ce3d 9f49 323e 7d29 073e f78f 3e3e
000001c0: ff8b 533e e3c2 0c3e 4d5a 053e 64a2 783d
000001d0: 878f ad3d 094f f13d 497f 333e 07dc 8b3e
000001e0: 7d62 c13d f3ea 0a3e 06de 683e 6a57 893d
000001f0: 1c85 053d d8af ed3d a63e b63d 5c73 883e
00000200: 3117 ab3d af07 a93d 0b4e 4d3c 3430 843c
00000210: 6ad3 44be b688 d43d 741a 0abd 8604 243e
00000220: 1e9f d83c e6cb b7bd a3a1 8e3d 9dca 873d
00000230: b633 f33d 0dd0 fd3d 593d 14bc 595e 4a3d
00000240: 4aa3 06be 8e02 373d 32c7 27bc c703 9ebd
00000250: 486f b63d 6e8b 7ebd 436f b23c 5f73 163c
00000260: c285 40bd 6a29 86bd dce3 683d 960c b1bd
00000270: 3cbf eb3a 748b cabd 3b79 043e 12fd 3e3c
00000280: 04c8 22be 35cd 703d a57c 1bbe f936 b9bc
00000290: 0da3 373c 6bf0 213d ad88 003d c369 0fbd
000002a0: 74eb 8d3c fa8b 97bd d1d1 213d 5c15 163e
000002b0: 9324 ed3d af5a 05be 4752 573d 6d7a ad3d
000002c0: 6591 8dbd 1329 1dbd bf9f 0d3e 0643 70bd
000002d0: 14a6 10be 693b ec3d e519 42bb 4979 383d
000002e0: 0053 2a3d 92d3 a53d ca0d c1bc fd25 9a3d
000002f0: bd8e 7dbd 7e66 b0bd 91dc c1bd 5ab8 25be
00000300: eb41 893d afaf 51be c045 db3d 352a 6b3c
00000310: 0371 913d 8b9f 1d3d c31c a3bc 7e79 04be
00000320: 93ff a23c 57f2 863d da95 663d 0920 a3bc
00000330: 6ea4 9ebd 89a9 993d 09e7 783d 9678 e8bc
00000340: 91e9 8d3d 6d56 a43d 62d9 313d daef 923d
00000350: d02f c03d 4d1d 063e 7fce 0e3d a598 6c3d
00000360: ad96 ba3d b9c0 0b3e 7f76 b7bd 0784 d5bd
00000370: 2d46 77bd 9366 ec3d e817 34be 9973 583d
00000380: 3294 f9bb b6b8 2f3d e6c5 ac3d f579 cc3b
00000390: d08e 1dbe af5e 07be 5463 103e a397 ac3c
000003a0: cf51 1bbe 9060 c1bc 8706 8ebc b460 253d
000003b0: 81e6 5bbd f1ae 423d b9e5 b1bd 8afd 953c
000003c0: 1b10 ffbd 75cb 1f3d cbe3 c2bd 91d5 9c3c
000003d0: 1fd3 0abe 5b05 cb3d 596c 013d 287c e1bc
000003e0: 8e8a b5bd ec3f b83b 8831 efbd a94b 90bb
000003f0: fb67 533d 9250 c73c 0451 a43d dca3 f33d
0.18205336 0.19602904 0.1538405 0.20988992 0.14658776 0.076658934 0.17646128 0.08218605
0.21873267 0.243416 0.1333301 0.041287716 0.06501225 0.11659539 0.19389856 0.07947825
0.14592035 0.16418356 0.12081724 0.12671934 0.12745608 0.10552008 0.06564905 0.18747467
0.06793831 0.047992084 0.27199396 0.12499307 0.25275648 0.05230165 0.0982413 0.0723809
0.01691564 0.17036606 0.037335597 0.09897181 0.079534106 0.045437407 0.21746363 0.14601041
0.019565016 0.10422132 0.09068548 0.109593526 0.20311823 0.20485103 0.15542887 0.10973953
0.11937496 0.15502067 0.03983569 0.22224529 0.17356798 0.07785021 0.18886761 0.033737153
0.18771958 0.15028594 0.02485647 -0.03806972 0.09391008 0.0012022655 0.11333322 0.25478527
0.31349447 0.10441208 0.11970543 0.0056616073 0.16395622 0.12112989 0.01509568 0.1652315
0.25800142 0.049492605 0.16173163 0.05554671 0.2176674 0.05133293 0.20742904 0.07542038
0.22935991 0.077168755 0.05378224 0.2093625 -0.015058049 0.15658437 0.043120373 0.07013333
0.19256857 0.14923882 0.24396998 0.07605471 0.11706482 0.034831066 -0.092417486 0.17631756
0.31029028 0.059824806 0.082792304 0.07007805 0.17837738 0.13277768 0.12771957 0.17248921
0.21193536 0.028569667 0.039765965 0.05951642 0.100800276 0.17410897 0.1319942 0.18609606
0.20658873 0.13746218 0.13022728 0.060701743 0.08474641 0.11782653 0.17529024 0.27316305
0.09442613 0.13566189 0.22740945 0.06706126 0.032597646 0.11605805 0.08898668 0.26650512
0.08354033 0.08253419 0.012530814 0.016136266 -0.19221273 0.10377638 -0.033716634 0.1601735
0.02644306 -0.089744374 0.069644235 0.06630442 0.118750975 0.12393198 -0.00904783 0.049406383
-0.13148227 0.04468017 -0.010240363 -0.07715564 0.08907944 -0.06214469 0.02178157 0.00918278
-0.04700256 -0.06550868 0.05685793 -0.08644979 0.001798607 -0.0988988 0.12936871 0.011657016
-0.15896612 0.05878945 -0.15184267 -0.02260922 0.011208308 0.03953592 0.031380344 -0.03501297
0.017324187 -0.07399745 0.039506737 0.14656585 0.115792416 -0.13022874 0.0525687 0.084706165
-0.069124974 -0.03836925 0.1383047 -0.05865767 -0.14125854 0.11534769 -0.0029617485 0.04503754
0.04158306 0.080969945 -0.023566145 0.07526777 -0.061903704 -0.08613299 -0.09465898 -0.16183606
0.06702026 -0.20477174 0.10706663 0.014353325 0.071016334 0.03848223 -0.019911176 -0.1293697
0.019897258 0.065891914 0.056295253 -0.019912736 -0.07746206 0.075030394 0.060767207 -0.028377812
0.06929315 0.08024297 0.043420203 0.07174654 0.093841195 0.13097115 0.0348649 0.05776276
0.091107704 0.13647737 -0.08958148 -0.10425573 -0.06036966 0.11543002 -0.17587245 0.052844618
-0.007616543 0.042900763 0.08436184 0.0062401243 -0.1538651 -0.13219713 0.1410039 0.0210684
-0.15167926 -0.023605615 -0.017337097 0.040375426 -0.053686623 0.04753012 -0.08686394 0.018309373
-0.12454244 0.03901239 -0.09516104 0.019144805 -0.13557099 0.09913131 0.03159747 -0.027525023
-0.08864318 0.0056228545 -0.11679369 -0.0044035506 0.051612835 0.024330411 0.08023265 0.11896488

bias_hh_l0 f4 [512]
00000000: 02af dd3d 2a72 d13d 9ede 403d 9d24 1b3e
00000010: ddd4 723d 853f d33d 8e30 ff3d ef34 343e
00000020: 2fd5 9f3e 4217 2b3e 81ab f13d 1df9 eb3d
00000030: cb25 113e a8d1 513e 6e2c ff3d edbc 2c3e
00000040: 6776 8d3d 8c9f ec3d c4e4 803c 75b6 423e
00000050: acd4 063e c4f4 9e3d 8c2b 5d3e 7bd1 fb3d
00000060: cca1 113e d732 0c3e 4cd9 8e3e eacc 163e
00000070: a8dc 5f3e 26be d53d 80b8 783c 5aca e73c
00000080: e362 2d3e 2c52 0a3e 6f51 7d3d 3abd 613c
00000090: 28f5 453e a7dd 5a3d 8814 ec3d feb3 553e
000000a0: 675d f73d a546 6a3e bdd1 f83d 2700 cf3d
000000b0: 0aa4 283e 880d 6e3e e233 573e bb9d 233e
000000c0: b2d1 803e e14e a33d d4ca dc3d 1408 343e
000000d0: 018f 1e3e 121f 353e 36c9 4d3e 9033 213e
000000e0: 86f6 c63d df66 163e 58e5 dc3d 5433 fd3d
000000f0: b429 b63d c27f 003e 2b63 843d 2333 573e
00000100: afff 683e 0f69 0d3d e910 243e 68e7 7f3d
00000110: d622 253e c5ef 0c3e 9095 293e 006b be3d
00000120: 7e4e 323e 7d12 d23d bcf9 883e b31c bf3b
00000130: 9502 1d3e 23c7 383c 52d6 433e c01d 9d3d
00000140: 0371 433e 0908 323e 85e8 4b3e a239 b03d
00000150: ac47 c23d 59fa 0b3e 62e9 c93c fcfc d43d
00000160: ece9 753e a73d 5e3e e66c 503e a6f2 513e
00000170: 8a50 d33d 4648 2c3e 47ad 93bd 56d8 193e
00000180: b43b 8e3e 81a7 043d d9a4 423e 4223 0b3d
00000190: 5d87 6a3e 105c 3a3e 9bc5 fb3c a7e9 903c
000001a0: 2a3c 933e 2674 0c3e f611 0d3e 5824 443e
000001b0: 1f81 063e 1e3f 033e 3498 163d e478 a13e
000001c0: c4c9 a33d 0a65 983d 7914 e4bb ed30 1a3e
000001d0: 2008 f83d caa3 363e 5d96 393e 617c 0a3e
000001e0: 7254 c13d 71a4 063d fadd 603e 5668 893d
000001f0: ba4c a53d 82de 243e 9578 f93d eb88 533e
00000200: a7b7 de3d dfab e43d 9b7f e03d 8f2d aebd
00000210: 4126 bfbd f8c1 b93d 556b 18bd 1f20 1d3d
00000220: 4d0f d2bc 8850 d1bc 01be 7b3d 7123 2b3d
00000230: 6569 113e 13b8 b03d 94c8 943d 84a1 ce3c
00000240: 9fe7 a7bd 3644 4c3d 6531 c93d 8e58 22bc
00000250: 0a4d d83d b9f4 64bd d07f ddbd 6a39 843d
00000260: 4e5f 50bd 1361 aabb f96b 85bd 6245 eabd
00000270: 5561 a5bb 1903 ccbd 0ec3 0e3e 8ce3 dbbc
00000280: 5f8d f7bd 695f e53d a56a 75bc a42b cebd
00000290: 19af cfbd fae6 1b3d 51a0 ae3c 6fc8 853d
000002a0: e762 133d 3bae 6f3b b0a0 05bc 7c61 e53d
000002b0: e584 d63d 79da 30be 08d3 243d affe 5b3d
000002c0: f660 b0bd eb50 febc 87b7 d13b a071 dfbc
000002d0: 3cf3 afbd 8b55 c63d e308 a73d c7db f03d
000002e0: 3d91 fc3c b2c9 40bd 1813 82bd 6c4e 893d
000002f0: f31a 0bbc 0261 c9bd 2d3f febc 3efc c9bd
00000300: 88bd b1bd f3fc 4dbe 3fe6 5ebd 7caf fcbc
00000310: 1cd6 9939 f3a5 74bc 2581 de3c 626e acbd
00000320: 4419 533d 6f52 b6bd d10e 823d f826 c9bc
00000330: 5c70 54bd f3e5 443d 4f7f 663d cd3f c2bc
00000340: eecb d53d d1a9 763d 769e 103e 27b9 5e3d
00000350: 915b 363d 32dc 213e 2871 223d 4d0c f93a
00000360: 767c e33d 101b 2e3e bfd3 d0bd 01a5 5cbd
00000370: 992e 6a3d 8ef4 a63c 7b13 34be 5312 fd3c
00000380: ac9a 62bd c890 96bb ed0d 083d 79c4 923d
00000390: b578 67be de7d 9dbd 1a3b bd3d dc7b 8abd
000003a0: 7bb4 8bbd 6465 ac3d b271 723d 7cf7 8b3d
000003b0: 7307 f53d 792e 0bbd 2a56 f83c 2c31 b93c
000003c0: 4dea e7bd b532 7b3d 3e97 8cbd 39c6 b9bd
000003d0: 99df aabd 5e23 ab3d 9c52 bdbd d904 223c
000003e0: 4c86 9bbc b8ac 123d f93e 89bd a03e 6fbc
000003f0: c537 a43d 5d97 323d e2dd fe3d 4e03 ad3d
0.10824396 0.10226853 0.047087304 0.15150686 0.059285033 0.1031485 0.12460433 0.17598318
0.31217334 0.16708091 0.1180029 0.11522124 0.14174573 0.20490134 0.12459646 0.16868944
0.06907349 0.11553869 0.015734084 0.19014914 0.13167065 0.07761529 0.21598643 0.122958146
0.14221877 0.13691269 0.2790016 0.14726606 0.21861517 0.104366586 0.015180707 0.028294731
0.16932254 0.13507909 0.06184524 0.013778025 0.19331801 0.05343404 0.115273535 0.20869443
0.12078362 0.22878511 0.121493794 0.10107451 0.16468826 0.2324735 0.21015885 0.15978138
0.25159985 0.07974029 0.10780874 0.17581207 0.15484239 0.17687634 0.20096287 0.15742326
0.09714989 0.1468768 0.10785931 0.12363306 0.08894673 0.12548736 0.06464227 0.21015601
0.22753786 0.03452402 0.16022076 0.062476546 0.1612657 0.1376334 0.1656096 0.092977524
0.17412755 0.102574326 0.26753032 0.0058322786 0.15333016 0.011277947 0.19124725 0.0767169
0.1908608 0.17385878 0.19912918 0.086047426 0.094863266 0.13669719 0.024647418 0.103998154
0.24015015 0.21703206 0.20354041 0.2050272 0.10318096 0.16824445 -0.072107844 0.15023932
0.27779925 0.032386307 0.19008197 0.03396917 0.229032 0.18199182 0.030733874 0.01768954
0.2875684 0.13716182 0.13776383 0.19154489 0.13135193 0.12817046 0.036766246 0.31537545
0.07997468 0.07441147 -0.0069604483 0.15057726 0.12110925 0.17835918 0.18123765 0.1352401
0.09439935 0.032871667 0.21959677 0.067093536 0.08071275 0.16100505 0.12181202 0.20657699
0.10874873 0.11165594 0.10961839 -0.08504783 -0.09333468 0.090702 -0.037211735 0.03836071
-0.025642062 -0.025551096 0.0614605 0.041781846 0.14200361 0.08628859 0.0726482 0.025223501
-0.08198475 0.04986974 0.098238744 -0.009908808 0.10561569 -0.05589745 -0.10815394 0.06456263
-0.05087214 -0.0051995604 -0.06514735 -0.11439015 -0.0050470033 -0.09961528 0.13941595 -0.026841901
-0.12087511 0.11199839 -0.014979039 -0.100669175 -0.10140819 0.038062073 0.02131668 0.0653237
0.035982993 0.0036572355 -0.008155987 0.11200234 0.10474566 -0.1727084 0.040240318 0.053709682
-0.08612244 -0.031044444 0.006400052 -0.02727586 -0.08591315 0.09684285 0.08155992 0.11760669
0.030830974 -0.04706735 -0.06351298 0.06704411 -0.008490312 -0.09832956 -0.031035984 -0.098625645
-0.08678728 -0.20116024 -0.0544188 -0.030845396 0.00029341958 -0.0149321435 0.02716119 -0.08419491
0.051537767 -0.08902442 0.06350482 -0.024554715 -0.051864967 0.04807086 0.056273755 -0.023712063
0.10439287 0.060220543 0.14122948 0.054375794 0.04452092 0.15806654 0.039658695 0.0019000858
0.111077234 0.17002511 -0.10196637 -0.053868297 0.057173345 0.020380285 -0.17585556 0.030892527
-0.055323288 -0.004594896 0.033216406 0.071663804 -0.2260464 -0.07690023 0.09239788 -0.067619056
-0.06821533 0.08417776 0.05919046 0.06834313 0.119643115 -0.033979867 0.030314524 0.022606455
-0.11323986 0.061327655 -0.06864785 -0.09071011 -0.08343429 0.08356355 -0.09244272 0.009888851
-0.018984936 0.03580925 -0.06701464 -0.014602333 0.0801845 0.043601383 0.124446645 0.08447896

weight f4 [29, 128]
00000000: 5ff6 0dbe bd0c a83d 0c9b 1b3e 1273 11be
00000010: 069c 9dbe 8aee 3b3d f2b7 efbd 177a eabd
00000020: bc50 cd3c bf21 4dbd f590 063e 05c4 a33c
00000030: fa5c b7bd 40ad 843d e67b 063e fd0c 25bd
00000040: b9bc 473e 2a10 aa3b 544e b43d 78d0 a23d
00000050: 9183 2cbd 5802 bd3d 1fd9 163e 161e 9e3d
00000060: e118 f7bd 15ba c03d b409 993d 0220 04be
00000070: 91fa 68be 191a 693d d5de f0bd 73d6 a6bd
00000080: 2991 e7bc 79a1 32be 1538 77bc d5ba b53d
00000090: 39d6 5cbd e37e 823d 4690 e13c 6983 dc3c
000000a0: 5235 56be fa4e 41be f717 933e 5fe0 98bd
000000b0: 3597 b0bd 9853 fa3d 307b 18be fe9d ca3d
000000c0: 817f 20be 3a36 9cbd cba3 083e d20f 6dbe
000000d0: c9d6 fd3c 808b ac3c 2010 243e 1f32 203e
000000e0: b19d a3be a17b 06be 93f7 0e3e c916 113d
000000f0: 8dfb febd b0af 24be 72ae 523d ed51 fa3d
00000100: 8be7 883d c186 06be fcea ad3d f2d7 5d3d
00000110: 65e6 7fbd 0fd0 d4bd 6a53 ccbd 80aa d73d
00000120: d66c 2bbe fc6f 96bd 8bef 5bbe ee88 243e
00000130: 8860 bbbd 5fdc 83bd 78e2 4ebe 51b6 1b3e
00000140: f204 3e3d 7c50 243e f075 fb3d aa85 be3d
00000150: 1fac c93d ebbd e13d 0b59 2fbe d79a ab3c
00000160: 483d a5bd 266b ce3d bd1e 6e3e fdd5 013d
00000170: 3654 7bbe 042f 5fbd 07f7 513e adde bcbd
00000180: 6b11 e43d ec93 d0bc 183c ff3d 547e 6bbe
00000190: 608f 78be e7db 303e 45c0 1fbd 73c9 7abc
000001a0: 25ac 8b3e 95e3 c33d 4412 673e 56c0 9a3d
000001b0: 4485 8dbd 9f27 463d a685 413e 9811 17bd
000001c0: c2b6 1ebe 46fa 3fbc 6d20 123e 88b4 613d
000001d0: e2f1 e1bd fa9e 92bd 19b3 51be 0596 0bbe
000001e0: 0ae6 01bc 72f7 26be 2ced 8abe 7b6a 49be
000001f0: 6b3a 1d3d 280e a23c bc26 8d3d 34e3 34be
00000200: 5002 d0bd a657 95be 1b24 0b3d 38ae 60bb
00000210: c987 ae3d 8169 1c3b 665a 5c3e da5d 1d3f
00000220: cab0 d5bd 8e00 103e 24ae 51be 63a8 f23d
00000230: 8364 46bd 5af3 b63c b084 ecbe e320 f5bc
00000240: 4c02 da3d 088e 9c3b b4eb e4be 1de8 113e
00000250: 9a4d a13d c423 e13d 0144 cdbd 7a5b 46be
00000260: 52d8 9e3e 2784 e63d d8bd 24be e37f 69bd
00000270: 03c5 453d f4e8 89be af72 c3bd 2c8d e33c
00000280: f85a 90be 5f81 54be 986c de3c eea4 14bd
00000290: 65b0 723c ef46 923d 4713 19bc 6e3e 88bd
000002a0: 4199 a13c d906 e53d 9431 2bbe d510 933e
000002b0: e9d1 0dbe cf64 6cbd 887b bb3e 4ac9 a93d
000002c0: fdaa 04be 5033 2b3e 6c32 b73c 7f5f 003e
000002d0: 8260 543e 2268 bf3d 64a1 723d 2760 41be
000002e0: 60e7 38bd de4a 323e d361 c83d 9efd ae3d
000002f0: e4ba 86bd d959 4b3e 8c9e f539 38be 2d3d
00000300: cbbe 813d 2510 05bd f2f3 623d 6233 05be
00000310: b92e dfbd 1ac1 0abd 2315 3d3e e5d7 40be
00000320: a1d7 a9bd cbec e63d 026e cf3e da98 773d
00000330: 7b93 08bd 1399 00be 0b8f 593e eafc 733e
00000340: 76ec 2fbe 0c8c 85be bf82 1a3d 98e6 77bd
00000350: e31e eabd d341 bd3d 7c5f 9c3e 8322 90bd
00000360: 7240 abbd a056 483d 8bc3 33be 2a85 5dbe
00000370: 0d23 193e 99f2 d33c 27a0 533d faff c03c
00000380: f031 403d 43ab ef3c 08df 9cbe d80c 4c3d
00000390: fe0d c33c b327 883b 2682 083e 8204 a43b
000003a0: 9abd 68bd 1293 503e f337 19be 2433 a23d
000003b0: 79b8 f43d 5652 c13d 1ed3 39bd ef8a 6c3d
000003c0: ed0b e0bb d610 1a3d bdd3 253c bcf7 4cbe
000003d0: 88ce 12be 827a 413c c644 eb3d acc3 5cbd
000003e0: 334a 1e3d 8830 cf3e e3ea ac3c 37aa 37bd
000003f0: b90b 50bd f92f 743d 3e9b 7abd 3ab3 babd
-0.13863514 0.08205555 0.15195864 -0.14204052 -0.307831 0.045881785 -0.11705007 -0.11449068
0.025062911 -0.05008101 0.13141234 0.01999093 -0.08953281 0.06478357 0.13133201 -0.04029559
0.19505586 0.005189915 0.088040024 0.079499185 -0.04211766 0.09228963 0.14731263 0.07720582
-0.12065292 0.09410492 0.07472554 -0.12902835 -0.22751833 0.056909654 -0.11761252 -0.08146372
-0.02826746 -0.1744441 -0.015089055 0.08873526 -0.053915236 0.06371858 0.027534615 0.02691813
-0.20918778 -0.18877783 0.2872922 -0.074646704 -0.086225905 0.122229755 -0.14890742 0.09893416
-0.15673639 -0.076275304 0.13343732 -0.23150566 0.030986207 0.021062613 0.16021776 0.1564412
-0.31956246 -0.13133098 0.1396163 0.03542212 -0.12450323 -0.16082644 0.051435895 0.12222657
0.06684788 -0.13137342 0.08492085 0.05416102 -0.06247558 -0.103912465 -0.099768475 0.10530567
-0.16740736 -0.07345578 -0.21478097 0.1606786 -0.09149271 -0.06438517 -0.20203578 0.15206267
0.046391435 0.16046327 0.12278354 0.09302838 0.098472826 0.11022552 -0.17123811 0.020947857
-0.08068329 0.10079031 0.23253913 0.031698216 -0.24543843 -0.054488197 0.2050439 -0.092221595
0.11136135 -0.02546116 0.12462634 -0.22997409 -0.24273443 0.17271386 -0.039001722 -0.015306818
0.27279773 0.09564892 0.22565562 0.075562164 -0.06910184 0.04837763 0.18898639 -0.036882013
-0.15499404 -0.011717385 0.14270182 0.05510381 -0.110324636 -0.071592286 -0.20478477 -0.13631447
-0.007928381 -0.1630533 -0.27134073 -0.19669525 0.03838579 0.01978214 0.068921536 -0.17664796
-0.10156691 -0.29168433 0.03396998 -0.003428353 0.08521993 0.0023866596 0.2151886 0.6147133
-0.104341105 0.14062712 -0.20476586 0.118485235 -0.0484357 0.022332836 -0.46194983 -0.029922908
0.10644969 0.0047776736 -0.44711077 0.142487 0.078761294 0.1099315 -0.10022736 -0.19370833
0.31024414 0.11255675 -0.16088045 -0.057006728 0.04828359 -0.26935542 -0.095433585 0.027777277
-0.28194404 -0.20752476 0.02715139 -0.0362901 0.014812564 0.07142436 -0.009342975 -0.066525325
0.019726397 0.11182947 -0.16718131 0.2872378 -0.13849606 -0.057713326 0.36617684 0.08290346
-0.12955852 0.16718793 0.02236291 0.12536429 0.2073994 0.09346034 0.059235945 -0.18884335
-0.04514253 0.17411372 0.097842835 0.085444674 -0.06578615 0.19858493 0.00046848168 0.042417735
0.06335219 -0.0324861 0.055408426 -0.13007882 -0.108975835 -0.033875562 0.18465094 -0.18832357
-0.08293081 0.112756334 0.40513617 0.060448505 -0.033343773 -0.12558393 0.21245973 0.23826948
-0.17180046 -0.2608341 0.037722345 -0.060522646 -0.114316724 0.092410706 0.305416 -0.070378326
-0.08361901 0.048910737 -0.17555062 -0.2163283 0.14954777 0.025872516 0.051666405 0.02355956
0.046922624 0.029256469 -0.3063891 0.049816936 0.023810383 0.004155123 0.13330898 0.00500542
-0.056821443 0.20368603 -0.14962749 0.079199106 0.11949248 0.094395325 -0.045367353 0.057749685
-0.006837359 0.037613712 0.010121283 -0.20016378 -0.14336598 0.011808993 0.11487727 -0.053897545
0.03864498 0.40466714 0.021108096 -0.044840064 -0.05079243 0.059616063 -0.061183207 -0.09116216

bias f4 [29]
00000000: 05b9 733e acb2 afbd 3b88 e43d 861e 2bbd
00000010: 961e b03d 46bd 1cbe a14c 00bd 2c54 1dbe
00000020: 9652 4b3e 589e 7fbe 4eb2 44bd 985e d53d
00000030: 07ee f33c 4cbd 7e3d 7606 22bd feb3 1cbd
00000040: 53ae 9fbe 15cf 743e 7194 f23d c7f4 783e
00000050: 227c f7bd 9915 79be 5111 44be 986a dabe
00000060: 2f05 5fbe 6990 cdbd fd9b 83be 874b a3bd
00000070: a8cb 94be
0.23801048 -0.08579001 0.111587964 -0.041777156 0.08599584 -0.15306577 -0.03132308 -0.1536414
0.19855723 -0.24962747 -0.048021607 0.10418433 0.029776586 0.062192246 -0.039556943 -0.03825759
-0.31187686 0.2390712 0.11844719 0.24312125 -0.12084223 -0.24324645 -0.1914723 -0.4265945
-0.21779321 -0.1003731 -0.25704947 -0.0797339 -0.29061627
