models/ESEU_60-40/ESEU_60-40_5_threshold_val_30.pt (torch, 353807 bytes, 7 tensors)

weight f4 [29, 32]
0	0x3f848938	1.0354376
1	0x3f0d8375	0.5527871
2	0xbf60fe34	-0.87887883
3	0x3ff1633e	1.8858411
4	0xbf018798	-0.50597525
5	0xbf9762d7	-1.1827039
6	0x3fa3f6dd	1.2809712
7	0x3f4f5835	0.8099397
8	0xbe18f76a	-0.14938131
9	0xbec2b3a5	-0.38027683
10	0xbf2f2626	-0.68417585
11	0x3f9a6691	1.2062551
12	0x3f60c88f	0.8780603
13	0x3f842729	1.0324451
14	0xbfb8d3df	-1.4439658
15	0x3d80d46b	0.062905155
16	0x3f92ce0c	1.146913
17	0x3f5c320e	0.8601388
18	0xbfba5d46	-1.4559715
19	0xbf4c2e05	-0.7975772
20	0xbea53cef	-0.3227305
21	0x3fcc1f96	1.5947139
22	0x3d9715eb	0.073772274
23	0x3ebb92de	0.36635488
24	0xbf8120a3	-1.0088085
25	0xbf923b29	-1.1424304
26	0x3f8de6b1	1.1086026
27	0x3f60816b	0.87697476
28	0xbf9d99ad	-1.2312523
29	0xbfa2b887	-1.2712563
30	0xbf72a936	-0.94789445
31	0x3fa4cc57	1.287486
32	0xbdda40c6	-0.10656886
33	0x3f9628cb	1.1731199
34	0x3ea3323e	0.3187427
35	0x3e025235	0.12726672
36	0x3e0b80f1	0.13623406
37	0x3f455e5a	0.77097094
38	0xbfdf37b3	-1.7438873
39	0xbf0f2376	-0.55913484
40	0x3f71e3a6	0.9448799
41	0x3f3891ff	0.7209777
42	0x3ff68eda	1.9262345
43	0x4026bd17	2.6052911
44	0xbf6ae94d	-0.9176224
45	0xbfd69c3f	-1.6766433
46	0x3e9aaa71	0.3020816
47	0x3fa9760d	1.3239151
48	0xbf93eed9	-1.1557266
49	0xbf066626	-0.52499616
50	0x3fce7e7b	1.6132349
51	0x3f724226	0.94632185
52	0xbec9565a	-0.39323694
53	0xbe3e4918	-0.1858257
54	0xbe8fbb5d	-0.28072634
55	0xbec24735	-0.37944952
56	0x3e2db6f9	0.1696433
57	0x3e99276e	0.29912895
58	0x3f5a3e1e	0.85251033
59	0x3f5c7919	0.8612228
60	0xbf0c8ccc	-0.5490234
61	0x3d6f1359	0.05836806
62	0xbf9efd78	-1.2421103
63	0x3e1727e9	0.14761318
64	0x3f2af028	0.667727
65	0xbf8dba15	-1.1072413
66	0xbed48157	-0.41504928
67	0x3f569eb5	0.8383592
68	0xc0042949	-2.0650198
69	0x3fb10dfc	1.3832393
70	0xbf82dc02	-1.0223391
71	0x3ee7d962	0.45283037
72	0x3f72a53f	0.94783396
73	0xbfea1c67	-1.8289918
74	0x3f3c43c8	0.73540926
75	0xbff195af	-1.8873805
76	0xbe486492	-0.19569615
77	0x3ef58a35	0.47957006
78	0x3efbc555	0.4917399
79	0xbf63978a	-0.88903105
80	0xbfeb848a	-1.8399823
81	0xbfb19266	-1.3872802
82	0x3f90da3e	1.1316602
83	0xbf69b960	-0.91298485
84	0x3dfa96de	0.12235807
85	0xc03529b8	-2.8306713
86	0xbfb02fcc	-1.3764586
87	0xbda37ac6	-0.079824015
88	0xbf07e881	-0.5308915
89	0x3f47652d	0.77888757
90	0x3e692798	0.2276901
91	0x3f148c44	0.5802653
92	0x3e4552ec	0.19269913
93	0xbf07123f	-0.52762216
94	0x3ee3e952	0.44513947
95	0xbc88461b	-0.016634991
96	0x3e9561a7	0.29176065
97	0xbf12bad5	-0.57316333
98	0x3f881b49	1.0633327
99	0x3f2ca8fa	0.6744534
100	0xc007e912	-2.1236005
101	0xc00460ac	-2.0684004
102	0xbf52dfe3	-0.82372874
103	0xbfafc6e3	-1.373257
104	0x3f6fb237	0.9363131
105	0xbfe4160b	-1.7819227
106	0xbd94b6fb	-0.07261463
107	0x3f40d234	0.75320745
108	0x3f3579cf	0.7088899
109	0x3e1f1532	0.15535429
110	0xbe759ad5	-0.23984845
111	0xbf6e7120	-0.93141365
112	0x3f5d406d	0.8642643
113	0x4000511d	2.0049508
114	0x3fbe2907	1.485627
115	0xbf351c4f	-0.7074632
116	0xbeefb908	-0.46820855
117	0x3f7e7617	0.9939894
118	0xbfaa1db0	-1.329031
119	0x3f30a3a0	0.6899967
120	0x3f167d7d	0.5878523
121	0xbf74d891	-0.95642954
122	0x3ea4a29b	0.32155308
123	0xbed099fe	-0.40742487
124	0x3f02f5a1	0.5115605
125	0xbf165b4c	-0.5873306
126	0x3f786ae6	0.97038114
127	0xbf91e0d0	-1.1396732
128	0x3f304dbc	0.68868613
129	0xbf995f3e	-1.1982191
130	0xbf127acd	-0.5721863
131	0x3f1fd4fd	0.6243437
132	0x3f10d823	0.565798
133	0x3f9919f0	1.196104
134	0xbfbe0098	-1.4843931
135	0x3f2ea6f9	0.6822353
136	0x3ea0a511	0.31375936
137	0x3ffac406	1.9591072
138	0xbff995ab	-1.94988
139	0xbe2a1dd5	-0.16612943
140	0xbfd8f873	-1.6950821
141	0xc01c82b4	-2.4454775
142	0xbf8d9bd1	-1.1063176
143	0xbec979d5	-0.39350763
144	0x3e868fad	0.2628149
145	0xbf84b65e	-1.0368154
146	0x400ecdfa	2.2313218
147	0xbf7251ac	-0.9465587
148	0xbf5ea497	-0.86969894
149	0xbee4a2f9	-0.44655588
150	0xbd921f1a	-0.071348384
151	0x3e270b97	0.16313015
152	0x3e50a2fd	0.20374675
153	0xbdd965e0	-0.10615134
154	0xbf227d0c	-0.63472056
155	0x3e66c4d1	0.22536017
156	0xbf294e62	-0.6613523
157	0x3eb4765d	0.35246554
158	0x3f19de6b	0.6010501
159	0x3e957e5a	0.2919796
160	0x4011677b	2.271941
161	0xbeedb20c	-0.464249
162	0x3f9d3798	1.2282591
163	0x3fa11fd9	1.2587844
164	0xbf75e1ff	-0.9604797
165	0xbd6ead16	-0.058270536
166	0xbf0d4306	-0.55180395
167	0xbf438292	-0.7637111
168	0x3fe6ccdd	1.8031269
169	0x3f622b4e	0.8834733
170	0xbdf61242	-0.12015201
171	0xbf878412	-1.058718
172	0x3fa35753	1.2761024
173	0x3fbf9e77	1.4970235
174	0x3fcf0a21	1.6174966
175	0x3ef10e82	0.4708138
176	0xc0061c2a	-2.095469
177	0xc009dc79	-2.1540816
178	0xbf1c187e	-0.6097487
179	0xbf30a5c2	-0.69002926
180	0x3f894cc7	1.0726556
181	0x3ff4cc40	1.9124832
182	0xbf21737f	-0.6306686
183	0xbf712889	-0.94202477
184	0x3e889e20	0.2668314
185	0x3f2dcaa4	0.6788733
186	0x3e92c536	0.28666085
187	0x3cad6b86	0.021169435
188	0xbfa4f308	-1.2886667
189	0xbf6503c2	-0.8945886
190	0x3e0c4d4b	0.1370136
191	0x3ef720da	0.4826725
192	0x3f06f020	0.5271015
193	0x3ea0448b	0.31302294
194	0xbfbc4e23	-1.4711345
195	0xbe955fc3	-0.29174623
196	0xbeea4e08	-0.45762658
197	0x3e62fafc	0.22166055
198	0xbf98555d	-1.1901051
199	0x40042894	2.0649767
200	0x3fcc118d	1.5942856
201	0xbf0045de	-0.5010661
202	0xbfd87002	-1.6909182
203	0xbed7ffb1	-0.42187265
204	0x3fbbcec6	1.4672477
205	0xc000f1ec	-2.0147657
206	0x3fae9b74	1.364119
207	0xbf61892f	-0.8809995
208	0x3d3d4e70	0.046217382
209	0x3e517f87	0.20458804
210	0x3f4184c5	0.75593215
211	0xbcdeb794	-0.027187146
212	0xbf14aa88	-0.5807271
213	0x400ed373	2.2316558
214	0x3d492353	0.049105953
215	0xbebac3ef	-0.3647761
216	0x3f1f4772	0.6221839
217	0x3e73e173	0.23816471
218	0xbfca37d1	-1.5798284
219	0xbf68a423	-0.9087545
220	0x3ed83a25	0.4223186
221	0x3ea7b7a4	0.32757294
222	0x3efb8ce8	0.4913094
223	0xbd722887	-0.05912068
224	0xbf763e0c	-0.96188426
225	0xbeb71a0e	-0.35762066
226	0xbdab50a5	-0.08364991
227	0xbfbb5b1b	-1.4637178
228	0xc0112590	-2.2679176
229	0x3f82e087	1.022477
230	0xbe81524c	-0.252581
231	0xbf0cc63b	-0.54989976
232	0xbfb124d6	-1.3839366
233	0xbe719f1f	-0.23595856
234	0xbf808fe8	-1.0043917
235	0x3f121cc4	0.5707514
236	0xbf3c8087	-0.7363362
237	0x3f05f516	0.52327096
238	0x40130c75	2.2976353
239	0xbf21f389	-0.6326223
240	0xbf6a53e4	-0.91534257
241	0x3edc3627	0.43010065
242	0x3f0f414e	0.5595902
243	0x3f73f973	0.95302504
244	0xbf04592d	-0.5169857
245	0x3f9ff4f7	1.2496632
246	0xbebab824	-0.36468613
247	0xbea5a1f6	-0.3235013
248	0x3fdad349	1.7095729
249	0x3e376998	0.17911375
250	0x3eedfc7c	0.46481693
251	0x3f73c8e3	0.95228404
252	0x3effe6de	0.49980825
253	0xbfca2721	-1.5793191
254	0x3fa51392	1.2896597
255	0xbfa5a87e	-1.2942045

weight_ih_l0 f4 [512, 32]
0	0xbd08c335	-0.03338929
1	0xbd9e6baf	-0.07735383
2	0xbde7ffc5	-0.11328081
3	0x3de24105	0.11047558
4	0xbe296597	-0.1654266
5	0x3c4ca09a	0.012489462
6	0xbd8120ff	-0.06305122
7	0xbdf45166	-0.11929588
8	0x3dfc1de1	0.123103864
9	0x3cb9efa8	0.022697285
10	0x3c8c002a	0.017089922
11	0xbdae698e	-0.08516227
12	0xbd5f4399	-0.054507826
13	0xbdc5e175	-0.09662143
14	0x3dc7ee68	0.09762269
15	0x3cad4a63	0.021153634
16	0x3b706c95	0.0036685814
17	0x3e06ddf4	0.13170606
18	0x3e1692ad	0.1470439
19	0x3d49a655	0.049230892
20	0xbc2814a1	-0.010258825
21	0x3ab7ec0c	0.001403214
22	0x3c990ffe	0.018684383
23	0x3d0e8a1b	0.034799676
24	0xbd7fa0d1	-0.062409226
25	0xbc138ac3	-0.009005251
26	0x3e29702b	0.16546695
27	0x3d3d9077	0.04628035
28	0x3d02bb1f	0.031916734
29	0x3cf4388c	0.02981212
30	0x3bcd6796	0.006268452
31	0x3cc0e828	0.0235482
32	0xbcc16317	-0.02360682
33	0x3ba83d40	0.0051342547
34	0xbd7a7fa2	-0.061156876
35	0xbd1822b9	-0.03714249
36	0xbdbac394	-0.09119335
37	0xbe097fda	-0.13427678
38	0x3e008d8b	0.12553994
39	0xbbe3a720	-0.006947413
40	0x3df293bf	0.118445866
41	0xbdbc7966	-0.092028424
42	0xbd1ec96c	-0.03876631
43	0x3d716dc4	0.05894257
44	0xbc3fbdb1	-0.011702941
45	0xbdb15144	-0.08658078
46	0xbdad4aeb	-0.08461555
47	0x3dc678e6	0.09691028
48	0x3bddda4e	0.0067704087
49	0x3cc64d83	0.024206882
50	0x3d8b2750	0.06794608
51	0xbda25a23	-0.079273485
52	0xbc8a22a9	-0.01686223
53	0x3de25a61	0.11052395
54	0x3d46055f	0.048344966
55	0x3d38e548	0.045140535
56	0xbe19a8fd	-0.1500587
57	0xbccc0f5e	-0.024909671
58	0x3da16e60	0.078823805
59	0x3cc22f64	0.023704238
60	0xbd73ef69	-0.05955449
61	0x3de59cb0	0.112115264
62	0xbded6933	-0.11592331
63	0xbc8c12f3	-0.01709888
64	0x3e144af3	0.14481716
65	0xbd77d9ff	-0.06051063
66	0xbe13f4fd	-0.14448924
67	0x3e4ba3bd	0.1988668
68	0x3bd1a4a9	0.006397803
69	0xbc428b0f	-0.011873974
70	0xbcb414ef	-0.021982638
71	0xbceac56f	-0.028658597
72	0xbb32b908	-0.0027270932
73	0x3d423dbb	0.047422152
74	0xbd84b115	-0.06479088
75	0x3dd09332	0.10184325
76	0xbc494c86	-0.012286311
77	0x3d41ec9c	0.04734479
78	0xbddbb8e0	-0.107286215
79	0x3dbf6808	0.09346014
80	0x3da0110d	0.07815752
81	0x3e093ade	0.13401362
82	0x3a859708	0.0010192106
83	0xbd96b84c	-0.073593706
84	0xbe428d7a	-0.18999282
85	0xbb4fa64b	-0.0031684812
86	0x3d47c212	0.048769064
87	0x3d93d23e	0.07217835
88	0xbe563cc6	-0.2092162
89	0xbde395e9	-0.111125775
90	0x3d63cfc2	0.055618055
91	0x3dc0e21d	0.09418128
92	0xbd8666f9	-0.06562609
93	0xbd677599	-0.056508634
94	0x3d64560e	0.05574613
95	0x3daaa612	0.08332457
96	0xbbe15f6c	-0.0068778303
97	0xbc811091	-0.01575497
98	0x3d8181bc	0.06323573
99	0xbda8c43f	-0.08240556
100	0xbd7ddf0c	-0.061980292
101	0x3d5e529a	0.054277994
102	0xbdef2f59	-0.11678953
103	0xbcf6b97b	-0.03011774
104	0x3dc918b8	0.09819168
105	0xbd6310ee	-0.055436067
106	0xbd46d3e7	-0.04854193
107	0xbcb8a81c	-0.022541098
108	0xbd3c2fb3	-0.045943927
109	0xbd8ef5f7	-0.06980508
110	0x3ccdfb16	0.025144141
111	0xbc1bea7c	-0.009516355
112	0xbd81687f	-0.06318759
113	0xbd82eab6	-0.06392424
114	0x3df1af64	0.11801031
115	0xbc9ad501	-0.018900396
116	0xbd4e58d2	-0.050377674
117	0xbe0ddf90	-0.13854814
118	0xbc787969	-0.015165665
119	0xbd90d21d	-0.07071326
120	0x3d39da89	0.045374427
121	0xbc56a314	-0.013100404
122	0xbd1851c5	-0.037187357
123	0xbd89211f	-0.066957705
124	0xbcd5bccd	-0.026091004
125	0xbce31f12	-0.027724776
126	0x3b975513	0.004618296
127	0xbd79bc77	-0.06097075
128	0x3d636cfc	0.055523857
129	0xbcaaffbb	-0.020873895
130	0xbd69db65	-0.057093997
131	0xbdc0424c	-0.09387645
132	0xbd107493	-0.035267424
133	0xbdb172f8	-0.08664507
134	0x3e0ac2e8	0.13550913
135	0xbd864a7a	-0.06557174
136	0xbb9089ea	-0.004410972
137	0x3d16e405	0.03683855
138	0xbd700f52	-0.05860836
139	0xbdb78fac	-0.0896295
140	0x3d97e36a	0.07416423
141	0x3d76c9bd	0.060250986
142	0xbdf7c01f	-0.12097191
143	0xbd19afe7	-0.03752127
144	0x3c80384f	0.01565185
145	0x3dd3f8fb	0.10350224
146	0x3d9370de	0.07199262
147	0x3d0fcda3	0.03510822
148	0xbc6271f4	-0.013821114
149	0x3c8f8634	0.017520048
150	0xbd14be75	-0.036314446
151	0x3b63a6da	0.0034736902
152	0xbdb3fcb3	-0.08788433
153	0xbdc912d3	-0.098180436
154	0xbd96bd4e	-0.07360326
155	0x3c8c61de	0.01713651
156	0xbdd15fa3	-0.102233194
157	0x3d9065af	0.070506446
158	0xbdde113d	-0.10843132
159	0x3d8ec7b0	0.06971681
160	0x3bc7f2f4	0.0061019603
161	0xbe19500c	-0.14971942
162	0xbe90da93	-0.2829176
163	0x3d2f4a93	0.04279573
164	0xbe18f050	-0.14935422
165	0xbdcc2f83	-0.0997
166	0xbdef99f8	-0.11699289
167	0xbca4a2f4	-0.020097233
168	0x3d19d09b	0.037552457
169	0xbe01f27b	-0.12690155
170	0xbe811384	-0.25210202
171	0xbd69110c	-0.056901023
172	0x3ddcba96	0.10777776
173	0xbdcf5d55	-0.101252235
174	0xbd196edf	-0.03745925
175	0xbe04d30d	-0.12971134
176	0xbca83550	-0.020533234
177	0x3d5ed61f	0.05440342
178	0x3cb3975e	0.021922763
179	0x3cc40426	0.02392776
180	0xbddc309b	-0.10751458
181	0xbd8caed1	-0.06869281
182	0xbd1a571f	-0.03768074
183	0x3e1d2cf9	0.15349187
184	0x3d148bab	0.03626601
185	0x3d9be84a	0.07612665
186	0x3db6375d	0.088972785
187	0x3e04a303	0.12952809
188	0xbd9c051b	-0.07618161
189	0xbdd268d5	-0.102739014
190	0xbc264387	-0.010147936
191	0x3dd218e6	0.10258655
192	0x3db5e8a0	0.0888226
193	0x3d11e5df	0.035619613
194	0x3ccc807d	0.024963612
195	0xbe1bd717	-0.15218769
196	0xbc8ff2a8	-0.017571762
197	0x3cc99495	0.024606982
198	0xbd5469e7	-0.05185881
199	0xbd749ef3	-0.0597219
200	0x3a4d9930	0.0007842956
201	0x3cc1ad78	0.023642287
202	0x3d279acc	0.04091911
203	0x3cffd1c3	0.031227952
204	0x3da6ffea	0.081542805
205	0xbd2abd3b	-0.04168437
206	0xbdc7fd95	-0.09765164
207	0xbca9d500	-0.02073145
208	0xbb9bf54e	-0.004759467
209	0x3dbbd306	0.09171109
210	0x3c2ff02c	0.010738414
211	0xbdab5089	-0.0836497
212	0x3deea029	0.11651642
213	0x3cb30b47	0.021855963
214	0xbce288e4	-0.027653165
215	0xbe4a66ed	-0.19765826
216	0xbe1df6fd	-0.1542625
217	0xbe072708	-0.13198483
218	0xbdeb0dd5	-0.114772476
219	0xbc385b84	-0.011252288
220	0xbd4c488e	-0.04987388
221	0x3e0c9111	0.13727213
222	0xbda972ea	-0.08273871
223	0x3c9106dc	0.017703466
224	0x3d3629d4	0.044473484
225	0x3dd514a3	0.10404327
226	0xbdbfcdd0	-0.093654275
227	0xbb429f42	-0.0029696976
228	0x3d9e0867	0.07716446
229	0xbb51bb92	-0.003200267
230	0xbd8239ca	-0.06358679
231	0x3de44c7d	0.111474015
232	0x3d91564b	0.07096537
233	0x3bb85c32	0.005626225
234	0xbc691720	-0.014226705
235	0xbbb23243	-0.0054381206
236	0x3e09bed7	0.13451706
237	0xbdb0bd30	-0.08629835
238	0x3d9bc23b	0.07605406
239	0xbb543b87	-0.0032384114
240	0xbc465ca4	-0.012107048
241	0xbc7f21af	-0.015571996
242	0x3d00f133	0.031480026
243	0xbda956ad	-0.08268485
244	0x3bae28df	0.005314931
245	0xbdba295c	-0.0908992
246	0x3d00626c	0.031343862
247	0xbc901aad	-0.017590845
248	0xbe10c9cf	-0.14139484
249	0xbda36900	-0.079790115
250	0x3dd5dc05	0.10442356
251	0x3d80304c	0.06259212
252	0xbdb3a8f3	-0.08772459
253	0xbd63a838	-0.055580348
254	0xbe1a3e98	-0.1506294
255	0x3e1b7d93	0.15184622

weight_hh_l0 f4 [512, 128]
0	0x3ca63786	0.020290148
1	0x3d2c44c2	0.04205776
2	0x3da2ab22	0.07942797
3	0xbdbb7fa7	-0.09155207
4	0xbdc1d602	-0.09464647
5	0xbd5c754e	-0.053822808
6	0xbe3e7fe7	-0.18603478
7	0xbdfe9f17	-0.12432688
8	0xbce744fd	-0.028231138
9	0x3dc2112f	0.09475934
10	0x3dc83b73	0.09776964
11	0x3dcabb80	0.09899044
12	0x3e3dde48	0.18541825
13	0x3e3b8bb3	0.1831501
14	0x3af9b411	0.0019050856
15	0xbe85bdd4	-0.2612139
16	0xbe24f2e7	-0.16108285
17	0xbd139c8d	-0.03603797
18	0xbcae6d20	-0.02129227
19	0xbda3afd2	-0.079925194
20	0xbc8a32ac	-0.016869865
21	0x3e3eb4bd	0.18623634
22	0x3e1c8df9	0.15288533
23	0x3dbb58e4	0.09147814
24	0xbe3cee39	-0.1845025
25	0xba50580e	-0.00079476915
26	0xbd0cf9d1	-0.03441793
27	0xbdd84e93	-0.10561862
28	0x3dccb7e3	0.09996011
29	0x3db4ac00	0.08821869
30	0x3d9e8b41	0.07741404
31	0xbda8172c	-0.08207545
32	0xbd479825	-0.04872908
33	0x3e5fac87	0.21843158
34	0xbdafe07f	-0.08587741
35	0x3ce6e3b4	0.02818475
36	0x3d7aaf71	0.06120247
37	0x3db5b005	0.08871464
38	0xbd97d53f	-0.0741372
39	0xbe08b170	-0.13348937
40	0x3d9b08fe	0.075700745
41	0x3dd8227d	0.10553453
42	0x3d77f9ff	0.06054115
43	0xbdb94609	-0.09046561
44	0xbd975d16	-0.073908016
45	0x3e07dce8	0.13267863
46	0x3e14c6a7	0.14528905
47	0xbe1a5d92	-0.15074757
48	0x3cb9700f	0.022636442
49	0x3d14b7de	0.036308162
50	0x3d893716	0.0669996
51	0x3e1f86eb	0.15578811
52	0xbdac2038	-0.08404583
53	0xbe602216	-0.21888003
54	0xbdc4199c	-0.09575197
55	0x3ce973ff	0.028497694
56	0xbd01c924	-0.031685963
57	0x3dfeda32	0.12443961
58	0xbdcaf7c7	-0.09910541
59	0xbe42815e	-0.18994662
60	0x3c444e05	0.011981492
61	0x3c8b1800	0.016979218
62	0xbdc355ce	-0.0953785
63	0xbd588ff2	-0.052871652
64	0xbd948422	-0.07251765
65	0xbe4a3aa6	-0.19748935
66	0xbe1def00	-0.15423203
67	0x3d10ddf0	0.035367906
68	0xbe10c169	-0.1413628
69	0xbae8278f	-0.0017711985
70	0x3e0af0c1	0.13568403
71	0x3cc3fd58	0.023924515
72	0xbe0fe71a	-0.14053002
73	0xbdfd50dc	-0.12368938
74	0xbe652bae	-0.22379944
75	0xbdf12327	-0.11774283
76	0xbdb2d073	-0.08731165
77	0x3e06d81c	0.13168377
78	0xbe418b7e	-0.18900868
79	0xbd4da655	-0.050207455
80	0xbdfa60f1	-0.12225521
81	0xbdac40c9	-0.08410794
82	0xbc65af98	-0.014018916
83	0x3ddf636b	0.10907634
84	0xbd93d0e5	-0.07217578
85	0xbdbe0e4f	-0.09280073
86	0xbdc62c04	-0.09676364
87	0x3e346402	0.17616275
88	0xbe477abd	-0.19480415
89	0xbda8b76f	-0.08238112
90	0xbd77fd0c	-0.06054406
91	0x3e3a811d	0.18213315
92	0xbd75e829	-0.06003586
93	0xbd59cb14	-0.053172186
94	0xbd512c32	-0.05106754
95	0x3d6a736e	0.05723899
96	0x3d8d2cec	0.06893334
97	0x3d400bec	0.04688637
98	0xbe0f58bd	-0.13998695
99	0x3e2c8f50	0.16851544
100	0x3d8bcb4f	0.068258874
101	0x3cea809d	0.02862578
102	0xbdfa460b	-0.12220391
103	0xbe278db4	-0.16362649
104	0x3dc37033	0.09542885
105	0xbda98672	-0.082775965
106	0x3e26d4a3	0.16292052
107	0xbdbec299	-0.0931446
108	0x3da6f318	0.08151835
109	0xbc82fe9f	-0.015990553
110	0x3d597e1d	0.053098787
111	0xbe34836e	-0.17628261
112	0xbe05e6a7	-0.13076268
113	0xbe24248c	-0.16029567
114	0x3e2b34da	0.1671938
115	0xbc84bb14	-0.016202487
116	0x3da38f10	0.079862714
117	0x3dd06e75	0.10177318
118	0x3dbd9588	0.092570364
119	0x3c724d83	0.014788988
120	0xbdf1a99e	-0.1179993
121	0xbd9ca902	-0.07649423
122	0x3dcba3a6	0.09943323
123	0xbe334b9a	-0.17509308
124	0x3e359d1e	0.17735717
125	0x3de81740	0.113325596
126	0x3e19d77b	0.15023606
127	0x3dd41386	0.10355286
128	0xbd130f16	-0.03590306
129	0xbda7ed16	-0.081995174
130	0x3a54bb08	0.0008115028
131	0xbdbd8c98	-0.09255332
132	0x3d1a6e25	0.0377027
133	0xbbb5f2a2	-0.0055526057
134	0x3d7279e1	0.059198264
135	0xbd265f44	-0.040618196
136	0xbcedae3d	-0.029013747
137	0xbd7485f7	-0.05969807
138	0x3c13550d	0.008992446
139	0x3e064f3e	0.13116166
140	0x3d0af751	0.033927266
141	0xbcd92295	-0.026505748
142	0xbd4c085f	-0.04981267
143	0xbc26e514	-0.010186452
144	0xbd63d1e3	-0.055620085
145	0xbcbc5b93	-0.022992885
146	0xbde62c72	-0.11238946
147	0xbda37a5a	-0.07982321
148	0xbcf65304	-0.030068882
149	0x3dda7bee	0.10668169
150	0x3d76e004	0.06027223
151	0x3d671f12	0.056426115
152	0x3ce919e6	0.028454732
153	0x3d1d0416	0.038333975
154	0x3cc23c10	0.02371028
155	0xbdb6f81f	-0.08934044
156	0x3d63c82e	0.055610828
157	0xbb0010e5	-0.001954132
158	0xbcdda62b	-0.027056774
159	0x3d277b16	0.04088887
160	0xbdfae4ea	-0.12250693
161	0xbcd36583	-0.02580524
162	0xbdde48c0	-0.1085372
163	0x3db0fdca	0.086421564
164	0x3dbbc11b	0.09167691
165	0xbbd5e230	-0.006527208
166	0xbd4f0175	-0.0505385
167	0x3c5773ee	0.013150198
168	0xbc6b9acb	-0.014380167
169	0xbc6440ff	-0.013931512
170	0x3e129311	0.14313914
171	0xbd7665b6	-0.060155593
172	0xbda24ccf	-0.07924806
173	0xbd9c98e3	-0.07646348
174	0xbce5fe28	-0.028075293
175	0xbcf4cec0	-0.029883742
176	0x3dc83e0d	0.0977746
177	0x3dd84bdb	0.10561343
178	0x3c30a8f4	0.010782469
179	0x3d9c5b59	0.07634611
180	0xbd8fc8d4	-0.07020727
181	0xbba82579	-0.00513142
182	0xbd5a12a6	-0.05324044
183	0xbcea203a	-0.02857982
184	0xbd97ee44	-0.074184924
185	0x3e07c290	0.13257813
186	0xbb98d155	-0.004663626
187	0xbd5be192	-0.053681917
188	0xbdaac155	-0.083376564
189	0x3d2c057e	0.041997425
190	0x3d98fb2a	0.07469781
191	0xbb99c6e6	-0.0046929
192	0xbcca7fb7	-0.024719102
193	0x3d9ba4e6	0.07599811
194	0x3d3e19f0	0.046411455
195	0xbdd954f7	-0.10611909
196	0x3d539f8a	0.05166582
197	0xbd39336c	-0.045215055
198	0xbc19e2d0	-0.009392455
199	0x3d88a2bf	0.06671666
200	0xbd08547d	-0.0332837
201	0xbd919d7c	-0.07110116
202	0xbdae43cd	-0.08509026
203	0x3cc8aa07	0.024495138
204	0xbde2229d	-0.11041758
205	0x3cc29dde	0.023756918
206	0xbdb86855	-0.09004275
207	0xbdcc913f	-0.09988641
208	0xbd1323a3	-0.035922658
209	0x3c0d6af9	0.008631461
210	0xbcc561e4	-0.02409453
211	0x3e1277d9	0.14303531
212	0xbd076df1	-0.033063833
213	0xbdfbf310	-0.1230222
214	0x3d24e36a	0.04025594
215	0xbd70e954	-0.05881627
216	0xbdbc6a28	-0.09199935
217	0xbbd59974	-0.006518537
218	0xbd550751	-0.05200893
219	0xbd938149	-0.072023936
220	0xbda1f063	-0.07907178
221	0xbd02791f	-0.03185379
222	0xbdc8a511	-0.09797109
223	0xbcee9f99	-0.029128836
224	0xbd9fde1a	-0.078060344
225	0x3e1c8966	0.15286788
226	0x3ccdbeeb	0.02511545
227	0x3d7c1731	0.061545555
228	0x3d339901	0.043847088
229	0xbd82590e	-0.06364642
230	0xbc65a1c9	-0.014015623
231	0xbdb07234	-0.086155325
232	0xbcb6f04f	-0.022331385
233	0xbdb525da	-0.0884511
234	0x3d300ecc	0.04298286
235	0xbd9b6972	-0.075884715
236	0xbcb69936	-0.022289854
237	0xbcc2fa01	-0.023800852
238	0xbcae68e6	-0.021290254
239	0xbbc74bc3	-0.0060820295
240	0xbd1610b6	-0.03663703
241	0xbd5cf9f8	-0.053949326
242	0x3dc889db	0.09791919
243	0x3d8fd57a	0.07023139
244	0xbd1e3c78	-0.038631886
245	0x3c42c12e	0.011886878
246	0x3de304cf	0.110849015
247	0x3d8f62df	0.0700128
248	0x3cb631ef	0.022240607
249	0xbdfaa242	-0.122379795
250	0xbd9f33a4	-0.077735215
251	0xbd3162c2	-0.043307073
252	0x3cebc43d	0.028780097
253	0x3cba022e	0.022706117
254	0xbcfc3743	-0.03078807
255	0x3e2b6918	0.16739309

bias_ih_l0 f4 [512]
0	0x3e1d3917	0.1535381
1	0x3d36e5f2	0.044652887
2	0x3e2d8acd	0.1694748
3	0xbcfca1ca	-0.030838866
4	0x3d746623	0.059667718
5	0x3e1f1967	0.15537034
6	0x3bcd9639	0.0062740115
7	0xbc4dc40e	-0.01255895
8	0xbb992349	-0.004673396
9	0x3d9b2cfa	0.07576938
10	0x3d0fb59a	0.035085298
11	0x3df064d9	0.11737985
12	0x3d66d197	0.056352224
13	0x3cea6a93	0.028615272
14	0x3c8ba601	0.01704693
15	0x3d3f8775	0.04676004
16	0x3dc7bbae	0.09752594
17	0x3d86b801	0.06578065
18	0x3dec4885	0.115372695
19	0x3e247003	0.16058354
20	0x3e10e434	0.14149553
21	0x3de32ede	0.110929236
22	0x3db98678	0.09058851
23	0x3df4c56e	0.11951719
24	0x3d861fcf	0.06549036
25	0x3dc04b60	0.09389377
26	0x3e133832	0.14376906
27	0x3db3cc75	0.087792315
28	0xbd1a95ff	-0.037740704
29	0x3df9dca6	0.122002885
30	0x3d9e0656	0.07716052
31	0xbd16e30c	-0.036837623
32	0x3d9875d5	0.0744435
33	0x3b9a7bcf	0.004714466
34	0xbd35cd42	-0.044385202
35	0x3c2525cd	0.010079813
36	0xbd32447f	-0.043522354
37	0x3d0c05e6	0.034185313
38	0x3d09adf1	0.03361315
39	0xbd23375d	-0.03984772
40	0x3cff2a25	0.031148026
41	0x3d07ff44	0.033202425
42	0x3df5d84f	0.12004148
43	0xbc6f103b	-0.014591272
44	0x3db7e96b	0.08980068
45	0x3d27b222	0.040941365
46	0xbc8e5075	-0.01737235
47	0x3d4fbe34	0.0507185
48	0x3b596ae2	0.003317528
49	0x3e04a523	0.1295362
50	0x3e0a035e	0.13477847
51	0x3d9a143f	0.07523393
52	0x3d50bbd8	0.05096039
53	0x3c52d4c9	0.012868115
54	0x3cd3cc83	0.025854355
55	0x3cc1c7a4	0.023654766
56	0x3daf8ec8	0.08572155
57	0x3c07b0d2	0.008281903
58	0x3d9db359	0.077002235
59	0x3cd2577a	0.025676478
60	0xbd85cf90	-0.0653373
61	0x3dae8407	0.08521276
62	0x3e341ae0	0.17588377
63	0x3dde1771	0.10844315
64	0x3c9ca682	0.019122366
65	0x3d080775	0.033210237
66	0x3c090a3f	0.008364259
67	0x3d5c2c8e	0.05375343
68	0x3e0b023d	0.13575073
69	0x3e0693f1	0.13142373
70	0x3e157fbd	0.1459951
71	0x3e0cd361	0.1375251
72	0xbc897765	-0.016780565
73	0x39a2535b	0.00030961153
74	0x3e156357	0.14588676
75	0xbba59a6d	-0.0050538094
76	0x3d8b70a9	0.068085976
77	0xbb270a56	-0.0025488338
78	0x3dd97c63	0.10619428
79	0x3dd3d722	0.10343768
80	0x3df7a505	0.12092022
81	0x3dee30be	0.116303906
82	0x3daff538	0.08591694
83	0x3cd3791f	0.025814591
84	0x3c8be0fc	0.017075054
85	0x3e0a4382	0.13502315
86	0x3dbd101f	0.092315905
87	0x3d8c26d3	0.06843343
88	0x3d95f57a	0.073222116
89	0x3da5aa41	0.08089114
90	0x3d56b491	0.052418295
91	0x3de34658	0.110974014
92	0x3da79399	0.08182449
93	0x3e0fd4cb	0.14046018
94	0x3dc2250a	0.09479721
95	0x3a927c94	0.0011176043
96	0x3c9afe93	0.018920219
97	0x3e03da9a	0.12876359
98	0x3db4647f	0.088082306
99	0x3e07cdc5	0.13262089
100	0x3d49b765	0.049247164
101	0x3db58cc9	0.08864743
102	0x3d988b40	0.07448435
103	0x3dbecd8c	0.09316549
104	0x3d01a433	0.031650733
105	0x3d65c0ab	0.056091946
106	0x3de87563	0.11350515
107	0xbd4e0b51	-0.05030376
108	0xbbc9e130	-0.0061608776
109	0x3d13cb60	0.036082625
110	0x3dad167d	0.08451555
111	0x3d12689f	0.035744306
112	0x3d3492f6	0.044085465
113	0x3d6068bf	0.054787394
114	0x3d5de4fe	0.054173462
115	0x3e1ed5a7	0.1551119
116	0x3e10e80d	0.1415102
117	0x3dbe4821	0.09291101
118	0x3d848374	0.06470385
119	0x3d422be6	0.047405146
120	0x3df329b6	0.1187319
121	0x3e006bbe	0.125411
122	0x3e1ccd55	0.15312703
123	0x3d5ed923	0.054406296
124	0x3dd41592	0.10355677
125	0x3ddf7e20	0.10912728
126	0x3e110c0d	0.14164753
127	0x3d03bcc1	0.03216243
128	0xbd6a9ce1	-0.057278518
129	0x3d368994	0.0445648
130	0xbd632ba2	-0.055461533
131	0x3d82a1f4	0.06378546
132	0xbcce6370	-0.0251939
133	0xbe0fe707	-0.14052974
134	0xbc27a461	-0.010232062
135	0xbbe727df	-0.0070543136
136	0xbd78c7e5	-0.06073751
137	0xbd320118	-0.043458074
138	0x3d2df50a	0.042470016
139	0x3bae5758	0.005320471
140	0xbd3bb991	-0.045831267
141	0x3d86f820	0.06590295
142	0x3cb2a9fa	0.021809567
143	0xbc2a8c85	-0.010409479
144	0x3d9082aa	0.07056172
145	0x3d067eac	0.032835647
146	0x3d3ee2a8	0.046602875
147	0x3c5404b6	0.012940576
148	0x3d00e0b7	0.031464305
149	0x3c92f830	0.01794061
150	0xbbf45bf2	-0.00745725
151	0xbd65d7f6	-0.05611416
152	0x3b906db1	0.0044076075
153	0x3d7057f4	0.05867763
154	0xbdde2551	-0.10846961
155	0x3da28753	0.07935967
156	0x3d566c8d	0.052349616
157	0x3d9159a9	0.070971794
158	0x3d7b8126	0.061402462
159	0x3e01de2f	0.12682413
160	0x3d3649b4	0.044503883
161	0xbc20021b	-0.009766127
162	0x3d325112	0.043534346
163	0xbd0b7cc0	-0.034054518
164	0xbd131c10	-0.035915434
165	0x3c88926f	0.016671387
166	0xbd2dd8c0	-0.042443037
167	0x3dabcbbc	0.083884686
168	0xbd7de0e1	-0.06198204
169	0xbd59e051	-0.05319244
170	0xbd2f6242	-0.042818315
171	0x3da3d725	0.0800002
172	0xbcc29a3a	-0.023755182
173	0xbc48cfb8	-0.012256555
174	0x3c6bf10e	0.014400734
175	0x3b36b206	0.0027877106
176	0xbd9dfc20	-0.07714105
177	0x3dbb378c	0.09141454
178	0x3c9834ca	0.01857986
179	0xb7e2260f	-2.6959022e-05
180	0x3caea16f	0.021317212
181	0xbc21e0aa	-0.009880224
182	0x3c8ced5d	0.017203027
183	0x3d8d5147	0.06900268
184	0x3cd4578e	0.025920656
185	0x3d5967e8	0.05307761
186	0x3d9aa8f6	0.07551758
187	0x3dcecbaa	0.100974396
188	0xbcd68f3e	-0.02619135
189	0xbde6d07c	-0.11270234
190	0xbdb3c92d	-0.087786056
191	0xbd42d617	-0.047567453
192	0xbd8b3dbb	-0.067988835
193	0xbd058f8c	-0.0326076
194	0x3db49774	0.0881795
195	0xbd92a132	-0.07159652
196	0xbb9ff6dc	-0.004881723
197	0xbd170600	-0.036870956
198	0xbd7e94b6	-0.06215354
199	0xbdb0bb4e	-0.086294755
200	0xbc9bec13	-0.019033467
201	0x3d869cab	0.06572851
202	0xbd88e203	-0.06683733
203	0xbcff6e5f	-0.031180559
204	0x3c0e68e9	0.008692005
205	0x3d396959	0.045266483
206	0x3c9d9f94	0.019241132
207	0x3dcc1b31	0.09966124
208	0xbd20aa20	-0.039224744
209	0x3d6d9768	0.05800572
210	0x3d2c6211	0.04208571
211	0x3b86fc43	0.0041194274
212	0xbd600f63	-0.054702174
213	0xbd81ef94	-0.06344524
214	0x3d3426ef	0.043982442
215	0xbd8a8edd	-0.0676553
216	0x3d5fccc1	0.054638628
217	0xbcbfcbc2	-0.023412589
218	0x3db9161d	0.09037421
219	0xbcad420c	-0.021149658
220	0xbcdc3566	-0.026880931
221	0x3d8bbef7	0.06823533
222	0xbd3128fa	-0.04325197
223	0x3d3f68e1	0.04673088
224	0xbd804599	-0.06263275
225	0xbc5fd239	-0.013660961
226	0xbd4c6fd9	-0.049911354
227	0xbd85c763	-0.065321706
228	0xbe2873cf	-0.16450427
229	0xbe26fef7	-0.16308199
230	0x3d69f379	0.05711696
231	0xbc23a543	-0.009988132
232	0xbc5cb73e	-0.013471423
233	0xbd750cc5	-0.05982663
234	0xbd251253	-0.04030068
235	0x3d2f0153	0.042725872
236	0x3d5823a2	0.052768357
237	0x3d9025a1	0.07038427
238	0xbd26ca7a	-0.04072044
239	0x3d9c1dbd	0.076228596
240	0xbd5e0824	-0.054206982
241	0x3cf5d1e2	0.030007306
242	0x3c86d4b3	0.016458845
243	0x3da6b009	0.08139045
244	0xbd8e7156	-0.06955211
245	0xbcd56b3c	-0.02605211
246	0x3bb9726e	0.005659393
247	0x3c138684	0.009004239
248	0xbd73d3a8	-0.059528023
249	0x3c7b857f	0.015351652
250	0x3d580bdc	0.052745685
251	0x3dca5f43	0.09881451
252	0xbd1452b2	-0.036211677
253	0xbc187c4d	-0.009306979
254	0x3d13eef7	0.036116567
255	0xbdf537f2	-0.11973561

bias_hh_l0 f4 [512]
0	0x3d50c3b7	0.0509679
1	0x3d95daab	0.07317098
2	0x3df22ef5	0.118253626
3	0x3b99c0b1	0.00469216
4	0x3d53a805	0.051673908
5	0x3e1c298d	0.15250225
6	0x3d9d7b1e	0.07689498
7	0x3d869aab	0.06572469
8	0x3d47d267	0.04878464
9	0x3d7f964d	0.062399197
10	0x3c8ddf2d	0.017318333
11	0x3ca325c8	0.019915476
12	0x3e27e25a	0.1639494
13	0x3c248e3a	0.010043675
14	0x3e2b807a	0.16748229
15	0x3e3044c6	0.17213735
16	0x3ddc138d	0.107459165
17	0x3dc9f125	0.09860448
18	0x3e19df71	0.15026642
19	0x3d840ee0	0.0644815
20	0x3c47ed9a	0.012202645
21	0x3da84db5	0.082179464
22	0x3de08584	0.10962966
23	0x3d59602c	0.053070232
24	0x3e23de7f	0.16002844
25	0x3ddac109	0.1068135
26	0x3df7e67b	0.121045075
27	0x3e26898f	0.16263412
28	0x3d8d039f	0.06885456
29	0xbc9a6d34	-0.0188509
30	0x3cdff6c1	0.027339341
31	0x3d06464f	0.032781895
32	0x3df43554	0.11924234
33	0x3d8a51a7	0.06753855
34	0xbd105d23	-0.035245072
35	0x3d151101	0.03639317
36	0x3cfb11c5	0.030648122
37	0x3e1641ab	0.14673488
38	0x3ddc89b7	0.107684545
39	0x3d9d9c56	0.07695834
40	0x3e1a0e76	0.15044579
41	0x3d196b31	0.03745574
42	0x3c729196	0.014805218
43	0x3d1bd330	0.0380432
44	0x3dfd8d87	0.1238051
45	0xbbb34d1c	-0.0054718386
46	0x3df88e3b	0.12136503
47	0x3d1d7c05	0.038448352
48	0xbce24bcc	-0.027624033
49	0xbba58cec	-0.0050521996
50	0x3caf8ff1	0.021430941
51	0x3dd303f8	0.10303491
52	0x3d876b23	0.066122316
53	0x3d0e386e	0.034721784
54	0xbc5d9636	-0.013524583
55	0x3e03fae8	0.12888682
56	0x3ddfb427	0.10923033
57	0x3bc35b57	0.0059618163
58	0x3d72d8dd	0.05928885
59	0x3db06347	0.08612686
60	0x3d2b0f11	0.041762415
61	0x3e02f5bb	0.12789051
62	0x3cb61de2	0.022231046
63	0x3d01e686	0.031713985
64	0x3cf5d1e2	0.030007306
65	0x3e3fbf1c	0.18725246
66	0x3e05e05c	0.13073868
67	0x3d4748a4	0.04865326
68	0x3d692962	0.05692423
69	0x3dc6ffe0	0.09716773
70	0x3d9cc36f	0.076544635
71	0x3e41cc0e	0.18925497
72	0x3d8f2f68	0.06991464
73	0x3d399f3e	0.04531788
74	0x3e106a9d	0.1410317
75	0x3da0adf8	0.07845682
76	0x3df0f501	0.11765481
77	0x3e2280a9	0.15869392
78	0x3d51db8e	0.051234774
79	0x3d83a774	0.064284235
80	0x3db990fd	0.090608574
81	0x3dedff7e	0.11620997
82	0x3da75372	0.08170213
83	0x3d8b2d28	0.06795722
84	0x3dc13906	0.094347045
85	0x3ddce935	0.10786668
86	0xbd4fbce6	-0.050717257
87	0x3d127a62	0.035761245
88	0x3d3201ac	0.043458626
89	0x3d902813	0.070388936
90	0x3db74308	0.08948332
91	0x3c7f0f6b	0.015567641
92	0x3d1980f4	0.037476495
93	0x3cc9ef1d	0.02465015
94	0x3b3b5b75	0.0028588448
95	0x3d88d9ec	0.0668219
96	0x3e016fa2	0.12640241
97	0x3d266b09	0.04062942
98	0xbd25dc8d	-0.040493537
99	0x3d89a136	0.06720202
100	0x3dfeb1c1	0.124362476
101	0x3e370385	0.17872436
102	0x3c994c24	0.018713064
103	0x3dd787aa	0.10523923
104	0x3e142665	0.14467771
105	0x3e1ae3b4	0.15125924
106	0x3d9759b2	0.07390155
107	0x3d9263ee	0.07147966
108	0x3d9b25f6	0.075756
109	0x3d487aba	0.048945166
110	0xbd928ac8	-0.07155377
111	0xbd324b73	-0.043528985
112	0x3c4dd3f6	0.012562742
113	0x3d1d81c9	0.03845385
114	0x3b94bf36	0.0045393957
115	0xbc0bcfa3	-0.008533391
116	0x3df74f0c	0.12075624
117	0x3d7b2e01	0.06132317
118	0x3dfe2384	0.12409118
119	0x3d61d904	0.055138603
120	0x3e41c2e8	0.18922007
121	0x3c64af94	0.013957877
122	0x3dbbb657	0.09165638
123	0x3df65289	0.12027461
124	0x3dbdab15	0.09261147
125	0x3cf6852b	0.030092796
126	0x3cbfb473	0.023401475
127	0x3e2eca2d	0.17069311
128	0xbd20ef24	-0.039290562
129	0x3dcad6f8	0.09904283
130	0xbbc45ec1	-0.005992741
131	0x3c4e5d10	0.01259543
132	0xbb4ae0ea	-0.0030956813
133	0xbd1a5626	-0.037679814
134	0x3ca26f09	0.019828336
135	0x3cf9c657	0.030490084
136	0xbbb13949	-0.0054084403
137	0x3cb786ea	0.0224032
138	0x3df63c91	0.12023271
139	0xbb0c4b0e	-0.002140704
140	0x3d93a5d0	0.072093606
141	0x3d041494	0.032246187
142	0xbc822861	-0.015888395
143	0xbd9e756c	-0.0773724
144	0x3dcd43fa	0.10022731
145	0x3d192139	0.0373852
146	0x3d703553	0.058644604
147	0x3d9b6c74	0.07589045
148	0xbd85e518	-0.06537837
149	0x3d7a51d9	0.061113212
150	0x3d394ecc	0.045241162
151	0x3c9c39fe	0.019070622
152	0x3d08ca0a	0.033395804
153	0x3d85f804	0.06541446
154	0xbd8afeed	-0.067869045
155	0x3c3fe168	0.011711456
156	0xbd7b2509	-0.061314616
157	0x3d92466d	0.07142339
158	0x3c8e3af9	0.017362105
159	0x3d59c257	0.053163853
160	0xbd805202	-0.06265642
161	0x3d5013a5	0.050799984
162	0x3d96c629	0.07362015
163	0xba73c649	-0.0009299261
164	0xbd1ef1ce	-0.03880482
165	0xbd804dcb	-0.06264838
166	0x3d8c43e5	0.06848887
167	0xbcc8d0a2	-0.024513546
168	0x3d2e90f7	0.042618718
169	0x3dd77cc3	0.10521843
170	0x3c90749f	0.017633734
171	0x3db82af1	0.089925654
172	0x3de4db15	0.11174599
173	0x3dd060c9	0.1017471
174	0xbd6810d7	-0.056656685
175	0x3d87b327	0.066259675
176	0x3c9f74e4	0.019464917
177	0x3d16d188	0.03682092
178	0x3e0dd4d0	0.13850713
179	0x3d3b98db	0.04580007
180	0x3d7f6602	0.06235314
181	0x3dbb6157	0.091494255
182	0x3cb00c32	0.02149019
183	0x3ad41a78	0.0016182205
184	0x3cf23bf0	0.029569596
185	0xbd1eb198	-0.038743585
186	0x3befdbf4	0.0073199216
187	0xbd03541f	-0.032062646
188	0xbcec569f	-0.028849898
189	0xbdb9f06c	-0.0907906
190	0xbca9f001	-0.020744326
191	0x3dcde8a1	0.10054136
192	0xbceb9957	-0.028759642
193	0x3e0376cc	0.12838286
194	0x3dd9a52d	0.10627208
195	0xbd0c722f	-0.03428858
196	0xbd803eb5	-0.062619604
197	0x3c769185	0.015049343
198	0xbdcc73db	-0.09983035
199	0x3cb0fc34	0.021604635
200	0xbd12337a	-0.035693623
201	0x3c50d6a7	0.01274649
202	0xbc235ea6	-0.009971296
203	0x3b013eef	0.001972135
204	0xbc15cc29	-0.009142914
205	0xba3be8b1	-0.00071681576
206	0xbc8bf49e	-0.017084416
207	0x3dccde2f	0.10003316
208	0x3b84ff2a	0.0040587382
209	0xbcab5514	-0.020914592
210	0xbd075884	-0.0330434
211	0xbdb3217b	-0.0874662
212	0xbcbc9b07	-0.023023142
213	0x3b7099f9	0.0036712869
214	0x3d9270bf	0.07150411
215	0x3dc06940	0.09395075
216	0xbccd8e54	-0.025092281
217	0x3d11968c	0.035543963
218	0x3d04d578	0.032430142
219	0xbda69da8	-0.08135539
220	0xbcb3f036	-0.021965127
221	0xbb60d414	-0.0034306096
222	0xbd208bd5	-0.039195854
223	0x3dfd9bab	0.12383207
224	0xbd3477a1	-0.0440594
225	0xbd4b120e	-0.049577765
226	0xbd638eaf	-0.055555996
227	0x3ddf8066	0.10913162
228	0xbe379af7	-0.17930208
229	0xbdbfde02	-0.093685165
230	0x3d23e8d8	0.04001698
231	0x3ce5cf4d	0.02805295
232	0xbd2d950d	-0.042378474
233	0xbcd9b65a	-0.02657621
234	0x3d584e49	0.052809034
235	0x3cd3081f	0.025760708
236	0x3de144dc	0.10999462
237	0x3dd794c0	0.10526419
238	0x3da7454a	0.08167513
239	0x3b8b4a0a	0.0042507695
240	0x3d4d2ff5	0.050094564
241	0xbd43c169	-0.047791872
242	0xbcbe0534	-0.02319584
243	0xbccbe381	-0.024888756
244	0x3d486c5b	0.04893146
245	0xbc8208cc	-0.015873335
246	0x3be85ec1	0.0070913737
247	0xbcf2da0b	-0.029644987
248	0x3b4f1805	0.003160001
249	0x3dc47834	0.095932394
250	0x3c567f73	0.01309191
251	0x3d80d09c	0.06289789
252	0x3d34e84a	0.04416684
253	0xbd444840	-0.047920465
254	0xbd734b45	-0.059397954
255	0xbca3b653	-0.0199844

weight f4 [29, 128]
0	0xbd46ff91	-0.04858357
1	0x3dd2b332	0.10288085
2	0xbd9c9b5b	-0.07646819
3	0xbdcb1d9f	-0.09917759
4	0xbdc4648c	-0.0958949
5	0x3e235842	0.15951636
6	0xbd98f352	-0.07468285
7	0xbd994c6b	-0.07485279
8	0xbdd0b15a	-0.10190077
9	0x3e36ea19	0.17862739
10	0x3da435fe	0.08018111
11	0x3dbf39ba	0.09337182
12	0x3e14e884	0.14541823
13	0x3e022807	0.12710582
14	0xbdd9ef1d	-0.1064131
15	0xbd93b886	-0.072129294
16	0xbe03c023	-0.12866263
17	0x3da05f7d	0.07830713
18	0xbdc5d025	-0.09658841
19	0xbde5a6cf	-0.11213457
20	0x3e2edfed	0.17077608
21	0x3db7e82b	0.089798294
22	0x3d556949	0.05210236
23	0x3b8f32fd	0.004370092
24	0x3dc2a84f	0.095047586
25	0x3a2ad479	0.0006516646
26	0xbc9bde33	-0.019026851
27	0xbe22ff43	-0.15917687
28	0x3d134da3	0.035962712
29	0x3e089f6c	0.13342065
30	0x3ce1bd80	0.027556181
31	0x3d311fe0	0.04324329
32	0xbd93cd7d	-0.07216928
33	0xbbff9dfa	-0.0078008147
34	0xbd8e8e04	-0.06960681
35	0xbe040ca9	-0.12895454
36	0x3da40c4d	0.08010159
37	0x3d9cd678	0.07658094
38	0xbce5f6b6	-0.028071743
39	0xbd90fffb	-0.070800744
40	0x3c464eb9	0.01210373
41	0xbdadcc4a	-0.08486231
42	0xbd6712b7	-0.056414332
43	0xbd130ddf	-0.0359019
44	0xbd7022cc	-0.058626935
45	0xbc7f9bc5	-0.015601103
46	0x3dd53383	0.10410216
47	0xbdd8c99a	-0.105853274
48	0x3d1e0d34	0.03858681
49	0x3da8cfa7	0.082427315
50	0x3e05fb3d	0.13084121
51	0x3dd6f472	0.10495843
52	0xbbfbf244	-0.0076887924
53	0x3cf86dfa	0.030325878
54	0xbd7756cd	-0.060385514
55	0x3dda2ae9	0.10652716
56	0xbd5a695c	-0.053323135
57	0x3d39a540	0.04532361
58	0xbdb04c45	-0.08608297
59	0xbcd65046	-0.026161324
60	0x3e963ead	0.29344693
61	0xbe3b414a	-0.18286625
62	0xbe147a0a	-0.14499679
63	0xbd91f159	-0.071261115
64	0xbe2d6696	-0.16933665
65	0xbddbd340	-0.10733652
66	0xbdc4fd72	-0.09618653
67	0x3e0d6f40	0.1381197
68	0x3bae6c87	0.005322996
69	0x3e1bb657	0.15206276
70	0x3e19fe6f	0.15038465
71	0x3dfb5793	0.12272563
72	0xbddbef52	-0.10739006
73	0xbd9fe366	-0.07807045
74	0x3d37c06c	0.044861242
75	0x3d780e4e	0.060560517
76	0x3db36511	0.08759511
77	0x3e000df7	0.12505327
78	0xbdc42175	-0.09576694
79	0xbd50ba20	-0.050958753
80	0xbdd8f8a1	-0.10594297
81	0xbd98cc35	-0.074608244
82	0xbdb1bb68	-0.08678323
83	0xbda7747c	-0.081765145
84	0x3d173a13	0.03692062
85	0xbd19ea11	-0.03757674
86	0xbc577859	-0.013151252
87	0x3df97f4d	0.12182484
88	0xbd730908	-0.059334785
89	0x3d505fc0	0.050872564
90	0xbe0f1025	-0.13971002
91	0xbe1c6e53	-0.1527646
92	0x3d1a29f6	0.037637673
93	0xbd76bbab	-0.060237568
94	0x3cb10be7	0.02161212
95	0x3d839cf5	0.064264216
96	0x3d5cdefa	0.053923585
97	0xbdc725cd	-0.09724007
98	0xbd58b287	-0.052904632
99	0x3df09392	0.11746897
100	0xbe0e2ec0	-0.13885021
101	0x3e2243ec	0.15846223
102	0xbd518d35	-0.051160056
103	0x3e00e03d	0.1258554
104	0x3e33f0ce	0.17572328
105	0xbdf44adc	-0.11928341
106	0x3d978fe5	0.074004926
107	0xbd24c30f	-0.040225085
108	0x3d096ed1	0.03355295
109	0xbdb0be5b	-0.086300574
110	0xbd3d4269	-0.04620591
111	0xbd484e9e	-0.0489031
112	0xbd6d78d4	-0.05797656
113	0xbde58d03	-0.112085365
114	0x3e0880b3	0.13330345
115	0xbd612afa	-0.054972626
116	0x3e1ab973	0.15109806
117	0x3e065063	0.13116603
118	0x3dc9fc56	0.098625824
119	0x3e0c2141	0.1368456
120	0xbdebc41d	-0.11512015
121	0xbd48f5fc	-0.049062714
122	0x3de1528a	0.11002071
123	0xbd296ffd	-0.041366566
124	0x3df466d2	0.11933674
125	0x3df0c766	0.11756782
126	0x3e00df94	0.12585288
127	0xbd8d038a	-0.06885441
128	0x3e0008ab	0.12503307
129	0xbc0d4caa	-0.008624235
130	0x3de3d177	0.111239366
131	0x3de5b099	0.11215324
132	0x3c81cef1	0.015845748
133	0xbe3fd91f	-0.18735169
134	0xbd9a8a27	-0.07545882
135	0x3d05431e	0.03253471
136	0x3cbc2c13	0.022970235
137	0xbc4706ff	-0.012147664
138	0x3ca8c868	0.020603374
139	0x3d77058e	0.06030803
140	0xbd088424	-0.033329144
141	0x3cb08349	0.021546977
142	0xbbc63442	-0.00604871
143	0xbdd7c420	-0.10535455
144	0x3d20ccdc	0.03925787
145	0x3d33dd2f	0.04391211
146	0x3de77899	0.11302299
147	0xbd9bcd8a	-0.07607563
148	0xbe05c67e	-0.13064
149	0x3e0aee64	0.13567501
150	0xbd416b3b	-0.047221404
151	0xbdf95e67	-0.12176209
152	0xbe05a3fb	-0.13050835
153	0x3ddb2558	0.10700482
154	0xbc7486bc	-0.014924701
155	0x3c9d3d17	0.019194169
156	0xbdc580e1	-0.09643722
157	0xbd83b5bd	-0.06431148
158	0xbce93a00	-0.02847004
159	0x3d97bfaf	0.074096076
160	0x3e171b5d	0.14756532
161	0xbbce4ade	-0.006295546
162	0x3dce4caa	0.10073216
163	0x3dab69d7	0.08369797
164	0xbdd506e6	-0.104017064
165	0x3d478fbf	0.04872107
166	0x3d1f9475	0.03895994
167	0xbdabdb33	-0.08391418
168	0x3db3fd60	0.08788562
169	0x3d778380	0.060428143
170	0x3d5cf5dc	0.053945407
171	0x3dd4a8ce	0.103837594
172	0x3c3934c9	0.011304089
173	0x3ca533f9	0.020166384
174	0xbcf5764b	-0.029963633
175	0x3d3026c7	0.04300573
176	0x3d542b57	0.051799145
177	0x3d0bdf08	0.034148246
178	0xbe5393c2	-0.20661834
179	0xbda744ba	-0.081674054
180	0x3d7873af	0.0606572
181	0xbd8a771e	-0.06761001
182	0xbd0a51fb	-0.03376959
183	0xbd2c9866	-0.042137526
184	0x3dbb085d	0.091324545
185	0x3c9b1b85	0.01893402
186	0xbb6554ab	-0.0034993093
187	0xbc10d6e8	-0.0088403
188	0xbd251ccf	-0.040310677
189	0x3d8818fa	0.06645389
190	0x3dc472f3	0.09592237
191	0x3e03eb4d	0.12882729
192	0x3e5c55db	0.21517126
193	0x3cc4b237	0.02401076
194	0x3a99aea6	0.0011725023
195	0x3d6d1769	0.057883654
196	0x3e148cd0	0.1450684
197	0xbd6132c3	-0.05498005
198	0x3d98ed47	0.07467132
199	0xbd79c562	-0.060979255
200	0x3db4799c	0.08812258
201	0xbd0e9f68	-0.03481999
202	0xbcf47212	-0.02983955
203	0xbdea1286	-0.11429314
204	0xbbf5b785	-0.007498684
205	0xbb010674	-0.0019687684
206	0xbc3ed60d	-0.011647713
207	0x3dea84de	0.11451124
208	0x3d8d9f29	0.06915123
209	0x3d554824	0.05207075
210	0xbc682fbf	-0.01417154
211	0xbe313585	-0.17305572
212	0x3ccc80cc	0.024963759
213	0xbb37e020	-0.0028057173
214	0xbd9e65b9	-0.07734246
215	0xbd273078	-0.040817708
216	0xbdc8543e	-0.09781693
217	0x3e2f41ea	0.17114988
218	0x3d8bc39d	0.0682442
219	0x3d6bc316	0.057559095
220	0xbd5e4b1f	-0.05427086
221	0x3d6c5233	0.05769558
222	0x3d4275f7	0.04747578
223	0xbdb555ed	-0.0885428
224	0xbde24b71	-0.110495456
225	0x3db2f391	0.08737863
226	0xbd62a273	-0.055330705
227	0xbd2f9415	-0.04286583
228	0x3e1d63fa	0.1537017
229	0xbdd88694	-0.10572544
230	0x3cf529c1	0.029927136
231	0xbddff8ce	-0.109361276
232	0x3d9283ca	0.07154043
233	0xbd59e1a0	-0.05319369
234	0xbd474d5c	-0.04865776
235	0x3d8b54bf	0.068032734
236	0x3b76c168	0.00376519
237	0x3d17fa7d	0.03710412
238	0x3cfbeb96	0.030751985
239	0xba16641e	-0.00057369645
240	0x3e06cd53	0.13164262
241	0x3ca6a833	0.020343876
242	0x3d08e9a7	0.033425953
243	0xbb69868a	-0.003563317
244	0x3d2e6988	0.04258111
245	0xbd825232	-0.06363334
246	0xbd64cfca	-0.055862226
247	0x3c87f141	0.016594531
248	0xbd99cddc	-0.07509968
249	0xbc7751a6	-0.01509515
250	0xbe44c785	-0.19216736
251	0x3d634de4	0.055494204
252	0x3b50f9ec	0.0031887246
253	0x3ce57d73	0.02801392
254	0xbbff9ad3	-0.007800439
255	0xbd70efa9	-0.058822308

bias f4 [29]
0	0x3db90a4c	0.09035167
1	0xbc8f672a	-0.017505247
2	0xbcd76978	-0.026295409
3	0x3c93bfad	0.018035734
4	0x3ddeccfe	0.10878943
5	0xbd5fd2fa	-0.054644562
6	0xbdadd6a5	-0.08488206
7	0xbd1479af	-0.03624886
8	0x3db81b4b	0.08989581
9	0xbdfbd2b7	-0.1229605
10	0x3c970659	0.018435644
11	0xbd7b4de1	-0.061353568
12	0xbaf980e4	-0.0019035605
13	0x3c021320	0.00793913
14	0x3d596d00	0.053082466
15	0x3dadac42	0.08480121
16	0xbcf7e84e	-0.030262139
17	0x3d8dfd52	0.06933083
18	0xbd23b2f6	-0.039965592
19	0x3dae4946	0.085100695
20	0xbd3dd47b	-0.046345215
21	0xbd991bdc	-0.07476017
22	0xbe1a00e3	-0.15039401
23	0xbda04ef5	-0.0782756
24	0xbe1839a2	-0.14865735
25	0xbd82ca77	-0.06386273
26	0xbd9a265e	-0.07526849
27	0xbd4d9495	-0.050190527
28	0xbd37f324	-0.04490961
