models/ESEU_60-40/ESEU_60-40_9_best_loss.pt (torch, 318607 bytes, 7 tensors)

weight f4 [28, 16]
00000000: 7cc6 b73f 291e 97bf 9780 293f c35b e33e
00000010: 300d c13e f42b fd3f 6207 f1be 5e1b 1a40
00000020: d4fc e2be c5cc eb3e 0dbc d6bf 4f8d c33f
00000030: 3562 6a3f 4705 e33f f479 27be 02de a23f
00000040: 084f 9f3f 1ce4 a73f e2c2 793f 2870 4fbf
00000050: b914 aa3f 6137 c13e b92b aabc 9c0d 64bf
00000060: 7e2c efbe f799 c03f 01c7 74bf bbe6 28be
00000070: 7d34 803f 0e18 f4be 026c 0dc0 aa76 ec3f
00000080: def4 793f 854c bc3e aa69 0dbf 7776 2540
00000090: 202d 96bc 657f 55bf 77d9 aa3f 4ce2 21bf
000000a0: 19ba 84bf 7ce6 2c3f c87f ca3f c713 7abd
000000b0: 93aa 7440 c074 003f c6e7 b1be 56e2 0a3f
000000c0: 96db 78bf 7238 4a40 31ed 5a3e d940 13c0
000000d0: 3c1c 6f3f b762 a4bf 330f 6f3f 623c 9cbf
000000e0: 4163 d73e 91ca a7bf d291 d83d d73a 163f
000000f0: 2ef5 ebbc 4dfe 733f f413 b13f 0c6e d5bf
00000100: 60e1 5ec0 91b7 6dbf d6ea c73e 1b95 723f
00000110: 9792 1d40 431c cdbf c291 5c3f 51fd 95be
00000120: afd2 98be 06c2 89bf 8fd5 003e 2bad 273f
00000130: 461a 8cbf 8024 9d3f 0204 d7bf e06f 963e
00000140: 72bb c8be 8b2c 85bd a2b0 753f cc3d 43bf
00000150: 4873 63be b3f9 ae3f 196b a63f 7f3a 06c0
00000160: db0e 88bf b353 ed3f 8cd9 7d3f 30fa 943f
00000170: 40bd 603f dec6 0d40 1277 93bd f2c6 6a3f
00000180: b96d 78bf 13d5 b83f 72b1 3d3f c210 7ebe
00000190: 44d4 39bf 13a2 a93f 41c7 edbe 8590 8fbe
000001a0: e011 cbbf 3ee1 1abe afe2 803f 1804 45c0
000001b0: 6d8f a73f b5fe cc3f fb4f c7be eb82 903f
000001c0: 8484 07bf 2a3b ca3c 96e0 bd3d 4d96 dabf
000001d0: b10d ba3c 9fa1 b33e 0422 1b40 6bfd 273f
000001e0: 8e9e 0ebd 6634 0f40 d872 1abf 6e7e f63e
000001f0: eb2e e2bc 830d 0c3e b894 ae3f 86a0 7fbf
00000200: c10d 5bbf 1490 b93e e28f 7dbf 24a3 ab3f
00000210: 3c49 9f3f 6e79 d5be 3f4d 8ebf d47a 45c0
00000220: 4ad1 19c0 c63d e7bf 0f7f 423e 22f0 8e3e
00000230: a084 63bf dadf 303d d72a 6ebf f5c6 543f
00000240: 4fef b53f 72cd 573f 5f10 54bf 9309 d9bf
00000250: 0c37 d13d 4ce6 c0bf ecd2 713f f003 1b3f
00000260: 74f1 bfbf 71cd c73f 5a58 c23f 455b e03f
00000270: 2be8 18bf c98d 2ebe 8d3c 7140 c8ea 2d40
00000280: 1d46 0e3f 5e69 203e b3cf 47bf 74ae 8c3f
00000290: 0bda 82be 2e07 e73f 708f 0b40 4240 a63f
000002a0: 6c70 0abe bc71 ba3f 93e9 a83e c624 68bf
000002b0: 526e b6bf 0fca cbbf 2e0e d3bf 2504 d53e
000002c0: efa4 8a3d 8731 85bf 683c cabf 9ca8 e9bf
000002d0: 7ad1 94be 370f b83e 9100 483e 5168 e93e
000002e0: 2adf 46bf ab53 44bc 14c9 f73f 716a 2dbf
000002f0: 71a4 433f 2ab6 833f 6ff6 ebbf 1e82 fdbe
00000300: 796a 05c0 df79 81bf a5bb dd3f 7d62 87bf
00000310: aeae 15c0 30c4 4d3f 5421 743e 62d1 763e
00000320: d72d c7bf 94b6 df3f 4578 af3d 92a8 6abf
00000330: af88 e7bf 1847 d0bf 58d7 b03e 4361 14be
00000340: 4aa8 a03f d7c5 69be 9c73 11bf 2059 a7bf
00000350: 0401 e2be e59b b8bf 1755 a73f 327b bd3f
00000360: 74fc 0fc0 5f48 89bf 6e6c 57bf 8bfc 043f
00000370: cd5e 253f 17a4 f1bf cf33 dbbf 1455 99be
00000380: 7f5d b2be dc7c c5bf fd2e 203f 006d d53f
00000390: afdb 323f e5b0 00bf be65 b0bf abe2 303f
000003a0: 1af4 7b3f 0046 f0bf 3a94 c6be 3f20 05bf
000003b0: e0d6 333f 6271 29bf 9e0a bd3e e43c 20be
000003c0: 6f0d 0240 5573 9bbf 36af fd3e 5b70 96bf
000003d0: 49db 893e 3fa1 46be 72eb 13bf 5680 94bf
000003e0: b06a b7bf 032f ca3f 69d6 c0bf 49d8 b8bf
000003f0: 052d 0440 cab7 1140 a719 8f3f 5f63 6fbe
1.4357448 -1.1806079 0.6621184 0.44405946 0.37705374 1.9779038 -0.47075945 2.4079204
-0.44333518 0.46054664 -1.6776139 1.5277499 0.915561 1.7735986 -0.16355115 1.2724001
1.2445993 1.3116488 0.9756299 -0.8103051 1.3287574 0.37737563 -0.020772802 -0.89083266
-0.46713632 1.5046986 -0.95616156 -0.16494267 1.0016018 -0.47674602 -2.2097173 1.8473713
0.9763926 0.3677713 -0.55239356 2.5853555 -0.018332064 -0.83397514 1.3347615 -0.63235927
-1.0369292 0.6753919 1.5820246 -0.061054017 3.822911 0.50178146 -0.34747142 0.5425161
-0.9721006 3.1596951 0.21379544 -2.300833 0.9340246 -1.2842625 0.9338257 -1.2205927
0.42067912 -1.3108693 0.10574688 0.5868353 -0.028803434 0.9530991 1.3834214 -1.6674209
-3.4825058 -0.92858225 0.39046353 0.94758767 2.4620721 -1.602425 0.8615991 -0.29294828
-0.2984824 -1.0762336 0.12581466 0.6549861 -1.0945518 1.2276764 -1.6798098 0.2938223
-0.3920551 -0.065026365 0.95972645 -0.7626617 -0.22211945 1.3669952 1.3001434 -2.0973203
-1.0629534 1.8541168 0.99160075 1.1638851 0.8778877 2.215263 -0.07200445 0.91709816
-0.97042423 1.4440025 0.74098885 -0.2481108 -0.72589517 1.3252586 -0.4644108 -0.28039947
-1.586483 -0.15124986 1.0069178 -3.0783749 1.3090645 1.601523 -0.38928208 1.1289953
-0.5293658 0.024686415 0.09271352 -1.7077118 0.022711607 0.35084245 2.4239511 0.6562106
-0.03481918 2.2375731 -0.6033149 0.48143333 -0.027610263 0.1367703 1.3639135 -0.99854314
-0.8556786 0.36242735 -0.9904767 1.3409162 1.2444224 -0.41694206 -1.1117324 -3.0856218
-2.403399 -1.8065727 0.18993782 0.27917582 -0.88874245 0.04318223 -0.9303412 0.83116084
1.4213656 0.8429786 -0.8283748 -1.6956047 0.102155775 -1.5070281 0.94462466 0.60552883
-1.4995561 1.5609571 1.5183213 1.7527853 -0.5972926 -0.17046274 3.7693207 2.717455
0.55575734 0.15665194 -0.780513 1.0990739 -0.2555698 1.8049066 2.1806297 1.298836
-0.13519448 1.4565959 0.32990703 -0.9068111 -1.4252417 -1.5921038 -1.6488702 0.41604725
0.0676974 -1.040574 -1.5799685 -1.825458 -0.29066068 0.35949108 0.19531466 0.455874
-0.7768427 -0.011982839 1.9358239 -0.6774054 0.7642279 1.0289967 -1.843458 -0.49513334
-2.0846236 -1.0115317 1.732289 -1.0576931 -2.3387866 0.80377483 0.23840839 0.2410331
-1.5560864 1.7477593 0.085678615 -0.9166347 -1.8088588 -1.6271696 0.34539294 -0.14490227
1.2551358 -0.22829376 -0.5681703 -1.3074074 -0.441414 -1.4422575 1.3072842 1.4803221
-2.2497835 -1.0725211 -0.84149826 0.5194785 0.6459778 -1.8878201 -1.7125186 -0.29947722
-0.34836957 -1.5428729 0.625717 1.6673889 0.6986646 -0.5026992 -1.3781049 0.6909587
0.98419344 -1.8771362 -0.38784963 -0.5200233 0.7024975 -0.66188633 0.36922163 -0.15648228
2.03207 -1.2144572 0.49547738 -1.1753038 0.26925114 -0.19397448 -0.57781136 -1.1601665
-1.4329433 1.5795597 -1.5065433 -1.4441005 2.0652478 2.2768426 1.1179703 -0.23377751

weight_ih_l0 f4 [512, 16]
00000000: 323b 483e 3770 593e 2868 9cbd 1657 16bf
00000010: 09f6 473e f915 b63d a9c5 d93e 3785 243e
00000020: 5eb6 14bf 57ff 053f a66b 36bd eec6 9cbe
00000030: f265 1c3e c0de 113f 8a8f e5bd 172d 37bd
00000040: fe54 7dbd 5435 bbbe be01 8ebe 095c 4b3f
00000050: 2ec7 ba3e 2cd3 08be c5d1 c53d ea67 e6be
00000060: 06b9 f63d 7e07 753b adb4 003f 6c35 54be
00000070: 894e 953e fd81 a13e b237 9abd 899b 83be
00000080: e7f6 6abe 7d5c 5bbd b184 823e a4c5 f0bd
00000090: 6010 3dbe 9f21 d6be d1e3 dd3d 5802 433e
000000a0: e008 a03d ce7a 19be 8b65 c43e 8b2b 1f3d
000000b0: caeb c83e c95b 0cbe 05b0 9ebe 103f 27be
000000c0: a2af 7f3e e3bc fa3e c352 f93d 005a b4be
000000d0: fc56 be3c b2e0 e1bd c794 513e 7fc7 65be
000000e0: 7a4a 9c3d a15d d23d 7186 943e 586e 4dbd
000000f0: a7ae db3e b60f 90be de3d b8bd faee c53e
00000100: a6ad b2be b653 6e3e 5436 c53d 026e 0abe
00000110: 6790 463f 2763 50be f316 ee3e 2131 16be
00000120: 86dc 8bbe 488b 323f 8578 6bbe c6fa f1bc
00000130: 78eb bb3d adaa 183f 7d95 1c3e 0ab9 52be
00000140: df09 6e3e 7d3f c4bd 1079 23be ae33 dbbe
00000150: e384 5dbd 5ef9 093e c17a b43e abac 6d3e
00000160: 4268 45bb 86e9 fc3e 1601 4bbb 30de 0c3e
00000170: ec01 063b 078b df3d 0eb4 59bd 728e dfbb
00000180: a460 b03d 7678 d1be 5a34 243c 8fc2 e43d
00000190: ce7e e4bd 4773 db3d b21d 42be 4e4c 50be
000001a0: 3745 7ebe dfc8 41be b344 42be cfb3 c3be
000001b0: af3a 923e 41a9 393e b3c6 a2be 4c62 a83e
000001c0: 17de fa3e 4bc6 373d 4b88 46be b44d dbbe
000001d0: 2cd4 9fbe 9799 ef3e 6f26 d0be 7e1b 94bd
000001e0: 2240 1f3e c35e a53d 6265 bcbe ecb5 2ebe
000001f0: 2e87 3f3e b1d3 293d c377 09be 87fa d3bc
00000200: dd06 afbd 4c3c 0dbf 2430 9d3d 73e0 62be
00000210: 28db 39be fc54 81be 189f 053f 9afd bcbd
00000220: f4b1 923d 0f3d 7fbe d3cc a13d cd5b 07bf
00000230: cd0e a33e 6c4a a73e aec2 573d e5c1 bf3e
00000240: 8b4b 513d 9d13 563e 31d4 913e a8d5 d53d
00000250: 7de1 9ebd 1c09 a4be b04c 5c3f 72c7 5d3e
00000260: 484b 923e d657 bc3e fe52 04bf ae34 ec3e
00000270: 1fd3 293d 4b39 fabe 32a5 44be 068b 47be
00000280: 8e7a bf3d 6326 d23e c1bb cabd 2b5f b63e
00000290: 8e1f b63e 720e 2bbd 5996 3bbe e34b c9be
000002a0: 81f0 0a3d f0bd 2f3e 62a6 6fbe 116a d33e
000002b0: fc31 863e 9814 243f 691c e43d 884c dbbd
000002c0: 9287 113e 32b0 2c3e ff03 563d f93d 28bc
000002d0: 648c 50be bfe2 ff3b b5ce 92be 7347 163e
000002e0: d0bc e4bd 6578 3cbd 035e 21bd 3272 c13d
000002f0: 671e 333e 60a0 843e f49a 9f3c 9efb a4bd
00000300: 74be eebd ab32 ac3e fb16 ab3e d859 dabe
00000310: aced edbd 4f4c a33e bd0c 233f d728 9abe
00000320: 85aa 9bbe e262 2c3d 2c0d 7c3e 3c7c a8be
00000330: 0f4a 56bf 2dd8 30bd a608 ccbd a548 7ebe
00000340: 1396 b73e cb46 443d 5f24 473e a658 933e
00000350: 429a ea3e fe22 cbbe 8002 f23e 0197 143f
00000360: 8718 0abe 96b7 b93e 3ebf a0be 3a52 2f3f
00000370: c36e d33e a06f f13e 88d3 903d 0556 d2bb
00000380: 6877 e73e 27e7 1cbf 4c6e ba3e 7a3a a83e
00000390: f673 95bd 0b3e ccbe d9f2 873e 1435 003e
000003a0: 0747 483e 3721 033f 015e 34bd f469 b73e
000003b0: 0005 9dbd 0e2f c9be e36c 273f d00d abbe
000003c0: 5aa8 273f 2835 5abe b1d8 803e 4a14 ca3e
000003d0: b518 bebd 3382 6ebd d349 52bb e03f dd3e
000003e0: 410d 0e3e 3cfc 403e 12e7 37be 6191 92be
000003f0: 9d57 ec3e 6e03 a03e 4c98 bfbe 9d47 c63e
0.19553831 0.21234213 -0.07637054 -0.5872663 0.19527449 0.0889091 0.42533615 0.16066442
-0.5809077 0.5234274 -0.044536255 -0.3062052 0.15273264 0.56980515 -0.112090185 -0.044720735
-0.061848633 -0.36564124 -0.27735704 0.7943731 0.36480087 -0.13361806 0.09659151 -0.45001155
0.12047009 0.00373885 0.5027569 -0.20723504 0.2916148 0.31544486 -0.07530154 -0.257046
-0.22945748 -0.053555 0.2549186 -0.11756447 -0.18463278 -0.41822526 0.10834468 0.19043863
0.07814193 -0.14988253 0.3835872 0.038859885 0.39242393 -0.13706888 -0.30993667 -0.1633265
0.24969342 0.48972234 0.12173989 -0.35224915 0.023234837 -0.11029185 0.2046691 -0.22439383
0.07631393 0.102717645 0.2900882 -0.05015406 0.42906687 -0.28136986 -0.08996175 0.38658887
-0.34898108 0.2327412 0.09629503 -0.13518527 0.7756409 -0.20350324 0.46501884 -0.14667179
-0.27316684 0.69743776 -0.22995193 -0.029538523 0.091757715 0.5963543 0.152914 -0.205784
0.23245953 -0.09582422 -0.1596415 -0.42812866 -0.05408181 0.13474032 0.35249904 0.23210399
-0.0030121957 0.49396914 -0.003097599 0.13756633 0.0020447923 0.10915189 -0.05315023 -0.0068224007
0.08612183 -0.40912217 0.010022247 0.111699216 -0.111569986 0.10715347 -0.1895664 -0.20341608
-0.24831091 -0.18924282 -0.18971519 -0.3822312 0.28560397 0.18130971 -0.3179222 0.32887495
0.48997566 0.04486684 -0.19387929 -0.4283272 -0.31216562 0.46796867 -0.40654323 -0.07231806
0.15551808 0.08074715 -0.367961 -0.17061585 0.1870391 0.04146165 -0.13424592 -0.025876297
-0.08546231 -0.5517013 0.07675198 -0.22155933 -0.18150008 -0.2526015 0.5219588 -0.09228058
0.07162848 -0.24925636 0.07900395 -0.5287445 0.3184723 0.32673967 0.052675895 0.37452617
0.051097434 0.2090592 0.28482202 0.10441142 -0.07757852 -0.320382 0.86054516 0.21658114
0.2857306 0.36785764 -0.51689136 0.4613394 0.041461106 -0.48871836 -0.19203642 -0.19486627
0.09349547 0.41044912 -0.098990925 0.35619482 0.3557095 -0.041761823 -0.18319072 -0.3931571
0.03392077 0.17162299 -0.23403314 0.4129186 0.2621001 0.64093924 0.11138231 -0.107079566
0.14211872 0.16864088 0.052249905 -0.010268682 -0.20366055 0.0078090127 -0.2867333 0.14675693
-0.111688256 -0.046013255 -0.039396297 0.09445609 0.17492066 0.25903606 0.019483067 -0.08055805
-0.1165742 0.33632407 0.3341597 -0.4264667 -0.11617598 0.31894156 0.6369131 -0.30109283
-0.30403534 0.04208649 0.246144 -0.32907283 -0.83706754 -0.04317491 -0.09962587 -0.24832399
0.35856685 0.047919076 0.19447468 0.2877857 0.45820814 -0.39675134 0.47267532 0.58042914
-0.13485919 0.36272877 -0.31395906 0.6848484 0.41295442 0.47155476 0.070715964 -0.0064189457
0.45208287 -0.6129021 0.36412275 0.32857114 -0.072975084 -0.39891085 0.26552466 0.12520248
0.19558345 0.51222557 -0.04403496 0.35823023 -0.07666969 -0.39293712 0.6540052 -0.33408976
0.6549126 -0.2130934 0.25165322 0.39468604 -0.09282056 -0.058229636 -0.003208746 0.43212795
0.13872243 0.1884622 -0.1795924 -0.2862654 0.46160594 0.31252617 -0.3742088 0.38726512

weight_hh_l0 f4 [512, 128]
00000000: d082 0ebe 1dd0 973d 273d a6be cbc8 5d3e
00000010: 5956 ddbe 0c94 b1be a0a5 d53d 2ced a2be
00000020: b668 a1be 9159 863e 5d17 1abe d7ec e23d
00000030: a7ab 393e f5b9 05bf d363 dbbc 8b12 e2bd
00000040: 1eae 60be 3730 afbe 0785 4e3f a98b d53e
00000050: 9af2 e13e 2e8c 06bf cd36 5ebe 753c 873e
00000060: 3ee8 9ebe 4ff8 a33d 50a2 1bbe 28a9 88be
00000070: 8f96 823e 504f 90bd c11a 033f 8f83 c33d
00000080: 2610 5fbe be24 f0be 3955 49bf 39a1 5b3e
00000090: bbaf 47bf 4688 6fbe bd81 25be b832 9e3e
000000a0: 9a05 d43e 2f55 d93d 278c 44be d27a 133f
000000b0: 13e9 e83b e5dd 3a3e f8a1 4bbd c916 903e
000000c0: e0e0 ed3b c320 a8bd a142 263f f232 833d
000000d0: a6b6 d2be 43af fcbe e37e e83d b82d 23be
000000e0: b2d2 82be 11bd a83e 1419 833e 086f 51be
000000f0: d24d ff3c 3516 8dbe fc42 c4be 01a8 f4bd
00000100: 766c e73e c029 86bd c666 143d 61a3 d33d
00000110: 7777 b1bd 5c19 443e fa99 9a3c 0245 113f
00000120: 2a94 8bbe b608 3a3f 8e89 463e b81f 603e
00000130: f10c 22be d338 fe3e 9b1e 533e 63c7 803e
00000140: 76b1 8c3e fcac 893e dc5c 8d3e eec8 ea3d
00000150: fb63 a83d 300a 2d3f 1232 f13d d2a7 afbe
00000160: 40f6 bdbd afc4 743e 81bf ba3d 6b24 23be
00000170: da0f e43e 487a 07bf 791d efbe cbe9 bdbe
00000180: 90fe bfbd 0404 dfbe bc2e a23e b897 77be
00000190: 9ffd b63e a1f8 a1bd 823f c13e 4eb2 99be
000001a0: 3ed2 213f a685 fbbe da8b 023d 9257 e53d
000001b0: 0303 60be bb51 053f 41ee 0ebf 59f7 9d3e
000001c0: bc13 85be adf5 33be 658d 8f3c be8c 423e
000001d0: ef3e 7bbe 926c fb3e c847 bebe 7d02 763e
000001e0: d52e 1fbf eb05 0ebf e46a 56be b51b bb3d
000001f0: 4181 82be 2f08 7ebf 5647 a3be 510b 153e
00000200: 6412 933e ec77 1dbd 1e6c 99bb 24a0 a73d
00000210: c9ab d3bd ce19 a83e 471c 943e 777b f53d
00000220: dda4 eabb b995 283e 7e7c 7d3e 9cf7 083f
00000230: 369e 12bf 17f3 99be b2ec e5be a04d 703d
00000240: dd06 98be 3ae2 3f3e ca23 55be 613b ed3e
00000250: 8411 893c 4513 b83e 9af7 ef3e e580 c7bd
00000260: 8841 56be 6810 b5bd 3e0e 3c3e dd8a 6bbe
00000270: ee65 bfbd 331a a73d 8641 0e3f 0a38 c6be
00000280: 9011 2c3e 1d21 b03d 3a80 38be 0989 043f
00000290: 4988 ddbd 4dff a23e 8102 a2be 77bf 24be
000002a0: de62 0d3e d4a4 1dbe 27f1 b63e 2e13 09be
000002b0: 431b a93e c26a f33e f670 363e 327f a23e
000002c0: 1685 b03d c0a2 d33e 282a 243e 0222 ca3d
000002d0: 31a0 2c3f 4b7f 853e 8b3e 9dbe ddd0 1bbe
000002e0: 4231 d5be f3f0 0c3d 0bcb 223e bcd2 8b3f
000002f0: 5a17 9e3e b9f6 163e 5eef c73d 1ae0 75bc
00000300: a0fc 8bbe 67be 2c3d 50e4 eebe 76db 163f
00000310: cddc aebd 1253 9bbd f265 ffbe 780e 6d3e
00000320: a06e 343d 329e 56be 6741 01be 29ea 91be
00000330: 4247 cdbd 2d39 3bbe 852f 00be 7901 083f
00000340: 3b4b 323f 6d3f bf3e 141b 86bd 041b aebd
00000350: 7845 b03e 2665 933e 5442 be3e 1698 ab3e
00000360: 9e2f 973d 5ebd c43d ecb5 843e 4be0 e83c
00000370: 5bed 5fbd 9eb8 c8bd 556d e0be 5fd5 bfbd
00000380: bb75 1f3d 1434 f83e ff3b d83e fd60 10bd
00000390: 2fff 45be 2fc3 83bd 8fd4 85bd 3989 fa3d
000003a0: 3e1f 87bd 82e2 8e3d 8ae7 9c3d 553a 243e
000003b0: 5227 593e 439d 96bc 3c86 f2bd 7845 86be
000003c0: 0268 353e 896e a43e e73c 1fbf bc91 833d
000003d0: 6fbb 9b3d cfec ce3e 4d94 56bc 6256 8f3d
000003e0: c0a7 173c 1b84 45bb 2f7b 263e 3b23 cfbe
000003f0: 88b0 37bd d781 bc3e 085d dbbe 329f ebbc
-0.13917089 0.07412741 -0.3246853 0.21658628 -0.4322994 -0.34683263 0.10431981 -0.31821573
-0.315252 0.2624021 -0.15047975 0.1108033 0.18131886 -0.5223687 -0.026780998 -0.11038693
-0.2194142 -0.34216473 0.80671734 0.41708115 0.44130403 -0.5255765 -0.21700592 0.26413313
-0.31036562 0.080063455 -0.15198636 -0.26691556 0.25505492 -0.07046378 0.512127 0.09546577
-0.21783504 -0.46903032 -0.78645664 0.2144822 -0.7800252 -0.23391828 -0.16162772 0.3089807
0.41410524 0.106119506 -0.19194089 0.57609284 0.0071078627 0.18248709 -0.049715012 0.28142384
0.007259473 -0.08209374 0.6494542 0.064062014 -0.41154975 -0.49352464 0.11352327 -0.15935409
-0.25551373 0.32956746 0.2560507 -0.20452511 0.031165037 -0.27556005 -0.38332355 -0.11946107
0.45199937 -0.06550932 0.036230825 0.103338964 -0.08665364 0.19150299 0.01887225 0.5674592
-0.27261478 0.7266954 0.1938841 0.218871 -0.15825249 0.49652728 0.20617144 0.2515212
0.27479142 0.2688979 0.2760991 0.114641055 0.08222195 0.6759367 0.11777128 -0.34307724
-0.09275484 0.23903154 0.09118558 -0.15931861 0.44543344 -0.5292096 -0.46702173 -0.37092432
-0.09374726 -0.4355775 0.3167628 -0.2417897 0.35740373 -0.0790875 0.37743765 -0.30018848
0.6321143 -0.49125403 0.031871654 0.11198343 -0.21876149 0.52077836 -0.55832297 0.30852774
-0.2599162 -0.17574187 0.017523477 0.18999001 -0.24535726 0.4910627 -0.3716414 0.24024387
-0.62180835 -0.5547778 -0.20939213 0.09136144 -0.25489238 -0.9923124 -0.31890363 0.14555098
0.28724968 -0.038444445 -0.004682078 0.08184841 -0.103355 0.32832187 0.28927824 0.1198644
-0.0071607665 0.16463365 0.24754521 0.5350282 -0.5727266 -0.30068275 -0.44907147 0.05866778
-0.29692736 0.18738642 -0.20814434 0.46334365 0.016731985 0.359522 0.46868593 -0.097413816
-0.20923436 -0.0884102 0.18364808 -0.23002191 -0.093456134 0.08159294 0.5556873 -0.3871463
0.16803575 0.08600066 -0.18017665 0.517716 -0.1081701 0.31835404 -0.31642535 -0.16088663
0.13807246 -0.15394908 0.3573086 -0.13386223 0.33028612 0.47542387 0.17816529 0.31737667
0.08619134 0.41335106 0.16031706 0.09869768 0.6743193 0.2607368 -0.3071178 -0.15216394
-0.41639143 0.034409475 0.15897767 1.0923686 0.3087719 0.14742555 0.097624525 -0.015007043
-0.27341175 0.04217377 -0.46658564 0.5892862 -0.08538208 -0.07584204 -0.49882466 0.2315005
0.044050813 -0.20958784 -0.12622605 -0.28498963 -0.10023357 -0.1828353 -0.12518127 0.5312725
0.6964604 0.37353078 -0.065481335 -0.085012466 0.34428 0.28788108 0.3715998 0.3351447
0.07382129 0.096064314 0.25920045 0.028427264 -0.05466972 -0.09800838 -0.43833414 -0.09366869
0.038930636 0.48477232 0.42233273 -0.035248745 -0.19335626 -0.06433713 -0.06534683 0.122332044
-0.06597756 0.06976797 0.0766135 0.16037877 0.21206406 -0.018385535 -0.118420094 -0.26224875
0.17715457 0.32115582 -0.62202305 0.06424281 0.076041095 0.40415046 -0.013096881 0.06998898
0.009256303 -0.0030138555 0.16257928 -0.40456566 -0.044846088 0.3681781 -0.42844415 -0.028762434

bias_ih_l0 f4 [512]
00000000: d38d 293e 5113 97bc d612 8c3e 819c f93d
00000010: fb0f 713d 2351 513e 2085 df3d dd56 dd3d
00000020: c9e1 ca3a 7bdc d03d b5a3 b73d d28b c03d
00000030: fd94 7a3d d47d 393e 6c56 873e 1184 843e
00000040: 98d4 5f3e d6a8 4b3e 88c7 fe3d 07bf 5f3e
00000050: 8559 233e ab4b 323e d210 343e e24f f13d
00000060: d538 0a3e 4a0d a23d 1d48 593d 4687 603e
00000070: d888 bb3d 3b31 123e ae08 303e d064 7d3d
00000080: 2c88 1b3e 28ac 863d 5a8e 20bd 6e8f 0f3e
00000090: 7809 0d3e ef85 6c3d 93ac fa3d 9a80 343e
000000a0: 3ddc 353e 563f 1a3e 0824 8cbc 7cf9 303e
000000b0: 3f12 c43e 22e3 033e 35a3 163e 86ea 2f3e
000000c0: 0345 a43d 031c 753e fe6e cd3e cdcf 793e
000000d0: 79fc 233e f30b 5b3d b1a9 0c3d 9257 7c3d
000000e0: 59ac 513c 2b22 9b3d 7580 223e af04 2b3e
000000f0: 4e94 af3d 6d8c 643e 0baa 603e 5e5d 883e
00000100: 5510 a13c 6c9b 733e d78e 3a3e 1335 dd3d
00000110: 70d2 5d3d 8c51 ce3b d5b0 1c3d 9ecc 173e
00000120: bf4f 91bc b4a3 863e 11ad 943d 9aaa b33d
00000130: 755f a53e b594 b83d 5656 3e3e 03b9 663c
00000140: acb6 a53c 0523 563e f9ab a43d ca3b 803e
00000150: cd38 7f3e 96b2 3f3e 0735 bc3e 7c73 6d3e
00000160: e09a 6e3e a29b d43d b9a8 543e 7715 c03d
00000170: acd9 6c3e 296b c73d 9e0f 153e f1e2 fe3d
00000180: ac52 5a3e 9b41 2a3e e6a6 123d e2c5 c13d
00000190: 43cc 623e 04d0 633e 553b f53d 5aa0 603d
000001a0: 6310 cc3d 9537 a43e e06c ff3d 9554 183e
000001b0: 01a7 c23b f473 833e 27f4 9a3e c054 763e
000001c0: f9f3 b9bb da01 423e d7af 8e3e 125f 3f3e
000001d0: a0e4 ca3d a783 7e3d c052 913d a58d 113d
000001e0: 0692 183d 01ee 373e dc04 e13d 5da8 283e
000001f0: 0a0a cfbc de00 bf3c f444 aa3e 7efd 263e
00000200: c710 b13b 65b3 da3d becb f7bc d952 163e
00000210: bffa f43d 17fc 0b3d 8480 8b3c 908a 4b3e
00000220: 9b94 803e 4e0d 013e ae76 12bd 6758 2e3b
00000230: df1b b8ba 7a9e b4bb 3e3e b23d 3e67 f53d
00000240: cd08 b53a d8f7 cdbd f9d6 0bbd cac9 553c
00000250: 478f 85bb b52d f73c fe1c 61bc cc5c 05bd
00000260: 2074 acbd 4cf0 7abd f43f bb3d 4c26 0b3d
00000270: 6467 913c c8cc c73d 0d87 d8bd 2d98 18be
00000280: 5396 993b dea5 3e3c 68bd 463e 4c2e 7a3d
00000290: e62e 4c3d 83c0 14bd 851e 8fbb 8b4e 33bc
000002a0: ee70 c8bc 3f07 813d e391 773d 5245 e63d
000002b0: 620c d4bd c5a4 153e 0aad 913d 5084 f13c
000002c0: d0e9 f53d b6d6 d13d 60f7 793d 079e d4bd
000002d0: 8e8b 4ebb 0f92 e33d e892 723d 7965 413d
000002e0: 4b37 83bd e56b a03d a2d3 843e fd85 4dbd
000002f0: eec0 40bd 12b7 093d 9ca1 a5bb 1663 c13c
00000300: e705 6a3c 63ea 433d a60e 2abd 42f9 313d
00000310: bc2f 753d 1f28 163e 30af ff3d 7001 aabc
00000320: 2ccd 0abe f790 ba3c bac7 60bd 5fab 1b3e
00000330: f971 42bc b3fb 183e af58 29be f356 4c3e
00000340: c4d8 723e d50d 0c3e a9da 6d3d 4c06 5ebd
00000350: cd63 063d 4bc4 553c d5b7 56be c213 0e3e
00000360: c1e6 cebd 07d1 a93d a1d5 59bd 8b38 2a3e
00000370: 0c18 86bd 9122 75bd e93f 03be 02ea 29be
00000380: a7b7 3fbe e11c c7bd 6866 d9bc 3fa1 833e
00000390: 9dd2 013e b61c a43d ca0e 78bd d639 023e
000003a0: 2288 133e d2c2 f03c df55 a1bd 1637 e03c
000003b0: cb76 5f3d cdf9 5b3d e9e6 45bd 7842 33be
000003c0: 0e45 a6bd 5b28 e4bd 86bd 30bd 4564 d83d
000003d0: d92c 803d 8f3b 79ba 06eb 933d 3777 443e
000003e0: 1dec edbb 5624 6e3e ca28 56be 7f85 4dbc
000003f0: 3bf8 953e ca46 a13d f9a2 79be 40f9 143e
0.16558008 -0.018441828 0.2735812 0.12188054 0.05885313 0.20441107 0.109140635 0.108075835
0.0015478666 0.10198303 0.089667715 0.094016686 0.061177243 0.18114406 0.26433122 0.2588201
0.21858442 0.19888625 0.12440401 0.21850215 0.15952118 0.17411678 0.17584541 0.117828146
0.13498242 0.07912691 0.05304729 0.21926603 0.0915696 0.14276592 0.17190811 0.06186372
0.15188664 0.06575805 -0.039198257 0.14019558 0.13773143 0.057744917 0.12239947 0.17627183
0.17759795 0.15063223 -0.017107025 0.1728267 0.3829517 0.12879613 0.14710696 0.17179307
0.080209754 0.23936467 0.40123743 0.24395676 0.1601428 0.053478193 0.034341518 0.06160695
0.012797439 0.075748764 0.15869315 0.16701005 0.08573209 0.22319193 0.21939866 0.26633734
0.019661108 0.23789757 0.18218552 0.10801139 0.054155767 0.0062963422 0.038254578 0.14824149
-0.017738221 0.2629677 0.07259572 0.08772774 0.3229939 0.090127386 0.18587622 0.014082196
0.020228706 0.20911796 0.08040614 0.25045615 0.24924012 0.18720469 0.36759207 0.23188585
0.23301268 0.10381247 0.20767488 0.09379094 0.2312991 0.09737236 0.14556739 0.124456294
0.213206 0.16626589 0.035803698 0.09461571 0.22148232 0.2224732 0.11974207 0.054840423
0.09964063 0.32073656 0.12471938 0.14876015 0.0059403186 0.25674403 0.30264398 0.24055767
-0.0056748358 0.18946019 0.2786853 0.1868861 0.09906888 0.062137272 0.070958614 0.035535473
0.037248634 0.17961885 0.10987255 0.16470475 -0.025273342 0.023315843 0.33255732 0.16307637
0.0054036113 0.10678748 -0.030248519 0.14680041 0.119618885 0.03417596 0.017029054 0.19877076
0.25113377 0.12602732 -0.035757713 0.0026602985 -0.0014046392 -0.005512056 0.08703278 0.119825825
0.0013811827 -0.10057038 -0.03414056 0.013048599 -0.004075918 0.030173162 -0.013739822 -0.0325592
-0.084205866 -0.06126432 0.091430575 0.03397207 0.017749496 0.09755856 -0.10572634 -0.149018
0.0046871095 0.0116362255 0.1940819 0.06107931 0.049849413 -0.036316406 -0.004367652 -0.010944019
-0.024467912 0.0630021 0.060441863 0.112436906 -0.10353924 0.14613636 0.07113083 0.029482037
0.12007487 0.10246031 0.06102693 -0.10381704 -0.0031516287 0.11111843 0.059222132 0.047215912
-0.06407031 0.07833079 0.25942713 -0.05017661 -0.047058992 0.033621855 -0.0050546657 0.023606818
0.014283634 0.04783095 -0.041517876 0.0434506 0.059859976 0.14663742 0.12484586 -0.020752639
-0.1355483 0.022774203 -0.054877974 0.15202092 -0.0118679935 0.14939766 -0.16537736 0.19955043
0.23715502 0.13677152 0.05806986 -0.054205224 0.03281002 0.013047288 -0.20968564 0.13874725
-0.101026066 0.08291822 -0.053182248 0.16623132 -0.06547555 -0.05984742 -0.12817349 -0.16593173
-0.18722402 -0.09722305 -0.026538089 0.25708959 0.12677999 0.08013289 -0.06056098 0.12717375
0.144074 0.029389773 -0.07877707 0.027370017 0.05455665 0.053705025 -0.048315916 -0.17505825
-0.0811864 -0.1114051 -0.043149494 0.10566 0.06258554 -0.0009507471 0.072225615 0.19186102
-0.007260813 0.23256049 -0.20913997 -0.012544035 0.29290947 0.0787483 -0.24378575 0.14548206

bias_hh_l0 f4 [512]
00000000: e5c9 403e bbf7 f7bc 5734 a13e f8da 273e
00000010: b659 1a3e 4d4e e63d 91ec 9a3d a62d be3d
00000020: 21ac 8e3d f37e 1e3e 8120 d1bc 641d 033e
00000030: 8075 233c 3cf2 163e ca42 803e 6997 843e
00000040: bba8 8a3e b6bb 773e 5cd1 313d fa66 b63d
00000050: 0d4f 9d3d 7ae8 2d3e 311e 163e c6b4 3b3e
00000060: cfc6 3f3e 9ef4 183e bf23 dc3d ebba 603e
00000070: 47ab 093e 4c38 4f3e 115a d63d b8cf d93c
00000080: 48e8 2b3d 6ccb 1e3e 0655 d9bb 33ab 9c3d
00000090: 9428 0e3e 2406 0d3e d8a4 b63d d478 923e
000000a0: 83aa 0f3e 1bd9 9d3e 7bec 39bd ebda 763e
000000b0: c1b7 633e ca12 073e 6d2e 933e 2ae0 123d
000000c0: bec6 9e3c 37d6 5a3e 44ca d13e d365 6b3e
000000d0: fc94 b73d 0a64 2d3d da6a a23d 6557 9a3d
000000e0: 738e 47bd 8622 6b3e c04a 0c3e 4cb0 6a3e
000000f0: fd65 1a3e de0f 283e 9e1a 283e b31e 933e
00000100: a568 bd3c d22a 8f3e 2475 913e e7f0 2b3d
00000110: 00e8 133e 0ac9 18bd 6feb b4bb 5673 dd3d
00000120: 6760 213e 3c9a f63d 0acf 393d 9407 f93d
00000130: 0f99 843e c54e e93c 8fd2 0d3e 8d59 6a3d
00000140: 44f0 a63d f9fe 9d3d 86e1 593d 1a7b 743e
00000150: a11c 173e 4c9e 563e d7aa a03e 4c55 833e
00000160: 764a b13e ccaa a13d cbb3 1f3e 33e9 3a3e
00000170: 40fe 923e 68c9 2d3e 2ef3 e93c d0b6 233e
00000180: de62 8b3e 3fb0 1d3e b566 abbc 7804 72bd
00000190: 773b 863e 235c 273e 03a3 2e3e 6bb1 8f3d
000001a0: b4fd 533e 1cbb 9a3e 2c09 f43d 66a6 ea3d
000001b0: be41 57bd 0c0f 253e b063 853e 0681 7b3e
000001c0: a4a3 e43d 6fe9 5b3e e8ad be3e 3c79 783e
000001d0: 6846 2a3e f7ff c83c 6650 6f3d ee12 cb3d
000001e0: d293 e83c 8293 913d 07f6 313e c1de 823d
000001f0: d52d e73d 92f5 1b3d 6bbb c73e b4c5 b9bb
00000200: c680 88bd 3f4f 0fbd b38b 483d c5db 703e
00000210: ae56 113e 09a8 34bd f4ca 51bd c753 e23d
00000220: e119 513e 8bdd 393e 0795 c6bc a331 283c
00000230: ddfb 60bd eb02 b0bd 3798 2d3d 099b 003d
00000240: 98be 423c 9e97 c2bd d8d5 f83d 7072 5a3c
00000250: 56cd 4cbd f5c6 ae3c b836 04bc 908b cf3d
00000260: 8790 5cbc b5ea 9a3d d161 263d a14d 4dbd
00000270: e14b 05bd b626 0b3d 4469 30be 88a4 36be
00000280: cc24 21bd 9f18 bd3d 554a 6a3e d693 723b
00000290: 0dd1 c8bd 900d 0a3c d910 eebd da50 6a3c
000002a0: 09ad b13d a215 b73d 9cb1 20bc 2a54 403d
000002b0: f713 36bd 2c7b b83d b01f 1f3d 6891 1abc
000002c0: 2287 70bb d57f 03bd 315a b3bd 4dc1 1bbe
000002d0: 0d29 873c 0a63 11bc 2529 19bc 0cb5 603c
000002e0: 015c 3cbd e3e0 0c3e 5877 4c3e 97ad 4cbe
000002f0: a0ba 3cbc 3933 be3d c630 053e 62ee 943c
00000300: 9bcd e2bb 9a38 0b3d 0a6b 08be a7d3 5c3d
00000310: 03b9 d33d b2ff 5f3e 1044 0b3e 7980 9c3d
00000320: cdce fabc b1f8 6c3c 4d06 84bc 6940 053e
00000330: 5bc7 b43b a3ed b33d 5f89 39be f1bc 083e
00000340: 0f51 263e c0bc 0f3e 1ced 993c eb23 9ebd
00000350: ead1 a73d d554 fcbb 75c3 41be c9fe 5c3e
00000360: 5262 42be 6d9c f43d e5ea f6ba 8abe 543e
00000370: ff41 1ebe f516 2ebd d227 6e3c 3976 a4bd
00000380: db40 2cbe f43e f6bd 2014 b33d a1a4 c03d
00000390: 2d8f 433e b4e0 3b3e f93f 65bd 2331 223e
000003a0: adc6 0d3d 1b4e 643d 6187 fbbd 09ee 813d
000003b0: d538 373c 7d3d a1bd 5509 7cbd 21fb 0fbe
000003c0: 215d a9bc 05cb e3bd c1f3 17bd 4f63 733d
000003d0: 7b0f 243c 2412 c1ba 6cd8 debc 0a5a a03e
000003e0: 9635 093b 7105 f93d 8758 6dbe 3889 87bd
000003f0: 6239 8f3e 9dc8 f83d de0e 72be 5ab0 493e
0.18827017 -0.030269494 0.31485245 0.16392124 0.15073285 0.112454034 0.07564653 0.092860505
0.06966425 0.15478115 -0.025528194 0.1280418 0.009976745 0.14740843 0.25050956 0.25896767
0.27081856 0.241927 0.04341255 0.0890636 0.07681093 0.16983214 0.14659955 0.18330678
0.18728183 0.14937064 0.107490055 0.21946304 0.13444243 0.2023632 0.104663976 0.026588306
0.041969568 0.15507287 -0.00663245 0.07649841 0.13882667 0.13771874 0.0891816 0.2860781
0.14029889 0.308297 -0.04539154 0.24106948 0.22238065 0.13190761 0.28746358 0.03585831
0.019381877 0.21370779 0.4097463 0.22988062 0.089639634 0.042331733 0.079305366 0.075362004
-0.048719835 0.22962388 0.1370039 0.22918814 0.15077968 0.16412303 0.16416404 0.2873436
0.023121187 0.27962357 0.28409684 0.04197779 0.1444397 -0.0373011 -0.00552123 0.10813014
0.15759431 0.120411366 0.045363463 0.121596485 0.25898024 0.028479943 0.13849853 0.05721431
0.08151296 0.07714648 0.05319359 0.23875085 0.14757015 0.20958823 0.3138034 0.25651014
0.34627122 0.07893905 0.1559593 0.18253021 0.28709602 0.16971362 0.02855834 0.15987706
0.27223867 0.15399264 -0.020922998 -0.059086293 0.26217243 0.16343741 0.17054372 0.07016262
0.20702249 0.30220878 0.11915812 0.11457519 -0.05255293 0.16119021 0.26052618 0.24560937
0.111640245 0.21475767 0.37242055 0.24264997 0.1662842 0.024536116 0.058426283 0.0991572
0.028390799 0.07108213 0.17379008 0.06390143 0.11288039 0.03807599 0.39010176 -0.00566932
-0.066651866 -0.034987684 0.048961353 0.23521335 0.14193222 -0.044105563 -0.05121894 0.110511355
0.20420028 0.18150918 -0.024240984 0.010265741 -0.054927696 -0.085943066 0.04238149 0.031397853
0.011886261 -0.09501575 0.121501625 0.013332948 -0.05000051 0.021335104 -0.008069687 0.10134041
-0.013462192 0.07564298 0.04062063 -0.05012286 -0.032543067 0.033972465 -0.17227656 -0.17836201
-0.039341733 0.09233212 0.22879918 0.0037014387 -0.09805498 0.008426085 -0.11624307 0.014301503
0.08675582 0.08939673 -0.00980797 0.046955265 -0.044452634 0.09007868 0.03884858 -0.009434082
-0.003670164 -0.032104332 -0.08757437 -0.15210457 0.016499067 -0.00887371 -0.0093481885 0.01371504
-0.04598618 0.13757662 0.19967401 -0.19988094 -0.011519104 0.09287114 0.13006887 0.018180076
-0.0069214827 0.033989526 -0.13322082 0.053912785 0.103380226 0.21874884 0.13600183 0.07641692
-0.030616188 0.0144635895 -0.016116286 0.13012852 0.005516929 0.0878556 -0.18118809 0.13353325
0.16241859 0.14036846 0.01878982 -0.077216946 0.08194335 -0.0077005425 -0.18922217 0.21581568
-0.18982819 0.11943898 -0.0018838315 0.2077581 -0.15454863 -0.042502362 0.014535861 -0.08030362
-0.16821615 -0.12023726 0.08744073 0.094064005 0.19097586 0.18347436 -0.055969212 0.15839057
0.0346133 0.05573855 -0.12281681 0.0634423 0.011182983 -0.07873056 -0.061532337 -0.14060642
-0.02067429 -0.11122707 -0.037097696 0.05942088 0.010013456 -0.0014730138 -0.027202807 0.31318694
0.002093648 0.12159241 -0.23178302 -0.06617969 0.27973467 0.12147639 -0.23638484 0.19696179

weight f4 [28, 128]
00000000: 3fe4 d13e 4636 94be 96f2 56bc f1ef e33d
00000010: 4c9f 313d 3a0e 183c 3860 563e 435a ed3d
00000020: dc6f b0be 2b82 a73e b659 3cbd 821b bf3d
00000030: 3bbc 8bbe b0f6 97be ba0e 15be 700f 47be
00000040: ee1a 0bbe 8aa8 13bf 8115 013f 1d7a 1dbe
00000050: 92cb 583d 53af 533d 87b7 55bc b7cd fe3d
00000060: 42de 7f3d be58 8bbe 3a95 d037 1d02 3abe
00000070: c739 d33e 8b75 a0be 911d 20bd 4be9 80be
00000080: dc6a ee3e 6de6 a1be 65a8 c2be c045 a63d
00000090: b38d 9fbe 3747 923d dd21 84be 80fc 033e
000000a0: 62d6 e53e 73fb 6a3e e823 b2bd 47f8 44bd
000000b0: 1e67 02bf eead 20bd 6f54 04be 11d6 88bd
000000c0: 5bef 7ebe d609 3dbe 2ec0 b13c e364 babe
000000d0: 6ae7 833e 1682 dbbe f479 bd3e 773a b7bd
000000e0: 07f8 48be 927e f13c ae9d 1b3e fa69 44be
000000f0: 38d2 983e d3e3 43bc 2c8a d5be 57de 82be
00000100: e1d8 d2be a93d 9fbd a689 133e 5bd0 993e
00000110: 120c ac3d 9e8e 9a3e e021 8fbe a524 3f3e
00000120: dd0c 97be f3d4 6b3e 6674 bc3e 7730 a03e
00000130: 494e bcbd 5843 953e e4b9 8ebe 0e60 2fbe
00000140: 9205 0cbe 867a a03e 7f01 9f3d 2ee3 bc3d
00000150: 4006 d03e 1c9f 67bd ba19 3bbf 6a38 3abd
00000160: 71b5 393e 7f0c 26bd b4f7 6bbd 23ce 0ebe
00000170: cc48 eebe f735 013f da19 73bc 7c8e 303f
00000180: df4e a43d a90c a3be b5f4 92be 577d e6bd
00000190: e313 32bd 43dc 353e 81ad 41be 88fd b23e
000001a0: eb04 66bd ef1c 37bd f3bc 98bc 596f 5d3e
000001b0: c0ab 173e c097 903e 12d2 303b 790e b23e
000001c0: a33c babe e919 4bbe 00b1 0c3f 5de1 1f3e
000001d0: 61fc 17be 09e1 45be e446 2cbe fc0a 313e
000001e0: 749d 2e3d f123 79be d1d1 bd3e 9e69 7e3d
000001f0: 6ad2 493d cbf5 42bd 54b3 1f3f cee0 df3d
00000200: 60a4 813d 2ae1 963e 4590 c6bd be82 763e
00000210: 6c78 b53d 2a94 68be 9918 863e 57f7 c73e
00000220: ca2a 2abe 7267 eabe 50c1 f8be 98bc 513e
00000230: 4aba c03d 66af c7be 5d83 d6be 3000 63be
00000240: 4e58 a03d a74a 9d3e a3de 5b3d e23a d33b
00000250: 3e06 70be d316 1f3d 1845 fc3e 2d10 f63d
00000260: 8932 59bc 59c0 be3d 3433 b1be c69f 37be
00000270: 2168 593d 8528 1e3d 2188 04be c107 08bd
00000280: 4f2f 7bbe 64eb d6be 67a4 c93d 964c 97be
00000290: 8f18 10bf d9cc 1bbe 758e 413e 2878 69be
000002a0: 4cb2 62be aa82 303d 9ca3 34be 8781 8c3e
000002b0: e5ca 443e e494 f1bd 36da 173f 0281 133f
000002c0: 90a0 ddbd 38ff 103f b944 dabd 6128 7cbe
000002d0: 4f7f 83be b310 c4be 120a 5e3d 62f4 c33e
000002e0: 9f42 4ebe 267d 773e 0c79 903d 150f 4abe
000002f0: 8f1d 93be e763 213f ead2 6bbe 6d00 4d3e
00000300: fae7 8cbd 2c47 6a3d 2a90 0b3e 04de 01be
00000310: da0a a1be b0a9 963d 99df abbe c617 25be
00000320: 3e05 a13e ad04 da3d 3606 05bf e5a3 2cbf
00000330: d803 a93e fb83 453e 4448 0e3f 8302 a0bd
00000340: e21b bf3b 5173 4a3e dc7f 5a3d 1404 3e3d
00000350: 9aeb 9bbd a878 e73d 3d9f 103f 142d 31be
00000360: 38bb 38bd 8300 e1bd 2ad3 e8be 8860 a6bc
00000370: b98f 36bd f71d b0be cb9e a7be ccd4 01bf
00000380: 8ab5 a33e 5758 55bd 6ec8 193e 87ff 9abd
00000390: 8155 a73e c411 023f 628a 88be bd31 393f
000003a0: ea2d 85be 1e30 05be b0b0 0dbc d76a 48be
000003b0: 8c25 dbbd ef7c 2f3d 8a74 f1bd 9050 25be
000003c0: 9634 403d 13ee 213a 1bc4 84be 04b8 5f3e
000003d0: 8bc9 683e 4b45 6c3f a28a 7abc 83ec 77bd
000003e0: 642f 5ebd 69f1 cc3d b035 9fbe 3bc9 0cbd
000003f0: 2877 1b3e 10b0 30bd 725a 18be 2a72 0abf
0.4099445 -0.28947657 -0.01311936 0.111297496 0.043364808 0.009280736 0.20935142 0.11589482
-0.34460342 0.32716498 -0.045983993 0.093314186 -0.27292046 -0.29680395 -0.14556399 -0.19439483
-0.13584492 -0.57679045 0.5042344 -0.15378614 0.052928515 0.051680874 -0.013044245 0.12441581
0.06246782 -0.27216142 2.4865021e-05 -0.18164869 0.41255018 -0.31339678 -0.039090697 -0.25177988
0.46565902 -0.31621113 -0.380191 0.081187725 -0.31162795 0.071424894 -0.25807086 0.1288929
0.44890124 0.22947483 -0.08698255 -0.04808834 -0.50938594 -0.039228372 -0.12922834 -0.06681455
-0.24895994 -0.18460783 0.021698084 -0.36405095 0.25762492 -0.42872685 0.37007105 -0.08946698
-0.19625865 0.029479299 0.15196869 -0.19181052 0.29847884 -0.011956173 -0.4170698 -0.25560257
-0.4118109 -0.077754326 0.14407977 0.30041775 0.0840074 0.30186933 -0.27955532 0.18666323
-0.29502 0.23030452 0.36807555 0.31286976 -0.09194619 0.29152942 -0.27876198 -0.17126486
-0.13674 0.31343478 0.07763957 0.092230186 0.40629768 -0.056548223 -0.7308613 -0.045463957
0.1813562 -0.04053926 -0.057609275 -0.13945822 -0.46539915 0.5047297 -0.014837706 0.68967414
0.08022856 -0.31845596 -0.28702322 -0.112543754 -0.043475997 0.17759804 -0.18913843 0.34959054
-0.056157034 -0.044705328 -0.018644786 0.21624507 0.14811611 0.28240776 0.002698068 0.34776667
-0.36374387 -0.19834103 0.5495758 0.15613313 -0.14842369 -0.19324125 -0.16823918 0.17289346
0.042630628 -0.24330117 0.3707414 0.062112443 0.049272932 -0.047597688 0.6238301 0.1093155
0.0633018 0.29468662 -0.09695486 0.24073312 0.08860859 -0.2271277 0.26190642 0.39055893
-0.16617885 -0.45782048 -0.48584986 0.20482099 0.09410532 -0.39001006 -0.41897097 -0.2216804
0.07829343 0.30721018 0.05367912 0.0064462284 -0.23439881 0.038840126 0.49271464 0.12014804
-0.013256677 0.09314031 -0.34609377 -0.17932042 0.05307782 0.03861286 -0.12942554 -0.03321052
-0.24529766 -0.41976464 0.098458104 -0.29550618 -0.56287473 -0.15214862 0.18902 -0.22799742
-0.22138327 0.04309336 -0.17640537 0.27442572 0.19218023 -0.11795977 0.5931734 0.57618725
-0.108216405 0.5663943 -0.10657639 -0.24624778 -0.25683066 -0.3829399 0.054208823 0.38272387
-0.20142601 0.24168834 0.07054338 -0.19732316 -0.2873349 0.63043064 -0.23029676 0.20019694
-0.068801835 0.05719678 0.13629213 -0.12682348 -0.31453592 0.07356584 -0.3356903 -0.1612235
0.31449312 0.10645423 -0.519626 -0.67437583 0.33010745 0.19288628 0.5557902 -0.07812979
0.0058321813 0.19770552 0.053344592 0.046390608 -0.07613297 0.1130231 0.5649298 -0.17302352
-0.04510042 -0.10986426 -0.45473605 -0.020309702 -0.04457066 -0.3439786 -0.32738337 -0.5071533
0.3197444 -0.0520862 0.15017864 -0.07568269 0.32682422 0.5080836 -0.26668078 0.7234152
-0.26011592 -0.13006637 -0.008648083 -0.19572006 -0.10700521 0.042843755 -0.11789806 -0.16144013
0.04692515 0.00061771384 -0.25930867 0.2184754 0.22733133 0.9229323 -0.015291842 -0.06052829
-0.054244414 0.10006983 -0.31095648 -0.034371596 0.15182173 -0.043136656 -0.14878252 -0.5408045

bias f4 [28]
00000000: b3e8 763c 2ae5 3dbd 978a 403d ea74 183d
00000010: 172e 3b3e 965e babd 91b7 0bbd 1a58 a6bd
00000020: a707 243d 9431 53bd dc13 68bd ae41 b53c
00000030: 5326 cdbb 1bb0 a43d 91fa fa3d 0f25 8e3d
00000040: 120c 44be 17f7 cc3d 1ad1 88bd 92f4 e23c
00000050: 3791 983d 89f4 87bd 503e 49be 7dc0 e2bd
00000060: d4fd 54bc f3c9 8b3d 3e25 2dbd 780a 7fbe
0.015070128 -0.046361126 0.04700717 0.037220873 0.182793 -0.09100072 -0.03411061 -0.08122273
0.04004636 -0.051560953 -0.056659564 0.022126045 -0.006260672 0.08041402 0.12254823 0.06940662
-0.1914523 0.10008066 -0.06680508 0.02770451 0.074495725 -0.06638438 -0.19652677 -0.110718705
-0.0129999705 0.06825628 -0.042271845 -0.24906337
