models/ESEU_60-40/ESEU_60-40_0_trained.pt (torch, 353935 bytes, 7 tensors)

weight f4 [29, 32]
000000 e8 ee 48 bf 17 8b 5a be f5 b7 fd 3f 3a 5a 0f 40
       -0.7848954 -0.21342121 1.9821764 2.239882
000010 7e 23 97 3f 9e 55 8c 3d cb 31 43 bf 7c e4 c1 bd
       1.1807706 0.06852268 -0.76247853 -0.09467408
000020 e2 c1 9e 3e 36 b1 87 bf 6e 7a 3b be 56 31 8f 3e
       0.31007296 -1.0600955 -0.18308422 0.27967328
000030 33 45 c4 bf bb 41 cb bf 15 a7 1e bf a2 c6 ab bf
       -1.5333618 -1.5879434 -0.61973697 -1.3419993
000040 d1 81 0f 40 6c 9c 4f 3f 33 d5 58 3e bf f3 86 bf
       2.2422984 0.81098056 0.21175079 -1.0543135
000050 05 77 d9 be 2a 14 36 3f e2 31 24 3f 09 d3 d3 be
       -0.42473617 0.7112452 0.64138615 -0.41371945
000060 1f ea e8 bf 64 2f ba bf 88 15 5f 3f 3d bb 5b 3f
       -1.8196448 -1.4545712 0.8714223 0.8583258
000070 8a 72 8d be ab fb 9b bd b2 9b cd bf 90 22 0c c0
       -0.2762645 -0.07616361 -1.606314 -2.1896095
000080 f3 3f fa 3e 15 ef 4e 40 0f bc 89 3f f6 c9 22 3a
       0.48876914 3.2333424 1.0760516 0.0006209904
000090 8c b9 82 3f 27 c4 f5 3f 1c 0e 57 3f 58 04 05 bf
       1.0212874 1.9200486 0.84005904 -0.51959753
0000a0 b8 3a a9 3f a0 78 5b bf a4 c3 10 3f d3 17 17 3f
       1.3221045 -0.85730934 0.56548524 0.5902073
0000b0 24 3f 01 3f f3 7a 23 c0 19 e8 b7 bf 38 11 81 3f
       0.5048697 -2.5543792 -1.4367706 1.008338
0000c0 8c d3 17 bf ec 94 09 bf 18 57 0d 3d 9a 8e 53 3f
       -0.5930717 -0.5374286 0.034506887 0.8263947
0000d0 77 a7 0c 3f d3 4c 7b bf 14 9c 4f c0 54 55 ee bf
       0.5494303 -0.981641 -3.2439013 -1.861979
0000e0 62 62 f1 bf be fa 82 bf 91 fd 1d c0 dd 1d ff bf
       -1.8858149 -1.023277 -2.4686015 -1.9930989
0000f0 e7 99 2a bf 0e b1 02 40 10 72 8b bf 26 48 33 3f
       -0.66641086 2.0420566 -1.0894184 0.70031965
000100 6d a3 80 bf 41 06 46 bd 41 56 4b 3e e3 dc cd bc
       -1.0049874 -0.048345808 0.19857122 -0.025129741
000110 d5 bb 69 bf 52 e6 25 40 1e 2f 89 3f 89 ac 0d c0
       -0.91302234 2.5921826 1.0717504 -2.2136557
000120 6c 4e a9 3f 19 b8 0c bf 60 b0 05 c0 74 60 00 3f
       1.3227057 -0.5496841 -2.08889 0.50147176
000130 9b 4f 07 3f 6e b9 75 bf 2b eb 29 40 05 ba 01 3e
       0.52855843 -0.9598607 2.6549785 0.12668617
000140 ce a8 17 3f b7 d9 de bf b1 c5 87 3f 10 88 0e c0
       0.5924195 -1.7410191 1.0607206 -2.2270546
000150 ea fa f0 be 65 c7 7a 3e 39 20 78 3e 2c 11 4c 3f
       -0.47066432 0.24490125 0.24231042 0.797137
000160 bd ff bc bf fb e8 9d 3f 10 71 c2 bf 5f dc 09 3f
       -1.4765545 1.2336725 -1.5190754 0.53851885
000170 9b 45 f6 3e 63 e3 3d be 0f 02 b9 3e f8 b1 3a 3f
       0.4809998 -0.18543772 0.36134383 0.7292781
000180 61 e2 ef 3e 9c 8f bb bf bf 2f 7f 3f 16 87 22 c0
       0.468524 -1.4653201 0.9968223 -2.539495
000190 62 5a 58 be 49 9c 21 be ac d8 a0 bf ac cc 0a 3f
       -0.21128228 -0.15782274 -1.2566123 0.54218554
0001a0 40 45 92 bf 73 38 4a 3f ff e3 d0 3d f6 db 72 be
       -1.1427383 0.78992385 0.10199737 -0.23716721
0001b0 63 5b b9 3f 24 bd b4 3f 13 87 8f 3f 0c 9f a4 bf
       1.4481014 1.4120221 1.1213096 -1.2861037
0001c0 a3 55 90 bf a5 c5 80 bf 9f 32 bb 3e 5e 30 dd 3f
       -1.1276134 -1.0060316 0.36562058 1.7280385
0001d0 00 8d 54 bf c5 d4 4e bf 04 66 69 3f c0 be ed 3e
       -0.8302765 -0.8079341 0.9117129 0.46434593
0001e0 d5 30 34 c0 2f 24 1a 3f 8d 8b ac be 7d d9 d4 3e
       -2.8154805 0.6021146 -0.3370022 0.4157218
0001f0 e6 dd 46 40 8e 17 b6 be ae 25 81 3e 1b 07 0e 3f
       3.1072936 -0.35564846 0.2522406 0.5547959
000200 4c a0 5f 3f f3 a1 17 3f 35 41 a1 bf 5c a6 d1 3f
       0.8735397 0.5923149 -1.2598025 1.6378894
000210 5b c0 d2 3e fc f0 03 3f 0c 1a 51 bf db 3a 25 bf
       0.4116238 0.5153959 -0.8168037 -0.6454293
000220 ba 42 47 bf ca 4e 82 bf d1 59 c0 3f a2 fb 7c 3f
       -0.7783619 -1.0180295 1.502741 0.9882146
000230 2a b8 98 bf e1 58 08 c0 4a 72 1b bf 2b 20 f6 3e
       -1.1931202 -2.1304247 -0.60721266 0.48071417
000240 b5 d7 a4 bf 52 b0 af 3f 07 c2 1a 3f 4e 7a 1e 40
       -1.2878329 1.3725684 0.6045231 2.476215
000250 95 e0 8b 3f 24 60 44 bf d7 b5 98 bf b3 31 87 be
       1.0927912 -0.767092 -1.1930493 -0.26405105
000260 1f 37 11 c0 da 40 e4 3e d1 53 28 3f e5 0d c3 3e
       -2.2689893 0.44580728 0.65752894 0.38096538
000270 6b a1 9d 3f 0d 3f 80 3f 20 44 d8 3f 97 c4 b1 3f
       1.2314886 1.0019242 1.689579 1.388812
000280 a8 20 45 3e 7f da 39 be 3d da 46 be b4 69 4b 3e
       0.19250739 -0.18149756 -0.19419189 0.19864541
000290 5a 6a 4b bf ca f0 0d 3f 5a 1d d1 3e b0 f6 f8 3e
       -0.79459155 0.5544554 0.40842706 0.48625708
0002a0 cd 08 1a 3f 97 56 f9 be c5 7b 25 40 56 47 a0 bf
       0.6016968 -0.48698875 2.5856793 -1.252177
0002b0 68 d9 cd bf 85 60 15 40 44 fe d8 3f 12 eb 47 3e
       -1.6081972 2.334016 1.6952596 0.19523266
0002c0 29 e3 2c bf 95 65 a2 3f b3 57 ec be ec 8f 26 3f
       -0.6753412 1.268725 -0.4616066 0.6506336
0002d0 1c 64 20 bf 82 43 50 3e 5a b8 97 be f7 e4 2b c0
       -0.62652755 0.20338252 -0.29632837 -2.68585
0002e0 b2 d7 b1 be fb 82 af 3e d7 82 cc bf 4b 90 84 bf
       -0.34734875 0.34279618 -1.5977429 -1.0356535
0002f0 b8 a1 bd 3f e1 e7 a8 bc ee 67 39 bf 59 1f cd 3f
       1.4814978 -0.020618381 -0.7242421 1.6025192
000300 2c 0a d2 be 45 2a e7 3e 63 fd 0b 3f df 04 4f 3f
       -0.41023386 0.45149437 0.5468351 0.8086681
000310 7a ae 25 c0 1f 5c a3 3e 4f 9c 14 40 31 79 0f bf
       -2.5887742 0.3190622 2.3220403 -0.560443
000320 79 db 8b bf a6 65 67 3f cb b5 ac 3e 38 95 73 bf
       -1.0926353 0.9038948 0.33732447 -0.95149565
000330 5b 1f 1f 3f b7 fe 6f 3f 52 fe 48 3f ca ed fa 3e
       0.6215722 0.9374804 0.7851306 0.49009544
000340 92 8f e4 3f 18 73 63 3e 85 cc 0e 3e ea a7 97 bf
       1.7856314 0.22211874 0.13945206 -1.1848118
000350 cf 72 be 3d 64 4c e9 bf 09 a1 bf 3e 73 7e 15 3e
       0.09299242 -1.8226438 0.37427548 0.14599018
000360 41 5d ab bf 54 b7 8a bf df cc a2 be b2 1c 3f be
       -1.3387834 -1.0837197 -0.3179693 -0.1866329
000370 7b 3b 3e bf c6 61 8c 3f 91 ad f5 bf f6 f3 9f 3f
       -0.7430951 1.0967338 -1.9193593 1.2496326
000380 d6 8e 31 3f 38 e5 77 bf 67 26 63 be ea ef e0 bf
       0.69358575 -0.96834135 -0.22182618 -1.7573216
000390 4a 14 4f bf d4 aa 93 3d 2b fb 1d 40 d8 43 13 3f
       -0.80890334 0.07210317 2.468455 0.57525396
0003a0 00 c1 87 bd f1 97 91 3f 94 cd c1 3f de 44 5f bf
       -0.06628609 1.1374494 1.5140862 -0.8721446
0003b0 27 45 23 3f e1 41 90 3f 5b 7c 85 3f e4 23 9f bb
       0.63777393 1.1270105 1.0428575 -0.0048565734
0003c0 4c 57 24 3f 39 77 07 40 20 58 2c 3e e1 b5 67 bf
       0.64195704 2.1166518 0.16830492 -0.905119
0003d0 a3 c3 e5 be e2 99 2d 3f bf 5f 8c 3f 89 61 34 3f
       -0.4487582 0.6781293 1.0966719 0.70461327
0003e0 05 bc 6f 3f ac 17 01 40 57 78 8c be fb 69 12 c0
       0.9364627 2.0170698 -0.27435562 -2.2877185
0003f0 ca 2c 32 3d ee 13 66 3e 65 a5 6d bf 67 f4 f7 be
       0.043499745 0.2246854 -0.928305 -0.48428652

weight_ih_l0 f4 [512, 32]
000000 b6 7e c9 bd 23 76 9d be c2 39 4e be 09 76 9d 3d
       -0.09838621 -0.30754194 -0.2013922 0.07688529
000010 c6 07 6f 3e 05 fa 66 bd 5d 81 46 bd 35 cb f7 bd
       0.23342809 -0.05639078 -0.048463214 -0.120993055
000020 65 fc a2 be c4 1d 72 3e eb c5 54 3c fa 99 f6 bd
       -0.31833187 0.23644167 0.01298664 -0.120410874
000030 54 83 b0 be 30 cd 8a 3c ad c6 6f be 5d d6 13 3e
       -0.34475195 0.016943544 -0.23415633 0.14437242
000040 0d 88 4b be 39 f4 21 3e d2 85 64 bd 4d 2f f9 3d
       -0.19876118 0.1581582 -0.055791683 0.12167225
000050 bc 6c aa 3e 45 af 05 3d 98 c6 e9 be 8c 91 c5 3b
       0.33286083 0.032637853 -0.45659328 0.0060293134
000060 b3 69 76 bd 5a 49 45 be f0 0c 12 be cf 10 b5 3e
       -0.060159396 -0.19266263 -0.14262748 0.35364386
000070 3e 45 36 3e 6d 4e 83 be e6 2e b0 3d 0c f2 bb 3d
       0.17799851 -0.25645772 0.08602695 0.09177026
000080 03 cb 8c bd 90 b7 52 be a5 e5 68 3e 91 43 91 bd
       -0.06874659 -0.20577836 0.22743852 -0.070929654
000090 47 cc 9f bd cb 45 1c be fd a1 b0 3d 45 de ac be
       -0.07802635 -0.15260999 0.08624647 -0.33763328
0000a0 54 8e 20 3d 61 05 47 3e ba a5 8f bd 36 67 17 be
       0.039198235 0.19435646 -0.07014032 -0.14785466
0000b0 ec a9 04 3e 5a 65 50 3e 62 22 e8 3c 8b af cc bc
       0.12955445 0.20351163 0.028336708 -0.02498605
0000c0 af e5 eb 3d 0d fe 08 3e 72 46 95 bc 07 75 5d be
       0.11518418 0.13378163 -0.018222068 -0.21626674
0000d0 bf 0e 46 3e ff 87 2b be 3e fb 47 be 0b 7d e5 bd
       0.19341563 -0.16751097 -0.19529435 -0.11205491
0000e0 56 4c 34 be b1 76 3a 3e 50 0d d1 be c4 fd f6 ba
       -0.17607245 0.1820934 -0.4083047 -0.0018843939
0000f0 ab e2 9e bd d2 af 97 bc 8a f7 40 ba cb a5 7b 3e
       -0.07758077 -0.018516455 -0.0007361105 0.24574964
000100 9e e8 14 3e 18 45 22 bf 18 0f 18 3e 36 6b 4d bd
       0.14541861 -0.6338668 0.14849508 -0.050151072
000110 f9 3e 7a be 72 74 f5 3d 23 90 1a 3d ab 4c 90 3e
       -0.24438085 0.11985101 0.037735116 0.28183493
000120 c9 33 d6 bd ad 4f 2c 3e 21 63 0d be 96 98 96 be
       -0.10459096 0.16827269 -0.13807346 -0.2941329
000130 ce 77 d7 bd f0 e2 90 3d a9 ff bf 3e cb 0f ce be
       -0.10520898 0.07074535 0.3749974 -0.40246424
000140 26 19 a4 be f8 4e 3a 3c a0 d4 34 3e 41 9f 66 3d
       -0.32050437 0.011371367 0.17659235 0.05630422
000150 e7 9e e3 3d e3 d4 30 3e e9 1a fc 3d ef b5 82 be
       0.111142926 0.1726871 0.1230982 -0.2552943
000160 9f 1e e5 3d ff 14 27 be b6 40 40 3e 4b f3 63 bd
       0.11187481 -0.16316603 0.18774685 -0.055651944
000170 d0 99 30 3e 4a 6b a0 bd a8 79 36 3e 99 d2 89 bc
       0.17246175 -0.07832964 0.17819846 -0.016824054
000180 49 49 86 3d 1b 50 61 be 8f de 56 3e 9d 89 4f 3e
       0.06556947 -0.22003214 0.20983337 0.20267339
000190 5f 37 dc 3d a3 8d c0 bc f8 60 18 3e 34 b2 6b 3e
       0.10752749 -0.023505038 0.1488074 0.23017198
0001a0 86 a3 6c 3e 4d 8c 8d be af b6 12 be 05 c5 2e be
       0.23109254 -0.27646104 -0.14327501 -0.17067344
0001b0 1e f3 e5 bd ad c7 5d be 1e a5 b5 3c e8 25 44 be
       -0.112280115 -0.21658202 0.02217346 -0.19155085
0001c0 6f 9e c9 3b e8 d9 cd 3d 9f ec ed 3d c4 75 3c be
       0.00615292 0.10051328 0.116173975 -0.18404299
0001d0 9c 32 a1 3d 00 bd 30 3e 60 63 83 3d a2 ab 6b be
       0.07870981 0.17259598 0.06415439 -0.23014691
0001e0 dc 88 14 3e 9e 7b 61 be ba 40 a6 3d 35 eb 8e bd
       0.14505333 -0.22019812 0.08117814 -0.06978456
0001f0 5c 57 1e be 46 9b d5 bd 4e 59 23 3d 81 0c e3 bd
       -0.15463012 -0.10430007 0.03988009 -0.11086369
000200 39 cf 59 be c6 f6 aa be 83 53 23 3c fe ea 08 3e
       -0.21270455 -0.33391398 0.009968641 0.13370892
000210 97 67 9d bd 5d 13 26 be 4e 19 46 3e 1b b2 9f bd
       -0.07685774 -0.16218324 0.1934559 -0.07797643
000220 eb 8d 9b be 09 ea 55 3e 26 30 70 3c 7f 71 2b be
       -0.30381712 0.20890059 0.014659917 -0.16742514
000230 18 28 d7 3d 32 b0 cf 3d 4f 71 e5 3d 10 17 56 be
       0.10505694 0.101410285 0.112032525 -0.20907235
000240 99 9f 0a be 56 93 d5 3d 2f 82 03 3b f8 c3 9e be
       -0.13537444 0.10428493 0.002006661 -0.31008887
000250 ac d8 cf 3c cc cb af 3e a4 84 44 3e 65 55 00 be
       0.025371872 0.34335172 0.19191223 -0.12532575
000260 38 48 6b 3e 8a 94 12 3b 3a 6b 35 3e f2 c2 bc 3e
       0.22976768 0.0022366368 0.17716685 0.3686748
000270 cd 53 8b bd 58 9e 14 3d c5 a6 3a bd cf 13 8e 3d
       -0.06803093 0.03628382 -0.0455692 0.06937372
000280 1a ee 2f 3d 55 59 15 be fd 57 ed 3e c2 62 4e be
       0.04295168 -0.14584859 0.46356192 -0.2015486
000290 eb e3 18 be 25 e6 2c bd 54 5f 3a 3e d3 58 11 3e
       -0.14930694 -0.04221167 0.18200427 0.1419404
0002a0 20 e9 38 3e bc 46 43 3e 98 e0 d0 bd 6e ce ab bd
       0.1805768 0.19069952 -0.10199088 -0.08388983
0002b0 78 bc c0 3e 28 cc f7 bd fd 05 1e 3d 30 f2 c6 be
       0.3764379 -0.120994866 0.03857993 -0.3885665
0002c0 77 11 6a be 8c e7 0c 3e 51 f4 46 be 0f e1 8b be
       -0.22858225 0.13760203 -0.19429137 -0.27320144
0002d0 a1 9f c9 bd f4 21 42 3e 36 30 0d 3e 2a b3 3b 3e
       -0.098449 0.18958265 0.13787922 0.18330064
0002e0 77 3e 21 be 9b d0 8a be 6b af c8 3d 67 d7 04 be
       -0.15746485 -0.27112278 0.09799083 -0.12972794
0002f0 2a 6c d1 bd 2e 1d b3 3e e1 da 4d be 48 95 99 3d
       -0.10225709 0.349832 -0.20103027 0.07499176
000300 8d bd b7 3e 54 3a 8d be ff 8d 7b bd 0c 8c 1c bd
       0.35886803 -0.27583563 -0.061414715 -0.038219497
000310 1b 8d 71 be 7f a9 1a 3d c6 c6 96 3e 59 bb 36 3e
       -0.23588984 0.0377593 0.29448527 0.17844905
000320 6f b5 84 be 55 bb 6f 3e 5d 51 f4 bd 23 ee 01 bf
       -0.25919673 0.23411305 -0.11929581 -0.5075399
000330 05 1b 79 3e 2d c0 4b 3e 99 1a 7e 3d dd 6d 68 be
       0.24326713 0.19897528 0.062037084 -0.2269816
000340 c6 cf fe bd ee 79 38 bb 9e de 7e bb d1 5f 7e be
       -0.124419734 -0.0028148848 -0.0038890014 -0.24841239
000350 61 04 01 3e ae ca a2 3d 3b 84 11 bd b1 34 56 be
       0.12599327 0.07948814 -0.035526495 -0.20918538
000360 66 c2 c5 3e 5f f1 7c be 7a 03 15 3c c1 7b ec be
       0.38624877 -0.24701451 0.009095067 -0.46188167
000370 f4 d2 e5 bd 01 06 e6 bd 2b ec 84 3d 81 09 72 3d
       -0.11221877 -0.11231614 0.06490358 0.059091095
000380 5d e9 17 be 0e 84 30 3c dc fb eb 3c 28 44 f6 bb
       -0.14835115 0.010773672 0.02880662 -0.007515449
000390 e8 35 3a 3e 6a b9 aa 3d 4c aa 7d 3c 72 d3 69 3d
       0.18184626 0.08336146 0.0154824965 0.057086416
0003a0 2f 48 af be e4 45 68 3e da d6 12 3e 6b b2 27 3d
       -0.3423476 0.22682911 0.14339772 0.040941637
0003b0 b9 25 68 3d 0d 89 3d be 9a 3b b9 3c 1a c3 29 3e
       0.0566766 -0.18509312 0.022611428 0.16578332
0003c0 40 10 5c be a9 9c 6a be 77 3b 57 3d 5f 4a 55 3e
       -0.21490574 -0.22911324 0.052546944 0.20829152
0003d0 5c d7 fd 3d d7 02 c1 3d 84 05 6d bd f4 5f 0c be
       0.12394592 0.0942437 -0.05786659 -0.13708478
0003e0 cb e1 ab bd 26 b3 19 be c4 ee 2a be f4 de 11 be
       -0.08392676 -0.15009746 -0.16692644 -0.14245206
0003f0 77 f8 70 3e f2 08 b1 3d 3b 20 56 3d d5 bd e4 3d
       0.23532282 0.08644284 0.05227683 0.1116902

weight_hh_l0 f4 [512, 128]
000000 9f b4 4d 3f fa 36 37 be b7 3b f3 be 0d a2 07 be
       0.8035373 -0.17892066 -0.47506496 -0.13245411
000010 25 3d 7a bd 2e 35 95 3e 28 d2 82 be 68 3c 87 3e
       -0.06109347 0.29142135 -0.25550961 0.26413274
000020 7e 9e 7e be ba 4d 10 3e 7c 86 81 be d5 23 5a 3d
       -0.24865147 0.1409215 -0.25297916 0.05325683
000030 f8 d1 74 be 32 04 3c bd 74 85 b9 3d da 63 e8 3e
       -0.23908222 -0.04590244 0.09058657 0.4538868
000040 38 07 b9 be bb 2d 8f bd a4 e7 27 be d8 24 98 3e
       -0.3613832 -0.06991144 -0.16396958 0.2971561
000050 de 91 a3 bd ce 72 9a bb 3e e5 de 3d 87 53 2c be
       -0.07986806 -0.004713393 0.10883568 -0.16828738
000060 4a b5 ff bd 89 0a 53 3b 36 19 a8 3e bc 61 06 3f
       -0.1248575 0.0032202324 0.32831734 0.5249288
000070 b7 c2 15 be 9e 16 9b bd de c5 3c 3e ef a1 48 3d
       -0.14625059 -0.07572673 0.18434855 0.048982557
000080 3f c4 88 be 75 ca f8 3e e6 b6 cf be 14 51 25 be
       -0.26712224 0.48591962 -0.40569228 -0.1614421
000090 62 0f 9f bc cf dc 03 3e 9d 9f 9b 3e a5 83 a0 3c
       -0.019416515 0.128772 0.30395213 0.019594023
0000a0 17 7e 93 be 08 3d 78 3e 81 2a e1 be a0 72 cc 3c
       -0.28807136 0.24242032 -0.4397774 0.024957001
0000b0 cf 25 0c bf e3 88 8c 3e 28 e9 79 3d 89 b9 14 3f
       -0.5474519 0.27448186 0.06101337 0.58095604
0000c0 c2 b6 09 3e af d1 12 be 9a 24 c6 be 5e 93 76 bd
       0.13448623 -0.143378 -0.386998 -0.060199134
0000d0 83 46 89 be 1c 2a e9 3e dc 9e f5 be fa c8 c0 3b
       -0.2681161 0.4553994 -0.47972763 0.0058833333
0000e0 1e de 84 be 30 78 71 3e c5 7a c8 be df 59 78 3c
       -0.25950712 0.23581004 -0.39156166 0.015158146
0000f0 2d 23 e2 bd 9e 22 00 bf f2 29 3e 3e 2c 62 0e 3d
       -0.110418655 -0.5005282 0.18570688 0.034761593
000100 c8 b5 e8 3d d0 25 6f 3c a7 16 49 be ed 31 ec bd
       0.11362797 0.014596418 -0.19637547 -0.1153296
000110 54 55 60 3e b6 49 cd 3e d1 81 24 3e e3 a3 60 3e
       0.2190755 0.400953 0.16065146 0.21937518
000120 a7 9b 38 3e e2 c8 9b 3e 53 72 16 be a1 a2 60 be
       0.18028127 0.304267 -0.14692049 -0.21937038
000130 9e e0 3d be 6e c3 c2 bd 3b f5 25 3d 3c 1c 66 be
       -0.18542716 -0.095099315 0.040517073 -0.22471708
000140 27 51 b5 3b 27 cb 15 3f 86 35 15 3e 1b 7e 23 be
       0.0055333558 0.5851311 0.14571199 -0.15966074
000150 04 b8 96 be b7 60 24 3d f2 bf 96 3d b4 78 3d bd
       -0.29437268 0.040131297 0.073608294 -0.04625769
000160 ce 77 8a 3d 42 9c 84 3e 2b 30 97 bd 0e 60 f0 3e
       0.06761132 0.25900465 -0.07382234 0.46948284
000170 da 81 f9 3d 5c 70 01 be 28 fb 9e 3c f1 e9 36 3d
       0.1218297 -0.12640518 0.01940687 0.044656698
000180 6d 3b 26 bf ea 15 1c 3e 64 70 9d 3e 14 6a c1 bd
       -0.64934427 0.15242735 0.3074981 -0.09444061
000190 4a 63 95 3e 18 0d 1b bc 73 fa 7e be a5 82 49 3e
       0.29177314 -0.009463571 -0.24900226 0.19678743
0001a0 7e 6c 05 3e 9c 31 b2 3d 09 ce c4 3d bd ba b3 3b
       0.13029668 0.087008685 0.096096106 0.0054849074
0001b0 45 03 2e bd ff 7d f3 3d 99 8c d3 bd 62 ec 37 be
       -0.042483587 0.11889266 -0.10329551 -0.17961267
0001c0 01 1d e7 be 44 f9 0a 3d f1 cf ed 3c 33 fc 67 be
       -0.45139316 0.033929124 0.029029818 -0.226548
0001d0 42 7f 73 3e 77 22 52 be d8 96 2f be d6 22 81 3d
       0.23779014 -0.2052096 -0.17147386 0.063054726
0001e0 0c ff 64 3d e0 6e 7c be cf b2 81 be 88 5a d3 be
       0.055907294 -0.2465167 -0.25331733 -0.41280007
0001f0 93 1b b7 bd ff f4 db 3d b1 1b 4e be d5 53 78 3e
       -0.08940806 0.10740089 -0.20127751 0.2425073
000200 74 e3 b1 bc 44 3c 13 3e f1 1a 19 bf c9 8b 7c 3e
       -0.021714903 0.14378458 -0.59806734 0.24662699
000210 5d 40 37 bf 99 36 72 bd fc 79 f7 3e c9 54 73 3e
       -0.71582586 -0.0591341 0.48335254 0.23762812
000220 94 d0 93 3e 10 63 7e 3d 59 9d f8 3d 36 6c 9f be
       0.2887007 0.062106192 0.12139387 -0.31137246
000230 32 e2 ec be 56 6e 89 bd fa ea 2d 3f b5 6b 85 bd
       -0.46266323 -0.06710498 0.6793667 -0.06514684
000240 0d 7a 0d 3f c0 62 c8 3e d7 a3 7f bd 5b 9c bc 3e
       0.5526436 0.3913784 -0.06241211 0.3683804
000250 8c 2f 9a be 4d 61 4f be b9 69 55 be 7c 39 22 3e
       -0.301144 -0.20251961 -0.20841111 0.15842241
000260 38 20 82 be 74 77 70 be 19 27 ae bd 44 b4 4e 3e
       -0.25415206 -0.23483068 -0.08503551 0.20185953
000270 ab 0a 6c be ad f7 05 be 9b 01 0d 3f 3e d9 4a bf
       -0.23050945 -0.13082762 0.55080575 -0.79237735
000280 78 16 43 bd 9c 78 a5 bd 25 58 a7 be 50 07 c0 bc
       -0.04762885 -0.08079645 -0.32684436 -0.023440987
000290 45 40 e9 3e f0 e0 2e be a2 76 4d be 36 e5 54 3e
       0.45556846 -0.17077994 -0.20064786 0.20790562
0002a0 b2 0f 6b 3e f5 b8 0e be 0e aa a5 be be 7a 74 3d
       0.22955206 -0.13937743 -0.32356304 0.05968737
0002b0 db 48 4d be 82 05 c0 3d 63 cb a3 3e 05 62 72 3e
       -0.20047323 0.093760505 0.3199111 0.23670204
0002c0 a4 eb 86 3e bd f4 a6 be 48 14 d4 bc 1a 13 89 be
       0.26351655 -0.32608595 -0.025888577 -0.26772386
0002d0 9d b3 1f 3f 19 ac 13 3d 95 f0 fb bd 22 5e 1e bf
       0.62383443 0.036052797 -0.12301747 -0.61862385
0002e0 7b 8c 08 3b e8 dd 4f 3d cb 6e a7 3e 3e b3 ae 3e
       0.0020835686 0.050748736 0.32701716 0.34121126
0002f0 0a e7 94 bc ec 20 6b 3e c0 8a 0a 3e 0a e6 41 3d
       -0.018176574 0.22961777 0.13529491 0.047338523
000300 86 67 99 3d d5 d7 50 bd 42 ca 2c be eb 6a 16 be
       0.07490449 -0.050987083 -0.1687403 -0.14689223
000310 5b a4 ab 3e 2f 46 41 3d 92 de 93 bd 5f 33 ce 3d
       0.3352383 0.047186073 -0.07220186 0.10068392
000320 85 22 91 3e 10 1b 76 be bf 4f 85 be 65 ec 9d 3e
       0.2834665 -0.24033761 -0.26037404 0.30844417
000330 cc ba c6 be 30 4c ed 3e e5 40 9f bd 34 84 e4 be
       -0.3881439 0.4634719 -0.077760495 -0.44632113
000340 ca 29 84 be e1 3e 18 be 43 87 3f bd dd c1 d5 3d
       -0.25813133 -0.14867736 -0.046759855 0.10437367
000350 ef bb 60 bf d3 5c e4 bd a5 24 a5 3d 52 53 ad be
       -0.87786764 -0.11150517 0.0806363 -0.3385263
000360 46 d2 63 3e 51 24 6b 3d 09 4a 01 3f c4 c9 33 be
       0.22248182 0.05740768 0.50503594 -0.17557436
000370 7e 6d 1e be f1 53 75 be 46 0b 1e bc b8 b4 7d be
       -0.15471455 -0.23957802 -0.0096462425 -0.2477597
000380 53 f5 26 3e 6a 67 9a 3e 05 fa 92 3e 7f 8b 31 3e
       0.16304521 0.30157024 0.28706375 0.1733837
000390 21 df a7 3e 10 51 99 be 56 56 88 bd f8 e4 d5 3d
       0.3278742 -0.29944658 -0.06657092 0.10444063
0003a0 31 d3 8d 3e ab 28 38 3e 37 1c bd bd 01 30 91 3e
       0.2770019 0.17984264 -0.09233897 0.28356937
0003b0 d9 1a 3c 3e be 5e 1b be b0 0d 95 be 58 74 2e 3e
       0.18369617 -0.1517286 -0.29112005 0.17036569
0003c0 d0 bc 8e be dd e1 d3 3c 64 1e 34 bc 8c da 06 be
       -0.27878428 0.025864536 -0.010993574 -0.13169307
0003d0 28 a0 66 3d 39 f6 15 be 5d 1a 37 3e cb 47 3a 3f
       0.05630508 -0.14644708 0.1788115 0.727658
0003e0 3f 4f 1d 3f 2c 0d 2b 3e 4f 8b 34 3d 49 a6 71 be
       0.61449045 0.16704243 0.044078168 -0.23598589
0003f0 4a 61 3f be dd 79 1d be c9 d7 57 be 3e b3 a5 3e
       -0.18689457 -0.15378518 -0.21078409 0.32363313

bias_ih_l0 f4 [512]
000000 52 c0 6e 3d 7b df 3b 3e 02 36 70 3e 34 bf 46 3e
       0.05828888 0.1834697 0.23458102 0.19408876
000010 96 17 81 3e 4a 6a da 3d 7d 86 22 3e 3f 6a 54 3e
       0.25213307 0.10664804 0.15871616 0.20743655
000020 30 f8 35 3e 3d 9d ed 3d 3b b2 92 3e b5 d6 96 3e
       0.17770457 0.116022564 0.28651604 0.29460683
000030 5a 31 33 3e 66 85 18 3e 14 b5 31 3e d0 57 38 3c
       0.17499295 0.14894637 0.17354232 0.011251405
000040 71 10 0d 3e 41 09 3b 3e b6 92 33 3e da 4b 84 3e
       0.13775803 0.18265249 0.17536435 0.2583912
000050 3c f7 3c 3e 39 2b ad 3c 67 4b 9a bd 5d fa 11 3d
       0.18453687 0.021138774 -0.07533913 0.035639156
000060 57 bd 80 3e 60 39 21 3e b5 c2 2b 3d c4 e1 0b 3e
       0.25144455 0.15744543 0.041933734 0.13660342
000070 3f 6d db 3d 06 7a 17 3e cc 08 ef 3d 4e 33 13 bd
       0.107141964 0.14792642 0.116716 -0.0359376
000080 ed 80 7f 3e e8 5d 10 3e c1 0b 82 3e 7e e4 68 3e
       0.24951525 0.14098322 0.25399593 0.22743413
000090 31 55 24 3e 38 aa 5b 3c 8d cc 35 3e 94 d6 2e 3e
       0.16048123 0.0134072825 0.17753811 0.17074043
0000a0 90 5b 38 3e e7 70 80 ba d4 9f 29 3d 1c 3f 30 3e
       0.18003678 -0.0009799273 0.04141219 0.17211574
0000b0 b2 5e 42 3d fe a1 12 3e 0a 13 33 3e b4 68 11 3e
       0.04745359 0.14319608 0.17487732 0.14200097
0000c0 c4 f7 ea 3d 2c d4 39 3e 1b bd 8f bc f4 b3 34 3e
       0.11473039 0.18147343 -0.017546227 0.17646772
0000d0 55 44 aa 3d c2 f9 a8 3e c5 31 21 3e 89 6b 20 3e
       0.083138146 0.3300305 0.15741642 0.15666021
0000e0 5b a6 ac 3e 89 d4 92 3d 4b 00 7f bb d3 40 72 3e
       0.3372067 0.07169444 -0.0038910087 0.23657541
0000f0 19 b9 b0 3d a5 19 6b 3e 3f 93 8c 3e b1 51 da 3d
       0.086290546 0.22959001 0.2745609 0.10660113
000100 4b 7f f3 3d fa 04 47 3e 36 f5 40 3e e9 52 9f 3d
       0.118895136 0.19435492 0.1884354 0.07779486
000110 fd a7 7f 3e f4 c3 a1 3c 0a 38 16 3e ea 1d 11 3e
       0.24966426 0.019746758 0.14669815 0.14171568
000120 0e fe 1f 3e 68 80 80 3e 51 12 55 3e ae ea 07 3d
       0.15624258 0.25097966 0.20807768 0.033182792
000130 5a e0 2e 3e 2d 7a 12 3e cc 90 5d 3e a2 a1 a8 3d
       0.17077771 0.14304419 0.21637267 0.08233954
000140 43 ce 9e 3e 38 9c 62 3e 3f 00 30 3e 28 4b 93 3e
       0.3101674 0.22129905 0.17187594 0.28768277
000150 9e 3a a0 3e a1 42 8d 3e 79 a6 d3 3d 85 6a eb 3c
       0.3129472 0.27589896 0.103344865 0.028737316
000160 86 f6 07 3e 8c d6 89 3d 20 0e 20 3e 79 7e f7 3c
       0.13277635 0.06730375 0.15630388 0.030211674
000170 d7 15 7c 3d 56 1a 2e 3e ac 36 8c 3d 67 48 a0 3e
       0.061544266 0.17002234 0.06846365 0.3130524
000180 24 35 a0 3d 4f fe 68 3d 89 a5 70 3e 02 a9 49 3e
       0.07822636 0.056883153 0.23500647 0.19693378
000190 7b ec 78 3d 1a 64 4d 3e b8 93 5c 3e 23 1c 0f 3e
       0.0607724 0.20057717 0.21540725 0.13975577
0001a0 42 e6 ce 3e 04 97 e8 3c 54 8a b7 3e 66 8c 51 3e
       0.40410048 0.028392322 0.35847723 0.20463714
0001b0 07 28 69 3e 12 17 f1 3d 1e 2c 6c 3e c0 88 fd 3d
       0.22769175 0.117719784 0.23063704 0.123795986
0001c0 cf 1b 5b 3d a3 8f 2a 3e 74 0c 46 3e 95 cb ed 3d
       0.053493317 0.16656356 0.19340688 0.11611096
0001d0 fe c0 e2 3d 5d 9a 81 3e 7c 37 35 3e 0e a1 c3 3d
       0.110719666 0.25313082 0.17696947 0.09552203
0001e0 8e 12 5d 3d 4e 66 37 3e a1 a2 ac bd b6 e2 52 3e
       0.053972773 0.1791012 -0.084294565 0.20594296
0001f0 d1 fc 7e 3e bb 93 81 3e 60 11 88 3d 95 83 30 3e
       0.2490113 0.25308022 0.06643939 0.17237695
000200 bc 6c 03 be 56 59 0d be ba e6 5a 3d 77 22 8f 3d
       -0.12834448 -0.1380361 0.053442694 0.069889955
000210 17 b2 a3 bc e3 bc 69 3e ce 0f ee 3b 19 1a ac 3c
       -0.01998238 0.22825961 0.0072650677 0.021008538
000220 7b 6e 4c 3d a4 c5 3b 3e 84 88 23 be d3 5a a5 3d
       0.04991005 0.18337113 -0.15970045 0.08073964
000230 96 2c b0 3d fa 18 d3 3d 2a 69 8d bd 1e 99 a2 3d
       0.08602254 0.10307498 -0.06904824 0.07939361
000240 6b 88 14 bc 6d 3a cd bd 79 1b 02 be f8 58 64 bd
       -0.009065728 -0.100209095 -0.12705792 -0.05574891
000250 00 7b 01 be da d2 0f 3d cb 91 04 bd c1 9b c4 3d
       -0.12644577 0.035113193 -0.0323656 0.0960002
000260 c1 59 1d 3e 4a 23 87 3d ed 00 bf 3c 64 89 a5 bd
       0.1536627 0.06598528 0.023315871 -0.08082846
000270 64 51 ec bd 57 d5 d5 3b 80 e2 64 3d 90 00 62 3d
       -0.115389615 0.006525676 0.05588007 0.055176318
000280 fa d5 31 be ff 8b dc 3b 8f b5 6b 3d 22 97 1c be
       -0.17366782 0.006730556 0.057546195 -0.15292028
000290 87 5a 15 bd ce 45 e2 bd a7 d0 32 3d 36 e5 e5 bd
       -0.036463287 -0.110484704 0.043656018 -0.11225359
0002a0 ba 90 53 3d 44 1c 6d 3d f3 88 15 3d 6f f8 b2 3c
       0.051651694 0.057888284 0.036507558 0.021846978
0002b0 3f f2 8c bd 6a 3d 95 bd c2 20 90 bd 2a 8c 11 3e
       -0.06882142 -0.072871044 -0.07037498 0.14213625
0002c0 48 4c a2 3d 7f 59 c4 be 06 73 cb bd 43 24 20 bd
       0.07924706 -0.3834953 -0.09934048 -0.039097082
0002d0 62 d5 88 bc 70 56 f1 3d d0 8f 62 bd 3c ea 3c 3c
       -0.016703311 0.11784065 -0.05531293 0.011530455
0002e0 05 05 1f be 80 b7 b5 bd 86 39 be bc 8b fb 33 bc
       -0.15529259 -0.088728905 -0.023220789 -0.0109852655
0002f0 ed cd e8 3c 8f 03 5d 3c e8 0f cb bc 55 50 b2 3d
       0.028418506 0.013489618 -0.024787858 0.08706728
000300 3b e6 3d bd ca 80 94 3d 98 ae 67 be da 4b af 3d
       -0.046362143 0.07251127 -0.22625196 0.085593894
000310 fc a8 0e 3e 22 a6 0e bd dd e1 11 bd 66 fa a9 3d
       0.1393165 -0.034826405 -0.03561579 0.08299713
000320 35 82 15 3d 18 d1 d8 3d 68 96 36 3d 6e e6 21 be
       0.03650113 0.105867565 0.044577032 -0.15810558
000330 d6 7a 9c bd 49 bb 64 bc f6 14 fe bd 18 05 27 3e
       -0.076406166 -0.013960668 -0.12406342 0.16310537
000340 b5 32 c0 3d 9a 8c 54 bd 46 a4 d0 3d 7d ca 73 3d
       0.093846716 -0.0518919 0.10187583 0.05951928
000350 d2 a2 b0 bd ed 0b 33 3c 67 99 1d bc b2 9d f6 bd
       -0.086248055 0.010928136 -0.0096190935 -0.12041797
000360 39 5a b3 3c 70 b0 8d bd 7a 96 d3 3c 30 87 c7 3d
       0.021893607 -0.069184184 0.025828589 0.09742582
000370 e3 ac 16 bb a2 6c 39 3e fc fc e3 3d 26 3f 2b 3e
       -0.0022991232 0.18107846 0.11132237 0.16723308
000380 ae e6 ab bd 60 ef 5a 3d a7 a8 7d be b1 44 0e bd
       -0.08393608 0.053450942 -0.24771367 -0.034733478
000390 90 84 22 be 55 25 c9 bd 6d f3 1f bd 81 32 3d bd
       -0.15870881 -0.09821574 -0.03905051 -0.046190742
0003a0 2f 48 7c bd 9e a5 a3 bd c8 72 34 3d 44 10 43 3e
       -0.061592277 -0.07990573 0.044054776 0.19049174
0003b0 ed 36 61 3d 8d ab 11 be 02 a2 43 3d dd f0 b8 3d
       0.054984022 -0.14225598 0.047761925 0.09030316
0003c0 ea 74 31 bc 27 3d 73 bd c5 a4 fe bb 43 f5 b0 3d
       -0.010831097 -0.05938449 -0.007771107 0.0864053
0003d0 68 46 11 bc ae cd df 3c cb 0e ca 3c b7 f5 62 3d
       -0.008866884 0.027319755 0.024665257 0.055410113
0003e0 6f c8 c3 3d 46 fd 16 be 60 eb d9 3c 15 25 14 3d
       0.09559714 -0.14745054 0.026601493 0.036168177
0003f0 af 73 7f 3d c1 5e 58 3d 7c 24 42 bd 1c 7f e3 bc
       0.062366184 0.05282474 -0.047398075 -0.027770571

bias_hh_l0 f4 [512]
000000 11 e7 17 bd 0d f3 41 3e 50 bc 16 3e db dd 27 3e
       -0.037085596 0.18940373 0.14720273 0.16393225
000010 e2 ed 2a 3e 3d 9b a4 3d 67 c5 0e 3e 38 ad 84 3e
       0.16692308 0.08037422 0.1394249 0.25913405
000020 2d f3 04 3b 77 a8 12 3e c6 92 62 3e 47 80 99 3e
       0.0020286546 0.14322077 0.22126302 0.2998068
000030 02 49 2b 3e 20 ac 29 3e 0e 29 b8 3d fc 56 ca 3d
       0.16727069 0.16569567 0.089922056 0.09879872
000040 c5 8f 09 3e 25 eb 99 3e 94 95 03 3e 9e 01 a0 3e
       0.1343375 0.30062214 0.12850028 0.31251234
000050 46 2f db 3d de b3 d1 3d 92 1e 08 be fe c5 36 3e
       0.10702376 0.10239385 -0.13292912 0.17848966
000060 50 b5 b7 3d e7 de 3e 3e 48 e8 b2 39 28 60 70 3e
       0.089701295 0.18639718 0.0003412387 0.2347418
000070 70 a9 46 bc 35 f4 36 3e 43 20 22 3d ff ee d9 3c
       -0.012125358 0.17866595 0.03958155 0.02660322
000080 69 64 7e 3e 12 74 8a 3e 9a e9 58 3e f4 7f 51 3e
       0.24842991 0.2704168 0.21182862 0.20458966
000090 84 68 55 3e b2 3c 70 3d 87 83 38 3e 31 c0 1f 3e
       0.20840651 0.058651634 0.18018924 0.15600659
0000a0 e7 00 87 3e 46 52 39 bd a0 ac fb 3c 52 68 bc 3d
       0.26367876 -0.045244478 0.030721962 0.09199585
0000b0 1d 64 0c 3e 60 5e 53 3e 1c e4 7c 3e 62 c6 07 3e
       0.13710065 0.2064147 0.24696392 0.13259271
0000c0 ac 0e df 3d f6 76 22 3e 9e 9c b1 bc 9b cc 5e 3e
       0.1089147 0.15865692 -0.021681126 0.21757738
0000d0 d0 24 e7 3b 39 a7 40 3e 8f d6 54 3e b5 1e dd 3d
       0.007053949 0.1881379 0.20784973 0.107968725
0000e0 49 ba aa 3e 97 84 b3 3d a7 f4 cd bb c4 0c c1 3d
       0.3334525 0.08765524 -0.0062852683 0.09426263
0000f0 47 82 bd bc 63 e4 e3 3d bc 08 87 3e 54 a3 20 3e
       -0.02313341 0.11127546 0.2637385 0.15687305
000100 6a 43 16 3e f5 29 06 3e dc e0 ed 3d dd 25 ef 3d
       0.14674154 0.13101943 0.11615154 0.11677144
000110 b8 69 35 3e fb 39 fc 3c f1 f8 62 3e 12 48 1a 3e
       0.1771611 0.030789366 0.22165276 0.15066555
000120 03 00 66 3e 53 15 97 3e 64 2b 26 3e 38 e0 4b 3d
       0.22460942 0.29508457 0.1622749 0.04977438
000130 83 06 75 3e e8 82 de 3d 6b 0d 09 3e d4 7a f9 3b
       0.23928265 0.10864812 0.13384025 0.007613519
000140 4a 6c 92 3e 10 c5 04 3e 62 33 3c 3e de 03 17 3e
       0.28598243 0.12965798 0.18378976 0.14747569
000150 ad cd 38 3e 24 ee 2d 3e e2 04 0f 3e 75 e4 86 3d
       0.18047209 0.16985375 0.13966706 0.065865435
000160 8b d8 b5 3d 29 1b f3 3d ea dd 45 3e 54 14 09 3c
       0.08879193 0.11870415 0.19322935 0.008366663
000170 c2 25 03 bd 50 c6 a0 3e 9e 36 bb 3d 76 f4 a6 3e
       -0.03201843 0.314013 0.09141277 0.32608384
000180 3c 62 55 bc 35 20 68 3c 89 6c 51 3e f0 10 91 3e
       -0.013023909 0.014167835 0.20451559 0.28333235
000190 98 d3 a6 3b a0 18 03 3e 2a 1e 94 3e 72 db 05 3e
       0.005091142 0.12802362 0.28929263 0.13071993
0001a0 0e e9 9e 3e d6 cb 21 3e 71 a4 bd 3e 85 3e ef 3d
       0.31037182 0.15800413 0.3703952 0.116818465
0001b0 cb 61 24 3e f9 be ce 3c 0e 27 b3 3e b3 ed c5 3d
       0.1605293 0.025237547 0.34990734 0.09664478
0001c0 9f ef 43 3d fc 8a 3b 3e 24 7d b6 3d 47 b6 04 bc
       0.047835942 0.18314737 0.089105874 -0.008100099
0001d0 f4 f0 10 3e 61 01 51 3e 43 e6 9f 3e c6 51 34 3e
       0.14154416 0.20410682 0.31230363 0.17609319
0001e0 4d 31 14 3e 5c d4 87 3e 4b 46 9e bd ae 35 c3 3d
       0.14471932 0.26529205 -0.07728251 0.09531723
0001f0 8a ec 12 3e 19 16 52 3e 02 5c f9 3c 69 a4 47 3e
       0.14348045 0.20516242 0.03043938 0.19496311
000200 5d 4f 1b bc 5d 2f 59 be 43 a1 a2 3d 51 61 62 bd
       -0.009479371 -0.21209474 0.079409145 -0.05526859
000210 a8 d1 64 bd 78 b9 f3 3d de 4e 50 bd 76 5a 94 3d
       -0.055864006 0.1190061 -0.050856464 0.072438166
000220 c9 00 3c 3d 48 77 54 3e c7 86 25 be e6 41 ba 3d
       0.045899186 0.20748627 -0.16164695 0.090946004
000230 96 77 08 3e f3 8b 09 3e b1 f1 e1 bd 1d 95 a2 3d
       0.13326868 0.13432293 -0.11032427 0.07938597
000240 15 65 9f 3d 4f a3 d3 bd 01 ab 61 be cb c2 fb bd
       0.07782952 -0.10333883 -0.22037889 -0.12293013
000250 7d 4d 3a be f4 4a 07 3d 0f a1 90 bd b5 c1 1b 3e
       -0.18193622 0.033030465 -0.070619695 0.15210612
000260 eb a2 57 3e 61 89 3e 3d 3c 4f d6 bd ae 53 0a be
       0.21058242 0.046517733 -0.104643315 -0.13508484
000270 a7 a7 0c be 3c 32 39 bd 2b 6b 08 3e 33 b5 a0 bb
       -0.1373583 -0.045213923 0.13322131 -0.004904413
000280 87 bb 2b be d6 40 23 bb e3 08 47 3d 1d 2b 36 be
       -0.16770755 -0.0024910471 0.04859246 -0.17789884
000290 2e dd 4f bd 35 26 68 bd e7 7f 16 3d f9 51 b3 bc
       -0.050748043 -0.056677062 0.03674307 -0.021889674
0002a0 5d 94 2d 3c 52 40 cb 3d fa 69 01 bd 09 0e 9e bd
       0.010594455 0.099243775 -0.031595208 -0.07717521
0002b0 1a 28 79 bd d3 54 07 be bc ba fd 3c 4a c9 a7 3d
       -0.06082926 -0.13215952 0.030972831 0.0819269
0002c0 c2 02 e9 3d 0e eb a2 be e9 eb fb bd 6f be ee bd
       0.11377479 -0.31819957 -0.12300856 -0.11657416
0002d0 87 e0 e6 bc 7b 4a 4c 3d d6 87 02 be 18 bc 15 3c
       -0.028183235 0.049875718 -0.1274713 0.009139083
0002e0 39 14 85 be 5b 31 8f 3d 36 1d 88 3d 39 a5 63 3d
       -0.2599199 0.06991836 0.066461965 0.05557749
0002f0 41 6e d2 ba a2 74 88 bd 22 a1 ab bd 3b 4f ba 3d
       -0.0016054587 -0.06662871 -0.08380343 0.09097143
000300 18 56 61 3d 8b e6 fc 3d 33 85 59 be 26 7c 12 3e
       0.055013746 0.1234866 -0.21242218 0.14305171
000310 3b ad 21 3e 4e 37 2d bd 14 cf ca 3c 09 bf bf bc
       0.15788738 -0.04228907 0.024756946 -0.023406522
000320 70 bc 25 bd 8f bb 0b bd e5 3b 38 bc c4 69 b3 bc
       -0.04046291 -0.034114417 -0.011244749 -0.021901019
000330 cc f7 7b bd 67 ea d5 bd c7 dc ac bd 54 d9 55 3d
       -0.061515614 -0.10445099 -0.084405474 0.052209213
000340 47 5a 97 bb 15 15 94 bd 6e ab 41 3d af 19 2b 3e
       -0.004618916 -0.072305836 0.04728263 0.16709016
000350 92 9e 4b bc de 39 6c bd 88 4a fe 3d 19 42 0a be
       -0.012427943 -0.057672374 0.124165595 -0.13501777
000360 d4 67 a7 3d 08 40 93 3d 32 85 32 3d aa 9e 9a 3c
       0.081741005 0.07189947 0.043584056 0.018874485
000370 08 76 b4 3d db 1c 50 3e 87 b8 09 3e e2 15 78 3d
       0.08811575 0.20323507 0.13449298 0.060567744
000380 ee 00 67 bd 79 4a db 3d 07 af 19 be da dd 66 bd
       -0.05639737 0.10707564 -0.15008174 -0.056363918
000390 30 90 6c be 9c e5 a0 bd 1a 24 21 3c 51 cb 03 be
       -0.23101878 -0.078562945 0.009835267 -0.12870528
0003a0 51 cd 31 bc ea 08 31 bd b6 1c a7 bc 11 1f 18 3e
       -0.010852174 -0.04322139 -0.020399433 0.14855601
0003b0 ce b4 a9 3d 6f e4 e7 bd cd ce 7a 3d 9f 2d 80 3c
       0.08286439 -0.11322867 0.061232377 0.015646754
0003c0 ce 29 8a b9 4f c8 f1 3b 52 ec 81 bd ea cd d6 3d
       -0.00026352558 0.007378615 -0.06343903 0.10488494
0003d0 8d f3 28 3d c9 d8 f2 3c cd cc bb 3c ce 91 75 3d
       0.041247893 0.029644387 0.022924805 0.059953503
0003e0 f0 ca eb bc 82 86 07 be 26 02 ec 3d d0 7c 1e 3e
       -0.028783292 -0.13234904 0.11523847 0.154773
0003f0 29 74 8b 3d 55 8b 8d bc 78 45 9d bb 82 27 32 bd
       0.06809265 -0.017278353 -0.004799541 -0.04349471

weight f4 [29, 128]
000000 2b 50 75 3e dc e2 2a 3e 65 e7 9b 3b 92 51 67 3d
       0.23956363 0.16688102 0.004757809 0.056474276
000010 06 0c 27 be a7 6a ec 3c 6d 02 1b be 09 8e 3a 3e
       -0.1631318 0.02885945 -0.15137644 0.18218245
000020 62 4b 9b be 9e 03 ab 3d eb b9 75 3e 41 53 2f 3d
       -0.3033095 0.08350299 0.23996703 0.042804006
000030 b8 2d 35 be d5 e1 26 bc c6 d5 12 3d e7 7f 5c 3d
       -0.17693222 -0.0101856785 0.0358484 0.053832915
000040 87 b7 30 be 40 e6 19 3e c6 54 b3 be 5b d3 a6 3e
       -0.1725751 0.1502924 -0.35025615 0.32583126
000050 20 77 de 3e ea c3 e1 bd 01 97 51 3c c3 24 de 3d
       0.4345026 -0.11023696 0.01279235 0.108468555
000060 b4 ad 12 bd 77 03 8a be da d6 e0 3d f2 93 48 3e
       -0.035810187 -0.26955768 0.1097848 0.19587687
000070 bb 53 0a 3f 25 9b 0e be 10 e2 9a 3d df 00 fa 3d
       0.5403401 -0.1392637 0.07562649 0.122071974
000080 48 b6 aa be 41 7a 81 be 5f 89 12 be 43 94 c9 bd
       -0.33342195 -0.25288585 -0.14310215 -0.09842732
000090 af ce 30 3e 8d 9a 8a 3e 45 8f 76 be 42 25 48 be
       0.17266344 0.27071038 -0.2407809 -0.19545463
0000a0 2f 8d df 3d d9 eb 12 be 87 e0 ec 3d 17 52 7e bd
       0.109156005 -0.14347781 0.11566263 -0.062090006
0000b0 9c 59 79 3d 15 2e e6 3d 5b 88 00 3f c7 2e 1e 3e
       0.060876474 0.11239258 0.5020806 0.15447532
0000c0 61 41 73 3c 2c 38 c6 3e 4f 93 87 3d 39 a9 06 bd
       0.0148471305 0.3871473 0.06619894 -0.032876227
0000d0 cb d8 88 bd 22 8f 81 bd e9 29 63 ba ad 93 6c bd
       -0.06681975 -0.063261285 -0.0008665608 -0.057758022
0000e0 c0 8f 31 3d 0b 3a e3 3d bf 02 bf bb dc 7e 62 3d
       0.04334998 0.11095055 -0.005829185 0.055296764
0000f0 fc 6d 2f be 01 2c 53 be 7b 1e b0 3d 5b 69 8b 3e
       -0.171318 -0.20622255 0.08599564 0.27228817
000100 4c f0 02 3c ad 4b 0a be ee d6 5e 3e d2 06 18 3d
       0.007991862 -0.1350543 0.21761677 0.03711588
000110 41 4c 78 3d 66 c0 b1 3d 61 04 86 3e d0 72 66 bd
       0.060619596 0.08679275 0.26175216 -0.056261837
000120 2c 45 20 3c d8 c6 d5 3c 07 28 82 bd 02 aa ac bd
       0.009782117 0.026095793 -0.06355291 -0.08430864
000130 dc df 0e bd d0 7d 6c be 44 02 70 be 89 9a 1b be
       -0.034881458 -0.23094869 -0.23438364 -0.15195669
000140 f8 f9 20 3e d1 2e da 3d f6 79 e9 3c 2c 2f 5f 3d
       0.15720356 0.10653461 0.028500538 0.054488346
000150 fd f6 5a be 2d e8 29 be a3 24 ca 3e 47 da 27 3e
       -0.21383281 -0.16592474 0.39481077 0.1639186
000160 c3 24 1f 3d f1 a9 fe 3d 65 e7 41 be 8b 86 14 3d
       0.038853418 0.124347575 -0.18935926 0.036261123
000170 67 f0 83 bd 6b d6 f9 3d cb 3d 60 bd bd d7 5b 3e
       -0.064423375 0.121991 -0.05474643 0.21469016
000180 bc 1c 93 be f9 18 f1 bd 15 52 d6 bd de a0 81 bd
       -0.2873286 -0.11772341 -0.10464875 -0.06329511
000190 12 9d 93 be 51 ae 33 bd be 9c a5 3d 02 97 94 be
       -0.28830773 -0.043867413 0.08086537 -0.2902146
0001a0 6d 80 70 3d 77 66 65 3e 15 74 29 3e 50 52 8b bc
       0.058716226 0.22402368 0.16548188 -0.017007023
0001b0 12 e8 16 3d 9d 0f 01 3e aa b2 36 be 73 65 7d be
       0.036842413 0.12603612 -0.17841592 -0.24745731
0001c0 96 aa a7 3c 9d 5f 92 bb c2 8c 2c 3e 78 18 3f bd
       0.020467084 -0.0044669644 0.1685057 -0.046654195
0001d0 35 8d 48 3e 19 fa 2b 3d 69 29 63 be c8 d9 61 3d
       0.19585116 0.04198656 -0.22183765 0.055139333
0001e0 fb 46 37 3e f6 70 7e 3d 96 75 f8 3d b7 2d 86 bd
       0.1789817 0.062119447 0.12131803 -0.06551688
0001f0 dc 46 8e bc 2f 30 aa bd e4 2d e6 bd 57 85 5a be
       -0.017367773 -0.083099715 -0.11239222 -0.21339928
000200 03 5c 09 be bc f1 9c be 1d d8 97 bd f0 b9 b3 bd
       -0.13414006 -0.3065318 -0.07414267 -0.08775699
000210 f1 8a be 3d f5 de 12 3e ea a7 3e bc 04 40 e5 3c
       0.09303845 0.14342864 -0.0116367135 0.027984627
000220 e3 27 8d bd 1a 4f fa 3c 88 2e 8c be 9a d3 4c bd
       -0.068923734 0.030555297 -0.2737925 -0.050006486
000230 81 26 48 3c 45 0e c1 3c e8 db 53 be ef 97 dc bd
       0.012216211 0.023566375 -0.20689356 -0.107711665
000240 52 29 90 bb b5 c4 09 bf 5d fb 6c bd 0e 52 96 3e
       -0.004399457 -0.53815776 -0.057856906 0.29359478
000250 f2 2f 3d bd 3d c9 21 be 74 08 0e be 15 4d 23 3d
       -0.046188302 -0.15799423 -0.13870412 0.039868433
000260 7b 15 bc 3e 9a c7 de bd d0 3b 45 3d 7f 2c 9e bd
       0.36735138 -0.10877915 0.048152745 -0.07723331
000270 a4 2b d4 bc 71 c6 fe 3d 01 aa d6 be 1c 70 75 3e
       -0.025899716 0.124401934 -0.41926578 0.23968548
000280 e0 81 3d 3e ef d4 3b bd b8 d7 07 3f 8f 45 08 3c
       0.18506575 -0.045857366 0.53063536 0.008317365
000290 ab 13 88 be d3 46 9f be 68 98 37 3d 3f 82 38 3e
       -0.26577505 -0.31108722 0.04482308 0.18018435
0002a0 97 9b 65 3e d3 c9 cb bd e4 98 19 3e 32 01 62 be
       0.22422634 -0.09950604 0.1499973 -0.22070768
0002b0 59 c4 1b be 4d d4 3e be de 08 64 3e 2b fd 1d 3e
       -0.1521162 -0.18635674 0.22269008 0.15428607
0002c0 e2 9a 74 bb 08 38 83 be 89 2c 8a 3e d5 b1 70 3e
       -0.0037323763 -0.25628686 0.26987103 0.23505338
0002d0 a0 44 2e 3e d5 df ab 3c a1 9d e9 bd 01 40 a6 3e
       0.17018366 0.020980755 -0.114070185 0.32470706
0002e0 95 dc 0b bd 0a ad fd 3d 9f 1d 21 3e b0 6e 66 bd
       -0.03414591 0.1238652 0.15733956 -0.056257904
0002f0 8c 0a 81 3d 84 1e 47 3e 5d 94 c4 bc a2 e5 d8 be
       0.0630084 0.19445235 -0.023996526 -0.42362696
000300 a0 db f3 3d 52 a0 cf 3e 97 4d a6 3e d6 63 56 be
       0.119071245 0.40552002 0.3248107 -0.20936522
000310 6c 80 4a be 08 34 bf 3d fe 65 50 bd e6 e1 0a be
       -0.19775552 0.09336096 -0.050878517 -0.13562736
000320 30 6d 10 bd 57 aa cb be 56 1d 7c 3d 46 8a 13 3e
       -0.03526038 -0.39778396 0.061551414 0.14408216
000330 d1 7b b3 3e a4 24 0b be 5d c3 cf bd 0d 60 fb 3c
       0.35055402 -0.13588196 -0.101446845 0.030685449
000340 7a f5 ce be e9 16 37 be fe 3d 3b be 33 e3 b0 bb
       -0.4042166 -0.17879833 -0.18285367 -0.005398178
000350 d3 d1 d8 3e 00 8c b5 3d 8f d7 51 3e 43 5d 74 be
       0.42347583 0.088645935 0.20492385 -0.23863702
000360 93 66 3a 3d 12 0d b9 3d c8 d6 8d 3e 5f b2 6e bd
       0.04550798 0.09035696 0.27702928 -0.058275577
000370 f4 93 91 3e e4 c8 32 bd ed fc 83 bd e8 ad 51 3d
       0.28433192 -0.043648615 -0.06444726 0.05119124
000380 79 f7 76 bd 0a 34 8e 3e 21 86 ab 3d 92 eb 4b be
       -0.060294602 0.27774078 0.083751924 -0.19914082
000390 33 85 ad 3d df 2c 33 3d 5b 3f 4a bd 58 52 39 3e
       0.08472671 0.043743964 -0.049376827 0.18097818
0003a0 5b a9 d6 bd 2f 98 d0 3e f1 09 26 bf 6b a0 89 bd
       -0.10481521 0.40741107 -0.6485892 -0.067200504
0003b0 d7 d6 1e bd 16 38 6d be 15 c8 02 be 54 f9 0f 3f
       -0.038779106 -0.23165926 -0.12771638 0.5623982
0003c0 7e dc 43 3e 8c 40 36 bd f2 18 24 bd 4b 88 4d 3e
       0.1912708 -0.04449515 -0.040062852 0.20071523
0003d0 b1 f7 ea bd 5c 5f 91 bd 77 50 43 3d 69 78 ca bc
       -0.11473025 -0.070982665 0.04768416 -0.02471562
0003e0 53 7b 71 be 81 d9 46 3d 14 fb 7d 3d 77 eb 94 bd
       -0.235822 0.04854727 0.062007025 -0.07271474
0003f0 75 aa 8a 3d a4 9c b4 bd 10 45 5b 3e 59 0a 95 be
       0.06770793 -0.08818939 0.21413064 -0.29109457

bias f4 [29]
000000 6d 71 86 3e 60 ea 57 bc b8 52 cd be 67 8c 45 3d
       0.26258412 -0.013178438 -0.40102172 0.0482296
000010 09 76 c0 3d 59 29 6f be 37 45 a7 bc 78 6e 44 bf
       0.093975134 -0.23355617 -0.020418746 -0.7673106
000020 82 76 95 bd 8b 7a 69 bf 8f 4a 32 bf 36 43 91 3d
       -0.07297994 -0.9120261 -0.6964502 0.070928976
000030 52 c9 46 3c dc a4 9d 3d 44 bd 23 be 5e 11 c2 bd
       0.012132959 0.0769746 -0.15990168 -0.09475969
000040 aa a9 54 bf 6f c3 bf 3e 3f 84 e0 3d a6 e5 a6 3e
       -0.83071387 0.37453791 0.10962724 0.32597083
000050 bd 93 4d be 8f 53 3d bf a5 e3 3e bf 33 ed 5e bf
       -0.20075889 -0.73955625 -0.7456611 -0.8708069
000060 f6 33 47 bf 12 91 08 bf 2b 1f 1e bf 1a 2a 9e bd
       -0.7781366 -0.5334636 -0.6176631 -0.07722874
000070 2d 8f 21 bf
       -0.63109094
