models/LSTM/128/ESEN_100-00/ESEN_100-00_4_threshold_val_37.pt (torch, 353807 bytes, 7 tensors)

weight f4 [29, 32]
000000 c9 4a b3 3f 68 df 68 bf ec 3c 1b 40 5f 01 a9 3f
       1.4007198 -0.9096589 2.4255934 1.3203543
000010 9c 14 21 c0 82 aa e4 bf f6 96 8f 3e 51 c8 a1 3f
       -2.516883 -1.7864535 0.28044862 1.2639257
000020 68 1c 1e c0 ec dc 3e 3f ec dd c6 be 19 1a 8e be
       -2.4704838 0.7455585 -0.38841188 -0.27754286
000030 68 64 c9 39 93 f8 1a 3f 9e 0c 06 3f fb f7 51 be
       0.00038412516 0.60535544 0.52363 -0.20504753
000040 18 70 9d be 9d 8f e8 bf 44 0b b1 3e 23 d8 b7 3f
       -0.30749583 -1.8168827 0.34578907 1.4362835
000050 53 47 4a 3f 25 10 9c 3f dd 94 e5 bf 4c 87 1b 40
       0.7901508 1.2192427 -1.7936054 2.4301329
000060 3a a3 a7 3f dd c6 f3 bf c2 3f e2 bf 06 79 98 bf
       1.3096688 -1.9045063 -1.7675707 -1.1911933
000070 15 5f 89 bf 32 2c ec be 02 d8 b0 3e ef 2e 9b be
       -1.0732142 -0.46127468 0.345398 -0.30309245
000080 bb 4a a5 3d 79 1b 6b 3d c4 d9 6c 3f 11 20 bd 3f
       0.08070894 0.057399247 0.92519784 1.4775411
000090 56 7a ad 3f 74 1b 5a 3e 03 fa 3d 3f fe 6d ff 3d
       1.3552959 0.21299535 0.7420961 0.12472151
0000a0 28 5a 87 bd 2b cb 6c bf 51 97 61 3f b5 f0 e7 3e
       -0.06608993 -0.9249751 0.88121516 0.45300832
0000b0 b1 df 93 3f ad 7b 44 bf 9e ef 40 bb c3 39 6b bf
       1.155264 -0.76751214 -0.0029439698 -0.9188501
0000c0 97 72 18 c0 b7 4f b3 be c5 6e c0 bf 5f 99 41 bd
       -2.381994 -0.35021755 -1.5033804 -0.047265407
0000d0 b7 70 18 3e 5e 44 07 3f 50 13 e5 3f 97 3c 62 bf
       0.14886747 0.52838695 1.7896519 -0.883737
0000e0 3c 39 18 bf b4 99 cd 3f 85 88 ef 3e a0 43 77 3f
       -0.5946233 1.6062531 0.46783844 0.9658756
0000f0 fd 90 63 3e 84 fa b9 be 16 91 7e 3d 9f 14 58 c0
       0.22223277 -0.3632394 0.062150083 -3.3762586
000100 cf 3c 3e c0 39 2f 79 3f 5d 37 6e c0 ec cf 72 be
       -2.9724615 0.9733768 -3.722129 -0.23712128
000110 71 6e 0e bf c8 ad 72 3f 3c 44 05 be c0 15 97 bd
       -0.5563727 0.9479642 -0.1301431 -0.07377195
000120 b9 12 5c bc 19 3f 32 bd 8e 17 2c 3f dc 59 71 3e
       -0.013432198 -0.043517206 0.6722344 0.23569435
000130 e4 2d 2b 3f 83 2c da bf bd 63 dd 3e b2 c9 6e bf
       0.668669 -1.7044834 0.43240157 -0.9327651
000140 9c 62 10 bf 08 e4 4b be 82 61 c9 be 9b 41 17 40
       -0.56400466 -0.19911206 -0.39332205 2.3633792
000150 7a 55 1d be 0b 33 9c be d5 52 ae bf f2 db 86 be
       -0.15364638 -0.30507693 -1.3619028 -0.2633968
000160 de 02 01 bf 63 23 a9 bf 2e 18 89 be a0 49 30 be
       -0.50395 -1.3213924 -0.2677626 -0.17215586
000170 44 1e a4 bf ba 96 47 3f 17 09 44 c0 8f aa 46 3f
       -1.2821736 0.77964365 -3.0630548 0.77604
000180 45 f0 df 3f 5d d6 38 40 85 73 5e bf 4c 3d a9 be
       1.74952 2.8880837 -0.8689502 -0.33054578
000190 03 b2 02 40 c7 47 1d c0 7a ee 8a bf f4 8e e4 3e
       2.042115 -2.457506 -1.0854027 0.44640315
0001a0 4c c3 a8 bf 26 44 56 c0 83 e5 ad 3f d2 77 c5 3e
       -1.31846 -3.3479095 1.3585666 0.38567978
0001b0 7a 4b 49 3e 6f e5 47 bf ff c5 f9 3e e3 1b 11 3f
       0.19657698 -0.7808446 0.48783872 0.56683177
0001c0 29 5d 36 bf 58 f3 9f 3f 8d 97 b6 3e a0 9c 22 3f
       -0.712359 1.2496138 0.356625 0.6352024
0001d0 d2 e4 29 40 a6 31 12 bf 47 9a 28 be 2a a2 e3 3e
       2.654591 -0.5710701 -0.16465102 0.4445966
0001e0 88 3c 32 3f 46 e3 86 bc d5 b5 d9 bf 35 3d 96 3e
       0.69623613 -0.016465794 -1.7008616 0.29343572
0001f0 dd b6 c6 be e8 cf a7 bd c4 f4 57 40 e1 d4 da bf
       -0.3881139 -0.08193952 3.3743143 -1.7096215
000200 e2 40 b7 3f 5d ed 2f bd 00 aa 98 bf 08 5f e8 bf
       1.4316676 -0.042950977 -1.192688 -1.8154001
000210 20 18 4c bf 04 ca 43 bf 2c 62 62 bf db c5 e1 3f
       -0.7972431 -0.76480126 -0.8843105 1.7638506
000220 fa 2d 29 c0 2d 0f 36 3e 60 da 2d be a9 a5 7e bf
       -2.6434312 0.17779227 -0.16977835 -0.9947153
000230 66 f0 0b 40 0c 86 14 bf f0 5d 2d be eb 93 83 bf
       2.1865478 -0.5801704 -0.16930366 -1.0279516
000240 7a 57 eb 3e 60 c0 87 bf ce 97 1c bf e2 88 9a bf
       0.45965177 -1.0605583 -0.61169136 -1.2073023
000250 17 d4 88 bf 4a 13 a0 bd 88 b5 ca bf 96 1b b2 3e
       -1.0689725 -0.07816179 -1.5836649 0.3478667
000260 46 ae 8e bf d4 e6 18 be 81 fd 02 3d ec 19 22 bf
       -1.1146934 -0.14931804 0.03198004 -0.63320804
000270 c3 48 f3 3f 80 c4 43 be 57 a0 5b bf 76 ca e6 bf
       1.900658 -0.19117928 -0.85791534 -1.8030536
000280 6f a1 45 3f 00 fe de bf f9 94 e1 bf 77 e9 83 3f
       0.77199453 -1.7421265 -1.7623588 1.0305623
000290 e7 89 70 bf a5 57 93 be 1b 89 cb bf f2 84 2d c0
       -0.9396042 -0.28777805 -1.5901216 -2.7112393
0002a0 37 d9 24 40 73 e5 72 3f 9a 15 5e 3f cb 49 27 3e
       2.5757577 0.9488136 0.8675171 0.16336744
0002b0 ec 89 80 be 5a 47 58 be 3f 63 d4 3f 21 76 8f bf
       -0.25105226 -0.21120968 1.6592788 -1.1207925
0002c0 47 5b 12 bf c3 d4 f2 3e fa f9 d4 bf ef 75 3d bf
       -0.5717053 0.4742795 -1.6638787 -0.7400808
0002d0 10 15 c2 3e 91 56 ec 3e 35 21 9c bd 81 2e 27 3f
       0.37906694 0.46159795 -0.07623521 0.65305334
0002e0 f4 c2 16 bf 5b 56 56 3f 7c 42 a1 3d 81 2a 14 3f
       -0.58891225 0.8372552 0.07874009 0.57877356
0002f0 00 cd 28 3c df cb fc 3c d0 5d bf 3f 55 13 c4 bf
       0.010302782 0.030858932 1.4950504 -1.53184
000300 35 21 49 be 86 39 4b 3f 54 bf 9a 3f 17 4c ac 3f
       -0.19641574 0.7938465 1.2089639 1.3460721
000310 a4 0f 9d bd e0 cb 35 3f 9b 88 55 c0 ee 17 e1 bd
       -0.07668999 0.71014214 -3.3364627 -0.10990892
000320 ae 1f 08 3f 6c bb 2e bf 42 c0 3a 40 2f 18 95 bf
       0.5317334 -0.68254733 2.9179845 -1.1648005
000330 fa e9 a8 3e 53 b8 c8 bf ee e5 a1 bf e9 a0 c1 bf
       0.3299101 -1.5681251 -1.2648294 -1.5127231
000340 80 19 c8 bd 02 b7 a4 3f c8 b1 c2 3e 94 66 8f 3f
       -0.09770489 1.286835 0.3802626 1.1203179
000350 b9 b4 f9 3e 92 b3 ae bf 26 c1 1f 3e 07 0b bd bf
       0.48770693 -1.364855 0.15601024 -1.476899
000360 f5 93 be 3f 19 d0 8f bf dc 98 69 3e c8 ff 29 3f
       1.4888903 -1.1235381 0.22812217 0.66405916
000370 f9 c7 c0 be ac 08 69 3e 4a af 84 3f b2 7d 8e bd
       -0.37652567 0.22757214 1.0365994 -0.06957568
000380 3c 0c 4d 3f 03 2d 1d c0 41 3b 3a bf c0 ef 75 be
       0.80096793 -2.4558723 -0.72746664 -0.24017239
000390 2c 4c f6 3f ea 4a 8e 3f 3a 6b fa 3d aa b7 54 bf
       1.9241996 1.1116612 0.12227483 -0.8309275
0003a0 52 c1 3c bf 5e 52 91 3e 2e 30 70 3f 72 87 18 3f
       -0.73732483 0.28383154 0.93823516 0.59581673
0003b0 b6 31 54 3f 82 6b 88 bf d7 c7 9d bf 53 fe e9 3f
       0.8288835 -1.0657809 -1.2326611 1.8280739
0003c0 17 f7 1c c0 7c 0f 2a bf 52 5e d1 3f 29 48 e6 3e
       -2.4525812 -0.6642988 1.6356909 0.4497693
0003d0 01 e7 33 bf ae 9d 74 be ef dc 04 bf 9c 39 9b 3d
       -0.7027436 -0.23888275 -0.5189962 0.075793475
0003e0 1b 1e 60 bf 65 fe 20 40 f2 88 97 be 02 32 47 3f
       -0.8754594 2.515527 -0.29596668 0.7781068
0003f0 6a ac ac 3e b8 ae 50 3f 38 b0 d9 3f 3e 45 78 3e
       0.33725291 0.815166 1.7006903 0.24245164

weight_ih_l0 f4 [512, 32]
000000 51 a2 83 be 5b cd 54 3e 57 da c0 bd e5 aa ab 3d
       -0.25709775 0.20781462 -0.09416645 0.08382205
000010 0c 42 72 3e 92 e4 3b 3b b3 50 7a ba f5 6b 8a be
       0.23658007 0.0028670174 -0.0009548768 -0.2703549
000020 cd 03 39 3d ff 07 91 be aa d7 d2 3d 7b 97 e4 3d
       0.04516964 -0.28326413 0.10295041 0.11161705
000030 e4 94 39 3e 86 b1 a3 3d 5a a9 23 3e 44 e1 92 be
       0.18123204 0.07992844 0.15982571 -0.2868749
000040 84 77 bf 3d 8f 27 56 be 87 04 40 3d 8e 39 b9 3e
       0.09348968 -0.20913528 0.046879318 0.36176723
000050 f8 5a 89 3d e7 d4 ed 3d dc de 18 3e 22 43 c5 3d
       0.06706804 0.116128735 0.14928764 0.09631945
000060 31 75 1c 3e 1c 2f 0d 3e dd 8e 2b bd 79 25 c3 3d
       0.1527908 0.13787502 -0.041884292 0.09528632
000070 dd 09 c8 be aa 25 96 bc b6 f4 43 3e 7e d9 f1 bd
       -0.39070025 -0.018328506 0.19136319 -0.118090615
000080 21 35 2f be 8e 1c 1f 3e 93 d7 a6 bd 29 2b d0 3e
       -0.17110111 0.15538236 -0.08146586 0.4065793
000090 54 f4 99 3e e5 6a 79 bd 9c 02 89 be 78 f5 ed bd
       0.3006922 -0.06089296 -0.26759803 -0.11619085
0000a0 c7 64 ee bd 69 8f 37 3b ae 3f be 3e a3 04 75 3d
       -0.116403155 0.0028009063 0.3715796 0.059818875
0000b0 7f 75 11 be f9 1e be 3c f5 de 64 3d b5 2b 18 3d
       -0.14204977 0.023208128 0.05587669 0.037151057
0000c0 ee 02 cd be 36 dd 3a be bd ea 32 be 14 4c bc bd
       -0.40041298 -0.18248448 -0.17472358 -0.09194198
0000d0 a8 e2 39 3e 09 a8 12 bd 17 a5 fc 3d 4d e4 d9 3c
       0.18152869 -0.035804782 0.12336176 0.02659812
0000e0 bf bf 20 be 31 1a e4 bd ee 5c f4 3e 69 9c 76 be
       -0.15698145 -0.11137808 0.4772715 -0.24083103
0000f0 b3 8f 33 be 56 da 1a 3d ef 53 89 3e 61 01 92 be
       -0.17535286 0.037805878 0.2682185 -0.28516677
000100 70 0b b0 3e ce 4d f3 bd 24 12 7c 3c 9a 48 bc bd
       0.34383726 -0.118800744 0.015385184 -0.09193535
000110 20 15 3c 3e 14 23 8d 3d 5d 04 10 be 80 70 49 3e
       0.18367434 0.06891456 -0.14064164 0.19671822
000120 77 2b bc 3d fa 7f c6 bd eb 64 a4 3e 5a 0a 3e be
       0.09187978 -0.09692378 0.32108244 -0.18558636
000130 fe 47 0b 3d 36 db 02 3e 1a 5d 2c 3d 06 bb 02 be
       0.034004204 0.12778935 0.042080976 -0.12766656
000140 13 f5 09 3d b3 e9 20 bd 50 ff 3b 3e cf 5a 33 bc
       0.033680987 -0.039285373 0.18359113 -0.010946943
000150 1e a7 95 bb a3 50 3f 3e 87 fc 57 3e 67 32 3f 3e
       -0.004567041 0.18683104 0.21092425 0.1867157
000160 c1 d3 18 be ed 2c dd 3b d0 88 eb 3d b3 ae d9 3d
       -0.14924528 0.0067497403 0.11500704 0.10629024
000170 f3 b4 50 3e 24 00 27 3d 93 c6 38 3e 0d 98 3c be
       0.20381527 0.04077162 0.180445 -0.18417378
000180 3c fd 5d be f4 98 9f 3e 28 48 16 3e 67 4d 5f bc
       -0.21678632 0.3117138 0.14675963 -0.013629294
000190 8f c9 26 3e f7 aa e0 3d 44 e7 53 3b 3a ba d4 be
       0.16287826 0.10970109 0.003233389 -0.4154833
0001a0 d5 16 3e 3d 22 cc 9f be dd 7e 78 bd b4 cf 3e 3e
       0.046408493 -0.31210428 -0.06066786 0.1863392
0001b0 c7 a5 0b bd 46 7c 03 3e b7 a3 89 3e b4 60 e0 3d
       -0.034093644 0.12840375 0.26882717 0.10955945
0001c0 66 9f 93 3d a2 70 a7 3e 8f dd 56 3d 45 75 e8 bd
       0.07208137 0.3270312 0.05245739 -0.113504924
0001d0 a7 b0 8f 3d c9 06 05 3d 26 28 79 bc 43 62 8f bd
       0.07016116 0.032477174 -0.015207326 -0.07001164
0001e0 27 0f 0c 3e 5f 96 a9 3d 3c 60 06 bd 56 8c 51 3e
       0.13677655 0.08280634 -0.03280662 0.2046369
0001f0 a0 06 2a be 7c 99 ac bd bc 5f 86 3d fa f8 1f be
       -0.1660409 -0.08427712 0.06561229 -0.15622321
000200 ac 42 b1 bc 6e 8f ee bd cf 7b 9b bd 75 12 8e be
       -0.021638237 -0.11648451 -0.07591974 -0.27748457
000210 2d 85 ff bd 7c c1 69 3d 02 29 03 3f 94 f0 18 be
       -0.12476573 0.057069287 0.5123445 -0.14935523
000220 e3 e1 bb bd 54 b5 76 3e b8 7a 35 be b5 65 6d 3e
       -0.09173944 0.24092609 -0.17722595 0.2318333
000230 e7 d6 66 3e 08 63 53 3e 04 7b bc bd 0e 9c 8d bd
       0.22542916 0.20643246 -0.09203151 -0.06914531
000240 90 8d 82 b9 a2 b5 72 bc 6b 15 e4 bd b6 41 e5 bc
       -0.00024901005 -0.014813812 -0.11136898 -0.027985435
000250 cc 3c 87 be 65 41 31 3e 0d 12 9d bd 6e b1 eb 3d
       -0.26413572 0.17310102 -0.076694585 0.115084514
000260 15 35 19 be 71 9b 06 3e 52 b5 1a be e1 27 04 3d
       -0.14961655 0.13145234 -0.1510823 0.032264594
000270 47 0e d1 bd 3c 32 85 3d f8 c6 20 be e7 36 0e be
       -0.10207801 0.06503722 -0.157009 -0.13888131
000280 85 fb 97 3e 0a 5a 5f be b3 6b 2d 3e 2a da dc bc
       0.29684082 -0.21811691 0.16935615 -0.026959497
000290 8c e1 98 bd 87 91 a1 3e 48 b4 af 3b 6b 53 c8 3d
       -0.07464895 0.3155634 0.0053620674 0.09781536
0002a0 73 50 d5 bd 07 e7 26 be 1d 40 be 3d ee ae 16 be
       -0.10415735 -0.16299067 0.092895724 -0.14715168
0002b0 74 59 ce 3c 5d 7a 98 3e a5 4a b3 bd 18 32 8c bd
       0.025189139 0.29780856 -0.08754472 -0.06845492
0002c0 1f c3 19 3c 25 d5 86 be 0d bd b2 b9 c9 2d 82 be
       0.009384899 -0.2633449 -0.0003409166 -0.25425556
0002d0 26 49 63 be 2e ad c3 3e f8 93 8f 3e 84 dd e3 3e
       -0.22195873 0.38218063 0.2804258 0.4450494
0002e0 73 81 98 be 49 2a 08 3e e6 fb 7f bd eb 21 92 bd
       -0.29786262 0.1329738 -0.06249609 -0.071353756
0002f0 0f 9e 94 be 46 05 05 be d7 a5 fb 3c 87 ca 93 be
       -0.2902684 -0.12990293 0.030718727 -0.28865454
000300 dc c4 6e 3e 65 a8 29 bc 24 97 c3 3d d0 9d a4 bd
       0.23317283 -0.01035509 0.09550312 -0.08037913
000310 0d 36 1c 3d 78 6a f4 bd d3 2f d5 3c d2 a0 a3 bb
       0.038137484 -0.1193437 0.02602378 -0.0049935365
000320 a1 b8 2a 3e 38 3e ef 3d f8 71 6a 3d 40 be 29 3e
       0.16671993 0.11681789 0.057237595 0.16576481
000330 a2 59 93 be 62 32 83 bb 56 80 87 bd 0e 88 2e 3c
       -0.28779322 -0.004003809 -0.06616275 0.010652555
000340 68 9c 29 3e ac a0 7b 3e f3 91 4b 3d f4 55 14 3e
       0.1656357 0.2457301 0.049699735 0.14485914
000350 a0 a6 d2 3d 8d fa 3e bd 31 23 62 bd d3 63 68 3e
       0.102856874 -0.046625663 -0.055209342 0.2269433
000360 3b 47 b9 3d 1f 84 cd bd 4d e4 84 be 31 fd 9f 3e
       0.09046789 -0.10034966 -0.2595543 0.31247857
000370 17 3b 9d be 82 1b 91 bc ae cd c6 bd 03 79 a1 3d
       -0.30709144 -0.017713312 -0.09707199 0.07884409
000380 30 0e 1e 3e d2 dc 0a 3e 52 1b ab 3d 14 db 82 be
       0.154351 0.13560799 0.0835482 -0.25557768
000390 27 70 8b be 39 fb 04 be 96 aa d9 bd e3 e6 38 be
       -0.27234003 -0.12986459 -0.1062824 -0.18056826
0003a0 41 9d 51 bd 5f 1c aa 3e bd 44 e7 bd 6d 8b c7 bd
       -0.05117536 0.3322477 -0.11292408 -0.0974339
0003b0 67 26 f0 bc e3 ae 9f 3e 99 e3 87 3d f5 b2 d5 bc
       -0.029315187 0.31188115 0.06635208 -0.02608631
0003c0 e9 d6 81 3e 78 53 17 bd 8a 31 ac 3d b0 32 d5 bd
       0.25359276 -0.036944836 0.08407886 -0.104100585
0003d0 8f 2c 43 be e9 05 6b bb b1 f9 e4 bd be ad 1c 3e
       -0.19059967 -0.0035861677 -0.11180437 0.15300652
0003e0 2b 8a 20 3d 34 26 81 3d 4c 71 c8 bc 49 c2 88 be
       0.039194267 0.06306115 -0.024468087 -0.26710728
0003f0 3e 8f 66 bd 4e 9d be 3c 4a 39 d1 3d 3b 27 14 be
       -0.05628895 0.023268368 0.10216005 -0.1446809

weight_hh_l0 f4 [512, 128]
000000 0d e8 12 3e 3e 0d 51 be 62 03 6c bc 7e 03 22 bd
       0.14346333 -0.20415208 -0.014405103 -0.03955411
000010 be f1 f4 3d 38 f3 c2 bd ae a5 87 3e 32 50 91 be
       0.11960171 -0.095190465 0.2649359 -0.28381497
000020 56 c8 f4 3e 28 16 2b bc c3 bb c3 bd 82 1a 37 be
       0.47809094 -0.010442294 -0.09557297 -0.17881206
000030 4c 05 95 bd da fa 10 be 61 49 40 3e 53 43 2f be
       -0.07276401 -0.14158192 0.18777992 -0.17115526
000040 37 b0 c3 bd 40 6c 84 3e 37 db 81 be 76 8b 73 3e
       -0.09555095 0.25863838 -0.2536256 0.23783669
000050 19 ec 20 bc 42 cd 6f 3e b9 9b de 3e 0e ce 41 3d
       -0.009821915 0.23418143 0.43478182 0.04731565
000060 9e e4 be 3e 0e 08 1e be 11 bc 2c be 78 d2 b7 bd
       0.37283796 -0.1543276 -0.16868617 -0.089756906
000070 48 d3 e0 3d 6f 28 8d 3e a3 8d 01 bd b9 39 5e be
       0.10977799 0.2756991 -0.031629216 -0.21701707
000080 84 96 af 3e 3d bb 03 be 5c 8a 9d bd eb 80 73 3e
       0.34294522 -0.12864394 -0.076924056 0.23779647
000090 0a c2 86 be 06 4b 99 3d 13 7b 98 3e 87 4d 9f 3a
       -0.26319915 0.07485013 0.29781398 0.0012153842
0000a0 71 7c ab 3e ab 6b 4e be 64 54 fe 3d 6e c6 26 3e
       0.3349338 -0.2015826 0.1241844 0.16286632
0000b0 d9 4a 33 be 1d 02 3a be c8 a8 91 3d 44 5e d2 3c
       -0.17509021 -0.18164869 0.071122706 0.025679715
0000c0 73 36 0c be 2d f0 dd 3d 65 e5 25 3b 33 80 90 3e
       -0.13692646 0.108368255 0.0025313732 0.28222808
0000d0 cc 00 9f be 6f 92 e5 3a 5c 26 47 bd c1 3b a5 3d
       -0.31055295 0.0017514954 -0.048620567 0.08068038
0000e0 37 aa 82 be 50 86 91 be e7 ac 04 3f 75 53 6a be
       -0.2552049 -0.28422785 0.5182633 -0.22883399
0000f0 78 c5 c0 3e 41 f7 72 be 28 23 e1 3e c8 78 ae 3d
       0.37650657 -0.23727132 0.43972135 0.08519131
000100 d4 1a 93 3e 6e b3 49 be 04 5f 4b 3e ac 1f 21 be
       0.28731406 -0.19697353 0.19860464 -0.15734738
000110 72 dd f9 3c 24 57 8a be c3 2e bf bd 90 04 1e be
       0.030501101 -0.27019608 -0.09335091 -0.15431428
000120 bf 71 65 3d 88 49 6f bd d4 7f 8b 3e c2 01 e9 3e
       0.05601668 -0.058419734 0.27245963 0.45509154
000130 a3 9b e1 bd ab 1f 19 be 39 24 f6 be d3 8d 8e bc
       -0.110160135 -0.14953487 -0.4807451 -0.017401611
000140 b5 58 bb 3e b6 c0 57 3e a4 88 0f be 9f f2 fb bd
       0.36591116 0.21069607 -0.14016968 -0.12302136
000150 47 b4 93 be 7b 76 29 3c 02 53 0e 3e 1c e2 68 3e
       -0.28848478 0.010343189 0.13898852 0.22742504
000160 c7 6a 96 be 0d f8 7c 3e 07 4e 84 be 5a ad 83 bc
       -0.2937834 0.24703999 -0.2584078 -0.016073871
000170 81 b8 6c bc ac 44 26 3d 24 c4 0b 3e ea 8f 8c 3e
       -0.014448286 0.040592834 0.1364904 0.27453548
000180 f9 f8 01 3e e6 ec f7 3c 75 ed 01 be 03 48 7d be
       0.12692632 0.03026433 -0.12688239 -0.24734502
000190 38 af d5 3d d1 fc e3 3a a0 0c f8 be a2 f0 b3 bd
       0.10433811 0.0017394071 -0.48447132 -0.087861314
0001a0 04 af 69 be e8 10 a4 be 09 69 4a 3c f5 57 53 bd
       -0.2282067 -0.32044148 0.012354144 -0.051597554
0001b0 c8 f8 a7 be ec bb 3f 3e dc 05 17 bc eb 58 39 3e
       -0.32806993 0.1872403 -0.009217706 0.18100326
0001c0 e2 83 fe bc b7 c4 a8 3e bf ea b1 3e 2d 41 76 3e
       -0.031068746 0.32962582 0.3474941 0.240483
0001d0 23 ca 22 3e f6 ce fb bd ea b6 98 3e 39 3a 24 3c
       0.15897422 -0.12295334 0.29827052 0.010023647
0001e0 81 59 91 be 65 01 f5 3e 0e 00 2f 3c 4d c0 d0 3d
       -0.283886 0.47852626 0.010681165 0.101929285
0001f0 7d 41 4f be 6d cd f7 be d8 0b 24 3e d9 00 0d 3d
       -0.20239826 -0.48398915 0.16020143 0.034424637
000200 db 85 bb bd bd 27 e7 be 51 d5 14 be 8f 5a 5b be
       -0.0915639 -0.45147505 -0.14534499 -0.21421264
000210 41 fb c7 be de 5c 63 3e 09 01 0c 3d ad b9 51 3b
       -0.3905888 0.22203395 0.034180675 0.003200154
000220 28 6f 50 be 1d ed 7f 3e 1a 1b eb be 69 40 82 be
       -0.20354903 0.24992795 -0.45919114 -0.25439766
000230 3b 1f 0d be 5f 14 ac be 64 03 52 3e e3 13 97 be
       -0.13781445 -0.33609292 0.20509106 -0.2950736
000240 c6 7a 49 be e9 8c 15 be 09 24 1a 3f 5b 0e 76 bd
       -0.1967574 -0.14604534 0.60211235 -0.060072284
000250 73 ed d8 bc 9f 79 d4 3e 57 ff 13 3e 87 2d 41 be
       -0.026480412 0.4149904 0.14452873 -0.18865024
000260 7d 10 2c bc 34 41 f5 be ee f5 61 bd cd fc 54 3d
       -0.010501978 -0.4790131 -0.055166177 0.051998902
000270 b5 87 e3 bd 93 34 b7 be 6a 84 58 3e c4 cb ac 3d
       -0.111098684 -0.35782298 0.21144262 0.08437303
000280 4a bb dc 3d ca fd f2 3d 2f 89 08 be 11 29 69 be
       0.1077791 0.11864813 -0.13333581 -0.22769572
000290 94 b7 8f bd 9a de 3e bc ea da 9d 3e 8b f3 10 3e
       -0.070174366 -0.011649752 0.3083108 0.14155404
0002a0 6c f4 93 3e bd 72 32 be ae e3 9e 3d e3 51 91 3b
       0.28897417 -0.17426582 0.0775827 0.0044348105
0002b0 98 99 00 be 8e dd 5b be 63 3d eb bd bb 17 e9 be
       -0.12558591 -0.21471235 -0.11486318 -0.45525917
0002c0 eb 5f a5 3d 8b a9 a7 3e d5 f4 59 be 4c 6e 2d bd
       0.080749355 0.3274654 -0.21284802 -0.042341515
0002d0 da 16 b8 bd 9b a2 97 3d f7 a2 c5 be 3d ba 1a be
       -0.089887336 0.074040614 -0.38600895 -0.15110107
0002e0 6b d0 b6 be 66 2f 89 be 03 ff c7 be d6 54 42 3d
       -0.35705885 -0.26793975 -0.39061746 0.047444187
0002f0 15 f4 c6 3e dd 60 34 be 93 24 ba 3d 24 7a dd be
       0.38858095 -0.17615075 0.09089007 -0.43257248
000300 c1 db 0a bd 14 0a c8 3c 0b f8 cf 3e a6 32 43 be
       -0.03390098 0.024418868 0.4061893 -0.1906229
000310 3a 67 01 3e 4b 9b 02 3e 25 45 75 bd 4a 72 09 bf
       0.12637034 0.12754552 -0.059880394 -0.53690016
000320 ca c5 25 3e d3 3c fb be fa 87 f9 3d d8 90 0a 3e
       0.16188732 -0.49069843 0.121841386 0.13531816
000330 24 d4 01 3c 87 0e 62 be 8c ce dc be b3 00 b7 3e
       0.007924113 -0.22075854 -0.43126333 0.3574272
000340 47 0e 7c be 8f a9 f9 3d ca 80 a3 be 35 d7 94 be
       -0.24614821 0.12190544 -0.31934196 -0.2907044
000350 67 a7 b6 3d a7 d2 0a bf 29 ee 83 3e 31 ef 62 3e
       0.08918648 -0.5422768 0.2576764 0.22161557
000360 0d 94 9a be 80 3d 90 3e 60 d3 e5 3e ab ed 9f 3e
       -0.3019108 0.2817192 0.4488783 0.31236014
000370 9e 06 3e bd be d4 5e be 85 84 21 3e d9 9c 10 bd
       -0.04639303 -0.21760842 0.15773208 -0.03530583
000380 c9 dd 28 be c4 1e a5 be 9d 6f 0d 3c 79 4a 53 be
       -0.16490854 -0.32250035 0.008632568 -0.20633878
000390 ed b9 79 3e a1 e9 29 3e 88 37 2a be d5 18 64 3d
       0.24387331 0.16593029 -0.16622746 0.055687744
0003a0 8f df e3 bd 97 96 2e bf e8 fb a1 be 1f 72 85 bc
       -0.11126625 -0.6819853 -0.31637502 -0.016289769
0003b0 56 3d 98 3e 1f f8 6b 3e f6 2c 55 3e c6 34 ba 3e
       0.29734296 0.2304387 0.20817932 0.36368388
0003c0 62 9e 1f bf 56 fa 2a 3c 8e 81 0f be 3b 31 81 be
       -0.6235105 0.010435661 -0.14014265 -0.25232872
0003d0 83 76 ec 3e 68 90 29 be 22 9a 44 3e 82 d1 70 3e
       0.46184167 -0.16558993 0.19199422 0.23517421
0003e0 9f c7 47 bd 90 95 b1 bd aa a8 35 3c bc cd b4 3e
       -0.048774358 -0.08671105 0.011087576 0.35313213
0003f0 16 43 bb 3d 67 cc af be b9 6b 97 3d 20 57 9c 3d
       0.09143655 -0.34335634 0.07393593 0.07633805

bias_ih_l0 f4 [512]
000000 d6 3b 19 3e 50 83 85 3d a9 84 4f 3c 66 df a2 3d
       0.14964232 0.065191865 0.012665906 0.07952766
000010 87 79 10 3d 2c 46 d6 3d 5a 0a 00 be f9 3b cc 3d
       0.035272148 0.10462603 -0.12503949 0.099723764
000020 9a 35 b4 3c cf 9b 48 3e 89 e8 01 3e 97 c4 c4 3d
       0.021998215 0.19590686 0.12686361 0.09607809
000030 cf e2 8a 3d cd 52 ed 3d f4 65 03 3e b8 dc ac 3d
       0.067815416 0.115880586 0.12831861 0.08440536
000040 a4 15 6d 3e 35 cf 74 3e ac 25 a0 3e 56 2e 5a 3e
       0.23152786 0.23907168 0.3127874 0.21306738
000050 86 3e 96 3d 3b e6 24 3e 99 b8 8c 3d 49 dc a1 3d
       0.07336144 0.16103451 0.06871147 0.07903344
000060 c9 f4 0a 3e 84 0a 1b 3e 67 b6 10 3e c9 6e 68 3e
       0.1356994 0.1514073 0.14132081 0.22698511
000070 d6 ca d1 3d 70 be 71 3d d5 1e 0f 3c c3 00 00 bd
       0.10243766 0.059019506 0.008735378 -0.031250726
000080 49 5a fd 3d f7 f5 2c 3e 1a 1f 82 3e 28 33 21 3e
       0.12370736 0.16890703 0.25414354 0.15742171
000090 1e bc 98 3d eb e7 17 3d 21 4c 8a 3e f5 b3 bd 3c
       0.074577555 0.03708641 0.27011207 0.0231571
0000a0 90 c1 8e 3b 79 c5 8a 3e 41 2e 40 3e ca de 0f bc
       0.0043565705 0.27103785 0.18767644 -0.008781144
0000b0 75 da a3 3d 0c b6 b4 bb 5a 2c 23 3e d5 64 6f bc
       0.08000652 -0.0055148657 0.15934888 -0.014611443
0000c0 6b cd 68 3e 68 11 25 3e 5c fd e2 3d 1c a2 9c 3d
       0.2273461 0.16119921 0.11083481 0.076481074
0000d0 2e 2b 48 3e 28 32 99 3d c2 f8 10 3e 97 c7 0c 3d
       0.19547722 0.0748027 0.14157394 0.03437003
0000e0 63 8c 34 3e f7 72 7c 3e 3b 3a 0e 3e 94 0f c4 3c
       0.17631678 0.2465323 0.138894 0.02393321
0000f0 34 04 8b 3d 51 7d 29 3e bf 64 48 3e 88 62 12 3e
       0.06787911 0.1655171 0.19569682 0.14295399
000100 bb 61 11 3e 06 f3 5d 3d d9 4f 8b 3e 51 15 be 3d
       0.14197437 0.054186843 0.27209356 0.092814095
000110 1b 26 ff 3d 72 90 cb 3d b4 45 f6 3d a2 73 38 3e
       0.1245844 0.0993966 0.120250136 0.1801286
000120 40 39 c1 3d c8 b5 a7 3d 83 53 82 3e 35 25 a1 3d
       0.09434748 0.08188969 0.2545434 0.07868425
000130 4c 5b e9 3d 64 92 13 3e aa bd 9e 3c 77 bd 8d 3d
       0.113943666 0.14411312 0.019377548 0.06920903
000140 68 f7 42 3c 0a f0 e6 3d a4 7f a9 3d fe 45 02 3e
       0.011899807 0.112762526 0.08276299 0.12722012
000150 4c 61 84 3e bf 00 56 3e 29 17 41 3e 4a 5b f3 3d
       0.25855482 0.20898722 0.18856491 0.118826464
000160 3d 3c 04 3e 5c fb a0 3d eb 6b 99 3d 5d fd 00 3e
       0.12913604 0.07860443 0.07491287 0.1259665
000170 e5 7b 09 3e b8 01 52 3e 57 e2 e7 3d 69 c4 ab 3c
       0.13426168 0.20508468 0.11322468 0.02096768
000180 00 9a 94 bd 02 61 11 3d 88 5e 6b 3e 47 87 0d 3d
       -0.07255936 0.035492904 0.2298528 0.03455284
000190 9a af c1 3c d1 a5 1c 3e ad 85 16 3e f4 2b 31 3e
       0.023643304 0.15297629 0.14699431 0.17301923
0001a0 f3 b1 89 3e 54 04 f6 3d 94 28 1b 3d dc 57 2f 3e
       0.26893577 0.12012544 0.037880495 0.1712336
0001b0 31 ec 7f 3e 96 4d 1a be 5e ea 43 3e 33 14 5a 3e
       0.24992444 -0.15068659 0.19132373 0.21296768
0001c0 86 de 47 bd 9a b4 8d 3d 6d cc 1a 3d eb 95 a6 3d
       -0.0487962 0.06919213 0.037792612 0.08134063
0001d0 5e 5a c0 3d 33 0f e0 3d 0d 57 14 3e 17 91 8d 3e
       0.09392236 0.10940399 0.14486332 0.27649757
0001e0 29 af 14 3e 43 23 3f 3e f1 e5 61 3e 3d 4c be 3c
       0.14519943 0.18665795 0.22060372 0.023229713
0001f0 02 c1 27 3e be a5 f0 3d b8 bf 50 3e 1c 68 0d 3e
       0.1638222 0.11750363 0.20385635 0.13809246
000200 fd 65 9c bd bf d8 0a 3e 86 a8 c7 bd 1b 7f 8b bd
       -0.0763664 0.13559245 -0.0974894 -0.06811353
000210 b8 6d f7 3d a0 6f f5 3c c5 f3 84 bc 33 e2 c4 3d
       0.12081474 0.029960454 -0.01622952 0.096134566
000220 4b ef a9 bd 4b 4f 11 be 92 f3 a1 3d 22 41 02 3e
       -0.08297595 -0.14190404 0.079077855 0.12720159
000230 a4 17 60 3d c4 ed 4e bc c3 5e 37 3d 21 60 b9 bc
       0.054710045 -0.01262993 0.044768106 -0.022628846
000240 19 93 2b 3d 2b 8c fa bd b6 d9 de bc 3b 2f bd 3d
       0.04188833 -0.12233766 -0.027203422 0.09237524
000250 97 db 42 be f7 c3 54 3d 29 b7 2b bd d2 c3 a2 3d
       -0.1902908 0.0519447 -0.041922722 0.07947506
000260 17 e9 24 3e 8b 55 e6 3d 0e 36 00 3e 03 d1 59 bd
       0.16104542 0.11246785 0.1252062 -0.053177845
000270 6c f5 0e 3d 3b 3c d1 3d 31 fa 59 be 52 ab 69 3c
       0.03490202 0.10216566 -0.21286847 0.014262037
000280 8e 42 8d be f9 d0 32 3c b8 97 5e be 24 4e af bd
       -0.2758984 0.010914081 -0.21737564 -0.08559826
000290 9e 21 6c bd 39 a9 57 bd 68 44 10 be 0f ce e2 bd
       -0.057649247 -0.052651618 -0.14088595 -0.11074459
0002a0 cd db 88 3e 77 2e 3c bc 82 99 ea 3c d0 cb d1 3d
       0.26730195 -0.011485687 0.028637651 0.10243952
0002b0 47 2d 03 3d ae 31 46 3c 40 72 12 be 8e 34 d5 3d
       0.0320256 0.0120968055 -0.14301395 0.10410415
0002c0 18 96 ea bd 57 bc c5 bd 71 62 63 bd d4 bd cd bd
       -0.11454409 -0.096550636 -0.055513803 -0.100459725
0002d0 39 95 bd bd e3 06 5c be eb ce 8b 3c 00 e2 82 3c
       -0.092569776 -0.21487002 0.01706644 0.015976906
0002e0 7f c6 3e bd 61 48 5e be d1 d7 c7 3c 0b df 62 bc
       -0.04657602 -0.21707298 0.024394901 -0.013847123
0002f0 99 0c b2 3d ad 51 06 bd 50 9b 9e bd be ff 91 3d
       0.08693809 -0.032792736 -0.07744467 0.07128857
000300 77 0e 34 be 56 0d c1 3d b0 49 a9 bc b9 29 61 bd
       -0.17583643 0.09426372 -0.02066502 -0.05497143
000310 a9 d5 79 3d dc 39 00 bd d9 6d 53 3d 99 d9 c0 bd
       0.060994778 -0.03130518 0.05161843 -0.094165035
000320 75 03 35 bd e8 6f 32 3c 8f 38 cc 3c 64 53 b3 3d
       -0.04419275 0.010890938 0.024929313 0.0875614
000330 bd cd be bd 5f a5 92 bc ef f2 00 be 27 8f 13 3e
       -0.09316585 -0.01790112 -0.12592672 0.14410077
000340 55 d3 0e be ff 34 79 3c 2c b0 a9 bc 2b f5 81 bd
       -0.13947804 0.015210389 -0.020713888 -0.0634559
000350 22 0a 95 be 12 65 ff bd 49 fe 4d bb b1 8a 2c 3e
       -0.29109293 -0.124704495 -0.0031432083 0.16849782
000360 bd 35 10 be 76 d3 ac 3d 20 47 28 be 48 c1 84 3d
       -0.14083 0.084387705 -0.16433382 0.06482178
000370 1e 30 c9 bd e6 62 aa 3c de 4f 89 3d 68 ac 95 3a
       -0.09823631 0.020799112 0.067046866 0.0011419179
000380 c0 80 a8 bb 6f 8c 4e 3e a5 1b f1 bd 91 2a c2 bd
       -0.0051423013 0.20170759 -0.11772851 -0.09480775
000390 4b 52 c3 bd 5d 65 23 bd bb 5c 9d 3d 54 66 15 be
       -0.095371805 -0.03989159 0.076837026 -0.14589816
0003a0 de 8c 17 bd 10 0a 81 bd f0 7e a5 3d 09 f1 19 be
       -0.036999576 -0.063007474 0.08080852 -0.15033354
0003b0 08 13 2b 3e b9 d0 80 3d 7b fa 46 bc 41 e4 85 3d
       0.16706479 0.06289811 -0.01214468 0.065376766
0003c0 c8 0f be 3c 4c d0 88 bd 91 c6 85 3d 4d 25 30 bc
       0.023200884 -0.066803545 0.06532014 -0.010751081
0003d0 e7 7b 28 be 8b f6 0f 3d c2 36 ab bc 43 a5 4b 3e
       -0.16453515 0.03514723 -0.020900134 0.19887261
0003e0 58 96 3e 3b ea a8 54 bd 65 fe a6 bd 46 17 24 bb
       0.002908131 -0.0519189 -0.08153991 -0.0025038286
0003f0 ed 1f 2d be d6 76 20 be ba 5d 17 bc 60 0b 10 3d
       -0.1690671 -0.15670332 -0.009238655 0.035167098

bias_hh_l0 f4 [512]
000000 aa b1 93 3d c5 b0 07 3e d9 0b ad 3d fb 8e 58 3d
       0.07211621 0.13251026 0.084495254 0.05287073
000010 2f 87 c0 3d 89 2d 14 3e ca f6 5d bd 86 bb 11 3e
       0.09400784 0.14470495 -0.054190435 0.14231691
000020 d8 9f 3f 3e 64 97 91 3e dd 93 31 3e 1a 32 fd 3d
       0.1871332 0.28435814 0.17341562 0.12363072
000030 94 bd 06 3e d1 70 0e 3e 31 37 4b 3d 59 81 97 3d
       0.13158256 0.13910224 0.04961318 0.07397718
000040 3f cd 98 3e 5d f2 62 3e 59 55 ab 3e 13 43 86 3e
       0.2984409 0.22162767 0.33463553 0.2622305
000050 0a 1f 00 3e da b7 b9 3d 5b c5 d7 3d 09 1a 96 3d
       0.1251184 0.0906827 0.105356894 0.073291846
000060 77 ed 26 bc 14 ba aa 3d d8 fd c9 3d b5 12 20 3e
       -0.010188452 0.08336273 0.0986287 0.15632136
000070 8a b4 0d 3e 31 76 f0 3d d7 02 43 3d b8 e1 4c 3d
       0.13838401 0.11741293 0.04761013 0.05001995
000080 23 01 5e 3e ac 5d 4d 3e e0 8d 41 3e d6 48 0a 3e
       0.21680121 0.20055264 0.18901777 0.13504347
000090 86 f3 3b 3e e8 66 ad 3d 5f 88 84 3e 15 e1 21 bc
       0.18354616 0.084668934 0.25885293 -0.009880324
0000a0 f0 21 f8 3d a6 11 81 3e ff 77 fc 3d 49 5b d3 3c
       0.12115848 0.25208777 0.12327575 0.025800364
0000b0 cf f4 07 3e c1 6d e4 3d 13 f3 09 3e 90 d4 4a 3d
       0.13276981 0.111537464 0.13471632 0.04951912
0000c0 e0 83 3f 3e 71 b5 82 3d 4a fb 3b 3e eb 6f b4 3c
       0.1870265 0.063822635 0.18357578 0.022026023
0000d0 30 59 f6 3d b3 c1 79 3d 46 b0 e0 3d 89 16 88 3d
       0.1202873 0.06097574 0.109711215 0.06644923
0000e0 03 6f 45 3e 16 0e 5b 3e 45 8a 65 3e 80 b5 29 3d
       0.19280629 0.21392092 0.22416027 0.041432858
0000f0 a8 40 92 3a 92 08 8d 3e b0 f8 48 3e 5e 43 29 3e
       0.0011158185 0.275456 0.19626117 0.16529605
000100 86 b8 95 3d 18 22 00 3e 44 d0 19 3e 7a d7 8f 3d
       0.07310586 0.12513006 0.15020853 0.07023521
000110 9a 08 33 3e 70 41 cb 3d 07 9b cc 3d ea f5 07 3e
       0.1748375 0.099245906 0.099905066 0.13277403
000120 4e 0e fa 3c 31 92 ef 3d ed 4c 55 3e 4a 75 93 3d
       0.0305244 0.11697806 0.20830126 0.072001055
000130 66 43 01 3e a1 2d 2c 3e dd a8 52 bc 7a da ad 3d
       0.12623367 0.16814281 -0.012857643 0.08488937
000140 0d 0e b5 3d 32 27 cd 3d 32 f9 78 3d 13 be 0f 3c
       0.088405706 0.100172415 0.060784526 0.008773345
000150 48 0a 1f 3e 92 79 0d 3e 2d e8 e0 3d 4b d7 4b 3d
       0.15531266 0.13815907 0.10981784 0.049765866
000160 d8 7a 30 3e f2 94 a8 3d cd 01 03 3e e5 4a fc 3d
       0.17234361 0.08231534 0.12793656 0.123189725
000170 4c cf 54 3d 16 ec 23 3e ec 99 87 3d 25 5f 38 3e
       0.051955506 0.16008028 0.06621155 0.18005045
000180 ef 84 98 bb 7c f0 3b 3d e3 92 7f 3e a2 3a 10 3d
       -0.004654519 0.04588364 0.24958377 0.035212167
000190 de 35 83 3d 28 36 0a 3e 67 f9 fb 3c 6e 0e f8 3c
       0.06406759 0.13497221 0.030758573 0.030280318
0001a0 da 07 85 3e 58 a2 56 3d 83 a0 36 3e 1d a1 0d 3e
       0.25982553 0.052400917 0.17834668 0.13830991
0001b0 e4 26 f1 3d 52 62 85 bc ad 53 55 3d 6e aa 54 3e
       0.11774996 -0.016282234 0.052081753 0.20768139
0001c0 42 89 51 3a f8 ec 10 3e 0e c1 fa 3c 3d d5 74 3e
       0.00079931703 0.14152896 0.030609634 0.23909469
0001d0 0e 3b ca 3d b3 2f 1d 3e bf 59 39 3e 88 17 6e 3e
       0.09874545 0.15350227 0.18100642 0.23251164
0001e0 34 d0 18 3e e0 c2 10 3e 60 0b 1d 3e 4d 2b 01 3e
       0.14923173 0.14136839 0.1533637 0.12614174
0001f0 8a b7 8e 3e 2f 95 d1 3d d8 36 04 3e 61 04 39 3d
       0.27874404 0.10233533 0.12911546 0.04517019
000200 14 16 96 bc 09 2a 2a 3e 0b 8e 28 be c8 47 ce 3a
       -0.018321075 0.16617598 -0.16460435 0.0015737945
000210 8b 02 2a 3e f4 18 85 bd 71 e1 b0 3d c6 00 10 3c
       0.16602533 -0.064989 0.086367495 0.008789247
000220 aa 32 06 bd aa b2 15 bd 29 de 16 3e df de 10 3e
       -0.03276316 -0.03654734 0.14733185 0.14147519
000230 f7 70 93 3d af 2f 85 3d 96 73 8d 3c 3e ef 83 3d
       0.07199281 0.065032355 0.01726703 0.06442116
000240 72 b8 df 38 9e 6e ab bd bf bc 48 bd 88 76 ba 3d
       0.00010667824 -0.08370708 -0.049008127 0.09104639
000250 c4 05 da bd 2f 27 30 3d fe be 45 be 6a f9 49 3e
       -0.10645631 0.04300612 -0.19311139 0.1972405
000260 d9 09 0d 3e ef 7c a4 3d d7 9d e1 3d b7 82 4a be
       0.13773288 0.08031642 0.11016434 -0.19776426
000270 98 19 a7 3c 74 d8 88 3d 61 8a 33 be a9 f4 cc bc
       0.020397946 0.0668191 -0.17533256 -0.025019007
000280 b0 a2 f6 bd b6 a0 1f bd da c5 ee bd 39 37 5b 3c
       -0.12042749 -0.038971625 -0.11658831 0.013379865
000290 7e 6f 98 bc d5 46 31 be 7b b1 e9 bc 65 92 b8 bd
       -0.018607851 -0.17312177 -0.028527012 -0.090122975
0002a0 31 80 37 3e c2 14 9b bb c8 0c 43 bd 55 04 de 3d
       0.17919995 -0.004732699 -0.04761961 0.1084067
0002b0 6a c8 8c bc 1b b5 0e bd c9 d8 bd bd d4 ac 11 3e
       -0.017185409 -0.034840684 -0.09269864 0.14226085
0002c0 2f 63 cf bd 53 b8 9a bd 0f 65 9f bd d4 ab 66 3b
       -0.1012634 -0.07554688 -0.07782947 0.0035197632
0002d0 41 92 98 bd 08 62 59 be 25 a8 1d 3d 64 80 8e 3d
       -0.07449771 -0.21228802 0.038490433 0.06958082
0002e0 cc 49 22 be a0 64 52 be b0 63 a4 bc 02 db cd bd
       -0.15848464 -0.20546198 -0.020067066 -0.10051538
0002f0 15 49 24 3e 96 53 48 bc 84 86 4f be 9b 1f 80 3d
       0.16043504 -0.01222696 -0.20266157 0.06256028
000300 a0 9a fe bd d5 65 8f 3d 96 7c e1 bd 57 e3 5e bd
       -0.12431836 0.07001845 -0.11010091 -0.054416027
000310 04 e3 ed 3c 28 8f be 3d f0 f9 85 3d 56 64 8d bd
       0.029038914 0.09304649 0.065418124 -0.06903903
000320 67 48 f5 bd 41 8f 0a 3e d3 cd 45 bc 0a d3 94 3d
       -0.119767 0.1353121 -0.012072998 0.07266815
000330 7d e0 d9 bb 72 3a c6 3c 63 19 33 be 50 85 e3 3d
       -0.0066490755 0.02419779 -0.17490153 0.11109412
000340 69 b0 e4 bd a5 29 a2 3d ba 8f 8b bd a3 1b be 3c
       -0.1116646 0.07918099 -0.06814523 0.023206538
000350 49 b6 4d be ab 32 81 bd db 4f c8 bc 80 c8 52 3d
       -0.20089068 -0.06308492 -0.02445214 0.051460743
000360 5f 7d 6e 3c ef 5a 97 3d 66 ea 35 be c9 7d ab bd
       0.014556258 0.07390391 -0.17765197 -0.08373601
000370 46 4d df bd a7 01 2d bd ad 14 73 3d 79 6b 7f 3d
       -0.109034106 -0.042237904 0.05934589 0.062358353
000380 ca 27 e3 bc 58 e6 c0 3d aa ea 74 bd 6d 91 07 bc
       -0.027728934 0.094189346 -0.059794106 -0.008274418
000390 61 50 0d be d1 50 91 bd 11 70 3a 3e 2b a7 d5 bd
       -0.13800193 -0.07095493 0.18206812 -0.104322754
0003a0 b4 ac 8d bc 4c 98 76 bd 7c 93 19 3e 9c 84 9a bd
       -0.017294265 -0.060203835 0.14997667 -0.075448245
0003b0 88 59 42 3d 5d 0d 19 3e 30 97 90 3c d0 5f f6 3d
       0.047448665 0.14946504 0.017650217 0.120299935
0003c0 c6 79 79 bb b0 8d 3c bd 75 68 fd bb 56 d4 79 3d
       -0.0038066967 -0.04603356 -0.0077333995 0.060993515
0003d0 fe 2e f7 bd 2d 33 8e 3d 68 f2 ea bd 4f 0b bc 3d
       -0.1206951 0.06943355 -0.114720166 0.091818444
0003e0 55 50 37 3d 88 3e 9a bd dc 6a 70 be 6d 26 b3 3c
       0.044754345 -0.07531458 -0.23478264 0.021868909
0003f0 e1 37 27 be 05 f2 15 be ec 14 00 3d c3 16 da 3c
       -0.1632991 -0.14643104 0.031269953 0.026622182

weight f4 [29, 128]
000000 12 ca 53 3e 51 12 d2 bd d1 90 97 be c6 04 5d be
       0.20682552 -0.102574 -0.29602674 -0.21583852
000010 02 92 64 bd fa 74 9b be 59 3e 5d 3d 50 14 f0 bd
       -0.055803306 -0.30362684 0.054014537 -0.11722624
000020 b7 10 b5 3d 0b 12 42 3d b6 a1 ad bd d5 e7 e5 bd
       0.08841079 0.04738049 -0.084781095 -0.11225859
000030 43 fd c3 bd 40 06 2d be 67 37 86 3d b4 47 d8 bd
       -0.0956979 -0.16896915 0.06553536 -0.10560551
000040 60 c3 71 be d8 0f bd 3c 3b e9 36 3e 59 2d c3 3c
       -0.23609686 0.023078844 0.17862408 0.023825334
000050 f5 16 4e be b9 f7 1a 3e 09 c7 22 bc f7 29 e5 bc
       -0.20125945 0.15133561 -0.009935149 -0.027974112
000060 43 a5 0d 3e c1 6e 14 be 08 38 ab bd 1a d7 df 3c
       0.13832574 -0.14495374 -0.083602965 0.027324248
000070 00 5b e2 3d 83 81 88 bd ac 07 dc 3d af dc d8 bd
       0.11052513 -0.066653274 0.10743651 -0.10588967
000080 39 ea 65 be 2d 78 9d 3d f8 77 2c be e9 c9 86 be
       -0.2245263 0.07688937 -0.1684264 -0.2632592
000090 64 bf 11 be 16 98 20 3c 42 d2 b6 bd 10 04 ee 3d
       -0.14233166 0.009801885 -0.08926822 0.116218686
0000a0 62 52 7a 3d f6 60 80 be 91 6a 7d bd 5f 39 cf bd
       0.061113723 -0.25073975 -0.061869208 -0.101183645
0000b0 3e ef b3 3c b9 f2 be 3d 47 2b eb 3d 3b 41 c0 bd
       0.021964666 0.093236394 0.11482864 -0.09387442
0000c0 23 fe 86 3e 6d 2e 40 3d 9a fe c9 bd fb 0f 74 3e
       0.26365766 0.046919275 -0.098630145 0.23834221
0000d0 e7 97 89 be a6 2a 03 3f 06 28 05 be 1d 3e 68 bd
       -0.26873705 0.5123695 -0.13003549 -0.05669986
0000e0 7e 5a 73 be 60 84 65 3c 7b b4 d7 3c 33 2b 16 3e
       -0.23764989 0.014008611 0.026331177 0.14664917
0000f0 f1 c8 8d 3d 61 07 17 be 93 7c 5c 3e af f1 47 3d
       0.06923092 -0.14748909 0.21531896 0.04881447
000100 f3 cd 2a be d3 78 18 be 83 8f d8 3d 67 e2 e1 3d
       -0.16680126 -0.14889841 0.10574248 0.11029511
000110 d0 b5 2f 3e c8 79 f6 bd a2 2d 0f be 38 e5 fd bd
       0.171592 -0.12034947 -0.13982251 -0.12397236
000120 30 22 72 be 14 81 c1 bd ad c2 99 3e f1 97 da 3d
       -0.23645854 -0.09448448 0.30031338 0.10673512
000130 bf e7 33 bd 52 95 45 be 8d ce f2 bd 46 0a 9f 3d
       -0.043922182 -0.19295242 -0.11855803 0.077656314
000140 e8 c0 74 be 1c 29 d7 3d b7 eb 05 be 46 a4 1a be
       -0.23901713 0.10505888 -0.130782 -0.15101728
000150 7a a8 2a bc 85 42 9f be 2d bf 50 3e 04 0a 10 3e
       -0.0104161445 -0.31105438 0.20385428 0.1406632
000160 e3 87 73 be 2b a9 d2 3d 75 f1 27 3e 8f fb 78 3d
       -0.23782305 0.102861725 0.16400702 0.06078678
000170 f3 a3 98 3e df 59 dd bd a1 6b f3 3d 60 41 bd bb
       0.29812583 -0.10808157 0.11885763 -0.0057756156
000180 16 8c 03 be 08 72 2a bd ed 8c 79 bd f9 a8 27 be
       -0.12846407 -0.041612655 -0.060925413 -0.16373052
000190 0e 10 08 be 12 3d 17 3d c2 6a 09 be 54 7c 65 be
       -0.13287374 0.036923476 -0.13419631 -0.22410709
0001a0 17 98 32 bd 20 89 b6 bd bf 72 04 be 85 a2 10 be
       -0.043602075 -0.08912873 -0.12934397 -0.14124496
0001b0 88 b6 b5 3c e3 59 4b 3e 87 ee 4d 3e e6 32 45 3b
       0.022181764 0.19858508 0.20110522 0.0030090152
0001c0 dc f4 32 be bd 23 7e be fc 20 ab bd 03 c6 a9 bd
       -0.17476219 -0.2481832 -0.08355901 -0.08289721
0001d0 11 bd 35 3e fa 39 41 3e 63 9c fc 3d da d6 aa 3d
       0.17747904 0.18869773 0.12334516 0.08341761
0001e0 ac 25 0f be fc 8e 12 3e 8f b8 4b 3e c8 4c e4 3d
       -0.13979214 0.14312357 0.19894622 0.11147457
0001f0 93 ff 48 be b9 b4 a8 bb 1c 90 a1 3d aa b3 40 be
       -0.19628744 -0.005148497 0.07888815 -0.18818536
000200 f1 c2 37 3d 9f 98 0a 3e fa 1b 37 3e 79 8b 56 3d
       0.044863645 0.13534783 0.17881766 0.052379105
000210 51 2d 99 3d 99 bf a7 bd d6 f3 b1 bd 0a 83 13 3d
       0.074793465 -0.08190841 -0.08689086 0.03601364
000220 1b f2 03 be a8 6a c6 bd 26 5d 5f bc eb 5e 01 3e
       -0.12885325 -0.09688312 -0.013633048 0.12633865
000230 fb 4f 9d 3e c4 60 8e be d4 78 b7 bd 3b 0c 71 bd
       0.30725083 -0.278082 -0.08958593 -0.058849555
000240 e1 c3 88 3c 39 ff 55 3c 11 32 cc bb 3c af 58 3d
       0.016694965 0.013061338 -0.0062315543 0.05290149
000250 3a 8d ad 3d 02 f7 31 be db 2c b2 3d d1 6e d4 bc
       0.084742025 -0.17379382 0.08699962 -0.025931748
000260 ce 1c aa 3d eb d8 ec bd d3 9f 29 3e 28 c8 9d bd
       0.08306275 -0.11564811 0.16564874 -0.077041924
000270 84 cb 93 be 17 b6 79 3e 11 21 a7 bd 1e da 09 be
       -0.28866208 0.24385868 -0.08160604 -0.13462111
000280 f2 d7 35 3d bc 8f 62 bd a0 c7 00 3f 09 5f 86 3c
       0.044395395 -0.055312857 0.50304604 0.016402738
000290 e8 bd 82 bc 91 73 27 be 30 4e 50 3d 03 4e 8b 3d
       -0.015959695 -0.16352679 0.050855815 0.06801989
0002a0 48 5e f0 bc c4 ec 48 be 67 a9 f8 3d 9b f5 85 bc
       -0.029341832 -0.19621569 0.12141686 -0.016352465
0002b0 f1 b3 19 be 53 41 1f be 5a 60 8a bd e5 b6 13 bd
       -0.15010048 -0.15552263 -0.06756659 -0.036063094
0002c0 b2 a3 61 be b8 de 6d 3e a6 3d 33 3e f6 9a 8c 3d
       -0.22035101 0.23229492 0.17503986 0.06865494
0002d0 26 77 80 3e f7 23 96 bd 16 d3 32 be df b4 23 3d
       0.25090903 -0.073310785 -0.17463335 0.039967414
0002e0 cf 12 be 3e c7 4f a4 3e 35 f1 b2 3d bd 77 a7 3e
       0.37123725 0.32092115 0.08737413 0.3270854
0002f0 6d 2b 15 bd 90 e0 19 be e1 a0 b6 be c9 a2 ae bb
       -0.036418367 -0.1502707 -0.35669616 -0.005329464
000300 17 69 3d be c7 dd 42 3e cb 52 e4 3d a3 7c cb bc
       -0.1849712 0.19029914 0.11148604 -0.024839705
000310 db 20 d9 3d 41 f5 0c be b1 d0 4b bd e4 0b 85 3e
       0.1060197 -0.13765432 -0.04975957 0.25985634
000320 87 ea af 3c 15 f1 8f 3e cd cb 0e be 49 30 5b be
       0.021474136 0.28113618 -0.13944931 -0.21405138
000330 d2 fb 4f 3e 90 f2 6f be 6d 5b 43 3e 60 fd 65 3c
       0.20310906 -0.23432374 0.19077845 0.01403746
000340 5f fc 20 3e 23 9f 3f bf 71 7a c0 b8 24 9f 9e bd
       0.15721272 -0.748522 -9.17808e-05 -0.077451974
000350 70 14 1f be 48 13 d6 3b 51 9c 57 3d a2 cb d2 3d
       -0.1553514 0.00653306 0.05263931 0.10292746
000360 55 f0 ca 3e 5d 7a d7 3d 27 4a 99 bb 6b eb 28 3e
       0.39636484 0.10521386 -0.004678029 0.16496055
000370 76 35 33 be 87 92 86 be 30 fa 06 be 36 9a 74 be
       -0.17500862 -0.26283666 -0.13181376 -0.23886952
000380 76 22 8f 3b eb 8f 20 bd 6d ab 23 3c 78 52 a5 be
       0.0043681217 -0.03919975 0.009989602 -0.3228948
000390 c3 56 27 bd 6e e5 53 bc 5b 5c c2 bd ce 35 29 be
       -0.040854227 -0.012933118 -0.09490272 -0.16524431
0003a0 57 ca ff 3b e5 0d e7 3d 29 28 7d bd a4 a2 95 3e
       0.007806103 0.11281947 -0.061805878 0.29225647
0003b0 94 50 3a bd 49 5b 04 be 31 24 28 3e 06 02 fd 3c
       -0.045487 -0.12925448 0.16420056 0.030884754
0003c0 b6 ab 01 3f 66 9d 7d 3e f0 e0 93 3d 2e 7b a2 3c
       0.50652635 0.24767074 0.07220638 0.019834127
0003d0 4d b2 e5 be 3c 22 44 3e 92 07 b9 3c f9 b0 1b bd
       -0.44862595 0.19153684 0.022586618 -0.03801057
0003e0 16 76 e9 3d 65 24 7c 3d d9 39 f2 3d 50 64 9b bd
       0.11399476 0.061558146 0.1182744 -0.075874925
0003f0 83 ad 84 3e 0b f0 b3 bd a9 a8 39 3d c5 5f 4d 3e
       0.2591363 -0.08786019 0.045326862 0.20056064

bias f4 [29]
000000 90 86 8e 3e b9 1b 88 be e0 5e a8 3e a4 1f be 3d
       0.27837038 -0.2658365 0.32884884 0.09283379
000010 34 9c 83 3e 0b e5 84 be 2f cd 83 bd 50 00 c1 be
       0.2570511 -0.25955996 -0.0643562 -0.3769555
000020 3b e9 08 3e ea 74 af be 57 21 d0 be 32 6b a5 3d
       0.1337022 -0.34268886 -0.40650436 0.080770865
000030 0f aa 01 3e 9c 1e 5b 3e 4f 66 c8 3d 30 ab 51 bd
       0.12662528 0.21398395 0.09785139 -0.051188648
000040 c8 a5 b2 be 38 4b c2 3e 9d f0 bd 3d 67 01 3d 3e
       -0.34892106 0.37948012 0.09274409 0.18457566
000050 d5 fe a0 be c5 df 99 be 13 a7 d6 be 74 58 18 bf
       -0.3144442 -0.30053535 -0.41924343 -0.5950997
000060 f9 b2 d6 be d6 04 fe be 0f 2e cd be e5 b9 07 be
       -0.4193342 -0.49613065 -0.40074202 -0.13254507
000070 2a bd af be
       -0.34324008
