models/LSTM/128/ESEN_100-00/ESEN_100-00_0_threshold_train_30.pt (torch, 353807 bytes, 7 tensors)

weight f4 [29, 32]
0	0x3fd0d18d	1.631395
1	0x3f9b4a4b	1.2132047
2	0x3fbc75a9	1.4723407
3	0xbf5413e0	-0.82842827
4	0x3f11cdeb	0.5695483
5	0xc00c2783	-2.1899116
6	0x3f277aee	0.6542195
7	0x3f35bbad	0.70989496
8	0x3e2eef29	0.1708342
9	0x3da28e33	0.079372786
10	0x3be6a5be	0.007038801
11	0xbf4c29ca	-0.79751265
12	0x3f8bb39d	1.0914189
13	0x3fdf4016	1.7441432
14	0xbec5b5f3	-0.3861538
15	0xbf3e6598	-0.7437377
16	0xbde6aa48	-0.11262947
17	0xbe83aff0	-0.25720167
18	0xbf49b6f4	-0.7879479
19	0x3f90c9c3	1.1311573
20	0x3f1291b1	0.5725356
21	0x3f4bf5b5	0.79671794
22	0x3f51ec69	0.8200136
23	0x3e0f372e	0.13985893
24	0xbd1002cb	-0.035158914
25	0x3ffae0f7	1.9599904
26	0x3f52ca52	0.82339966
27	0x3d6be0c0	0.057587385
28	0xbe0734ef	-0.13203786
29	0x3e80c2e9	0.25148705
30	0xbf1562da	-0.5835396
31	0xbcddd166	-0.027077388
32	0x3ebb8172	0.36622196
33	0xbec50c01	-0.3848572
34	0x3f89a02f	1.0752009
35	0x3e073442	0.13203529
36	0xbe7a619f	-0.24451302
37	0x3f32270a	0.6959082
38	0xbd1766c6	-0.036963247
39	0xbf66e8e5	-0.9019912
40	0xbe035383	-0.12824826
41	0x4004b887	2.0737627
42	0xbf27a555	-0.6548665
43	0xbfb15219	-1.3853179
44	0xbfac3635	-1.3454043
45	0x3eaae182	0.33375174
46	0x3eceaa1e	0.40364164
47	0x3fd3ad71	1.6537305
48	0xc031ce7d	-2.778228
49	0x3f2f855d	0.6856287
50	0x3f45e6e1	0.7730542
51	0xbfa6209b	-1.29787
52	0xbf6ab418	-0.9168105
53	0x3e211a55	0.15732701
54	0xbf176a8b	-0.59146947
55	0x3e958553	0.2920328
56	0xbf0fdd00	-0.56196594
57	0x3fa6201b	1.2978548
58	0xbf662440	-0.89899063
59	0xbf5f3a57	-0.87198395
60	0xbe541781	-0.20712091
61	0xbf91a148	-1.1377344
62	0xbe2d0a4e	-0.16898462
63	0x3feb91c1	1.8403856
64	0xbf7909cd	-0.9728058
65	0x3f50be17	0.81540054
66	0x3f2243a1	0.63384444
67	0x3fa57bc6	1.2928398
68	0x3f7323c1	0.9497643
69	0x3f6d6f84	0.92748284
70	0xc011622e	-2.2716174
71	0xbec38bf6	-0.3819272
72	0x3fffe0c0	1.9990463
73	0xbfc8af10	-1.5678425
74	0xbfbb7dd3	-1.4647774
75	0xc012be84	-2.2928782
76	0x3d28c67b	0.04120491
77	0x3f648d59	0.8927818
78	0xbf65425d	-0.8955439
79	0x3f9cc507	1.2247628
80	0xbcfc0745	-0.030765185
81	0x3f36c066	0.71387327
82	0xbf1d71c9	-0.6150175
83	0x3f52854e	0.82234657
84	0xbefd9415	-0.4952704
85	0x3f873488	1.0562906
86	0xbf5d83c4	-0.86529183
87	0x3fb4ce73	1.4125503
88	0xbfff4900	-1.9944153
89	0xbf48e261	-0.78470427
90	0xbde352e7	-0.11099797
91	0x3ff30277	1.8985127
92	0x3f24fccc	0.6444824
93	0x3ea5b54c	0.3236488
94	0xbfa4a24a	-1.2862027
95	0x3e5a8ab6	0.21341977
96	0xbbefb0f8	-0.0073147975
97	0xbfb67c2e	-1.4256647
98	0x3ef2a9fe	0.4739532
99	0xbd0ba1cc	-0.03408985
100	0xbeb298a7	-0.3488209
101	0xbea34736	-0.31890267
102	0x3da0b91b	0.07847806
103	0x3ef6574f	0.48113486
104	0xbfd77772	-1.6833327
105	0xc00b26db	-2.1742465
106	0x3fd0b638	1.6305609
107	0xbee79903	-0.45233926
108	0xbf9306a3	-1.14864
109	0x3f2c81f2	0.6738578
110	0xbf34cac6	-0.7062191
111	0x3e1ba6ce	0.1520035
112	0xbd058f23	-0.03260721
113	0xbf0524a0	-0.5200901
114	0x3fa9101c	1.3208041
115	0x3e87c077	0.26514027
116	0x3f837ade	1.0271871
117	0xbfa9c44e	-1.3263032
118	0xbede6537	-0.43436596
119	0xbea7cfd9	-0.32775763
120	0xbe59b78a	-0.21261421
121	0xbfa954d4	-1.3229012
122	0x3f14dfce	0.58154
123	0x3f24c57c	0.6436384
124	0x3f82caec	1.0218177
125	0xbf977392	-1.1832144
126	0x3ffb82be	1.9649274
127	0x3f79c08d	0.97559434
128	0xbf742aef	-0.9537801
129	0xbe10711c	-0.14105648
130	0xbf203483	-0.62580127
131	0xbf4f3158	-0.8093467
132	0x3f504aee	0.81364334
133	0x3f781fdc	0.96923614
134	0xbe449b85	-0.19199951
135	0x3fe4ed9c	1.7885013
136	0x400bc9ea	2.1841989
137	0xbf2bb519	-0.6707321
138	0x3f06db25	0.5267814
139	0xbea63868	-0.3246491
140	0x3ea471cf	0.3211808
141	0xbf957e19	-1.1679107
142	0x3fd67ee1	1.675747
143	0x3fa84d5f	1.3148612
144	0xc062c886	-3.543489
145	0x3e9bc7cb	0.30425867
146	0xbf0fb69a	-0.56138
147	0xbdf9b193	-0.12192073
148	0x3fb1272a	1.3840077
149	0x3fd33b62	1.6502497
150	0x3f5965ee	0.8492116
151	0xbfba2152	-1.4541419
152	0x3ee73d46	0.45163935
153	0xbf4c791b	-0.7987229
154	0x3f5533b5	0.83282024
155	0xbfc9e502	-1.5773013
156	0x3f2720bc	0.65284324
157	0xbf4f2499	-0.8091522
158	0x3c319f55	0.01084121
159	0x3ecdb36c	0.4017595
160	0x3f05490d	0.5206459
161	0xc00334df	-2.050102
162	0xbc8c6d49	-0.017141955
163	0xbfb03d83	-1.3768772
164	0xbeef0d42	-0.46689802
165	0xbf20350b	-0.6258094
166	0x3e91679f	0.2839937
167	0xbf52e050	-0.82373524
168	0xbe889422	-0.26675516
169	0x3f2727a1	0.65294844
170	0xbeae7d5b	-0.34080014
171	0xbf4a0fd0	-0.7893038
172	0xbe5dc950	-0.21658826
173	0x40189f32	2.3847165
174	0x3fa05c3d	1.2528149
175	0x3f81e6eb	1.0148596
176	0x3faec8fa	1.3655083
177	0xbeb1481e	-0.34625334
178	0xbee68b3a	-0.45028096
179	0xbf130acb	-0.57438344
180	0x3ecd9af9	0.40157297
181	0xbe2edea1	-0.17077114
182	0xbec3c3fa	-0.38235456
183	0x3f5a8470	0.85358334
184	0xbf400b8c	-0.7501762
185	0x3e12fc31	0.14354016
186	0x3f0ed5ae	0.557948
187	0xc013c97e	-2.309173
188	0x3fb13f27	1.3847398
189	0xbff70d49	-1.9300929
190	0x3fae320b	1.3609022
191	0x3ff23573	1.8922561
192	0x3f2685da	0.6504799
193	0xbed02579	-0.4065359
194	0xbe0dcf8e	-0.13848707
195	0x3f4edccd	0.80805665
196	0x3d54c33e	0.05194401
197	0xbf146481	-0.57965857
198	0x3df60bd1	0.120139726
199	0x3f03bf48	0.5146375
200	0x3f099f8e	0.53759086
201	0x401a03e5	2.4064877
202	0x3f5205e9	0.8204027
203	0x3f179c7e	0.59223163
204	0x3ed6257a	0.41825467
205	0x40203f4d	2.5038636
206	0xbc6d8c03	-0.014498713
207	0x3ff74589	1.9318095
208	0xbe084ca3	-0.13310485
209	0xbfa3cc6c	-1.279676
210	0x3ee9d703	0.45671853
211	0x3f025875	0.50916225
212	0xbf13fda2	-0.5780889
213	0x3e88e530	0.26737356
214	0xbf32a54e	-0.69783485
215	0x3f4c4b82	0.79802716
216	0x3e6c20e5	0.23059423
217	0x3e9b0c48	0.30282807
218	0xbf3c0cc4	-0.7345698
219	0x3e90d3f3	0.28286704
220	0xbebf2f1b	-0.37340626
221	0xbea25108	-0.31702447
222	0x3eef2dc6	0.4671461
223	0x3f81bcd0	1.0135746
224	0xbd1de793	-0.038550925
225	0xbff2b4f1	-1.8961469
226	0x3f03f958	0.51552343
227	0x3f7b01fe	0.98049915
228	0x3f5a34d9	0.8523689
229	0x3f4e5cea	0.80610526
230	0xbd8b7908	-0.06810194
231	0x3f335369	0.7004915
232	0xbf33c31a	-0.70219576
233	0xbf9b1bc8	-1.2117853
234	0xbed3ef03	-0.4139329
235	0x3f8f713b	1.120643
236	0xbed35b3d	-0.41280547
237	0x3fe0e09e	1.7568548
238	0x3f649968	0.8929658
239	0x3fe745d3	1.8068184
240	0x3e65536b	0.22395103
241	0x3f58f252	0.8474475
242	0x3fae706e	1.3628061
243	0x3f378923	0.7169363
244	0x3fba7cab	1.4569296
245	0xbdb5febb	-0.088864766
246	0xbf9103f9	-1.1329337
247	0x400909a1	2.1412127
248	0xbfaff326	-1.3746078
249	0xbf2f710a	-0.6853186
250	0xbf7648af	-0.96204656
251	0x3f42e198	0.7612548
252	0x3fd7b454	1.6851907
253	0xbf8e9d46	-1.1141746
254	0x3fff0a55	1.9925028
255	0xc003b19b	-2.0577152

weight_ih_l0 f4 [512, 32]
0	0xbd965d9d	-0.07342074
1	0xbd048f98	-0.032363504
2	0xbe7370be	-0.23773476
3	0xbcc01ae0	-0.023450315
4	0x3e519a6c	0.20469064
5	0x3dfe6a38	0.12422603
6	0xbe9f21f1	-0.31080583
7	0x3dd3d1d1	0.10342754
8	0x3d99f025	0.07516507
9	0xbe1145d1	-0.14186789
10	0x3d41b0c0	0.047287703
11	0xbdc3342c	-0.09531435
12	0xbe3bd3d3	-0.18342523
13	0xbd996e99	-0.07491798
14	0x3d6418b3	0.055687618
15	0x3e0b7863	0.13620143
16	0xbdd9ec95	-0.106408276
17	0x3b7ea887	0.0038857774
18	0x3cf88871	0.030338498
19	0x3c915e1b	0.017745068
20	0xbd9512a5	-0.07278947
21	0x3d5b4c5e	0.053539626
22	0xbbaf73a1	-0.00535436
23	0x3d1b32ad	0.037890125
24	0xbdf46b0c	-0.1193448
25	0xbe1f5ef6	-0.15563568
26	0xbdf9551c	-0.121744365
27	0x3dd8a57a	0.10578437
28	0x3e2fd4b6	0.17170987
29	0xbbdb2f0c	-0.006688958
30	0x3db8ebe3	0.09029367
31	0x3ddc7fc0	0.10766554
32	0xbde19251	-0.11014236
33	0xbd15c501	-0.03656483
34	0xbdd7d8dc	-0.105394095
35	0x3cf1b171	0.029503556
36	0xbd523362	-0.051318534
37	0x3d781451	0.06056625
38	0xbdd8ac0d	-0.10579691
39	0x3d9786a9	0.07398731
40	0x3d18e08a	0.037323512
41	0x3d9ef869	0.07762224
42	0x3dac719a	0.08420105
43	0x3c210612	0.009828107
44	0xbdfe0cfa	-0.12404819
45	0x3dead336	0.114660665
46	0x3d5e11eb	0.054216307
47	0x3d705ba7	0.058681156
48	0xbe096cff	-0.13420485
49	0xbd76d3fa	-0.06026075
50	0x3d6b9bcd	0.05752163
51	0xbdd9d100	-0.10635567
52	0x3cf6c6e1	0.03012413
53	0x3dd82de5	0.10555629
54	0xbe0abc3b	-0.13548367
55	0x3dd60141	0.10449458
56	0xbd70b05b	-0.058761936
57	0xbc80804d	-0.015686179
58	0x3c48d1e9	0.012257078
59	0x3ca9f6ca	0.020747561
60	0x3d1383bf	0.036014315
61	0x3bd48f01	0.006486774
62	0x3dac7120	0.084200144
63	0x3de2ae84	0.110684425
64	0xbe1b2c26	-0.1515356
65	0xbd927867	-0.07151871
66	0xbde0145e	-0.10941385
67	0xbe04c730	-0.12966609
68	0xbdbecd9b	-0.0931656
69	0xbd1cbf2d	-0.038268257
70	0x3d80a43c	0.06281325
71	0x3dcb7305	0.099340476
72	0xbd79c595	-0.060979445
73	0xbd301ef3	-0.042998265
74	0x3d933240	0.07187319
75	0xbcbd5dcc	-0.023116015
76	0xbe080959	-0.13284816
77	0x3db79476	0.089638636
78	0xbb00234d	-0.001955229
79	0x3cdde8e6	0.027088594
80	0xbe22247c	-0.1583423
81	0x3e306d25	0.17229135
82	0x3d114d62	0.03547419
83	0x3caed8a5	0.021343539
84	0x3e765910	0.24057412
85	0xbdc2496f	-0.094866626
86	0x3db26088	0.08709818
87	0xbdce2205	-0.100650825
88	0xbd4b668c	-0.049658343
89	0xbd8e1be5	-0.06938914
90	0xbd7a20ec	-0.061066553
91	0x3db43607	0.087993674
92	0x3d65c1d5	0.056093056
93	0x3d2deb34	0.042460635
94	0x3d8df032	0.06930579
95	0x3cd347f9	0.025791155
96	0xbd35cf52	-0.04438717
97	0xbe60946b	-0.21931617
98	0x3cf590e6	0.02997632
99	0xbe1a15a0	-0.15047312
100	0xbd8e8452	-0.06958832
101	0x3cba56c1	0.022746446
102	0x3e021cf7	0.12706362
103	0x3cecc70f	0.028903512
104	0xbd3f9d6a	-0.04678098
105	0x3d84ee99	0.064908214
106	0x3e66ccd8	0.22539079
107	0xbdd35512	-0.1031896
108	0xbdf6640a	-0.120308
109	0x3dcafccd	0.09911499
110	0x3cb7bc84	0.022428758
111	0x3d070cf3	0.032971334
112	0x3df563ac	0.119819015
113	0xbe102bfe	-0.14079282
114	0xbdf16283	-0.11786368
115	0xbdfb5d54	-0.1227366
116	0xbc789703	-0.015172723
117	0xbe0150d8	-0.12628496
118	0xbe14dd77	-0.14537607
119	0x3e5a33e5	0.21308859
120	0x3d910a72	0.070820704
121	0x3b31d1da	0.0027133138
122	0xbc6c9b1e	-0.01444128
123	0x3dde457c	0.10853097
124	0xbdc75e57	-0.09734791
125	0xbd1a9eab	-0.037748974
126	0x3e11757b	0.14204971
127	0x3d652ce0	0.055951
128	0xbe3d4317	-0.18482624
129	0xbe3aaaf6	-0.18229279
130	0xbd95aa46	-0.07307868
131	0xbda1f7f8	-0.079086244
132	0xbd6c85ef	-0.057744917
133	0xbd71ecf9	-0.059063885
134	0x3daadbb5	0.08342687
135	0x3d1fde30	0.039030254
136	0xbda83d1e	-0.08214782
137	0xbc8c47c7	-0.01712407
138	0x3d0ca843	0.034340154
139	0xbdd82036	-0.10553019
140	0xbdad2e27	-0.084560685
141	0x3d89d56a	0.067301586
142	0xbdb59235	-0.088657774
143	0xb93e15b7	-0.00018127901
144	0x3cec4563	0.02884168
145	0x3dd5d58a	0.1044112
146	0xbdee9140	-0.11648798
147	0xbc0fd8fc	-0.00877976
148	0x3e18b693	0.14913397
149	0xbd262bdc	-0.04056917
150	0xbe022651	-0.12709929
151	0xbdc0cbe4	-0.09413889
152	0xbddd8178	-0.1081571
153	0xbdd7af0a	-0.10531433
154	0xbd359827	-0.044334557
155	0x3d89436c	0.06702313
156	0xbcf356b8	-0.029704437
157	0x3a8ed0b3	0.0010895937
158	0x3dd8c6eb	0.105848156
159	0x3d9d79be	0.07689236
160	0xbd6ce587	-0.05783608
161	0x3cfdb22a	0.030968744
162	0x3d7d70b5	0.061875064
163	0x3db3b36f	0.087744586
164	0x3d606b84	0.054790035
165	0xbaecead1	-0.0018075352
166	0xbcabf188	-0.020989195
167	0xbd0d8ada	-0.034556247
168	0xbdc825cc	-0.09772834
169	0x3c85322c	0.016259275
170	0xbcd8a515	-0.026445905
171	0xbde43689	-0.11143214
172	0x3e282409	0.16419996
173	0x3c69bce8	0.01426623
174	0x3b1c63f8	0.0023863297
175	0x3d628f4d	0.055312444
176	0x3d0c3f15	0.034239847
177	0xbd909944	-0.07060483
178	0xbe1e0747	-0.15432464
179	0xbbba7655	-0.005690376
180	0xbe078164	-0.13232952
181	0xbd9359da	-0.07194872
182	0xbd95ed97	-0.07320707
183	0x3e75d2e5	0.24006231
184	0xbdd8c31f	-0.105840914
185	0xbd69ef0d	-0.057112742
186	0xbe06186f	-0.13095258
187	0xbca40ef9	-0.02002667
188	0xbe241187	-0.16022311
189	0x3c1b08bd	0.009462533
190	0xbce12341	-0.02748263
191	0xbda822b8	-0.08209747
192	0xbd62bf73	-0.05535836
193	0xbc710775	-0.014711251
194	0x3d8263d8	0.063667
195	0xbd6f4512	-0.05841548
196	0xbdbc36d9	-0.09190149
197	0xbd80a1d1	-0.06280864
198	0xbcebc9c3	-0.02878273
199	0x3d64b689	0.05583814
200	0x3c2e0136	0.010620406
201	0xbe1bfc9a	-0.15233079
202	0x3e1146c9	0.14187159
203	0x3dbcf88a	0.092270926
204	0x3e00f666	0.12593994
205	0x3d203524	0.03911318
206	0x3c1a698c	0.009424578
207	0x3dc4327d	0.095799424
208	0x3d74a1e6	0.05972471
209	0xbd60cdb4	-0.054883674
210	0x3c821512	0.015879188
211	0x3c0b15aa	0.008489052
212	0x3dd26d12	0.1027471
213	0xbd612320	-0.05496514
214	0x3d4fe51f	0.050755616
215	0x3e31e40a	0.17372146
216	0xbd6499ec	-0.055810854
217	0xba2902f9	-0.00064472813
218	0xbb1a34df	-0.0023530049
219	0xbd779db4	-0.06045313
220	0xbcd170a1	-0.025566401
221	0xbd9da46f	-0.07697379
222	0x3de4db36	0.11174624
223	0x3e373ef9	0.17895116
224	0x3daad8fb	0.08342167
225	0xbbd4b28d	-0.0064910115
226	0x3d1a7ed9	0.037718628
227	0x3cbb68df	0.022877155
228	0xbd211dd1	-0.039335076
229	0x3d51d133	0.0512249
230	0x3d12db4a	0.03585366
231	0x3c9e54a5	0.019327471
232	0xbbec9bb4	-0.0072207097
233	0x3d038d0b	0.03211693
234	0xbda29a25	-0.07939557
235	0xbde2ab64	-0.110678464
236	0x3d8dad95	0.06917874
237	0x3ca73723	0.020412033
238	0x3d9ecdc8	0.077540934
239	0x3d868644	0.06568578
240	0x3ca15fa1	0.01969892
241	0x3af326e8	0.0018551024
242	0xbc8b2326	-0.016984534
243	0x3d51f3cd	0.051257897
244	0xbd8a470c	-0.06751832
245	0x3e11cc66	0.14238128
246	0x3b91b77e	0.004446923
247	0xbda57da0	-0.08080602
248	0xbd1f12c9	-0.038836274
249	0x3db7aac0	0.08968115
250	0xbcee6fdf	-0.029106079
251	0xbdcfaaba	-0.101399854
252	0xbd5ca7b6	-0.05387088
253	0xbd529cd4	-0.051419094
254	0x3c82bec1	0.0159601
255	0xbc6509ef	-0.013979419

weight_hh_l0 f4 [512, 128]
0	0xbcfdeb57	-0.030996008
1	0xbd42ca26	-0.047556065
2	0x3e2c0032	0.1679695
3	0xbddb2276	-0.10699932
4	0xbdb541f9	-0.08850474
5	0x3d1a6012	0.037689276
6	0x3d23f486	0.040028118
7	0xbb9b1793	-0.004733035
8	0xbd639e83	-0.05557109
9	0xbccd7b1e	-0.02508312
10	0xbd000e7e	-0.03126382
11	0x3d6ad01c	0.057327375
12	0x3c407710	0.011747137
13	0x3e00e2f5	0.12586577
14	0x3c5b7f1d	0.013397005
15	0x3db31586	0.0874434
16	0xbe22902e	-0.15875313
17	0x3c3687ff	0.011140822
18	0x3c8ba202	0.017045025
19	0x3d1e268a	0.038610972
20	0xbd7a1fed	-0.061065603
21	0xbd7920b1	-0.060822193
22	0x3d298007	0.041381862
23	0xbdb00720	-0.08595109
24	0xbbe879f5	-0.0070946165
25	0xbd9ec180	-0.07751751
26	0x3d8d98cb	0.069139086
27	0x3da5eb92	0.08101572
28	0x3d033d19	0.03204069
29	0x3e0b5047	0.13604842
30	0x3dbe85f0	0.0930289
31	0x3c9df6bc	0.019282691
32	0xbe2cb395	-0.1686538
33	0xbce8b18c	-0.028404973
34	0xbcfed3db	-0.03110688
35	0x3d13348b	0.03593878
36	0x3d180769	0.037116442
37	0x3d02ad25	0.031903405
38	0x3cedf495	0.02904729
39	0xbb0b4ac1	-0.0021254274
40	0x3d6abba6	0.05730786
41	0xbd98e7f7	-0.07466119
42	0x3d8c20c9	0.06842191
43	0xbc62ed1d	-0.0138504775
44	0x3dff6a77	0.124714784
45	0xbdc90014	-0.09814468
46	0xbcde7255	-0.027154127
47	0xbd864acc	-0.06557235
48	0x3d8dfd6f	0.06933104
49	0x3d13437a	0.035953023
50	0xbda89822	-0.08232142
51	0xbc080ea2	-0.00830427
52	0xbe1d7ee2	-0.15380433
53	0x3ddd7148	0.10812622
54	0xbce5061c	-0.027957015
55	0xbd63fbb3	-0.05565996
56	0x3d590e4c	0.05299215
57	0x3e23320d	0.15937062
58	0x3e0db694	0.1383918
59	0xbc0180c7	-0.007904238
60	0xbc134e7f	-0.008990883
61	0x3cb7f7fb	0.022457113
62	0xbd30a0e6	-0.043122195
63	0x3d11df27	0.035613205
64	0x3d2e8704	0.04260923
65	0x3bb4a50b	0.0055128387
66	0xbcf871cf	-0.030327706
67	0xbd9cd9c3	-0.07658722
68	0xba0f8f4c	-0.000547637
69	0xbe273c8f	-0.16331695
70	0xbd820dfb	-0.06350323
71	0xba0f205d	-0.00054598396
72	0x3d86fa18	0.0659067
73	0x3cc6832b	0.024232468
74	0xbcebd781	-0.028789284
75	0xbd704ff5	-0.058670003
76	0x3e12c9ad	0.14334746
77	0xbcdfc173	-0.027313923
78	0x3cb151cd	0.021645451
79	0x3e040df3	0.12895946
80	0x3d89494b	0.06703433
81	0xbca16032	-0.01969919
82	0xbc9b057d	-0.018923515
83	0xbd33ad08	-0.043866187
84	0xbe447cee	-0.19188282
85	0x3d8d78d2	0.0690781
86	0x3d1b5808	0.03792575
87	0xbd151191	-0.036393706
88	0xbc970ef3	-0.018439746
89	0xbc0bb5d1	-0.008527235
90	0x3d4f21bc	0.05056928
91	0xbdde40f5	-0.10852233
92	0xbbc097b9	-0.0058774618
93	0x3dc04f73	0.09390154
94	0x3d8637e7	0.06553631
95	0x3ddf1525	0.10892705
96	0x3d762f64	0.06010379
97	0xbd00b70d	-0.03142457
98	0x3b67b732	0.0035356996
99	0xbdce4488	-0.10071665
100	0x3e0555be	0.1302099
101	0x3d00f69c	0.031485185
102	0x3dcb52ec	0.099279255
103	0x3d4837f5	0.04888149
104	0x3cc8ab0b	0.024495622
105	0xbabdb758	-0.0014474196
106	0x3d9b7b5a	0.07591887
107	0xbe1448be	-0.14480874
108	0x3e135270	0.14386916
109	0xbd9a9b83	-0.07549193
110	0x3c50ad35	0.012736608
111	0xbdcc67d0	-0.09980738
112	0x3db95b02	0.090505615
113	0xbd913638	-0.070904195
114	0xbe042298	-0.12903821
115	0xbe039717	-0.12850605
116	0x3cff6838	0.031177625
117	0x3c0aaa7b	0.008463497
118	0xbdb29580	-0.08719921
119	0x3daef7b8	0.08543342
120	0x3d8ab8b0	0.067735076
121	0xbd13f436	-0.03612157
122	0xbe15f8b1	-0.1464565
123	0x3cea67e4	0.028613992
124	0x3c40c935	0.0117667215
125	0xbc77c777	-0.01512324
126	0x3d74cb5e	0.05976426
127	0xbd8c48b0	-0.068498015
128	0x3b6ef546	0.0036462112
129	0x3ce17212	0.027520213
130	0xbc893a06	-0.0167513
131	0xbcc88447	-0.024477137
132	0x3cfb9b4b	0.030713698
133	0xbaa60a63	-0.001266789
134	0xbd14485d	-0.036201824
135	0x3dc30724	0.09522846
136	0x3dd5dd2c	0.10442576
137	0xbdf6dd91	-0.12053979
138	0x3dc9f446	0.098610446
139	0x3cacc770	0.021091193
140	0x3e28b82c	0.16476506
141	0x3cc13655	0.023585478
142	0x3d3a9db8	0.04556057
143	0x3da93bad	0.082633354
144	0xbdbdcaeb	-0.09267219
145	0x3dd1a94b	0.10237368
146	0x3ddf0816	0.10890214
147	0x3d2fa368	0.042880446
148	0xbddca0d2	-0.107728615
149	0x3bb841fa	0.0056230994
150	0x3ca62bc2	0.020284537
151	0x3d71166a	0.058859266
152	0x3e174999	0.14774169
153	0x3cd870d6	0.026420992
154	0x3d928867	0.07154923
155	0x3d1e8825	0.038704056
156	0xbcc6fa97	-0.024289412
157	0x3d86b6c1	0.06577826
158	0x3dde95bc	0.10868403
159	0xbc125122	-0.008930476
160	0xbc387674	-0.01125871
161	0xbd8e952e	-0.069620475
162	0x3e040c4f	0.1289532
163	0x3db895bd	0.09012935
164	0xbd87500c	-0.066070646
165	0x3c66dc7c	0.0140906535
166	0x3d5fbafd	0.054621685
167	0xbc91cc19	-0.017797517
168	0xbdad7700	-0.08469963
169	0xbd560bf7	-0.052257504
170	0x3de996b3	0.11405697
171	0xbc8342d4	-0.016023077
172	0x3c1ee87d	0.009698984
173	0x3d3bec04	0.04587938
174	0x3da8cf5a	0.08242674
175	0xbc2455e4	-0.010030244
176	0x3dcdbc20	0.100456476
177	0xbd293c6b	-0.041317385
178	0xbdcd4f0c	-0.100248426
179	0x3d649312	0.05580432
180	0xbdc331d2	-0.09530987
181	0x3d069dff	0.03286552
182	0x3d8ace03	0.06777575
183	0x3c585f32	0.01320629
184	0xbda178b6	-0.07884352
185	0x3df332d4	0.11874929
186	0xbe03f5a2	-0.1288667
187	0xbd7ee84e	-0.06223326
188	0xbda32cf2	-0.07967557
189	0xbce7fc2e	-0.02831849
190	0xbd0e0329	-0.034670983
191	0x3d41a036	0.04727193
192	0xbd875443	-0.066078685
193	0xbdc68fbd	-0.09695385
194	0x3d247679	0.040152047
195	0x3c9c7285	0.019097576
196	0xbcd4c64e	-0.025973465
197	0x3c355838	0.011068396
198	0x3dbb1477	0.09134763
199	0x3c7cb639	0.015424305
200	0xbe25f925	-0.16208322
201	0xbd3c3a23	-0.04595388
202	0xbd10a4da	-0.035313465
203	0x3dcab712	0.09898199
204	0x3d75d05c	0.06001316
205	0x3c257662	0.010099025
206	0xbdee9860	-0.11650157
207	0xbddca1f6	-0.10773079
208	0xbd55f23a	-0.05223296
209	0x3d8d2b0b	0.068929754
210	0x3dfe8d79	0.124293275
211	0x3dda6040	0.106628895
212	0xbdb5dc40	-0.088799
213	0x3da0c629	0.07850296
214	0x3dc47e25	0.09594373
215	0x3d243e49	0.040098462
216	0x3ca0a9aa	0.019612152
217	0xbd69eb0e	-0.05710893
218	0xbc88e3c0	-0.016710162
219	0x3e179f9f	0.14806984
220	0xbcb16157	-0.02165286
221	0x3dcbd1bb	0.09952112
222	0xbe041ce6	-0.12901649
223	0x3c6db692	0.01450886
224	0x3d369e9f	0.044584867
225	0xbdc0e4bf	-0.0941863
226	0x3e0d168b	0.1377813
227	0xbbf4c7cc	-0.0074701067
228	0x3d92e512	0.07172598
229	0x3e0aa82b	0.13540713
230	0x3d59b23b	0.05314849
231	0xbc84cf10	-0.016212016
232	0xbce61b1c	-0.028089099
233	0x3dfa229d	0.12213633
234	0x3e0ad011	0.13555934
235	0xbd9b7952	-0.075914994
236	0xbd4e1756	-0.050315224
237	0xbc872643	-0.016497737
238	0xbc99dab1	-0.018781038
239	0xbd59a00e	-0.053131156
240	0xbc812df3	-0.01576898
241	0x3d1653cd	0.036701012
242	0x3c527fd7	0.012847862
243	0x3af3f4ee	0.0018612423
244	0xbd27c0f8	-0.040955514
245	0x3cbf93af	0.02338585
246	0xbda48cd0	-0.0803467
247	0x3cb0d689	0.021586673
248	0x3d60f61b	0.054922204
249	0xbb205297	-0.002446329
250	0xbdfd8de2	-0.123805776
251	0xbdaec1ca	-0.08533056
252	0x3e02f877	0.12790094
253	0xbd1b4b57	-0.037913647
254	0x3da55089	0.080720015
255	0xbcff3059	-0.031150984

bias_ih_l0 f4 [512]
0	0xbcf1fa08	-0.02953817
1	0x3d40f444	0.04710795
2	0xbd09588b	-0.033531707
3	0x3e0bb8e0	0.13644743
4	0x3e0c75f2	0.13716868
5	0x3d16c6d1	0.0368107
6	0x3d931d55	0.07183329
7	0x3e1e1983	0.1543942
8	0x3d846155	0.06463877
9	0xbb6f3a92	-0.0036503416
10	0x3d8d2842	0.06892444
11	0xbcf24930	-0.029575914
12	0x3b979f42	0.0046271393
13	0x3de44b98	0.11147231
14	0x3e06a2f3	0.13148098
15	0x3e0bc657	0.1364988
16	0x3dbb1eec	0.09136757
17	0x3dda26c8	0.10651928
18	0x3e309b78	0.17246807
19	0xbd2df0cc	-0.04246597
20	0x3dc53407	0.09629064
21	0x3d415fc8	0.047210485
22	0x3c1fabf8	0.00974559
23	0x3e03745c	0.12837356
24	0x3de60388	0.11231142
25	0x3e0da03a	0.13830653
26	0x3d0e742e	0.034778766
27	0x3bb70e64	0.0055864323
28	0x3d7b8d2e	0.061413936
29	0x3c839fe8	0.01606746
30	0x3d9fcd9b	0.07802888
31	0xbc5458f2	-0.012960659
32	0x3dc8c1b4	0.09802571
33	0x3d188748	0.03723839
34	0x3da66cbc	0.08126208
35	0xbbcd3889	-0.006262843
36	0x3c84561f	0.016154347
37	0x3d86bc7b	0.065789185
38	0x3dfdfe1e	0.12401985
39	0x3d4ac7e6	0.049507044
40	0xbca38092	-0.019958768
41	0x3db442ef	0.08801829
42	0x3c842a91	0.016133578
43	0x3e09801e	0.13427779
44	0x3cf611bc	0.030037753
45	0x3e4655b6	0.19368634
46	0x3c188047	0.009307927
47	0xbc8846a1	-0.016635241
48	0x3dae177c	0.08500573
49	0x3e0f5d3b	0.14000408
50	0x3d580e4a	0.052748002
51	0x3dc6e741	0.09712077
52	0x3d3c79b7	0.046014514
53	0xbc25f081	-0.010128141
54	0x3ddc98c3	0.107713245
55	0x3dc9369e	0.098248705
56	0x3d98c56e	0.07459532
57	0x3d9fdedc	0.07806179
58	0x3daa712a	0.083223656
59	0x3d7f00b9	0.06225655
60	0x3c9bcd0a	0.019018669
61	0x3df96cc6	0.1217895
62	0x3db2febd	0.08739994
63	0x3c02a387	0.007973558
64	0x3e12ef95	0.14349206
65	0x3d8d0c09	0.06887061
66	0x3dedb428	0.11606628
67	0x3d08235c	0.033236846
68	0x3dfc2cc2	0.123132244
69	0x3e18511b	0.1487469
70	0x3e0db618	0.13838995
71	0x3c95743f	0.018243907
72	0x3e103bbb	0.14085285
73	0x3daadfe1	0.08343483
74	0x3d6310a7	0.055435803
75	0x3da595aa	0.08085187
76	0x3dce7652	0.100811616
77	0x3e0a71d5	0.13519986
78	0xbca84540	-0.020540833
79	0x3d22c096	0.039734446
80	0xbc6ca9f0	-0.014444813
81	0x3ce09fb8	0.02741991
82	0xbc726ba6	-0.014796173
83	0x3cbf05d3	0.023318207
84	0x3dbbb59a	0.09165497
85	0x3e07d0da	0.13263264
86	0x3d4f5cb1	0.050625507
87	0x3d4a0cb2	0.049328513
88	0x3daaefb2	0.083464995
89	0x3b4fd237	0.0031710991
90	0x3ca85a07	0.02055074
91	0x3dbddbe4	0.092704564
92	0x3dedc64f	0.1161009
93	0x3dc54393	0.096320294
94	0xb94b16b5	-0.00019368048
95	0x3e154849	0.14578356
96	0x3e52636b	0.20545737
97	0x3d8c7a38	0.06859249
98	0x3d4f19d3	0.050561737
99	0x3c8059df	0.015667854
100	0xbd66994d	-0.056298543
101	0x3dedc352	0.1160952
102	0x3d9718ce	0.07377778
103	0xbcaa6463	-0.020799821
104	0x3da52ab2	0.08064784
105	0x3ded356d	0.11582456
106	0xbd2e0014	-0.042480543
107	0x3da9c9f7	0.08290475
108	0x3d29e2e0	0.04147613
109	0x3dd521b1	0.10406817
110	0x3dc34bc0	0.095359325
111	0x3d41907d	0.047256935
112	0x3b3ed10a	0.0029116296
113	0x3d135ae8	0.035975367
114	0x3dae3c8e	0.08507644
115	0x3d6f366f	0.05840152
116	0x3db77a83	0.08958914
117	0x3be7b493	0.0070710867
118	0x3c81a8d9	0.015827583
119	0x3b12a6e9	0.0022377318
120	0x3d31ef5c	0.04344116
121	0xbb60c670	-0.0034297965
122	0x3d2b91c2	0.041887052
123	0x3d1e16b1	0.03859586
124	0x3c9f724d	0.019463683
125	0x3dad545b	0.08463355
126	0x3dff0088	0.12451273
127	0x3de1de39	0.11028714
128	0xbc689216	-0.014194986
129	0xbd03961f	-0.03212559
130	0x3d830d7a	0.06399055
131	0xbb5b0dab	-0.0033424895
132	0x3ded895c	0.11598465
133	0x3d26bb83	0.04070617
134	0xbda7b915	-0.081895985
135	0xbd17e1b8	-0.037080497
136	0x3db91fd8	0.09039277
137	0xbd173baa	-0.036922134
138	0xbb4af1d8	-0.0030966904
139	0x3dd10498	0.10205954
140	0xbcb8a843	-0.022541171
141	0x3d9b2a24	0.07576397
142	0xbd8e2133	-0.06939926
143	0xbd0034ba	-0.031300284
144	0xbdbed718	-0.093183696
145	0x3d830781	0.06397916
146	0xbd1938bf	-0.037407633
147	0x3db79583	0.08964064
148	0xbd831743	-0.06400921
149	0xbc15615c	-0.009117451
150	0x3d3587d9	0.044319008
151	0xbd99b55d	-0.075052954
152	0xbda19650	-0.07889998
153	0xbcb13779	-0.021632897
154	0xbdcdcb84	-0.10048583
155	0x3dd0bdaf	0.10192429
156	0x3db3f85c	0.08787605
157	0x3c886d73	0.016653752
158	0x3d42cd06	0.047558807
159	0xbd33ab2e	-0.04386442
160	0xbdb55b3d	-0.08855293
161	0xbc006ad7	-0.007837973
162	0x3dc2a5b5	0.09504262
163	0xbd0674f6	-0.032826386
164	0x3d6060b2	0.054779716
165	0xbd5aa05d	-0.05337559
166	0xbd52aafd	-0.0514326
167	0xbd9f029e	-0.07764171
168	0xbd3b9e03	-0.04580499
169	0x3db848c3	0.08998253
170	0xbcbc21b6	-0.022965293
171	0xbd869c6c	-0.06572804
172	0xbcde5125	-0.027138302
173	0x3d037c7c	0.03210114
174	0x3da4dc61	0.080498464
175	0xbcd24cd5	-0.025671402
176	0x3cdd4980	0.027012587
177	0x3cc61e3d	0.02418434
178	0x3d1eece4	0.038800135
179	0x3d7480e4	0.059693232
180	0xbd00f51a	-0.031483747
181	0xbdd1da5b	-0.10246726
182	0x3d91ad86	0.07113175
183	0x3d42c3d4	0.047550038
184	0xbd0a9926	-0.03383746
185	0xbdccbf1b	-0.09997388
186	0xbbfbd628	-0.0076854415
187	0x3b819350	0.0039543286
188	0x3d865e56	0.06560962
189	0xbd3b5960	-0.04573953
190	0x3ced31b0	0.028954357
191	0xbc3a1693	-0.011357921
192	0x3cfa419b	0.030548861
193	0xbbc079e5	-0.005873906
194	0xbd4b3bfc	-0.049617752
195	0xba974413	-0.0011540673
196	0xbdbb2e6c	-0.09139714
197	0x3c21bc32	0.009871529
198	0x3cd2503c	0.025673024
199	0xbd62ae84	-0.055342212
200	0x3ceab22e	0.028649416
201	0x3c129a74	0.008947957
202	0xbc0e9efb	-0.008704896
203	0x3dc7a4e5	0.09748248
204	0x3cee8627	0.029116703
205	0x3d534bbd	0.0515859
206	0xbde859f2	-0.11345281
207	0xbe0e11f0	-0.1387403
208	0xbc96321c	-0.01833444
209	0x3d36b4af	0.044605907
210	0x3c504de5	0.012713884
211	0x3b361b94	0.0027787434
212	0xbbcac3f8	-0.006187912
213	0x3d6785ba	0.056524016
214	0x3db0d54f	0.086344354
215	0xbd2ce84f	-0.042213734
216	0x3d84a587	0.06476884
217	0xbd627c99	-0.055294607
218	0xbd9fdf4b	-0.07806262
219	0xbd5a76b5	-0.053335864
220	0xbd092937	-0.03348657
221	0x3c569bd0	0.013098672
222	0xbd682610	-0.056676924
223	0x3df117be	0.117721066
224	0xbe024ca3	-0.12724547
225	0x3cd78745	0.026309619
226	0x3ca82f5a	0.020530391
227	0x3cc6a2b5	0.024247507
228	0xbd79e35e	-0.06100785
229	0xbc85cd08	-0.016333118
230	0x3b56f7cb	0.0032801505
231	0xbca0296a	-0.019550998
232	0xbc133b9c	-0.00898638
233	0xbb1b73a0	-0.002372004
234	0x3d98854b	0.074472986
235	0xbd925945	-0.07145933
236	0x3dd031f5	0.101657785
237	0x3c8f1b92	0.017469201
238	0x3d957656	0.072979614
239	0x3d4f562b	0.050619286
240	0xbd798909	-0.060921703
241	0xbb2be4f4	-0.0026228996
242	0xbd4a92bc	-0.049456343
243	0xbbb259ab	-0.005442818
244	0x3d0e9cf5	0.034817655
245	0xbd90399d	-0.07042239
246	0xbb36ac08	-0.0027873535
247	0x3cb3b218	0.021935508
248	0xbdab1502	-0.08353616
249	0x3bd8452f	0.006600044
250	0xbe17e84c	-0.14834708
251	0xbcf187a9	-0.029483633
252	0x3db17e52	0.08666672
253	0x3c936f07	0.017997278
254	0xbda1eaf5	-0.079061426
255	0x3d128d8c	0.03577952

bias_hh_l0 f4 [512]
0	0x3d88ca61	0.06679226
1	0x3da50887	0.08058267
2	0xbd1e1e58	-0.038603157
3	0x3d12a553	0.035802197
4	0x3dbdcac4	0.0926719
5	0xbd0bc66c	-0.034124777
6	0x3e2498c5	0.16073902
7	0x3debde5c	0.11517021
8	0x3d916801	0.07099915
9	0x3df0bcc7	0.117547564
10	0x3de1a6e4	0.1101816
11	0x3dc77e56	0.097408935
12	0x3e0bdbb9	0.13658036
13	0x3cf5c643	0.030001765
14	0x3db24a46	0.08705573
15	0x3ced5e7f	0.028975723
16	0x3e54dff2	0.20788553
17	0xbd1adf1a	-0.037810422
18	0x3e1a1f6d	0.1505105
19	0x3dda51f3	0.10660162
20	0x3e120a3a	0.14261714
21	0x3cf66756	0.030078571
22	0x3ca4af13	0.020103013
23	0x3ca3821d	0.019959504
24	0x3defb6e5	0.11704806
25	0x3e21cc1a	0.15800515
26	0x3d471b43	0.048609983
27	0xbd2ad687	-0.041708495
28	0x3dbf0269	0.093266316
29	0x3cd2b4d8	0.025720999
30	0x3d1924ca	0.0373886
31	0x3d986b91	0.07442392
32	0x3dfa0f6b	0.12209972
33	0x3df2db5b	0.11858245
34	0x3e316fe7	0.17327844
35	0x3dbbee58	0.0917632
36	0x3d167e90	0.036741793
37	0x3e06919e	0.13141486
38	0x3b9ad517	0.0047251093
39	0xbc1b23f2	-0.009469019
40	0x3e050bd7	0.12992798
41	0x3e0d461b	0.13796274
42	0x3e0d0fa9	0.13775505
43	0x3e155291	0.14582278
44	0x3dcdca3a	0.10048337
45	0x3dbb730c	0.09152803
46	0x3de6f376	0.11276905
47	0xba6806ea	-0.0008851128
48	0x3de2f0d3	0.1108109
49	0x3e0d263d	0.13784118
50	0x3dcc70be	0.09982441
51	0x3da567c7	0.080764346
52	0x3d2144ed	0.039372373
53	0x3d28abe4	0.041179553
54	0x3e0598c0	0.13046551
55	0x3daee996	0.08540647
56	0x3dc20786	0.09474091
57	0x3d92e887	0.07173257
58	0x3e3031e3	0.1720653
59	0x3d54fa2f	0.051996406
60	0x3dae7460	0.085182905
61	0x3d813e51	0.06310714
62	0x3d8f2f50	0.06991446
63	0x3caaaa28	0.02083309
64	0x3d303bb1	0.043025676
65	0x3b962364	0.0045818556
66	0x3d2bdb1e	0.041957013
67	0x3e3e14b3	0.18562584
68	0x3e15b755	0.14620717
69	0x3e096762	0.13418344
70	0x3d6860ca	0.05673293
71	0x3d6ce5b6	0.057836257
72	0x3e0760ec	0.13220567
73	0x3c0cfcda	0.008605206
74	0x3d61b73d	0.05510639
75	0x3d0798e5	0.033104796
76	0x3dea5964	0.11442831
77	0x3b5fd00c	0.0034151105
78	0x3dc9eed9	0.0986001
79	0x3dd95164	0.10611227
80	0x3dd827e6	0.10554485
81	0x3d87b9ca	0.06627233
82	0x3d676576	0.056493245
83	0x3d2144db	0.039372306
84	0x3e21678d	0.15762158
85	0x3ce8f813	0.028438604
86	0x3ddc387d	0.10752962
87	0x3e0d10b8	0.13775909
88	0xbc788f50	-0.015170887
89	0x3e1561d6	0.14588103
90	0x3d9446bd	0.07240055
91	0x3d54ad6f	0.05192321
92	0x3db6d980	0.089282036
93	0x3d1e4cdb	0.038647514
94	0x3cb26235	0.021775344
95	0x3e19af19	0.150082
96	0x3da66930	0.08125532
97	0xbba35e27	-0.004985589
98	0x3cbf59b0	0.023358196
99	0xbd1d0362	-0.038333304
100	0xbc3dc7bf	-0.011583268
101	0x3e3edba9	0.18638481
102	0x3c26b8ea	0.010175923
103	0x3d7bd9b9	0.061486933
104	0x3dc6c0d3	0.09704747
105	0x3d459fbf	0.04824805
106	0xbce9dcd8	-0.02854769
107	0x3e07d7a9	0.13265862
108	0x3dd290eb	0.10281547
109	0x3e123e22	0.14281514
110	0xbb54d68e	-0.0032476517
111	0x3cfc978d	0.030833984
112	0x3e1fb5d0	0.155967
113	0x3dcfdce9	0.10149557
114	0x3e2d2ea6	0.16912326
115	0x3e2c8d80	0.16850853
116	0x3e0fed9b	0.14055483
117	0xbd51da99	-0.05123386
118	0x3d0be2c6	0.034151815
119	0xbba9ed68	-0.0051857717
120	0x3d46e668	0.048559576
121	0xbd12f76a	-0.035880484
122	0x3e2f7ff3	0.17138653
123	0x3ddb2d91	0.107020505
124	0x3d5c94f6	0.053852998
125	0x3c5d1dfc	0.013495918
126	0x3de3b2d1	0.11118091
127	0x3d141372	0.036151357
128	0xbda1038f	-0.07862007
129	0x3d8293ce	0.06375848
130	0xbc767401	-0.015042306
131	0xb9f95b9c	-0.00047561235
132	0x3d86cbe1	0.065818556
133	0x3c77ab72	0.015116559
134	0xbdaf08c0	-0.08546591
135	0xbd7cf20c	-0.06175427
136	0x3d1951e9	0.03743163
137	0x3dcc70df	0.09982466
138	0x3c618dfb	0.013766761
139	0x3d6cf172	0.057847448
140	0x3d5e7a4f	0.05431586
141	0x3dba60bb	0.09100481
142	0x3bcd1c3e	0.0062594702
143	0xbcf4ffad	-0.029907072
144	0xbe0680c7	-0.13135062
145	0xbb634ef0	-0.0034684502
146	0x3ce96994	0.028492726
147	0xbd3123e1	-0.043247107
148	0x3d2f9a5f	0.04287183
149	0x3cf22689	0.02955939
150	0xbbe73623	-0.007056014
151	0x3ce56bea	0.028005559
152	0x3d83ea6a	0.06441195
153	0x3db4ef49	0.088347025
154	0x3d6f5f6f	0.058440622
155	0x3d9151b3	0.07095661
156	0xbd73570e	-0.059409194
157	0x3d6a716d	0.057237078
158	0x3cb86539	0.022509204
159	0xbe038d6a	-0.12846914
160	0xbd79b5dc	-0.06096445
161	0xbccece7a	-0.02524494
162	0x3c367a97	0.011137626
163	0xbd7a8733	-0.061164092
164	0x3dc727e2	0.09724404
165	0x3c993fdc	0.018707208
166	0xbd360558	-0.04443869
167	0xbcd04c79	-0.02542709
168	0x3d9bbee4	0.07604769
169	0x3dc37387	0.095435195
170	0x3daafe36	0.08349268
171	0x3d950212	0.072757855
172	0x3cd97be6	0.026548337
173	0xbde14fc6	-0.11001544
174	0x3d6791c1	0.056535486
175	0xbad0cec8	-0.0015930766
176	0x3d8f1384	0.06986144
177	0x3d49257d	0.049108017
178	0x3daa5ce9	0.083185025
179	0x3d638754	0.05554898
180	0xbddd57d6	-0.10807769
181	0xbd600536	-0.05469247
182	0xbd9973af	-0.07492768
183	0x3c8cb798	0.017177388
184	0x3b20650d	0.0024474293
185	0x3c426d51	0.011866883
186	0x3c6f30f9	0.014599078
187	0x3d15743e	0.03648781
188	0xbda1cd86	-0.079005286
189	0x3d37286d	0.044716287
190	0xbd23d88d	-0.04000144
191	0x3cbe5462	0.023233596
192	0x3d1113f8	0.035419434
193	0x3d7f9d62	0.06240595
194	0xbd800f2f	-0.06252896
195	0x3d538af1	0.051646177
196	0xbd34228d	-0.043978263
197	0x3ca05a7e	0.0195744
198	0xbbf38dc8	-0.007432673
199	0x3d07371b	0.033011537
200	0x3caccb1e	0.021092948
201	0xbbf28699	-0.007401299
202	0x3d01527c	0.031572804
203	0xbced7d68	-0.028990462
204	0x3cafda96	0.021466535
205	0x3da1729b	0.078831874
206	0xbcc90f4a	-0.024543423
207	0xbdb5415c	-0.08850357
208	0xbdf3c1cd	-0.11902199
209	0x3c61b138	0.013775162
210	0x3da33077	0.07968228
211	0xbd4189d1	-0.047250573
212	0x3d482eeb	0.04887287
213	0x3d40da3f	0.047083136
214	0x3bb58c79	0.0055404273
215	0xbd01fa80	-0.031733036
216	0x3dbb6a9c	0.091511935
217	0xbbe6cab5	-0.0070432075
218	0xbc374fb4	-0.011188436
219	0xbced8ca4	-0.028997727
220	0x3c854ce5	0.016272018
221	0x3bd6ed41	0.0065590446
222	0x3bf04306	0.0073322086
223	0x3d53dcc2	0.051724203
224	0xbe0960fd	-0.13415904
225	0xbd3a0ab1	-0.045420352
226	0xbcf8078b	-0.030277034
227	0x3b6492b7	0.0034877488
228	0xbd6ce1db	-0.05783258
229	0xbd863d40	-0.06554651
230	0xbc932bf9	-0.017965304
231	0xbd4915f0	-0.049093187
232	0x3c81be3a	0.015837777
233	0xbd024033	-0.031799506
234	0x3d7f5606	0.062337898
235	0xbcfd76f7	-0.030940516
236	0x3c4a616b	0.012352328
237	0xbb638a87	-0.003472002
238	0xbd0e71d7	-0.034776535
239	0xbd1884f6	-0.037236176
240	0x3d4e69ce	0.050393872
241	0x3ca129ef	0.019673316
242	0xbd1be401	-0.03805924
243	0xbdeb8dc8	-0.11501652
244	0x3dcc6e9f	0.09982037
245	0xbc03a23f	-0.008034288
246	0x3dabd645	0.08390478
247	0xbd3fb0e2	-0.046799548
248	0xbc746b10	-0.014918104
249	0xbdbd01bd	-0.09228847
250	0xbdc21288	-0.09476191
251	0xbc81f208	-0.01586248
252	0x3b9197c4	0.0044431407
253	0xbd312f2a	-0.04325787
254	0x3cd379b3	0.025814867
255	0x3da024ce	0.0781952

weight f4 [29, 128]
0	0xbc8e09cc	-0.017338656
1	0xbdb079b4	-0.08616963
2	0xbc81133e	-0.015756246
3	0xbde4de0d	-0.11175165
4	0xbdac4f38	-0.08413547
5	0x3dc35667	0.09537964
6	0xbe0cf93b	-0.13766949
7	0x3d650bf9	0.05591962
8	0x3d962523	0.07331302
9	0xbcd6b3c2	-0.026208762
10	0x3e2cf926	0.16891918
11	0x3df691fb	0.12039562
12	0x3d3543d3	0.044254135
13	0x3dade4cd	0.08490906
14	0xbdb8b538	-0.0901894
15	0x3d78e13f	0.060761686
16	0xbdc64fa1	-0.09683157
17	0x3d800939	0.06251759
18	0x3e166283	0.14686017
19	0xbd878b80	-0.066184044
20	0x3c311d5f	0.010810225
21	0xbe0ecdbb	-0.13945667
22	0xbc9a3f9e	-0.018829163
23	0xbca56500	-0.020189762
24	0x3e3416c8	0.17586815
25	0xbda714f8	-0.08158296
26	0x3dab4aa0	0.08363843
27	0xbdabfe9c	-0.08398172
28	0xbd409755	-0.04701932
29	0xbdb7bc47	-0.08971458
30	0xbc38321c	-0.011242416
31	0x3e2e763c	0.1703729
32	0xbd486296	-0.048922144
33	0x3d48cca6	0.049023293
34	0x3dee2cb5	0.11629621
35	0x3d120220	0.035646558
36	0xbdbb98ed	-0.09160028
37	0xbe1e03a1	-0.15431072
38	0x3dcae94b	0.09907778
39	0x3c5a355c	0.013318386
40	0x3d9c3b64	0.07628515
41	0x3d505b66	0.050868414
42	0xbc141a18	-0.009039424
43	0x3dababb4	0.08382359
44	0x3de79a70	0.113087535
45	0x3e18eb57	0.14933525
46	0x3d9219f4	0.071338564
47	0xbda3cddb	-0.07998248
48	0x3d4e53c3	0.05037285
49	0xbd0c78ce	-0.034294896
50	0xbda3b963	-0.07994344
51	0x3e003e90	0.12523866
52	0x3dc5055e	0.09620164
53	0x3d81ee4a	0.06344278
54	0x3db737d3	0.089461945
55	0x3cffbc91	0.031217845
56	0x3c1854ea	0.009297589
57	0x3dc793ce	0.097449884
58	0xbe6014c3	-0.2188292
59	0xbdae4b4b	-0.08510455
60	0xbc570294	-0.013123173
61	0x3d84f15e	0.0649135
62	0x3db44cab	0.08803686
63	0xbd810c51	-0.06301177
64	0xbd2f4105	-0.042786617
65	0xbe41bb9a	-0.1891922
66	0x3dd95a55	0.106129326
67	0x3dd11ef8	0.10210985
68	0x3dea1073	0.11428919
69	0x3cd28ed1	0.025702866
70	0xbc64be6a	-0.013961414
71	0xbdf6b05e	-0.12045358
72	0xbdfc5775	-0.123213686
73	0xbe2b48e9	-0.16727032
74	0x3d819264	0.0632675
75	0x3db271ac	0.087130874
76	0x3db8c0ca	0.090211466
77	0x3d83eb5b	0.06441375
78	0xbda42bd5	-0.08016173
79	0xbe1ea9a8	-0.15494406
80	0x3dc0df29	0.094175644
81	0xbe2520d3	-0.16125803
82	0x3da82764	0.08210638
83	0xbd9eb05c	-0.07748482
84	0xbe2cd726	-0.16878948
85	0x3de94d47	0.113916926
86	0x3df677ea	0.120345905
87	0xbd55cb80	-0.052196026
88	0xbd7ecbfa	-0.062206246
89	0x3d84333a	0.06455083
90	0xbe267a8d	-0.16257687
91	0x3e48aefc	0.19598001
92	0xbe0af25d	-0.13569017
93	0x3e234be2	0.15946916
94	0xbe0dd1c9	-0.13849558
95	0x3cdf5a80	0.027264833
96	0xbe4ac373	-0.1980112
97	0xbd8fdf60	-0.07025027
98	0x3da1d784	0.079024345
99	0xbd8e287a	-0.06941314
100	0x3a9e5937	0.0012081031
101	0x3e2c781a	0.1684269
102	0xbd809e7b	-0.06280228
103	0x3d20a17d	0.039216507
104	0xbdb01432	-0.08597602
105	0x3de900d6	0.113771126
106	0x3d48814f	0.048951443
107	0x3d912f44	0.07089093
108	0x3d9c1879	0.07621855
109	0x3e40c2ce	0.18824312
110	0xbde114b1	-0.10990275
111	0xbbde759d	-0.006788923
112	0xbda5e9be	-0.081012234
113	0xbd67de8e	-0.05660873
114	0xbdca504e	-0.09878598
115	0x3dfbb08e	0.122895345
116	0xbd2f143e	-0.042743914
117	0xbce267bb	-0.027637353
118	0xbda785d5	-0.08179823
119	0x3d430ce6	0.047619723
120	0xbe1ed4d7	-0.1551088
121	0x3d82a7de	0.063796744
122	0x3df7eddd	0.12105916
123	0xbd06d5dc	-0.032918796
124	0x3dd972d9	0.106176086
125	0xbcc223e7	-0.02369876
126	0x3b8e69f5	0.004346127
127	0x3d2f9fc2	0.042876966
128	0x3ce3dc2e	0.02781495
129	0x3e0455ce	0.12923357
130	0x3d9d3434	0.076759726
131	0xbb7da78c	-0.0038704602
132	0xbd7e7b63	-0.06212939
133	0xbd3c86a9	-0.04602686
134	0x3d9e2441	0.07721759
135	0xbd961efb	-0.07330128
136	0x3ddf6328	0.109075844
137	0xba257889	-0.00063122116
138	0xbe3dcde8	-0.18535578
139	0xbd5344f8	-0.051579446
140	0x3dc3ef8e	0.09567176
141	0x3bfae6b5	0.007656897
142	0xbdc5e1db	-0.09662219
143	0xbdb745e3	-0.08948877
144	0xbda99b78	-0.082816064
145	0xbd143659	-0.036184642
146	0xbd96c3b2	-0.07361545
147	0x3dd545bf	0.10413694
148	0x3d53c99c	0.05170594
149	0xbc582677	-0.0131927645
150	0xbdb63633	-0.088970564
151	0xbdfbdd1e	-0.12298034
152	0xbd8dae19	-0.06917972
153	0xbdc02c44	-0.09383443
154	0x3db243e1	0.08704353
155	0x3a35389d	0.0006913038
156	0x3e04d239	0.12970819
157	0x3db1b72e	0.08677517
158	0xbe7c6d3a	-0.24651042
159	0xbdf045db	-0.11732074
160	0xbdbb3e2f	-0.0914272
161	0x3ca75f9b	0.02043133
162	0x3dc4b1cd	0.09604225
163	0x3cb11f84	0.021621473
164	0xbcffde3b	-0.031233897
165	0x3e93a2a7	0.2883503
166	0xbd1ceea7	-0.038313534
167	0x3c4e9ef8	0.012611143
168	0xbe3f936a	-0.18708578
169	0x3d31712a	0.043320812
170	0x3e2857b4	0.16439706
171	0xbd3b8f54	-0.045790985
172	0xbc92e51b	-0.017931512
173	0xbe044a1d	-0.12918897
174	0x3df2a50d	0.11847887
175	0x3d7c9947	0.061669614
176	0xbd8486e2	-0.06471039
177	0x3e2a17a6	0.16610584
178	0xbc24a45f	-0.010048955
179	0xbcfb344e	-0.03066459
180	0xbd29161e	-0.04128086
181	0xbdf0ebd8	-0.117637336
182	0x3cdf7a2b	0.027279934
183	0x3d8a69ec	0.06758484
184	0xbe41928e	-0.18903562
185	0x3d4e0aef	0.050303396
186	0x3d8c4482	0.06849004
187	0xbd30db85	-0.0431781
188	0x3d676380	0.056491375
189	0x3d8af731	0.06785429
190	0x3db89495	0.09012715
191	0x3c263942	0.010145487
192	0xbd139fcc	-0.036041066
193	0x3df329d6	0.11873214
194	0x3d395293	0.045244765
195	0xbe9f0e42	-0.31065565
196	0x3e0d22b4	0.1378277
197	0x3b3cf9a3	0.0028835319
198	0xbd74a49b	-0.059727293
199	0x3e27ff78	0.16406047
200	0x3a6d3ad7	0.00090496003
201	0xbd5e82b4	-0.054323867
202	0x3de78256	0.113041565
203	0xbe408dab	-0.18804042
204	0xbce7c7c2	-0.028293494
205	0xbbee5e82	-0.00727445
206	0xbdd16733	-0.10224762
207	0x3e02bb98	0.12766874
208	0x3e055367	0.13020097
209	0xbd813548	-0.06308991
210	0x3d46cb9a	0.048534013
211	0x3e0a5ed4	0.13512737
212	0xbe46b33a	-0.19404307
213	0xbdd2e6f2	-0.102979556
214	0x3d5df55e	0.05418908
215	0x3e199a15	0.15000184
216	0xbc9e62dd	-0.019334251
217	0xbd43bfbb	-0.04779027
218	0x3e03f0ca	0.12884822
219	0xbcd758ab	-0.026287397
220	0x3cd136c3	0.025538808
221	0xbd7c1972	-0.061547704
222	0xbd1478d6	-0.03624805
223	0x3e0103d6	0.1259912
224	0xbd7a0895	-0.06104334
225	0xbb17d3df	-0.0023167056
226	0x3d04fc05	0.032466907
227	0x3d24d0c7	0.040238168
228	0xbd935c75	-0.07195369
229	0x3e83dbcb	0.25753626
230	0x3c4cd14d	0.012501073
231	0xbc5eb1f8	-0.013592236
232	0xbe02d0ca	-0.12774959
233	0xbcb0f6d2	-0.021602068
234	0xbce37946	-0.027767789
235	0x3daa03b3	0.08301487
236	0x3ad3e975	0.0016167598
237	0xbe6a9dc1	-0.22911741
238	0x3d10bd01	0.0353365
239	0xbd6d2389	-0.057895217
240	0x3c9e8b17	0.019353433
241	0x3e00b063	0.12567286
242	0xbd9c5e7b	-0.07635208
243	0xbb65ab8e	-0.0035044882
244	0xbc28857d	-0.010285732
245	0xbd51ae7b	-0.05119179
246	0xbc180207	-0.009277827
247	0xbd981245	-0.0742536
248	0x3db1eb08	0.08687407
249	0xbdc41525	-0.095743455
250	0xbe0c86cd	-0.13723297
251	0xbd28cad6	-0.041209064
252	0xbc964b5e	-0.018346485
253	0x3c633155	0.013866742
254	0xbd86c171	-0.06579865
255	0xbb39f6d6	-0.0028375885

bias f4 [29]
0	0x3dd9a742	0.10627605
1	0xbd8fe3b4	-0.07025853
2	0x3d0deecc	0.034651563
3	0x3d12fd21	0.035885934
4	0xbc1b7788	-0.009488948
5	0x3d273617	0.04082307
6	0xbd1d183a	-0.038353182
7	0xbca414fc	-0.020029537
8	0x3ccbb216	0.024865191
9	0xbdd57611	-0.1042291
10	0xbc10eabe	-0.008845029
11	0x3d909a80	0.070607185
12	0xbcbe0c5e	-0.023199257
13	0x3d96db8d	0.07366095
14	0xbc7daa7f	-0.015482544
15	0x3bcaaee6	0.0061854003
16	0xbdadc59c	-0.084849566
17	0x3d5295ea	0.0514125
18	0x3d8e1ac7	0.06938701
19	0x3d7b476a	0.061347403
20	0xbda2a3ff	-0.07941436
21	0xbdfbda8f	-0.12297546
22	0xbd8705fc	-0.06592938
23	0xbd6b6fdc	-0.057479724
24	0xbd025aed	-0.031824995
25	0xbb1ce824	-0.0023942078
26	0xbcc8360e	-0.024439838
27	0xbbe178f6	-0.0068808747
28	0x3c240160	0.010010093
