models/LSTM/128/ESEN_60-40/ESEN_60-40_0_best_acc.pt (torch, 353743 bytes, 7 tensors)

weight f4 [29, 32]
000000 d4 97 5d bf 2e fd 70 be 1b 43 e4 3f 86 26 0d 40
       -0.86559796 -0.2353408 1.7832979 2.2054763
000010 b7 30 98 3f fe f4 b2 3d 61 da 2f bf 88 24 a3 bd
       1.1889867 0.08738135 -0.68692595 -0.07965952
000020 22 45 26 3e 60 39 86 bf ab 64 91 bd 40 1e b0 3e
       0.1623731 -1.048626 -0.07099279 0.3439808
000030 39 36 c5 bf 70 14 c8 bf cd 5b 10 bf 6d 6b b7 bf
       -1.5407172 -1.5631237 -0.56390077 -1.4329659
000040 ba 9d 07 40 12 5d 5b 3f 7d 45 4e 3e 14 87 6f bf
       2.1190019 0.8568889 0.20143695 -0.9356549
000050 c4 f9 a2 be 3a fc 37 3f 59 a1 3e 3f eb e8 04 bf
       -0.3183118 0.7186924 0.74464947 -0.51917905
000060 01 bd df bf 66 ef ba bf 9f 2a 70 3f d3 66 7e 3f
       -1.7479554 -1.4604309 0.93815035 0.9937565
000070 5b 9e 5f be 2c 82 a0 bd 45 00 b5 bf 28 2f 0e c0
       -0.21837752 -0.07837328 -1.4140707 -2.2216282
000080 15 ef 58 3e 78 f7 1e 40 66 de 51 3f 63 48 ff 3c
       0.21184953 2.4838543 0.8197998 0.031162446
000090 c9 54 8f 3f 4f f8 f8 3f c1 45 8f 3f 71 ae d5 be
       1.1197749 1.9450778 1.1193162 -0.4173465
0000a0 92 cf 94 3f f1 bb 22 bf 28 0a ae 3e 85 8b 87 3f
       1.1625845 -0.63568026 0.33992124 1.0589453
0000b0 d3 61 f4 3e 8b 92 27 c0 39 d6 d8 bf 7d 4c 3b 3f
       0.47730884 -2.6183193 -1.6940376 0.73163587
0000c0 a7 32 19 bf 66 0e ed be c7 22 cb 3e 40 26 82 3f
       -0.59842914 -0.46300048 0.3967497 1.0167923
0000d0 a6 ca 0d 3f 7e 04 50 bf 75 fa 5f c0 82 2f 0b c0
       0.5538734 -0.81256855 -3.4996617 -2.1747746
0000e0 82 6c de bf 5c f9 7b bf c7 95 1a c0 2b cc ea bf
       -1.7376864 -0.9842737 -2.4153917 -1.8343557
0000f0 a1 98 38 bf e7 f2 01 40 e5 85 58 bf 40 a4 27 3f
       -0.72107893 2.0304506 -0.84579307 0.65485
000100 47 a9 9a bf b8 1f 7a be fc 35 63 3e 13 09 79 3d
       -1.2082909 -0.24426162 0.22188562 0.06079967
000110 60 5d 79 bf 3f ed 17 40 a8 74 82 3f bf a8 09 c0
       -0.97408104 2.3738554 1.0191851 -2.1509244
000120 69 ec 94 3f a5 e4 15 bf 3c a7 07 c0 5d 9f 0d 3f
       1.1634647 -0.5855201 -2.1195822 0.55321294
000130 a0 01 01 3f c2 d4 65 bf ae 79 28 40 e0 bb ca 3c
       0.50393105 -0.8977777 2.6324267 0.024747789
000140 8a 9e 01 3f a4 7f d6 bf ec ef 83 3f 6d 0e ea bf
       0.50632536 -1.6757703 1.0307593 -1.8285652
000150 86 1c 2c be c5 90 a0 3e 64 00 cf 3e c1 e1 d9 3e
       -0.16807756 0.3136045 0.40429986 0.4255505
000160 1d f4 89 bf 43 36 8c 3f 54 13 ac bf 73 4f f3 3e
       -1.0777622 1.0954059 -1.3443398 0.47521552
000170 65 b0 07 3f 97 92 5b be fe 43 01 3f 94 48 00 3f
       0.5300353 -0.21442638 0.5049437 0.50110745
000180 37 7a d0 3e 57 80 7f bf 86 a3 43 3f a4 ce 2e c0
       0.40718243 -0.99805206 0.7642139 -2.7313623
000190 88 0b ef bd dd 0c 7e bd 8b 7f a3 bf 66 2d b3 3e
       -0.11672121 -0.062023986 -1.2773298 0.34995574
0001a0 95 2c 8f bf 2c ba 4d 3f 80 38 25 3e 97 20 e1 be
       -1.118548 0.803622 0.16134834 -0.43970177
0001b0 c4 35 b2 3f b3 27 b9 3f ce 64 a5 3f ec 70 a6 bf
       1.3922658 1.446524 1.2921388 -1.3003211
0001c0 62 e4 9d bf d4 6e 5d bf af 55 0c 3f 4f 4e dd 3f
       -1.2335322 -0.86497235 0.5481824 1.7289523
0001d0 e8 24 61 bf d0 66 5c bf 91 8d 61 3f 5f e5 1c 3f
       -0.8794694 -0.8609438 0.8810664 0.6128749
0001e0 af 10 3f c0 78 a3 3e 3f 0e b9 9b be 72 bd 1d 3f
       -2.9853933 0.74468184 -0.30414623 0.61617196
0001f0 2b 0f 41 40 2f ae 03 bf 4c 4e ea 3d 93 6d ad 3e
       3.0165508 -0.5143766 0.11440715 0.3387266
000200 a4 aa 8f 3f 9f d0 32 3f 5f c6 9d bf 0d 38 c9 3f
       1.122395 0.6984958 -1.2326163 1.572023
000210 67 05 b9 3e 2e 51 d8 3e 37 1b 56 bf da e6 23 bf
       0.36136934 0.42249435 -0.83635277 -0.64024127
000220 2a 90 38 bf d8 60 8d bf 16 7a c5 3f f3 0a 7c 3f
       -0.72094977 -1.1045179 1.5427883 0.9845421
000230 db 32 91 bf 57 a8 07 c0 a1 e6 fa be f0 25 08 3f
       -1.1343645 -2.1196496 -0.4900408 0.5318289
000240 c5 c8 a9 bf c2 dd b9 3f c8 14 e0 3e 45 73 1b 40
       -1.3264395 1.45208 0.43765855 2.4289105
000250 78 cc 86 3f ec a9 3e bf 8a e2 71 bf 3f 5a 73 be
       1.0531149 -0.7447803 -0.94486296 -0.23764895
000260 a8 ef 07 c0 4a 05 d7 3e bc 5a 44 3f fd d9 9f 3e
       -2.1240025 0.41996223 0.7670095 0.31221
000270 7f d2 9e 3f e7 2b 70 3f 3a 59 dc 3f d7 ed a7 3f
       1.2407988 0.9381699 1.721473 1.3119458
000280 a6 cd df bc 01 e0 8b bf 4a 06 9b be 7d 4a b8 3e
       -0.02731974 -1.0927736 -0.30278236 0.3599433
000290 ce ed 94 bf 84 3c db 3e ee 3f b7 bd 62 d6 9c 3f
       -1.1635072 0.42819607 -0.089477405 1.2252924
0002a0 8b 6d 2f 3f 09 ff 08 bf 9b 1c f0 3f d9 6f a8 bf
       0.68526524 -0.5351415 1.875873 -1.3159133
0002b0 1a c3 e9 bf 00 4b 0f 40 b8 af d2 3f 96 78 e3 bd
       -1.8262665 2.2389526 1.6459875 -0.11106984
0002c0 a5 ae d0 be 22 dd a7 3f e9 8b 22 bf 24 73 58 3f
       -0.40758243 1.3114359 -0.63494736 0.8455069
0002d0 35 85 1e bf 88 ad 10 3e ac c5 f0 be e0 ae 30 c0
       -0.6192201 0.14128697 -0.47025812 -2.7606735
0002e0 dc 60 da 3b 36 02 1d 3f 1d 1e a3 bf a5 7d 8e bf
       0.0066643786 0.613315 -1.2743565 -1.1132094
0002f0 b9 c9 8f 3f b9 40 8a 3e 05 ac 47 be ed a6 a4 3f
       1.1233436 0.27002504 -0.19499214 1.2863442
000300 df 82 b3 be f7 e7 4d 3f f0 ad ed 3e ac 3e 1e 3f
       -0.35060784 0.80432075 0.46421766 0.6181438
000310 7d 36 0b c0 20 32 03 3f 37 a0 ed 3f af 18 8b bf
       -2.1752007 0.5124836 1.8564519 -1.0866908
000320 f1 ae 95 bf 7a 7d 82 3f e1 0a cf 3e ef 97 f8 be
       -1.1694013 1.0194542 0.40437987 -0.48553416
000330 79 4f 2e 3f f3 fe a7 3f 59 4c 1a 3f e4 2c 39 3f
       0.68090016 1.3124679 0.6027275 0.7233412
000340 e9 b1 ed 3f f6 eb 5d bc 68 ab 1c 3e e0 dd 89 bf
       1.8569919 -0.013545027 0.15299761 -1.0770836
000350 c1 9d bb 3e 84 6f d0 bf f6 dc dc 3e 43 93 bd bd
       0.36643794 -1.6284032 0.4313733 -0.092566036
000360 b2 a8 a2 bf ee 03 67 bf 08 7a bf be 00 a8 28 bd
       -1.2707732 -0.9024037 -0.3739779 -0.041175842
000370 cb 59 ea be 29 b7 7f 3f f1 73 0c c0 b9 03 b7 3f
       -0.45771632 0.99888855 -2.1945765 1.4298011
000380 2a e8 1b 3f ad 58 0f bf 89 8c 00 bf e2 13 bb bf
       0.6090113 -0.55994684 -0.5021444 -1.4615443
000390 36 f9 07 bf 9a f6 2a bd 56 f5 2a 40 d6 2d 38 3f
       -0.5311464 -0.041739084 2.671224 0.7194494
0003a0 87 1d a1 3e 90 80 95 3f 39 e2 dc 3f 3a 6b 13 bf
       0.3146784 1.1679859 1.7256538 -0.5758549
0003b0 1b 35 05 3f 44 a1 b4 3e b7 b5 b9 3f c5 15 24 be
       0.5203416 0.35279286 1.450858 -0.1602393
0003c0 0a 76 87 3f 9a db 1f 40 ed ac 8d 3d 3b 8c 98 bf
       1.0582898 2.4977784 0.069177486 -1.1917795
0003d0 32 b5 21 bf 93 26 33 3f 05 48 8f 3f 91 1e 44 3f
       -0.6316711 0.69980735 1.1193854 0.7660914
0003e0 05 f8 3d 3f 2a 39 0b 40 b6 3c 67 be 2f ae 07 c0
       0.7420657 2.175364 -0.22581753 -2.1200063
0003f0 29 22 cb be 96 37 38 3e cb ea 32 bf bb 00 39 bf
       -0.396745 0.17989954 -0.69889516 -0.7226674

weight_ih_l0 f4 [512, 32]
000000 e1 f9 ca bc 71 bb cc be f9 76 80 be 6d 21 8a bc
       -0.024777355 -0.39986756 -0.2509077 -0.016861642
000010 3b a2 42 be 9f 38 44 3e 81 86 ab be 31 f4 73 3b
       -0.19007199 0.19162224 -0.33501056 0.0037224407
000020 01 da e9 3d 53 07 16 3d 38 33 8a be 19 9e 0c be
       0.11418534 0.03662808 -0.26992202 -0.13732184
000030 5b b0 e0 3c b8 e2 19 3e f3 21 14 be bc ee a1 bd
       0.027427843 0.15027893 -0.14466076 -0.07906863
000040 dc 95 20 be d3 4e b6 3e 13 0f 18 3d ce 80 81 bb
       -0.15682167 0.35607013 0.03712375 -0.0039521223
000050 e1 6b b3 bd a2 b1 89 3d db ab 4d be 75 92 06 be
       -0.08760811 0.06723334 -0.20085089 -0.13141806
000060 21 41 49 bc 44 f2 e6 bb d0 26 91 3d 01 2b 53 3e
       -0.012283594 -0.0070479233 0.07087481 0.20621873
000070 f4 82 d6 3d 4e 3e 2b bd 62 d4 90 3c b6 73 6b 3d
       0.10474196 -0.041807465 0.017679397 0.057483397
000080 f4 7f 93 be 26 d1 01 bc 2f 3c dc 3d a1 54 eb 3e
       -0.28808558 -0.0079234 0.107536666 0.45963004
000090 74 7a 2b 3e 06 e6 1c 3e d6 0d 79 bd 00 a0 44 3e
       0.16745931 0.15322122 -0.06080421 0.1920166
0000a0 6b 23 97 3e 3a 02 ee bd 73 7c ea bd 81 54 1f 3e
       0.2951921 -0.116215184 -0.11449518 0.1555958
0000b0 a1 0c 53 be 7b 06 fc bd 46 6d a2 bc 20 3e b8 3c
       -0.20610286 -0.123059236 -0.019827496 0.022490561
0000c0 f7 4d 47 3d f6 c2 17 3f f0 8f d9 bd b2 5d 9d bd
       0.048658337 0.5928186 -0.10623157 -0.076838866
0000d0 1d 07 77 be 7b f3 11 3e 21 10 ab be eb 8b 80 be
       -0.24123807 0.14253037 -0.33410743 -0.2510675
0000e0 bb 97 36 be e4 a1 56 3d 28 80 33 3e 6c e2 3a 3e
       -0.17831318 0.052400485 0.17529356 0.18250436
0000f0 61 5c 97 bd d2 35 8f 3e a2 81 45 be 90 12 9a 3d
       -0.07390667 0.2797075 -0.19287732 0.07523072
000100 9f 42 eb 3e 95 d9 74 be 42 94 73 3e 81 65 f2 3d
       0.45949265 -0.23911126 0.23787025 0.118357666
000110 72 06 80 3e 73 8f 33 3d 1e a5 91 3d 14 e8 86 3e
       0.25004917 0.043837976 0.07111572 0.26348937
000120 01 56 72 be 3d 70 c1 bd 26 37 0c be 23 1e c5 be
       -0.2366562 -0.09445236 -0.13692912 -0.38499555
000130 93 a8 80 be 99 be e4 bd 82 2f 73 3d c6 50 2a 3e
       -0.25128612 -0.11169166 0.05937148 0.16632375
000140 c4 c3 64 be cd 65 fa 3d 03 c1 7c 3e 7b d9 94 3e
       -0.22340304 0.12226448 0.24683003 0.29072174
000150 1d 1d 18 3d 92 1b ae 3e 28 4f 81 3d 2f fb 47 be
       0.03713714 0.3400541 0.06313926 -0.19529413
000160 51 d8 c8 3e 12 65 57 bd d5 ba ac 3e cf c7 8b be
       0.39227536 -0.052586623 0.33736292 -0.2730088
000170 22 b0 5c 3e 4b ed a3 be 08 11 0f 3f db fc 2d 3b
       0.21551564 -0.32016978 0.5588536 0.0026548419
000180 0a 34 c0 ba 01 2e 50 be 57 56 12 bd cd de 56 bc
       -0.0014663946 -0.20330049 -0.03572687 -0.013114643
000190 d0 f7 3e be 05 4e c0 3d cf 0f c0 3e d5 c9 bf 3d
       -0.1864922 0.09389881 0.3751206 0.09364668
0001a0 22 f1 86 bc 3d 77 ec bd 16 fc c2 be 51 40 c5 bd
       -0.016472403 -0.115461804 -0.3808295 -0.09631408
0001b0 0e ce 2f 3d a7 58 84 3c 53 81 dd 3d 7c 85 d5 bd
       0.04292112 0.016155554 0.10815682 -0.10425851
0001c0 25 9f bf 3c eb 66 38 3e 86 2e e9 3d 4d 94 8d bd
       0.023391316 0.1800801 0.11385827 -0.06913052
0001d0 5b 40 56 3e 16 c1 f2 bc 85 f8 89 bd be c5 8c be
       0.20922987 -0.029633086 -0.067368545 -0.27494615
0001e0 04 17 c4 3d 1d f7 bf bd 81 50 8f bd 86 5e 11 bd
       0.095747024 -0.09373305 -0.06997777 -0.035490535
0001f0 44 5c ec bc 98 61 4f be 0b 6b 49 3e f6 da 70 3c
       -0.02885259 -0.20252073 0.1966974 0.014700642
000200 cf 15 2d 3d 1e 63 98 be 97 6b b5 3e 00 db c5 3e
       0.042257126 -0.2976312 0.35433647 0.38643646
000210 06 08 a3 3e 96 7f c4 bd 92 ab 82 bb 45 40 ac 3d
       0.3184206 -0.095946476 -0.003987738 0.08410696
000220 0c 66 26 be 69 a3 91 3d 49 d9 bb bd 46 60 dc bd
       -0.16249865 0.07111246 -0.09172303 -0.1076055
000230 24 80 cd bd 33 10 23 bd 0b 1c 81 be 63 81 83 bd
       -0.100342065 -0.03981037 -0.25216708 -0.06421163
000240 41 31 07 3e b0 15 8c bc 46 a6 36 be 3b 9e dd be
       0.13202383 -0.017100185 -0.17836866 -0.43284783
000250 8d f5 02 be 25 cb 7f 3e 57 aa c3 bd 6d a1 d4 bd
       -0.12788983 0.24979837 -0.09553974 -0.10382352
000260 d6 b9 45 3e be 04 cc 3d fb 0d 84 3e 93 03 77 3e
       0.19309172 0.09961842 0.25791916 0.24122457
000270 4b 50 ac 3e 38 21 35 be 50 5b 3b be b5 1d 2f bd
       0.3365501 -0.17688453 -0.18296552 -0.04275294
000280 02 a4 d4 bd 0c 53 4e 3e b4 f6 41 3e 45 42 0f 3e
       -0.103828445 0.20148867 0.18941766 0.13990124
000290 62 07 32 3f 50 c5 d7 3c 76 9c cf 3c 82 34 50 be
       0.69542515 0.026339203 0.025343161 -0.2033253
0002a0 07 b2 1d bd 30 e5 d1 3e d5 21 8d bd d9 3f 1e be
       -0.03849986 0.4099517 -0.068912186 -0.15454043
0002b0 bb 86 76 bd 58 4a f2 be 25 db 76 be ac 45 69 3e
       -0.060187083 -0.47322345 -0.24107035 0.22780484
0002c0 21 09 81 be 01 bb ff 3e 97 15 d3 3d 32 9c da 3a
       -0.25202277 0.4994736 0.10306852 0.001667863
0002d0 e4 81 2c be cf 05 61 3e 7c 65 31 be e3 c8 7a 3e
       -0.16846424 0.21974872 -0.1732387 0.24490695
0002e0 da 75 7c bd 36 ca 04 bc 9b 0f b4 3d bb d9 17 3e
       -0.06163583 -0.0081048515 0.08792039 0.14829151
0002f0 6b 21 0a be ba 4a f2 3d 51 b6 86 bd a1 22 5e be
       -0.1348931 0.11830659 -0.06577743 -0.21692897
000300 fb 81 6a be 58 91 dd be 31 6a 8d 3e 3c ff 8e bc
       -0.22901146 -0.4327495 0.2762008 -0.01745569
000310 b9 03 13 3d 7e 20 9c 3d f4 4e aa 3e 7c cc c8 bd
       0.035892222 0.07623385 0.3326336 -0.09804627
000320 e2 17 6f bd 81 73 3a 3e ff 70 a4 be 0e 22 0e bf
       -0.058372386 0.18208124 -0.3211746 -0.55520713
000330 b0 31 fc 3d 05 6f 79 3e 65 60 b2 3e de 8d 37 be
       0.12314165 0.24358757 0.34839168 -0.17925212
000340 8a 29 ce be ff f0 04 3e 69 4f 99 3d 99 d7 2e bd
       -0.40266067 0.12982558 0.074858494 -0.04268608
000350 17 c2 37 bd f6 cf f9 3d ad e7 a4 3d 22 02 ab be
       -0.044862833 0.121978685 0.08052001 -0.33400065
000360 5b 9f f3 bd c5 6e 21 3e 79 67 bc be 1b 13 68 bd
       -0.11895629 0.15764911 -0.36797693 -0.056658845
000370 57 a1 2c 3c c9 bc 1a be 81 0a 36 bd 2e 4f 14 3d
       0.010536513 -0.15111078 -0.04444361 0.036208324
000380 4a 97 91 3d 48 d4 06 be e8 08 35 3f a0 01 84 bb
       0.07108934 -0.13166916 0.70716715 -0.004028514
000390 42 f7 a5 bd fd 6d c8 3e de c7 42 3e 25 73 1e 3e
       -0.08103801 0.39146414 0.19021556 0.15473612
0003a0 02 9c c2 3e 45 59 ca bc a8 56 07 be 29 8e 7e be
       0.3800965 -0.02470077 -0.1321665 -0.24858917
0003b0 dd fe e5 bd 87 34 0c 3e 6e f7 d9 bd 03 b2 02 be
       -0.11230252 0.13691913 -0.106428966 -0.12763219
0003c0 9b 32 6c 3d ca 1f 0e 3e ef ed c0 bc 99 95 dd bd
       0.05766545 0.13879314 -0.023550956 -0.10819549
0003d0 17 e2 c3 be 33 4a 95 3d 60 5d d4 bd 0e 40 23 be
       -0.3825843 0.07289543 -0.10369372 -0.15942404
0003e0 54 d2 d8 3d 88 e6 f5 bc 40 f7 2e bd 2c 57 fa be
       0.10586992 -0.030017152 -0.042716265 -0.48894632
0003f0 d1 61 91 bc c3 5b 3f 3e 25 34 56 be 1c 7c 33 3b
       -0.017746838 0.18687348 -0.20918329 0.0027387207

weight_hh_l0 f4 [512, 128]
000000 be 5d 1f 3e 5f 1e 2b be 5a 61 83 be 73 91 0b 3d
       0.15563104 -0.16710804 -0.2566021 0.034074258
000010 ab e5 b4 3d e6 47 cd 3d bf 74 ae 3d 94 f8 a7 bd
       0.08832868 0.10023479 0.08518361 -0.082017094
000020 46 5e d1 be ab 77 15 bd c7 1d a7 be 9b c0 0c be
       -0.40892237 -0.036491077 -0.32639906 -0.13745348
000030 9b a9 cf 3c ad 16 b8 bd 2f ea ed 3e 14 27 a2 3e
       0.025349429 -0.089887 0.4646773 0.3167044
000040 3a 8b 56 3d 76 ca 3e 3d 8e 4e db 3b 00 d7 a0 3d
       0.05237887 0.0465798 0.006692714 0.07853508
000050 40 08 07 bf 5a dc 28 3e 70 e2 af bd f7 74 18 be
       -0.52746964 0.16490307 -0.085881114 -0.14888369
000060 6f 6a 13 be 4c 66 dc be 2b 36 1e 3e ac 96 76 3b
       -0.1439607 -0.43046796 0.15450351 0.0037626429
000070 af 2c 93 be ac b2 a6 3d bb 0c 01 3f 29 ec 28 3d
       -0.28745028 0.08139548 0.5041005 0.041240845
000080 8f b9 67 3e c4 53 1b be f6 0e 16 bf 74 a1 86 3c
       0.22629379 -0.15168673 -0.5861658 0.016434409
000090 9d b7 43 3d 3d 53 c4 be 0e 44 1a 3e b8 81 c1 be
       0.04778253 -0.38344756 0.15065023 -0.3779428
0000a0 90 c9 42 be 83 43 ce bd 7c 33 e4 3d d9 35 6e 3e
       -0.19022202 -0.100714706 0.11142632 0.23262729
0000b0 ff 4e 99 be 80 75 35 3e 51 8a bd bd 99 0b b1 3e
       -0.29943082 0.17720604 -0.092548974 0.3457916
0000c0 30 70 24 3f a1 4e dc be 5f 0c 20 bf 5c ae fb bd
       0.64233685 -0.4302874 -0.62518877 -0.12289116
0000d0 16 ae bf be 2b c9 3d 3e 94 3c a2 be f2 a7 0a be
       -0.37437505 0.1853377 -0.31686842 -0.13540629
0000e0 91 44 0c bf 83 d9 8f bd 2a f0 a9 bc a5 5d b4 bd
       -0.54792124 -0.07023909 -0.020744402 -0.08806924
0000f0 7b e5 aa 3e 53 e9 8c 3e ac 7f 9e 3e e8 e1 2a 3e
       0.33378205 0.27521762 0.3095678 0.16687739
000100 9f 19 70 3e 7f b2 59 be 09 10 8c bd a5 e0 91 be
       0.23447274 -0.21259497 -0.06838996 -0.28491703
000110 44 a2 c3 3e 92 f3 19 3f 94 28 c6 3e b5 2c f9 3e
       0.38209736 0.60137284 0.38702834 0.4866692
000120 4e a8 82 3e 93 c4 ac 3d a8 95 ca bd 48 6d e3 3e
       0.2551903 0.08435931 -0.09891826 0.44419312
000130 de 0c 47 be bd ea d4 3e 5f 3c 7e 3e 28 9a a9 3e
       -0.19438502 0.4158534 0.24827717 0.33125424
000140 0b 6f 41 be 02 70 9b 3b de 5e 26 be 8b 67 2c 3d
       -0.18890016 0.004743577 -0.16247126 0.042090934
000150 6a aa e3 be 6e 2b 47 3e 3a 9e ff be cf 23 c4 be
       -0.44465953 0.19450161 -0.49925405 -0.3830857
000160 a3 ca 93 3e 14 1b 00 be b6 d6 d3 3d de 84 d9 bd
       0.28865537 -0.1251033 0.10343687 -0.106210455
000170 3e 71 c9 be 28 82 97 3e dd b4 b2 bd b2 1b fa bd
       -0.3934421 0.2959149 -0.08725903 -0.12212314
000180 9f de b7 be 69 45 b5 3e a9 4e 9d bd bf 97 80 be
       -0.35912034 0.35404518 -0.07681019 -0.25115773
000190 92 79 84 bd d2 2b b5 be 9a 71 8f be 67 d7 34 3f
       -0.064685 -0.35384995 -0.2801636 0.7064118
0001a0 f3 72 27 3d e3 0d cb bd 3a 27 93 3e 12 d5 e9 3e
       0.04088111 -0.09914758 0.28740865 0.45670372
0001b0 a0 5a 47 3e 99 e7 ad be 36 68 f3 bd ea e8 ed bc
       0.19468164 -0.33965757 -0.11885111 -0.029041726
0001c0 ea fc bb bd e6 e4 d5 be 0e ce d8 3d 63 35 b4 bd
       -0.09179099 -0.41776198 0.10586177 -0.08799245
0001d0 09 68 58 3e cb 61 ac be 3b 6d 70 3e c3 0b 2e 3d
       0.21133436 -0.3366836 0.23479168 0.042491686
0001e0 6e 50 4b 3e e9 11 24 be 9f 97 26 3f 91 46 a8 be
       0.198549 -0.16022457 0.65075105 -0.32866338
0001f0 91 57 58 be 7e 4c 00 bf d0 bb a0 be 7d 6d fc 3d
       -0.21127154 -0.5011672 -0.3139329 0.12325571
000200 6e 30 03 bf f5 be 76 bd 86 03 b5 be 7e a4 91 3d
       -0.5124577 -0.060240705 -0.3535425 0.071114525
000210 2b 09 a7 3d e5 55 1d 3d 8c 9e 8f 3d 79 54 51 bc
       0.081560455 0.038411994 0.07012662 -0.0127764875
000220 4d fb 93 3e b0 0b ef 3e 5d 2a 57 bd 16 54 8b bd
       0.28902665 0.46688604 -0.052530635 -0.068031475
000230 26 91 f9 bc 82 6d ff 3d 86 5a d7 3e 0f 01 01 be
       -0.03046472 0.12472059 0.4206125 -0.1259806
000240 52 d6 f1 3d f0 03 ff 3e 4e cd bb be 1c 79 20 3e
       0.118084565 0.49807692 -0.36680073 0.156712
000250 ef 0d dc be bd 39 db 3d bd 56 30 3d 2d 0c 92 3d
       -0.4297938 0.10704372 0.04305147 0.071312286
000260 4e 46 f5 bd 94 bb 89 be 45 6a 6e 3e 5f c7 49 be
       -0.119763 -0.26900923 0.23282726 -0.1970496
000270 bb 14 f7 be 12 96 43 3d 5d 86 ac 3e 3b ad 89 3e
       -0.48258004 0.04775054 0.3369626 0.26889977
000280 38 29 09 3e 22 07 82 be 76 f1 58 be be d1 5c 3d
       0.1339463 -0.25396067 -0.2118586 0.053910963
000290 06 c2 f3 3e f5 db b5 be 2a c4 03 3e fa 55 e4 be
       0.47608966 -0.35519376 0.128678 -0.44596845
0002a0 67 a2 2c 3e 4c fe 45 bd 8e 10 1a bc 5d bb 1f 3f
       0.16858827 -0.04833822 -0.009403361 0.6239527
0002b0 fe a7 bb 3d f7 f5 3c be 1b 8c 01 3e ff d3 0b 3f
       0.09162901 -0.18453203 0.12651102 0.54620355
0002c0 8e 52 a9 3e d6 21 4f be 38 df 65 3e 8e 99 f7 bd
       0.33070797 -0.20227751 0.22448432 -0.12089835
0002d0 b8 5a 40 be eb 4c 2a 3f e9 02 52 bf e3 12 b3 bc
       -0.18784606 0.6652362 -0.8203569 -0.021859592
0002e0 e8 93 2a bd af 0d 03 be 67 6e db 3e 75 21 64 be
       -0.04164496 -0.12798189 0.42857668 -0.22278388
0002f0 99 64 49 3e a9 81 bf 3d fa bd 08 bf 93 68 1f 3e
       0.19667281 0.093509026 -0.5341488 0.15567236
000300 16 56 8c 3e 28 5e aa 3e 54 1c 2a bd 7a 22 f8 3c
       0.27409428 0.3327496 -0.041530922 0.030289877
000310 ad 80 6a 3d a3 6f 92 3e 86 48 c9 3e 1a cb a6 be
       0.05725162 0.28600797 0.39313143 -0.3257683
000320 34 dd f0 3e 9e 2e ba 3e f6 21 4f be a3 4f 06 3d
       0.47043765 0.3636369 -0.20227799 0.03279079
000330 76 5d fd bd a2 c9 a6 3e ec a9 db 3e 9c 53 c5 3c
       -0.12371342 0.3257571 0.42903078 0.02408772
000340 47 7b a2 bd d9 78 19 bf 8f 6a e9 be 8d 9e ca 3e
       -0.079336695 -0.59950024 -0.4558911 0.3957409
000350 c4 fe c8 3e f4 92 ac bd 48 18 b2 3e 15 03 f3 bd
       0.3925687 -0.084264666 0.3478415 -0.11865822
000360 2e 3e 58 3e 1e 83 89 bd 0c 89 1a 3f dd 38 97 3d
       0.2111747 -0.06714462 0.60365367 0.07383893
000370 f9 d7 a2 3e b6 0f 57 be 44 50 1d be 33 9d fe bd
       0.318054 -0.21002087 -0.1536265 -0.12432327
000380 09 aa e7 3a f6 95 56 3d 09 84 89 3d 7b 66 9e 3e
       0.0017674576 0.052389108 0.06714637 0.3093756
000390 22 f0 9a be 85 45 e7 be 0a fe 99 be 5c b1 3b 3f
       -0.30261332 -0.45170227 -0.3007663 0.73317504
0003a0 c5 a2 9c 3e bf e1 c4 3e 8f 78 ac 3e 72 5b 98 be
       0.30592933 0.3845348 0.3368573 -0.29757267
0003b0 83 1a 96 be 6a d4 9f be 26 54 a4 bd f2 80 e7 3e
       -0.29317102 -0.31216747 -0.080238625 0.45215565
0003c0 ed 8e a5 be 0a fa 02 be b4 90 b8 3e 9f fc b7 be
       -0.32335606 -0.12790695 0.360479 -0.35934922
0003d0 c7 f5 6b be b0 a8 57 3e 15 e8 f4 3d 8e 15 93 be
       -0.23042975 0.21060443 0.11958329 -0.28727382
0003e0 3a 38 d8 be f3 3b d6 bd c8 10 16 be fa 8d d3 bd
       -0.42230397 -0.10460653 -0.14654839 -0.10329814
0003f0 1a 7e 0a bf a2 2d 34 bf d1 cf 95 bd b1 24 22 3e
       -0.54098666 -0.7038213 -0.073150285 0.15834309

bias_ih_l0 f4 [512]
000000 72 a8 5d 3e 4e 80 59 3e 60 74 c3 3e b7 f1 b1 3d
       0.21646288 0.2124035 0.38174725 0.086886816
000010 02 1f aa 3d 03 1d 94 3e da 4b 7b 3e 89 bb 1c 3e
       0.083066955 0.28928384 0.24540654 0.15305914
000020 43 fa aa 3e 77 65 39 3e 5e e2 2e 3e c9 b0 29 3e
       0.3339406 0.18105112 0.1707854 0.16571344
000030 00 f5 cd 3e 72 5c b1 3d f2 a7 b8 3e 74 3c 1e 3e
       0.40225983 0.08660211 0.36065632 0.15452749
000040 66 54 85 3d 49 79 2e 3e 25 cb 89 3d c0 62 4b 3e
       0.06510238 0.17038454 0.067282 0.19861889
000050 41 fb 4b 3e 8e 88 d2 3d 3f 63 01 3d 88 6b 3d 3e
       0.19920065 0.10279952 0.03158879 0.18498051
000060 0f 37 7a 3e 5d 1f 17 3e 4e cf 01 3e 4c 6e 13 3e
       0.24435066 0.14758058 0.12676737 0.14397544
000070 f7 36 24 3e 4d a8 3c 3e 5e 9f 05 3e d0 63 dd 3c
       0.16036592 0.18423577 0.13049075 0.027025133
000080 62 22 16 3e 9b 77 ed 3d 5c 09 e6 3d 3a 2c aa 3e
       0.14661554 0.115950786 0.11232254 0.33236867
000090 d1 1a 9e 3e 64 1d e8 3d 59 94 0d bc da 6e 86 3d
       0.30879834 0.11333731 -0.008641326 0.06564112
0000a0 c5 c6 fd 3d cc ff 9c 3c 91 d0 2c 3e 96 e3 50 3e
       0.12391428 0.019164942 0.16876437 0.20399317
0000b0 cc 1a 7b 3e 9c 40 5a 3e 04 2a d9 3d d5 b9 70 3e
       0.24521941 0.21313709 0.10603717 0.2350839
0000c0 41 ad ab 3d 5f a7 97 3d 3d ef 08 3e 63 4d d2 3d
       0.08382655 0.074049704 0.13372512 0.102686666
0000d0 c2 26 81 3e 38 7d bb 3e e7 b9 84 3e 23 c4 ac 3e
       0.25224882 0.36618972 0.25923082 0.3374339
0000e0 b3 a8 5a 3e 35 33 d2 3d 42 e0 14 3e 92 7e 23 3e
       0.21353416 0.10263673 0.14538673 0.15966251
0000f0 05 4b 22 3e 36 b5 3e 3e b2 68 45 3e 9f 4e de 3d
       0.1584893 0.18623814 0.1927822 0.108548395
000100 c8 38 27 bb 7c 02 76 3e fd 23 a0 bc ba be 0e 3e
       -0.0025516022 0.24024385 -0.01954841 0.13939944
000110 1d 2a 8b 3e 0b 31 bd 3d 72 4d 08 bd b9 21 85 3e
       0.27180567 0.0923787 -0.033276983 0.2600229
000120 1f 44 36 3e f6 1d 34 3e 1d ea 0e 3e d7 28 41 3e
       0.17799424 0.17589554 0.13956495 0.18863235
000130 b4 0d 03 3e 8b e3 08 3e 28 69 39 3e 71 f6 2e 3e
       0.12798196 0.13368051 0.1810652 0.17086197
000140 c6 76 84 3e 11 db 85 3e b7 28 73 3e a2 75 8d 3e
       0.25871867 0.26143697 0.23746 0.2762881
000150 f4 5e 65 3e 74 40 b9 3e 14 f6 8f 3e 6a 4f 1e 3e
       0.22399503 0.36181986 0.2811743 0.15459982
000160 df 4f a2 3d cf 64 7a 3e b1 1c cc 3c ba 94 49 3d
       0.079253905 0.24452518 0.024916025 0.049214102
000170 ac aa 4a 3e fc 7d 31 3e 4f b6 01 3d 40 c5 42 3e
       0.19791669 0.17333215 0.031668004 0.19020557
000180 3f c8 58 3e 77 53 01 3e a5 7c 28 3e e5 74 2e 3d
       0.21170138 0.12629496 0.16453798 0.042591948
000190 6e c7 c6 3d f9 3e ac 3e 0c 0b ec 3d 05 9f 0a 3e
       0.09706007 0.33641794 0.115255445 0.13537224
0001a0 fd 6c bc 3e 2c 07 99 3c fe a8 ee 3d ba 92 49 3e
       0.368019 0.018680178 0.116533265 0.19684878
0001b0 19 55 e7 3d 34 2d 38 3e 9b c5 1d 3e 15 87 37 3e
       0.11295528 0.17985994 0.15407412 0.17922623
0001c0 62 69 4e 3e 54 6d 2b 3e f4 f8 2b 3e db 58 40 3e
       0.20157388 0.16740924 0.16794187 0.18783896
0001d0 67 f8 b0 3d 18 8f 7c 3e fa 64 5c bc 50 f9 f1 3d
       0.08641129 0.24663961 -0.013451809 0.11815131
0001e0 85 23 54 3d eb 1c 90 3e a3 92 4b 3d 28 f7 56 3e
       0.051791687 0.28147063 0.04970039 0.2099272
0001f0 f9 76 f7 3d 01 20 40 3e 48 2d 3c 3e 0d b2 4a 3c
       0.12083239 0.18762209 0.18376648 0.012371552
000200 44 d2 86 be 28 ab 0f be 9f 20 90 3d e9 4e f7 3d
       -0.26332295 -0.14030135 0.07037472 0.12075598
000210 08 4c 93 bd 72 bc a6 3d 7f fe b5 3c 2a 25 c2 3d
       -0.07192236 0.08141412 0.02221608 0.09479745
000220 0b a5 40 bd 71 26 02 3e 17 2e 89 be 3a bf 32 3d
       -0.047032397 0.12709977 -0.26792976 0.0436394
000230 84 15 7b bc 72 28 4d 3d 1f 53 82 bd 3c 9d 33 3e
       -0.015324954 0.0500874 -0.0636351 0.17540449
000240 6e 16 9e bd 4d 89 a2 3c 85 5e ab bd e1 c7 5b bc
       -0.07719122 0.01984086 -0.083676375 -0.013414354
000250 c5 f3 54 bd e3 8b 49 bd e9 a6 10 be ae f9 17 3e
       -0.05199029 -0.049205672 -0.14126171 0.14841339
000260 9d 56 cf bc 9b 27 e5 b9 89 5a 8b 3d 81 b7 0e bd
       -0.025309855 -0.00043707792 0.068043776 -0.03484297
000270 ea 8a 10 be 39 d5 e1 bc 6b f7 f7 3c b2 48 ea 3d
       -0.14115492 -0.027567493 0.030269345 0.11439647
000280 d0 03 38 be 75 39 9e 3d 26 22 83 3d bb 59 0c be
       -0.17970204 0.07725803 0.06402998 -0.13706104
000290 3e b9 c7 bd 5f 62 14 be 56 f3 51 bd bf 8d 51 be
       -0.09752129 -0.1449065 -0.051257454 -0.20464228
0002a0 98 e5 8f 3d 6a e3 f4 3d a1 ed ef ba 5a f9 70 3d
       0.070262134 0.11957438 -0.0018305072 0.05883155
0002b0 a9 2f ad bd d4 e5 d5 3d 33 e0 16 be 51 f2 82 3d
       -0.08456356 0.10444227 -0.14733963 0.063938744
0002c0 2a a9 99 3d 32 db 32 be 39 32 f3 bd 50 d7 27 be
       0.075029686 -0.17466429 -0.118748136 -0.16390729
0002d0 ff 29 88 3d 66 b1 27 3d d6 bc de 3c 36 0a 11 bd
       0.06648635 0.040940665 0.027189653 -0.03541013
0002e0 4d b2 dc 3c 6e d2 a0 bd 11 1f 01 be 17 f1 0a 3e
       0.02694049 -0.07852636 -0.12609507 0.13568531
0002f0 b0 6d 92 3c 17 2b a5 3c 18 36 31 3e 95 d1 94 bd
       0.017874569 0.020162148 0.17305791 -0.07266537
000300 4b 46 8a bc 08 38 87 3d f0 10 9a bd 68 ae 03 3e
       -0.016879221 0.06602484 -0.07522762 0.128595
000310 bb 07 55 3e dd 87 27 bb c2 e2 aa bd f7 68 cd 3d
       0.2080373 -0.0025563159 -0.08344032 0.10029786
000320 d7 c5 ff 3c 3a 5c 89 3d d1 d1 1e 3d d8 15 04 bd
       0.031222267 0.06707044 0.038774315 -0.032247394
000330 e1 1b c0 bd d1 95 d1 bd 8f 1d 3b be 14 55 2b bd
       -0.093803175 -0.10233653 -0.18272994 -0.041829184
000340 35 3f df bd 16 22 b5 3a 03 bb 27 ba 08 27 f7 3c
       -0.10900728 0.0013819363 -0.00063984114 0.030169979
000350 ef 20 43 be df b9 db bd 2b ad 1c be 6c 9a 3e be
       -0.19055532 -0.107288115 -0.15300433 -0.18613595
000360 15 ed 03 3d 2c 4d e1 3b c6 91 d7 bd a4 db 9d 3b
       0.03220852 0.0068756547 -0.10525851 0.004817443
000370 9e 9f 0e 3d 2b e8 c9 3c 43 b0 ad bd 52 e3 fc 3d
       0.03482019 0.02464684 -0.08480885 0.123480454
000380 a4 a4 d9 bb a2 39 32 bc 9e 6f 54 be e1 e0 df bd
       -0.006641941 -0.010877999 -0.20745704 -0.10931564
000390 ba 04 10 be 4b 99 3c be 16 3a 04 3c 8d 82 11 3b
       -0.14064303 -0.18417852 0.008070489 0.0022203058
0003a0 d6 c7 7e bc 92 ad bc bd ab e8 f3 3d f7 62 52 3e
       -0.015550574 -0.092127934 0.11909612 0.20545565
0003b0 6a ed 6f 3d 7a 8e d5 bd 3c 2a 5f bd e6 0c ad 3d
       0.058576025 -0.10427566 -0.054483637 0.08449726
0003c0 81 30 18 bd 14 f3 b9 3c aa 7b d1 3c da 28 12 3d
       -0.037155632 0.022698916 0.025571663 0.03568349
0003d0 c8 ca e9 bc 01 11 61 bd 2b a0 9b bc 94 92 25 bd
       -0.028539076 -0.054947857 -0.018997272 -0.04042299
0003e0 71 cc 44 3d 94 c5 09 be 57 08 24 3d 4f 73 d8 bd
       0.048046533 -0.13454276 0.040047016 -0.10568868
0003f0 f1 3c 90 bd e0 ff da bd e9 14 8f 3d cc 06 2f bd
       -0.07042874 -0.106933355 0.0698641 -0.04273109

bias_hh_l0 f4 [512]
000000 0c fd f7 3d eb 93 5f 3e a7 b7 96 3e f5 5d 68 3d
       0.12108812 0.2183377 0.2943699 0.05673023
000010 7c 6a 0c bb 4b a9 86 3e d0 8a 67 3e cb ab 51 3e
       -0.0021425774 0.26301035 0.22611547 0.2047569
000020 44 10 22 3e 55 3f 55 3e 48 21 d8 3d db 03 2f 3e
       0.15826517 0.2082494 0.10553223 0.17091314
000030 de 00 ca 3e ec a9 d3 3d b3 d7 8d 3e a6 e2 77 3e
       0.39453787 0.103351444 0.27703628 0.24207553
000040 2f a6 7c 3d 3a a3 93 3e 78 44 a7 3c 2e 67 81 3e
       0.061681923 0.2883547 0.02041839 0.25274032
000050 61 37 f9 3d c2 78 3c 3e 50 01 d5 bc 5f d9 a7 3e
       0.12168766 0.1840544 -0.026001602 0.32783028
000060 73 2e a9 3d dd c4 34 3e 48 70 ae 3d f2 ec 77 3e
       0.082608126 0.17653222 0.0851751 0.24211481
000070 6d 57 28 3d 8f 22 5c 3e 7a 8c 5a 3d 2b 6e b7 3d
       0.041099 0.21497558 0.053356625 0.0895656
000080 dd 05 15 3e 0a 46 7b 3e 78 ad 8f 3d ec 79 9e 3e
       0.14553018 0.24538437 0.070155084 0.30952394
000090 8e a4 b6 3e 26 63 22 3e a9 47 c4 bb e2 83 50 3d
       0.3567242 0.15858135 -0.005989988 0.050907023
0000a0 86 89 54 3e f0 9d cd bc 34 de 21 3e ad b1 fd 3d
       0.20755586 -0.025099725 0.1580742 0.123874046
0000b0 a7 73 ab 3e 6e 7e 8d 3e 13 66 36 3e 84 17 67 3e
       0.33486673 0.2763552 0.17812376 0.22567564
0000c0 33 c4 9f 3d ca d9 51 3d 52 b3 04 3e 2f 3f 13 3e
       0.07801094 0.05123309 0.1295903 0.14379571
0000d0 7d 64 34 3e 3b ae 65 3e 64 8c 9e 3e f7 d5 93 3e
       0.17616458 0.22429745 0.30966485 0.2887418
0000e0 82 d0 56 3e 40 e3 f2 3d 9a 6c 12 3e f9 20 8e 3c
       0.20977977 0.11859751 0.1429924 0.017349707
0000f0 38 f9 48 3d 98 1b 8b 3d d1 53 3a 3e cc a1 22 3e
       0.0490658 0.067923725 0.18196036 0.15882033
000100 e8 35 cf 3c 84 27 35 3e d9 12 bc bd 50 a8 36 3e
       0.02529426 0.17690855 -0.091832824 0.17837644
000110 dc 15 4c 3e 8b ce d3 3d f0 b5 2a 3d d8 b6 89 3e
       0.19930214 0.10342129 0.041677415 0.2689731
000120 08 46 7c 3e f2 47 61 3e a9 06 c0 3d 39 26 52 3e
       0.2463609 0.22000101 0.0937627 0.20522393
000130 f3 33 49 3e ae 55 cb 3d 06 cc c9 3d db e2 c4 3d
       0.19648723 0.099284515 0.098533675 0.09613582
000140 99 29 70 3e 3e df 2d 3e d3 5b 7f 3e 15 59 0b 3e
       0.23453368 0.16979691 0.24937372 0.13608201
000150 33 6f bb 3d d5 f4 82 3e d6 8e a2 3e 4b 54 44 3e
       0.09152069 0.25577417 0.317496 0.1917278
000160 aa 76 10 3d 7f 83 97 3e cd 4d 7d 3d 58 35 e0 3c
       0.035269417 0.2959251 0.061841775 0.027369186
000170 7e b7 d5 3d 2b 78 a2 3e 6d b6 5f 3d 6f 1d 50 3e
       0.10435389 0.31732306 0.054617334 0.20323728
000180 2f af f6 3d de 2b ab 3d b3 43 09 3e 37 16 04 3e
       0.12045132 0.083579764 0.13404731 0.128991
000190 3e 7d 29 3d 1a 19 87 3e 6c ae 41 3e 4a 5e 01 3e
       0.041379206 0.26386338 0.18914193 0.12633625
0001a0 c0 6f 8c 3e 35 da 17 3e cd 88 03 3e e7 4a df 3d
       0.27429008 0.14829333 0.12845154 0.10902958
0001b0 a0 91 3b 3d e0 f2 b2 3d b3 f3 8b 3e 7f b9 1b 3e
       0.045793176 0.08737731 0.27334365 0.1520748
0001c0 61 9e 48 3e b7 68 3c 3e 5a 56 82 3d 6a 4f 82 3d
       0.19591667 0.1839932 0.063641265 0.06362803
0001d0 68 19 f0 3d b1 5b 4a 3e 58 9d f9 3d ea 7d 4b 3e
       0.11723596 0.1976154 0.12188214 0.19872251
0001e0 94 f5 11 3e fe 3d bc 3e 7a 4b 68 3d 01 5f cb 3d
       0.14253837 0.36766046 0.056712605 0.0993023
0001f0 e5 b4 7a 3c c4 0e 0f 3e 2f 50 17 3e d4 2f 0f 3d
       0.015301918 0.13970476 0.14776681 0.03495772
000200 c4 ec 13 be 11 81 5b be 81 4e c5 3d e0 44 90 bb
       -0.14445788 -0.21435954 0.09634114 -0.004402742
000210 7c c8 dc bd 3c 0f e4 bc ba 11 13 bd 78 bc 15 3e
       -0.10780427 -0.027839296 -0.035905577 0.14622676
000220 c3 12 51 bd 10 d8 1a 3e 36 2d 8a be 85 8d 5c 3d
       -0.051043283 0.15121484 -0.26987618 0.0538459
000230 eb bf 02 3d 4f 93 a6 3d c2 db d6 bd 3c 9b 33 3e
       0.03192131 0.08133566 -0.10491134 0.17539686
000240 08 fe 1e 3c c0 e5 88 3c af 3e 35 be 64 0f a5 bd
       0.00970412 0.016711116 -0.17699693 -0.08059576
000250 7c 1e dc bd cc 13 52 bd f0 d2 37 be 63 6d 51 3e
       -0.10748002 -0.05128841 -0.1795156 0.20451884
000260 9f 79 01 3d 57 0f a3 bc 1c 6a 75 bd 0e 7a b6 bd
       0.031610128 -0.019904776 -0.059915647 -0.08909999
000270 da 09 27 be a4 6b a2 bd fe 62 dc 3d f1 79 5e 3d
       -0.16312352 -0.07930687 0.10761069 0.05431551
000280 52 e9 31 be bb 56 8b 3d a1 97 61 3d d2 ed 25 be
       -0.17374161 0.06803652 0.055076245 -0.16204002
000290 9a fa e4 bd fa 91 ba bd 23 44 6e bd c5 0a ea bd
       -0.11180611 -0.09109874 -0.05817045 -0.114278354
0002a0 66 3e ef 3c e3 ca 24 3e 3b 39 8f bd 14 9f 24 bd
       0.029204559 0.1609302 -0.06993338 -0.04019077
0002b0 76 d1 9c bd 1d f3 38 3d 8d 61 3c bd 63 65 74 3b
       -0.07657139 0.045153726 -0.04599147 0.0037291877
0002c0 d0 5f e0 3d 98 fc df bd 7d d5 11 be 73 2d 77 be
       0.10955775 -0.1093685 -0.14241596 -0.24138431
0002d0 71 4e 61 3d 11 62 dd bc 11 31 38 bd c4 d5 1a bd
       0.05500645 -0.0270243 -0.04496867 -0.03780152
0002e0 62 1a 9f bd 64 16 a4 3d e7 24 15 bd 0e 1a 4f 3e
       -0.07768704 0.08012083 -0.036412146 0.20224783
0002f0 ac 0e 47 bc 96 94 75 bd 0b 8f e9 3d b8 d2 8c bd
       -0.012149494 -0.059956156 0.114042364 -0.06876129
000300 cc 0c ad 3d 42 9e ef 3d 6f 7c 7b bd e4 84 3e 3e
       0.084497064 0.11700107 -0.061397966 0.18605381
000310 e5 0b 68 3e c6 26 24 bc f3 f7 bc bc 7c 13 c8 bb
       0.22660787 -0.01001901 -0.02306745 -0.0061058383
000320 e0 5b 3b bd 87 52 95 bd 7a a7 8b bc 64 e7 d4 3d
       -0.045741916 -0.072911315 -0.017047632 0.10395697
000330 e1 9c a1 bd 88 74 45 be 51 81 12 be 30 64 1c be
       -0.078912504 -0.19282734 -0.14307143 -0.15272593
000340 c2 73 54 be c3 e8 9b bc e8 3b 62 bd ee 0b 0d 3e
       -0.20747283 -0.019031888 -0.055232912 0.13774082
000350 0f 13 ef bd 1e 1c 34 be c6 70 9d bc b8 8d 4d be
       -0.11673557 -0.17588851 -0.019218814 -0.20073593
000360 4f 87 bc 3d ab 82 17 3e ec 34 b3 bd 86 01 97 bd
       0.092054956 0.1479594 -0.087503284 -0.073733374
000370 b0 3d 00 3e bb b4 3f 3d 26 78 7c bd 75 c0 89 3c
       0.12523532 0.046803217 -0.06163802 0.016815403
000380 5c 2f ab 3c e0 16 2f 3d 42 ec e0 bd a6 16 06 be
       0.020896606 0.042746425 -0.109825626 -0.13094577
000390 4b 10 5a be 75 79 28 be 1a 4b 69 3d 2c 71 a4 bd
       -0.21295278 -0.16452582 0.056956388 -0.08029398
0003a0 2d 23 10 3d d7 18 63 bd 2d d0 5f 3d e4 71 27 3e
       0.035189796 -0.05544361 0.05464189 0.1635204
0003b0 f9 0f b1 3d f2 1b 9a bd 5a fd 27 bd b0 3a 21 3c
       0.08645625 -0.075248614 -0.0410131 0.009840652
0003c0 1e cf d9 bc d4 37 b7 3d 70 8c f6 bc 1e da 5d 3d
       -0.026588019 0.08946195 -0.030096263 0.05416309
0003d0 04 bf b0 3c 71 8b 57 bd e5 e1 a9 bc 77 f6 12 bd
       0.021575458 -0.052623216 -0.020737598 -0.03587958
0003e0 09 55 9c bd be 9d f4 bd af c5 03 3e 2f a0 53 3c
       -0.07633407 -0.119441494 0.12868379 0.012916609
0003f0 9a 82 84 bd 04 49 35 be e0 52 e6 3d cd 6e 6f bd
       -0.06470223 -0.17703635 0.11246276 -0.058455277

weight f4 [29, 128]
000000 aa 1a 8b bd 8b 69 98 3e b1 b3 06 bd 13 d0 a2 3d
       -0.06792195 0.29768023 -0.03288621 0.07949843
000010 85 51 b1 bd e2 06 b5 3d b8 02 ce bc 7e af e6 3d
       -0.08658127 0.088392034 -0.02514778 0.11263941
000020 5e 98 30 be 46 23 2c 3d 03 1c a3 3d 63 d7 8b be
       -0.17245623 0.042025827 0.07964327 -0.27312765
000030 f2 a8 11 be 5c 31 b5 bd 7c 8d b7 3d 1d cf 0d bd
       -0.14224604 -0.08847305 0.08962533 -0.034621347
000040 40 39 9b 3d 9a f4 02 3e 27 b0 84 be f1 dc 6e 3e
       0.07579279 0.1278862 -0.25915644 0.2332647
000050 4c 4f 84 3e 82 b3 05 3e 5a d9 9d be 24 5e c5 bd
       0.2584175 0.13056758 -0.3082989 -0.096370965
000060 60 36 17 bd 5f 9f 4c bd 05 5d 93 3d 8f 16 dd 3d
       -0.03691709 -0.049956676 0.071954764 0.10795318
000070 74 93 86 3e 60 57 11 be cd 51 fe 3d fe 9b 88 3d
       0.26284373 -0.14193487 0.12417946 0.06670378
000080 1e f1 95 be 9c 26 1c be bd 47 2b be fe d3 83 bd
       -0.2928552 -0.15249103 -0.16726585 -0.06436919
000090 c0 2b 2d 3e 2a ad 25 3e 39 aa 84 be 5d 31 07 3f
       0.1691122 0.16179338 -0.2591112 0.528097
0000a0 15 b2 0f 3e aa 3b fc bd 95 d5 11 3e 73 7e cf 3d
       0.14032777 -0.123160675 0.14241631 0.1013154
0000b0 15 1d e5 bc 81 46 ac 3d 40 be b0 3e e2 2c 11 3e
       -0.027967969 0.08411885 0.3452015 0.14177278
0000c0 b4 2b 84 bc 99 01 79 3e cf 7e 09 3e f8 e7 b3 bd
       -0.01613412 0.24317016 0.1342728 -0.08784479
0000d0 b1 78 1d 3d 03 44 9f bd 2f a2 80 bc 98 f3 06 be
       0.03844518 -0.07776644 -0.015702335 -0.13178861
0000e0 f2 5e 93 3e 31 ab d4 3d 38 38 f5 3b a9 07 e4 3c
       0.28783375 0.10384215 0.0074835084 0.027835684
0000f0 73 19 15 bd 4d 06 7d be 25 62 92 bd 0c 5f 6f 3e
       -0.036401223 -0.24709435 -0.07147626 0.23376101
000100 85 f2 da bd 86 b8 f8 bd d3 85 33 3e 1c 8b c1 bd
       -0.10690788 -0.1214457 0.17531519 -0.09450361
000110 1a 56 d1 3d 18 c2 91 3d 86 e6 83 3e c7 3c 86 3d
       0.10221501 0.071170986 0.25761813 0.06554561
000120 91 ef e5 3d 2a ef 01 3d e2 06 d3 bd 27 ae a3 3d
       0.11227334 0.031722225 -0.10304047 0.07992201
000130 10 de 16 be 0f 44 80 be d8 7d 73 be db 86 a6 bc
       -0.14733148 -0.25051925 -0.23778474 -0.020327976
000140 78 17 93 3e 02 cb f4 3d b3 5b 36 3d 87 3f d2 3d
       0.28728843 0.11952783 0.044521045 0.10266023
000150 03 a4 96 3d fa 17 31 be 09 4c 83 3c 5d df 4f 3e
       0.073555015 -0.17294303 0.016027467 0.2030005
000160 79 a0 6d 3d 35 27 9a 3d 0b 05 37 3d 0a 6a 82 3d
       0.058014367 0.075270094 0.044682544 0.063678816
000170 b4 8e 94 bd b6 71 0d 3d 06 35 a8 bd dc 94 9e bd
       -0.07253781 0.03453227 -0.082132384 -0.077432364
000180 e7 e9 8e bd b6 b0 12 3e c9 0a 8f 3d 0d 5a ad bc
       -0.06978207 0.14325222 0.06984479 -0.021161104
000190 d4 ba 09 be 45 79 de bd 0e 53 c8 bd 45 3e c4 be
       -0.13450176 -0.10862974 -0.097814664 -0.38328758
0001a0 29 23 26 3d 7a 00 4d 3e 86 e7 10 3e c7 e3 83 3d
       0.040560875 0.20019713 0.14150819 0.064399295
0001b0 64 04 cd 3d a1 b9 1e be 58 75 4d be a9 3b f3 bd
       0.10010603 -0.155005 -0.20064294 -0.11876614
0001c0 bc 1a 0c 3e 32 08 b7 bd 1b a2 12 3e 8e 53 f1 bd
       0.13682073 -0.0893711 0.14319651 -0.11783515
0001d0 48 5a 72 3e f5 cd e3 3d 36 aa 9a 3d 62 a4 1c 3e
       0.23667252 0.111232676 0.075519964 0.15297082
0001e0 56 dc 0e 3e e6 ef 72 3e 82 df 99 3d e1 6b ee 3c
       0.13951239 0.23724326 0.07513334 0.029104175
0001f0 b8 64 78 bd 05 6f 0a 3e a9 05 fe 3c ae ba af 3e
       -0.060642928 0.13518913 0.031008558 0.34322113
000200 1d ea c5 bd d4 f7 5c be 4e 24 28 bd 6f a1 5d 3e
       -0.09663794 -0.21578914 -0.041050248 0.21643613
000210 e8 12 fb 3d 00 d6 fa 3d 01 56 05 3d 99 d4 06 3e
       0.122594655 0.122478485 0.032552723 0.13167037
000220 35 5d d6 bd 9c a4 6a 3b ff 48 2b bd cb fa 0e be
       -0.104669966 0.0035803681 -0.04181766 -0.13962857
000230 85 e0 6e 3d ca 1f 7f 3d 53 d2 f8 bc 28 5d d0 bd
       0.058319587 0.062286176 -0.030373728 -0.10174018
000240 ab 7f b8 3d 88 01 89 be ed ab 73 bd 53 c2 f2 3b
       0.09008726 -0.2675898 -0.059490133 0.007408419
000250 60 37 f6 bd d7 f1 0e be 15 e0 c0 3d f0 10 8f bd
       -0.12022281 -0.13959442 0.0941774 -0.069856524
000260 5d 2c 07 3e 51 8c 1c be 38 fd c8 bd 8b bf c6 be
       0.13200517 -0.15287901 -0.09813923 -0.3881801
000270 b8 5a 2e be 5a 5f 43 3e 2b b6 d5 bd d6 ce be 3e
       -0.17026794 0.19079342 -0.104351364 0.37267178
000280 9d 49 0d 3d f3 13 e5 bd 32 1e 1b be cd 10 8b bd
       0.03449403 -0.11185446 -0.15148237 -0.06790314
000290 da a7 a0 be 88 f7 8a bd ad 1b 05 3e d8 96 2a bc
       -0.3137806 -0.06785494 0.12998839 -0.0104119405
0002a0 b6 b9 55 3c d6 ad 00 be 61 7a ef bd 9a 32 80 3d
       0.013044765 -0.12566313 -0.11693264 0.062596515
0002b0 57 b7 28 3d 79 77 30 bd 1b 0c ca 3d 17 30 a3 3c
       0.04119047 -0.043082688 0.0986559 0.019920392
0002c0 29 65 11 be 44 6b 85 be eb f3 2a bc 79 b3 f8 bd
       -0.14198746 -0.260584 -0.010434131 -0.12143607
0002d0 93 96 c4 3c 11 21 b1 3d d3 f9 40 bd e5 1a 12 3f
       0.02399758 0.08648885 -0.04711325 0.5707229
0002e0 ac 11 cf bd 39 7c 8e 3e 32 44 99 3d 72 7b c7 bb
       -0.101107925 0.2782915 0.0748371 -0.006087714
0002f0 3f 11 67 3d 15 fc f8 3d 3d da 0f be 91 78 81 be
       0.05641293 0.12157456 -0.14048095 -0.25287297
000300 5d b3 49 be c2 88 74 3e bc 12 2e 3d fa cb 34 be
       -0.19697328 0.23880294 0.042498335 -0.17655936
000310 53 f7 04 3e e3 93 eb 3c 46 22 cb 3d f2 d1 fa bb
       0.12984972 0.028757041 0.099186465 -0.007654422
000320 e2 ff a3 3d 3a 67 4a be 84 16 c8 bd 48 48 88 3d
       0.0800779 -0.1976594 -0.097699195 0.066544116
000330 95 37 ce 3e ed d1 1c bd 1e ea fb bc 36 0b 9b 3e
       0.4027678 -0.03828614 -0.030751284 0.3028199
000340 77 de b2 be c0 d5 7f 3d 5d 3b 6b bb e8 0d e1 be
       -0.34935352 0.062459707 -0.0035893538 -0.43955922
000350 ed 58 89 3e f0 7c 7f 3e b7 ac 81 bc de 23 ae be
       0.26825657 0.24950004 -0.015829427 -0.3401174
000360 62 88 a0 3d fb 25 19 3c eb 20 84 3e ef d0 b7 bd
       0.07838513 0.009347434 0.25806364 -0.08975398
000370 ab 33 fd 3e 33 0e 90 bc 02 9f bd bd 96 fd f2 3d
       0.49453482 -0.017584896 -0.09258844 0.11864774
000380 0f 7b 99 3d ab 97 56 3e 1d 05 2e 3d 58 db 11 3d
       0.07494175 0.20956294 0.042485345 0.035609573
000390 ea 5d 7d 3e 56 7a a2 3c 97 3a 96 bd df 8d d7 3d
       0.24742857 0.019833725 -0.07335394 0.10525107
0003a0 00 83 bc 3d 66 1e 06 3e 6a 77 66 be 94 5a 83 3d
       0.09204674 0.13097534 -0.2250649 0.06413761
0003b0 f5 1a 18 bf 87 ca cb be 71 9c 24 3e f8 dc 6f 3e
       -0.59416133 -0.39802954 0.16075303 0.23424137
0003c0 67 c0 66 3e 4e 53 32 3e 31 b9 17 3e 16 c8 0a bd
       0.22534333 0.1741459 0.14816739 -0.033882223
0003d0 81 c3 85 3d ee 02 25 be 1c 91 0d 3d a5 30 16 3d
       0.0653143 -0.16114399 0.034562215 0.036667485
0003e0 1a ff 7f be 96 48 b7 3b 87 b5 b7 bc 97 0f bf bb
       -0.24999657 0.0055933697 -0.022425426 -0.005830716
0003f0 54 dd 56 be 26 e8 75 be 7d 2d 9b bc 60 fb da bb
       -0.20982867 -0.24014339 -0.018942589 -0.0066827983

bias f4 [29]
000000 ba a8 ba 3e e7 47 eb bd a3 d6 be 3e 96 4c f9 3d
       0.36456853 -0.11488324 0.3727313 0.12172811
000010 21 55 82 3e 3b dc 6d be fc c0 e4 bd a3 08 8b be
       0.25455573 -0.23228543 -0.11169621 -0.27155027
000020 29 16 f2 3d de 8c 32 bf d4 e9 19 bf bc 6b 90 3d
       0.11820633 -0.69746196 -0.6012242 0.07051799
000030 41 f1 79 3d 1d 7f 35 3e 29 3a 35 bd 56 3e 91 bd
       0.061021093 0.17724271 -0.04424492 -0.07091968
000040 d7 1d 1f bf 71 15 bf 3e ae 16 5f 3e 45 99 88 3e
       -0.62154907 0.37321046 0.21785995 0.26679435
000050 98 2a 97 be 9c fc b2 be a0 f4 f8 be d1 08 40 bf
       -0.29524684 -0.3495835 -0.48624134 -0.7501345
000060 e7 71 0e bf f2 4f 2e bf 93 e2 13 bf 05 c7 27 bd
       -0.5564255 -0.68090737 -0.577676 -0.040961284
000070 d5 1b 16 bf
       -0.5863622
