models/LSTM/128/ESEN_60-40/ESEN_60-40_4_threshold_val_36.pt (torch, 353807 bytes, 7 tensors)

weight f4 [29, 32]
000000 69 7a fa 3e 05 7e 26 3f 7d 91 92 3f db 68 5c 3e
       0.48921517 0.6503604 1.145065 0.21524374
000010 d4 1c 80 be dc ec eb be d1 de ac 3f f9 43 29 3e
       -0.25021994 -0.46079147 1.3505498 0.16529836
000020 77 87 c9 bf 3a ae ac 3e 01 1d eb bd d3 09 26 bf
       -1.5744466 0.33726674 -0.114801414 -0.6485874
000030 28 17 a3 bf ac ea 7d bf 41 7e cb be 05 ae bb bf
       -1.2741442 -0.99186206 -0.39744762 -1.4662482
000040 f9 af 81 bf e7 5a ea bd 81 72 97 3f 21 39 40 c0
       -1.0131828 -0.114431195 1.1831819 -3.0034869
000050 3b eb 73 3f 12 93 81 be 62 1a c9 3f 8f 68 99 bf
       0.9528081 -0.25307518 1.5711176 -1.1985034
000060 68 2d 90 bf a0 47 83 be 2d bf 85 bf 4c 70 2a 3f
       -1.1263857 -0.25640583 -1.0448967 0.665776
000070 5e 3c 89 3f a8 a2 9f bf 1b 69 9b bf 39 c5 3d 3f
       1.0721548 -1.2471514 -1.2141451 0.7412906
000080 6d fa 6b 3f 8f 47 f9 bf 25 06 c9 3f db c4 27 c0
       0.92178994 -1.9474963 1.5705 -2.62139
000090 2e 23 4c bf 66 28 8e be f1 70 8f 3e af 2d 2d c0
       -0.7974118 -0.27765197 0.28015855 -2.7059133
0000a0 73 88 32 39 f6 3f 1e 40 bc 4b 9c 3e 28 04 d2 bd
       0.00017026234 2.4726539 0.3052653 -0.10254699
0000b0 13 19 0c bf ea 77 76 be 16 63 52 bf c7 8a 2e bf
       -0.5472576 -0.24069181 -0.82182443 -0.6818051
0000c0 54 41 42 bf 7a ff 73 be 55 63 01 c0 4d c8 1a 3f
       -0.7588093 -0.23827925 -2.0216877 0.60461885
0000d0 ff f7 46 3e 8d 48 51 3f 6d 00 a9 3f eb 41 47 3f
       0.1943054 0.8175133 1.3203255 0.7783496
0000e0 8c 19 4c bf ea d8 60 3e 03 aa b5 bf 42 35 31 c0
       -0.7972648 0.21957746 -1.4192508 -2.7688756
0000f0 b0 06 0a bf 77 c6 5d 3f bc f2 81 3f 00 7b da bc
       -0.53916454 0.8663096 1.0152202 -0.02666998
000100 e4 a6 06 40 60 72 b7 3e 78 8c 62 bf 76 b8 5c bd
       2.1039362 0.3582945 -0.8849559 -0.053886853
000110 99 2f 19 3f 90 51 d7 3f db 27 87 be 42 59 24 3f
       0.59838253 1.6821766 -0.26397595 0.64198697
000120 c1 f7 2e bf da fa ae 3d f8 85 26 40 12 d3 4d bf
       -0.6834679 0.0854394 2.6019268 -0.8040019
000130 43 6f 12 40 54 1d 1b bf 67 b5 ba bd 57 63 a8 3f
       2.2880409 -0.60591626 -0.09116631 1.3155316
000140 8a 47 1a 3f 1c e4 46 3f 38 0b 03 40 26 c9 64 3f
       0.6026541 0.7769182 2.0475597 0.8936943
000150 47 0d 55 be fa 6a ec 3f 73 2f b5 bf c9 d5 f9 be
       -0.20805846 1.8470147 -1.4155105 -0.48795918
000160 4b e5 38 3f 56 c6 0a bd 28 56 c9 be c5 c9 89 3f
       0.72224873 -0.033880554 -0.39323545 1.07647
000170 22 26 40 3e 67 d2 f3 bf 26 34 06 bd 61 d5 1b bf
       0.18764547 -1.9048585 -0.032764576 -0.60872465
000180 65 a9 49 3f 9a 43 a8 bd f7 fb 26 3f 52 f6 ac bf
       0.787741 -0.08216019 0.6522822 -1.3512671
000190 b9 44 0f 40 d2 96 96 be c2 18 1a 3f e7 f4 b6 3d
       2.2385695 -0.29411942 0.6019403 0.0893343
0001a0 5d c2 80 3f c2 27 9a be 1d 06 20 40 e3 aa 44 3e
       1.0059315 -0.30108458 2.5003731 0.19205813
0001b0 ec 82 38 bf f0 2f 6a 3f 00 db bc 3f 69 98 2c 3f
       -0.7207477 0.91479397 1.4754333 0.6742006
0001c0 a7 f1 bc 3f e6 78 68 3e 7b 4e b9 bf 22 de 21 bf
       1.4761246 0.22702369 -1.4477075 -0.6322957
0001d0 83 c3 9f bf 21 15 b4 3f fa 9f 13 40 19 2f 7b bf
       -1.248154 1.4068948 2.3066392 -0.9811874
0001e0 59 b2 b0 bf 16 9e de bf b6 ba 89 3e 30 78 c5 bf
       -1.3804427 -1.7391994 0.26900262 -1.5427303
0001f0 fe b2 f7 3f 0e e1 91 3f 95 dd 86 bd 67 e7 d1 3f
       1.9351499 1.1396806 -0.06585232 1.6398743
000200 fc 3c c4 bf 54 6d b5 be 8c bd 0f bf 69 f9 0d 3f
       -1.5331111 -0.35434973 -0.561486 0.55458695
000210 39 31 49 bf 4f 8a a3 bf d6 93 cc bc e1 d9 16 3e
       -0.7859073 -1.2776583 -0.024972837 0.14731552
000220 83 9e c8 3f 73 99 a5 3e f0 54 1c bf 5a 31 56 3f
       1.5673374 0.32343635 -0.61067104 0.83669055
000230 da f8 b2 bf 84 d3 61 bf 91 d0 ba bf d3 d2 33 3f
       -1.3982193 -0.8821337 -1.45949 0.7024357
000240 1d 2e a0 3f bb 94 44 3f 63 d4 cc 3e e8 35 b0 bf
       1.2514073 0.76789445 0.40005788 -1.3766451
000250 52 64 d7 bf e2 64 0a c0 f5 fe 20 40 e3 b5 7b 3e
       -1.682749 -2.1624074 2.5155613 0.24581103
000260 b6 4f 03 40 5a 55 81 be d5 a3 5a bc 8a 7c 53 bf
       2.0517402 -0.2526043 -0.013344725 -0.82611907
000270 7b 62 c4 be 06 c6 d0 be 0e 0b a1 3f a7 2f 0c 40
       -0.38356385 -0.4077608 1.2581499 2.1904085
000280 f2 c8 f2 3e 2f 8d f4 bf f8 27 bc 3f 02 38 a6 3e
       0.47418934 -1.9105586 1.4699697 0.32464606
000290 5c 83 6e 3f c3 cb 64 3f 54 81 75 3e c8 27 99 3f
       0.9316919 0.89373416 0.23975116 1.1965265
0002a0 cb b3 b3 bf 7d 1c 6e bf aa e4 16 3f 3b 62 9f bf
       -1.4039243 -0.9301222 0.58942664 -1.2451853
0002b0 75 c3 9d bf 91 b9 da bf 23 ca 2b 3e b3 10 48 3f
       -1.2325274 -1.708788 0.16776328 0.7815048
0002c0 09 a6 46 40 1e 48 10 40 5c 42 b3 bf 04 29 86 3f
       3.103884 2.2544017 -1.4004626 1.0481267
0002d0 92 10 87 3f 28 e5 4f bf 67 9a 08 bd 7d 91 b4 3e
       1.0551932 -0.8120904 -0.033350375 0.3526725
0002e0 ab 0e bf bf 00 54 e0 be ee 8c 49 be fe 5d ef 3f
       -1.4926351 -0.43814087 -0.19682667 1.8700559
0002f0 c8 ab cb 3e 32 d0 ab 3f 2f a7 f8 3e 53 e2 49 c0
       0.39779496 1.3422911 0.4856505 -3.1544387
000300 2a fa f8 3d 01 15 4d c0 f0 1e 98 bd 66 cf 6c bf
       0.1215709 -3.204407 -0.07427776 -0.92503965
000310 03 54 83 3e 70 e5 e4 3e e4 96 81 be d8 ab 14 3f
       0.25650033 0.44706297 -0.25310433 0.5807471
000320 6a 7f 6a bf 39 e4 c8 bf 75 46 80 be ed 88 a6 3f
       -0.9160067 -1.5694648 -0.25053754 1.3010536
000330 77 96 d0 bf d5 b6 4b 3c ff b2 d3 bf 3b fc e3 bf
       -1.6295918 0.012433727 -1.6539 -1.781135
000340 05 22 40 bf bb 64 a9 be a2 f4 ae bd a9 d8 12 3f
       -0.7505191 -0.33084664 -0.08542754 0.5736185
000350 e5 15 dc 3d 4d e7 0f 40 12 5a 9f bf a7 10 18 3e
       0.107463636 2.2484925 -1.2449362 0.14850102
000360 be 62 3a 40 3b c1 ba 3f 1b 78 0c c0 54 c2 44 ba
       2.9122767 1.4590219 -2.1948307 -0.0007505764
000370 61 2b 87 bf 5a 5d cc 3f 0f 43 01 40 8c 10 55 be
       -1.0560113 1.5965989 2.019718 -0.20807093
000380 42 1c b9 3f 7a cd a2 3f 07 20 88 3f ce f7 ae 3f
       1.4461749 1.2718956 1.0634774 1.3669374
000390 79 d1 27 3f d8 a7 9e 3e 0a 19 f5 3d 48 51 7b 3f
       0.65554005 0.3098743 0.119676664 0.981709
0003a0 83 08 57 bf 5e 63 83 3f 46 a7 fd 3e f2 b0 d4 3f
       -0.8399736 1.02647 0.49541682 1.66165
0003b0 5b 31 36 bf 8e c0 77 3f fc 1f ee 3e 54 66 2a be
       -0.7116906 0.9677819 0.46508777 -0.16640598
0003c0 7f f8 1d bf af ae 2b 3f 52 d6 2b c0 50 c5 70 be
       -0.617073 0.6706342 -2.684956 -0.23512769
0003d0 5a 21 f0 bf 7d 65 a6 be dc 0b d5 be b7 b4 06 bf
       -1.8760178 -0.32499304 -0.4161061 -0.526195
0003e0 8d 4b 16 3e 94 34 e1 3d ba e4 7a bd 23 20 50 3f
       0.14677258 0.109963566 -0.061253287 0.81299037
0003f0 ec 44 e6 be 2c 59 88 bf 7e b2 bd bd 16 e3 03 c0
       -0.44974458 -1.0652213 -0.0926256 -2.0607352

weight_ih_l0 f4 [512, 32]
000000 ae 29 17 be c0 0b f3 bc fb e3 1c 3e 18 7f 9f be
       -0.14761993 -0.029668689 0.15321343 -0.31151652
000010 60 e8 25 bd b1 18 1d be ad cd 21 be 2c b5 1e 3d
       -0.040504813 -0.1534145 -0.15801115 0.038746998
000020 8c 86 78 be 93 b3 a4 3d 71 0e e8 3c 8f 36 82 3e
       -0.24270076 0.080420636 0.028327199 0.2543225
000030 f0 90 9f bd 7b 17 ee bd 18 6d 60 3e c4 e1 96 3e
       -0.077913165 -0.11625572 0.21916616 0.2946912
000040 64 7f 25 3e 71 70 bf 3d 8d 61 c9 be 38 92 da 3e
       0.16161877 0.09347618 -0.39332238 0.4268968
000050 28 2f ea be 83 64 a0 bd 7c 67 dd be d4 cd 37 3d
       -0.45739102 -0.07831671 -0.43243015 0.044874027
000060 86 7c 24 be e3 a4 b6 3d a0 80 ee 3e c6 03 2a bf
       -0.16063127 0.089181684 0.46582508 -0.6641201
000070 f0 4e 95 bc 97 73 6b 3e 34 3b e0 3e f2 26 3d be
       -0.018226117 0.22993313 0.43795168 -0.18471888
000080 f0 00 56 3e 7c 37 34 3e dc c5 e1 3d cc 90 43 3d
       0.20898795 0.1759929 0.11024067 0.04774551
000090 9c e5 33 3e 73 a5 ff bd e4 38 37 3e 97 e1 d5 bc
       0.17568058 -0.12482729 0.17892796 -0.026108546
0000a0 a7 80 6e be 7e 5a aa bc 5d 98 ae 3d 8b e1 a9 bc
       -0.23291264 -0.020795103 0.08525155 -0.02073743
0000b0 80 49 4f bd f3 24 37 bc 47 a9 27 3e 72 ba e4 bc
       -0.050607204 -0.011178243 0.16373168 -0.027920935
0000c0 d3 ab 92 bc 1a a0 99 3e 38 de 4e 3d 66 c2 4e be
       -0.017904198 0.3000496 0.050504893 -0.20191345
0000d0 e3 23 1b 3e 8c 80 9e 3c ce d3 d5 bd d1 c7 91 bd
       0.15150408 0.019348405 -0.10440789 -0.0711819
0000e0 d0 03 45 be a9 ad 99 3d 79 f1 c2 be b5 2f 2a bd
       -0.19239736 0.07503826 -0.38074854 -0.041549403
0000f0 46 72 c9 3d 0f 36 65 3e a9 6a 32 be d5 72 81 be
       0.09836249 0.22383903 -0.174235 -0.25282922
000100 0b a1 b1 be cc f5 77 be a4 30 99 bd 90 ea c6 bd
       -0.3469318 -0.24214858 -0.074799806 -0.09712708
000110 15 ee 91 3c 2b 43 ed 3d 8f 31 21 bb 37 63 8d 3d
       0.017813722 0.11585077 -0.002459619 0.06903689
000120 de d2 bc bd 99 77 e1 bd ca 25 9b bd 27 9e 9c 3e
       -0.09219907 -0.110091396 -0.07575567 0.3058941
000130 69 61 29 be 97 51 95 be eb e5 e3 be dc 67 8e bd
       -0.16541065 -0.2916381 -0.4451135 -0.06953403
000140 24 1e ad 3e 6c 93 0e bc 60 57 d8 be f3 e8 4a 3e
       0.33812058 -0.00870214 -0.42254162 0.19815426
000150 01 cf 6f 3e 1a 11 80 be b0 f9 1c 3d a5 cd 56 3e
       0.2341881 -0.25013047 0.038324058 0.20976885
000160 21 cc 8c 3e ae 08 5f be 38 a0 36 be 20 57 2b 3e
       0.27499488 -0.21780655 -0.17834556 0.16732454
000170 99 ae 30 3e 1f 9b b1 3e ec 36 09 bd 7d da f1 3e
       0.17254104 0.3468866 -0.033499643 0.47237006
000180 8d 5c a7 3e ed 6a de 3e 85 ec ef 3c d1 f6 e9 bc
       0.32687798 0.43440953 0.029287586 -0.028560074
000190 65 6d 83 3e 61 07 9b 3c e5 6d a6 3a cd 18 83 3e
       0.256694 0.018924417 0.0012697546 0.2560486
0001a0 bf 70 ed be 87 ff aa be e8 fd 4e 3e b8 7f 2a 3d
       -0.4637508 -0.33398077 0.20214045 0.04162571
0001b0 84 81 e4 3b c5 15 8f 3e 26 43 d7 bd 77 40 2a 3e
       0.0069734473 0.27946296 -0.105108544 0.16626154
0001c0 34 25 ba 3e 3b df 4e 3d 05 cb d0 3d 75 8e 2a 3d
       0.3635651 0.050505858 0.10194973 0.041639764
0001d0 2a c9 89 bd 86 17 83 3d e5 27 05 bd 7d 6c 86 3b
       -0.06727822 0.06400971 -0.03250875 0.0041022883
0001e0 db 80 d2 3c f9 fe 11 3c 19 82 46 bd 55 57 a5 3d
       0.025696209 0.008910888 -0.048463915 0.08073298
0001f0 31 59 55 3d 06 8d b1 be 05 ee 17 be 28 ad 94 bb
       0.052087013 -0.34677905 -0.14836891 -0.0045372434
000200 f2 c2 0d 3e 07 ac 95 3d 52 08 fb 3e ab 99 86 3e
       0.13843897 0.07308202 0.49029785 0.26289114
000210 c1 10 5d be c6 75 0a bf d2 4c 87 3e e1 67 9c bd
       -0.21588422 -0.5408596 0.26425797 -0.07637001
000220 7a b6 57 3e 41 46 3a be ae ea 98 3e 5b 11 17 3e
       0.21065703 -0.18190862 0.29866546 0.14752714
000230 3a 11 2c bf 53 d6 bb bc a8 26 8c 3e 6c 8e 02 be
       -0.67213786 -0.022929346 0.27373242 -0.12749642
000240 14 4f 6f be f3 e6 6d bd 99 e9 65 bd 52 38 1c 3d
       -0.2337001 -0.05808158 -0.05613098 0.03813965
000250 da 20 99 3d 20 17 a8 3b 5c 2d c1 3e 05 41 a3 be
       0.07476969 0.00512971 0.3772992 -0.31885543
000260 43 70 fa 3d 55 13 80 be fa 56 c6 bd ac 3b 93 be
       0.122284435 -0.2501475 -0.09684558 -0.28756464
000270 d4 e7 8f bd 86 0c 20 be 59 ff 58 3e 90 fd ee 3d
       -0.070266396 -0.15629777 0.21191157 0.11669457
000280 10 c8 2b 3e 9b f0 25 bf 9c 9a 07 3e 35 c8 85 be
       0.16775537 -0.6482026 0.13242573 -0.26129308
000290 ee 45 0f bb 11 19 4e 3d ca 76 69 be 60 13 98 bd
       -0.002186175 0.050316874 -0.2279922 -0.074255705
0002a0 65 68 a5 be b1 62 03 3d f1 bf ba 3e 93 ef a5 bd
       -0.3230621 0.03207654 0.36474565 -0.08102336
0002b0 0d 92 c5 3d 12 78 5a be 46 2e e5 bd 10 72 92 3e
       0.096469976 -0.21334866 -0.111904666 0.28602648
0002c0 86 ad 1d bb a0 3f 1b 3c 2d 07 42 be 59 74 d5 3e
       -0.0024059727 0.009475619 -0.1894805 0.4169033
0002d0 89 29 74 be 08 7e 19 3e 57 9c 39 be 93 b1 48 3d
       -0.2384397 0.14989483 -0.18126045 0.048997473
0002e0 cd 99 ce bd ee a6 c1 bd 41 7c 38 3c 72 bf 29 be
       -0.10087929 -0.094556674 0.011260093 -0.16576937
0002f0 9e 5f 5e 3e 25 ea 3b 3e 0f 65 8c 3d 38 87 b4 bc
       0.21716163 0.18351038 0.06855213 -0.022037134
000300 e0 fe 02 bc 4c 78 33 be 01 a0 3a be 46 27 2d bf
       -0.007995337 -0.17526358 -0.18225099 -0.6763805
000310 0c ec 8d bd 95 dc 0d bd ac 3e b2 bc ec 20 1f be
       -0.06929788 -0.03463419 -0.0217584 -0.15539902
000320 da 31 b3 bc a5 e1 8c be ec a3 4e 3e 77 ca a7 3e
       -0.021874357 -0.27515903 0.20179719 0.32771656
000330 f6 e3 f6 3d ac 4c 30 ba 5a 2f 1f bf d3 cd 3e 3e
       0.12055199 -0.0006725292 -0.6218163 0.18633203
000340 d0 f4 83 3d 5d 37 53 3d 0b cf 61 be 16 68 b0 3e
       0.06443179 0.05156647 -0.22051637 0.3445441
000350 a0 42 30 be 4b 4b 3a bb 98 b0 2e be 4d 9d e8 3d
       -0.17212915 -0.0028426226 -0.17059553 0.11358128
000360 a7 06 70 3e 64 2f cc 3d af 03 86 be e9 60 b7 bc
       0.23440038 0.099699765 -0.26174685 -0.022385078
000370 1b 0c 21 3e 0a 22 da 3e 3d 5d 9e bd 7c e1 84 3d
       0.15727274 0.42604095 -0.077326275 0.0648832
000380 57 3b 1b bc 96 19 8c be 33 52 c9 bd d3 73 3f be
       -0.009474597 -0.2736327 -0.098301314 -0.18696527
000390 d3 96 06 3c a1 52 a0 3d 15 db 09 3e a8 f8 d9 be
       0.00821467 0.0782826 0.1346248 -0.42572522
0003a0 e8 33 9e 3e a6 a2 a1 3e 52 bc 35 3e 5d 73 a3 3e
       0.30898976 0.31569403 0.1774762 0.31923953
0003b0 28 d8 cd 3d 3e 27 9c bc 11 a1 d3 3d f5 09 94 be
       0.10050994 -0.01906168 0.10333455 -0.28913847
0003c0 9b e4 f3 3d 69 35 48 3d 71 ad ec 3e d5 e1 06 bd
       0.119088374 0.04887906 0.46226075 -0.032930214
0003d0 6e f6 8d be 3c b5 f1 3e ca 16 07 3e 22 a6 7a 3d
       -0.27727073 0.47208583 0.13192287 0.061193593
0003e0 73 81 cb 3d 8b b3 0e be 4b c8 29 be f6 ce 54 bc
       0.099368 -0.13935678 -0.16580312 -0.012988796
0003f0 e0 33 6e be bd c7 15 3d 6b b8 b1 3e 32 a5 f1 bd
       -0.23261976 0.03656744 0.34711012 -0.11799087

weight_hh_l0 f4 [512, 128]
000000 61 a6 af be f7 d4 46 bf 0b 28 ed bc 00 21 f4 39
       -0.34306625 -0.7766871 -0.028949758 0.00046563894
000010 2d e9 4e 3d 92 72 ab be 19 99 46 bd b3 f9 1a 3d
       0.050515343 -0.33485848 -0.04848585 0.037835788
000020 4a 2c ad be b8 45 cb be e5 39 20 bf c8 a8 b4 be
       -0.33822852 -0.3970163 -0.6258834 -0.3528502
000030 00 03 64 be 71 38 43 3b d2 a0 fc bc 75 57 b1 be
       -0.2226677 0.002978828 -0.030838404 -0.34637037
000040 3c d8 73 3c 0c 99 e7 3d b1 80 10 3e 4e 2f cc 3e
       0.014883097 0.11308488 0.14111592 0.3987984
000050 31 23 d6 bd d3 96 f2 3d bf 11 38 be 40 5b 6b 3e
       -0.10455931 0.11845174 -0.1797552 0.22984028
000060 fe 88 d6 bd ec fd d2 bd 99 89 c1 3e 41 fd 23 be
       -0.10475348 -0.10302338 0.3780029 -0.16014577
000070 ef 3c bc 3d 8e 88 aa be e2 bf c8 3e 67 5e 5d be
       0.0919131 -0.33307308 0.39208895 -0.21618043
000080 7e cf ef 3e 40 e5 41 be 2e 59 a3 3e bc 04 28 3e
       0.4683799 -0.18935108 0.31903976 0.16408056
000090 a8 4f 13 3f 30 47 16 bd fc cf 81 3e 3e 76 0a 3f
       0.5754342 -0.036688983 0.25353992 0.54086673
0000a0 f4 30 f3 3e 07 5f 4b be 3d f8 cc be 2b 91 23 3e
       0.47498286 -0.19860469 -0.4003314 0.15973346
0000b0 ad d4 2c be f3 2c 17 be ce 8d e0 3e 40 cb d8 bc
       -0.16878004 -0.1476324 0.43858188 -0.026464105
0000c0 b7 bf 11 3e d7 e5 0b 3e cf 8a 06 be 46 4d 1a be
       0.1423329 0.13661896 -0.13138889 -0.1506854
0000d0 18 77 26 3f 98 03 ed 3e b6 57 94 3e d4 c1 06 3e
       0.6502547 0.46291804 0.28973168 0.13159877
0000e0 5a fc e6 be 92 99 06 bf be e6 e1 be 26 da 47 3f
       -0.45114404 -0.5257808 -0.44121355 0.78067243
0000f0 7a e3 37 be 58 62 0b 3c a5 0c 2b 3c 41 3c 0e 3d
       -0.17957869 0.008507334 0.010440026 0.03472543
000100 51 55 c1 bc 6c 28 23 bd ce fc 1b 3e a7 74 99 bd
       -0.023600252 -0.03983347 0.15233156 -0.07492953
000110 a6 48 da be 40 12 41 3d 11 da c6 be 12 19 97 be
       -0.4263355 0.047136545 -0.38838246 -0.29511315
000120 61 5e 82 3c d3 a3 a2 3e 3c 9a 51 bd ec 09 22 3e
       0.015914144 0.31765613 -0.05117248 0.15824097
000130 42 3d 4b 3e 1c 95 57 bd bc 0a 1e 3f 9c 9d 68 3e
       0.19847587 -0.052632436 0.6173513 0.22716373
000140 8b 88 81 3d 45 ae 4a be 18 29 88 be 7f c7 0d be
       0.06324872 -0.19793041 -0.26593852 -0.13845633
000150 c8 ef c3 3e a0 a6 a2 3e 4f aa ac bd 45 34 71 3e
       0.38268876 0.3176775 -0.08430921 0.23555095
000160 93 e4 fc bd 43 b4 84 be 79 e7 85 be e4 ab dc 3e
       -0.123482846 -0.2591878 -0.26153162 0.43099892
000170 55 cd 91 3d 90 06 c0 be 41 04 90 be e0 0a 69 3e
       0.07119242 -0.37505007 -0.28128245 0.22758055
000180 9e 87 72 be df fd 38 bd 01 b3 67 bd 0e d2 e7 3e
       -0.23684546 -0.045163985 -0.056567196 0.45277447
000190 5c de 40 3e d9 0e 20 3f b2 85 51 3e 55 48 0d 3f
       0.18834823 0.62522656 0.20461157 0.55188495
0001a0 67 8b 92 3e a5 3d b6 be be 05 8e be fb e8 8f 3e
       0.2862198 -0.35593906 -0.27738756 0.28107437
0001b0 d1 f2 c0 bd c1 c1 66 3f 66 30 df bd 9b 4d 75 3e
       -0.094213136 0.90139395 -0.10897903 0.23955385
0001c0 ac a2 02 bf 53 24 27 bf 00 f7 43 3e aa 7d 02 3f
       -0.5102947 -0.652898 0.19137192 0.50973
0001d0 51 af 97 3e 5c 6c 2d bd e2 cc 82 3d c7 2a f2 bd
       0.29625943 -0.042339668 0.063867345 -0.118245654
0001e0 de 86 d0 3d 26 ee b0 3e c4 a4 c8 be 5e 4d 06 bf
       0.10181974 0.34556693 -0.39188206 -0.524618
0001f0 65 8f 28 3f d6 29 d1 3e 45 9d e4 3e 17 d9 36 3e
       0.658438 0.4085223 0.44651237 0.1785625
000200 98 78 a6 3c e2 83 25 bd 97 1f c5 3e ba e2 56 bc
       0.020321175 -0.040408976 0.38500664 -0.013115579
000210 e2 5d 80 3e 0e 80 b7 be e9 13 3b 3d 7f f6 2c be
       0.25071627 -0.35839885 0.045673285 -0.16890906
000220 1b a6 02 bf 63 7c ae 3e 2d dc ea be ae 47 d7 be
       -0.51034707 0.34079275 -0.45871106 -0.42046875
000230 f3 5a ac 3b 0f 5e de be 43 1c b3 be 11 05 4e bf
       0.0052598654 -0.43431136 -0.349825 -0.8047648
000240 41 41 ca bc 9c cc 02 bf 3e 12 a1 3d 12 0b 6b 3d
       -0.024689319 -0.5109346 0.078648075 0.057383604
000250 9e 49 58 bf 6d ea 20 bf 08 19 a7 be 91 b7 ab 3d
       -0.8448733 -0.62857705 -0.32636285 0.08384622
000260 f4 df 54 3c 2d 6f e7 3d d8 59 85 3e ad e2 c8 be
       0.012992848 0.11300502 0.26045108 -0.3923544
000270 ed bf a0 be 11 9a 38 be f2 39 48 3e ee 62 0c bf
       -0.31396428 -0.18027522 0.19553354 -0.54838455
000280 6e 0d 7c be a6 89 68 be 87 64 46 3e 2a 6f 0f 3f
       -0.24614498 -0.22708759 0.19374286 0.56029
000290 f5 9f ae be d7 15 af bc 34 e6 55 3e fb 5c 76 3e
       -0.34106413 -0.021372719 0.20888597 0.24058907
0002a0 e8 d7 fc 3d 43 bc 3c be c9 f5 80 3e 9b fe 31 be
       0.12345868 -0.18431191 0.2518752 -0.1738228
0002b0 4d 72 3c 3e 0c 85 a0 3e f8 84 aa bc ab cc 1f 3c
       0.18402977 0.31351507 -0.020815358 0.0097533865
0002c0 32 3a ab be 25 93 75 bf 3e 30 49 3e cf f7 28 3d
       -0.33442837 -0.9592765 0.19647309 0.041251954
0002d0 89 7a 43 be 0e b1 b3 3e 56 69 11 bd 1c f4 18 3f
       -0.19089712 0.3509602 -0.035500847 0.5974748
0002e0 e0 52 ce 3d a1 7a a9 3d 1c 8d 66 be 4e 24 27 3d
       0.10074401 0.08275343 -0.22514766 0.040806107
0002f0 3a 58 4e bf 46 e4 94 be 2c 05 01 bf 18 3f fb 3d
       -0.80603373 -0.2908041 -0.50398517 0.122678936
000300 b8 9a 27 bc 05 85 35 be 32 f8 59 3f 20 66 22 3e
       -0.010229759 -0.17726524 0.8514434 0.1585927
000310 f1 d6 1d be 8c ab fa bd ec 99 0f 3e b0 fc ac be
       -0.15414025 -0.12239751 0.1402356 -0.33786535
000320 3a a3 80 be a4 b6 1a bf c4 4d 3d 3f 73 76 b3 be
       -0.25124532 -0.6043494 0.73946786 -0.35051307
000330 1e 47 79 3d 62 8c 96 3e 45 56 d5 bd 51 fb 01 3d
       0.06085884 0.2940398 -0.10416845 0.031733815
000340 8a 71 9d be f1 9e ef be 06 7f a2 3e 92 b0 b3 3d
       -0.30750686 -0.4680095 0.31737536 0.087739125
000350 14 0a 51 3e ea 44 83 bd db 93 8a 3d 06 b2 93 be
       0.20414001 -0.06409629 0.067664824 -0.2884676
000360 00 6c 87 3e 00 81 19 3e d7 59 3a bf f9 f2 16 3f
       0.26449585 0.14990616 -0.72793335 0.58964497
000370 d0 26 ce 3e 2e 13 90 bf d2 95 3a be 16 71 8c 3c
       0.40263987 -1.1255853 -0.18221214 0.017143767
000380 89 49 f0 be c4 3f 48 3e 41 2a 09 bf 40 ee b3 be
       -0.46931103 0.19555575 -0.535801 -0.35142708
000390 23 0d d6 3d e9 bc 62 bd e0 83 ae be f4 f4 95 3d
       0.104517244 -0.05535594 -0.34084988 0.07322112
0003a0 f4 32 37 3e aa 6c fe 3d 09 bb c3 be ca 04 7b 3e
       0.17890531 0.1242307 -0.38228634 0.24513546
0003b0 02 ff c1 3d 51 0d 11 3e 8e 1d 1b 3e 1c d2 f3 bd
       0.09472467 0.14165236 0.15147993 -0.119053096
0003c0 57 e9 0f bd 15 9f 49 be d4 7e 8b 3e e3 54 0f 3f
       -0.03513464 -0.19689591 0.272452 0.559889
0003d0 58 e1 9a 3e 71 a7 8b 3e 15 32 08 be bf 3e 66 be
       0.3025005 0.27276185 -0.13300355 -0.22484873
0003e0 d2 9d c1 be 94 20 95 3e 70 58 9b be 84 1b ca bd
       -0.3781572 0.29126418 -0.3034091 -0.098685294
0003f0 e4 c2 f2 3e 8b ad 07 3e 5d 03 1b 3e ff 28 d4 3e
       0.47414315 0.13249795 0.15138002 0.41437528

bias_ih_l0 f4 [512]
000000 f4 f8 55 3c 62 b2 cc 3c b9 21 6c 3e fb 86 47 3e
       0.013059843 0.024987403 0.23059739 0.19485085
000010 34 ab 3a 3e cd 8c 94 3e 18 60 2e 3e fb ca 7f 3e
       0.18229371 0.29013672 0.17028844 0.24979775
000020 2f 83 3d 3e a7 9f 40 3e 02 13 ab 3e 62 3e 49 3e
       0.18507074 0.18810903 0.3341294 0.19652703
000030 cd 02 55 3d 55 51 37 3e d0 a0 08 3e e5 35 5d 3e
       0.052004624 0.1790212 0.13342595 0.2160259
000040 ed 00 4a 3e fe 3e 6f 3e 43 1e 4b 3e 74 7f 11 3e
       0.19726916 0.23363873 0.19835763 0.14208776
000050 a0 1b 56 3d 26 a2 dc 3d 8a ec 58 3e f8 ad 44 3e
       0.05227244 0.10773115 0.21183982 0.19206989
000060 48 02 c0 3c e4 a5 55 3e 36 0a 31 3e 83 4c de 3d
       0.023438588 0.20864064 0.17289051 0.10854437
000070 99 29 84 3e 61 64 f4 3d db e2 11 3e 8d 31 11 3e
       0.25812986 0.11933208 0.14246695 0.14179058
000080 24 a0 94 3e 57 2b fe 3d cd ab 72 3e 41 af b3 3e
       0.29028428 0.1241061 0.2369835 0.35094646
000090 27 dc b3 3d d8 02 0b 3e df ac b5 3e b5 5c 59 3e
       0.08782225 0.13575304 0.35483453 0.21226771
0000a0 97 d5 99 3e 6e 05 8a bb 1f 47 12 3e 9e df b5 3d
       0.3004577 -0.004212073 0.14284943 0.08880542
0000b0 50 73 85 3e 2f 00 79 3e 3d 48 6f 3d a9 20 0b 3e
       0.2606454 0.24316476 0.0584185 0.13586678
0000c0 b6 4b 39 3e 54 e6 05 3e fe 3b 20 3e 51 f2 00 be
       0.18095288 0.13076144 0.15647885 -0.12592436
0000d0 cc 7a 47 bc 4d 4a 97 3d ea fd 8f 3d d6 c9 23 3b
       -0.012175273 0.073872186 0.07030852 0.002499213
0000e0 2e e8 20 3e 15 a1 7f bd 3e 53 4c 3d 7f a4 21 3e
       0.1571357 -0.06240948 0.049884073 0.15785407
0000f0 cb 98 35 3e 0f 53 92 3e cc d0 a5 3e 72 da 81 3e
       0.17734067 0.28578994 0.32385862 0.25361973
000100 0f 3a 9c 3e 50 fa 7c 3e 01 2d 7d 3e 79 e4 d9 3d
       0.30513045 0.24704862 0.24724199 0.10639281
000110 a0 df 4f 3e 38 b8 1c 3d 60 69 2f 3e 9b d8 d4 3d
       0.2030015 0.038261622 0.17130041 0.10392877
000120 f1 a0 4e 3e 34 07 87 3e 69 71 97 3e 80 b6 76 3e
       0.20178582 0.26372683 0.29578713 0.24093056
000130 db 49 90 3d c9 70 9b 3d 96 be 97 3d 34 ba cf 3d
       0.07045337 0.075898714 0.07409398 0.10142937
000140 ff 7b 86 3e 2b 80 1c 3e 88 cc 44 bd 40 b0 04 3e
       0.26266477 0.15283267 -0.04804662 0.12957859
000150 3b aa aa 3e 9f a4 9e 3e 31 0c 4a 3e f0 1d 59 3e
       0.33333 0.3098497 0.19731213 0.21202826
000160 a9 c4 34 3e a5 6d ad 3d dc c9 5f 3e 12 c5 d7 3d
       0.17653145 0.08468179 0.21854347 0.10535635
000170 48 d8 97 3e 20 c1 8b 3e 7b 94 93 3e fe ff b2 3e
       0.29657197 0.2729578 0.2882422 0.34960932
000180 f5 ff 2d 3e a6 62 15 3e fb be 54 3d 1e 93 f6 3d
       0.16992171 0.14588413 0.051939946 0.12039779
000190 a8 d2 4e 3e 26 84 80 3e 79 b0 aa 3e 1b c8 2d 3e
       0.20197546 0.2510082 0.33337763 0.16970865
0001a0 7e d0 20 3e f1 20 4a 3e 6a df 03 3e 2e 35 fc 3d
       0.15704533 0.19739129 0.12878194 0.12314831
0001b0 f9 8c 05 3e e3 59 22 3d ce 59 44 3e 9b 10 0e 3e
       0.13042058 0.039636504 0.19174883 0.13873522
0001c0 a4 1f 68 3e 63 77 f7 3d b5 e2 1d 3e 9e f7 c4 3e
       0.2266832 0.12083318 0.15418513 0.38470167
0001d0 6c d7 73 3e 75 a6 c5 3e 76 03 76 3e d6 90 66 3e
       0.23812646 0.3860356 0.24024758 0.22516188
0001e0 a4 98 0d 3e b3 8b 8e 3e 25 39 44 3e 5a 28 2a 3e
       0.13827759 0.27840957 0.19162424 0.16616955
0001f0 8f 5a 05 3e 2f ad 0c 3e fb ba 23 3e 63 23 11 3e
       0.13022827 0.1373794 0.15989296 0.14173655
000200 dc a7 07 be 87 6a 8d 3d 72 14 19 3d 01 d6 92 3d
       -0.13247627 0.06905084 0.037373014 0.07169724
000210 f0 75 3e be 64 e3 aa bc cd 69 ed 3d fa d1 a3 3d
       -0.18599677 -0.020860381 0.115924455 0.07999034
000220 db 0e 21 be 3b c9 0e be 16 48 4b be 86 5b 51 bd
       -0.15728323 -0.13943951 -0.19851717 -0.051112674
000230 33 36 f3 bc 94 f1 f5 bd 50 26 6b bd c7 76 d7 bc
       -0.02968893 -0.12008968 -0.057409585 -0.026301755
000240 19 6c 65 bd d0 25 0b be 8d 78 b8 bd b6 96 0b bd
       -0.056011293 -0.13588643 -0.09007368 -0.034079276
000250 9b 1c 8a 3c 00 32 0f 3d 30 1c ff 3c fb ef fd 3d
       0.016859343 0.034959793 0.03114137 0.12399288
000260 22 4e 1f bd 80 05 35 3b d0 5f ac bc d9 69 4b 3d
       -0.038892873 0.0027621686 -0.02104178 0.04966149
000270 dd 82 a0 3d bf 60 2f bd 52 bd 28 3e 01 d3 18 3e
       0.0783746 -0.042816874 0.1647847 0.14924242
000280 38 80 e3 3b 13 34 b4 bd 5f 96 32 be 07 82 2c be
       0.006942775 -0.08798995 -0.17440175 -0.16846476
000290 32 bb ca bd 04 95 6d bd 03 71 a3 bd c0 6f 23 bc
       -0.09898986 -0.05800344 -0.0798054 -0.009975374
0002a0 4f b8 e1 bd bd 42 0c 3d 0c 76 52 be f3 ab ed 3d
       -0.11021482 0.034243334 -0.20552844 0.11605062
0002b0 eb d8 4a bc 3e 9b 14 3d 09 fd 74 3e 48 94 8c bd
       -0.012380819 0.036280863 0.2392465 -0.0686422
0002c0 a3 d2 0a 3e 69 b4 83 bc 0e a5 d3 3d 8c 21 8f 3d
       0.13556914 -0.016077237 0.10334216 0.069888204
0002d0 a3 e2 fd bd f9 66 ec bc 1e 5e f9 3c 32 c0 51 bd
       -0.12396743 -0.028857695 0.030440386 -0.051208682
0002e0 21 5b bd be 02 f2 61 bc 78 f8 da bd 91 14 c5 bd
       -0.36983588 -0.013790609 -0.10691923 -0.09623063
0002f0 97 61 8f bd ae 6f d4 bd 25 95 21 be 6b 98 ed 3c
       -0.07001036 -0.10372864 -0.1577955 0.029003343
000300 8c 55 e5 bd 60 00 75 3d 8b cf 1e be 8a aa 11 be
       -0.111979574 0.05981481 -0.15508859 -0.14225212
000310 f5 7c 8c 3e 11 2c a8 3c 27 af 8f bd e1 33 8f 3a
       0.27439085 0.020528825 -0.070158295 0.0010925495
000320 51 9a 84 3d 48 9f 99 3d 0c 95 00 be 95 b9 89 bd
       0.06474746 0.075010836 -0.12556857 -0.0672485
000330 eb ce 7b bd 9f 98 bb bc 6d fa 65 bd 96 04 89 bd
       -0.06147663 -0.022899924 -0.056147028 -0.06690328
000340 5c d7 8f bb cb 41 df 3d 5f 55 6d 3d 2a f4 a0 bd
       -0.0043896865 0.10901221 0.057942744 -0.078590706
000350 31 55 f8 3d 06 b3 b7 bd ab be bf bc 48 9d fb 3d
       0.12125624 -0.08969693 -0.023406347 0.122858584
000360 42 58 d7 3d 38 a5 a4 be f1 28 2c be 44 92 07 3e
       0.10514881 -0.32157302 -0.16812493 0.1323939
000370 ea c7 0c 3e a3 8b 49 3d 1e f0 c4 3b 25 d7 83 be
       0.13748136 0.049205434 0.0060100695 -0.2575008
000380 c7 ed 4d 3e 24 20 15 3e 4b a1 7b bd 4d a7 dc 3c
       0.20110236 0.14563042 -0.061433118 0.026935244
000390 c4 10 ec bd 14 dc 02 3e 7c bc 44 3b 9d 03 ed 3c
       -0.11526635 0.12779266 0.0030019572 0.028932387
0003a0 71 a2 bc 3c 29 bc 3b 3e 26 32 44 bd cf 97 a9 3b
       0.023026677 0.18333496 -0.047899388 0.0051755677
0003b0 3d 0e b8 3d 10 f3 8f bd 9a 36 ee bd 07 01 ea bd
       0.08987091 -0.07028782 -0.11631508 -0.11425977
0003c0 9b 4c 10 be 9e b9 80 3d 06 97 24 3d b5 c1 cd bd
       -0.14091723 0.06285404 0.04018309 -0.10046712
0003d0 ee bc 5d be 60 25 95 bc 4b 1b 0d 3d a3 05 0e bd
       -0.21654102 -0.018206298 0.034449857 -0.034673344
0003e0 29 50 82 3d bd 4a 70 3e 87 fa 3a be 7d 56 2a bc
       0.063629456 0.2346601 -0.18259631 -0.010396597
0003f0 d6 f2 5f 3d 75 14 3f bd 0b cf 53 bd dc 30 bb bd
       0.054674946 -0.04665037 -0.051711123 -0.091401786

bias_hh_l0 f4 [512]
000000 48 c6 45 3c 16 3b cc 3d 6d 45 ac 3d c1 2e b2 3e
       0.0120712 0.09972207 0.084116794 0.34801295
000010 e5 99 72 3e a9 3a 54 3e 50 5a 24 3e a5 94 6f 3e
       0.23691519 0.20725502 0.16050076 0.23396547
000020 3a 89 18 3e 6e ce 27 3d 75 6b 80 3e ad 95 1c 3e
       0.14896098 0.04096835 0.25081983 0.15291472
000030 86 79 d5 3d 1d 99 19 3e 7a 45 55 3e 52 0a 9f 3d
       0.104235694 0.14999814 0.20827284 0.0776564
000040 81 ae 0f 3e 9f 56 99 3e 81 5f 19 3e 88 f5 74 3d
       0.14031412 0.299489 0.14977838 0.05980447
000050 8e 1a 05 3d d4 18 ee 3d 14 d2 9a 3d 36 54 04 3e
       0.032496028 0.11625829 0.075596005 0.12922749
000060 72 44 3e 3b 57 f6 97 3e 76 26 6a 3e 2d b8 c0 3d
       0.0029032496 0.2968013 0.22866234 0.09410129
000070 7f bf 65 3e 74 b2 19 3e 0b 2e 61 3e ee cb 97 3d
       0.22436331 0.1500948 0.2199022 0.074119434
000080 dd ae 99 3e d8 e4 ea 3d 27 3b 91 3e b1 01 89 3e
       0.30016223 0.1146943 0.28365442 0.26759103
000090 f6 44 c2 3d 24 70 c7 3d c9 b9 a8 3e 72 f5 96 3e
       0.094858095 0.09738186 0.32954243 0.29484135
0000a0 e8 ba 83 3e 94 34 94 3d 8c 6a f5 3d d1 99 33 3d
       0.25728536 0.07236591 0.11983213 0.043847863
0000b0 d4 c4 3a 3e 01 67 21 3e d1 de 3d 3e 97 00 65 3e
       0.18239146 0.15761949 0.18542029 0.22363506
0000c0 5e 7a a5 3d d2 ae 14 3e 32 c8 9e 3e 8c 32 11 be
       0.0807998 0.14519814 0.31012112 -0.14179438
0000d0 43 df f0 3c 46 18 03 3e e7 a9 fa 3d 5b 1e 9d 3d
       0.029403334 0.12802228 0.122394376 0.076718055
0000e0 c0 60 27 3e f3 54 d0 bc c5 cf 38 3d b5 fc 88 3e
       0.16345501 -0.025431132 0.04512002 0.267553
0000f0 98 1a 74 3e db 77 01 3e 6c b0 97 3e 9a 3f 7d 3e
       0.2383827 0.12643377 0.29626787 0.24731293
000100 91 59 63 3e 52 0c 46 3e 09 6d 5f 3e 9c 59 7a 3d
       0.22202136 0.19340637 0.21818937 0.061120614
000110 30 07 03 3e a5 7d b9 3d f3 22 81 3e a6 35 04 3e
       0.1279571 0.09057168 0.25221977 0.1291109
000120 1e 80 01 3e b1 14 1e 3e 0a 81 97 3e 07 57 de 3d
       0.12646529 0.1543758 0.29590636 0.10856443
000130 b4 2e da 3c 3d 4b 16 3e c3 93 69 3c bb 34 08 3d
       0.026633598 0.14677139 0.014256421 0.033253413
000140 d6 c7 81 3e 97 9d 19 3e 98 be 2d bd 21 da 8b 3e
       0.25347775 0.15001522 -0.042418092 0.27314857
000150 5c 91 a7 3e 49 77 96 3e ea 4d 98 3e 29 05 38 3e
       0.32728088 0.29387882 0.29746944 0.17970718
000160 42 30 30 3e 92 59 67 3e 7b 1b 39 3e b2 26 0a 3e
       0.17205909 0.22592762 0.18076889 0.13491324
000170 57 10 24 3e 8a 12 84 3e d7 1a 75 3e 00 35 ac 3e
       0.16021858 0.25795394 0.2393602 0.33634186
000180 12 2d f9 3d 3f 4e 4a 3e 88 b1 da 3d 1b 85 6c 3d
       0.121667996 0.19756411 0.10678393 0.057744127
000190 26 4a 5a 3e d3 19 98 3e a3 eb 8a 3e b3 a8 4e 3e
       0.21317348 0.29707202 0.27132902 0.20181541
0001a0 46 56 f5 3d 19 35 29 3e f1 cb 16 3e ee e1 c1 3d
       0.11979346 0.16524161 0.14726235 0.09466921
0001b0 75 09 39 3e a4 ca ee bd da 44 53 3e 73 dc 0e 3e
       0.18070014 -0.116597444 0.20631734 0.13951282
0001c0 b5 be 7d 3e c8 1b d1 3d 38 de 14 3e a1 e8 aa 3e
       0.2477978 0.10210377 0.14537895 0.33380607
0001d0 4a d2 aa 3e 1d a1 bd 3e 23 35 3f 3e a9 d8 7b 3e
       0.33363563 0.37036982 0.18672614 0.24594368
0001e0 00 c6 11 3e 59 6d 94 3e 64 a4 85 3e 96 4e c4 3d
       0.14235687 0.28989676 0.26101983 0.095853016
0001f0 a5 5e 66 3d e9 65 14 3e 2f 17 b1 3d 63 8c b2 3d
       0.056242604 0.14492 0.08647 0.08718183
000200 b7 8f b4 bd 23 8d 32 bd 8d ab 7d bd 4a 90 92 3d
       -0.08816474 -0.04359163 -0.06193118 0.07156427
000210 9c ae a0 be 64 85 14 be 69 0b ca 3d 43 00 14 bc
       -0.31383216 -0.1450401 0.098654576 -0.0090332655
000220 ff 4b 57 be 7a f3 01 be 7b e0 1a be a1 39 a6 bc
       -0.21025084 -0.12690535 -0.15124695 -0.020291151
000230 ba 5e d1 bd a6 d2 18 be 08 2e b9 3d 5d cc fc bd
       -0.10223146 -0.14924106 0.09041983 -0.12343667
000240 3b e6 94 3c f6 37 50 be 4d 6d 78 bd d4 37 8e 3d
       0.018176189 -0.20333847 -0.060651112 0.06944242
000250 2f 09 02 3e d8 2b 26 3e 88 ad a8 3d 52 c3 3a 3d
       0.12698816 0.16227663 0.082362235 0.04559643
000260 61 7e 05 bb ad 76 e8 bc ca fa 05 3d 15 d7 21 3d
       -0.0020369517 -0.028376902 0.032709874 0.03951176
000270 2d 12 bb bc bf 62 46 bd 24 2e 65 3e 54 e8 db 3d
       -0.022835815 -0.048434015 0.22380883 0.107376724
000280 ab 68 e2 bd 18 f3 2f bd 90 0e a4 bd 38 74 1b be
       -0.1105512 -0.04295644 -0.0801059 -0.15181053
000290 f2 47 f5 bd 9e aa 4d 3d f4 3f be bd 0e 64 af bd
       -0.11976613 0.05021154 -0.09289542 -0.08564006
0002a0 a1 0b 60 be 76 d5 06 3d 91 6f 72 be 3b da 44 3d
       -0.21879436 0.032918416 -0.23675372 0.048059683
0002b0 f3 33 f2 bd c2 42 ed 3d 3a 97 df 3d 44 66 04 bd
       -0.11826315 0.11584999 0.10917516 -0.03232409
0002c0 96 8b 97 3d 97 b6 52 bd 71 92 10 3e 93 1d 2e 3e
       0.07399671 -0.051443662 0.14118363 0.17003469
0002d0 4d 30 e6 bd 60 9c 86 3d a9 77 ec 3b 7a 71 46 bd
       -0.112396814 0.06572795 0.007216413 -0.048448063
0002e0 10 b1 ac be 19 bf c5 bd 52 f6 64 bd f3 a9 27 be
       -0.33728838 -0.096555896 -0.05589897 -0.16373424
0002f0 c5 83 aa 3d 33 9f f8 bd b3 1c 50 3b 6d d9 98 3d
       0.08325914 -0.1213974 0.0031755387 0.07463346
000300 9e 96 97 bd 88 00 1f bd ce 9d 21 be 71 1a 4f be
       -0.07401775 -0.038818866 -0.15782854 -0.2022493
000310 1e 2a 93 3e a4 68 cf bc a4 bc 2c 3d 35 2d fb bd
       0.2874307 -0.025318451 0.04217209 -0.12264482
000320 05 5f b3 bc 36 33 01 bd 4e c9 3f be fe e2 73 3d
       -0.021895895 -0.03154298 -0.18729135 0.05954265
000330 2b 2b 97 bd a1 ba 4e bd 53 14 5d 3d 0b cc f7 bd
       -0.073812805 -0.050470952 0.05397446 -0.12099465
000340 52 a4 89 3d 1d 22 7e 3d 4d 2c 03 3c aa da 2c bd
       0.06720795 0.06204425 0.008006168 -0.04220072
000350 e2 9d fc 3d 34 71 44 be 89 c5 a0 bd b3 b0 80 3c
       0.12334801 -0.19183809 -0.07850177 0.015709257
000360 75 70 1a 3d 78 d5 94 be b9 ce 03 bd d3 e3 5e 3d
       0.037704904 -0.29069114 -0.032179568 0.05441649
000370 5b b6 2d 3e f5 8f 1d bd 26 84 72 3d 9b d1 74 be
       0.16964094 -0.038467366 0.059208058 -0.23908083
000380 99 43 e0 3d 73 00 96 3e 93 3c 76 bd 94 e9 4c bd
       0.10950393 0.29297218 -0.06011636 -0.050027445
000390 5d 78 01 be d2 31 31 3d 00 c3 2b 3d c5 b7 2b bb
       -0.12643571 0.043260403 0.041934013 -0.0026202064
0003a0 8b 51 0a 3d f9 8d 17 3e 13 c3 71 3d 8c 88 2e bd
       0.03376917 0.14800252 0.059023928 -0.04261069
0003b0 19 7a 20 3e 20 21 33 3d 40 14 89 bd 46 e8 7c bd
       0.15671577 0.043732762 -0.066933155 -0.06174495
0003c0 f9 2c bc ba 4f 1f 84 3d ab 5d 13 3e 16 a4 65 bd
       -0.0014356665 0.06451284 0.143912 -0.056064688
0003d0 bf 56 cb bd 3a 41 07 bd 4b 7e 03 3e 05 8d 3a be
       -0.09928655 -0.03302119 0.12841146 -0.18217857
0003e0 76 31 8a 3b cf 2b 74 3e c9 23 09 be fe c1 af 3c
       0.004217322 0.23844837 -0.13392557 0.021454807
0003f0 89 14 ad 3d c7 6d ef bd b5 85 af bc a5 c0 b8 bd
       0.084511824 -0.1169086 -0.021426061 -0.09021119

weight f4 [29, 128]
000000 3b a0 4c be 71 69 79 be 03 78 f0 3c a1 ca c7 bd
       -0.19982998 -0.24356629 0.029354101 -0.09755445
000010 4c e1 48 bc 43 62 34 be a1 6d a8 bd 1a b4 65 bd
       -0.012260746 -0.17615609 -0.08224035 -0.05607996
000020 8d 0a 01 bd 9f 87 81 3e af ba 43 bc e6 97 14 be
       -0.031504203 0.25298783 -0.011946364 -0.1451107
000030 e7 ca e5 3c c4 4e 19 be c0 b1 47 be 91 36 20 be
       0.028050853 -0.14971453 -0.195014 -0.15645815
000040 8d 66 c3 3d 13 fd 0a be 26 7d 91 3e 17 97 de 3d
       0.095410444 -0.13573103 0.28415793 0.10868662
000050 47 be 1f be 94 6f 13 be 21 f4 2e be dd 6a 3f 3e
       -0.15599929 -0.14398032 -0.17085315 0.18693109
000060 37 7a a9 be eb 91 1f bd c7 12 14 3e 45 4b 2f be
       -0.33101055 -0.038957518 0.14460288 -0.17118557
000070 57 22 f5 bd 4a 28 b0 be b7 47 0d 3d 19 82 c4 bd
       -0.119694404 -0.34405738 0.03449222 -0.09595127
000080 ae 98 a2 3c 88 74 45 be 1b be b5 bc 78 24 b6 3c
       0.019848194 -0.19282734 -0.022185376 0.022234187
000090 14 4f 80 bd 22 05 64 bc 2c 19 f2 3d da f3 6e 3e
       -0.06265083 -0.013917239 0.118212074 0.2333521
0000a0 1e 0c 85 bc e1 ec 71 be 9c 0e 77 3e ef de d6 bd
       -0.01624113 -0.23625518 0.24126667 -0.1049174
0000b0 17 3a 05 3e 50 1c 5f 3b f3 97 a2 3d 8c 59 68 3c
       0.13010441 0.0034043975 0.07939138 0.014181506
0000c0 fd b9 26 be 0e ee 10 be 63 7c 8f 3c ba 18 9b 3d
       -0.16281886 -0.1415331 0.017515367 0.075730756
0000d0 bb 29 a1 be b6 10 2f 3d ca cd c4 3d f0 fe a5 3e
       -0.3147715 0.042740546 0.09609564 0.32421064
0000e0 b2 c2 29 3d 70 35 b8 3e 61 18 48 be 1b 3a e4 bc
       0.04144544 0.3597827 -0.1954055 -0.027859738
0000f0 fb 02 04 be aa 16 e6 bc 41 7a 1f be 10 15 ad bd
       -0.12891762 -0.028086979 -0.1557398 -0.08451283
000100 20 80 9b be 9d 47 13 bd 9f 3b 6a 3d dd 3d 83 3e
       -0.3037119 -0.035956968 0.057185765 0.25633135
000110 d4 25 1c bc d5 f9 0a 3e bf 97 77 3e 96 2e 00 be
       -0.009530503 0.13571866 0.2417898 -0.12517771
000120 d2 95 42 be 7f d4 4e be b9 d1 23 3d 62 75 5c be
       -0.19002464 -0.20198248 0.03999493 -0.21529153
000130 c7 92 19 be c4 1c 58 bd 0e f3 f3 bd 9e 5a 10 3e
       -0.14997397 -0.052761808 -0.119115934 0.14097068
000140 a8 c9 f9 3c 62 1b 3e bd 6d d9 1d be e2 7b 60 3e
       0.030491665 -0.046412833 -0.15414973 0.21922258
000150 13 2c 83 bd 23 a3 8a bd 4b 9a 1f 3c 28 22 8e bd
       -0.06404891 -0.06769397 0.009741376 -0.069401085
000160 f5 06 65 3e 86 21 9e 3d 8b 04 f9 bd 10 f3 56 3d
       0.22365935 0.07721238 -0.1215907 0.052477896
000170 3c 10 34 3e 7d d3 68 be 9f d4 36 be e9 be 64 3e
       0.17584318 -0.22736926 -0.17854546 0.22338451
000180 fb 3c 03 3d 47 28 c4 3d 57 07 9f be fa 97 4e 3e
       0.032040577 0.09577995 -0.31060287 0.20175162
000190 68 0d 3a 3e c2 02 3b 3d 10 66 3a bd 97 9f e1 3d
       0.18169177 0.045656927 -0.04550749 0.110167675
0001a0 01 3d aa 3d f6 a4 44 3d 56 3f 26 be 5f 5c 3b 3e
       0.08312417 0.04800888 -0.16235098 0.18296956
0001b0 9c c0 88 3d 5c a7 90 bd ed fd 1b 3e 20 06 be 3e
       0.06677362 -0.07063171 0.15233584 0.37114048
0001c0 fa 41 0b be 07 64 1b be e5 16 56 3e f1 8f 56 3e
       -0.13599387 -0.15174876 0.20907171 0.20953347
0001d0 8d 0b 4b 3e 39 38 b8 3d 49 6a 8b 3c 49 43 a2 be
       0.19828625 0.089950986 0.017018454 -0.3169196
0001e0 40 14 f4 bd 76 ef 1c 3d 38 c1 9a be fe c6 e6 bd
       -0.11917925 0.038314305 -0.3022554 -0.112684235
0001f0 a9 70 ba 3d 5f 71 b9 bd 82 9d 28 be 44 1c 93 3e
       0.091035195 -0.09054827 -0.16466334 0.28732502
000200 59 db 00 bd 4e 6d ef 3d 9d df b5 bd 52 08 09 3e
       -0.031459186 0.1169077 -0.088805415 0.1338208
000210 e5 5e c1 bc 52 64 00 3f 91 38 9e 3c 13 0c 84 bc
       -0.02360482 0.50153077 0.019314082 -0.016119039
000220 a0 4b c0 bd 7e fe 19 3d c4 f9 c7 bd 63 28 5e 3e
       -0.09389424 0.03759622 -0.09764436 0.21695094
000230 ff d3 e5 bc 43 45 63 bd af 5a 8c be 71 72 82 3e
       -0.02805519 -0.055485975 -0.27412936 0.25477937
000240 4d 9b b1 3c 0c 0a be bc 03 33 0c be b3 3b 45 3d
       0.021680498 -0.02319815 -0.13691334 0.048152637
000250 5b 8a 02 3e 8a f5 59 be 2a 04 31 bd 5e 34 b1 3c
       0.12748091 -0.21285072 -0.04321686 0.021631416
000260 18 02 04 3d 18 04 1d be bb 17 2f 3e ee 3a 3c bd
       0.03222856 -0.15333593 0.17098896 -0.045954637
000270 94 33 2a be 2d 9b 15 3e 09 37 da 3b ef 13 60 3e
       -0.16621238 0.14609976 0.0066593927 0.21882604
000280 8b 26 c7 bd f7 00 a4 3e 40 f7 9a 3e d5 47 a7 bd
       -0.09724148 0.32031986 0.30266762 -0.08167998
000290 cd 06 19 3e 75 2c 56 3c 7f fb f4 be 5c 44 e9 3d
       0.14944 0.013072123 -0.47848126 0.11389992
0002a0 ec f0 72 3d 82 2a 78 3d 79 e6 4a be 71 c1 84 be
       0.059311792 0.060587414 -0.19814481 -0.25928834
0002b0 31 4c 88 3d 90 bd c6 3d bd 5d 22 be 81 37 e0 3c
       0.06655157 0.09704125 -0.15856071 0.027370216
0002c0 7c 20 de 3e a1 8e fb bd 2a 38 7c 3c 28 82 bd 3e
       0.4338416 -0.12283064 0.01539425 0.37013364
0002d0 b4 e4 98 bd 9c 38 d5 bc 20 bb 02 bf ce c8 8e 3e
       -0.07465497 -0.02602797 -0.5106678 0.27887577
0002e0 af 6d c4 3c ab 79 6e 3e ad 28 9d 3d 40 8f 53 3e
       0.023978082 0.232886 0.07673774 0.20660114
0002f0 36 a7 d4 3e 17 a9 d7 3e b4 27 72 bd 21 e1 09 3d
       0.41533822 0.42121193 -0.059119895 0.033661965
000300 30 b3 5a 3e 2a 5e 10 3d 99 7c 85 3d 6f ec 94 be
       0.21357417 0.03524605 0.06517906 -0.29086635
000310 d0 c4 61 3d fe 33 2e 3e be ad e5 be d9 17 de 3d
       0.055119336 0.17012021 -0.44859117 0.10844392
000320 da 0a 67 3d 80 e4 9e 3e 1a 60 84 3e 59 e8 d5 bd
       0.056406833 0.31033707 0.2585457 -0.104447074
000330 69 b2 3d 3e fd a8 bf bc 79 90 10 be 3e b7 1b 3e
       0.1852509 -0.02339601 -0.14117612 0.1520662
000340 94 7a 29 be 80 1d df bc c3 c4 31 3e 0c 95 8b 3e
       -0.16550666 -0.027235746 0.17360215 0.2726215
000350 b3 16 28 be 16 ab 8d 3d 7d b4 4a 3e 05 d1 07 bd
       -0.16414909 0.06917398 0.19795413 -0.03315832
000360 1a 8f 62 3c 9b fd 34 be c5 a2 4b 3e ae 70 e4 3c
       0.013828063 -0.17674868 0.1988631 0.027885761
000370 cd 85 d0 3d fd d6 8e bd 27 e1 32 3e e7 c1 ac bd
       0.101817705 -0.069745995 0.17468701 -0.084354214
000380 f3 2a 9f 3e ed e0 07 3e 33 a5 08 ba 7f dd 37 bd
       0.31087455 0.13269396 -0.0005212605 -0.04488897
000390 45 bd a4 3d 06 77 2a 3d 2d b0 44 bd d3 76 9d bc
       0.08043913 0.041617416 -0.048019577 -0.019221699
0003a0 25 38 72 3e e5 e5 de 3d 15 39 a2 3e e5 b9 91 3d
       0.2365423 0.10883693 0.31684175 0.07115535
0003b0 a8 1e c6 3b af fb 30 be 19 33 9e be d8 60 7c be
       0.006046135 -0.1728351 -0.3089836 -0.24646318
0003c0 da 8e f5 3e 00 09 70 bd af 57 9e 3c a9 b8 5e 3e
       0.4796055 -0.058602333 0.01932892 0.2175013
0003d0 a7 ed 1d 3e fc 9f f2 3c 78 06 0b 3d 02 15 80 3e
       0.15422688 0.029617302 0.033941716 0.25016028
0003e0 aa 9a fd bd 0b 1b 69 bd 87 fd 16 bd 16 ec 93 bd
       -0.123830155 -0.056910556 -0.036862876 -0.07222764
0003f0 36 99 8a 3d dd b2 5f 3e d8 09 1f 3e cc 9d fb be
       0.06767504 0.21845575 0.15531099 -0.49143827

bias f4 [29]
000000 6a 79 d1 3e 95 04 36 be 81 de d5 3e 17 9e 2a 3e
       0.40912944 -0.17775185 0.4177132 0.16661869
000010 53 09 c9 3e 83 9b ad be 1f 71 7d be f0 9c a5 be
       0.39264926 -0.3390771 -0.24750184 -0.32346296
000020 93 11 5a 3e b2 3b 51 bf 53 05 30 bf 18 6c 4e 3e
       0.21295767 -0.8173171 -0.68758124 0.20158422
000030 35 95 98 3d 58 97 de 3e 37 8e 10 3e cf 18 20 bd
       0.07450334 0.4347484 0.1411675 -0.03908616
000040 ee b2 61 bf a5 f7 c1 3e 94 a2 85 3e 34 00 d7 3e
       -0.8816365 0.3788425 0.261006 0.41992342
000050 30 67 2b be 6d 32 07 bf 55 35 1c bf 8e 84 6a bf
       -0.16738582 -0.5281132 -0.6101888 -0.9160851
000060 46 21 3b bf c5 06 3f bf 81 39 84 bf 6d 8e 3e be
       -0.73097646 -0.74619704 -1.0330049 -0.18609019
000070 3c 54 94 bf
       -1.1588206
