models/LSTM/128/ESEN_60-40/ESEN_60-40_4_threshold_val_30.pt (torch, 353807 bytes, 7 tensors)

weight f4 [29, 32]
1.6056304 -1.4375336 -1.1994262 -0.6179699 -0.8741094 -0.58953893 -1.9712366 1.5287118
0.45494252 -0.23314865 -0.53716105 0.32343516 -1.2031033 0.9220015 -0.9923954 -0.63324636
0.20373662 0.18533762 0.57840836 -0.8006812 -1.017737 0.11546342 0.14144363 1.7260085
-0.5734012 0.15853205 0.52198994 -0.11097643 -0.3146584 1.12957 0.21035305 -1.098479
1.4302859 -0.47131404 0.40547952 1.7137867 -0.43903413 1.2923858 -0.20030892 -0.57547987
0.6628303 -1.2837143 1.5289015 -0.32882395 0.8954914 0.944223 1.0027908 1.2031611
-0.61353296 2.3733585 -1.4130491 -0.033187006 -1.0585183 -1.8769829 0.9085629 0.8029026
-1.2569257 0.1733848 2.2260873 1.7688018 0.08843444 -0.9772421 0.9122949 -1.2083143
1.3650168 -1.5518339 0.19588934 1.2279152 0.2119254 -1.91043 -0.4626358 -2.160548
0.8214561 0.410644 0.9841189 -0.73537105 -0.10839976 -1.158537 2.3241484 -0.6004304
-0.7867735 -1.2190962 -0.18227306 1.2379934 -1.836023 0.6956422 -1.4095311 0.24943618
-0.2480259 1.0907218 0.15364203 3.1932578 -1.028522 1.3069049 1.5466591 0.19553113
0.33238387 -0.5654967 0.7788718 0.36301908 -1.9144996 0.61037856 0.4929449 -1.6585892
-1.0033511 -1.3555576 -0.56325954 -0.58751893 -1.8063003 0.21290304 -1.3371329 -0.11900094
-0.48683706 -0.87144226 0.048477884 0.9184715 -0.47666338 0.94103694 -0.7807198 1.5949984
1.6200241 -0.4939168 1.1315867 0.55116427 -0.61320543 1.9715803 0.4554724 0.10784998
0.14814198 -0.09836635 -1.3053417 -0.10276219 -0.6217922 -0.17219996 -0.2460701 -0.015334624
-0.056721956 2.5408814 -1.7597158 -1.3166744 -0.43576348 0.21489367 -0.80386204 2.5668218
0.5669947 0.37117115 0.3972564 -2.3326292 1.0551736 -1.2073483 -1.3850058 1.5383205
-0.8589238 -0.19275731 -1.4670976 -0.25269172 -1.3382767 -0.5664171 0.38956693 1.6308882
-1.0831107 0.42222565 1.8796697 2.025041 0.26845828 -0.46428546 -0.6463559 1.1123526
-0.38570428 2.1395226 1.1544768 1.4338349 0.0788954 -1.547431 -2.3358169 -0.75280684
-0.37907028 2.1991477 0.29178554 1.0217265 0.7341127 0.140063 -0.57272315 1.8539878
-0.30571046 -0.13379169 -0.5595136 -0.23980655 1.800808 0.43782407 1.3513966 -0.45944354
0.6260125 -0.071049035 0.6175265 1.984943 1.3443259 -0.94636565 0.76061493 1.0195273
-0.22325109 0.78426856 -0.47395515 0.5810393 0.26557237 -0.4367924 -0.46199393 -0.9248071
-0.43368042 -0.059304096 0.16476245 0.5227024 -0.6597558 0.7100269 -0.99996436 0.22818232
0.23438647 0.6684447 -1.0293031 0.2293083 1.9462286 -0.17120911 -1.9440932 1.6281571
2.1476398 1.0162185 -1.255122 0.01725536 0.6702085 -0.443044 0.31049088 0.9369356
-0.5914487 -0.83247393 -0.27881503 0.048131637 0.23165786 0.6104173 -0.448772 -0.46082118
-0.38314235 0.04046564 -1.3193271 -0.16087252 -0.7037427 -2.014737 -0.15364587 1.295098
1.1733433 -1.4598826 0.899834 1.3268952 1.4377239 -1.3174049 -0.7354102 0.84225386
00000000: 4c85 cd3f 1a01 b8bf cc86 99bf 4633 1ebf
00000010: a2c5 5fbf 06ec 16bf 7b51 fcbf d4ac c33f
00000020: 3aee e83e 85be 6ebe 6383 09bf 4b99 a53e
00000030: 4aff 99bf 4a08 6c3f a00d 7ebf 6f1c 22bf
00000040: 55a0 503e 25c9 3d3e 9212 143f 71f9 4cbf
00000050: 3545 82bf 1678 ec3d 99d6 103e d9ed dc3f
00000060: 6cca 12bf 3a56 223e 22a1 053f 9c47 e3bd
00000070: e81a a1be c095 903f ca66 573e f69a 8cbf
00000080: 9c13 b73f 1350 f1be 039b cf3e 5d5d db3f
00000090: 15c9 e0be e66c a53f c81d 4dbe a652 13bf
000000a0: 3faf 293f c050 a4bf 0bb3 c33f 9d5b a8be
000000b0: ed3e 653f 99b8 713f 735b 803f 2f01 9a3f
000000c0: 7f10 1dbf 1be5 1740 cbde b4bf 19ef 07bd
000000d0: 877d 87bf fa40 f0bf 9497 683f 068b 4d3f
000000e0: f1e2 a0bf c98b 313e 3778 0e40 1968 e23f
000000f0: 1e1d b53d 8a2c 7abf 298c 693f 0baa 9abf
00000100: dfb8 ae3f 7ea2 c6bf 3797 483e 532c 9d3f
00000110: f902 593e f888 f4bf 99de ecbe 6b46 0ac0
00000120: f24a 523f ee3f d23e 37ef 7b3f 4741 3cbf
00000130: b200 debd f14a 94bf d9be 1440 cfb5 19bf
00000140: fd69 49bf 580b 9cbf caa5 3abe 9176 9e3f
00000150: cd02 ebbf 9b15 323f 846b b4bf 336c 7f3e
00000160: 80fa 7dbe c69c 8b3f 5654 1d3e 565e 4c40
00000170: 9ca6 83bf a948 a73f edf8 c53f 5039 483e
00000180: 382e aa3e 64c4 10bf 2464 473f a3dd b93e
00000190: 530e f5bf c541 1c3f 4663 fc3e a74c d4bf
000001a0: cf6d 80bf e982 adbf c731 10bf a467 16bf
000001b0: d934 e7bf 4103 5a3e 2c27 abbf c4b6 f3bd
000001c0: b542 f9be d716 5fbf bf90 463d f320 6b3f
000001d0: 390d f4be cce7 703f 41dd 47bf e828 cc3f
000001e0: f35c cf3f aae2 fcbe d5d7 903f 1a19 0d3f
000001f0: 08fb 1cbf be5c fc3f ae33 e93e 73e0 dc3d
00000200: 88b2 173e 4c74 c9bd 7015 a7bf fc74 d2bd
00000210: c62d 1fbf 3055 30be cdf9 7bbe 133e 7bbc
00000220: 4855 68bd cd9d 2240 5e3e e1bf c988 a8bf
00000230: 641c dfbe 160d 5c3e e7c9 4dbf cf46 2440
00000240: 9126 113f 250a be3e 3165 cb3e cc49 15c0
00000250: ee0f 873f 648a 9abf df47 b1bf b0e7 c43f
00000260: 6ee2 5bbf 2c62 45be dbc9 bbbf cf60 81be
00000270: a74c abbf b600 11bf 5175 c73e f2c0 d03f
00000280: 5fa3 8abf f62d d83e 0499 f03f 469a 0140
00000290: 5d73 893e d3b6 edbe 9577 25bf 9261 8e3f
000002a0: 087b c5be f0ed 0840 e5c5 933f e787 b73f
000002b0: e993 a13d 3812 c6bf 067e 15c0 f3b7 40bf
000002c0: 8015 c2be d6be 0c40 ea64 953e efc7 823f
000002d0: cfee 3b3f ad6c 0f3e fc9d 12bf 794f ed3f
000002e0: 1586 9cbe b000 09be 493c 0fbf d98f 75be
000002f0: e080 e63f 7a2a e03e 90fa ac3f 2f3c ebbe
00000300: 5b42 203f 2882 91bd 3716 1e3f 9d12 fe3f
00000310: df12 ac3f 0545 72bf a9b7 423f df7f 823f
00000320: ef9b 64be d3c5 483f 40aa f2be febe 143f
00000330: 1af9 873e 41a3 dfbe 788a ecbe 28c0 6cbf
00000340: 5c0b debe dae8 72bd 7db7 283e d3cf 053f
00000350: c2e5 28bf 53c4 353f aafd 7fbf a0a8 693e
00000360: 0203 703e 311f 2b3f 34c0 83bf cccf 6a3e
00000370: 051e f93f 7151 2fbe 0cd8 f8bf 7467 d03f
00000380: ee72 0940 7313 823f d6a7 a0bf 1d5b 8d3c
00000390: c992 2b3f aad6 e2be a9f8 9e3e 03db 6f3f
000003a0: 2f69 17bf 031d 55bf d8c0 8ebe ae25 453d
000003b0: b837 6d3e 4f44 1c3f 72c5 e5be c1f0 ebbe
000003c0: 3c2b c4be 4dbf 253d b6df a8bf c4bb 24be
000003d0: 7b28 34bf 73f1 00c0 5855 1dbe c5c5 a53f
000003e0: 1d30 963f 6fdd babf 855b 663f b4d7 a93f
000003f0: 5607 b83f b9a0 a8bf d843 3cbf f39d 573f

weight_ih_l0 f4 [512, 32]
-0.077670984 0.09660578 0.0246088 0.07317746 0.04347307 0.019739406 0.13133517 -0.03642277
-0.045292143 -0.008973809 0.11608959 -0.010389405 0.15965095 -0.12950806 -0.109025314 0.029752329
-0.016441211 0.04254607 -0.088333234 0.12290428 -0.018619142 -0.105120495 0.059975218 0.10709987
0.041020714 0.12877074 0.17320944 -0.054089297 0.03400762 0.04286469 0.027780185 0.16499688
0.015451154 -0.13300854 0.040102113 -0.12629318 -0.113205045 -0.0041281665 -0.0889333 -0.17338316
-0.11527575 0.022929117 -0.05164138 0.12997739 0.049204405 -0.03204684 -0.10418796 -0.009685688
-0.103595905 0.0645416 -3.812105e-06 0.111121155 -0.13672933 0.13323484 0.0461117 0.008027788
-0.14133729 0.11499315 -0.038489033 0.075029664 0.14775813 -0.06382427 0.0027656304 0.0148363225
0.066382766 -0.13623653 -0.1435831 -0.060784902 -0.12891293 -0.12400902 0.040067617 -0.052345846
0.07454939 0.10933911 -0.025283681 0.12665582 0.12552188 -0.022786926 0.004665289 0.01897656
-0.011011101 0.06294014 -0.05162425 0.0087139625 -0.0982715 0.046543613 -0.034564327 0.061265375
-0.072359376 -0.0020505723 0.025965223 -0.06708935 -0.03924571 0.059586108 -0.026535373 0.13367212
0.18129922 0.017091874 -0.11216854 0.16588928 0.14174041 -0.097313195 -0.014228142 0.0049192347
-0.0022520479 0.07895844 0.022261407 -0.16081193 0.10690514 -0.16483681 -0.009325979 0.13438539
-0.09732785 0.07970762 0.008843077 -0.07439068 -0.1573322 -0.024083968 0.005326263 0.053498175
0.085700475 0.19061586 -0.02825256 0.04922897 0.070347704 0.07307886 -0.004675243 -0.08539608
0.029987667 -0.10419257 0.017576706 -0.070771776 -0.046797883 -0.057543635 -0.072544165 -0.16622742
0.025085984 -0.09074829 -0.11275402 -0.029327648 0.041422635 -0.032682784 -0.01911758 -0.023029158
-0.0012174856 -0.020946238 -0.047315586 0.11555183 -0.05289805 0.036920562 0.027155135 0.11909033
-0.06387097 0.10289696 0.0063376282 0.0847406 -0.069009416 -0.035582036 0.14497095 -0.11314606
0.10573055 -0.11420828 -0.030231554 -0.028605726 -0.016823184 -0.040679794 -0.12808685 -0.1361483
-0.0029031704 -0.0460939 0.004458884 0.05836942 -0.00694298 0.07196852 0.026139457 -0.065991126
0.148208 0.054424345 -0.042152375 0.005413037 -0.07450549 0.044230726 0.061275303 0.101365514
-0.020731729 0.035116658 0.034668468 0.10117128 -0.0074679493 0.05465662 0.031781405 -0.06875912
0.022104187 -0.037413858 -0.05515672 -0.038757917 0.0865305 -0.11810609 -0.017209144 -0.07564835
0.03569069 0.002468535 0.041335236 0.04546811 0.14973952 -0.04317951 0.074770585 0.034280166
0.07420348 -0.011520964 0.047595344 -0.054747142 0.0049677026 -0.14509544 -0.0012099865 -0.002053849
-0.16732287 0.026435276 -0.07346537 -0.020706058 -0.019606043 -0.112888165 -0.029831365 0.116164625
-0.03945469 -0.11552651 -0.008607992 -0.078595504 -0.067333356 -0.025241183 0.049209047 -0.035213042
0.12814875 0.09664259 -0.06170535 0.017318837 -0.018150918 0.06441752 -0.0134338355 -0.0009862987
-0.123577625 -0.0075512067 -0.0059515205 -0.0041962564 -0.0004448865 -0.005273697 0.06993978 0.11339666
-0.029135797 0.12357518 0.060703877 -0.07379327 -0.06325774 0.099316366 0.013030111 -0.029667404
00000000: f711 9fbd 40d9 c53d 6598 c93c 10de 953d
00000010: d110 323d 89b4 a13c ba7c 063e 0b30 15bd
00000020: 4184 39bd e206 13bc 61c0 ed3d 5338 2abc
00000030: 8a7b 233e c39d 04be aa48 dfbd 28bb f33c
00000040: b8af 86bc ca44 2e3d 0ee8 b4bd 3db5 fb3d
00000050: 2c87 98bc 6a49 d7bd 93a8 753d 2d57 db3d
00000060: 5605 283d 7adc 033e d15d 313e bd8c 5dbd
00000070: 934b 0b3d e392 2f3d 4593 e33c f1f4 283e
00000080: d626 7d3c 6433 08be 1d42 243d 0053 01be
00000090: 0cd8 e7bd 9245 87bb a922 b6bd 5b8b 31be
000000a0: b115 ecbd d8d5 bb3c e985 53bd cb18 053e
000000b0: 8f8a 493d 8c43 03bd 7f60 d5bd b8b0 1ebc
000000c0: 172a d4bd 632e 843d 77d3 7fb6 7d93 e33d
000000d0: c602 0cbe b76e 083e 9fdf 3c3d fc86 033c
000000e0: b9ba 10be 8781 eb3d ada6 1dbd 27a9 993d
000000f0: e84d 173e 4db6 82bd 943f 353b 0c14 733c
00000100: b0f3 873d 9781 0bbe 7307 13be 97f9 78bd
00000110: c001 04be 71f8 fdbd f11d 243d 9968 56bd
00000120: 5aad 983d 2fed df3d b91f cfbc 10b2 013e
00000130: cf88 003e a6ab babc 48df 983b bb74 9b3c
00000140: e867 34bc c3e6 803d f373 53bd 02c5 0e3c
00000150: 9142 c9bd 84a4 3e3d 5393 0dbd 67f1 7a3d
00000160: 2731 94bd e562 06bb 05b5 d43c 2466 89bd
00000170: 1cc0 20bd 9010 743d b660 d9bc 58e1 083e
00000180: 81a6 393e 4204 8c3c 9fb8 e5bd e1de 293e
00000190: 6624 113e 244c c7bd 271d 69bc 8831 a13b
000001a0: 1897 13bb f6b4 a13d 8e5d b63c e2ab 24be
000001b0: 15f1 da3d fbca 28be fecb 18bc 539c 093e
000001c0: d353 c7bd c03d a33d 8ee2 103c 245a 98bd
000001d0: b11b 21be be4b c5bc ef87 ae3b e720 5b3d
000001e0: bb83 af3d ce30 433e ea71 e7bc 51a4 493d
000001f0: 7512 903d 5faa 953d c832 99bb 24e4 aebd
00000200: b2a8 f53c ea62 d5bd 06fd 8f3c cbf0 90bd
00000210: 23af 3fbd e0b2 6bbd 0992 94bd 8537 2abe
00000220: 1f81 cd3c 3dda b9bd 94eb e6bd 8940 f0bc
00000230: c8aa 293d 62de 05bd 799c 9cbc a5a7 bcbc
00000240: 0a94 9fba 7297 abbc fdcd 41bd 70a6 ec3d
00000250: a0ab 58bd 043a 173d 7274 de3c a2e5 f33d
00000260: c8ce 82bd a4bb d23d e1ab cf3b 7b8c ad3d
00000270: cf54 8dbd 78be 11bd 4473 143e 1fb9 e7bd
00000280: 4289 d83d 08e6 e9bd 2aa8 f7bc 8e56 eabc
00000290: c6d0 89bc db9f 26bd 3329 03be 766a 0bbe
000002a0: 1e43 3ebb f5cc 3cbd d41b 923b c614 6f3d
000002b0: f081 e3bb 3b64 933d 6a22 d63c 5b26 87bd
000002c0: d7c3 173e 10ec 5e3d f8a7 2cbd d85f b13b
000002d0: 5696 98bd 472b 353d d0fb 7a3d b998 cf3d
000002e0: 96d5 a9bc 7cd6 0f3d 8600 0e3d e332 cf3d
000002f0: b3b5 f4bb 9fdf 5f3d 382d 023d 95d1 8cbd
00000300: d713 b53c 463f 19bd 03ec 61bd 9fc0 1ebd
00000310: e736 b13d 9be1 f1bd 31fa 8cbc 86ed 9abd
00000320: 6730 123d 25c7 213b 234f 293d c53c 3a3d
00000330: 5155 193e ffdc 30bd 5221 993d 5c69 0c3d
00000340: fef7 973d 6dc2 3cbc 56f3 423d 8a3e 60bd
00000350: 1cc8 a23b e693 14be 6998 9eba de99 06bb
00000360: b056 2bbe cb8e d83c 0375 96bd c09f a9bc
00000370: da9c a0bc e931 e7bd e860 f4bc b8e7 ed3d
00000380: 3e9b 21bd 2a99 ecbd 8908 0dbc aef6 a0bd
00000390: 12e6 89bd 99c6 cebc 6d8f 493d 8d3b 10bd
000003a0: 6d39 033e 8dec c53d c0be 7cbd 3ce0 8d3c
000003b0: 3cb1 94bc 55ed 833d 9719 5cbc b146 81ba
000003c0: 4416 fdbd 1d70 f7bb f904 c3bb c080 89bb
000003d0: a83f e9b9 face acbb 963c 8f3d 823c e83d
000003e0: 32ae eebc fc14 fd3d a1a4 783d ed20 97bd
000003f0: 468d 81bd 6166 cb3d 3f7c 553c 0e09 f3bc

weight_hh_l0 f4 [512, 128]
0.008806842 -0.09534879 0.087606855 0.0366922 0.011834872 0.021693025 0.043794323 -0.029828433
0.09163639 0.021220954 -0.032788593 0.11570493 0.05968634 -0.05694947 -0.107889116 0.028701613
-0.13259508 -0.03334964 0.039842777 -0.013810706 -0.05248177 -0.016699594 0.022028415 -0.015627181
-0.04379174 0.0028636383 -0.07797794 -0.10920677 -0.013077035 0.06889726 0.024711978 -0.04156281
0.105692536 0.046210267 -0.11787224 -0.02234711 0.028996062 -0.11270986 -0.014640735 -0.0530377
-0.024915388 0.070023 0.09289891 0.04156955 0.045527104 -0.0594632 -0.009647574 -0.09922124
-0.08898314 -0.0015494406 0.091199115 0.020812703 0.08543542 0.022359282 -0.12904704 0.060546797
-0.007440091 0.030006818 0.13175048 0.008961467 0.05792686 -0.08001262 -0.026296915 -0.031390063
0.064095825 0.070295736 0.11845592 0.009987482 0.12729739 0.0049369084 -0.070953 0.032531973
0.02731292 -0.07158703 0.10822083 0.040580202 0.04961199 0.047146667 0.06799286 0.09890247
0.050069336 0.14962965 0.05747969 0.024125144 -0.031048762 0.011138263 -0.033444308 -0.04260662
0.06288912 0.22378267 0.12841454 0.12424617 0.0316707 -0.0148364175 -0.03816397 -0.08446971
0.0655791 0.02467127 0.070596084 0.040586613 -0.1386589 0.030316059 -0.03189067 -0.12430975
0.006943203 -0.00088010024 0.010309864 0.04743272 -0.049386203 -0.0031322879 0.018765146 -0.012186866
-0.047347326 -0.028018948 -0.022880953 0.10274711 0.12236397 0.110067576 0.08898513 0.050601296
0.033327274 0.07547585 -0.035189174 -0.048594516 -0.0057204817 0.066470295 -0.019880783 0.0057183704
0.1084431 -0.14377493 0.07546399 0.040015977 0.075679585 -0.0344657 0.016761983 -0.0899201
0.02442607 -0.023524404 0.14126565 -0.06189632 -0.010967088 -0.058567017 -0.094817 -0.06038273
-0.040729653 -0.014885283 0.10157518 0.053702146 -0.0004813966 0.0763721 -0.047862936 -0.06074112
0.037436757 0.00077334774 -0.09683846 -0.14819883 -0.032571957 -0.0033181314 -0.009851999 -0.04925876
0.14852658 -0.12363204 0.015969114 -0.03345739 0.032897178 -0.11235068 -0.18831764 -0.08225439
0.1069364 0.049500387 0.076249026 -0.03128652 1.0291749e-05 0.07709441 0.11983402 -0.04752433
0.012435765 -0.100674175 -0.037683297 -0.058184374 0.033019785 -0.03830533 -0.13298218 -0.07370974
-0.04568391 -0.070139125 -0.060518827 -0.09033628 0.14042698 -0.06714991 0.062254198 0.11352926
-0.05667336 0.068515316 0.020503277 0.05842819 0.05413204 -0.05509394 -0.049364813 -0.030052653
0.07247628 -0.09255914 0.075068735 -0.10588767 0.057389624 0.033022985 0.0073040635 0.11549971
0.045586362 0.1766901 0.05649971 -0.067453295 -0.010145471 0.1268897 -0.13115239 0.08048701
-0.026571237 -0.01316629 -0.03474016 0.110735536 0.00951546 0.020848684 -0.021435916 0.061987706
0.10432127 0.08716086 0.016806468 -0.005422951 -0.028415475 0.0015946875 0.06610514 -0.0058614556
-0.082051635 0.16168115 -0.075283095 0.0807332 0.032966293 0.044299014 0.007471869 0.04940115
-0.04041773 2.3566861e-05 0.054478917 0.14232832 -0.006008709 -0.044085164 0.034410115 0.12357242
-0.13316894 -0.005140101 0.11575313 0.09130305 -0.06696914 -0.0071551707 -0.012819037 -0.03326982
00000000: 934a 103c 3a46 c3bd 396b b33d 8f4a 163d
00000010: 0de7 413c 92b5 b13c ad61 333d c25a f4bc
00000020: dcab bb3d 91d7 ad3c 554d 06bd b5f6 ec3d
00000030: aa79 743d d943 69bd f8f4 dcbd a51f eb3c
00000040: 01c7 07be a299 08bd 2e32 233d 4d46 62bc
00000050: 20f7 56bd 96cd 88bc ef74 b43c 9304 80bc
00000060: f85e 33bd e1ab 3b3b e6b2 9fbd cda7 dfbd
00000070: 0f41 56bc 021a 8d3d c670 ca3c c43d 2abd
00000080: 5475 d83d fa46 3d3d 0067 f1bd 4911 b7bc
00000090: 2689 ed3c 6dd4 e6bd b2df 6fbc 0f3e 59bd
000000a0: 5b1b ccbc 3868 8f3d c941 be3d d544 2a3d
000000b0: a17a 3a3d af8f 73bd dc10 1ebc 8134 cbbd
000000c0: cb3c b6bd 9916 cbba 9ac6 ba3d 677f aa3c
000000d0: c4f8 ae3d d02a b73c e824 04be ebff 773d
000000e0: 02cc f3bb dcd0 f53c 99e9 063e 1ed3 123c
000000f0: b744 6d3d a8dd a3bd a16c d7bc de92 00bd
00000100: ac44 833d 36f7 8f3d 0499 f23d 89a2 233c
00000110: 3f5a 023e cac5 a13b ce4f 91bd 3f40 053d
00000120: 58bf df3c 399c 92bd e2a2 dd3d 6d37 263d
00000130: f135 4b3d dd1c 413d d73f 8b3d 618d ca3d
00000140: 8115 4d3d 8438 193e d36f 6b3d 18a2 c53c
00000150: f959 febc 437d 363c e6fc 08bd 4784 2ebd
00000160: 03cc 803d 4927 653e 1a7f 033e c774 fe3d
00000170: 23b9 013d 7214 73bc d351 1cbd 75fe acbd
00000180: 564e 863d 671b ca3c ae94 903d 263e 263d
00000190: 99fc 0dbe 6259 f83c cb9f 02bd 1c96 febd
000001a0: cf83 e33b 87b6 66ba b4ea 283c d048 423d
000001b0: 3049 4abd 1247 4dbb 5db9 993c 6cab 47bc
000001c0: 45ef 41bd fe87 e5bc d670 bbbc 146d d23d
000001d0: f699 fa3d 1c6b e13d d63d b63d 4e43 4f3d
000001e0: 2e82 083d 1593 9a3d 8622 10bd 0b0b 47bd
000001f0: e172 bbbb 9421 883d 06dd a2bc 2b61 bb3b
00000200: 6a17 de3d bc39 13be dd8c 9a3d cbe7 233d
00000210: e6fd 9a3d e82b 0dbd 6d50 893c 0828 b8bd
00000220: 2e19 c83c 40b6 c0bc f1a7 103e ff86 7dbd
00000230: 4daf 33bc f8e3 6fbd 6a2f c2bd e253 77bd
00000240: 23d4 26bd 67e1 73bc a606 d03d c8f6 5b3d
00000250: f563 fcb9 fa68 9c3d ed0b 44bd aecb 78bd
00000260: 4957 193d 7dba 4a3a 3e53 c6bd 6fc1 17be
00000270: 2c6a 05bd 0275 59bb 476a 21bc 8ec3 49bd
00000280: 5a17 183e cc32 fdbd a9d1 823c 9e0a 09bd
00000290: 31bf 063d 1d18 e6bd 57d6 40be fd74 a8bd
000002a0: 7901 db3d ebc0 4a3d 7328 9c3d 4b26 00bd
000002b0: baaa 2c37 ade3 9d3d 8a6b f53d dfa8 42bd
000002c0: 61bf 4b3c 432e cebd cd59 1abd bd52 6ebd
000002d0: c13f 073d 0de6 1cbd 7b2c 08be 22f5 96bd
000002e0: 0d1f 3bbd 1aa5 8fbd 97e2 77bd 3a02 b9bd
000002f0: 17cc 0f3e e485 89bd 42fe 7e3d 0782 e83d
00000300: 5322 68bd c251 8c3d 7df6 a73c 6652 6f3d
00000310: 8fb9 5d3d 2faa 61bd c232 4abd fb30 f6bc
00000320: 726e 943d a58f bdbd a3bd 993d a2db d8bd
00000330: 6211 6b3d 1c43 073d ed56 ef3b 1d8b ec3d
00000340: c4b8 3a3d 40ee 343e 3d6c 673d f424 8abd
00000350: 3139 26bc 60ef 013e d04c 06be 60d6 a43d
00000360: ecab d9bc 6cb7 57bc b34b 0ebd 50c9 e23d
00000370: bbe6 1b3c dcca aa3c 609a afbc d2e6 7d3d
00000380: 64a6 d53d 6581 b23d b8ad 893c 03b3 b1bb
00000390: 92c7 e8bc d504 d13a 2262 873d 7411 c0bb
000003a0: b00a a8bd be8f 253e 062e 9abd 7357 a53d
000003b0: aa07 073d e272 353d 94d6 f43b dc58 4a3d
000003c0: 108d 25bd 73b1 c537 4925 5f3d 84be 113e
000003d0: b4e4 c4bb a592 34bd 9ff1 0c3d 8913 fd3d
000003e0: 705d 08be 4b6e a8bb fa0f ed3d 18fd ba3d
000003f0: 1e27 89bd ec75 eabb f006 52bc ef45 08bd

bias_ih_l0 f4 [512]
0.049070135 0.16403948 -0.029711578 0.054880943 -0.011442209 0.11408568 -0.034462217 0.1076774
0.09362747 0.034108456 0.036913317 0.085447036 0.13990751 0.17222741 0.07615986 0.016478859
0.14966674 0.023039177 -0.059560135 0.011718818 0.040510256 -0.044489086 0.115966 0.046882145
-0.02039947 0.100671455 0.034825943 0.093843706 0.06695883 0.0812981 0.017761592 0.08086735
0.14244741 0.0737785 0.09234418 0.12788212 0.12969607 -0.021057494 0.073527075 0.024055922
-0.03379554 0.03416543 0.045862775 0.14204927 -0.036567032 0.069672816 0.13650854 0.018883443
0.089263 0.14561197 0.11827638 0.056598205 0.13397153 0.06660537 -0.021919167 0.13527516
0.11234433 0.036875848 0.079850055 0.004440417 0.054025352 0.058109228 0.121922076 0.118067175
-0.00024896386 0.10363962 0.12958047 0.022393767 0.055109084 -0.043288168 -0.010176875 0.09603744
0.075675905 0.064257115 0.11268484 0.0909281 0.036705602 0.10739952 0.11573941 0.17261049
0.039629724 0.055033945 -0.011895741 0.15919372 0.008330608 0.046182238 0.02067984 -0.024145955
0.04641373 0.0490391 0.16443656 0.08475063 0.15496923 0.0061739325 -0.006908642 0.06703867
0.036399774 0.13084185 0.038791403 -0.030205533 -0.006993716 -0.04920266 0.05131026 0.010675752
0.060955334 0.054359358 0.14583693 0.1320159 0.05793334 -0.012212654 0.045739196 0.08834714
0.0111621665 0.066567704 0.0058404785 0.007921122 -0.026939098 -0.022143709 0.033882584 0.081263274
0.021893075 0.18119654 0.05188169 0.054808475 0.056059103 -0.03068979 0.14908332 0.008080429
-0.02960572 -0.040037397 0.105942145 -0.036452312 -0.01606017 -0.05465689 -0.02032514 -0.020025847
0.058419004 0.04322324 -0.06631148 0.038296603 0.040601633 0.06578683 0.09144819 -0.030095413
0.01240305 -0.01269933 -0.0028599955 -0.06834593 0.04934634 0.06462619 -0.060936283 -0.010065148
0.02049952 -0.055683486 -0.065746054 -0.055280067 0.07891221 -0.030403981 -0.042606816 -0.052883748
-0.116407804 -0.027899506 -0.043233763 0.03645131 -0.1038209 -0.07253903 0.007843587 -0.018616915
-0.014927822 0.05432853 -0.053256776 0.07673471 0.09706843 0.00067418587 -0.01519643 -0.12377157
-0.019041544 -0.10881583 0.065401755 0.042012736 -0.0052567045 -0.010179116 0.06971604 0.033953864
-0.048556887 -0.03857904 -0.009128031 0.033253167 0.07324632 0.10365449 0.036779616 -0.07372452
0.11268021 -0.015209335 -0.043623954 -0.068746865 0.07215272 0.09801435 0.045968715 0.032732766
0.016008282 0.04036762 0.040959645 -0.06140328 -0.05907606 -0.115112066 0.103897 -0.08229864
0.061072044 -0.06959688 -0.03360799 -0.04574239 -0.07216427 -0.027142199 0.050265443 -0.10908872
0.01836616 -0.033597276 0.025050191 0.009530884 0.07165914 -0.041841798 -0.105623074 0.020922218
0.03584247 -0.06155134 -0.12255943 0.039783735 -0.045740977 0.10111263 -0.047922544 -0.055369433
0.04825929 -0.01068808 0.007371273 -0.04310049 -0.028301366 0.010269004 0.068244316 0.06012255
0.10196736 0.08751039 0.11855449 -0.03861753 0.0658209 0.035119157 -0.03863337 0.091677964
-0.0040124482 0.025387863 -0.037980974 0.05863878 -0.009896465 0.08796079 -0.009207445 0.092831574
00000000: c4fd 483d f7f9 273e b265 f3bc d7ca 603d
00000010: 1a78 3bbc c1a5 e93d 4128 0dbd f885 dc3d
00000020: c2bf bf3d 4fb5 0b3d 6b32 173d dbfe ae3d
00000030: ea43 0f3e 625c 303e b3f9 9b3d acfe 863c
00000040: 3d42 193e a8bc bc3c 54f5 73bd 4900 403c
00000050: 15ee 253d 303a 36bd 957f ed3d 7e07 403d
00000060: ca1c a7bc d62c ce3d a6a5 0e3d 2131 c03d
00000070: b621 893d 9e7f a63d c280 913c c89d a53d
00000080: bcdd 113e 2f19 973d f21e bd3d 88f3 023e
00000090: 0ccf 043e c480 acbc 5d95 963d ed10 c53c
000000a0: 316d 0abd 0df1 0b3d 9bda 3b3d 5d75 113e
000000b0: 50c7 15bd 9fb0 8e3d e5c8 0b3e 73b1 9a3c
000000c0: 85cf b63d 4e1b 153e e33a f23d 85d3 673d
000000d0: d52f 093e 6568 883d d38f b3bc 9285 0a3e
000000e0: c914 e63d 210b 173d 6d88 a33d eb80 913b
000000f0: b049 5d3d f103 6e3d 48b2 f93d 34cd f13d
00000100: 5d87 82b9 0241 d43d beb0 043e 2273 b73c
00000110: 10ba 613d ef4e 31bd e8bc 26bc 47af c43d
00000120: f8fb 9a3d 3c99 833d 4fc7 e63d 8338 ba3d
00000130: 9d58 163d 48f4 db3d c908 ed3d cec0 303e
00000140: c752 223d 466b 613d 5be6 42bc ae03 233e
00000150: 1a7d 083c 9629 3d3d c568 a93c bdcd c5bc
00000160: 531c 3e3d 39dd 483d 0f62 283e bd91 ad3d
00000170: 41b0 1e3e b34e ca3b e461 e2bb 924b 893d
00000180: ee17 153d 68fb 053e bce3 1e3d 9871 f7bc
00000190: 8b2b e5bb ba88 49bd b52a 523d 59e9 2e3c
000001a0: 4dac 793d eba7 5e3d 4756 153e 2d2f 073e
000001b0: 834b 6d3d 9517 48bc 0659 3b3d 58ef b43d
000001c0: 85e1 363c a654 883d 7c61 bf3b 98c7 013c
000001d0: 62af dcbc b966 b5bc 77c8 0a3d 5c6d a63d
000001e0: 1b59 b33c 968b 393e e581 543d da7e 603d
000001f0: 3b9e 653d 2869 fbbc 4ca9 183e c763 043c
00000200: b287 f2bc 41fe 23bd 32f8 d83d 054f 15bd
00000210: 9e90 83bc e7df 5fbd e880 a6bc 3f0d a4bc
00000220: c448 6f3d da0a 313d 50ce 87bd e6dc 1c3d
00000230: e64d 263d 3fbb 863d 3049 bb3d a88a f6bc
00000240: 2a36 4b3c da10 50bc c36e 3bbb f3f8 8bbd
00000250: 631f 4a3d bc5a 843d 5398 79bd 4ae8 24bc
00000260: 9cee a73c 5e14 64bd dea5 86bd 5a6d 62bd
00000270: ba9c a13d c511 f9bc 7c84 2ebd a19c 58bd
00000280: 3767 eebd 818d e4bc e315 31bd f84d 153d
00000290: 0da0 d4bd 588f 94bd 6382 003c 8082 98bc
000002a0: d393 74bc 9887 5e3d c723 5abd 1627 9d3d
000002b0: d0cb c63d d9bb 303a 72fa 78bc f37b fdbd
000002c0: 03fd 9bbc d5da debd 5bf1 853d 8c15 2c3d
000002d0: 6f40 acbb 4fc6 26bc 48c7 8e3d 3513 0b3d
000002e0: 96e3 46bd 0e05 1ebd bd8d 15bc 7934 083d
000002f0: 2b02 963d ce48 d43d 39a6 163d e2fc 96bd
00000300: e2c4 e63d 9330 79bc 08af 32bd 28cb 8cbd
00000310: cec4 933d bfbb c83d b149 3c3d cb12 063d
00000320: cd23 833c 8458 253d 4dc5 273d 0182 7bbd
00000330: bdf9 71bd e0bf ebbd f3c7 d43d 308c a8bd
00000340: ae26 7a3d cf88 8ebd 88a8 09bd 5f5c 3bbd
00000350: dcca 93bd 5159 debc 23e3 4d3d e869 dfbd
00000360: a174 963c 4c9d 09bd 0f36 cd3c 6d27 1c3c
00000370: 07c2 923d 4e62 2bbd e950 d8bd 1265 ab3c
00000380: 8ecf 123d 421d 7cbd 7000 fbbd 45f4 223d
00000390: e45a 3bbd 2314 cf3d 6e4a 44bd 0fcb 62bd
000003a0: 89ab 453d 0f1d 2fbc b88a f13b 248a 30bd
000003b0: 44d8 e7bc 533f 283c adc3 8b3d 1043 763d
000003c0: 43d4 d03d a638 b33d b2cc f23d 6a2d 1ebd
000003d0: 1ccd 863d 1bd9 0f3d 063e 1ebd a8c1 bb3d
000003e0: db7a 83bb 35fa cf3c f091 1bbd 382f 703d
000003f0: c824 22bc c924 b43d d3da 16bc 7b1e be3d

bias_hh_l0 f4 [512]
0.064058326 0.026589934 0.040140167 0.02366191 0.051103104 0.022393608 0.07152573 0.00369004
0.03590795 0.14426734 0.12336303 0.15897736 0.039030064 0.17558615 -0.0074679726 0.014913264
-0.0053239707 0.03533769 -0.04806155 0.13140658 0.08216723 -0.010173464 0.110109635 0.035216756
0.07600485 0.03409495 0.037710022 0.12238743 0.07101396 0.053377695 0.10669533 0.11266143
0.1866961 0.04096532 -0.020663211 0.14278154 0.14769942 -0.021714676 0.12019085 0.11343528
0.07309659 0.099912785 -0.020031111 0.095739976 0.074146435 0.050976127 0.093430534 0.061220985
0.13515884 0.069777556 0.105086036 0.103902146 0.07215666 -0.013072034 0.0022626852 0.07192526
0.057086673 0.09465506 0.06574059 0.14378837 -0.004605502 -0.017729579 0.13117382 0.10931779
0.03109049 0.022071797 0.04783074 0.07125981 0.0057655075 -0.04312755 0.124220364 0.08958266
0.026641188 0.007389247 -0.03537417 0.039096635 0.07743463 0.15302546 0.12368851 0.157871
0.15120232 0.12402602 0.012066756 0.08609319 0.009691082 0.051924694 0.011945797 0.06505548
0.0048562163 0.08115462 0.14643802 0.054498557 0.13511902 0.0775596 0.10256204 0.05633564
0.009670998 0.14374606 0.1649873 0.10512139 -0.03469572 0.07738502 0.07256746 0.1262881
-0.05490301 0.13144128 0.02610842 0.047821768 0.06611923 -0.0049794223 0.0254692 0.016080083
0.047476865 0.060453117 0.021228913 0.011655992 0.06582968 -0.015200321 -0.016658064 0.030772733
0.11379182 0.16731901 0.046800528 0.15013997 0.048947114 0.09549356 0.018420525 0.101951204
0.0810395 -0.036192223 0.05230887 -0.0046915 -0.023677303 0.110959515 -0.0069307764 -0.005483905
0.0558535 0.06559228 -0.0560164 -0.062245827 -0.049077846 0.012441506 -0.0019346565 -0.014890359
0.045735124 -0.043477032 -0.0032356489 0.0021246285 -0.096479625 0.004287864 0.04589835 0.014559268
0.08752835 0.010687901 0.07048453 -0.047592994 0.10255847 -0.06720689 -0.059306446 -0.11389917
-0.059297964 0.07544093 -0.023134405 -0.07546259 -0.09995218 0.039795686 -0.022189846 0.04884504
0.0020340532 0.10403399 -0.041986335 -0.06299351 0.044223618 0.031027824 -0.005746696 -0.081455305
0.00984748 -0.04501968 -0.026293766 -0.06638154 0.09304612 -0.0018150513 0.09286595 -0.07944494
0.077990405 0.06902006 0.03245467 -0.02835562 0.051149286 -0.036006786 0.030399414 -0.061397437
0.01723535 0.04829577 -0.050358113 -0.04218115 -0.009564083 0.06303445 0.06467626 -0.05509014
0.015074119 0.076774366 0.024375156 -0.059506144 0.05264569 -0.0038058986 0.07053932 0.009918773
0.08188216 -0.007290751 -0.034913946 -0.020425512 -0.08335343 -0.05518753 -0.06158934 -0.067674324
-0.058826905 -0.0494961 -0.044571675 0.00983285 -0.051051065 0.0872023 -0.09054921 -0.04286352
0.031300474 -0.10669199 -0.06627953 0.033069078 -0.011972555 -0.047779877 0.095073245 -0.02472577
-0.020691 -0.09015356 -0.000110765664 -0.041452184 0.028654251 -0.046420608 0.08850784 0.0005826537
0.09280797 0.07728983 0.11894524 0.084142216 -0.0029729796 0.11680897 0.021963889 0.0557623
0.016107757 -0.049715325 -0.006962171 0.021925239 0.062682636 0.0339641 -0.0096212225 0.021169147
00000000: 0331 833d 22d3 d93c 046a 243d 9fd6 c13c
00000010: 7d51 513d cd72 b73c 157c 923d 99d4 713b
00000020: 3714 133d d1ba 133e c2a5 fc3d f6ca 223e
00000030: fddd 1f3d dbcc 333e e5b5 f4bb c356 743c
00000040: b474 aebb 41be 103d 30dc 44bd 728f 063e
00000050: 4b47 a83d 9aae 26bc 2981 e13d 723f 103d
00000060: 6ea8 9b3d 25a7 0b3d d375 1a3d 43a6 fa3d
00000070: c46f 913d 92a2 5a3d 1583 da3d 09bb e63d
00000080: 432d 3f3e 40cb 273d e545 a9bc 5335 123e
00000090: 843e 173e fae2 b1bc 9f26 f63d c250 e83d
000000a0: aab3 953d 139f cc3d 4918 a4bc 5213 c43d
000000b0: 16da 973d 58cc 503d 8258 bf3d dbc2 7a3d
000000c0: 1467 0a3e 89e7 8e3d 5937 d73d a6ca d43d
000000d0: dfc6 933d 162c 56bc 8f49 143b 8d4d 933d
000000e0: b7d3 693d 83da c13d 01a3 863d 423d 133e
000000f0: c0e9 96bb 9f3d 91bc 6e52 063e 01e2 df3d
00000100: 7cb1 fe3c eacf b43c 2bea 433d aaf0 913d
00000110: 95ec bc3b 84a6 30bd 3f67 fe3d 1d77 b73d
00000120: 9f3e da3c 7f21 f23b 81e4 10bd cb23 203d
00000130: 0c96 9e3d b5b2 1c3e 6750 fd3d efa8 213e
00000140: c8d4 1a3e 5b01 fe3d a5b3 453c a051 b03d
00000150: 58c7 1e3c fdae 543d 4eb8 433c cf3b 853d
00000160: e520 9f3b 6534 a63d d9f3 153e e139 5f3d
00000170: a45c 0a3e 91d7 9e3d 0c0c d23d 33c0 663d
00000180: 1b73 1e3c 2b32 133e 6ef2 283e e249 d73d
00000190: 191d 0ebd 0a7c 9e3d 409e 943d ab51 013e
000001a0: fbe1 60bd 8b98 063e 53e1 d53c c2e0 433d
000001b0: 8569 873d 6c2a a3bb c9a4 d03c 61ba 833c
000001c0: 1a77 423d b09d 773d 42e8 ad3c c6f8 3e3c
000001d0: b6d1 863d c40a 79bc 7e76 88bc 1917 fc3c
000001e0: b00b e93d ad55 2b3e e9b1 3f3d 4bbe 193e
000001f0: c57c 483d 2192 c33d a4e6 963c cbcb d03d
00000200: 0af8 a53d 4c3e 14bd d341 563d 28bb 99bb
00000210: e7f6 c1bc be3e e33d 911b e3bb 54b2 b3bb
00000220: a4c6 643d 3f55 863d 7471 65bd 7bf5 7ebd
00000230: da05 49bd 75d7 4b3c 4d94 fdba b1f6 73bc
00000240: c154 3b3d f914 32bd 2e0d 54bb 5a3d 0b3b
00000250: 1c97 c5bd 3681 8c3b e9ff 3b3d ff89 6e3c
00000260: 1042 b33d 4e1c 2f3c 315a 903d dff0 42bd
00000270: 2d0a d23d c4a3 89bd 51eb 72bd f843 e9bd
00000280: 6ce2 72bd c680 9a3d 5d84 bdbc 218c 9abd
00000290: bbb3 ccbd cd00 233d 7bc7 b5bc bd11 483d
000002a0: c04d 053b c60f d53d ddf9 2bbd be02 81bd
000002b0: d323 353d 102e fe3c c84e bcbb 0ad2 a6bd
000002c0: 5357 213c 8e66 38bd 0666 d7bc 0bf3 87bd
000002d0: f78e be3d 04e7 edba 8130 be3d 07b4 a2bd
000002e0: 6fb9 9f3d 645a 8d3d 30ef 043d 0c4a e8bc
000002f0: ea81 513d da7b 13bd 3108 f93c e17b 7bbd
00000300: 2631 8d3c c9d1 453d 4f44 4ebd 24c6 2cbd
00000310: acb2 1cbc 3518 813d fd74 843d 33a6 61bd
00000320: 70f9 763c e13b 9d3d 68ae c73c b7bc 73bd
00000330: 02a3 573d 626c 79bb eb76 903d 5982 223c
00000340: d5b1 a73d 41e7 eebb ed01 0fbd 6753 a7bc
00000350: 34b5 aabd 520c 62bd 1b45 7cbd d698 8abd
00000360: 7bf4 70bd 6cbc 4abd ca90 36bd f619 213c
00000370: ec1a 51bd 1f97 b23d dd71 b9bd a991 2fbd
00000380: ed34 003d 5481 dabd 90bd 87bd 7173 073d
00000390: 8928 44bc d5b4 43bd c3b5 c23d b38d cabc
000003a0: 2c80 a9bc 6ea2 b8bd dd4a e8b8 c4c9 29bd
000003b0: 52bc ea3c 8923 3ebd 9943 b53d 3abd 183a
000003c0: 1b12 be3d 214a 9e3d 9099 f33d c152 ac3d
000003d0: 52d6 42bb 8b39 ef3d 9ded b33c 0267 643d
000003e0: 6af4 833c 4ca2 4bbd ec22 e4bb 8f9c b33c
000003f0: c15f 803d f11d 0b3d 55a2 1dbc eb6a ad3c

weight f4 [29, 128]
0.13743757 -0.03922047 0.13237464 -0.10289843 -0.047526125 -0.051293187 -0.09075211 -0.010366629
-0.007453129 -0.19302912 0.14146262 -0.105564915 -0.051576566 -0.097212076 -0.096697696 0.12900107
0.03607324 -0.015278176 -0.016335905 0.084156685 0.16540661 0.037652165 -0.104545064 -0.08871134
0.03612178 0.07834441 0.04157715 0.11411203 -0.1053255 0.090655915 0.012046473 0.0009963986
0.03465646 -0.0459666 0.04520493 -0.13339102 0.14509602 0.024950294 -0.04430593 -0.015784554
0.04327161 0.036108978 0.088268496 0.10300358 0.07244364 0.009147771 -0.044687074 0.1987878
0.1308813 -0.101049386 -0.16373786 0.033624023 0.07092549 -0.094197325 -0.105645925 -0.13016558
-0.08618677 0.11835759 -0.05162624 -0.15800314 -0.011767914 -0.11677648 0.02891214 0.0031933668
-0.09723336 0.14161326 0.1017374 -0.0083246 0.08078799 -0.0057310895 0.1106469 -0.032579266
0.047399 0.044588823 0.0842573 -0.06328113 0.048543785 -0.17905037 0.09448795 -0.13577747
0.054512043 0.015130858 0.06332858 -0.052390523 -0.1314773 0.09494134 -0.04782114 -0.18319704
0.081213005 -0.027970927 0.077665724 -0.042452976 0.06257604 0.11111768 0.018639322 -0.026690882
-0.035589736 0.022179713 -0.103538014 0.08904222 -0.043309014 0.11338954 0.052216154 0.1936622
-0.031084199 0.14531238 -0.0043313545 -0.058521997 -0.2513347 0.12162471 -0.11943841 0.032011822
-0.119388595 0.12601951 0.046925705 0.04423742 0.064609595 0.00015114066 -0.014403322 0.09344011
-0.08162125 -0.16284645 0.043905098 0.12258035 -0.12215823 -0.037509304 -0.041762672 -0.03620406
-0.01014151 0.027554762 0.0350062 -0.018252749 0.124367125 0.04558946 0.0015919118 -0.05262697
-0.003725967 0.107443616 -0.19848745 -0.12684901 0.032751244 -0.09556209 0.0033743577 -0.106024034
-0.11712213 0.0042033526 0.09609459 0.018491369 -0.037611417 -0.048070382 0.0750051 -0.05016108
-0.118165374 -0.08871952 -0.08301744 -0.07296237 0.025554162 0.041970015 -0.074346 0.052929
0.16511276 0.06702241 -0.00398163 -0.03746923 -0.15901183 -0.07950333 0.0093277795 -0.023514826
-0.23226637 -0.07059533 -0.014131551 0.056362823 -0.068420514 -0.050594356 0.20026276 -0.22059292
0.03602757 -0.06023561 -0.047445156 0.07497837 0.014440591 0.12648787 0.11633475 0.0010482519
-0.09891662 -0.07363737 -0.040971477 -0.030165514 0.14564386 -0.10950342 -0.015788924 -0.048071943
-0.04070013 -0.02237793 -0.04639374 0.034794893 -0.06591399 0.020671051 0.079527 -0.047958333
-0.053194854 0.0037654669 -0.20415463 0.09427544 0.06988777 0.040254783 -0.026424112 0.099273995
0.110996015 0.053928297 -0.028985772 -0.119082846 -0.024349427 0.019163594 -0.0450917 0.09998455
-0.053660225 -0.011663636 -0.017057471 0.045991767 -0.0071646795 -0.0369509 0.052451678 0.052401602
0.06166441 0.074260406 -0.16775298 -0.07811475 -0.04167706 0.03663152 0.09077897 -0.13055125
0.106427714 -0.0054618595 0.010989663 0.026048988 0.08126724 0.0015758154 -0.030163208 -0.017566945
0.075585 0.022276608 -0.02692874 -0.025392884 -0.0837463 -0.10656926 -0.12725198 -0.05852011
-0.05012441 -0.18243301 0.17632215 0.049189292 0.054897405 0.01679522 0.025250021 -0.033975612
00000000: 6fbc 0c3e a5a5 20bd 388d 073e 69bc d2bd
00000010: c1aa 42bd ce18 52bd 3edc b9bd cbd8 29bc
00000020: 6139 f4bb 6da9 45be 94db 103e 6b32 d8bd
00000030: f341 53bd 2017 c7bd 7109 c6bd db18 043e
00000040: 89c1 133d 5151 7abc e0d2 85bc 575a ac3d
00000050: 5a60 293e 2839 1a3d b91b d6bd 4bae b5bd
00000060: 6ef4 133d 0973 a03d cd4c 2a3d 91b3 e93d
00000070: e5b4 d7bd cfa9 b93d 925e 453c 9799 823a
00000080: eff3 0d3d 7947 3cbd ce28 393d a897 08be
00000090: 0d94 143e 8f64 cc3c 237a 35bd 9c4e 81bc
000000a0: 923d 313d 02e7 133d 1dc6 b43d 8af3 d23d
000000b0: 555d 943d 88e0 153c cb09 37bd 078f 4b3e
000000c0: bf05 063e fbf2 cebd e6aa 27be 58b9 093d
000000d0: 6241 913d 87ea c0bd e45c d8bd 204a 05be
000000e0: b082 b0bd 7765 f23d 0976 53bd 93cb 21be
000000f0: 35ce 40bc 8228 efbd 27d9 ec3c ce47 513b
00000100: 4922 c7bd 1103 113e b35b d03d e763 08bc
00000110: 2c74 a53d ddcb bbbb d89a e23d d671 05bd
00000120: 7425 423d c5a2 363d 178f ac3d 8999 81bd
00000130: d9d5 463d fb58 37be e682 c13d 4009 0bbe
00000140: 0548 5f3d 6be7 773c 6ab2 813d 7297 56bd
00000150: fca1 06be 9b70 c23d 1ae0 43bd 0198 3bbe
00000160: 0153 a63d 4923 e5bc 350f 9f3d 2ce3 2dbd
00000170: de27 803d ab91 e33d 7eb1 983c d6a6 dabc
00000180: 8bc6 11bd 3bb2 b53c bd0b d4bd c45b b63d
00000190: cb64 31bd c638 e83d 9be0 553d 624f 463e
000001a0: 4aa4 febc c5cc 143e 09ee 8dbb c3b4 6fbd
000001b0: f1ae 80be 6016 f93d 209c f4bd d41e 033d
000001c0: 0282 f4bd 420b 013e 2b35 403d 4c32 353d
000001d0: 0952 843d 837b 1e39 e9fb 6bbc 875d bf3d
000001e0: 0b29 a7bd 38c1 26be d5d5 333d 680b fb3d
000001f0: 182e fabd 5ba3 19bd 560f 2bbd b54a 14bd
00000200: 9328 26bc 86ba e13c a962 0f3d ca86 95bc
00000210: 31b4 fe3d 03bc 3a3d b2a7 d03a 618f 57bd
00000220: 5a2f 74bb 660b dc3d 4b40 4bbe b5e4 01be
00000230: 2b26 063d 0fb6 c3bd 5424 5d3b 2123 d9bd
00000240: badd efbd 47bc 893b 3ecd c43d 367b 973c
00000250: 6e0e 1abd 73e5 44bd 469c 993d b475 4dbd
00000260: b000 f2bd 94b2 b5bd 0c05 aabd 4c6d 95bd
00000270: f656 d13c c0e8 2b3d b742 98bd 14cc 583d
00000280: 5213 293e 0c43 893d 5578 82bb 5679 19bd
00000290: ffd3 22be a4d2 a2bd 8bd3 183c 2aa2 c0bc
000002a0: 3cd7 6dbe 4994 90bd 0588 67bc b4dc 663d
000002b0: 0e20 8cbd 073c 4fbd ae11 4d3e 1ce3 61be
000002c0: a591 133d 9db9 76bd da55 42bd 428e 993d
000002d0: 3b98 6c3c 0986 013e ea40 ee3d 7f65 893a
000002e0: cc94 cabd 30cf 96bd b5d1 27bd ab1d f7bc
000002f0: aa23 153e 5443 e0bd c657 81bc 16e7 44bd
00000300: 2eb5 26bd ec51 b7bc 5d07 3ebd 1785 0e3d
00000310: eafd 86bd 5656 a93c 0ddf a23d f56f 44bd
00000320: d9e2 59bd 0dc6 763b e90d 51be 7b13 c13d
00000330: 5221 8f3d 33e2 243d 6177 d8bc 2a50 cb3d
00000340: e151 e33d ebe3 5c3d 9273 edbc b5e1 f3bd
00000350: 7378 c7bc f8fc 9c3c 13b2 38bd b3c4 cc3d
00000360: d3ca 5bbd d618 3fbc 1cbc 8bbc dd61 3c3d
00000370: b0c5 eabb d459 17bd 92d7 563d 10a3 563d
00000380: d293 7c3d d715 983d 70c7 2bbe a0fa 9fbd
00000390: 91b5 2abd ef0a 163d 53ea b93d 3aaf 05be
000003a0: c6f6 d93d 66f9 b2bb fd0d 343c b064 d53c
000003b0: 706f a63d 978b ce3a d518 f7bc 8ee8 8fbc
000003c0: 4fcc 9a3d 6f7d b63c a999 dcbc bd04 d0bc
000003d0: 2e83 abbd fc40 dabd 584e 02be c8b2 6fbd
000003e0: 414f 4dbd b8cf 3abe cb8d 343e b67a 493d
000003f0: 1adc 603d 2196 893c 22d9 ce3c 032a 0bbd

bias f4 [29]
-0.022853544 -0.058596943 0.10003185 0.024268836 0.12019576 -0.07001511 -0.0044204593 -0.07297915
0.10347527 0.027839435 -0.043257352 0.0043864264 -0.055225648 0.03134155 0.056950435 -0.019281462
-0.022299087 0.07028409 0.064527586 0.021841804 -0.045660198 -0.05398187 -0.06583036 -0.060836002
-0.12325443 0.011621753 -0.028318359 0.08914223 0.0014740529
00000000: 5b37 bbbc 5903 70bd 80dd cc3d 70cf c63c
00000010: 3229 f63d 1564 8fbd 80d9 90bb 1876 95bd
00000020: d8ea d33d 870f e43c 9f2e 31bd 03bc 8f3b
00000030: 4a34 62bd ff5f 003d dc44 693d 28f4 9dbc
00000040: 93ac b6bc 1bf1 8f3d 0a27 843d 95ed b23c
00000050: 3006 3bbd 181c 5dbd 11d2 86bd 2c2f 79bd
00000060: d26c fcbd 2a69 3e3c e7fb e7bc 3490 b63d
00000070: 0235 c13a
